results/H2_Residual/art_daily_jumpsup/ensemble_autoencoder_weights.pth (torch, 104226 bytes, 170 tensors)

autoencoders.0.encoder.cells.0.weight_h_2 f4 [8, 8]
000000 6c f5 c7 37 1d da 4b 38 7e ea 74 38 1a e9 1e 39
       2.3836932e-05 4.8602105e-05 5.839252e-05 0.00015154891
000010 0b 5f 1e 39 46 c3 57 b9 f1 9a ef 38 69 d0 3e b9
       0.0001510346 -0.00020576743 0.00011425268 -0.00018197451
000020 a1 58 79 b8 21 cf 2d b9 45 17 54 39 94 8c 14 39
       -5.944877e-05 -0.00016575727 0.00020226564 0.0001416675
000030 84 f0 49 39 f2 ed 1f 39 e2 21 80 38 3b 25 df b8
       0.00019258453 0.00015252063 6.109827e-05 -0.00010640403
000040 2f 90 2a 38 72 95 e0 37 62 83 3e 39 c1 c7 13 36
       4.066544e-05 2.6772472e-05 0.00018168756 2.202098e-06
000050 52 4f 17 b9 f1 85 52 39 5c 79 ac 38 b2 67 dd b8
       -0.00014430031 0.00020077058 8.224204e-05 -0.00010557416
000060 87 a0 98 b8 63 b2 e4 39 39 6d aa 39 06 76 9b 38
       -7.277825e-05 0.00043620457 0.00032506304 7.4129595e-05
000070 f8 2d 53 39 aa 1c 0c b8 6c 91 8a 38 5e 28 09 b8
       0.00020139653 -3.3405297e-05 6.60744e-05 -3.270094e-05
000080 53 16 0f b9 1f d5 bc b8 71 79 86 39 89 6b 1b 39
       -0.00013645859 -9.0042355e-05 0.00025648953 0.00014822012
000090 72 7d 50 39 73 9f 9a 38 b0 3a 91 39 ba e0 fa b8
       0.00019883158 7.372992e-05 0.0002770028 -0.000119627875
0000a0 58 18 59 38 84 51 b9 b8 a9 a0 56 39 42 a2 06 39
       5.1759504e-05 -8.836671e-05 0.00020468481 0.00012839682
0000b0 c9 31 e3 39 c2 af f0 b8 3f 65 62 b5 a6 4b d4 b8
       0.00043333907 -0.00011476829 -8.4338893e-07 -0.000101230384
0000c0 5a 9e 98 b7 d1 3a a1 b6 ae 26 17 b8 4b 9e 30 b9
       -1.819355e-05 -4.805021e-06 -3.603723e-05 -0.00016843637
0000d0 fc d6 c1 38 65 d3 9a b9 66 58 3c 38 37 e7 95 b9
       9.243001e-05 -0.0002953067 4.490502e-05 -0.00028591763
0000e0 c9 f3 76 b8 99 a8 5b 39 2e 73 96 38 8c 82 15 b9
       -5.8878013e-05 0.00020948275 7.174011e-05 -0.0001425838
0000f0 3e 74 74 b9 df 0f bb b9 7e f7 3c b9 c0 45 de 38
       -0.00023312957 -0.00035679244 -0.00018021275 0.00010598777

autoencoders.0.encoder.cells.0.bias_h_2 f4 [8]
000000 00 00 00 00 00 00 00 00 00 00 00 00 00 00 00 00
       0.0 0.0 0.0 0.0
000010 00 00 00 00 00 00 00 00 00 00 00 00 00 00 00 00
       0.0 0.0 0.0 0.0

autoencoders.0.encoder.cells.0.lstm.weight_ih f4 [32, 1]
000000 a0 75 9e 38 4e ea 8f 37 2d c9 04 b9 8b d7 41 b9
       7.5559365e-05 1.7156035e-05 -0.00012663445 -0.0001848621
000010 b5 2f 01 b8 e3 24 d5 b8 c5 a7 e4 36 19 b0 67 39
       -3.0800427e-05 -0.00010163502 6.8144604e-06 0.00022095478
000020 3c 02 b5 b8 ce e1 e3 38 1a e2 23 b9 e6 be bd 38
       -8.631169e-05 0.00010866263 -0.00015629121 9.04778e-05
000030 e5 a9 8a 37 05 66 96 b9 a1 7d 1f b9 42 ba b3 b8
       1.6529995e-05 -0.0002868624 -0.00015210222 -8.570078e-05
000040 9c 5c 75 b9 3d cb d2 38 b4 cb 49 b8 20 d3 63 b7
       -0.0002339952 0.000100514364 -4.8111848e-05 -1.3579411e-05
000050 99 73 05 b9 5b e4 95 39 01 0a be 38 d6 63 89 b8
       -0.00012726932 0.00028589633 9.0617694e-05 -6.551265e-05
000060 8b a6 f3 38 95 ef 8b b9 07 10 ba 36 05 f9 b5 b7
       0.00011618164 -0.00026690649 5.545098e-06 -2.169284e-05
000070 ea 24 48 39 67 d9 61 b7 d7 31 04 b9 0f ef 49 39
       0.00019087238 -1.3461663e-05 -0.00012607068 0.0001925791

autoencoders.0.encoder.cells.0.lstm.weight_hh f4 [32, 8]
000000 e9 bc 69 b9 46 e8 a7 39 08 7f a9 b9 8b aa 84 38
       -0.00022290986 0.0003202578 -0.00032328838 6.3260166e-05
000010 da 5e fb b7 2f 09 b9 39 22 30 16 b9 1a 2b 40 b9
       -2.99657e-05 0.00035292792 -0.00014323046 -0.00018326603
000020 09 aa d4 39 2c 83 8e 39 2f fa 5d b9 7a a2 19 38
       0.00040562477 0.0002718208 -0.00021169403 3.662936e-05
000030 32 c8 fa b8 3a 50 b5 b9 d5 2c d8 b7 ac d7 94 39
       -0.00011958218 -0.00034582784 -2.5770083e-05 0.00028389448
000040 fa 31 cc 38 46 13 36 38 d1 c8 89 37 42 11 d2 37
       9.736787e-05 4.341013e-05 1.6425185e-05 2.5041987e-05
000050 f1 ec 78 38 61 4b 0b 39 75 25 4e b8 54 17 1e 39
       5.9348476e-05 0.00013284154 -4.9149112e-05 0.00015076745
000060 e9 11 95 39 a8 dc e7 38 e6 77 ae b9 ba 29 f2 b7
       0.0002843284 0.00011056039 -0.00033277198 -2.8868079e-05
000070 9b 8e ec b8 76 fb be b7 3e fd 66 b9 67 d4 35 b9
       -0.00011279919 -2.276686e-05 -0.0002202885 -0.00017340631
000080 82 82 39 37 d7 73 51 39 64 a7 cc 38 82 a1 f1 36
       1.10572455e-05 0.00019974947 9.758657e-05 7.2011617e-06
000090 1b 64 2c b9 ed 20 c6 b2 69 ae 0d b7 92 28 bd 36
       -0.0001644049 -2.3065207e-08 -8.444863e-06 5.637362e-06
0000a0 ed 6f bb b8 b7 c0 52 39 6e 3d 64 38 a9 7e c1 38
       -8.937703e-05 0.00020098953 5.4416647e-05 9.2265494e-05
0000b0 e4 0d 13 38 78 58 28 37 be 8c ec b8 5a 0c b2 38
       3.5060468e-05 1.0034179e-05 -0.00011279572 8.490002e-05
0000c0 19 f3 95 b8 93 e3 89 39 90 da 1a b9 d4 b9 d9 38
       -7.150154e-05 0.00026300232 -0.00014768005 0.000103819795
0000d0 a5 b4 02 b5 57 d3 cf 38 f6 42 7f 39 9a 1a 36 b9
       -4.8691646e-07 9.909894e-05 0.0002434364 -0.00017366782
0000e0 3e 14 42 b8 a7 0b 39 b8 c7 35 6d b9 4d 66 80 b8
       -4.6272056e-05 -4.411829e-05 -0.00022622115 -6.1225706e-05
0000f0 0d 8b 82 39 02 7d ea 36 9a 90 c7 b8 d7 95 ac 39
       0.00024899133 6.9882963e-06 -9.5159936e-05 0.00032918036
000100 ee 05 05 39 d0 cf 26 b8 a2 09 80 39 e6 bf 1e b7
       0.00012686077 -3.9771025e-05 0.0002442124 -9.462214e-06
000110 a7 68 0a b9 f2 42 1c 39 44 1a 43 b9 bb 9d 07 39
       -0.00013199692 0.00014902258 -0.00018606434 0.00012933362
000120 6b 63 e8 38 92 60 a7 b9 8f 8c 7f 38 8f b5 9a b9
       0.0001108114 -0.00031924673 6.0927643e-05 -0.0002950844
000130 b4 9c a3 39 67 8e 3b b9 30 ec 44 39 b9 28 ed b9
       0.00031206536 -0.00017886759 0.00018780003 -0.00045234503
000140 3f 0a 35 b7 d3 cf 3c 38 2f 9b 93 38 31 43 a5 b8
       -1.0790826e-05 4.5016244e-05 7.0384114e-05 -7.8803285e-05
000150 3d 08 f4 b8 c3 7a 99 b8 d8 f3 bf 39 94 81 04 b9
       -0.00011636361 -7.318475e-05 0.00036612037 -0.00012636773
000160 15 b4 39 b7 b3 89 90 b7 c6 3f b2 b7 4d 95 3f 36
       -1.1068788e-05 -1.7230259e-05 -2.124895e-05 2.8548122e-06
000170 6a 37 ea b8 48 09 4b 39 76 2d f3 b8 b1 80 eb b9
       -0.00011168311 0.00019363046 -0.00011595611 -0.00044918575
000180 90 ec bc 39 de 35 1b 39 84 3e 2f b6 42 ea 7c 38
       0.00036034407 0.00014802019 -2.611342e-06 6.029965e-05
000190 5e 63 3f b8 48 bf 04 38 ad ab 7d b9 3d cb 54 39
       -4.563049e-05 3.1649397e-05 -0.00024191914 0.00020293608
0001a0 d6 fb 23 b8 64 2e 98 39 9c 5e 8f b9 16 9a a8 38
       -3.909677e-05 0.00029026263 -0.00027345575 8.039565e-05
0001b0 c1 ba 45 37 ca 5b 2c b8 c3 b5 f8 39 94 47 6f 36
       1.1785597e-05 -4.109348e-05 0.0004743767 3.565544e-06
0001c0 37 aa 1a b8 76 fb 5e 39 66 54 bb 37 90 cb 5b b8
       -3.6874986e-05 0.00021265246 2.2331438e-05 -5.240325e-05
0001d0 dd 74 85 b9 d4 4b 12 38 81 bd 81 37 28 24 7e b8
       -0.00025454807 3.4879733e-05 1.5466243e-05 -6.0591992e-05
0001e0 1f 3e 07 39 4f 38 21 39 74 bd da b8 93 d8 10 39
       0.00012897745 0.00015375133 -0.000104303384 0.0001381359
0001f0 08 dc 25 39 a2 0d 87 38 ee 13 c8 39 a8 f1 55 39
       0.00015817594 6.439841e-05 0.0003816182 0.00020403287
000200 12 8c 20 38 0b 61 d9 39 40 5a 14 b8 0e 16 85 b7
       3.8277423e-05 0.00041461768 -3.537e-05 -1.5865106e-05
000210 a9 0f f8 38 22 98 14 39 94 6c 9f 37 85 d6 1a 39
       0.000118284785 0.00014171054 1.9004838e-05 0.00014766499
000220 03 da 0e b9 04 7f 45 b9 c1 2c 36 b9 6e 8b d8 b8
       -0.00013623391 -0.00018834701 -0.00017373545 -0.000103256534
000230 9f c0 92 38 c2 a5 40 37 66 63 8d b8 b7 dc 06 39
       6.997701e-05 1.1482685e-05 -6.741918e-05 0.00012861459
000240 e0 05 89 39 31 fe 36 b9 ed 4d 09 38 ef 74 ae 39
       0.00026135053 -0.00017451566 3.273592e-05 0.00033274989
000250 26 6b 7a 37 b8 2a 41 39 0b 24 3a 37 05 b9 e2 b8
       1.4926109e-05 0.00018421828 1.1094856e-05 -0.00010810982
000260 6a e4 6b 39 52 b8 69 36 da 99 c1 38 5f e9 ac b8
       0.00022496437 3.4826994e-06 9.231614e-05 -8.245068e-05
000270 57 ef 26 39 f1 f5 5f b9 c8 8c 2e 39 74 73 55 b9
       0.00015920155 -0.00021358558 0.00016646378 -0.00020356273
000280 9a 82 0d b9 fc c7 d8 b8 f2 b6 94 b9 ee 23 1d b9
       -0.00013495461 -0.000103369326 -0.00028365065 -0.00014986072
000290 14 41 f9 38 15 8d db 39 c1 c4 02 39 98 cf b0 b7
       0.00011885367 0.0004187605 0.00012471063 -2.1077503e-05
0002a0 64 b6 02 b9 17 7f 2b 39 03 51 e4 37 9d 7a 48 39
       -0.00012465712 0.00016355175 2.7217442e-05 0.00019119163
0002b0 03 02 9f 38 0d da 51 b9 3a 7a 38 38 91 b6 b3 b8
       7.5820855e-05 -0.00020013023 4.398285e-05 -8.569391e-05
0002c0 74 0e bc b8 ad e5 08 38 6a 42 10 b9 70 04 27 b9
       -8.967231e-05 3.263883e-05 -0.00013757651 -0.00015928014
0002d0 c6 e3 2f 39 80 01 06 b9 f5 0a 0a b8 c6 2d 29 38
       0.00016774153 -0.00012779795 -3.291197e-05 4.033537e-05
0002e0 53 bc 64 b7 9d 5f b5 38 b2 3c 97 b9 18 59 40 38
       -1.3633707e-05 8.648562e-05 -0.00028846186 4.5859342e-05
0002f0 9c 27 28 b9 ac a2 45 39 29 f0 d6 37 aa 0d 5b b8
       -0.00016036484 0.00018847984 2.5622621e-05 -5.2226394e-05
000300 32 d0 f3 38 be bf 40 b9 af b2 21 39 4f 84 74 38
       0.00011625922 -0.00018381976 0.00015420721 5.8297355e-05
000310 94 70 e9 b7 7b 5e 42 39 c1 44 50 b4 ae 7a 04 b9
       -2.7828188e-05 0.00018536478 -1.9396522e-07 -0.00012634203
000320 9f 46 ae 39 90 cc 76 b8 82 8e 54 b8 4c 45 8a b8
       0.00033240483 -5.8841484e-05 -5.067746e-05 -6.59326e-05
000330 13 ac 97 39 3b e3 14 b9 0e 29 3f b8 d0 2f 6c b6
       0.0002892917 -0.0001419903 -4.5576184e-05 -3.519457e-06
000340 ae f6 0b 38 62 8f a4 38 21 ff 40 b9 db 78 2e b9
       3.336992e-05 7.8468365e-05 -0.0001840559 -0.00016638955
000350 25 0b a1 b8 a9 7c 08 b9 f6 ba 8d 38 cb 21 07 39
       -7.679154e-05 -0.0001301641 6.758228e-05 0.00012887192
000360 85 19 a3 b9 f1 e8 c5 b8 ff 28 2c 38 a3 d6 ae 38
       -0.00031108796 -9.437081e-05 4.1046176e-05 8.336946e-05
000370 33 9a 7f b9 15 ee 79 b6 f5 6a dc b9 c7 39 96 38
       -0.00024376139 -3.7242473e-06 -0.0004204136 7.163319e-05
000380 c5 ff b6 38 cb d9 7e 38 59 a8 eb b8 5e c8 77 b8
       8.726077e-05 6.0761155e-05 -0.000112370304 -5.9075996e-05
000390 82 fa c4 b9 24 43 d1 b7 cd 0c 06 39 d1 7e b9 37
       -0.00037570676 -2.4946006e-05 0.00012784005 2.2112772e-05
0003a0 b4 df cd 37 e1 1d af b7 01 5a 12 37 1a d7 91 39
       2.4542074e-05 -2.087554e-05 8.723234e-06 0.00027816818
0003b0 c2 d6 39 b8 38 eb 88 39 34 24 3b b9 65 74 2f b7
       -4.4307446e-05 0.00026115193 -0.00017847196 -1.0457913e-05
0003c0 e8 81 b3 b9 c1 d3 5f 38 cb e5 ae b9 a4 51 8a b9
       -0.00034238328 5.3364554e-05 -0.00033359075 -0.00026382238
0003d0 65 5a dd 38 24 06 0b 39 75 c0 88 b7 04 7f 4d 39
       0.000105549385 0.0001325836 -1.6302083e-05 0.0001959764
0003e0 09 b3 93 38 a4 3d a6 38 63 bf 01 b9 e7 c9 af b9
       7.042854e-05 7.926978e-05 -0.00012373696 -0.0003352903
0003f0 ba 67 20 39 f8 0e 67 38 f0 d0 61 38 df c4 49 b9
       0.0001529743 5.5088633e-05 5.383877e-05 -0.00019242194

autoencoders.0.encoder.cells.0.lstm.bias_ih f4 [32]
000000 00 00 00 00 00 00 00 00 00 00 00 00 00 00 00 00
       0.0 0.0 0.0 0.0
000010 00 00 00 00 00 00 00 00 00 00 00 00 00 00 00 00
       0.0 0.0 0.0 0.0
000020 00 00 00 00 00 00 00 00 00 00 00 00 00 00 00 00
       0.0 0.0 0.0 0.0
000030 00 00 00 00 00 00 00 00 00 00 00 00 00 00 00 00
       0.0 0.0 0.0 0.0
000040 00 00 00 00 00 00 00 00 00 00 00 00 00 00 00 00
       0.0 0.0 0.0 0.0
000050 00 00 00 00 00 00 00 00 00 00 00 00 00 00 00 00
       0.0 0.0 0.0 0.0
000060 00 00 00 00 00 00 00 00 00 00 00 00 00 00 00 00
       0.0 0.0 0.0 0.0
000070 00 00 00 00 00 00 00 00 00 00 00 00 00 00 00 00
       0.0 0.0 0.0 0.0

autoencoders.0.encoder.cells.0.lstm.bias_hh f4 [32]
000000 00 00 00 00 00 00 00 00 00 00 00 00 00 00 00 00
       0.0 0.0 0.0 0.0
000010 00 00 00 00 00 00 00 00 00 00 00 00 00 00 00 00
       0.0 0.0 0.0 0.0
000020 00 00 00 00 00 00 00 00 00 00 00 00 00 00 00 00
       0.0 0.0 0.0 0.0
000030 00 00 00 00 00 00 00 00 00 00 00 00 00 00 00 00
       0.0 0.0 0.0 0.0
000040 00 00 00 00 00 00 00 00 00 00 00 00 00 00 00 00
       0.0 0.0 0.0 0.0
000050 00 00 00 00 00 00 00 00 00 00 00 00 00 00 00 00
       0.0 0.0 0.0 0.0
000060 00 00 00 00 00 00 00 00 00 00 00 00 00 00 00 00
       0.0 0.0 0.0 0.0
000070 00 00 00 00 00 00 00 00 00 00 00 00 00 00 00 00
       0.0 0.0 0.0 0.0

autoencoders.0.encoder.cells.0.cell_residual_transform.weight f4 [8, 1]
000000 d4 e1 83 b8 47 ba 01 b9 f8 bc 4d 39 42 43 98 38
       -6.2886305e-05 -0.00012371792 0.0001962072 7.2604525e-05
000010 75 cc 0b b7 ce 6e 1b b9 da 8b 03 39 ea 9c a5 b8
       -8.3326495e-06 -0.0001482323 0.00012545232 -7.8970406e-05

autoencoders.0.encoder.cells.0.cell_residual_transform.bias f4 [8]
000000 8b ad 1f b9 f8 96 d1 b7 0f 74 3b 39 58 16 27 38
       -0.00015228071 -2.4985042e-05 0.00017876945 3.9836712e-05
000010 fc 0b 4d 39 3e f5 f5 39 3d bb 5c 38 46 15 2b b8
       0.00019554788 0.0004691276 5.2626467e-05 -4.078939e-05

autoencoders.0.decoder.cells.0.weight_h_2 f4 [8, 8]
000000 52 ef 2a 38 69 cb 26 37 42 03 62 39 de b4 7b b9
       4.0754043e-05 9.941731e-06 0.00021554253 -0.00024004604
000010 c0 e2 d1 b9 ab 8d 03 38 c7 98 ad 36 f7 90 b7 b8
       -0.00040032528 3.1364772e-05 5.1735874e-06 -8.753122e-05
000020 4f a7 38 b8 fa 83 95 38 86 48 32 b7 49 2d 07 38
       -4.4024837e-05 7.129456e-05 -1.0626512e-05 3.2228683e-05
000030 5c 05 1a 39 37 ea 95 38 25 13 33 39 2e 49 20 b9
       0.00014688581 7.1484996e-05 0.00017077902 -0.0001528605
000040 d2 38 22 38 f1 89 99 39 2f a2 c2 37 f7 40 93 b8
       3.8676728e-05 0.00029285208 2.3202125e-05 -7.021607e-05
000050 f8 f8 08 39 d1 cf 9a b8 b2 74 9f 39 26 d8 1d 38
       0.00013062719 -7.382001e-05 0.00030413788 3.763302e-05
000060 be 5d b4 38 6e fc 11 b5 31 ef bb 38 d0 51 3d 39
       8.60053e-05 -5.4384043e-07 8.961408e-05 0.00018054922
000070 21 78 69 36 9b 8d 19 b9 27 21 95 39 e1 08 99 b6
       3.478963e-06 -0.00014643969 0.00028444195 -4.560789e-06
000080 11 fe 9e b9 9c 13 41 39 fc b8 22 39 13 c4 a7 39
       -0.00030325403 0.0001841322 0.00015518436 0.0003199881
000090 7d dd c1 37 72 fa 38 b7 13 73 c3 38 62 1c 1d b8
       2.3110531e-05 -1.1025566e-05 9.319759e-05 -3.745815e-05
0000a0 e0 fd 4d 39 9d 1a 30 39 bb b2 06 38 38 5e 28 39
       0.000196449 0.00016794582 3.2114545e-05 0.00016056828
0000b0 94 c1 77 b9 90 e2 47 39 cb db 8d 38 5f f1 8a 39
       -0.00023627869 0.0001906252 6.7643436e-05 0.00026501247
0000c0 33 42 e3 b8 2d bc 3c 39 e3 cb 8d 39 48 cf 98 b7
       -0.00010836534 0.00017999178 0.00027045523 -1.8216335e-05
0000d0 89 96 b1 b6 62 36 31 39 44 dd ef b8 cb 3f 91 39
       -5.2925357e-06 0.00016900295 -0.00011437622 0.00027704085
0000e0 cc 94 be b9 8f 93 31 b8 f7 32 39 39 e8 02 55 39
       -0.00036350486 -4.2337513e-05 0.00017661961 0.00020314346
0000f0 46 72 16 b9 61 39 3f b9 79 95 57 38 e7 54 e1 b8
       -0.00014347685 -0.00018236555 5.13992e-05 -0.0001074465

autoencoders.0.decoder.cells.0.bias_h_2 f4 [8]
000000 aa 55 50 b9 fa 62 53 38 de c2 f1 38 c6 e1 35 37
       -0.00019868338 5.03985e-05 0.00011528072 1.0841008e-05
000010 fd eb d4 37 20 75 85 37 b5 75 db 38 30 7a ef b7
       2.538226e-05 1.5909376e-05 0.000104646584 -2.8547918e-05

autoencoders.0.decoder.cells.0.lstm.weight_ih f4 [32, 1]
000000 bc 17 eb b8 20 9f b5 b8 e3 8c 6d 39 d0 c7 5f b9
       -0.00011210094 -8.660392e-05 0.00022654566 -0.00021341373
000010 70 e6 16 b9 06 2d 12 b8 62 3b 68 b7 b7 1d 01 38
       -0.0001439096 -3.4851044e-05 -1.3842104e-05 3.078367e-05
000020 70 ec 8d 38 04 3e 07 b5 fa c4 1b b9 69 16 85 38
       6.767444e-05 -5.0381664e-07 -0.00014855331 6.3461084e-05
000030 13 83 e8 b7 65 e0 6a 38 9f 78 95 b8 52 5c 39 b9
       -2.7717591e-05 5.599893e-05 -7.127341e-05 -0.00017677367
000040 7d d3 6c b9 a4 25 4c b7 18 d6 26 b8 a6 71 84 b8
       -0.000225855 -1.2168111e-05 -3.9776874e-05 -6.315419e-05
000050 37 4c 03 b9 e8 92 02 39 18 10 46 b9 3c 21 ef b6
       -0.00012521526 0.00012452493 -0.00018888747 -7.126624e-06
000060 0b 07 03 3a 90 46 94 b8 7e bc 2b b9 c0 99 8f b7
       0.0004998303 -7.070333e-05 -0.0001637805 -1.7118524e-05
000070 e7 a0 32 b9 1e 52 97 b8 35 c5 83 38 e6 0c fe 37
       -0.00017035344 -7.2155366e-05 6.2832994e-05 3.0285166e-05

autoencoders.0.decoder.cells.0.lstm.weight_hh f4 [32, 8]
000000 b4 82 0b 39 45 83 06 39 88 48 b0 b6 5f fd 15 b8
       0.00013304764 0.00012828138 -5.2536525e-06 -3.576034e-05
000010 93 2e 8d 39 56 e3 fd b8 56 c5 44 39 f3 51 18 38
       0.00026928316 -0.00012106325 0.0001876553 3.6315945e-05
000020 53 9b 34 b7 f8 c1 68 b8 59 ce c0 39 9c 80 15 b8
       -1.0765e-05 -5.5493758e-05 0.00036774835 -3.5644145e-05
000030 9b c2 2b b9 57 f4 53 38 12 4c 56 b9 47 ee 97 38
       -0.00016380327 5.053388e-05 -0.00020436969 7.244624e-05
000040 c0 c9 26 b8 1e f2 ca 38 d4 db 16 b8 e5 97 c4 b8
       -3.976538e-05 9.6772084e-05 -3.5967518e-05 -9.374301e-05
000050 2d 88 e0 b8 59 6a 4e b8 22 fa d6 38 b9 be 96 37
       -0.00010706517 -4.921327e-05 0.00010250906 1.7970206e-05
000060 d9 4f 70 b8 0c 79 e7 39 a6 ff 91 b7 37 0c 3c b6
       -5.7294823e-05 0.0004414994 -1.7404393e-05 -2.8021293e-06
000070 c0 3a eb b9 ce 5a b7 b8 60 7d 5e b9 b5 b7 01 b9
       -0.00044866465 -8.743034e-05 -0.00021218276 -0.00012370835
000080 ab 4b bd 37 22 3f 0f b9 d4 df 36 b9 c1 f9 28 b8
       2.2565791e-05 -0.00013661062 -0.00017440255 -4.0286923e-05
000090 5b f4 47 b6 ca 65 c2 b8 db 02 ed b8 a9 8f b7 b8
       -2.9795544e-06 -9.2696006e-05 -0.000113015725 -8.752879e-05
0000a0 c7 c8 ea b7 5a a6 87 b9 98 46 23 38 e2 6a 78 b9
       -2.7988468e-05 -0.00025873148 3.8927974e-05 -0.0002369094
0000b0 cf 4c 59 37 8b 70 5b b9 08 b6 29 b9 a6 2a 1d b9
       1.2952091e-05 -0.00020927393 -0.00016184908 -0.00014988575
0000c0 71 a0 68 b7 01 35 bb 38 ce 39 92 b9 b9 09 06 39
       -1.3865633e-05 8.9267276e-05 -0.00027890358 0.00012782858
0000d0 30 b9 52 b9 bf e0 94 b8 77 77 ab 38 8a 60 49 b9
       -0.00020096148 -7.099052e-05 8.1761675e-05 -0.00019204817
0000e0 98 ae c0 b9 19 38 b3 b8 0e 16 d1 b8 83 dc 51 b9
       -0.00036751176 -8.545834e-05 -9.9700046e-05 -0.0002001394
0000f0 d1 0d 81 39 63 48 96 37 35 a0 11 b9 39 eb 9d 38
       0.0002461509 1.7915101e-05 -0.0001388796 7.530157e-05
000100 d8 57 ce 38 ef 9f 05 3a c9 86 b2 b8 6a ff b0 39
       9.8392076e-05 0.00050973793 -8.512807e-05 0.00033759634
000110 1d 66 4a 39 41 34 e0 38 47 d7 1e 39 1c 63 5c b8
       0.00019302261 0.000106908854 0.00015148251 -5.254439e-05
000120 40 8b d4 b8 ed 52 18 37 54 95 c9 b6 6e 65 b5 b9
       -0.00010134885 9.079214e-06 -6.007651e-06 -0.0003459858
000130 b7 6e ed b7 8f 7b 98 38 51 56 b7 b7 f8 39 db b8
       -2.8304157e-05 7.2709394e-05 -2.1855494e-05 -0.00010453531
000140 9a 34 ff b6 a2 e5 60 b8 2e cf 92 b8 65 0a d0 b8
       -7.605716e-06 -5.3619624e-05 -7.000413e-05 -9.920149e-05
000150 fc f2 1d b9 e6 e3 c7 b7 54 d6 f2 b8 da bc 3e 38
       -0.00015063206 -2.3828772e-05 -0.00011579381 4.547541e-05
000160 18 d4 df 38 72 cd 87 39 a3 fe 63 38 07 03 4a 39
       0.00010672974 0.00025902275 5.4358166e-05 0.00019265349
000170 77 6e 77 b8 2b 70 05 37 e4 9e 53 b9 fc 75 19 36
       -5.8992267e-05 7.953534e-06 -0.0002018172 2.2867453e-06
000180 e0 58 82 38 28 b2 c7 38 93 3d 03 39 f7 f2 a5 b8
       6.215437e-05 9.5222436e-05 0.00012516072 -7.913069e-05
000190 91 d4 a2 b9 f4 5c ee b8 af 1d 40 b7 e6 74 5a 38
       -0.00031057422 -0.00011366038 -1.1451003e-05 5.208412e-05
0001a0 aa 10 8f 39 06 f9 93 b8 df 6a 90 b8 fe 99 af b8
       0.000272875 -7.0558905e-05 -6.8863614e-05 -8.3733335e-05
0001b0 91 2e ad 38 84 e6 5e 38 63 47 46 37 5a f8 63 b9
       8.2579565e-05 5.314361e-05 1.1818341e-05 -0.00021740925
0001c0 7b 5d 8a 36 71 d6 f6 38 53 a5 a2 b9 ec 5e d5 b6
       4.123603e-06 0.00011770137 -0.00031022224 -6.358945e-06
0001d0 65 96 1d b9 ba 62 15 38 1e 62 ba b8 f9 03 36 b9
       -0.00015028713 3.5616315e-05 -8.887447e-05 -0.00017358352
0001e0 72 af cf b8 a5 f3 c8 b8 05 47 8d b5 7e 51 b9 b8
       -9.9032084e-05 -9.5821255e-05 -1.0525988e-06 -8.8366665e-05
0001f0 5b 0f fb b6 6a ff 23 39 d8 93 7b 38 dc 12 89 b8
       -7.4821705e-06 0.0001564004 5.9980754e-05 -6.536182e-05
000200 76 41 26 b9 56 60 63 b9 7b be 99 39 12 96 db b8
       -0.0001585538 -0.00021684295 0.00029324353 -0.000104706865
000210 f5 ad 87 b8 15 1c 74 b7 70 a1 68 39 fe 26 23 38
       -6.469704e-05 -1.4550072e-05 0.00022185384 3.8898543e-05
000220 e5 28 8e b9 0d e8 00 b8 2a a7 99 b8 60 0d e9 38
       -0.0002711482 -3.0733692e-05 -7.326745e-05 0.00011112797
000230 ec 2e 85 39 f1 1c 85 38 e8 1d 1c 39 46 4d 9f b8
       0.00025402696 6.347325e-05 0.0001488846 -7.596104e-05
000240 9d 56 28 b7 2f 8a 06 39 11 41 73 38 2e 67 11 39
       -1.0033747e-05 0.00012830713 5.7996313e-05 0.00013866715
000250 0d 83 4e 38 a5 9b 21 39 d8 9c 66 b6 92 51 91 36
       4.9236278e-05 0.00015412139 -3.4363966e-06 4.330833e-06
000260 39 f8 13 b8 55 0c e9 b7 cf e0 55 38 78 37 72 37
       -3.5278706e-05 -2.7781507e-05 5.0992527e-05 1.4437239e-05
000270 dc 4c b6 b7 98 30 3d 39 f6 ae 57 39 ab 6c ac b8
       -2.1731881e-05 0.00018042547 0.00020569176 -8.22184e-05
000280 32 34 9a b9 c7 eb d3 39 70 4c e6 b8 78 66 53 b9
       -0.00029412057 0.00040420724 -0.00010981492 -0.000201607
000290 1a 9c 9f 34 d7 81 02 38 fa 8e 73 b8 1d 1c 08 38
       2.9729637e-07 3.1115338e-05 -5.8068872e-05 3.245111e-05
0002a0 8e 50 54 39 e4 52 98 b9 47 be ac 38 81 37 30 b9
       0.00020247904 -0.00029053458 8.237041e-05 -0.00016805345
0002b0 5c a6 97 b9 b0 4a d3 b9 bb 58 1c b7 ee 7c e9 37
       -0.00028924912 -0.00040300703 -9.318984e-06 2.783394e-05
0002c0 cc de 92 39 1a e0 fe 38 fa 99 98 38 7c 72 5a 39
       0.00028013287 0.00012153406 7.276605e-05 0.00020832749
0002d0 91 93 38 39 82 ac 78 b8 ae e1 0d b9 b9 e3 a6 b8
       0.0001760258 -5.9288468e-05 -0.0001353088 -7.9579135e-05
0002e0 26 47 e5 39 2e 97 d7 b8 63 8c fa b8 58 96 b6 38
       0.00043731293 -0.00010280158 -0.00011947078 8.70644e-05
0002f0 a6 6d e0 37 bc 1a e1 38 65 5a b0 b8 cc 5e be 38
       2.675394e-05 0.00010733816 -8.409171e-05 9.077563e-05
000300 b5 90 0b 39 8e b1 df 38 bb 93 3c 39 04 77 2a b9
       0.0001330998 0.00010666541 0.00017984111 -0.000162568
000310 b6 b6 3e 39 61 c6 95 b8 7d df 84 b7 39 3c 0c b9
       0.00018187877 -7.1418246e-05 -1.5839696e-05 -0.00013373875
000320 75 04 1c 39 83 db b4 b8 86 57 a7 38 a4 c6 64 b7
       0.0001487898 -8.623956e-05 7.979483e-05 -1.3636109e-05
000330 5c 16 8d 39 eb 58 a0 38 94 2b 7e b9 25 6a bd b7
       0.00026910275 7.645957e-05 -0.00024239562 -2.2579983e-05
000340 ce 42 d2 38 5e 58 88 38 a5 1f 16 b9 8a a0 e2 37
       0.00010026024 6.501445e-05 -0.00014316903 2.7016056e-05
000350 39 af 08 b9 c9 d3 03 38 ec 65 14 b7 06 4e 21 38
       -0.00013035246 3.1430074e-05 -8.845218e-06 3.8458056e-05
000360 d8 5b d5 38 16 36 3a b8 ac 56 0f b9 3f cf bd 37
       0.00010173739 -4.4396227e-05 -0.0001366983 2.2627062e-05
000370 68 4b 69 37 2f ea e7 b8 99 5f 2c 38 a5 5a 71 38
       1.3905439e-05 -0.000110585584 4.1097028e-05 5.7543297e-05
000380 96 37 3f 39 df ac dc 38 96 0b af b9 3a 4f 0d 38
       0.00018235887 0.00010522617 -0.00033387233 3.3690805e-05
000390 fa 57 42 37 f6 c7 6c 38 b0 eb 80 b9 18 3d 49 35
       1.1583785e-05 5.6453013e-05 -0.00024589663 7.496724e-07
0003a0 dd 9b ae 38 4c f0 fb b7 34 cd a2 38 34 a4 b5 b8
       8.325998e-05 -3.0033429e-05 7.762984e-05 -8.661338e-05
0003b0 3f 0c c2 39 77 1b 02 b8 fc 53 3f b9 08 6d 24 38
       0.00037011688 -3.1019994e-05 -0.00018246466 3.920219e-05
0003c0 45 8e 46 b6 96 7c e5 b7 bc 84 e6 38 22 36 0c b9
       -2.958711e-06 -2.7356942e-05 0.00010991978 -0.00013371606
0003d0 24 47 f1 b8 c1 fe e5 b8 6b 80 44 b9 44 ac 0c 38
       -0.000115050265 -0.000109670225 -0.00018739856 3.3539036e-05
0003e0 16 ae 81 39 c1 9f d9 b7 cd 80 e9 b7 06 7a 06 b8
       0.00024734501 -2.5942807e-05 -2.7835742e-05 -3.2061733e-05
0003f0 fb 9c f5 b8 43 98 22 37 41 4c 9a b8 32 ca 47 39
       -0.0001171175 9.691404e-06 -7.3574956e-05 0.00019053443

autoencoders.0.decoder.cells.0.lstm.bias_ih f4 [32]
000000 b7 8a 31 38 c6 c2 78 35 69 04 0a 39 a6 49 9b 38
       4.2329277e-05 9.267063e-07 0.00013162348 7.404694e-05
000010 f6 db 71 37 f2 ed 76 39 71 fb d1 b8 ab ef 6d 38
       1.4415933e-05 0.0002354903 -0.00010012731 5.672841e-05
000020 56 26 87 39 0c 72 ef 38 f3 77 48 39 fc 58 07 39
       0.0002577777 0.00011417651 0.00019118171 0.00012907753
000030 e8 0d e5 38 36 df 2a b9 23 fa 0b 39 b3 16 49 b9
       0.00010922161 -0.00016295616 0.00013349256 -0.0001917731
000040 70 c8 ac b8 2f 5f cd b7 f0 b7 da b8 a9 47 d5 b8
       -8.2389335e-05 -2.4482228e-05 -0.00010429311 -0.00010169979
000050 e0 34 48 35 3f a8 25 39 64 48 61 b8 51 c2 39 b9
       7.458275e-07 0.00015798303 -5.37116e-05 -0.00017715363
000060 0c 51 01 b8 4c 9d 0b b9 20 02 c1 38 8c ad 26 b8
       -3.0831477e-05 -0.0001331467 9.203353e-05 -3.9739112e-05
000070 a8 a5 6b b9 c0 97 da 37 56 50 35 b9 fb a6 4b b9
       -0.00022473058 2.605829e-05 -0.00017291433 -0.00019421794

autoencoders.0.decoder.cells.0.lstm.bias_hh f4 [32]
000000 b7 8a 31 38 c6 c2 78 35 69 04 0a 39 a6 49 9b 38
       4.2329277e-05 9.267063e-07 0.00013162348 7.404694e-05
000010 f6 db 71 37 f2 ed 76 39 71 fb d1 b8 ab ef 6d 38
       1.4415933e-05 0.0002354903 -0.00010012731 5.672841e-05
000020 56 26 87 39 0c 72 ef 38 f3 77 48 39 fc 58 07 39
       0.0002577777 0.00011417651 0.00019118171 0.00012907753
000030 e8 0d e5 38 36 df 2a b9 23 fa 0b 39 b3 16 49 b9
       0.00010922161 -0.00016295616 0.00013349256 -0.0001917731
000040 70 c8 ac b8 2f 5f cd b7 f0 b7 da b8 a9 47 d5 b8
       -8.2389335e-05 -2.4482228e-05 -0.00010429311 -0.00010169979
000050 e0 34 48 35 3f a8 25 39 64 48 61 b8 51 c2 39 b9
       7.458275e-07 0.00015798303 -5.37116e-05 -0.00017715363
000060 0c 51 01 b8 4c 9d 0b b9 20 02 c1 38 8c ad 26 b8
       -3.0831477e-05 -0.0001331467 9.203353e-05 -3.9739112e-05
000070 a8 a5 6b b9 c0 97 da 37 56 50 35 b9 fb a6 4b b9
       -0.00022473058 2.605829e-05 -0.00017291433 -0.00019421794

autoencoders.0.decoder.cells.0.cell_residual_transform.weight f4 [8, 1]
000000 37 b7 83 3e 8b c3 3c 39 3d 22 81 39 89 e6 f2 37
       0.2572572 0.00018001923 0.00024630307 2.8956e-05
000010 73 3c 95 34 3e 13 9e b8 96 2d 55 bf 70 20 a3 b6
       2.7797395e-07 -7.537611e-05 -0.83272684 -4.8615548e-06

autoencoders.0.decoder.cells.0.cell_residual_transform.bias f4 [8]
000000 ad 2b 1d 3f 64 9d 82 b8 ad b3 31 be d2 b2 3d 3e
       0.6139477 -6.228199e-05 -0.17353697 0.18525246
000010 58 b1 84 39 8f c8 0f 3b 6f 71 99 ba 33 37 27 39
       0.00025309133 0.002193961 -0.001170678 0.00015946924

autoencoders.0.decoder.output_layer.weight f4 [1, 8]
000000 43 60 c3 3e 7b 9e b7 38 f5 20 ab 37 81 33 a5 39
       0.3815938 8.755639e-05 2.0400135e-05 0.00031509626
000010 1c a0 c5 36 76 78 7d b8 d6 91 f8 be 56 c5 96 b6
       5.8896967e-06 -6.043209e-05 -0.48548764 -4.4933213e-06

autoencoders.1.encoder.cells.0.weight_h_2 f4 [8, 8]
000000 88 31 99 39 a9 cd 8d 33 5e b7 69 37 c1 f6 95 39
       0.00029219338 6.6032335e-08 1.3930576e-05 0.0002860334
000010 97 66 8b 38 7d 47 c8 37 12 a2 de 38 f0 79 08 b9
       6.647145e-05 2.3875147e-05 0.00010615973 -0.00013015396
000020 5b 79 5d 39 46 fa 44 b8 91 d5 d2 39 3a 8c d7 39
       0.00021121411 -4.6963127e-05 0.0004021344 0.00041112473
000030 13 d0 13 38 22 da d7 38 68 71 0e b7 c2 8d 24 b9
       3.5241315e-05 0.00010292629 -8.490264e-06 -0.00015693068
000040 d2 24 b9 38 08 af d1 37 7a f8 e5 37 65 f0 63 b9
       8.828346e-05 2.4996247e-05 2.7414633e-05 -0.00021737961
000050 9e 42 af 39 ce 4d a7 b8 da 41 db b8 60 2b 16 39
       0.00033428235 -7.977673e-05 -0.000104549996 0.00014321273
000060 40 15 7a b8 03 1f ad b9 f9 db 8d 39 02 33 98 b8
       -5.9624435e-05 -0.00033020237 0.00027057508 -7.257426e-05
000070 61 d3 e3 38 12 2a 83 b8 7f 09 38 39 f1 3a 2d 39
       0.00010863576 -6.254403e-05 0.00017551145 0.00016520523
000080 4d 03 20 b8 b0 df 97 b9 4b 74 9c 36 cd 3a 96 39
       -3.8150047e-05 -0.00028967625 4.6627006e-06 0.0002865404
000090 d8 5b 5a b8 a6 5e 98 38 fc ef 37 38 7a cf d2 38
       -5.2060786e-05 7.2655544e-05 4.3854103e-05 0.00010052226
0000a0 01 d1 38 b9 6c e5 27 b7 79 cb b6 38 16 32 4c b9
       -0.00017625467 -1.0007392e-05 8.716336e-05 -0.00019473615
0000b0 a1 c0 a9 37 33 23 dc 38 2d 9e c3 b8 90 17 d4 b7
       2.023607e-05 0.00010496974 -9.327787e-05 -2.5283342e-05
0000c0 bd 4d 11 b8 02 ea fc 36 d2 68 8f b5 99 2c 00 b3
       -3.4643093e-05 7.5374273e-06 -1.0684837e-06 -2.9842884e-08
0000d0 bf df 5e 39 bf 9e fa 38 3f 64 bd b8 5c 72 04 39
       0.00021254922 0.00011950498 -9.0308946e-05 0.00012631103
0000e0 e4 88 2a b7 5f df 02 39 78 f9 40 39 06 0a 55 39
       -1.0164662e-05 0.00012480978 0.00018403481 0.00020316997
0000f0 bb 0f 33 38 75 b3 69 39 09 93 e3 38 c3 a7 3e b9
       4.2691576e-05 0.00022287465 0.00010851591 -0.00018182308

autoencoders.1.encoder.cells.0.bias_h_2 f4 [8]
000000 00 00 00 00 00 00 00 00 00 00 00 00 00 00 00 00
       0.0 0.0 0.0 0.0
000010 00 00 00 00 00 00 00 00 00 00 00 00 00 00 00 00
       0.0 0.0 0.0 0.0

autoencoders.1.encoder.cells.0.lstm.weight_ih f4 [32, 1]
000000 af 7f 09 39 e3 a4 89 b9 39 0a 98 37 cd 7c fb 36
       0.00013112904 -0.00026253526 1.8124572e-05 7.4949116e-06
000010 94 88 3f 38 0c 03 70 39 86 bd 8b b8 da da 3e b9
       4.5665147e-05 0.00022889319 -6.663338e-05 -0.0001820134
000020 fd 96 da 39 8a b3 ce 39 35 08 f5 39 a4 92 58 b9
       0.00041692695 0.0003942515 0.00046736156 -0.00020653993
000030 81 c6 26 b7 c1 da 1a 39 56 bb 46 39 2e 62 4d b9
       -9.940589e-06 0.00014768077 0.0001895254 -0.00019586898
000040 ae bb 57 39 86 b2 a1 38 48 1a 88 b8 e1 74 00 b9
       0.00020573914 7.710331e-05 -6.4898806e-05 -0.00012250572
000050 c3 ab 53 b8 63 b9 0f 39 5a 55 80 b9 c8 a2 a4 b8
       -5.0466286e-05 0.00013706605 -0.00024477654 -7.85045e-05
000060 6e ac db 37 6e 42 96 b9 c2 45 88 38 76 44 9f 39
       2.6187128e-05 -0.00028659723 6.497979e-05 0.0003037785
000070 f7 ff d2 36 3e e5 3e b9 c8 9d bb b9 2b a4 1d b9
       6.288286e-06 -0.00018205211 -0.00035784976 -0.00015033844

autoencoders.1.encoder.cells.0.lstm.weight_hh f4 [32, 8]
000000 a9 45 65 39 11 0c 3b b9 73 55 c0 35 b1 51 c8 b8
       0.00021865092 -0.00017838205 1.4329984e-06 -9.5519594e-05
000010 47 e6 13 39 78 82 fa b8 bf 51 a7 b7 f1 84 aa b8
       0.00014104797 -0.00011945231 -1.9946017e-05 -8.130994e-05
000020 a6 cf 5d b9 ca 7b ce 38 41 f6 7c 38 b3 7b 8e 38
       -0.00021153557 9.845903e-05 6.0310824e-05 6.7941284e-05
000030 80 c4 23 39 1e e8 d4 38 2f 87 bb b8 32 49 4d 39
       0.00015618093 0.00010152183 -8.942035e-05 0.00019577591
000040 8e 02 65 38 ef 23 2c 37 1a 82 3e 38 ff d3 98 39
       5.4600234e-05 1.0260365e-05 4.5420697e-05 0.0002914965
000050 61 3f 1f b9 c0 9f fb b7 cb 67 f7 38 e9 e9 12 39
       -0.00015187032 -2.9995921e-05 0.00011797211 0.00014010783
000060 ec 2a 44 b8 48 78 f8 b8 74 1d fc b7 68 9f 06 b7
       -4.6770016e-05 -0.00011847966 -3.0054456e-05 -8.024137e-06
000070 c6 67 a0 b9 72 9c 3c 39 f6 d8 c5 38 bf 5b fe 37
       -0.00030594895 0.00017987358 9.434104e-05 3.0321882e-05
000080 d2 8d e9 39 43 a5 35 b9 90 08 12 b7 21 65 5d b9
       0.00044546888 -0.0001732307 -8.704272e-06 -0.00021113876
000090 4d 3c 86 b9 85 7c 13 b9 22 8f 53 b8 a1 a1 c2 38
       -0.000256034 -0.000140654 -5.0439623e-05 9.2807466e-05
0000a0 e4 a9 2f 39 f1 53 40 b8 6c 67 11 39 1b ea bf 39
       0.0001675259 -4.5854544e-05 0.00013866805 0.0003660478
0000b0 ba 35 b8 b7 42 e7 94 38 5a 4b 3d b8 d4 19 d3 b8
       -2.1959528e-05 7.100265e-05 -4.5131288e-05 -0.00010066075
0000c0 3e a5 9a b8 38 b2 74 b9 6b f6 27 b8 ff b4 9c b9
       -7.374071e-05 -0.00023336045 -4.0045397e-05 -0.0002988949
0000d0 42 4d 9c 36 e0 70 ca b7 6f 77 79 38 94 31 87 b8
       4.6581563e-06 -2.4132838e-05 5.9477457e-05 -6.446536e-05
0000e0 86 5e 95 b8 21 d9 09 37 a0 c6 c7 b7 53 be eb b8
       -7.12248e-05 8.216391e-06 -2.381514e-05 -0.00011241124
0000f0 73 dc 87 b8 c3 63 40 b9 f9 4b 8c b8 5e 18 94 b8
       -6.4783635e-05 -0.00018347711 -6.689871e-05 -7.061729e-05
000100 e5 7d f5 38 47 fb df b8 0a 4a 53 39 37 7a 1f b9
       0.0001170596 -0.00010680273 0.0002015011 -0.0001520895
000110 01 a8 51 b8 ee 16 24 b9 42 5e a3 b5 8f b7 a1 b7
       -4.998595e-05 -0.00015648801 -1.2171879e-06 -1.9278172e-05
000120 e6 63 e3 b8 e7 40 6a 37 ba 29 30 39 96 dd 42 39
       -0.00010842811 1.3962598e-05 0.00016800212 0.00018583829
000130 42 be 65 37 98 a3 a7 38 ba 01 9c 39 b0 a9 67 38
       1.36937615e-05 7.993652e-05 0.00029755925 5.5232726e-05
000140 f8 3c a8 39 62 d1 9c b8 e8 0a b6 b7 c1 25 92 37
       0.00032088882 -7.47766e-05 -2.170117e-05 1.7422137e-05
000150 3a be 98 b9 17 fe 51 39 87 0f 67 39 99 32 09 38
       -0.0002913343 0.00020026449 0.00022035661 3.2710468e-05
000160 c6 2f 4d 39 a8 83 ff 38 72 26 80 b9 96 7f 23 39
       0.0001956812 0.000121838704 -0.00024442706 0.00015592421
000170 0a 14 d6 b9 e6 d6 dd b9 3b ac 41 39 dd 15 63 b8
       -0.0004083219 -0.00042312517 0.00018470075 -5.414138e-05
000180 86 ad a2 b6 00 53 95 b8 db e2 8d b9 99 b3 82 b6
       -4.848177e-06 -7.1203336e-05 -0.00027062636 -3.89521e-06
000190 fe 2c b4 b8 f4 17 8c b7 10 ec 4c b7 d9 7e 2f 39
       -8.591449e-05 -1.6700455e-05 -1.221431e-05 0.00016736555
0001a0 c9 18 9a b8 0c 90 bf 38 98 e5 a6 38 75 cc a4 b8
       -7.347909e-05 9.1344205e-05 7.958262e-05 -7.8582125e-05
0001b0 61 45 db b8 0e b8 3f b8 51 46 ab b9 68 ca a3 b8
       -0.000104556566 -4.5709363e-05 -0.0003266805 -7.810147e-05
0001c0 88 5b 02 3a 79 91 b2 b8 e4 71 a4 36 9a 3b e2 b8
       0.00049727457 -8.514798e-05 4.9008395e-06 -0.000107876214
0001d0 70 3c 97 b9 1d b1 31 39 9c 61 23 39 87 9f dc 39
       -0.00028845994 0.00016946015 0.00015581254 0.00042080527
0001e0 ac 0e 20 39 fa f5 4c b9 f5 60 8a b8 f5 28 3b 39
       0.00015264255 -0.0001954659 -6.5984124e-05 0.00017848967
0001f0 d2 25 82 39 df 9f dc 37 de 4e 9a 38 7f 5b 1d 38
       0.0002482371 2.630049e-05 7.3579824e-05 3.751693e-05
000200 ca fe 33 38 ce 13 82 b9 86 ae 8e 39 b4 4f b4 b8
       4.2914216e-05 -0.00024810288 0.0002721438 -8.597915e-05
000210 7a 56 9a b8 1d f2 9d b8 72 b7 ff b8 09 f2 e9 b8
       -7.3594e-05 -7.5314405e-05 -0.00012193517 -0.00011155388
000220 55 bb 32 b8 db 34 cd 37 76 8f 22 b8 42 a1 dc 38
       -4.2612974e-05 2.4462517e-05 -3.875742e-05 0.00010520454
000230 d1 53 d7 b6 10 2f f9 b8 62 75 c6 37 18 78 d7 38
       -6.417257e-06 -0.00011882011 2.36581e-05 0.00010274368
000240 3e 13 20 b9 c1 47 2f b9 90 db 68 b8 55 a3 09 b9
       -0.00015265957 -0.00016716031 -5.5517594e-05 -0.00013126184
000250 d9 c0 07 b9 18 be 89 b8 06 a5 3c 39 fb 50 57 b8
       -0.00012946445 -6.568077e-05 0.00017990553 -5.1335413e-05
000260 03 5e 6e 39 62 3f 56 b6 eb 69 3a 39 d3 94 51 38
       0.00022732471 -3.1925379e-06 0.000177778 4.9968086e-05
000270 85 eb 57 b8 a8 ca dc b8 52 0f 86 b8 dd 32 c1 b8
       -5.147934e-05 -0.00010528165 -6.3924716e-05 -9.212431e-05
000280 ca 1d 34 39 bd 8e 0b b8 06 67 6e 38 8d cf b2 39
       0.00017177235 -3.3273118e-05 5.683957e-05 0.00034105443
000290 c7 34 4f b9 85 fb d5 b8 05 12 79 37 7d eb 08 39
       -0.0001976072 -0.000102034806 1.4845752e-05 0.00013057697
0002a0 9f 0f a2 b8 88 5a 8f 38 a7 81 27 b8 4b bc 80 37
       -7.7276716e-05 6.835634e-05 -3.993665e-05 1.534647e-05
0002b0 1f c0 0c 36 66 94 24 b9 b8 35 5e b8 ba af ab b8
       2.0973455e-06 -0.00015695542 -5.2978954e-05 -8.186647e-05
0002c0 50 3f d2 b8 c7 a7 38 b7 1b f2 73 39 a2 9d b5 38
       -0.00010025373 -1.1006318e-05 0.00023264477 8.660114e-05
0002d0 03 3d b7 37 87 e5 17 39 b4 a6 c5 37 c8 15 66 38
       2.184371e-05 0.00014485988 2.3561857e-05 5.485656e-05
0002e0 94 2d 02 39 af 5f 98 b8 84 c2 8b 38 ef 12 d4 38
       0.00012414745 -7.265747e-05 6.664268e-05 0.000101124744
0002f0 70 1d eb 39 9e 49 e0 39 bc db 2d 38 8c cc 1e 38
       0.00044844626 0.00042779458 4.1451058e-05 3.7860635e-05
000300 cc 74 8a 38 b2 88 30 b9 f4 40 1e b9 6a a7 c4 b9
       6.602108e-05 -0.00016835591 -0.00015092251 -0.00037508766
000310 52 fa 4e b9 43 b4 a3 b8 c1 26 8d 38 76 0b d4 38
       -0.00019738943 -7.806022e-05 6.7306224e-05 0.000101110825
000320 ec c9 7d 36 f5 18 af 37 66 26 f9 38 f7 3b 4d b7
       3.7817472e-06 2.0873247e-05 0.000118803975 -1.2232914e-05
000330 ea 84 fa b9 e5 9e 32 b8 b4 7a 95 38 be 21 c8 38
       -0.00047782745 -4.258649e-05 7.127729e-05 9.543028e-05
000340 e0 88 79 b8 d9 c0 9d b7 d3 f8 bb b5 88 cc 7a b8
       -5.94937e-05 -1.880566e-05 -1.4005003e-06 -5.979513e-05
000350 ee 7f 45 b9 b1 d1 1f 39 1c 56 19 b9 88 01 8b 39
       -0.00018835042 0.00015241538 -0.00014623295 0.00026513287
000360 d8 d8 aa b8 0e 14 88 38 7a 2f 78 b6 1c 7f 96 b8
       -8.146622e-05 6.488721e-05 -3.6982515e-06 -7.176233e-05
000370 df 71 bf b6 03 0a 8c b8 a7 e4 65 b7 43 c0 ae 38
       -5.7055e-06 -6.677585e-05 -1.3702701e-05 8.332778e-05
000380 a2 ee 60 b9 d4 32 14 39 e9 a8 63 b9 13 32 23 39
       -0.00021451202 0.00014133315 -0.00021711331 0.00015563545
000390 7e ab 89 38 02 d3 a1 b6 60 6e 09 39 68 4d 2e 37
       6.564612e-05 -4.8227384e-06 0.00013106456 1.0389231e-05
0003a0 97 b6 42 b8 b6 7c 89 b9 fa d7 2a 39 70 b6 31 39
       -4.6423254e-05 -0.00026223593 0.00016292921 0.00016947999
0003b0 b3 c4 1b 38 aa a8 f8 b8 b0 b6 04 b8 6e d2 19 36
       3.713807e-05 -0.00011856978 -3.1641393e-05 2.2921263e-06
0003c0 be 1c f0 38 7b 37 35 39 5a 77 d5 b9 b9 c7 1f 39
       0.000114494454 0.00017282173 -0.0004071545 0.00015237824
0003d0 f2 68 80 b9 a6 bf e2 b8 a0 79 40 39 c2 eb 88 39
       -0.00024492253 -0.00010812217 0.00018355856 0.00026115595
0003e0 da 51 22 39 aa c4 91 b8 4c 77 1c b9 62 b6 b8 38
       0.00015480016 -6.95077e-05 -0.00014921761 8.807775e-05
0003f0 53 b7 25 b9 05 47 d3 b9 0e db a7 b9 0f 2c ac 38
       -0.0001580392 -0.0004029797 -0.0003201593 8.209806e-05

autoencoders.1.encoder.cells.0.lstm.bias_ih f4 [32]
000000 00 00 00 00 00 00 00 00 00 00 00 00 00 00 00 00
       0.0 0.0 0.0 0.0
000010 00 00 00 00 00 00 00 00 00 00 00 00 00 00 00 00
       0.0 0.0 0.0 0.0
000020 00 00 00 00 00 00 00 00 00 00 00 00 00 00 00 00
       0.0 0.0 0.0 0.0
000030 00 00 00 00 00 00 00 00 00 00 00 00 00 00 00 00
       0.0 0.0 0.0 0.0
000040 00 00 00 00 00 00 00 00 00 00 00 00 00 00 00 00
       0.0 0.0 0.0 0.0
000050 00 00 00 00 00 00 00 00 00 00 00 00 00 00 00 00
       0.0 0.0 0.0 0.0
000060 00 00 00 00 00 00 00 00 00 00 00 00 00 00 00 00
       0.0 0.0 0.0 0.0
000070 00 00 00 00 00 00 00 00 00 00 00 00 00 00 00 00
       0.0 0.0 0.0 0.0

autoencoders.1.encoder.cells.0.lstm.bias_hh f4 [32]
000000 00 00 00 00 00 00 00 00 00 00 00 00 00 00 00 00
       0.0 0.0 0.0 0.0
000010 00 00 00 00 00 00 00 00 00 00 00 00 00 00 00 00
       0.0 0.0 0.0 0.0
000020 00 00 00 00 00 00 00 00 00 00 00 00 00 00 00 00
       0.0 0.0 0.0 0.0
000030 00 00 00 00 00 00 00 00 00 00 00 00 00 00 00 00
       0.0 0.0 0.0 0.0
000040 00 00 00 00 00 00 00 00 00 00 00 00 00 00 00 00
       0.0 0.0 0.0 0.0
000050 00 00 00 00 00 00 00 00 00 00 00 00 00 00 00 00
       0.0 0.0 0.0 0.0
000060 00 00 00 00 00 00 00 00 00 00 00 00 00 00 00 00
       0.0 0.0 0.0 0.0
000070 00 00 00 00 00 00 00 00 00 00 00 00 00 00 00 00
       0.0 0.0 0.0 0.0

autoencoders.1.encoder.cells.0.cell_residual_transform.weight f4 [8, 1]
000000 f5 f6 0a b9 a9 b5 6b 38 00 93 72 b9 a8 c1 85 b6
       -0.00013252704 5.619755e-05 -0.0002313368 -3.9862534e-06
000010 cc c8 da 38 34 3d 9d b9 f9 87 0e 39 46 6f 60 37
       0.000104324514 -0.00029990973 0.00013592829 1.3377348e-05

autoencoders.1.encoder.cells.0.cell_residual_transform.bias f4 [8]
000000 8a f4 53 38 4d 4a ec b9 a9 0d 5a b8 ed 4a 1b b8
       5.0534065e-05 -0.00045068786 -5.1987972e-05 -3.702466e-05
000010 5b c7 61 39 77 0d 0a b9 10 db b6 38 d6 a4 3a 38
       0.00021531938 -0.00013165722 8.71924e-05 4.449937e-05

autoencoders.1.decoder.cells.0.weight_h_2 f4 [8, 8]
000000 40 b1 79 39 22 14 c3 b8 3f da 48 b9 40 c7 05 36
       0.00023812521 -9.3020746e-05 -0.0001915479 1.9934523e-06
000010 3f 3b 30 39 23 5f a8 38 82 ff 9f 39 63 7c df 37
       0.00016806739 8.028585e-05 0.0003051721 2.6641594e-05
000020 39 10 fe b8 a5 a0 dd b8 4a 23 77 38 3c c0 b7 38
       -0.000121146855 -0.000105680236 5.8922255e-05 8.7619264e-05
000030 9d fa 1b b8 ec 93 9f 39 43 3c 93 39 4d 4c a7 38
       -3.718828e-05 0.00030437054 0.00028082923 7.977393e-05
000040 a1 c9 18 39 04 72 6e b8 7c 2a 75 b7 22 ce 0c b9
       0.00014570962 -5.6849807e-05 -1.461303e-05 -0.00013428231
000050 19 72 e9 b8 56 c2 a6 37 12 08 c4 b9 67 89 ac b8
       -0.00011131558 1.9879237e-05 -0.00037390046 -8.227192e-05
000060 c0 30 90 b9 a5 f5 8d 38 30 81 7a 37 84 79 a3 39
       -0.00027502142 6.769159e-05 1.493124e-05 0.0003118032
000070 b2 0f f0 b5 ef 5a 69 36 78 eb 3b 39 64 f4 87 b7
       -1.7885961e-06 3.4772636e-06 0.00017921429 -1.6207057e-05
000080 c7 f9 53 37 20 72 30 39 b4 8b be b8 c8 61 90 b8
       1.2634736e-05 0.00016827183 -9.085928e-05 -6.884668e-05
000090 ff 51 86 39 a1 ff 94 37 ee fb b5 b6 06 25 e8 38
       0.00025619564 1.7762011e-05 -5.423549e-06 0.00011069518
0000a0 c4 6d d3 b8 d6 7b 0d 39 de 9b 6b b7 a8 bf 91 b9
       -0.000100817095 0.0001349294 -1.4043382e-05 -0.0002779935
0000b0 8f e9 1b 39 80 b7 b4 38 2c 83 b5 b9 c5 5e b3 36
       0.00014868959 8.6172484e-05 -0.0003462074 5.3456483e-06
0000c0 e7 ce 2b b9 6c 88 0b b9 06 34 cc b8 66 35 94 38
       -0.00016384908 -0.00013306894 -9.737168e-05 7.067136e-05
0000d0 a7 e4 8c 38 6d 9b 69 b7 4d 1f 95 38 18 5e 84 38
       6.71831e-05 -1.392407e-05 7.110704e-05 6.311777e-05
0000e0 c3 a2 16 b9 13 42 db 38 dd d6 01 39 57 a3 0d b7
       -0.00014365748 0.00010455041 0.00012382441 -8.442285e-06
0000f0 9e ac 40 b9 ce 51 2f 37 dd 5c a8 38 45 d9 1b 39
       -0.00018374852 1.04498595e-05 8.0281614e-05 0.00014862891

autoencoders.1.decoder.cells.0.bias_h_2 f4 [8]
000000 2a de 83 39 b8 2d b0 37 d1 0a 91 b9 25 81 46 39
       0.00025151792 2.1002124e-05 -0.00027664614 0.00018930862
000010 f6 16 99 38 28 a7 80 b8 b0 85 7e 37 85 27 3e 38
       7.299885e-05 -6.134651e-05 1.5170706e-05 4.5336335e-05

autoencoders.1.decoder.cells.0.lstm.weight_ih f4 [32, 1]
000000 b0 4d bf b8 3f 66 38 b9 f7 57 f9 37 fc aa 07 b8
       -9.12206e-05 -0.00017585697 2.9724075e-05 -3.234575e-05
000010 32 eb 82 b9 1d 9c 94 b7 5f 0c ee b8 e4 ea c9 b9
       -0.00024970766 -1.771567e-05 -0.00011351029 -0.00038512715
000020 e2 ee 84 b8 a0 9a 37 b9 b9 95 5c 39 27 d2 4a 39
       -6.338746e-05 -0.00017509842 0.00021036611 0.00019342509
000030 98 14 21 b9 4b 14 bb b8 9c 52 ab b7 5a f9 3a 38
       -0.00015361828 -8.920635e-05 -2.0423257e-05 4.4578082e-05
000040 9a af f4 b8 fd 6b 46 b9 e9 97 ad 38 52 08 af b9
       -0.00011667535 -0.0001892298 8.277578e-05 -0.000333848
000050 cb e6 d0 38 ff 04 96 b7 52 73 57 39 7e 9c cc b7
       9.9612014e-05 -1.788372e-05 0.00020546958 -2.4391567e-05
000060 31 12 09 39 7e d4 21 37 69 ae 3b b9 ac 45 1d 39
       0.00013072115 9.6458225e-06 -0.00017898683 0.00014998642
000070 df 0f 8e 39 b1 43 a1 b8 89 4c fe b7 5d 3a fb 37
       0.00027096175 -7.689687e-05 -3.0314799e-05 2.994871e-05

autoencoders.1.decoder.cells.0.lstm.weight_hh f4 [32, 8]
000000 2b 27 ee b8 af 4d 1a b9 43 8f 1d 39 6f c5 8c 39
       -0.0001135602 -0.00014715524 0.00015026056 0.0002684998
000010 7b 36 d6 37 2e 9f 4d b9 45 e7 94 b9 63 ef 05 39
       2.5536157e-05 -0.00019609623 -0.0002840107 0.00012773047
000020 da 8d de 37 1e db 3d 39 02 0f e6 b5 8c 0c 15 b9
       2.6530517e-05 0.00018106072 -1.7140703e-06 -0.00014214421
000030 e2 a3 bb b8 77 09 53 39 fa 27 09 39 fc 23 62 38
       -8.9473804e-05 0.00020126054 0.0001308023 5.3916112e-05
000040 33 1b 17 39 75 ac 27 39 6f cb e9 37 3f 11 c4 39
       0.00014410615 0.00015990606 2.7870496e-05 0.00037396883
000050 93 40 0c b8 88 41 a8 b9 c5 70 1d 39 1f ad 7e b8
       -3.343874e-05 -0.00032092282 0.00015014697 -6.071955e-05
000060 9a d1 93 b7 4a e9 47 39 8c 5f b2 38 22 af 3b b9
       -1.7621369e-05 0.00019065026 8.5054984e-05 -0.00017898952
000070 9c d1 18 b8 ec 20 75 38 c6 34 8d 35 ee 07 08 b9
       -3.6434838e-05 5.8443213e-05 1.0520678e-06 -0.00012972925
000080 7a 9f 1f b9 d9 35 a4 b8 48 d1 8f b9 13 0a d1 b8
       -0.00015222831 -7.830159e-05 -0.00027431012 -9.967773e-05
000090 12 2e 1f b9 d2 20 ae 38 c2 63 ad b8 fc 4b f7 b8
       -0.00015180584 8.30308e-05 -8.267864e-05 -0.00011792031
0000a0 50 d4 c0 b3 f9 ba 0a b9 e1 3e 49 38 b8 3b 0c 3a
       -8.979316e-08 -0.00013230358 4.7980695e-05 0.0005349475
0000b0 22 5e a0 b8 ad 5d 26 39 72 13 12 b6 a0 67 83 37
       -7.646928e-05 0.0001586589 -2.1767014e-06 1.5664671e-05
0000c0 5c e3 dd 38 22 61 9a b8 fb b1 c2 37 35 1e 5d b9
       0.0001058045 -7.3613846e-05 2.320948e-05 -0.00021087455
0000d0 3b a7 bc b7 b0 9b cf 39 fb 63 96 38 94 4f 22 39
       -2.248922e-05 0.00039598113 7.17118e-05 0.00015479169
0000e0 8c 0a 52 39 ad 3c ae 37 52 04 22 b7 5d 08 95 b8
       0.0002003109 2.077067e-05 -9.656958e-06 -7.1064314e-05
0000f0 c8 da 45 b9 a4 51 54 b9 8d 62 10 39 0c 09 83 b9
       -0.00018868886 -0.00020248309 0.00013769623 -0.00024993008
000100 e0 8f 55 39 e9 99 06 39 48 f5 c7 b7 97 fd c6 b8
       0.0002036686 0.00012836572 -2.3836867e-05 -9.4886105e-05
000110 6f 4d 8d b8 76 ca 97 b9 6b 80 b0 38 8d e8 d2 39
       -6.737827e-05 -0.0002895181 8.416254e-05 0.00040227585
000120 5d 97 34 39 d7 91 dc b7 33 a8 e3 b8 10 33 4a 38
       0.00017222525 -2.6293956e-05 -0.00010855533 4.820811e-05
000130 ef 22 c5 b8 be 8f d8 38 26 5b 43 38 60 ea 82 38
       -9.400199e-05 0.00010326457 4.657651e-05 6.242539e-05
000140 38 17 6f 39 da be 13 b8 c7 47 8e b9 82 db e3 38
       0.00022801466 -3.5225275e-05 -0.0002713783 0.0001086509
000150 c6 d1 78 38 55 b9 ad b8 ce 79 ba b8 bf 31 1a b9
       5.9323174e-05 -8.2838036e-05 -8.891859e-05 -0.00014705116
000160 96 07 3f 39 05 27 99 b9 22 f8 0a 39 38 e4 cb 38
       0.00018218005 -0.00029211506 0.00013253142 9.7223034e-05
000170 f7 b8 41 b8 1c d8 90 38 24 b3 ee b7 4a 21 3b 39
       -4.6187048e-05 6.9067086e-05 -2.845523e-05 0.00017846111
000180 66 59 d4 b9 66 5f 29 38 7e 44 9b 39 f8 c8 77 37
       -0.00040502398 4.0381587e-05 0.00029614934 1.4769139e-05
000190 c2 f9 26 b9 76 72 ec 39 d8 15 a1 39 fd a1 50 b9
       -0.00015924036 0.00045098708 0.00030724588 -0.00019896771
0001a0 d9 55 8c b9 22 10 14 39 94 58 8d 39 29 ac 02 b9
       -0.00026766842 0.0001412039 0.00026959612 -0.00012461901
0001b0 e7 c7 ae 38 b0 ac 51 37 5f 18 55 b8 97 29 0f 37
       8.334201e-05 1.2497578e-05 -5.0805855e-05 8.533148e-06
0001c0 4a a1 0a 38 9d 9a c3 37 10 3b 79 b9 c6 53 fd b7
       3.3051976e-05 2.3317809e-05 -0.00023768493 -3.019896e-05
0001d0 0d a5 9f b7 8c 12 2c b8 8d 79 98 b8 b3 eb 1c b8
       -1.9031135e-05 -4.102527e-05 -7.2705654e-05 -3.741281e-05
0001e0 39 09 b8 38 65 45 8c 39 ac 0a e3 38 31 94 1c 39
       8.7755216e-05 0.00026754584 0.00010826191 0.00014932525
0001f0 5e f2 0e b9 6e 7d 85 b8 a0 54 c5 38 ed 6a ef 38
       -0.00013632464 -6.365297e-05 9.409455e-05 0.000114163246
000200 a5 25 c2 b8 09 10 c6 b9 a8 fd 16 38 60 fd 1e 39
       -9.257653e-05 -0.0003777745 3.5999023e-05 0.00015162444
000210 77 e3 a5 38 04 4e c8 37 d1 d0 81 b9 65 1e ae 38
       7.910182e-05 2.3878187e-05 -0.00024760378 8.302628e-05
000220 44 2f 8a b7 78 ac 15 38 f1 9b 1f 37 b7 b7 8b 39
       -1.6472892e-05 3.5684992e-05 9.5134465e-06 0.00026649024
000230 70 a9 b5 b8 8d 10 4f b9 4e 2f d4 38 f6 ea 7b 38
       -8.662313e-05 -0.00019747224 0.00010117759 6.0061888e-05
000240 50 43 05 39 0d 01 91 38 17 d7 7e 38 c5 b8 4b b8
       0.00012708944 6.9143345e-05 6.0758637e-05 -4.857105e-05
000250 77 67 69 b8 83 dd 3e b9 bd 00 e9 b8 a4 9f 85 38
       -5.5647888e-05 -0.00018202332 -0.00011110443 6.3716696e-05
000260 a4 05 e2 b8 f3 d7 79 b8 0b 9a 4f 39 b9 db e8 38
       -0.000107775704 -5.9567345e-05 0.00019798444 0.000111035486
000270 a6 3a 3b 39 21 3c a6 39 03 10 ef b8 6a 34 b8 38
       0.00017855558 0.00031706787 -0.000113993905 8.7835666e-05
000280 cc d3 31 b9 38 50 40 b9 d7 aa 10 35 eb 56 4c b9
       -0.00016958936 -0.0001834043 5.3892785e-07 -0.00019487336
000290 00 d7 ba b8 d6 cc 82 38 c2 04 59 39 de b2 45 38
       -8.909218e-05 6.237037e-05 0.00020696505 4.7135043e-05
0002a0 57 90 06 39 d3 4b f4 b9 ef b7 e0 b7 99 10 d7 b8
       0.00012833007 -0.000465958 -2.6788532e-05 -0.000102550905
0002b0 46 32 fb b8 f9 e9 a1 b7 09 88 1b 38 91 19 75 37
       -0.00011977977 -1.9301648e-05 3.7081572e-05 1.4609091e-05
0002c0 0a 6b 22 b9 1c 28 57 38 25 da 32 b9 f5 2b 64 b8
       -0.00015489399 5.129735e-05 -0.00017056668 -5.4400374e-05
0002d0 2d 4b b6 38 3c 4d 91 b9 60 0f de b8 2e c5 15 b8
       8.692439e-05 -0.000277141 -0.00010588649 -3.5708006e-05
0002e0 4b fa ff 37 ff 20 07 39 bc 5b 2d 39 b1 bf 19 39
       3.051492e-05 0.00012886895 0.0001653274 0.00014662628
0002f0 57 74 49 37 95 41 1b b9 3e 1d 98 38 78 9e 93 37
       1.2007621e-05 -0.00014806383 7.2533716e-05 1.7597558e-05
000300 67 87 34 b9 de c0 05 39 a8 b8 bc 39 a0 b2 1e b7
       -0.00017216579 0.00012755717 0.00035995734 -9.459123e-06
000310 ac 51 54 b6 f1 3a c7 b8 c9 05 85 39 a2 e3 29 b9
       -3.1638e-06 -9.500038e-05 0.00025372047 -0.00016201896
000320 d2 2a 83 b8 ed 11 45 b9 ff c6 7c 37 71 d1 a1 b8
       -6.254543e-05 -0.00018794062 1.5066703e-05 -7.71609e-05
000330 c4 57 1c 39 bf 8f 5c 38 82 3e 6d 38 9c d7 06 38
       0.00014910015 5.258596e-05 5.656342e-05 3.214889e-05
000340 d3 64 97 b8 c7 12 20 b6 1b 7c b2 b9 ba 4c 8e b9
       -7.219021e-05 -2.3852788e-06 -0.0003404327 -0.00027141516
000350 60 06 fb b9 b5 1a 31 39 dc 90 1f 38 e5 01 bf 38
       -0.000478792 0.00016889985 3.8043465e-05 9.1079426e-05
000360 2d 74 c8 b8 77 e2 2b 39 0d 85 1c b9 d6 a5 bc 37
       -9.5583826e-05 0.00016392196 -0.00014926885 2.248857e-05
000370 6b 6d 2d 38 b8 e1 0d 39 3f fd d9 38 4d d9 3b b9
       4.1348318e-05 0.00013530895 0.00010394537 -0.0001791466
000380 1b a0 59 38 57 e1 55 b8 c6 c7 40 37 df a3 08 b9
       5.188594e-05 -5.099302e-05 1.1490605e-05 -0.00013031017
000390 fc e8 31 39 dd 46 4f b9 7c 71 1c 39 8b f9 63 b8
       0.00016966829 -0.00019767457 0.00014919596 -5.4353422e-05
0003a0 bd c9 8c b8 56 78 86 b7 74 57 0e 39 1a e1 a8 b7
       -6.713297e-05 -1.603008e-05 0.00013574754 -2.0131982e-05
0003b0 95 a9 c0 39 cd 79 a7 b9 67 82 93 b8 7a 47 31 b9
       0.00036747442 -0.0003194347 -7.0337956e-05 -0.00016906662
0003c0 de f6 df 38 5c fa d0 38 69 43 5a 38 56 8b 3e 38
       0.00010679451 9.964846e-05 5.203803e-05 4.5429297e-05
0003d0 23 58 73 38 f6 21 b0 b8 8d c3 8a 37 59 59 ab b8
       5.80178e-05 -8.39866e-05 1.6541942e-05 -8.170558e-05
0003e0 67 8a 3b b9 55 10 2a b9 62 f0 4f b9 0b 36 51 b9
       -0.00017885269 -0.00016218548 -0.00019830608 -0.00019951926
0003f0 26 78 4b 39 f6 53 cd 38 f5 fd 1e b5 87 ab 98 37
       0.00019404347 9.790801e-05 -5.922914e-07 1.8199686e-05

autoencoders.1.decoder.cells.0.lstm.bias_ih f4 [32]
000000 84 42 0e 39 3d e7 9a 37 66 90 11 b9 a3 39 8f 38
       0.00013566954 1.846591e-05 -0.0001388207 6.829507e-05
000010 e7 94 22 37 e0 c4 5a 38 40 c3 0b 39 4c a5 cb b7
       9.6906215e-06 5.2158604e-05 0.0001332881 -2.4276458e-05
000020 2c 45 ae b7 ad a9 0e 39 f8 bf 37 b9 5e bb 81 b8
       -2.0774627e-05 0.00013605384 -0.00017523754 -6.186099e-05
000030 3d bc 1a b8 1b df 9f b8 30 d9 0c b8 6e 45 93 39
       -3.689177e-05 -7.6232674e-05 -3.3580873e-05 0.00028089754
000040 f4 23 34 39 e6 29 a4 38 7a 0d 2b b9 51 ff 03 ba
       0.00017179531 7.8279336e-05 -0.00016312851 -0.00050352985
000050 4b 9e 7c b8 e1 7b 1a b8 39 9e 7b b8 bb 8d 15 39
       -6.0228904e-05 -3.6831832e-05 -5.999042e-05 0.00014262546
000060 8e e7 69 b8 2f b1 47 38 95 9f 26 b8 26 e7 9f b8
       -5.576718e-05 4.7610312e-05 -3.9726106e-05 -7.6247656e-05
000070 d1 b9 2f 39 1c f9 db b8 1c 80 d7 b8 47 34 04 39
       0.00016758523 -0.00010489134 -0.00010275861 0.00012607976
