results/H4_VariableSkip/art_daily_jumpsup/ensemble_autoencoder_weights.pth (torch, 87914 bytes, 130 tensors)

autoencoders.0.encoder.cells.0.weight_h_2 f4 [8, 8]
000000 d9 ee c7 37 48 1c 42 39 41 39 02 39 0d ae 8b b8
       2.383387e-05 0.00018511817 0.00012419095 -6.660456e-05
000010 92 70 0a 39 fd 1b 8f 38 b8 67 95 b8 03 5d 52 b6
       0.00013202641 6.8239846e-05 -7.124193e-05 -3.1346578e-06
000020 02 24 8a b9 f2 29 90 39 f6 54 5e b9 2a c2 2b 39
       -0.0002634824 0.00027497072 -0.0002120322 0.00016380163
000030 f4 3c 45 b9 83 9d 8b 38 10 86 12 39 dc 93 f6 b8
       -0.00018810091 6.657375e-05 0.00013973587 -0.00011757735
000040 bc 0e a9 b8 2f a4 82 b8 a1 64 3e b9 d2 31 9f b8
       -8.0612925e-05 -6.2294646e-05 -0.00018157299 -7.5909906e-05
000050 65 79 95 39 ef 8f 58 39 b9 84 0a b9 8d ce d0 38
       0.0002850994 0.00020652985 -0.00013210149 9.956686e-05
000060 43 bc 1d 38 5a 4b b5 38 e9 60 53 b8 61 a3 b6 38
       3.760705e-05 8.644788e-05 -5.0396575e-05 8.708868e-05
000070 37 24 bc b8 83 dc e8 b8 56 1e 94 b8 bf 88 0d b7
       -8.971284e-05 -0.000111036956 -7.0628405e-05 -8.436094e-06
000080 f0 5d 94 b9 d7 27 48 37 b9 5a 82 39 15 dd 1b 39
       -0.0002829875 1.1930205e-05 0.00024863126 0.00014864311
000090 92 d9 0d 38 51 3f 97 39 51 ce 41 b9 53 e6 5c 39
       3.3819648e-05 0.0002884814 -0.00018482773 0.00021066637
0000a0 80 0e 6b b8 a6 03 2d b9 9b 0e 1e 39 8d 5a 6d b8
       -5.604187e-05 -0.00016499925 0.00015073495 -5.6589535e-05
0000b0 34 b9 8a 38 20 e3 93 b8 50 19 c4 b8 45 51 14 b8
       6.6148496e-05 -7.0518116e-05 -9.350723e-05 -3.5361638e-05
0000c0 eb fa e3 b7 9b bf 57 b9 27 55 8b b8 e7 2d 8f b8
       -2.7177352e-05 -0.00020575376 -6.643897e-05 -6.827321e-05
0000d0 e9 97 13 39 97 2d e0 b8 fa 12 ff b8 51 51 11 b9
       0.00014075603 -0.00010689644 -0.00012162882 -0.0001385857
0000e0 97 c8 7d b8 62 eb 22 b8 79 bf e6 37 c0 3a 90 38
       -6.0506714e-05 -3.8843027e-05 2.7507298e-05 6.877398e-05
0000f0 4b ef 39 b9 71 9f 74 39 d1 a4 d2 39 5e b2 f0 38
       -0.00017732118 0.0002332905 0.0004017712 0.00011477315

autoencoders.0.encoder.cells.0.bias_h_2 f4 [8]
000000 00 00 00 00 00 00 00 00 00 00 00 00 00 00 00 00
       0.0 0.0 0.0 0.0
000010 00 00 00 00 00 00 00 00 00 00 00 00 00 00 00 00
       0.0 0.0 0.0 0.0

autoencoders.0.encoder.cells.0.lstm.weight_ih f4 [32, 1]
000000 43 3c 98 39 a2 70 26 39 1a 7a bd b9 cc 46 a3 38
       0.00029036598 0.00015872953 -0.00036139862 7.7856326e-05
000010 30 17 9b 38 7c 6b 3d 38 9e a6 31 39 58 3a ad b5
       7.395295e-05 4.5161214e-05 0.00016942105 -1.2906485e-06
000020 d2 92 0e b9 97 7f bc 38 59 ab 29 b9 7a c4 15 39
       -0.0001359687 8.988304e-05 -0.00016180928 0.0001428294
000030 ff 72 f7 39 6c ce cc b8 61 43 7b 38 79 5c 90 37
       0.0004719719 -9.765927e-05 5.9905815e-05 1.7209199e-05
000040 b5 c2 04 b8 56 0b 1a b9 9a ff 6d 38 cd ea 4a b9
       -3.1652587e-05 -0.00014690807 5.674325e-05 -0.00019351691
000050 41 68 a3 39 5c af 24 b9 87 8d 5b b9 f0 93 13 39
       0.00031167458 -0.00015705585 -0.0002093819 0.00014074123
000060 68 fc 9b b8 0c 62 25 37 85 99 5e b9 db a8 3b b9
       -7.43799e-05 9.857595e-06 -0.0002122876 -0.00017896613
000070 e2 c4 06 b8 0c 50 1b b9 af 87 a0 38 96 17 60 38
       -3.213145e-05 -0.00014811772 7.6546676e-05 5.3427728e-05

autoencoders.0.encoder.cells.0.lstm.weight_hh f4 [32, 8]
000000 99 9c 79 39 f7 a2 bd 38 e3 42 06 b9 65 f2 0d 39
       0.00023804828 9.042577e-05 -0.00012804153 0.00013537107
000010 d4 79 89 39 c1 9d ab 37 29 d6 0e b8 4c 21 03 38
       0.00026221445 2.0458248e-05 -3.405489e-05 3.1263844e-05
000020 65 6f fc b8 5d 01 d4 b8 c4 80 b4 b8 78 64 26 39
       -0.00012037045 -0.00010109202 -8.607053e-05 0.00015868421
000030 3e 63 ee b9 0d a2 84 b8 a1 b7 23 b8 b2 f6 0c b9
       -0.0004546884 -6.324435e-05 -3.9033246e-05 -0.00013443342
000040 ab 18 1c b4 bf c5 53 b8 c9 6d 92 b8 cb 61 c4 b9
       -1.4537606e-07 -5.0490486e-05 -6.9822716e-05 -0.00037456895
000050 92 69 02 b9 8d 78 e4 b8 3e 1f da b7 db 3f d2 39
       -0.00012437094 -0.000108943415 -2.6002173e-05 0.00040101897
000060 ea e2 ab 38 64 5b 07 39 8d 90 a8 b9 10 a6 14 b8
       8.1961814e-05 0.00012908649 -0.00032151156 -3.5440607e-05
000070 f9 0f 45 b8 a9 ac 1f b9 be cd d1 b8 d6 d7 3b b9
       -4.6983336e-05 -0.00015227743 -0.00010004219 -0.00017914115
000080 a7 a8 cc 37 7a 3d 41 b9 b4 42 20 39 49 e6 31 b9
       2.439723e-05 -0.00018428816 0.00015283638 -0.00016965823
000090 81 6a 3b b8 be 87 d6 b6 70 82 20 b9 18 3d 02 3a
       -4.4683464e-05 -6.3934995e-06 -0.00015307381 0.000496821
0000a0 1a bb 23 b9 fd bc 98 38 16 80 25 b9 3d db 96 39
       -0.00015614592 7.2831266e-05 -0.00015783342 0.00028773575
0000b0 4c 79 a1 39 f4 47 8a 39 50 ab be b8 59 1c fb 38
       0.00030798686 0.0002637502 -9.0918154e-05 0.00011973893
0000c0 61 3d 43 39 bf 16 09 39 af 1a 6a b9 61 3f ab 39
       0.00018619515 0.00013073812 -0.0002232592 0.00032662883
0000d0 5f dd dc 39 29 5b 16 b9 4d 80 52 38 a7 f0 c7 b8
       0.00042126604 -0.00014339075 5.018739e-05 -9.5338844e-05
0000e0 0e 08 10 b9 ba 42 88 39 3b d2 7e b9 75 ea f0 b8
       -0.00013735911 0.00025989657 -0.00024301645 -0.00011487763
0000f0 3f bd fa b7 8b 20 ac b6 0b 24 73 37 cd 9c 61 b9
       -2.9890447e-05 -5.129788e-06 1.4492321e-05 -0.00021516085
000100 3f 35 cf b9 a9 76 c7 37 32 26 3b 39 ef 64 1b b9
       -0.00039521788 2.3777904e-05 0.00017847939 -0.00014819553
000110 3d 84 05 39 dc d1 35 39 a4 c8 42 39 01 f4 83 b8
       0.00012733131 0.00017339684 0.00018576026 -6.292016e-05
000120 d6 96 0a 39 ad 52 d2 b7 7c 43 30 b7 4d ec 81 b8
       0.00013216896 -2.507245e-05 -1.050613e-05 -6.195214e-05
000130 a3 4b 74 b9 95 cc 9a b8 c0 5a 2a 38 8b 4b ec b9
       -0.0002329783 -7.3813986e-05 4.0615676e-05 -0.00045069712
000140 1d 9b 33 b9 36 2f 11 38 cc 16 7d 39 b8 48 43 b7
       -0.00017128554 3.4614663e-05 0.00024136453 -1.1639837e-05
000150 0b 6f 48 38 93 77 eb 38 2b b9 4a b9 0d 19 23 39
       4.7787133e-05 0.00011227946 -0.00019333202 0.00015554224
000160 01 dd 95 39 1e 5f f9 b7 24 04 b5 b8 53 2a c0 b8
       0.00028584155 -2.9727405e-05 -8.631524e-05 -9.163157e-05
000170 c9 6e 76 b9 6f e0 7a b9 88 c7 40 39 83 a3 ea b9
       -0.00023501659 -0.00023925466 0.00018384878 -0.00044753784
000180 56 38 f5 36 4f 2b 85 39 91 04 62 39 ac 8f 91 b8
       7.3081274e-06 0.00025400004 0.0002155474 -6.9409e-05
000190 fb bd 92 b7 4c 17 8c 39 c4 54 74 38 97 ea 3f 39
       -1.7493023e-05 0.00026720238 5.8253077e-05 0.00018302571
0001a0 8d ed e9 38 31 63 e9 37 29 bd 83 39 80 8e c0 b9
       0.00011154553 2.7821954e-05 0.00025127202 -0.00036727265
0001b0 56 cc a6 36 f0 a4 c7 b7 14 62 c3 b7 5c ac f8 38
       4.9709734e-06 -2.3799454e-05 -2.3291483e-05 0.00011857666
0001c0 96 9e a9 b9 e2 1e 1d 38 15 a3 bb b8 de ae 15 39
       -0.00032352348 3.746048e-05 -8.947231e-05 0.0001427489
0001d0 f4 68 89 38 bd 47 07 b9 dd 1c 64 39 e0 e9 68 39
       6.552218e-05 -0.00012901328 0.00021754527 0.0002221237
0001e0 90 b6 bc b5 72 1f 07 39 48 96 1f b7 12 9c b6 b8
       -1.4060224e-06 0.00012886318 -9.512129e-06 -8.707507e-05
0001f0 25 13 e8 b8 47 a3 63 b8 12 cb 0e 39 cd 98 a3 b9
       -0.00011066188 -5.427308e-05 0.00013617825 -0.00031203628
000200 82 b8 75 39 39 1a 90 37 e3 36 e8 39 ea c3 42 b8
       0.00023433755 1.7178349e-05 0.00044291382 -4.6435664e-05
000210 fc ea cf b8 0c 68 64 38 67 73 65 38 04 39 58 39
       -9.9142984e-05 5.4456337e-05 5.470533e-05 0.00020620605
000220 9d 7a 50 38 5d a6 8b b9 74 ae 10 39 03 54 07 b9
       4.9705257e-05 -0.00026636096 0.00013797899 -0.000129059
000230 f2 bf ff 39 e6 9d a8 38 12 22 96 39 87 db 5b b6
       0.000487804 8.040275e-05 0.00028635614 -3.2761325e-06
000240 3d 3d 0c b7 22 85 3b b9 1f 16 2f 37 6e 74 72 b7
       -8.358908e-06 -0.00017883306 1.0435963e-05 -1.4451432e-05
000250 b3 02 5c b5 16 35 a6 39 47 46 84 b9 22 a1 b9 b8
       -8.1960314e-07 0.0003170154 -0.00025229363 -8.851501e-05
000260 72 bf d3 b8 f6 29 0d b9 78 fb c6 38 77 80 2a 39
       -0.000100969235 -0.0001346244 9.4882154e-05 0.0001626032
000270 c6 bb 83 b7 20 b5 1c 38 34 31 14 b8 40 b0 ff b8
       -1.5703856e-05 3.7361984e-05 -3.5331774e-05 -0.00012192177
000280 c9 ea 81 b9 54 c7 90 b8 63 56 48 39 b0 b5 f6 b7
       -0.00024779726 -6.903583e-05 0.00019105668 -2.941009e-05
000290 18 e2 13 b7 7a 6e 10 39 12 27 37 39 e1 e4 c6 38
       -8.814524e-06 0.00013774066 0.00017466795 9.484008e-05
0002a0 15 74 5e 39 46 9a 15 b9 5a a2 7b 38 1d 37 79 38
       0.00021214814 -0.00014267219 5.9994265e-05 5.9417554e-05
0002b0 99 cc 33 b7 45 55 1d b8 08 1f f7 38 9d 50 0d 39
       -1.0716868e-05 -3.751113e-05 0.00011783658 0.00013476839
0002c0 5a 25 83 b9 ac aa 81 b8 75 2f 40 b7 76 af 94 b7
       -0.00025014096 -6.1829895e-05 -1.1455141e-05 -1.772468e-05
0002d0 58 40 89 b8 e0 aa c2 37 a9 47 21 b7 f1 c8 63 b8
       -6.544654e-05 2.3206172e-05 -9.6130325e-06 -5.430816e-05
0002e0 20 15 7e 37 c5 63 0d b9 0b 95 88 b8 a1 09 31 b9
       1.5144498e-05 -0.00013483975 -6.512747e-05 -0.00016883622
0002f0 6d a3 86 b9 99 31 6d b9 4f e7 72 b9 2c 3d 8f b9
       -0.00025680233 -0.00022620558 -0.00023165088 -0.00027320662
000300 42 1a a3 b9 c4 48 a8 b8 f2 40 25 b9 c1 24 fc b4
       -0.00031109346 -8.024418e-05 -0.0001575982 -4.69654e-07
000310 57 6d 7c b7 47 3e 07 39 fc af 38 36 0e 51 33 38
       -1.5045828e-05 0.00012897803 2.7520573e-06 4.2752414e-05
000320 84 57 0d 39 91 9a 9c b8 68 b9 52 39 eb 1a 6d 36
       0.0001347941 -7.46745e-05 0.0002009623 3.533142e-06
000330 5e 31 4d b9 c2 fb 83 36 ed df 33 b7 37 4f 86 37
       -0.00019568714 3.9334127e-06 -1.0721368e-05 1.6010932e-05
000340 94 9a 19 39 bb c3 d2 b8 d5 2c 3b 39 4d f1 0e b8
       0.00014648802 -0.00010050038 0.00017850411 -3.4080167e-05
000350 e4 20 e8 b7 c3 cc 8a 38 ab 26 8a b8 2f 26 13 39
       -2.7671871e-05 6.6184926e-05 -6.587555e-05 0.00014033237
000360 23 09 4d b9 74 25 06 39 87 2d 3d 39 bf ba c2 37
       -0.00019553727 0.00012793188 0.00018041405 2.3213563e-05
000370 b2 b4 4c b9 e6 3b 87 38 51 5c c9 b7 af c2 6b b7
       -0.0001952227 6.4484586e-05 -2.4004055e-05 -1.405242e-05
000380 be 0c 32 b8 81 af c1 38 ff 6c 76 b8 5a 85 52 39
       -4.2450374e-05 9.235647e-05 -5.875248e-05 0.00020076838
000390 f8 d5 39 b8 c4 3b cd b8 81 45 ec 38 74 bb 04 39
       -4.430671e-05 -9.786294e-05 0.00011266303 0.00012658333
0003a0 b4 44 14 39 3f bf 80 b8 f7 1e 0b ba e8 02 08 b9
       0.00014139974 -6.139138e-05 -0.00053070433 -0.00012971053
0003b0 fd 1e 8f 38 a5 4e 4f 37 76 6a 15 b9 1f 85 41 38
       6.8245434e-05 1.2356472e-05 -0.00014249407 4.6138764e-05
0003c0 1b a7 a4 38 92 a2 2f b8 66 0b a4 b9 8d f3 8a b9
       7.851255e-05 -4.1874657e-05 -0.0003128901 -0.0002650287
0003d0 d1 b6 19 39 3f e6 0e 37 b0 a8 d6 b8 5b 4d 22 39
       0.00014659321 8.517468e-06 -0.00010235736 0.00015478341
0003e0 87 4d 48 b8 5e b3 8f 39 88 d8 aa 39 59 52 94 38
       -4.775592e-05 0.00027408724 0.00032586255 7.0725284e-05
0003f0 73 50 ea 38 0a fc df b9 01 b0 f6 b9 8b 83 8f 39
       0.00011172974 -0.00042721658 -0.0004705191 0.00027373093

autoencoders.0.encoder.cells.0.lstm.bias_ih f4 [32]
000000 00 00 00 00 00 00 00 00 00 00 00 00 00 00 00 00
       0.0 0.0 0.0 0.0
000010 00 00 00 00 00 00 00 00 00 00 00 00 00 00 00 00
       0.0 0.0 0.0 0.0
000020 00 00 00 00 00 00 00 00 00 00 00 00 00 00 00 00
       0.0 0.0 0.0 0.0
000030 00 00 00 00 00 00 00 00 00 00 00 00 00 00 00 00
       0.0 0.0 0.0 0.0
000040 00 00 00 00 00 00 00 00 00 00 00 00 00 00 00 00
       0.0 0.0 0.0 0.0
000050 00 00 00 00 00 00 00 00 00 00 00 00 00 00 00 00
       0.0 0.0 0.0 0.0
000060 00 00 00 00 00 00 00 00 00 00 00 00 00 00 00 00
       0.0 0.0 0.0 0.0
000070 00 00 00 00 00 00 00 00 00 00 00 00 00 00 00 00
       0.0 0.0 0.0 0.0

autoencoders.0.encoder.cells.0.lstm.bias_hh f4 [32]
000000 00 00 00 00 00 00 00 00 00 00 00 00 00 00 00 00
       0.0 0.0 0.0 0.0
000010 00 00 00 00 00 00 00 00 00 00 00 00 00 00 00 00
       0.0 0.0 0.0 0.0
000020 00 00 00 00 00 00 00 00 00 00 00 00 00 00 00 00
       0.0 0.0 0.0 0.0
000030 00 00 00 00 00 00 00 00 00 00 00 00 00 00 00 00
       0.0 0.0 0.0 0.0
000040 00 00 00 00 00 00 00 00 00 00 00 00 00 00 00 00
       0.0 0.0 0.0 0.0
000050 00 00 00 00 00 00 00 00 00 00 00 00 00 00 00 00
       0.0 0.0 0.0 0.0
000060 00 00 00 00 00 00 00 00 00 00 00 00 00 00 00 00
       0.0 0.0 0.0 0.0
000070 00 00 00 00 00 00 00 00 00 00 00 00 00 00 00 00
       0.0 0.0 0.0 0.0

autoencoders.0.decoder.cells.0.weight_h_2 f4 [8, 8]
000000 a6 57 df b8 16 6c 25 bc da 2c ab 3e 4f be ae b9
       -0.000106497944 -0.0100965705 0.33432657 -0.00033329657
000010 61 30 b4 b9 ae 7d 65 be 2a 2c 5d bd e8 04 ed be
       -0.0003436832 -0.22411224 -0.053997196 -0.46292806
000020 fe f7 59 b9 b8 0f 5c bd 0f 4d 69 3d f9 4b 4b 3d
       -0.00020787117 -0.053725928 0.056958254 0.049633
000030 05 de 5a 38 3c 6d 9f 3e 6f 38 28 3e e3 8a 18 bb
       5.2182022e-05 0.31138027 0.16427778 -0.0023276142
000040 12 44 0f b9 6b ce 37 3e b4 6b a9 3e 79 b7 02 3e
       -0.00013662901 0.17949836 0.33089983 0.12765302
000050 68 23 27 ba b3 1e a7 be a1 ee b1 bd 25 cf af be
       -0.00063758204 -0.3264061 -0.08688093 -0.34337726
000060 a1 f5 5d ba 66 29 9e be 27 27 7d be dd 11 2d ba
       -0.00084670825 -0.3089096 -0.24721967 -0.0006602088
000070 c8 61 4c ba 6d ab 7a 3e 02 18 a0 bd 71 0b b8 be
       -0.0007796553 0.24479456 -0.07817079 -0.3594623
000080 17 60 29 ba 35 79 c7 bd 66 4c 0e 3c 2c 9f ee b9
       -0.0006461157 -0.09739915 0.008685207 -0.0004551349
000090 da 0d 69 ba de e3 11 bc 08 32 ab be ff 1a 92 3d
       -0.00088903087 -0.008904425 -0.33436608 0.07134055
0000a0 65 97 09 bf e4 da 66 3e 42 98 39 be 66 9b d5 3d
       -0.53746635 0.22544438 -0.18124488 0.104300305
0000b0 69 e2 0d ba b3 18 b5 3e 0d 00 17 3e 11 1e dd bd
       -0.0005412461 0.35370407 0.14746113 -0.1079675
0000c0 c1 43 f5 3e a6 92 8a be 68 66 01 bf 4f 9f 30 37
       0.47903255 -0.2706501 -0.50546885 1.0527509e-05
0000d0 05 a2 c4 be ce ad a8 be 4b cd 1b 3e 7c 9b 57 3d
       -0.3840486 -0.32945102 0.15215032 0.052638516
0000e0 66 61 03 bf 5b 5e a4 bc cb a5 cd bd a1 ab ed b8
       -0.51320493 -0.020064523 -0.10041388 -0.00011333009
0000f0 ab 19 5f 38 12 ee 10 3e 4c 56 85 be dc 6c b7 ba
       5.319125e-05 0.14153317 -0.26042402 -0.0013994235

autoencoders.0.decoder.cells.0.bias_h_2 f4 [8]
000000 76 5e 5f bd 99 c6 59 bd d4 37 5b bd 85 c6 d6 b8
       -0.054533444 -0.053167913 -0.05352004 -0.00010241292
000010 15 01 88 3a 9f 0a d6 bd 97 ef 1f bd 5a 34 eb ba
       0.0010376299 -0.104512446 -0.03904685 -0.0017944679

autoencoders.0.decoder.cells.0.lstm.weight_ih f4 [32, 1]
000000 28 2c c6 b8 f9 23 c3 3e 92 32 72 37 56 1e 9c 38
       -9.4496005e-05 0.38113382 1.4436098e-05 7.44431e-05
000010 ed 8b 9c 38 2a 98 49 3d 7c fc bc 3e 24 ea fb 3e
       7.464723e-05 0.04921738 0.3691138 0.49202073
000020 83 4b 13 3d 87 d8 40 3c bc 5e 37 3a cb 21 bf 38
       0.035960685 0.011770374 0.00069950125 9.113884e-05
000030 2e 1d 49 b9 a7 16 77 ba 98 26 7d 3e 5f 75 c8 3d
       -0.00019179724 -0.00094256777 0.24721754 0.09788012
000040 d1 45 01 bf c9 16 14 3f b0 60 65 bf bf dd b0 3d
       -0.50497156 0.5784727 -0.8960066 0.08636045
000050 a9 39 98 bd 36 ed 3d 3f b8 63 35 3e 0d 17 72 3e
       -0.07432873 0.7419008 0.17713821 0.23641606
000060 6b b6 f0 3e 76 bc 11 3f 04 71 c3 38 57 69 97 38
       0.47014174 0.56928194 9.3193754e-05 7.219862e-05
000070 60 b1 0a 39 6f 90 b8 3e 01 41 14 3f 73 a9 c9 3e
       0.00013226783 0.36047694 0.5791169 0.39387092

autoencoders.0.decoder.cells.0.lstm.weight_hh f4 [32, 8]
000000 6b 39 cd 38 50 5f ea 38 0e fb 02 b9 22 f3 d0 38
       9.785857e-05 0.00011175743 -0.00012491291 9.9635e-05
000010 38 64 1a b9 07 8b ff 3d 73 37 f2 b8 63 65 70 b7
       -0.00014723919 0.12477689 -0.000115497875 -1.4328721e-05
000020 5f 00 89 3e b8 3e d7 3d 2c 8c 84 3e f8 cd f5 35
       0.26758096 0.105100095 0.25888193 1.8313867e-06
000030 a2 3b c8 b8 21 1f 17 3d cf dd 06 3e bc 90 4e 3e
       -9.547851e-05 0.03689492 0.13170551 0.201724
000040 62 ca 46 3c b0 66 1a 3a 4d ce fd 39 17 14 c3 3d
       0.012133213 0.00058899354 0.00048409626 0.09525316
000050 74 80 84 39 81 f7 ca b8 80 fa d6 3a a0 08 d2 39
       0.00025272707 -9.678212e-05 0.0016401559 0.00040060747
000060 bb 54 d1 b7 48 1e dd 38 9a 8c 85 b8 26 50 42 39
       -2.4954197e-05 0.000105437415 -6.368123e-05 0.0001853114
000070 c3 c2 08 b8 80 29 c1 b8 c4 f3 a2 38 b4 33 b8 39
       -3.2606313e-05 -9.210687e-05 7.770167e-05 0.00035133737
000080 55 24 ca b8 e8 f5 a1 38 0f fa 73 39 51 3a bb 38
       -9.638878e-05 7.722882e-05 0.0002326744 8.927717e-05
000090 ee f6 e2 38 b6 66 f7 38 1c 6e 27 39 88 80 d2 b8
       0.00010822514 0.00011797009 0.0001596738 -0.00010037521
0000a0 73 c7 ac 39 b9 1e a4 3e 38 b7 a1 3e 31 92 3b b7
       0.00032954998 0.3205469 0.31585097 -1.1180106e-05
0000b0 22 69 b2 37 59 dc 69 3e c6 7e 0c 3a 1f da da 3e
       2.126821e-05 0.22837962 0.0005359467 0.42744538
0000c0 f0 05 90 3a 05 34 bf b9 f1 ba 9b 39 73 72 1a 39
       0.0010988098 -0.00036469116 0.00029703186 0.0001472922
0000d0 1b 9c 07 3a 58 5c 2a 3e 8b 67 9b b6 94 cf df 3d
       0.0005173103 0.16636789 -4.631414e-06 0.10928264
0000e0 b5 ca 87 b9 11 03 b6 ba 9a 26 46 ba d8 9f c6 b9
       -0.00025900235 -0.0013886412 -0.00075588527 -0.00037884596
0000f0 92 2d 8d ba 39 88 d2 ba 37 da 58 3e 47 10 94 3e
       -0.0010771027 -0.0016062326 0.21176992 0.2891867
000100 53 e9 03 38 08 b2 14 b9 f6 2c 96 b8 4d 2b 9c 38
       3.1450134e-05 -0.00014180702 -7.160932e-05 7.446725e-05
000110 c9 38 02 b8 75 18 0d b9 3b 24 79 b9 0e 22 6a b9
       -3.10473e-05 -0.00013455919 -0.00023759987 -0.00022328665
000120 dd 89 a8 ba 0a 4a 9e 3c 2b 8b a3 ba 44 af 83 ba
       -0.0012858469 0.019322414 -0.0012477388 -0.001004674
000130 41 66 0a bb d1 a9 ed 3e 88 c1 fc bd 42 6b ed ba
       -0.0021118077 0.46418622 -0.12341601 -0.001811363
000140 c5 01 83 ba 2d 91 80 39 5f 8c a3 ba 57 14 ea 38
       -0.0009995034 0.00024522227 -0.0012477747 0.00011161778
000150 0a 0e 8e ba f7 c5 3d 3a 9b 0d 2c ba 8b de 5a b9
       -0.0010837924 0.0007239277 -0.00065633067 -0.00020873004
000160 0d 38 73 b9 17 02 ea b8 77 f2 c3 b9 5f 7e bc 38
       -0.00023195166 -0.00011158379 -0.0003737395 8.988077e-05
000170 81 cd 7b b9 6a 85 84 39 90 64 59 39 62 3f 1e b8
       -0.00024013782 0.00025276403 0.00020732195 -3.7729165e-05
000180 c9 ba 5f 39 78 de 27 38 44 4e b4 b7 0e 01 28 38
       0.0002133652 4.0023093e-05 -2.1494117e-05 4.0055304e-05
000190 6c 90 03 b9 29 62 d1 37 a4 bd 4b b9 f6 5f f5 b8
       -0.00012546935 2.496045e-05 -0.00019430235 -0.000117003845
0001a0 63 f5 be 3c 09 72 9e 3c 26 f5 3b 3d 0c ad e8 ba
       0.023310369 0.019341486 0.04588809 -0.0017751767
0001b0 69 2b 1b bb 85 fc e6 3c 43 23 24 bb a8 25 82 bb
       -0.0023676998 0.028196583 -0.0025045432 -0.003971774
0001c0 dd 77 0f 3a f1 29 33 ba 50 b7 24 bc 78 53 78 b9
       0.0005472878 -0.0006834558 -0.010053471 -0.00023682218
0001d0 87 30 19 b9 66 bf 22 ba c9 84 95 b9 4f 97 1d ba
       -0.00014609295 -0.000620833 -0.00028518427 -0.00060116214
0001e0 d7 eb 88 ba f4 54 f7 3e 05 ce 90 ba 95 c4 14 be
       -0.0010446262 0.48307002 -0.0011047727 -0.14528115
0001f0 5a 84 c2 ba a1 59 a6 ba 97 7a 63 3d d3 fd 6d bd
       -0.0014840469 -0.0012691506 0.055536833 -0.058103394
000200 7b d7 35 3e ce 01 18 be 82 7d b6 bd 46 1e ae 3d
       0.1775798 -0.14844438 -0.089106575 0.08501868
000210 ce 67 04 3b ef f1 1b 3d a7 3c 68 3c 72 55 db 3c
       0.0020203474 0.038072523 0.014174617 0.026774142
000220 43 89 a1 bc 64 50 59 3e ac 75 de bd e6 2f a7 bd
       -0.019718772 0.21222073 -0.10862288 -0.08163433
000230 93 e0 94 3e 77 bb f6 3b 67 4d a7 be d0 d9 89 3e
       0.29077587 0.007529672 -0.3267624 0.2692399
000240 2b 7b fe 39 c6 23 48 bd 9a ae 40 3b 51 84 4b 3e
       0.00048538423 -0.04886224 0.0029400946 0.19874693
000250 86 60 a5 3e 08 a9 b6 3b d3 6a d9 3c 99 a4 85 ba
       0.32300204 0.0055743493 0.026540196 -0.0010196149
000260 64 5e 53 b9 ac 81 17 3d a5 6a f8 39 ff 05 d4 3d
       -0.00020157691 0.0369889 0.00047381702 0.10352706
000270 fc bb c8 3c 52 8d 7f 3e 31 f1 01 3a 83 a6 63 be
       0.0245037 0.24956253 0.00049569 -0.22231488
000280 2d b0 af 3a c0 6f 62 3b b1 c9 06 3b fa 3a d2 bd
       0.0013403945 0.0034551471 0.0020566995 -0.10265155
000290 03 6c 64 b9 7f 76 f9 3a 69 b5 5f 3b 7a 3d 33 3a
       -0.00021784012 0.0019032507 0.0034135228 0.0006837469
0002a0 b8 07 4b be 86 f9 d9 3d b7 b8 7d be d5 68 2f be
       -0.19827163 0.10643296 -0.24777494 -0.17129834
0002b0 d9 6d ed bd 47 cb dc 3c 40 25 ea 3d dc ae 23 3e
       -0.115932174 0.026952399 0.11432886 0.15984672
0002c0 14 d6 4b bd 2a 9f 89 3e 99 c2 a8 bc 4f 9e 65 3d
       -0.049764708 0.26879245 -0.020600604 0.056059178
0002d0 69 d6 c8 3e 59 53 b1 3d ac 7a 64 3e 01 60 bf 37
       0.39226082 0.086584754 0.2231242 2.281368e-05
0002e0 89 aa 0a 39 94 90 87 bd 14 42 8d 3e 00 6c a4 3e
       0.00013224235 -0.06619373 0.27589476 0.32113647
0002f0 53 03 c5 be 1f 76 e0 3e 83 44 8f 3d 20 6c b0 3d
       -0.384791 0.4384012 0.069954894 0.08614373
000300 b4 0b 84 39 a9 a4 a3 b7 29 bf 37 38 0f 7c 48 b9
       0.00025185721 -1.950779e-05 4.380863e-05 -0.00019119702
000310 1d 33 0a b9 47 0d 20 3e 07 7a 42 38 11 60 21 b8
       -0.00013179747 0.15630065 4.636685e-05 -3.847486e-05
000320 93 55 46 38 a1 4e 51 3e 23 41 d7 3d 97 32 56 3d
       4.7286576e-05 0.20440151 0.10510471 0.05229434
000330 62 ea af b9 ad 81 80 3e 80 71 1c 3e 39 d9 71 3e
       -0.0003355323 0.25098935 0.15277672 0.2361802
000340 55 2b b9 38 1c 3e 96 3e 8c ea 52 3d a2 b2 8f 39
       8.829559e-05 0.2934426 0.051493213 0.00027408177
000350 3f d6 28 3a 06 38 45 3c c5 a5 ff 3a ce 54 01 3a
       0.00064406166 0.012037283 0.0019504359 0.00049335964
000360 a9 76 48 35 09 81 8a 38 4d b0 be 39 f4 74 a8 38
       7.467848e-07 6.6043875e-05 0.00036370978 8.0326485e-05
000370 e1 09 c5 b8 f4 43 15 b7 76 ed 3e 38 80 eb 67 b9
       -9.395532e-05 -8.896914e-06 4.5520683e-05 -0.00022117607
000380 20 32 2f 36 50 47 5c b8 74 91 5f b9 4a 72 d6 38
       2.6106209e-06 -5.2518502e-05 -0.00021321123 0.00010225603
000390 d0 c7 06 b9 aa 43 65 39 ef 3f 54 39 f8 70 08 39
       -0.00012853672 0.00021864349 0.00020241713 0.00013012055
0003a0 13 14 18 b9 c4 2c df 3e 2d 11 97 b8 86 f3 a7 39
       -0.00014503328 0.4358884 -7.20344e-05 0.0003203416
0003b0 8a 27 87 3d d0 b6 9f 3d 19 5b 90 3e ae b1 f7 3e
       0.06599338 0.077985406 0.28194502 0.48377746
0003c0 1d 6c 6d 3a fd f6 69 3d 9c f0 12 39 6d 7c 63 39
       0.00090569427 0.057120312 0.00014013279 0.00021694759
0003d0 22 7f 26 ba 98 cc 04 3e bd 03 a3 b9 c1 94 68 39
       -0.0006351342 0.12968671 -0.00031092568 0.0002218066
0003e0 c4 c8 6e b9 09 d8 96 3e 1e f2 b8 ba 60 82 5c 38
       -0.0002277224 0.29461697 -0.0014110242 5.257351e-05
0003f0 cd e2 f0 39 5b d1 86 3d 59 14 b8 3d 7a 8b f4 b9
       0.00045945347 0.065829 0.08988256 -0.00046643225

autoencoders.0.decoder.cells.0.lstm.bias_ih f4 [32]
000000 2d 1c 33 3e 97 ce 4f 3e f0 7d c3 3e f4 96 f2 38
       0.17491217 0.20293652 0.3818202 0.000115675764
000010 4e 4a dc b7 89 bd ac 3e 1e 1f 26 b9 5f 7c 89 b9
       -2.6260645e-05 0.33738354 -0.00015842586 -0.0002622334
000020 b7 6e 52 ba e4 80 3e 3d e7 7a 9f 3d 69 95 8f 39
       -0.0008027362 0.04650964 0.07787114 0.00027386405
000030 f2 6c 3c 39 6b 02 03 3e 08 7e ff b9 e5 5a 4f ba
       0.00017969662 0.12793891 -0.0004873129 -0.00079099677
000040 32 23 2a 3d af 33 cd bc 49 74 83 3d 89 d9 83 3c
       0.04153747 -0.025049059 0.06418664 0.01609494
000050 af 27 48 3b 7b b9 56 3c 11 d6 3e 3d ba d2 56 3c
       0.0030541231 0.013105745 0.04659087 0.013111765
000060 24 19 03 3e c6 7a 64 3e e6 63 c8 3e 15 31 90 b8
       0.12802559 0.2231246 0.39138716 -6.875597e-05
000070 08 c6 52 b8 34 05 b7 3e e2 cf 2d 3d ad d1 3a b8
       -5.0252333e-05 0.35746157 0.04243458 -4.454113e-05

autoencoders.0.decoder.cells.0.lstm.bias_hh f4 [32]
000000 2d 1c 33 3e 97 ce 4f 3e f0 7d c3 3e f4 96 f2 38
       0.17491217 0.20293652 0.3818202 0.000115675764
000010 4e 4a dc b7 89 bd ac 3e 1e 1f 26 b9 5f 7c 89 b9
       -2.6260645e-05 0.33738354 -0.00015842586 -0.0002622334
000020 b7 6e 52 ba e4 80 3e 3d e7 7a 9f 3d 69 95 8f 39
       -0.0008027362 0.04650964 0.07787114 0.00027386405
000030 f2 6c 3c 39 6b 02 03 3e 08 7e ff b9 e5 5a 4f ba
       0.00017969662 0.12793891 -0.0004873129 -0.00079099677
000040 32 23 2a 3d af 33 cd bc 49 74 83 3d 89 d9 83 3c
       0.04153747 -0.025049059 0.06418664 0.01609494
000050 af 27 48 3b 7b b9 56 3c 11 d6 3e 3d ba d2 56 3c
       0.0030541231 0.013105745 0.04659087 0.013111765
000060 24 19 03 3e c6 7a 64 3e e6 63 c8 3e 15 31 90 b8
       0.12802559 0.2231246 0.39138716 -6.875597e-05
000070 08 c6 52 b8 34 05 b7 3e e2 cf 2d 3d ad d1 3a b8
       -5.0252333e-05 0.35746157 0.04243458 -4.454113e-05

autoencoders.0.decoder.output_layer.weight f4 [1, 8]
000000 c0 d8 1c be 7a 28 a4 3e a7 37 56 be 79 4b 91 3d
       -0.15317059 0.3206213 -0.20919667 0.070944734
000010 14 10 bc bc 5b d3 93 3e 37 b1 8a 3e 18 31 5e 3e
       -0.022956885 0.2887219 0.2708833 0.21698415

autoencoders.1.encoder.cells.0.weight_h_2 f4 [8, 8]
000000 e9 1b 24 39 08 80 ca 38 9b e5 2c b9 37 bb 91 b8
       0.00015650656 9.655958e-05 -0.00016488733 -6.94901e-05
000010 0a 77 9d 38 4c ce c2 38 63 2f ba b8 83 81 52 b9
       7.508516e-05 9.289067e-05 -8.8779976e-05 -0.00020075408
000020 3d 5d 24 39 bc f3 a3 b8 41 74 dc b8 64 21 9b b9
       0.00015674993 -7.817845e-05 -0.000105120715 -0.00029588782
000030 4b 63 90 b8 77 f8 fc b8 2c f3 e0 39 9d 3c 0e b8
       -6.88495e-05 -0.000120625766 0.00042905787 -3.391189e-05
000040 c8 c0 8b 39 19 d6 ac 38 d2 78 0a 39 46 5f 8d 38
       0.0002665578 8.241478e-05 0.00013205715 6.74115e-05
000050 00 72 36 b9 d1 a4 c8 b7 17 03 39 b9 61 23 b3 b9
       -0.00017399341 -2.3918607e-05 -0.00017644126 -0.000341679
000060 23 7a 3e b9 d5 4d 37 b8 26 b9 30 39 d6 e5 00 b9
       -0.00018165311 -4.3703087e-05 0.00016853641 -0.00012292652
000070 8e b7 ae b9 21 78 6b b8 31 94 20 39 7e 3d 9e b9
       -0.00033324625 -5.6140245e-05 0.00015313995 -0.00030181924
000080 ac 62 28 37 15 6e 53 39 64 52 b3 b9 f6 dd 0e 38
       1.0036554e-05 0.00020163537 -0.00034202926 3.4062155e-05
000090 9c 97 fa b8 8a 80 0f b9 32 0a 46 39 af 70 2d 38
       -0.000119491684 -0.00013685427 0.0001888655 4.135136e-05
0000a0 f8 5d 8d 39 0a 19 d2 b8 34 f6 5f b7 77 5b 57 b9
       0.00026963628 -0.00010018244 -1.3349159e-05 -0.00020538071
0000b0 d5 14 62 b9 cb 80 aa 38 fc 61 8f b9 bb 28 7f b9
       -0.000215608 8.130221e-05 -0.0002734809 -0.00024333868
0000c0 80 9b 80 b8 8b 7d 65 b8 2c ec 40 39 52 c1 0c 39
       -6.13248e-05 -5.4714776e-05 0.00018398528 0.00013423458
0000d0 4d bd 94 36 05 ff 9d b7 1c b2 0b 39 97 13 33 b9
       4.432781e-06 -1.8834611e-05 0.00013322424 -0.00017078068
0000e0 35 5f 58 39 5e da 3b b9 7c 07 0b b9 26 e8 2c b9
       0.00020634833 -0.00017915058 -0.00013258861 -0.0001648968
0000f0 34 78 54 b9 4d c3 04 b8 8a a7 f3 b9 6f e5 57 b9
       -0.00020262675 -3.165314e-05 -0.00046473398 -0.00020589468

autoencoders.1.encoder.cells.0.bias_h_2 f4 [8]
000000 00 00 00 00 00 00 00 00 00 00 00 00 00 00 00 00
       0.0 0.0 0.0 0.0
000010 00 00 00 00 00 00 00 00 00 00 00 00 00 00 00 00
       0.0 0.0 0.0 0.0

autoencoders.1.encoder.cells.0.lstm.weight_ih f4 [32, 1]
000000 a7 e1 25 b9 a9 9b 98 b8 5e 2a 93 b9 23 69 08 b8
       -0.00015819688 -7.276919e-05 -0.0002806959 -3.2522843e-05
000010 d6 63 08 39 2a 35 40 b8 2d 80 25 38 d7 51 bb 37
       0.00013007162 -4.582588e-05 3.945844e-05 2.2330247e-05
000020 6e 82 1d b9 93 b3 77 38 32 64 ff 38 3a 21 31 b9
       -0.00015021276 5.905663e-05 0.000121780104 -0.00016892413
000030 d4 e2 f9 38 ee 6c 84 b8 2a 96 8c b9 31 95 62 39
       0.00011915495 -6.31454e-05 -0.00026814762 0.00021608618
000040 7e 0d 90 39 e6 95 d2 b8 f9 a6 98 b9 d6 3a 52 39
       0.00027475873 -0.00010041501 -0.00029116104 0.00020049079
000050 04 be 16 37 1b de 5a 38 43 0d 61 b9 32 30 41 38
       8.984938e-06 5.2182102e-05 -0.00021462612 4.605967e-05
000060 fb 67 56 b8 68 ca 08 b9 6c 76 10 b8 3b 84 9c 38
       -5.1118415e-05 -0.00013045373 -3.4442564e-05 7.4632895e-05
000070 b5 47 63 38 c1 61 7d 38 41 f7 dc 38 72 33 0e 39
       5.41878e-05 6.041094e-05 0.00010536472 0.0001356134

autoencoders.1.encoder.cells.0.lstm.weight_hh f4 [32, 8]
000000 6d 87 ac b7 7b b6 57 38 95 a3 cd 37 65 ee 29 b9
       -2.056706e-05 5.1429943e-05 2.4514078e-05 -0.00016205905
000010 1b 98 b9 b9 af c3 12 b8 ab bc fa 38 86 cf bb 37
       -0.00035399277 -3.4991357e-05 0.00011956071 2.2388773e-05
000020 79 91 f4 38 3d c2 41 39 52 7c 87 b8 5f 71 e4 b9
       0.00011661923 0.00018478274 -6.460458e-05 -0.00043572017
000030 0e 76 3c b8 70 7c 6b b9 40 4b 8f 33 a6 14 4c b8
       -4.493264e-05 -0.00022457703 6.672644e-08 -4.865662e-05
000040 d8 f3 82 35 0e 74 1c b6 6d cc 6a b9 f5 4d 12 b9
       9.756723e-07 -2.3313364e-06 -0.00022392134 -0.00013952686
000050 cf 68 82 39 b5 ad b7 b9 7a 96 68 b9 cb 93 96 39
       0.0002487362 -0.00035033902 -0.00022181301 0.00028720344
000060 03 d4 d1 b8 97 22 2b b8 12 1b 5a 39 67 a9 07 b9
       -0.00010005387 -4.080179e-05 0.00020800185 -0.0001293771
000070 4a 19 e5 38 10 de 93 b9 de 90 fb b8 b1 ad d2 b6
       0.000109242814 -0.00028203474 -0.00011995596 -6.278708e-06
000080 f6 d0 07 39 c2 2c bb 39 80 3d 12 39 17 b1 b1 38
       0.00012952447 0.00035700767 0.00013946556 8.473003e-05
000090 f1 66 40 38 9e 53 96 b8 08 78 41 b9 d2 3e fe 38
       4.587224e-05 -7.168132e-05 -0.0001845063 0.00012123365
0000a0 42 2c 41 b9 19 fe 54 b9 aa f9 1e b9 5d ad 0a 39
       -0.00018422402 -0.00020312554 -0.00015161061 0.00013225288
0000b0 96 08 2b b8 e2 2d 09 39 25 26 81 b7 35 7a 43 b7
       -4.0777573e-05 0.00013082431 -1.539576e-05 -1.1651359e-05
0000c0 18 78 29 b9 64 6b 27 39 08 e0 ad 34 1f b8 1c b9
       -0.00016161834 0.00015966367 3.2386765e-07 -0.0001494591
0000d0 8d 91 5a 39 48 fd 2d b8 cb 60 ad 39 c9 fb 94 39
       0.00020844322 -4.14823e-05 0.00033069248 0.00028416354
0000e0 85 2f f7 38 4b 28 3b b7 d7 71 0b b8 fe 39 09 38
       0.00011786729 -1.115545e-05 -3.3246204e-05 3.2717355e-05
0000f0 39 3a df 38 89 4d c5 39 65 e1 0c b9 44 ab 49 37
       0.000106443134 0.00037632536 -0.00013435406 1.20204095e-05
000100 ae ae dc 39 40 60 86 38 58 66 2e 36 6c 36 96 b8
       0.00042091816 6.407546e-05 2.5987592e-06 -7.162694e-05
000110 c9 ad d6 34 89 36 1d b9 25 b0 81 39 89 be a8 38
       3.9987052e-07 -0.00014993003 0.00024736035 8.046354e-05
000120 44 1b 0f b8 1b a7 c2 b8 44 47 27 39 70 fe 37 39
       -3.411925e-05 -9.281767e-05 0.0001595291 0.00017547025
000130 48 4d 17 b8 10 3a 95 38 6a d5 08 b9 c5 12 14 38
       -3.607318e-05 7.115689e-05 -0.00013049474 3.530343e-05
000140 28 08 23 b9 58 b0 d1 b8 62 1f 7c b9 da 72 08 b9
       -0.0001554793 -9.998743e-05 -0.00024044284 -0.00013012756
000150 78 68 ed 39 4b 4a 70 b9 c9 6f b2 37 72 6c f4 38
       0.00045281998 -0.0002291586 2.1271308e-05 0.00011655026
000160 01 2d c1 b6 91 22 68 b7 3e d5 36 b9 f1 50 80 b9
       -5.7570874e-06 -1.3836326e-05 -0.00017436311 -0.0002447437
000170 e4 85 09 39 07 46 1e 39 3c 98 15 39 be b8 2a b8
       0.00013115216 0.00015094141 0.00014266459 -4.0703213e-05
000180 88 2e 89 b7 11 33 b2 38 44 d0 ea b8 00 3a 22 b9
       -1.635334e-05 8.497213e-05 -0.00011196782 -0.0001547113
000190 8d 3f 24 b9 c3 ae a5 39 da 83 bb b9 22 57 e4 b8
       -0.00015663933 0.0003160146 -0.00035765657 -0.00010888117
0001a0 2f b1 36 b9 44 ae a0 39 26 11 b8 b7 c6 70 e2 b8
       -0.00017422879 0.00030647416 -2.1942495e-05 -0.000107975255
0001b0 7d 06 5b b8 c5 09 1a b9 6a 3d a7 b9 c5 94 aa 37
       -5.221971e-05 -0.00014690224 -0.0003189848 2.0334855e-05
0001c0 4e 33 14 b6 73 eb 5c 38 97 d2 e8 38 f7 06 3a b9
       -2.2083582e-06 5.2671367e-05 0.000111018475 -0.00017740937
0001d0 d5 ac 86 38 81 45 c9 b8 f5 5e c5 b8 2d 09 fd b7
       6.4218104e-05 -9.597373e-05 -9.411379e-05 -3.0164223e-05
0001e0 96 7b 0c b8 06 05 0a b9 a8 5c 79 38 13 e9 2d 39
       -3.34937e-05 -0.00013162577 5.945252e-05 0.00016585393
0001f0 1e 92 ae 38 0e ef 28 b6 a6 72 07 39 f2 02 61 b9
       8.324183e-05 -2.51731e-06 0.00012917313 -0.0002145877
000200 d7 39 d4 b9 49 08 64 38 f8 05 94 b9 5d 25 aa b7
       -0.00040478885 5.4367152e-05 -0.00028233207 -2.0282978e-05
000210 71 d5 b4 b8 8f ce 7f 38 25 59 9b b8 1d 92 f9 b8
       -8.6228254e-05 6.098911e-05 -7.4075804e-05 -0.00011900461
000220 f5 59 96 38 f2 41 04 39 86 8a 0c b9 2b f5 bd b8
       7.169313e-05 0.00012613068 -0.00013403044 -9.0578884e-05
000230 65 98 6b 39 2c c6 0c 37 15 7f 53 38 11 83 2c b9
       0.00022468118 8.390791e-06 5.0424675e-05 -0.00016452024
000240 83 15 07 39 24 0f 8e 39 ea 4f 99 b9 d9 63 f2 b7
       0.00012882617 0.0002709563 -0.00029241975 -2.8895143e-05
000250 63 e1 78 38 3e e9 71 b9 af 50 8a b7 40 52 c1 36
       5.9337715e-05 -0.0002307044 -1.6488453e-05 5.7614234e-06
000260 de cf e4 38 d6 10 0d 39 1f e8 74 b8 93 82 0a 39
       0.000109106055 0.0001345308 -5.8390313e-05 0.00013209348
000270 16 05 7a b9 94 da d8 39 eb e6 26 39 d9 18 81 38
       -0.00023843753 0.00041361584 0.00015917017 6.1558276e-05
000280 14 8d 05 39 3d c0 07 b9 ab eb 74 b4 0c cb 09 b8
       0.00012736424 -0.00012946218 -2.2810006e-07 -3.2852447e-05
000290 b8 84 6a 38 45 4f 6f b8 b1 ea 09 37 5d 51 01 39
       5.591355e-05 -5.7055866e-05 8.22048e-06 0.00012332709
0002a0 85 43 1b 39 1e ca 28 38 36 7e 6c b8 bc 67 17 b9
       0.00014807105 4.0242558e-05 -5.6384328e-05 -0.00014439126
0002b0 8e 0d 22 b9 bf 4f 0e b9 55 d2 a4 36 5d e2 f3 38
       -0.00015454573 -0.00013571883 4.9120667e-06 0.000116293064
0002c0 fe c1 07 b9 8c b4 27 b9 d1 c6 27 b7 d6 24 1f b8
       -0.00012946871 -0.0001599362 -1.0000266e-05 -3.794286e-05
0002d0 40 98 95 38 16 df b8 b8 9f e8 3d 39 6c 25 8a b8
       7.1332324e-05 -8.815357e-05 0.00018111103 -6.587323e-05
0002e0 22 d9 1d 39 94 86 9a b7 b3 f5 d2 b9 d5 0d 9c 38
       0.00015053575 -1.8420898e-05 -0.00040237381 7.441236e-05
0002f0 95 db f1 b8 8c 56 b3 b8 8d dd d8 b7 a7 f5 41 b8
       -0.00011532676 -8.551506e-05 -2.5852374e-05 -4.6243567e-05
000300 ad 8f d3 b7 7c 6f 64 b8 aa 4d 03 b9 c5 71 0b b9
       -2.5220064e-05 -5.4463264e-05 -0.00012522066 -0.00013298455
000310 59 1c 80 b9 0e b4 76 b8 a1 ae d7 b8 6c 0c 07 39
       -0.00024435183 -5.881866e-05 -0.00010284526 0.00012879231
000320 37 e8 9f b8 a1 7d 93 b8 41 ad 3a 38 4c 3e bf 37
       -7.624964e-05 -7.0329064e-05 4.450721e-05 2.2797984e-05
000330 46 98 05 b9 4d ea 9e 37 62 b4 61 38 bf 53 b9 b7
       -0.00012740595 1.8944173e-05 5.3812175e-05 -2.2092716e-05
000340 ed 2a b3 b8 b8 19 63 b8 8a 06 6a b9 1c 8f d1 37
       -8.543381e-05 -5.414497e-05 -0.00022318415 2.4981382e-05
000350 6a ef a5 b8 9e 32 dd 38 28 88 07 39 58 17 16 39
       -7.9124075e-05 0.000105475294 0.00012925325 0.00014313811
000360 40 9a 51 b8 ed b9 63 b9 ac fe 42 b9 1e 6a ed 38
       -4.997314e-05 -0.0002171767 -0.00018596154 0.000113208065
000370 3f 59 14 b7 6b 9c ce b8 35 e0 e7 b7 5d 9f 1a b8
       -8.842267e-06 -9.8519806e-05 -2.764175e-05 -3.686488e-05
000380 4d 4b 9c 38 a5 aa 6b b8 81 b8 97 38 90 9e ff b8
       7.4526855e-05 -5.618729e-05 7.2346076e-05 -0.00012188882
000390 d5 cf a1 b7 1c 4f a6 b9 67 40 d9 b8 c1 19 aa b8
       -1.9289475e-05 -0.00031720928 -0.00010359362 -8.111029e-05
0003a0 66 96 bc b8 9a ad b8 b7 5b a0 15 b7 3d c5 37 b9
       -8.9925525e-05 -2.2015349e-05 -8.918428e-06 -0.00017525717
0003b0 69 fb d7 b7 b0 96 48 38 4d 18 78 39 59 c1 a9 39
       -2.574707e-05 4.7824054e-05 0.00023660176 0.00032378247
0003c0 c0 a6 06 b9 27 88 ac b9 bc bb 2d 39 f4 2d 9d 38
       -0.00012841355 -0.00032907838 0.00016568502 7.494903e-05
0003d0 e4 01 01 b9 05 38 dc b8 64 19 86 39 69 95 ef b8
       -0.00012303103 -0.00010500852 0.0002557739 -0.00011424238
0003e0 4b a2 5c b8 16 c0 7e b9 f9 9f 51 b8 9e f1 6b 38
       -5.2603235e-05 -0.00024294885 -4.997847e-05 5.625339e-05
0003f0 f5 d4 88 b8 e2 e9 a3 38 10 58 8f 38 51 27 dd b6
       -6.524652e-05 7.81601e-05 6.835174e-05 -6.5908903e-06

autoencoders.1.encoder.cells.0.lstm.bias_ih f4 [32]
000000 00 00 00 00 00 00 00 00 00 00 00 00 00 00 00 00
       0.0 0.0 0.0 0.0
000010 00 00 00 00 00 00 00 00 00 00 00 00 00 00 00 00
       0.0 0.0 0.0 0.0
000020 00 00 00 00 00 00 00 00 00 00 00 00 00 00 00 00
       0.0 0.0 0.0 0.0
000030 00 00 00 00 00 00 00 00 00 00 00 00 00 00 00 00
       0.0 0.0 0.0 0.0
000040 00 00 00 00 00 00 00 00 00 00 00 00 00 00 00 00
       0.0 0.0 0.0 0.0
000050 00 00 00 00 00 00 00 00 00 00 00 00 00 00 00 00
       0.0 0.0 0.0 0.0
000060 00 00 00 00 00 00 00 00 00 00 00 00 00 00 00 00
       0.0 0.0 0.0 0.0
000070 00 00 00 00 00 00 00 00 00 00 00 00 00 00 00 00
       0.0 0.0 0.0 0.0

autoencoders.1.encoder.cells.0.lstm.bias_hh f4 [32]
000000 00 00 00 00 00 00 00 00 00 00 00 00 00 00 00 00
       0.0 0.0 0.0 0.0
000010 00 00 00 00 00 00 00 00 00 00 00 00 00 00 00 00
       0.0 0.0 0.0 0.0
000020 00 00 00 00 00 00 00 00 00 00 00 00 00 00 00 00
       0.0 0.0 0.0 0.0
000030 00 00 00 00 00 00 00 00 00 00 00 00 00 00 00 00
       0.0 0.0 0.0 0.0
000040 00 00 00 00 00 00 00 00 00 00 00 00 00 00 00 00
       0.0 0.0 0.0 0.0
000050 00 00 00 00 00 00 00 00 00 00 00 00 00 00 00 00
       0.0 0.0 0.0 0.0
000060 00 00 00 00 00 00 00 00 00 00 00 00 00 00 00 00
       0.0 0.0 0.0 0.0
000070 00 00 00 00 00 00 00 00 00 00 00 00 00 00 00 00
       0.0 0.0 0.0 0.0

autoencoders.1.decoder.cells.0.weight_h_2 f4 [8, 8]
000000 53 07 94 3d 79 de 85 be 2b 68 33 bf 36 ef 87 3e
       0.072279595 -0.26146296 -0.7008082 0.2654969
000010 00 5e a7 b8 b5 45 86 b8 f3 87 52 bf 15 6b 6b 3e
       -7.9806894e-05 -6.402602e-05 -0.8223869 0.22990067
000020 b5 5f e9 bc f2 c6 dc be 5c 34 02 39 e0 73 c2 be
       -0.02848802 -0.43120533 0.00012417272 -0.3797903
000030 97 04 be 39 7e 6a 35 3e 06 94 a1 3e 27 88 ab 3e
       0.00036243044 0.17716405 0.31558245 0.33502313
000040 02 2a cd 3b d7 2d 0f bc 6e 3a 14 bd a1 7b e1 3c
       0.0062611112 -0.008738956 -0.036188535 0.027524771
000050 dd 42 a5 b9 4f 58 bd be d8 9d e6 3d 89 32 16 bc
       -0.0003152107 -0.36981437 0.11260575 -0.009167322
000060 79 b1 21 3e bb 48 3c bd f9 e4 3b be 17 e1 9c bd
       0.15790357 -0.0459678 -0.18349065 -0.0766012
000070 d0 9b d7 3d 5f 51 04 bf 71 df a2 bb 5f cc 4c 3e
       0.10527766 -0.5168666 -0.004970484 0.19999836
000080 f5 bf 06 bf 47 64 ae bc a8 c8 8a 3c 6d 72 ce be
       -0.52636653 -0.02128805 0.016941383 -0.40321675
000090 ec e9 64 be e3 82 e1 bd 00 4d 19 bd 61 27 be bc
       -0.22354859 -0.11011293 -0.03742695 -0.023212137
0000a0 89 1a 51 bc df c6 bd bd 0f 92 31 3a 12 80 6c bd
       -0.012762674 -0.09266447 0.00067737786 -0.057739325
0000b0 9d 01 b4 b9 1e fd e4 bc 8c ae 7b be 2a 79 86 3d
       -0.00034333477 -0.027952727 -0.24578303 0.06566079
0000c0 f0 80 e5 be 2c db 85 be 90 59 b0 39 2f 48 1b 3f
       -0.44824934 -0.26143777 0.00033636065 0.6065702
0000d0 09 32 9f 37 1a a1 c9 bd 49 03 28 be 35 43 20 bd
       1.8977576e-05 -0.09845181 -0.16407503 -0.039126594
0000e0 1f b3 13 3f b2 bd 2e b7 40 88 a7 3a 41 fa 09 3f
       0.5769519 -1.0415375e-05 0.0012781695 0.5389748
0000f0 b4 e9 85 3c 36 d6 9a bd 5f ef b2 bb c0 e4 83 bb
       0.01634679 -0.07560389 -0.005460664 -0.004025072

autoencoders.1.decoder.cells.0.bias_h_2 f4 [8]
000000 44 41 bc bd 97 9b cc bd df 4f 1e 39 d1 60 85 bd
       -0.09192136 -0.09990614 0.00015097809 -0.06512607
000010 eb 2e 7b ba db 1b 08 bd 76 2b 1c be 18 a9 0d be
       -0.00095818815 -0.03322969 -0.15250954 -0.13834035

autoencoders.1.decoder.cells.0.lstm.weight_ih f4 [32, 1]
000000 c4 4c bb 3d f3 8e 4c 3e eb e3 b4 38 c3 40 f3 38
       0.09145501 0.19976406 8.625522e-05 0.00011599206
000010 07 31 c9 38 c1 78 87 3d 16 e5 18 37 da 9c 38 3a
       9.593559e-05 0.06614829 9.113244e-06 0.00070424157
000020 c9 a7 36 3d fc 3a ba 3e 56 21 ae 38 62 76 f8 b8
       0.044593606 0.36373127 8.303176e-05 -0.00011847612
000030 18 e1 40 39 d9 d3 4b 3e 59 bf 17 3f ac 2b 41 b9
       0.00018394401 0.19905032 0.5927635 -0.00018422183
000040 0f 17 03 3f 06 f3 1c 3f 7c 3c 8f be 97 97 c0 be
       0.5120706 0.61308324 -0.27975833 -0.37615654
000050 dd d5 98 3e 0c 0d bf 3e 01 95 0f bf 20 dc 80 3f
       0.29850665 0.3731464 -0.56086737 1.0067177
000060 42 02 6e 3d f3 9d 13 3f 28 55 fc 38 29 31 ae 3e
       0.058107622 0.57662886 0.00012032158 0.3402188
000070 0f 91 65 39 86 e0 3f 3f 49 e7 08 3f 2d 94 c7 3c
       0.0002189318 0.7495197 0.53477913 0.024362648

autoencoders.1.decoder.cells.0.lstm.weight_hh f4 [32, 8]
000000 f4 55 99 3e a9 ff f2 3d c8 da 4a b6 07 8c 42 3e
       0.2994839 0.118651696 -3.0227693e-06 0.18998729
000010 0a b2 0d 38 28 ef 6d 3b 0f 58 e4 3d ee ba b8 3e
       3.378283e-05 0.0036305878 0.11149608 0.36080116
000020 26 94 6c 3e af 7c 1d 3e af 89 9c 3e a2 d4 7d 3e
       0.23103389 0.15379594 0.30573794 0.24788144
000030 ca 6e 74 3e 9e 79 ff 3d ae b0 85 b8 4b 6a 78 3d
       0.23870388 0.124743685 -6.374843e-05 0.060648244
000040 80 38 5f b7 3e 60 1b 39 fe 2d 7d 37 19 10 e5 38
       -1.3304991e-05 0.00014817805 1.50906835e-05 0.00010922569
000050 75 78 96 37 db ae 08 b9 cb 98 48 b9 f3 74 35 b9
       1.7937486e-05 -0.0001303511 -0.00019130406 -0.00017305072
000060 8c 4a ba 3e 44 0f 81 39 10 40 83 36 41 71 75 3e
       0.36385 0.0002461617 3.911562e-06 0.23968984
000070 76 06 77 36 d3 96 81 3d 29 2a 85 38 af bb 07 39
       3.680963e-06 0.063275956 6.349787e-05 0.00012944521
000080 78 b8 d9 36 0d 6e 2b b9 7c 12 a4 b5 fd 7a 11 38
       6.488579e-06 -0.00016348828 -1.2224332e-06 3.4685236e-05
000090 f4 ae 27 b8 e1 cf 4c 39 1d 60 fa 39 e1 db 8a b8
       -3.997884e-05 0.00019532397 0.00047755326 -6.6213084e-05
0000a0 6c 10 ec 3d c8 b6 d0 3c 16 a8 71 3d b7 5b 87 3e
       0.1152657 0.025477782 0.05899819 0.2643716
0000b0 a3 2b 83 b8 db 69 cf 3d e8 24 19 3a 55 30 d7 3b
       -6.254695e-05 0.10127612 0.0005841986 0.006567041
0000c0 b7 58 50 3e 37 af aa 3d 2e 07 85 b9 68 c1 25 3e
       0.20346342 0.08334201 -0.00025373086 0.1618706
0000d0 1e cb 4e b8 90 d3 9b 3e 1c ca 7b 3c 40 8c 1b b8
       -4.9303395e-05 0.30434847 0.015368011 -3.7085498e-05
0000e0 4f 08 41 3e 3c 53 73 3e 95 9c 02 38 26 f7 67 3d
       0.18850826 0.2376222 3.1140244e-05 0.056632183
0000f0 6f 0d a1 3e 72 7a c8 3e c0 87 8e 3c 96 b3 28 3e
       0.31455562 0.39155918 0.017398715 0.16474757
000100 73 94 3e 3e c1 0f 71 3a b4 4c c3 39 d4 a0 26 b9
       0.18611316 0.0009195768 0.00037250447 -0.00015890907
000110 4f 06 27 3d 1e fe 89 3e 2d 0e 0d 38 7f c0 6d 3d
       0.0407775 0.2695169 3.3630222e-05 0.058044907
000120 19 c3 dc 3e f9 73 e2 3d 04 fc c7 b9 9b c3 5a ba
       0.43117598 0.11057276 -0.00038144004 -0.00083451875
000130 97 3a 29 3d ed 10 a3 3e ca 7a 1f b9 0d 6f 94 3e
       0.04131564 0.3184885 -0.00015209164 0.28990975
000140 9c ee 8d 38 60 0a 29 b9 27 5d a3 b8 37 d4 1c 36
       6.7678484e-05 -0.00016120961 -7.789797e-05 2.3369337e-06
000150 89 28 c7 b8 4f 0c a7 37 dd 29 2a 38 76 93 1c b8
       -9.49661e-05 1.9913683e-05 4.0570147e-05 -3.7330632e-05
000160 36 8b b6 bd 40 44 15 38 76 1c bf b9 83 5e a6 3d
       -0.08913271 3.558793e-05 -0.00036451564 0.081234954
000170 42 8a f1 31 ef d2 93 39 1f ff 0b b8 82 99 99 39
       7.0297412e-09 0.00028195183 -3.3377783e-05 0.00029296806
000180 f8 48 df b8 89 72 7e 38 25 8b 90 b8 75 bb 89 38
       -0.0001064706 6.066499e-05 -6.892373e-05 6.567586e-05
000190 50 4f 2e b9 7a 92 45 b7 f7 d9 15 b9 02 a0 0e b9
       -0.0001662348 -1.1776219e-05 -0.00014290946 -0.00013601783
0001a0 48 c3 d2 3e 3a c5 27 ba 9e c7 49 ba 96 b2 b4 ba
       0.41164613 -0.00063999335 -0.0007697287 -0.0013786133
0001b0 37 09 c2 3e 21 f0 d9 b9 13 38 f8 39 61 8a a1 ba
       0.37897655 -0.00041568375 0.00047344025 -0.0012324565
0001c0 93 47 b4 ba d1 0f 2f ba 84 c2 78 b9 69 3a 54 ba
       -0.0013754241 -0.0006678077 -0.00023723586 -0.0008095862
0001d0 99 b3 69 b9 ce b3 ae b9 98 e2 f3 b9 29 8a ec 3c
       -0.00022287517 -0.0003332183 -0.00046517397 0.028874474
0001e0 be 33 71 3e 6d 41 ad 3d 90 e5 dd b9 78 bf 19 3e
       0.23554894 0.084597446 -0.00042323442 0.15014446
0001f0 5a e3 9f ba 35 87 43 3d b9 46 3c ba 85 ec 04 3e
       -0.0012198493 0.047736365 -0.00071821694 0.1298085
000200 22 5d 98 3d 6d 08 15 3f 73 ad 43 3e f4 32 69 be
       0.07439639 0.5821598 0.19109134 -0.22773343
000210 00 35 ef bd 0a 2c f2 ba 2d 13 e7 bd 6b c5 ca 3c
       -0.11680031 -0.001847626 -0.11282954 0.02475234
000220 37 ef c1 be 68 3c 92 3d ac 71 19 be cf 8d 18 3e
       -0.3787782 0.07140428 -0.14984769 0.14897846
000230 0a 75 a4 bc 5a 13 10 3e 6a d4 15 3e 3c ad 11 3e
       -0.02007534 0.14069882 0.14631811 0.1422624
000240 62 f4 61 3e 49 da b7 3d db 63 25 3a c2 54 49 be
       0.22065881 0.089771815 0.000630913 -0.19661239
000250 1a c4 8a 3a 0d d8 11 3b df 39 df 39 e9 8a a6 3b
       0.0010587007 0.002225402 0.00042576992 0.0050824773
000260 55 98 04 bd 49 8f 37 3c c0 b1 4f 3e 3e 53 e3 3e
       -0.032371838 0.011203595 0.2028265 0.44399446
000270 e9 7b 5d bd 71 e1 62 3d d1 da b0 3d 5d 10 7e be
       -0.054073248 0.05539078 0.08635486 -0.2481093
000280 4f 2a 86 ba 55 4b 86 ba 4c e8 29 39 be f1 ce ba
       -0.0010235998 -0.0010245839 0.00016203633 -0.0015788598
000290 ff 84 ce 3e 2f c9 d4 ba ea df b8 39 1c 0e 88 b9
       0.40335843 -0.0016234274 0.00035262044 -0.00025950454
0002a0 70 a1 52 3e 6f 36 54 ba 47 05 be 3d 72 80 53 bc
       0.20569396 -0.00080952694 0.0927835 -0.012909042
0002b0 10 9f f8 ba 60 cd e8 bd db 69 85 3d 25 00 6b 3e
       -0.0018968303 -0.11367297 0.06514331 0.22949274
0002c0 7a f6 3d be 56 48 ab 3c 35 ae 85 3c 6d 04 30 3e
       -0.18551055 0.020908516 0.01631842 0.17189188
0002d0 df 1c cd 3d 33 0c 1e bd dc b1 53 3e f7 c3 79 be
       0.10015272 -0.038585853 0.20673317 -0.24391161
0002e0 3c 27 dd be 75 6c 83 3b 05 44 b6 be bc 26 8a ba
       -0.43193996 0.004010732 -0.3559877 -0.0010540108
0002f0 27 30 86 3c ae 30 36 3e 74 a0 02 3e c5 7a c7 bc
       0.016380383 0.17792007 0.1275652 -0.024350533
000300 9a 10 bd 3e 48 41 e9 3e 0a 3c 57 b9 82 1a b2 3a
       0.36926728 0.45557618 -0.00020526364 0.0013588222
000310 c1 01 ba 3c e6 f8 0a 3d 37 17 87 b8 b8 bf 2b 3f
       0.022705914 0.033928774 -6.441626e-05 0.67089415
000320 42 0b 92 3d e9 17 8d 3e 2e 05 46 3e 16 65 5e 39
       0.071310535 0.27557305 0.19337913 0.00021209227
000330 46 c2 c1 3d ee 19 a2 3e e7 95 89 b9 22 72 17 3f
       0.09460883 0.31660408 -0.00026242362 0.5915853
000340 ab dc 02 b9 45 29 06 b7 cf f3 c5 b9 5a ea de b7
       -0.00012479971 -7.996631e-06 -0.0003775642 -2.657359e-05
000350 07 45 37 b8 70 de 81 39 4a 63 08 39 ac e1 5b b9
       -4.3694887e-05 0.00024770526 0.00013006959 -0.00020969537
000360 17 2e 2a 39 7c 05 80 b8 31 fe 12 39 79 40 7c b9
       0.00016229633 -6.104537e-05 0.00014018339 -0.0002405661
000370 d0 0a 95 b8 92 7b 7a 3e f5 88 e5 3c 62 83 0f 3e
       -7.106888e-05 0.24461201 0.028019408 0.14014962
000380 e9 43 09 b9 2d bf 55 b8 1b 02 35 b8 ec 9f bd 38
       -0.00013090637 -5.0961204e-05 -4.3155724e-05 9.04201e-05
000390 85 08 c8 b8 45 72 0c 39 da 8c 56 b8 63 e7 74 b6
       -9.53833e-05 0.00013394009 -5.1152754e-05 -3.6493518e-06
0003a0 a9 72 0f b8 7b 9b ba 3e 97 10 78 3a a1 92 5a b9
       -3.4200642e-05 0.36446747 0.00094629213 -0.00020844724
0003b0 45 1c a7 b8 b5 73 af 3c 84 cf 9c b8 7d 04 9f 3e
       -7.968446e-05 0.021417478 -7.4773125e-05 0.31058112
0003c0 cc eb a6 3e 6b dd a1 3b ec dd 92 39 8e 61 dc 39
       0.32601774 0.004939725 0.00028012635 0.00042034354
0003d0 c1 24 06 3f 31 ac 0f 3c 7e cc aa b6 99 e5 28 3d
       0.5239983 0.008769081 -5.090201e-06 0.041234586
0003e0 e5 dd c9 3e 45 84 11 3f 31 34 9c 3e c4 b0 b8 3e
       0.39427105 0.5684245 0.3050857 0.3607236
0003f0 ac d1 20 3d 19 9c 02 3f 36 c8 80 37 db 91 21 3d
       0.03926246 0.51019436 1.535202e-05 0.03944574

autoencoders.1.decoder.cells.0.lstm.bias_ih f4 [32]
000000 8b 89 72 3e 80 ed 92 3e 80 ea 85 39 ba 3d f6 3d
       0.23685281 0.28696823 0.00025542453 0.12023492
000010 02 a3 10 37 54 ef 2b 3e 78 09 80 3e 1b 7b da 3e
       8.621022e-06 0.16790515 0.25007224 0.42672047
000020 77 b2 2e 3e a4 6d 8a 3d 76 ac a6 38 3c 4b 91 3d
       0.17060266 0.067591935 7.94762e-05 0.07094428
000030 ae 0e 7a b8 e5 4e 8d 3c 09 ec 78 3d 45 7c 10 3e
       -5.9618316e-05 0.017249534 0.060771976 0.14109905
000040 ab 14 6e bd 99 4a 3e bd f3 04 c3 3c 39 a6 df 3c
       -0.05812518 -0.04645786 0.02380607 0.02730094
000050 93 34 1d bb 13 be 6d bb 4f 51 cf 3d b6 a4 75 bc
       -0.0023987636 -0.0036276623 0.1012293 -0.014992883
000060 39 0d a0 3e bd 2d 96 3e 8f 78 21 38 1b 25 0d 3e
       0.31260088 0.2933177 3.849767e-05 0.13783686
000070 95 9c c8 38 0d 11 a5 3d 6d a1 99 3e 8a fb e1 3e
       9.565909e-05 0.08059893 0.3000597 0.44137222

autoencoders.1.decoder.cells.0.lstm.bias_hh f4 [32]
000000 8b 89 72 3e 80 ed 92 3e 80 ea 85 39 ba 3d f6 3d
       0.23685281 0.28696823 0.00025542453 0.12023492
000010 02 a3 10 37 54 ef 2b 3e 78 09 80 3e 1b 7b da 3e
       8.621022e-06 0.16790515 0.25007224 0.42672047
000020 77 b2 2e 3e a4 6d 8a 3d 76 ac a6 38 3c 4b 91 3d
       0.17060266 0.067591935 7.94762e-05 0.07094428
000030 ae 0e 7a b8 e5 4e 8d 3c 09 ec 78 3d 45 7c 10 3e
       -5.9618316e-05 0.017249534 0.060771976 0.14109905
000040 ab 14 6e bd 99 4a 3e bd f3 04 c3 3c 39 a6 df 3c
       -0.05812518 -0.04645786 0.02380607 0.02730094
000050 93 34 1d bb 13 be 6d bb 4f 51 cf 3d b6 a4 75 bc
       -0.0023987636 -0.0036276623 0.1012293 -0.014992883
000060 39 0d a0 3e bd 2d 96 3e 8f 78 21 38 1b 25 0d 3e
       0.31260088 0.2933177 3.849767e-05 0.13783686
000070 95 9c c8 38 0d 11 a5 3d 6d a1 99 3e 8a fb e1 3e
       9.565909e-05 0.08059893 0.3000597 0.44137222

autoencoders.1.decoder.output_layer.weight f4 [1, 8]
000000 56 66 9a 3e 3d de c2 3e 65 d1 86 bd 98 4a 2d be
       0.301562 0.3806018 -0.065829076 -0.16922987
000010 a9 e4 29 3d 06 26 a7 3e 5c 38 95 be 56 6c 7f 3e
       0.041477833 0.32646197 -0.2914456 0.2494367

autoencoders.2.encoder.cells.0.weight_h_2 f4 [8, 8]
000000 5b 0d 99 39 8c 41 81 38 a6 b6 06 b9 79 52 ed 38
       0.00029192385 6.1634084e-05 -0.00012847278 0.000113164024
000010 39 1a 11 b8 95 73 48 b9 65 87 06 b9 88 82 a1 b8
       -3.4595116e-05 -0.00019116544 -0.00012829674 -7.7013916e-05
000020 f1 d2 c2 b8 e9 3b 2e 39 87 a7 09 39 88 65 bc b8
       -9.289932e-05 0.00016616251 0.00013127747 -8.98345e-05
000030 9e e1 04 b8 60 9b d0 38 0c e2 ec 38 0b 9b f0 38
       -3.1681375e-05 9.947154e-05 0.000112954614 0.00011472971
000040 a7 b6 a5 b6 02 70 87 b8 b6 90 4d 39 51 8f 26 b9
       -4.9386467e-06 -6.458165e-05 0.00019604233 -0.00015884383
000050 c9 92 4c b9 26 d9 3e 39 b6 64 ed 38 11 00 8b 39
       -0.00019509638 0.00018200706 0.000113197995 0.00026512195
000060 04 6a 89 b9 e5 bb 15 b9 49 48 28 38 55 64 9e be
       -0.00026209664 -0.00014279743 4.0121642e-05 -0.30935922
000070 3e 2d 24 38 6f bb a9 38 b3 69 1d 38 92 24 aa 38
       3.9142782e-05 8.09346e-05 3.7530157e-05 8.1130434e-05
000080 97 b4 bd 36 25 e5 da b9 56 7d f7 38 46 4d 20 b9
       5.6536624e-06 -0.00041750926 0.000118012234 -0.00015287576
000090 f0 0d d2 39 c0 ce 81 b8 b6 0f 23 b8 79 65 4f 39
       0.00040064706 -6.1897095e-05 -3.887686e-05 0.0001977886
0000a0 0d de b5 38 c4 97 bc 38 ba 29 3d b9 af 95 de 36
       8.672113e-05 8.992807e-05 -0.00018039989 6.633541e-06
0000b0 83 0d 61 39 ac cb bf 38 06 46 de 39 35 20 fd b7
       0.00021462706 9.1455266e-05 0.0004239531 -3.0174948e-05
0000c0 00 ef 4b b9 a8 46 b1 b9 0a 40 10 b8 98 b2 68 b8
       -0.00019448623 -0.00033812714 -3.4391916e-05 -5.547944e-05
0000d0 6b 19 8d 36 56 cf 64 38 bc 3d 0c 39 28 66 01 b9
       4.2050865e-06 5.4552533e-05 0.00013374438 -0.00012340455
0000e0 cf b1 0d b9 92 43 a4 b9 b4 33 74 39 0f 7c cd b9
       -0.00013513047 -0.0003133086 0.00023288914 -0.00039193078
0000f0 3e 79 eb 38 cd 94 a4 39 b5 20 ce 37 10 c4 9b b8
       0.00011228256 0.00031391383 2.4572344e-05 -7.4274954e-05
