ensemble_autoencoder_weights.pth (torch, 183634 bytes, 250 tensors)

autoencoders.0.encoder.cells.0.weight_h_2 f4 [8, 8]
0	0xbda77fb4	-0.08178654
1	0xbdc1942b	-0.09452089
2	0xbd9586da	-0.073011115
3	0xbce77a8b	-0.028256675
4	0x3e75a800	0.23989868
5	0x3dda8746	0.106703326
6	0x3d8833b2	0.06650485
7	0x3e309fc4	0.17248446
8	0x3d9f33b7	0.07773536
9	0x3ba36aea	0.0049871104
10	0x3d76d691	0.06026322
11	0x3e1f2bbe	0.1554403
12	0xbd544ba8	-0.051829964
13	0x3e84f825	0.2597057
14	0x3e0ab1ef	0.13544439
15	0xbdcc0833	-0.099625014
16	0xbcb711be	-0.022347327
17	0x3de6190a	0.112352446
18	0xbbc42d96	-0.0059868796
19	0x3d25e448	0.04050091
20	0x3dbcd23f	0.09219789
21	0x3e105678	0.14095485
22	0x3cefa1e2	0.029251996
23	0x3d4ccca4	0.049999848
24	0x3c3a4bfa	0.011370653
25	0xbcd2e607	-0.025744451
26	0xbe34751d	-0.176228
27	0x3d4aa7c8	0.049476415
28	0xbdb40249	-0.08789498
29	0xbda64bac	-0.08119902
30	0x3cf7253c	0.030169122
31	0xbd56af97	-0.05241355
32	0x3dd73e4f	0.10509931
33	0x3db77b73	0.08959093
34	0xbc20b701	-0.0098092565
35	0x3d3c27ae	0.04593628
36	0x3d73982e	0.0594713
37	0x3d3cbab8	0.046076506
38	0x3dd6930b	0.10477265
39	0x3d8a5337	0.06754153
40	0x3d2c4f2a	0.042067684
41	0xbbf53b28	-0.0074838586
42	0xbdd274d7	-0.10276192
43	0x3d90789a	0.07054253
44	0x3d449453	0.047993015
45	0x3d233345	0.039843816
46	0x3d5669b9	0.05234692
47	0x3da19d3e	0.0789132
48	0x3d98f5c8	0.07468754
49	0x3c5d1b31	0.0134952525
50	0x3e05b789	0.13058294
51	0x3d6b59dd	0.057458747
52	0xbdc02be1	-0.09383369
53	0x3d1f6664	0.038916007
54	0xbdda638f	-0.106635205
55	0xbe43236f	-0.19056486
56	0xbd9db6ea	-0.07700904
57	0x3e33cbd6	0.17558226
58	0xbe897723	-0.26848707
59	0x3deb45d0	0.11487925
60	0x3da2a6f0	0.07941997
61	0x3db448bb	0.08802935
62	0x3dcb5115	0.099275745
63	0xbe823fe8	-0.25439382

autoencoders.0.encoder.cells.0.bias_h_2 f4 [8]
0	0x00000000	0.0
1	0x00000000	0.0
2	0x00000000	0.0
3	0x00000000	0.0
4	0x00000000	0.0
5	0x00000000	0.0
6	0x00000000	0.0
7	0x00000000	0.0

autoencoders.0.encoder.cells.0.lstm.weight_ih f4 [32, 1]
0	0xbe975ce2	-0.2956305
1	0xbbcd5980	-0.0062667727
2	0xbd8c0bd8	-0.068381965
3	0xbda534a0	-0.08066678
4	0x3e8a0dad	0.2696356
5	0x3e89f8f5	0.26947752
6	0x3e225f5a	0.15856686
7	0x3b17c100	0.0023155808
8	0x3e6b3a9e	0.2297158
9	0xbe2b4aa7	-0.16727696
10	0xbe08aca0	-0.13347101
11	0x3d894384	0.06702331
12	0xbe8d7dff	-0.2763519
13	0x3dafabdc	0.085777014
14	0x3e2a2e86	0.1661931
15	0x3eb155e3	0.3463584
16	0x3e96c9c3	0.29450807
17	0xbdfdfe6c	-0.12402043
18	0x3e867f3b	0.26268944
19	0x3e8c45e3	0.2739707
20	0x3e921a35	0.2853562
21	0xbe4a7bdd	-0.19773813
22	0xbd9169f0	-0.07100284
23	0xbe416108	-0.1888467
24	0x3e9fb3e1	0.31191924
25	0x3e9750c3	0.29553804
26	0x3e8f11a9	0.2794316
27	0xbd3f0078	-0.046631306
28	0xbe7bc422	-0.24586537
29	0xbe05aed4	-0.13054973
30	0xbdb1eb5c	-0.08687469
31	0x3da8e524	0.0824683

autoencoders.0.encoder.cells.0.lstm.weight_hh f4 [32, 8]
0	0x3ccd9bd0	0.025098711
1	0x3eb3f185	0.35145202
2	0xbdb10bf8	-0.08644861
3	0x3ea46903	0.32111368
4	0x3e6d9fba	0.23205462
5	0x3dd351bc	0.10318324
6	0x3d1d9078	0.038467854
7	0xbdbbe2c4	-0.091741115
8	0xbe9bd305	-0.30434433
9	0xbda3b0a8	-0.07992679
10	0x3e2608fa	0.16214362
11	0x3e933ff1	0.2875972
12	0xbeb2e0fc	-0.34937274
13	0xbeabec72	-0.3357883
14	0xbd120b38	-0.03565523
15	0xbe4e8739	-0.20168771
16	0xbd9aa9e0	-0.07551932
17	0x3c192da0	0.009349257
18	0x3eb4a4df	0.35282037
19	0xbe7d37a0	-0.2472825
20	0xbe033f18	-0.12817037
21	0x3e923adf	0.2856054
22	0x3e58199a	0.21103516
23	0x3e7fe442	0.24989417
24	0xbe9e8426	-0.30960196
25	0x3ddd0264	0.107914716
26	0x3eb4dabb	0.35323128
27	0x3cf8be40	0.030364156
28	0x3e0d4aca	0.13798061
29	0xbe91a9d4	-0.2844988
30	0xbe05a4c1	-0.1305113
31	0xbe6e103e	-0.23248383
32	0x3e2a1b7a	0.16612044
33	0x3e9eb79f	0.30999467
34	0x3e0de83a	0.13858119
35	0xbe97a01d	-0.29614344
36	0xbdd80070	-0.105469584
37	0x3d802fdc	0.062591285
38	0xbd86236c	-0.06549725
39	0xbe2b3f18	-0.16723287
40	0xbe6fbe59	-0.23412456
41	0xbea5f3b7	-0.32412502
42	0xbdde4ffa	-0.10855098
43	0x3ea9bd25	0.33152118
44	0xbe92b912	-0.28656822
45	0xbe34df05	-0.176632
46	0xbd10b7f8	-0.035331696
47	0xbe2bffa9	-0.16796745
48	0x3e303f3e	0.17211625
49	0xbe985fc8	-0.29760575
50	0x3e00e9a6	0.1258913
51	0x3e87d6e3	0.26531133
52	0x3e8dafbf	0.27673146
53	0xbea26a3e	-0.3172168
54	0x3de0f99c	0.10985109
55	0x3eb3a469	0.35086372
56	0x3e8e02f9	0.27736643
57	0x3e8b9049	0.27258518
58	0xbea02fb2	-0.3128639
59	0xbe9430a6	-0.28943366
60	0x3e634606	0.2219468
61	0x3eaa79df	0.33296105
62	0x3eb4bb81	0.35299304
63	0x3e5dbbca	0.21653667
64	0x3e8d187b	0.2755774
65	0x3e8cb1c9	0.2747939
66	0x3e2124ca	0.1573669
67	0x3e3231ce	0.17401811
68	0x3b358b80	0.0027701557
69	0xbe60918f	-0.21930526
70	0xbd79aa68	-0.060953528
71	0xbd1e9018	-0.038711637
72	0x3e3a61ca	0.18201366
73	0x3e2ad1a2	0.16681531
74	0xbe8a7d09	-0.2704852
75	0xbeb2b24a	-0.3490165
76	0xbe9936e4	-0.2992469
77	0x3da7b858	0.08189458
78	0x3e8fceef	0.28087565
79	0xbd9a983c	-0.07548568
80	0xbe0e58f8	-0.13901126
81	0x3e4daf02	0.20086291
82	0xbe93f5b2	-0.28898388
83	0xbe143020	-0.14471483
84	0xbddb36bc	-0.10703799
85	0x3dd49208	0.10379416
86	0x3df7e3f4	0.121040255
87	0xbea52733	-0.3225647
88	0xbe6c4576	-0.23073372
89	0x3e5bbc16	0.21458468
90	0x3eaf2ed9	0.3421543
91	0x3e2de9a6	0.16983661
92	0x3e98eae3	0.29866704
93	0xbe3f19e4	-0.1866222
94	0xbe66899e	-0.22513434
95	0x3eab8ab5	0.33504263
96	0x3e756176	0.2396296
97	0x3e83b4bd	0.2572383
98	0xbe0ee0ff	-0.13953017
99	0x3e0e082c	0.13870305
100	0xbeb478ba	-0.35248357
101	0xbe283043	-0.1642466
102	0x3db71740	0.089399815
103	0x3e865b49	0.2624152
104	0xbe1acae2	-0.15116456
105	0x3e06c688	0.13161671
106	0x3ead40f5	0.3383862
107	0xbe7f7851	-0.24948241
108	0x3dd9ecfc	0.10640904
109	0x3e4d196a	0.20029226
110	0xbe6aa8e0	-0.22915983
111	0x3e63a142	0.22229484
112	0xbeab9865	-0.33514705
113	0xbea65f63	-0.3249465
114	0x3d501c08	0.050807983
115	0xbe3431d5	-0.17597134
116	0xbe9749fa	-0.29548627
117	0xbd822e24	-0.06356457
118	0xbe0a2dd3	-0.13494043
119	0xbdfe8e84	-0.124295264
120	0x3eb29c03	0.34884652
121	0xbe0b5113	-0.13605146
122	0xbe495207	-0.19660197
123	0x3e0eb8f2	0.13937739
124	0xbd944c70	-0.07241142
125	0xbe7dd76e	-0.24789211
126	0xbd501838	-0.050804347
127	0x3d6b9648	0.057516366
128	0xbdb38b48	-0.087668
129	0x3eaf7ab3	0.342733
130	0x3e10a9e6	0.14127311
131	0xbe1fca01	-0.15604402
132	0x3ce0f680	0.02746129
133	0x3e3cdeb2	0.18444327
134	0xbde35ebc	-0.111020535
135	0xbeab4afd	-0.3345565
136	0x3ddcb414	0.10776535
137	0xbdeb6a18	-0.11494845
138	0x3e8db7d7	0.2767932
139	0x3db97c90	0.090569615
140	0xbda42d98	-0.08016509
141	0x3e96e4b3	0.2947136
142	0x3e3120aa	0.17297617
143	0x3e7e8b92	0.2485793
144	0x3df9a9a4	0.121905595
145	0x3dd524d8	0.10407418
146	0x3dd13044	0.10214284
147	0xbe36ef4e	-0.17864725
148	0x3d9a91c4	0.07547334
149	0xbe909bb1	-0.28243783
150	0xbe98543d	-0.2975177
151	0xbe7c38bc	-0.24631017
152	0x3e8c325f	0.2738218
153	0x3e9ae557	0.30253097
154	0xbdde7792	-0.1086265
155	0x3e8bb327	0.2728512
156	0x3ea9c885	0.33160797
157	0x3eb22f1f	0.34801576
158	0xbe8f43dc	-0.2798146
159	0xbdb1d0f8	-0.08682436
160	0x3ddf9418	0.109169185
161	0x3e66af7e	0.22527882
162	0x3e794d12	0.24345806
163	0x3e12ed22	0.14348271
164	0xbea5acdb	-0.3235844
165	0x3d786a48	0.060648233
166	0xbe868e6b	-0.2628053
167	0x3def8560	0.11695361
168	0x3c8dc650	0.017306477
169	0x3e608492	0.21925572
170	0xbd6492c0	-0.055804014
171	0x3d9574a0	0.07297635
172	0x3e9f088d	0.3106121
173	0x3e610dce	0.21977922
174	0xbeb43648	-0.35197663
175	0xbe699b03	-0.22813039
176	0x3e28cf0a	0.16485229
177	0xbe87147a	-0.2638281
178	0xbe2843b5	-0.16432078
179	0x3ea09d35	0.3136994
180	0xbe97839e	-0.29592603
181	0x3c8fe7d0	0.017566592
182	0xbe6adbad	-0.22935362
183	0xbd2560a8	-0.04037538
184	0x3e917df1	0.28416398
185	0xbe994eb1	-0.2994285
186	0xbdc5e29c	-0.09662363
187	0x3dc54c6c	0.09633717
188	0xbe6a6f04	-0.22893912
189	0x3e79afda	0.24383488
190	0xbe4dc960	-0.2009635
191	0x3e4d6ef2	0.20061854
192	0xbe9774dc	-0.29581344
193	0x3e812b61	0.25228408
194	0x3e66b57e	0.22530171
195	0x3d17ed20	0.037091374
196	0xbd9a0888	-0.075211585
197	0x3cf23020	0.029563963
198	0xbeae7ff9	-0.3408201
199	0xbe2058c9	-0.15658869
200	0xbe93958c	-0.28825033
201	0xbe41d71b	-0.18929712
202	0xbea79124	-0.3272792
203	0x3ea008cb	0.31256709
204	0x3db1c9f0	0.08681095
205	0xbdf0e9d4	-0.11763349
206	0xbe829f98	-0.25512385
207	0xbdd43de8	-0.1036337
208	0xbb89d2c0	-0.0042060316
209	0xbe0a2069	-0.13488926
210	0x3e17db6e	0.148298
211	0xbe52ce44	-0.20586497
212	0xbd425438	-0.0474436
213	0x3e83a313	0.25710353
214	0xbe2bf234	-0.16791612
215	0x3c9792c0	0.018502593
216	0xbdfe424e	-0.1241499
217	0x3eaaa989	0.3333247
218	0xbe5b2b3e	-0.21403214
219	0xbe031c0f	-0.12803672
220	0x3ea9fd43	0.33201036
221	0x3eabd429	0.33560303
222	0x3d6f6fe8	0.05845633
223	0x3d62de28	0.055387646
224	0xbdaec55c	-0.08533737
225	0xbe5d0aea	-0.21586195
226	0xbdd7c5ae	-0.10535751
227	0xbe68c99f	-0.22733162
228	0xbe0a460d	-0.13503285
229	0x3e5e5532	0.21712187
230	0xbd9d4500	-0.07679176
231	0x3e8d0d99	0.27549437
232	0x3e30ba42	0.17258552
233	0x3d60cf78	0.054885358
234	0xbe8d833c	-0.27639186
235	0x3ea441f5	0.3208157
236	0xbea62843	-0.32452592
237	0x3e43605a	0.19079724
238	0xbd45cb60	-0.048289657
239	0x3e1d406a	0.15356603
240	0xbeb0ab16	-0.34505528
241	0xbd258d48	-0.04041794
242	0x3e49fa0e	0.19724295
243	0x3c982710	0.018573314
244	0x3e6e3002	0.23260501
245	0xbd353090	-0.044235766
246	0x3d7e7008	0.06211856
247	0x3eaafa25	0.3339397
248	0xbd846094	-0.06463733
249	0xbde4e4e0	-0.11176467
250	0x3decf590	0.11570275
251	0x3ea52c51	0.32260373
252	0xbe9825a4	-0.29716218
253	0x3e61dc6e	0.22056744
254	0x3e901683	0.28142175
255	0xbea5d358	-0.32387805

autoencoders.0.encoder.cells.0.lstm.bias_ih f4 [32]
0	0x3e1a8b86	0.15092286
1	0xbd214628	-0.039373547
2	0xbc8e4fa0	-0.017371953
3	0x3e9fdd75	0.31223646
4	0xbeb2ef43	-0.34948167
5	0x3e5584de	0.20851466
6	0x3e87fc45	0.26559654
7	0x3e9bf355	0.30459085
8	0xbdec0d42	-0.11525966
9	0xbe6bff8e	-0.23046705
10	0x3e031b8e	0.1280348
11	0x3eaabb0f	0.3334584
12	0x3eb0bbed	0.34518376
13	0xbe0385fe	-0.12844083
14	0xbe69b774	-0.22823888
15	0x3dd492e0	0.10379577
16	0xbe7d3c3c	-0.24730009
17	0xbe692c30	-0.22770762
18	0x3db703fc	0.08936307
19	0xbe35434c	-0.17701453
20	0x3e516486	0.20448503
21	0xbd4cecb0	-0.05003041
22	0xbb897080	-0.0041943192
23	0xbe2d5044	-0.1692515
24	0x3e88e853	0.2673975
25	0x3e9fe6c5	0.3123075
26	0xbe36559f	-0.178061
27	0x3eaec381	0.34133533
28	0xbe9d19c4	-0.3068372
29	0xbe1ecdca	-0.1550819
30	0x3e91a971	0.28449586
31	0x3ea0250f	0.31278273

autoencoders.0.encoder.cells.0.lstm.bias_hh f4 [32]
0	0xbe99c838	-0.30035567
1	0xbe47868b	-0.19484918
2	0xbe8dcd56	-0.2769572
3	0x3eb4e663	0.3533202
4	0xbde03556	-0.10947673
5	0x3e795546	0.24348935
6	0x3e36e046	0.17858991
7	0xbdbd58ec	-0.09245476
8	0x3e67e3ce	0.22645494
9	0xbe759ff2	-0.23986796
10	0x3e05d216	0.13068423
11	0xbe5f7dee	-0.21825382
12	0xbe9e7908	-0.30951715
13	0xbe95b430	-0.29239035
14	0x3b7e1f00	0.0038775802
15	0x3daede50	0.085384965
16	0x3e5d966e	0.21639416
17	0xbe1353bd	-0.14387412
18	0xbe6c7512	-0.23091534
19	0xbd259d98	-0.040433496
20	0x3e793c7e	0.24339482
21	0xbe8a9b91	-0.27071813
22	0xbe409291	-0.1880591
23	0x3d785da0	0.060636163
24	0x3ea166eb	0.31523833
25	0x3eab2823	0.3342906
26	0x3e538cd6	0.20659193
27	0xbeaa1ca8	-0.33224988
28	0xbe991589	-0.29899243
29	0xbe031418	-0.12800634
30	0xbe3bc5ba	-0.18337145
31	0xbe6cf1b5	-0.23139079

autoencoders.0.encoder.cells.1.weight_h_2 f4 [8, 8]
0	0xbe1a6353	-0.15076952
1	0xbe44429d	-0.19166036
2	0xbe16c144	-0.14722162
3	0xbd3f9fa3	-0.0467831
4	0x3e2cd3f8	0.16877735
5	0x3da2ad9b	0.07943269
6	0xbcc17d17	-0.023619218
7	0x3dc7dbb0	0.09758699
8	0x3c8dbc9a	0.017301846
9	0xbdd7dcbe	-0.1054015
10	0x3d88542f	0.06656682
11	0xbc017651	-0.007901744
12	0x3aa43d47	0.0012530469
13	0xbdf061f2	-0.117374316
14	0x3dc6eb02	0.09712793
15	0x3cef7560	0.029230773
16	0xbcf0c310	-0.029389888
17	0x3db39830	0.08769262
18	0xbdbbba03	-0.09166338
19	0xbdaf63a5	-0.085639276
20	0x3b87dd69	0.004146267
21	0x3d8cc108	0.06872755
22	0x3e048718	0.12942159
23	0x3dc42e5b	0.09579154
24	0xbc925057	-0.017860575
25	0xbc2601aa	-0.010132233
26	0xbd202172	-0.039094396
27	0xbaa8622b	-0.0012846639
28	0x3d15ef23	0.03660501
29	0xbd350596	-0.04419478
30	0xbd24532a	-0.040118374
31	0x3d717429	0.05894867
32	0x3cfec186	0.031098139
33	0x3e387fe7	0.18017541
34	0xbdedfc07	-0.11620336
35	0xbc135e30	-0.008994624
36	0xbd8416c8	-0.06449658
37	0x3cba75bf	0.022761224
38	0x3ea2d900	0.31806183
39	0x3d13dd12	0.0360995
40	0xbd05f4f0	-0.032704294
41	0xbd4c5bdb	-0.049892288
42	0xbd6fa6ce	-0.058508687
43	0x3c2c8926	0.010530746
44	0xbd3866ef	-0.04502004
45	0xbda2c589	-0.07947833
46	0xbc1140fb	-0.00886559
47	0xbd984e36	-0.074367926
48	0xbda59902	-0.080858245
49	0x3e53c83c	0.20681852
50	0xbcaef419	-0.02135663
51	0xbddec947	-0.10878234
52	0x3d0ff36a	0.035144247
53	0x3d8ff286	0.070286795
54	0xbcd92bd5	-0.026510159
55	0xbc98311f	-0.01857811
56	0xbc66bbf9	-0.014082902
57	0x3d1d12f6	0.03834816
58	0xbda09475	-0.07840816
59	0xbd7ef867	-0.062248614
60	0xbd44d2c5	-0.048052568
61	0xbc462156	-0.012092909
62	0x3d8dde45	0.0692716
63	0x3d60e0d5	0.054901917

autoencoders.0.encoder.cells.1.bias_h_2 f4 [8]
0	0x00000000	0.0
1	0x00000000	0.0
2	0x00000000	0.0
3	0x00000000	0.0
4	0x00000000	0.0
5	0x00000000	0.0
6	0x00000000	0.0
7	0x00000000	0.0

autoencoders.0.encoder.cells.1.lstm.weight_ih f4 [32, 8]
0	0xbe5e01af	-0.2168033
1	0x3d218a98	0.039438814
2	0x3e264eda	0.16241017
3	0xbe631542	-0.22176078
4	0x3de5afdc	0.11215183
5	0x3ded584c	0.11589107
6	0x3db372f4	0.0876216
7	0xbe95ed3c	-0.29282558
8	0xbeaec691	-0.3413587
9	0x3e4443c6	0.19166479
10	0x3db60d04	0.08889201
11	0x3e2e68c6	0.17032155
12	0xbe6cf63c	-0.23140806
13	0xbe13569a	-0.14388505
14	0xbe9b82d8	-0.30373263
15	0xbe9f01ac	-0.31055963
16	0xbdbaa2d0	-0.09113085
17	0xbd57f200	-0.052721024
18	0x3e5a6572	0.21327761
19	0x3e8d2817	0.2756965
20	0x3dee941c	0.11649343
21	0x3e9bb445	0.30410972
22	0xbdb7c38c	-0.089728445
23	0xbd2eee70	-0.04270786
24	0x3db546b0	0.08851373
25	0xbd8f13d4	-0.06986204
26	0x3eb28d1b	0.3487328
27	0xbe9f224e	-0.3108086
28	0x3d28aa40	0.041177988
29	0xbd9e3bd4	-0.07726255
30	0xbe2779b5	-0.16355021
31	0xbe75373d	-0.23946853
32	0x3d7d1ea8	0.061796814
33	0x3e4561e6	0.19275627
34	0xbeafabfb	-0.34310898
35	0x3e8f3097	0.2796676
36	0x3ea4ed4f	0.32212302
37	0xbe8b47a6	-0.272031
38	0xbcddcb60	-0.027074516
39	0xbeb1b4a2	-0.34708124
40	0xbeb0cf46	-0.34533137
41	0x3d354b30	0.044261158
42	0xbe10ce04	-0.14141089
43	0xbe3dcd1b	-0.18535273
44	0xbdb98ee8	-0.0906046
45	0x3e8580f5	0.2607495
46	0xbe9ee6ea	-0.31035548
47	0xbeb2bc85	-0.34909454
48	0xbe39ab4f	-0.18131755
49	0x3d6ce5a0	0.057836175
50	0x3e89464d	0.26811448
51	0xbc0be220	-0.008537799
52	0xbe763834	-0.24044877
53	0xbcefc2e0	-0.029267728
54	0x3de9e568	0.11420709
55	0xbdab5b0c	-0.08366975
56	0xbd869154	-0.06570688
57	0x3bdc9980	0.006732166
58	0x3e752bfa	0.23942557
59	0xbea9d629	-0.33171204
60	0xbe2f266d	-0.17104502
61	0xbdaa412c	-0.08313212
62	0xbd52ef88	-0.051497966
63	0xbeb4b3ee	-0.35293525
64	0x3e5e012e	0.21680138
65	0x3db1c180	0.08679485
66	0xbe186d25	-0.14885385
67	0xbe731d73	-0.23741703
68	0x3dabaa44	0.08382085
69	0x3df9900c	0.12185678
70	0x3e7d0166	0.24707565
71	0x3ea8fd55	0.33005777
72	0xbdeadf1a	-0.114683345
73	0xbe773f24	-0.2414518
74	0xbd9ff388	-0.07810122
75	0xbe892c08	-0.26791406
76	0x3ea5b3e9	0.32363823
77	0xbe258667	-0.16164552
78	0x3ea02c71	0.31283906
79	0xbea7d3d2	-0.32778794
80	0xbdbfa740	-0.09358072
81	0x3e3e2dca	0.18572155
82	0x3e92fc17	0.28707954
83	0xbe16d3c9	-0.14729227
84	0xbe2fbc11	-0.17161585
85	0xbe8e3a0f	-0.2777867
86	0x3e9ac9eb	0.30232176
87	0xbdd12a80	-0.10213184
88	0xbdbd3c2c	-0.092399925
89	0x3e878af9	0.26473215
90	0x3e01a354	0.12659961
91	0x3ce13f80	0.0274961
92	0x3e9123b9	0.28347567
93	0xbdd9f8d8	-0.10643166
94	0x3d829bec	0.06377396
95	0x3e918451	0.28421262
96	0x3eb0bf01	0.34520724
97	0x3e85b69f	0.2611589
98	0x3e952109	0.29126766
99	0x3c89dea0	0.016829789
100	0xbe298d6b	-0.16557853
101	0x3e10a86c	0.14126748
102	0x3e3e90a6	0.18609866
103	0xbe34af88	-0.17645085
104	0x3db6c4f4	0.089242846
105	0x3d8d42a4	0.06897476
106	0xbe8c42c6	-0.27394694
107	0xbda192c4	-0.078893214
108	0xbe76df7e	-0.24108693
109	0x3e63785e	0.22213885
110	0x3dd9e3e4	0.1063917
111	0x3d47c938	0.04877588
112	0x3e3d221a	0.1847004
113	0x3dd68d84	0.10476211
114	0xbea953a2	-0.3307162
115	0xbb1fd580	-0.002438873
116	0xbe04c916	-0.12967333
117	0x3ea97995	0.33100572
118	0xbb8408c0	-0.0040293634
119	0xbea1db94	-0.31612837
120	0xbe974150	-0.29542017
121	0xbe1861f1	-0.14881112
122	0xbeb255ff	-0.34831235
123	0xbe833657	-0.25627396
124	0x3daeb0cc	0.08529815
125	0xbe92807c	-0.2861365
126	0xbe6808de	-0.22659633
127	0x3cc3a2e0	0.023881376
128	0xbe1da34a	-0.15394321
129	0x3e37f60e	0.17964956
130	0xbd121950	-0.03566867
131	0x3e725806	0.23666391
132	0x3dc246a8	0.09486133
133	0xbdd5cb52	-0.10439171
134	0xbe90af8e	-0.28258938
135	0x3e33edde	0.17571208
136	0xbe492825	-0.1964422
137	0xbe9437d3	-0.2894884
138	0x3d3117f8	0.04323575
139	0x3e85665f	0.26054665
140	0x3e9dda03	0.30830392
141	0xbdf0574e	-0.11735402
142	0xbbc85d80	-0.0061146617
143	0x3e87410f	0.26416823
144	0x3ead8d8f	0.33897063
145	0xbd9dd294	-0.0770618
146	0x3e35394e	0.17697641
147	0x3e89f3bd	0.2694377
148	0xbd2a2090	-0.04153496
149	0x3e3957e6	0.18099937
150	0x3ea5b581	0.3236504
151	0xbe5ad45e	-0.21370074
152	0x3e4f1ea2	0.20226529
153	0xbe6832ff	-0.22675703
154	0xbe3c02dc	-0.18360466
155	0x3e4e1a26	0.20127162
156	0xbe2c6351	-0.16834761
157	0x3e98dd07	0.2985613
158	0x3e228986	0.15872774
159	0x3cb36bb0	0.021901935
160	0xbce1eb20	-0.027577937
161	0xbb680f80	-0.003540963
162	0x3e806b07	0.25081655
163	0x3dd87eb8	0.10571045
164	0xbeaa382c	-0.3324598
165	0x3e79cdc2	0.24394897
166	0xbe669384	-0.2251721
167	0xbe389466	-0.1802536
168	0x3da565c8	0.08076054
169	0x3be30580	0.006928146
170	0xbe3423b4	-0.17591745
171	0xbe1b0c75	-0.1514147
172	0x3e504b5a	0.20341244
173	0xbe872ff4	-0.26403773
174	0x3df553c0	0.11978865
175	0xbe9ec170	-0.31006956
176	0x3e7d6ace	0.24747774
177	0xbe84ca24	-0.2593547
178	0x3d8b90a0	0.068146944
179	0x3e32cf1a	0.17461815
180	0x3eadb455	0.33926645
181	0x3ea12b7b	0.31478485
182	0x3ea36565	0.31913295
183	0xbdfd80f4	-0.123781115
184	0x3e909351	0.28237393
185	0x3e7ceee2	0.24700502
186	0x3d3016a0	0.042990327
187	0xbe5b534e	-0.21418497
188	0xbe6d5946	-0.23178586
189	0x3e1f6b5a	0.15568295
190	0xbd2e54d0	-0.042561352
191	0xbe74df70	-0.2391336
192	0x3cae5d40	0.0212847
193	0xbbb27480	-0.005446017
194	0xbde56fa0	-0.112029314
195	0x3d956f50	0.07296622
196	0xbe305eae	-0.17223617
197	0x39e04800	0.00042778254
198	0xbd77dad8	-0.06051144
199	0x3eabf441	0.33584788
200	0x3e69493a	0.2278184
201	0x3e985ef3	0.2975994
202	0x3de63214	0.112400204
203	0xbc227e40	-0.009917796
204	0x3ea6fadd	0.32613268
205	0xbe808a22	-0.25105387
206	0x3d072e58	0.03300318
207	0x3ea27e33	0.31736907
208	0x3dc3b7e4	0.09556559
209	0x3e3cdf7a	0.18444625
210	0xbe99d0d8	-0.30042148
211	0xbbb4ac80	-0.0055137277
212	0x3e433606	0.19063577
213	0x3dfb0b8c	0.12258062
214	0xbe065182	-0.1311703
215	0x3cc31840	0.023815274
216	0x3cdc20f0	0.026871175
217	0xbe954e16	-0.29161137
218	0xbe501b97	-0.20323025
219	0x3e345b26	0.17612895
220	0xbeb114ea	-0.3458627
221	0xbea6f0ad	-0.32605496
222	0xbe4ddf03	-0.20104603
223	0x3e0cced6	0.13750777
224	0x3ead131f	0.3380365
225	0x3cf8cca0	0.03037101
226	0xbda3e978	-0.08003515
227	0x3e34b38e	0.1764662
228	0xbd6b1788	-0.057395488
229	0x3e82619d	0.25465098
230	0xbdec1dc4	-0.11529115
231	0x3e5ecfba	0.21758929
232	0x3e73ce4a	0.23809162
233	0x3e421c7e	0.18956181
234	0xbe556062	-0.20837548
235	0x3e4261de	0.18982646
236	0x3e1a30fe	0.15057752
237	0xbd65b330	-0.05607909
238	0xbe303274	-0.17206746
239	0xbdbbe720	-0.09174943
240	0xbe6cddc6	-0.23131475
241	0xbd2df3f0	-0.042468965
242	0x3e7db316	0.24775347
243	0xbe861b82	-0.26192862
244	0x3db32184	0.08746627
245	0x3d2b2f00	0.04179287
246	0xbc228220	-0.0099187195
247	0xbd7a1c70	-0.061062276
248	0xbdf36e7e	-0.11886309
249	0xbe48f9c9	-0.19626535
250	0xbe90908c	-0.2823528
251	0xbe9151ed	-0.28382817
252	0x3e4c0ad2	0.19926003
253	0x3e368c7a	0.17827025
254	0x3e89d61f	0.26921174
255	0x3eb35375	0.3502461

autoencoders.0.encoder.cells.1.lstm.weight_hh f4 [32, 8]
0	0x3e9365f7	0.2878873
1	0xbe2f45ac	-0.17116421
2	0x3ea932cd	0.3304657
3	0x3daf9bd8	0.08574647
4	0x3e74746a	0.23872533
5	0xbe8706e9	-0.2637246
6	0x3d8b6070	0.06805503
7	0x3c5588a0	0.013033062
8	0xbe9cb929	-0.30610016
9	0x3dd6bf3c	0.10485694
10	0xbe9eb79f	-0.30999467
11	0xbe35268c	-0.17690486
12	0x3e96bb07	0.29439566
13	0xbe7c81c8	-0.24658883
14	0x3eaf8cbd	0.34287062
15	0x3e52da8e	0.20591184
16	0xbeb47dee	-0.35252327
17	0xbd78f540	-0.060780764
18	0xbea13d75	-0.314922
19	0x3e63842a	0.22218385
20	0x3e8a0729	0.26958588
21	0x3e39aaf6	0.18131623
22	0x3d819360	0.06326938
23	0xbdab0000	-0.083496094
24	0xbdf772ee	-0.12082468
25	0xbe84ab63	-0.25912008
26	0x3ea44981	0.3208733
27	0x3e0bc97a	0.13651076
28	0xbe6eb464	-0.23311001
29	0x3e80d693	0.25163707
30	0xbe4d753b	-0.20064251
31	0xbd87a5c0	-0.06623411
32	0xbe071c6d	-0.13194437
33	0xbcbc7ea0	-0.023009598
34	0x3e096a6e	0.13419506
35	0x3e17630a	0.14783874
36	0xbea01013	-0.31262264
37	0x3daf4664	0.08558348
38	0xbd4f8600	-0.0506649
39	0xbe02458e	-0.12721846
40	0xbe9bc6d2	-0.30425125
41	0xbd2e7070	-0.042587698
42	0xbdba3934	-0.09092942
43	0x3d071950	0.032983124
44	0xbd9b43f4	-0.075813204
45	0x3e9d4fff	0.30725095
46	0xbe854d15	-0.2603537
47	0x3e2ddb32	0.16978148
48	0xbe825dc2	-0.25462157
49	0x3e966789	0.29375866
50	0x3d9852f8	0.074377
51	0xbc2f8220	-0.010712177
52	0xbe88f045	-0.2674581
53	0xbced5420	-0.028970778
54	0x3c6388a0	0.013887554
55	0xbe349b2c	-0.17637318
56	0xbc4966c0	-0.012292564
57	0x3e58b8e6	0.21164283
58	0x3e8e6699	0.2781265
59	0x3d763718	0.060111135
60	0xbdea5dc4	-0.114436656
61	0x3d234ac8	0.03986624
62	0x3dfba3a4	0.12287071
63	0xbe9aaad3	-0.30208454
64	0xbe70d1e9	-0.23517574
65	0x3d8eb9f4	0.069690615
66	0x3eac5d0b	0.33664736
67	0xbe9586ac	-0.2920431
68	0xbd0161e8	-0.03158751
69	0xbea758b4	-0.32684863
70	0xbe42b7e1	-0.19015457
71	0xbe6807d7	-0.2265924
72	0xbd27d818	-0.040977567
73	0xbea12718	-0.3147514
74	0x3d289230	0.04115504
75	0xbccce0f0	-0.025009602
76	0x3ea91e43	0.330309
77	0xbea4dbec	-0.32199037
78	0x3d2ba1f8	0.041902512
79	0xbe802a46	-0.25032252
80	0xbe97db22	-0.29659373
81	0xbe1af1b5	-0.15131266
82	0xbe73fb7b	-0.23826401
83	0x3e293e5e	0.16527697
84	0xbe9e293d	-0.30890837
85	0xbe7ffe64	-0.24999386
86	0x3eb34093	0.35010204
87	0x3d49b500	0.04924488
88	0xbe065314	-0.1311763
89	0x3d37d7c0	0.04488349
90	0x3e9def6b	0.30846724
91	0xbe0eccd6	-0.13945326
92	0x3e004e20	0.12529802
93	0xbcc78c90	-0.024359018
94	0x3e753f4a	0.23949924
95	0xbe21628f	-0.15760253
96	0xbe8fea9a	-0.28108674
97	0xbeaee8e7	-0.34162065
98	0xbe9e0ff4	-0.30871546
99	0xbe163368	-0.14668047
100	0x3e395072	0.18097094
101	0x3e874bc5	0.26424995
102	0x3eb2d45f	0.3492765
103	0x3e515fde	0.20446727
104	0xbcd84150	-0.02639833
105	0xbe9b1374	-0.3028828
106	0x3e019766	0.1265541
107	0x3ead4265	0.33839718
108	0x3e5060da	0.20349446
109	0xbe3e5e0d	-0.18590565
110	0x3e9c7f69	0.30565956
111	0xbea0dc95	-0.3141829
112	0x3d886430	0.06659734
113	0x3e4acb72	0.1980417
114	0xbe786926	-0.24258861
115	0x3dec11c4	0.11526826
116	0xbd1c6a20	-0.038187146
117	0x3e9502a1	0.29103568
118	0x3d963a90	0.07335389
119	0x3e3bc67e	0.18337438
120	0xbda6c114	-0.081422955
121	0x3e0996ee	0.13436481
122	0xbe86b9c9	-0.26313618
123	0x3dba3c84	0.09093574
124	0xbe3f87cd	-0.18704148
125	0x3e66a03e	0.22522065
126	0x3e84e383	0.25954828
127	0xbe106c84	-0.14103895
128	0xbd992610	-0.07477963
129	0xbe8613fc	-0.26187122
130	0x3e2bb5f2	0.16768625
131	0xbeb0df00	-0.34545135
132	0xbeab99c7	-0.3351576
133	0x3c55fd60	0.013060898
134	0x3df2fd84	0.118647605
135	0xbe9847f3	-0.29742393
136	0x3d2196b0	0.039450347
137	0x3dd38a30	0.103290915
138	0x3e2c09a2	0.1680055
139	0xbe1bc850	-0.15213132
140	0x3e862c95	0.26205888
141	0xbe89e87a	-0.26935178
142	0x3e4a4632	0.1975334
143	0x3e887609	0.26652554
144	0xbd01e208	-0.0317097
145	0x3ddf7f60	0.10912967
146	0xbc789640	-0.015172541
147	0x3dd7448c	0.10511121
148	0x3d5b5398	0.053546518
149	0xbe521f4b	-0.2051975
150	0xbe71096e	-0.23538753
151	0xbc944bb0	-0.018102497
152	0xbe3bd682	-0.18343547
153	0x3e95c603	0.29252633
154	0x3dd49ca4	0.10381439
155	0x3e8e14b7	0.2775018
156	0xbe95914c	-0.29212415
157	0x3e936ef3	0.28795585
158	0xbdba8a70	-0.09108436
159	0x3ea4c21b	0.3217934
160	0x3df05f7c	0.11736962
161	0x3e4401ba	0.19141284
162	0x3d0df1a8	0.03465429
163	0xbd0079f0	-0.03136629
164	0x3ea56f39	0.3231142
165	0xbc649ca0	-0.013953358
166	0x3ea2cbb3	0.31796035
167	0x3dbd88d0	0.092546105
168	0xbe234873	-0.15945606
169	0x3dbc9234	0.092075735
170	0x3e84cc79	0.2593725
171	0x3e29575a	0.16537228
172	0xbd361450	-0.044452965
173	0xbd607758	-0.054801315
174	0x3e8154e7	0.25260088
175	0x3cd64bf0	0.026159257
176	0xbde093fa	-0.10965724
177	0xbb29b980	-0.002589792
178	0xbe78cf76	-0.2429789
179	0xbe11c288	-0.14234364
180	0xbe8756b9	-0.26433352
181	0x3d869fc4	0.065734416
182	0x3e92dd05	0.2868425
183	0xbe347781	-0.17623712
184	0x3e8afdbb	0.27146706
185	0xbeaa817f	-0.33301923
186	0x3e3838ca	0.17990413
187	0xbd6258c0	-0.05526042
188	0xbe6e6a40	-0.23282719
189	0x3e3613be	0.17780969
190	0xbddf9494	-0.10917011
191	0xbe297377	-0.16547953
192	0xbca50e20	-0.020148337
193	0x3df507d0	0.11964381
194	0x3e9280f7	0.28614017
195	0x3e55b41e	0.2086949
196	0xbe9fb06b	-0.31189284
197	0x3d5ec6e8	0.05438891
198	0xbe7172aa	-0.23578897
199	0x3e99c51d	0.30033198
200	0x3d716cb8	0.058941573
201	0xbd7894f8	-0.060688943
202	0xbb1b6800	-0.0023713112
203	0x3d98c420	0.07459283
204	0x3e68f78a	0.22750679
205	0xbe21a72e	-0.1578643
206	0xbdacd684	-0.08439353
207	0xbe75280c	-0.23941058
208	0x3e5b623e	0.21424195
209	0x3dbb1a28	0.09135848
210	0x3d7a0b18	0.061045736
211	0x3cfcf110	0.030876666
212	0xbca95a80	-0.020673037
213	0x3ce38ab0	0.027776092
214	0x3e1377e0	0.14401197
215	0xbe16aabe	-0.1471357
216	0xbd4fdc20	-0.050747037
217	0x3eb350e5	0.35022655
218	0xbc864990	-0.0163925
219	0x3ea6bf63	0.3256789
220	0x3e1e520e	0.15460989
221	0x3e81a9c5	0.25324836
222	0x3dcb1fc4	0.09918168
223	0x3c1cf340	0.00957948
224	0x3e52047e	0.20509526
225	0xbca2c790	-0.01987055
226	0xbe79b638	-0.24385917
227	0xbd62b5d0	-0.05534917
228	0xbe5faa86	-0.21842393
229	0x3d122ee0	0.035689235
230	0x3e505452	0.20344666
231	0x3e8cd3e3	0.27505407
232	0x3e0d7a44	0.13816172
233	0x3da6be24	0.08141735
234	0xbe651304	-0.22370535
235	0x3eaf457f	0.3423271
236	0xbe4e8e02	-0.20171359
237	0xbd0d6720	-0.034522176
238	0xbe9336e0	-0.28752804
239	0x3d6b4368	0.05743733
240	0xbe8346a3	-0.2563983
241	0xbd7f3ee8	-0.06231585
242	0x3e4d8f66	0.20074233
243	0xbe9d42b3	-0.3071495
244	0x3e71e102	0.2362099
245	0x3d40aba8	0.047038704
246	0xbe68be96	-0.22728953
247	0xbc1ce020	-0.00957492
248	0x3e1e6b52	0.15470627
249	0xbe13babe	-0.14426705
250	0x3d601d98	0.054715723
251	0x3c9e6600	0.019335747
252	0xbe37901b	-0.17926066
253	0x3e9d58ad	0.30731717
254	0x3ea57399	0.32314757
255	0xbd172218	-0.03689775

autoencoders.0.encoder.cells.1.lstm.bias_ih f4 [32]
0	0xbe71f162	-0.23627236
1	0xbe9e95c6	-0.30973643
2	0x3c1eaa20	0.009684116
3	0xbe26096a	-0.16214529
4	0x3ea670d9	0.3250797
5	0xbe4e2dc9	-0.20134653
6	0xbe2be39e	-0.16786048
7	0xbdf19e3c	-0.11797759
8	0xbdf3b0de	-0.11898969
9	0x3e33818a	0.17529884
10	0xbe971f34	-0.29515994
11	0xbe078f3b	-0.13238232
12	0x3d941174	0.072298914
13	0x3e8b5fc5	0.27221504
14	0x3e5fe43a	0.21864405
15	0x3c4bd680	0.0124412775
16	0x3e648fe2	0.22320512
17	0xbe1da01f	-0.15393113
18	0xbced0f80	-0.028938055
19	0xbe01265e	-0.12612292
20	0xbe5c483b	-0.21511929
21	0xbe08a4cb	-0.13344114
22	0xbddadc50	-0.106865525
23	0x3cdd6a20	0.027028143
24	0xbe6e025a	-0.23243085
25	0x3b3a1d80	0.002839893
26	0x3dd3414c	0.10315189
27	0xbeb3583d	-0.35028258
28	0xbd23bd40	-0.039975405
29	0xbdf90b44	-0.12160352
30	0x3cee2570	0.029070586
31	0xbe9c27df	-0.3049917

autoencoders.0.encoder.cells.1.lstm.bias_hh f4 [32]
0	0xbe2a1c27	-0.16612302
1	0x3e93ca63	0.28865346
2	0x3e2a6e86	0.16643724
3	0x3b008480	0.0019610226
4	0x3e8dc1df	0.27686974
5	0xbc938f10	-0.018012553
6	0x3eb4c193	0.35303935
7	0xbcc32db0	-0.023825496
8	0x3d083548	0.033253938
9	0xbea22fe1	-0.31677154
10	0xbcb05720	-0.02152592
11	0xbd7418b8	-0.059593886
12	0xbe738647	-0.23781691
13	0xbd5c3ac8	-0.053766996
14	0xbbf47080	-0.0074597
15	0x3e5f6bfe	0.2181854
16	0x3c9f5640	0.019450307
17	0x3e05e248	0.130746
18	0xbe3390a3	-0.17535643
19	0xbd90db7c	-0.07073113
20	0x3e379bbe	0.17930505
21	0xbe4d962b	-0.20076816
22	0x3e6d875a	0.23196164
23	0x3e04cb70	0.1296823
24	0x3ea11771	0.31463197
25	0x3e357db2	0.1772373
26	0x3dfeba08	0.124378264
27	0x3e928585	0.28617492
28	0xbe6f676b	-0.23379295
29	0xbd321488	-0.04347661
30	0x3dc7093c	0.09718558
31	0xbe79ab24	-0.24381691

autoencoders.0.decoder.cells.0.weight_h_2 f4 [8, 8]
0	0x3dec7f62	0.11547734
1	0x3e501679	0.20321073
2	0x3dda25e1	0.10651756
3	0x3d0d4555	0.03448995
4	0xbe0ac592	-0.1355193
5	0x3e29eeab	0.16594951
6	0x3e2923b8	0.16517532
7	0xbde488f6	-0.11158936
8	0xbe3db05c	-0.18524307
9	0x3c42bc80	0.011885762
10	0xbe5dd70a	-0.21664062
11	0x3dbcc538	0.09217304
12	0xbddcd703	-0.10783198
13	0xbd6d758f	-0.05797344
14	0xbd095caf	-0.033535656
15	0xbe63ba4e	-0.22239038
16	0x3e75bf28	0.23998702
17	0x3e0f67a4	0.1400438
18	0x3e14e1da	0.1453928
19	0xbdfb64eb	-0.12275108
20	0xbe1b9436	-0.15193257
21	0x3e5d6391	0.21620013
22	0x3e026f0f	0.12737678
23	0xbea23ec3	-0.31688508
24	0x3eba3455	0.3636805
25	0xbe5b241f	-0.21400498
26	0xbd8e548f	-0.06949722
27	0x3e9591e2	0.29212862
28	0x3deaad6e	0.1145886
29	0xbe819e29	-0.2531598
30	0xbe51a38a	-0.20472541
31	0x3e048303	0.12940602
32	0x3ed3990a	0.41327697
33	0xbdc10b5f	-0.09425997
34	0x3e819ff6	0.25317353
35	0xbcf2c7f6	-0.029636364
36	0x3e26bd6d	0.16283198
37	0x3cded7ac	0.02720245
38	0xbe931ede	-0.28734487
39	0x3ea8b3f8	0.32949805
40	0x3e61e020	0.22058153
41	0x3ce3d3ff	0.027811049
42	0x3e763775	0.24044593
43	0x3d20df2d	0.039275337
44	0xbe05abcc	-0.13053817
45	0x3e49ff75	0.19726355
46	0x3df480cc	0.119386286
47	0xbe0bd239	-0.13654412
48	0x3e931deb	0.28733763
49	0xbd6d0b8c	-0.05787234
50	0x3d08c154	0.033387497
51	0x3e63690c	0.22208041
52	0x3cc11b9e	0.02357274
53	0xbe35d9de	-0.17758891
54	0x3dfdcbdd	0.123923995
55	0x3d4177b2	0.04723329
56	0x3ec9ec76	0.39438218
57	0xbd3be16b	-0.045869272
58	0x3e72282d	0.23648138
59	0xbe894c35	-0.26815954
60	0x3db5a070	0.08868492
61	0x3e407473	0.18794422
62	0xbe00e4c2	-0.12587264
63	0x3e5ba2ab	0.21448772

autoencoders.0.decoder.cells.0.bias_h_2 f4 [8]
0	0x3e1496f4	0.14510709
1	0xbd3d6f3d	-0.046248663
2	0x3d8e1163	0.0693691
3	0x3e1d9da8	0.15392172
4	0x3d80b530	0.06284559
5	0xbcc85041	-0.02445233
6	0xbda964af	-0.08271157
7	0x3cb85182	0.022499803

autoencoders.0.decoder.cells.0.lstm.weight_ih f4 [32, 1]
0	0xbe012723	-0.12612586
1	0xbe1fb2dc	-0.15595573
2	0x3eb3efc0	0.35143852
3	0xbe94467b	-0.28960022
4	0xbe1a283e	-0.15054414
5	0x3e565b41	0.20933248
6	0xbebd9fa9	-0.37035874
7	0xbd8128c0	-0.063066006
8	0x3d8c1d67	0.068415456
9	0xbbd5693a	-0.006512788
10	0x3e8a1f83	0.26977167
11	0x3d0276f3	0.03185172
12	0xbe2d9e5e	-0.16954944
13	0x3eaa019a	0.33204347
14	0xbd66de89	-0.05636457
15	0x3eab0cdc	0.33408248
16	0x3e96f531	0.2948394
17	0x3e96266d	0.29326192
18	0x3ee39f31	0.4445739
19	0xbec38247	-0.3818533
20	0xbe9f1dac	-0.31077325
21	0x3e2c912c	0.16852254
22	0xbddd05ee	-0.107921466
23	0xbf05fb9b	-0.52337044
24	0xbdf979e3	-0.12181451
25	0xbee31fcc	-0.44360197
26	0x3e8e67c7	0.2781355
27	0xbd8531f4	-0.065036684
28	0xbe617739	-0.22018136
29	0x3f1bed83	0.6090929
30	0xbe674284	-0.22583967
31	0xbbcf784b	-0.0063314787

autoencoders.0.decoder.cells.0.lstm.weight_hh f4 [32, 8]
0	0x3f179355	0.59209186
1	0xbdbecc31	-0.0931629
2	0x3ef527e2	0.4788199
3	0x3eccdeb6	0.40013665
4	0x3dbecf28	0.09316856
5	0x3dc737ed	0.09727464
6	0x3e0c7d69	0.13719715
7	0x3e3eb2da	0.18622914
8	0x3d9d6d05	0.076868095
9	0xbdb1ed5d	-0.086878516
10	0x3e0276fc	0.12740701
11	0x3edf58c8	0.43622422
12	0x3f10969b	0.56479806
13	0x3f0f5c0b	0.5599982
14	0x3e79fb77	0.24412332
15	0x3e3e2915	0.18570359
16	0x3f2121c2	0.62942135
17	0x3ebe901c	0.37219322
18	0x3e01b628	0.12667143
19	0x3f0caafe	0.54948413
20	0x3e89865b	0.26860318
21	0x3ed7c74a	0.42144233
22	0x3ecd8ef3	0.40148124
23	0x3d4920b9	0.049103472
24	0xbd6b7c32	-0.05749149
25	0x3ef90cb2	0.48642498
26	0x3e408619	0.18801154
27	0x3c151a3b	0.009100492
28	0x3ea4db77	0.32198688
29	0x3db599be	0.088672146
30	0x3e228a85	0.15873154
31	0x3eb86718	0.36016154
32	0x3ee903ea	0.455108
33	0x3dd6f8fe	0.1049671
34	0x3f09a5ec	0.537688
35	0x3f06a019	0.5258804
36	0x3e5b6754	0.21426135
37	0xbd20bb20	-0.039240956
38	0x3edd8a87	0.4326975
39	0x3e9ea6fd	0.30986777
40	0x3ea81f0e	0.32836193
41	0xbe2ed650	-0.17073941
42	0x3e1214a7	0.1426569
43	0x3eb43815	0.35199037
44	0x3ea5a114	0.32349455
45	0x3dc3f688	0.095685065
46	0x3ea7fc8e	0.3280987
47	0x3dda5c85	0.10662178
48	0x3d45dddb	0.04830728
49	0xbe5d6d26	-0.21623668
50	0xbe9713fb	-0.2950743
51	0x3e383a6f	0.1799104
52	0xbeba9675	-0.36442915
53	0xbe880e3b	-0.26573357
54	0x3e3fb6a4	0.18722016
55	0x3ea097aa	0.3136571
56	0x3e2a78f4	0.16647702
57	0x3eea1765	0.45720974
58	0xbce076b4	-0.027400352
59	0x3e7e278c	0.24819773
60	0xbd88dc26	-0.06682615
61	0xbd884d2c	-0.06655344
62	0x3d384ba3	0.044994008
63	0xbcc5192e	-0.024059858
64	0x3d1f89dc	0.038949832
65	0xbecaff58	-0.39647937
66	0x3ebab166	0.3646347
67	0x3e29fab9	0.1659955
68	0x3ddc5804	0.10758975
69	0x3e6c3ed1	0.23070838
70	0x3e536579	0.20644177
71	0xbe80a376	-0.2512471
72	0xbd4b0b60	-0.049571395
73	0x3eb53235	0.35389867
74	0xbeef8e91	-0.46788457
75	0x3ead5a97	0.33858177
76	0xbe8b51d9	-0.27210882
77	0xbe7c648c	-0.2464773
78	0x3e30f7ba	0.17282
79	0x3e88a122	0.26685435
80	0xbe64ebfa	-0.22355643
81	0x3e430134	0.19043428
82	0x3e11363f	0.1418085
83	0x3ed870ab	0.4227346
84	0x3ecf85f8	0.40531898
85	0xbe114bd3	-0.14189081
86	0x3eb797df	0.35858056
87	0x3e1e9b06	0.15488824
88	0x3e216de8	0.15764582
89	0x3cd0935b	0.02546089
90	0xbc667f10	-0.01406838
91	0x3eab0081	0.33398822
92	0xbe85e039	-0.2614763
93	0x3e8fa9ff	0.28059384
94	0x3db1b86f	0.08677756
95	0xbdd14e88	-0.10220057
96	0xbd83aa93	-0.06429019
97	0xbe56d6f6	-0.20980439
98	0xbd74113d	-0.059586752
99	0x3e380d38	0.17973793
100	0xbe2b12e8	-0.16706431
101	0xbd2d3882	-0.04229022
102	0x3d1c7c04	0.038204208
103	0x3deec8d5	0.116593994
104	0xbd3c252c	-0.045933887
105	0x3d8e9544	0.06962064
106	0x3e19ad05	0.15007408
107	0x3df29e9b	0.11846658
108	0x3d5524e8	0.05203715
109	0x3eccb00e	0.3997807
110	0x3e72b438	0.2370156
111	0x3edc9c60	0.43088055
112	0xbee27209	-0.44227627
113	0x3e4319b9	0.19052781
114	0x3dee9acc	0.11650619
115	0x3e7b0934	0.2451523
116	0xbc90a2af	-0.017655699
117	0xbe32dd53	-0.17467241
118	0x3d50baa9	0.050959263
119	0x3de5b622	0.1121638
120	0x3e880648	0.26567292
121	0xbe32e7bf	-0.17471217
122	0xbd548fb8	-0.051894873
123	0x3e2b9157	0.16754662
124	0x3e491e84	0.19640547
125	0x3d6f95f9	0.058492634
126	0xbd8bc89d	-0.06825373
127	0x3e5e258d	0.21694012
128	0xbda617e7	-0.08110028
129	0xbd49fa3c	-0.049310908
130	0x3e090e31	0.1338432
131	0xbe3b49d9	-0.1828989
132	0x3ec41b2f	0.3830199
133	0xbe65e76c	-0.22451562
134	0x3da80340	0.08203745
135	0x3ecb90a6	0.39758795
136	0x3eba87a7	0.3643162
137	0xbe2f5039	-0.17120446
138	0x3e55af38	0.20867622
139	0x3e111f54	0.14172107
140	0xbe1f55c2	-0.15560058
141	0xbe896b9e	-0.26839918
142	0x3dcec361	0.10095859
143	0xbdac3cfa	-0.08410068
144	0xbd59df78	-0.053191632
145	0xbe9a63c2	-0.30154234
146	0xbda374de	-0.07981275
147	0x3c9418fe	0.018078323
148	0x3eaff04e	0.34363025
149	0xbe974b04	-0.2954942
150	0xbebe4b86	-0.37166995
151	0x3ef0c1ab	0.47022757
152	0xbdab6989	-0.083697386
153	0x3e38e3a2	0.18055585
154	0xbe051e53	-0.12999849
155	0xbde713d1	-0.112830766
156	0xbe7b83a1	-0.24561931
157	0xb95d842e	-0.00021125443
158	0x3ec8be3a	0.3920763
159	0x3d6370b1	0.055527393
160	0xbd652e0f	-0.055952128
161	0xbe47d73e	-0.19515702
162	0xbe56bd88	-0.20970738
163	0x3ebbb6f8	0.36663032
164	0xbe096264	-0.1341644
165	0xbe90023f	-0.28126714
166	0x3de96a7a	0.11397262
167	0xbd88d30b	-0.06680878
168	0x3e9a2087	0.3010294
169	0xbd6cfb2d	-0.057856727
170	0x3eaf38aa	0.3422292
171	0x3db23e37	0.08703273
172	0x3ea07de9	0.31346062
173	0x3d33feda	0.043944217
174	0xbe805b70	-0.2506976
175	0xbd868ce8	-0.065698445
176	0xbeb35a73	-0.35029945
177	0xbd77805a	-0.06042514
178	0x3e3378c9	0.17526545
179	0xbc33352b	-0.010937969
180	0x3e3a56e3	0.18197207
181	0x3ddb9775	0.107222475
182	0xbe5653ab	-0.20930354
183	0xbe99925d	-0.2999448
184	0xbd093498	-0.033497423
185	0x3e6981ce	0.22803423
186	0xbe8c529c	-0.27406776
187	0xbd5cb7ff	-0.05388641
188	0x3eaa356d	0.33243886
189	0xbdc454ce	-0.09586488
190	0xbe3d5bcb	-0.18492047
191	0xbca794f7	-0.020456774
192	0x3e2f222c	0.1710288
193	0xbd989abe	-0.0745139
194	0x3ed1ab94	0.40951216
195	0xbd8bd6b5	-0.068280615
196	0x3cec1274	0.028817393
197	0x3e01e065	0.12683256
198	0xbd42c4a8	-0.047550827
199	0x3f0468b1	0.51722246
200	0x3d8033e8	0.062599
201	0xbc3dc81d	-0.011583355
202	0xbe343000	-0.17596436
203	0x3ec75f0b	0.389397
204	0x3d8d9ec2	0.06915046
205	0xbd98224e	-0.07428418
206	0x3f18cb8f	0.59685606
207	0x3e63be7d	0.22240634
208	0x3ebb77be	0.36614794
209	0x3ef6414c	0.48096693
210	0x3eff99b9	0.4992197
211	0x3e67b7f8	0.22628772
212	0x3e95b406	0.2923891
213	0x3ef836fd	0.48479453
214	0x3dfbac4a	0.12288721
215	0x3edc8752	0.4307199
216	0x3f1789fc	0.5919492
217	0xbd19b68d	-0.03752761
218	0xbd4f7da0	-0.050656915
219	0x3ec3d7db	0.38250622
220	0x3e5d6e45	0.21624096
221	0x3e53503d	0.20636077
222	0x3e98d205	0.29847732
223	0x3e6d3c5e	0.2316756
224	0x3eb38db7	0.35069057
225	0x3e297e03	0.16551976
226	0x3eb73a6e	0.35786766
227	0x3f0fc433	0.5615875
228	0x3e86a23a	0.26295644
229	0x3ede8b21	0.43465522
230	0xbd962907	-0.07332044
231	0x3e9ee6c0	0.31035423
232	0x3e311e35	0.1729668
233	0xbd8e2b63	-0.06941869
234	0x3ed63618	0.41838145
235	0x3e11b51d	0.14229245
236	0xbe9dc1de	-0.3081197
237	0x3e8b52d5	0.27211633
238	0x3bc5187a	0.0060148807
239	0xbd8d3767	-0.06895333
240	0xbe45eba4	-0.19328171
241	0xbd25c5dd	-0.0404719
242	0x3c47e9ae	0.01220171
243	0xbdaa6214	-0.08319488
244	0xbd478a49	-0.048715863
245	0xbeb98a96	-0.36238545
246	0x3d08e0b7	0.03341743
247	0x3d27bead	0.040953327
248	0x3ea6adb8	0.32554412
249	0x3d552bad	0.052043606
250	0xbdae7987	-0.08519273
251	0x3e84d85b	0.25946316
252	0xbdc87f92	-0.09789957
253	0x3e4cfb6b	0.20017783
254	0x3e111fd8	0.14172304
255	0x3eb7bfd2	0.35888535

autoencoders.0.decoder.cells.0.lstm.bias_ih f4 [32]
0	0x3c959751	0.01826063
1	0x3da21e6a	0.07915957
2	0x3f0f6792	0.5601741
3	0x3d34f3c7	0.044177797
4	0x3e95a32d	0.29226056
5	0x3e3b4e65	0.18291624
6	0xbebf3ff1	-0.3735347
7	0x3eb391a4	0.35072052
8	0xbd77b133	-0.060471725
9	0x3e94b49e	0.2904405
10	0xbe3db395	-0.18525536
11	0xbda60374	-0.081061274
12	0xbd511b4e	-0.05105143
13	0xbdb250ef	-0.08706843
14	0xbe8f6c55	-0.28012338
15	0x3d666de6	0.05625715
16	0xbe9574a9	-0.29190567
17	0x3d99d221	0.07510782
18	0x3e01a2c8	0.12659752
19	0x3ecbbb81	0.39791492
20	0xbcb5656f	-0.022143094
21	0x3e1a7098	0.15082014
22	0xbedda193	-0.43287334
23	0x3e8c1a3a	0.2736376
24	0x3e3ccd6f	0.18437742
25	0x3f10e785	0.5660327
26	0x3f1273f5	0.57208186
27	0x3f147e95	0.5800565
28	0x3e6d8d98	0.23198545
29	0x3b761dd0	0.003755439
30	0x3e0cc984	0.13748747
31	0x3ea72bd4	0.32650626

autoencoders.0.decoder.cells.0.lstm.bias_hh f4 [32]
0	0x3ec68a11	0.3877721
1	0x3d2d538a	0.042315997
2	0x3e818513	0.2529684
3	0x3ecb32d8	0.39687228
4	0x3e8ab7a4	0.27093232
5	0x3e5cbf33	0.21557312
6	0xbde38066	-0.111084744
7	0x3e6b33c4	0.22968966
8	0x3e90676f	0.28203914
9	0xbdcec5ca	-0.10096319
10	0x3edac2b9	0.42726687
11	0xbe789a02	-0.242775
12	0x3ec47c36	0.38376015
13	0xbe432a84	-0.19059187
14	0xbdf1f53f	-0.11814355
15	0x3e98e856	0.29864758
16	0x3ebde924	0.37091935
17	0xbe5077a9	-0.20358147
18	0x3cf453d6	0.029825132
19	0xbdf6bd5d	-0.12047837
20	0x3e99dbc3	0.30050477
21	0x3dde584f	0.10856687
22	0xbddc0173	-0.10742464
23	0xbe695308	-0.2278558
24	0x3f142cdc	0.5788095
25	0x3e924f59	0.28576162
26	0x3e97b550	0.29630518
27	0x3e9d7601	0.30754092
28	0x3e9d2bfd	0.30697623
29	0x3d7a47b9	0.061103556
30	0x3e145a90	0.14487672
31	0x3f09122d	0.5354336

autoencoders.0.decoder.cells.1.weight_h_2 f4 [8, 8]
0	0x3de17f37	0.110105924
1	0x3e920ca0	0.28525257
2	0x3e06a398	0.13148344
3	0x3e375c1f	0.17906235
4	0x3e2e7fb7	0.17040907
5	0x3df4a24a	0.11945017
6	0xbe8b991a	-0.27265245
7	0xbd700b5e	-0.05860459
8	0x3c37f88c	0.011228692
9	0x3dd35087	0.10318094
10	0xbd6f452d	-0.05841558
11	0x3e21db8c	0.15806407
12	0xbd6fade2	-0.058515437
13	0xbdff9506	-0.12479596
14	0xbe8e89e5	-0.2783958
15	0x3e43e949	0.1913196
16	0x3e9818d3	0.2970644
17	0x3cc542ff	0.024079798
18	0x3cda273b	0.026630035
19	0x3e82a9db	0.25520214
20	0x3dc05fd5	0.093932785
21	0x3e5b8b8e	0.21439955
22	0xbe632252	-0.22181061
23	0x3d80f338	0.0629639
24	0x3e26e7d7	0.16299377
25	0xbc5e0471	-0.013550864
26	0xbd796197	-0.060884085
27	0x3dfa7f87	0.12231355
28	0x3cfe7d26	0.031065535
29	0x3d5b2970	0.053506315
30	0xbdc931bd	-0.0982394
31	0x3db52375	0.088446535
32	0x3e284bc6	0.16435155
33	0x3df5d02f	0.120025985
34	0x3d98ab0e	0.07454501
35	0x3e3f2560	0.18666601
36	0xbd1b0de8	-0.03785506
37	0xbe255683	-0.16146283
38	0xbd4db625	-0.050222535
39	0xbe0554db	-0.13020651
40	0x3e64630a	0.22303405
41	0x3c9fb788	0.019496694
42	0x3d63920d	0.055559207
43	0x3e8408c9	0.25787953
44	0x3dd1f063	0.10250928
45	0xbdca6818	-0.098831356
46	0xbb39fb88	-0.0028378684
47	0x3e1761ae	0.14783356
48	0xbd84a93d	-0.06477592
49	0xbdbe9843	-0.09306385
50	0xbe97d634	-0.29655612
51	0xbe8a8619	-0.27055433
52	0xbe2a23f6	-0.1661528
53	0x3e424cda	0.18974629
54	0x3e8b8e06	0.27256793
55	0x3e2bbce8	0.16771281
56	0x3e0d603d	0.13806243
57	0x3e166691	0.14687563
58	0xbdcb687f	-0.099320404
59	0x3c6cba12	0.0144486595
60	0x3cd1dfec	0.02561947
61	0x3e24272f	0.16030572
62	0xbad68f10	-0.001636954
63	0x3d8a6d8c	0.06759176

autoencoders.0.decoder.cells.1.bias_h_2 f4 [8]
0	0xb7fe6709	-3.0327139e-05
1	0x3c14ccb4	0.009082008
2	0xbd41841d	-0.047245134
3	0x3dac4505	0.08411602
4	0xba9a401c	-0.0011768374
5	0x3cb8f132	0.022575948
6	0xbdb964eb	-0.09052452
7	0x3e0486c3	0.12942033

autoencoders.0.decoder.cells.1.lstm.weight_ih f4 [32, 8]
0	0xbe239c4a	-0.15977588
1	0xbe3b21eb	-0.18274657
2	0x3dfee0d1	0.12445224
3	0x3e8df197	0.2772338
4	0x3eee5d99	0.46555784
5	0x3ef9c586	0.4878351
6	0xbdfba472	-0.12287225
7	0x3dc5d4eb	0.096597515
8	0xbda0beba	-0.07848878
9	0xbdf68d5c	-0.12038681
10	0xbdd3ab51	-0.103354104
11	0x3dd95be3	0.10613229
12	0x3e9836f7	0.29729435
13	0x3d15b130	0.036545932
14	0x3ed09415	0.40737978
15	0xbdd60119	-0.10449428
16	0x3ebf9eed	0.37425938
17	0xbd74d923	-0.05977739
18	0x3e6cd35b	0.231275
19	0x3c267820	0.010160476
20	0xbe2b63d3	-0.16737299
21	0x3d3bd4ea	0.045857348
22	0x3e69c8be	0.22830483
23	0x3d027d36	0.03185769
24	0x3e98e5d1	0.29862836
25	0x3e79a317	0.2437862
26	0x3d8e2cc7	0.06942134
27	0xbeb8a41a	-0.360627
28	0xbf051594	-0.5198605
29	0x3eaa85bb	0.33305153
30	0x3e5a64f5	0.21327575
31	0xbd945cd7	-0.0724427
32	0x3f125687	0.5716328
33	0xbda6c951	-0.08143867
34	0x3ed9a489	0.42508343
35	0x3e946a33	0.28987274
36	0xbc341de0	-0.010993451
37	0xbdacc156	-0.084353134
38	0x3e501946	0.20322141
39	0x3e4ed178	0.20197093
40	0x3ed5e362	0.41775042
41	0xbd92791b	-0.07152005
42	0x3e425ff3	0.18981914
43	0x3e2d64dc	0.16933006
44	0x3e933b18	0.28756022
45	0x3e35b2c4	0.17743975
46	0xbcdac817	-0.026706738
47	0xbde467c8	-0.11152607
48	0x3f1cd852	0.6126758
49	0xbbbfe1cf	-0.005855776
50	0x3d936ebc	0.07198855
51	0x3edda0d3	0.43286762
52	0xbc3cd2be	-0.011524854
53	0x3d395b9f	0.045253392
54	0x3e5986a9	0.21242775
55	0xbe5f8b1b	-0.21830408
56	0x3d8d09a0	0.068866014
57	0x3d55a7a1	0.052161817
58	0xbe77cc11	-0.24198939
59	0xbda3803f	-0.079834454
60	0xbcb8890a	-0.022526283
61	0xbd0fac02	-0.03507615
62	0x3e58d9d7	0.2117685
63	0x3eea68e9	0.45783165
64	0xbe8ef6f5	-0.27922788
65	0x3de075ba	0.109599546
66	0xbe961284	-0.29311
67	0x3e9227ac	0.28545892
68	0x3e24d829	0.16098084
69	0xbdd11020	-0.10208154
70	0x3ea16309	0.3152087
71	0x3abd6bbb	0.0014451662
72	0xbea55516	-0.32291478
73	0xbe869991	-0.26289037
74	0xbf0eba0f	-0.5575265
75	0x3e8bfe1c	0.27342308
76	0x3db5af59	0.088713355
77	0xbe1c2a94	-0.15250617
78	0xbde729c4	-0.11287263
79	0x3f037e1d	0.5136431
80	0xbe1ac8b7	-0.15115629
81	0xbc4685e0	-0.012116879
82	0x3f07b66e	0.5301274
83	0x3e375a6a	0.17905584
84	0xbddc330f	-0.10751926
85	0xbe89afef	-0.2689204
86	0x3e48f899	0.19626082
87	0x3de89163	0.11355855
88	0x3e4240ab	0.18969981
89	0x3eb07ea9	0.34471634
90	0x3e1fef89	0.15618719
91	0xbef49ad1	-0.47774366
92	0xbec29f69	-0.38012245
93	0xbd722dc7	-0.059125688
94	0xbdac3bfe	-0.0840988
95	0xbe5913b0	-0.21198916
96	0xbe756500	-0.2396431
97	0xbead4e8e	-0.33848995
98	0xbc9e8192	-0.019348893
99	0x3e241b53	0.16026048
100	0x3e53d588	0.20686924
101	0xbe87f75b	-0.26555905
102	0xbd808c4c	-0.062767595
103	0xbda207fa	-0.07911678
104	0x3ed8dfcb	0.4235824
105	0x3ec15bc6	0.3776533
106	0x3cb4c4a4	0.022066422
107	0x3d8bca1d	0.068256594
108	0xbeb67604	-0.35636914
109	0xbcdf5345	-0.027261386
110	0xbeb9f9fe	-0.3632354
111	0x3e0d4378	0.13795269
112	0xbddfcef8	-0.10928148
113	0x3e7589ca	0.23978344
114	0x3f06553b	0.524738
115	0x3eb50b70	0.3536029
116	0x3eb32994	0.3499266
117	0x3f081cae	0.5316876
118	0xbe89a3e9	-0.26882866
119	0x3e4322ba	0.19056216
120	0xbe69f5f0	-0.22847724
121	0x3ea39a15	0.31953493
122	0xbe38d4a8	-0.18049872
123	0x3e7b7df1	0.24559762
124	0xbdd7fc61	-0.10546184
125	0xbd7d5331	-0.061846916
126	0x3e6d1679	0.23153104
127	0xbe6eb68e	-0.23311827
128	0xbe123f0b	-0.14281861
129	0xbede29b5	-0.43391195
130	0xbe76151f	-0.24031495
131	0x3f05c468	0.5225282
132	0x3eaf1558	0.3419597
133	0xbe890d4d	-0.2676796
134	0xbe4a1e87	-0.19738208
135	0x3ec25550	0.37955713
136	0x3e411863	0.18856959
137	0xbe941f87	-0.28930303
138	0xbe5c3f7b	-0.21508591
139	0xbd7d92ca	-0.061907567
140	0x3d026281	0.031832222
141	0x3d6d8735	0.05799027
142	0x3e803ac5	0.25044838
143	0xbe1a8094	-0.15088111
144	0xbec4f8c9	-0.38471058
145	0xbc5672f5	-0.013088931
146	0xbe7c7f60	-0.24657965
147	0x3d774baf	0.060374912
148	0x3d0f3cf9	0.034970257
149	0xbe5a344c	-0.21309012
150	0xbe51585e	-0.20443866
151	0xbe470987	-0.19437228
152	0xbea627d9	-0.32452276
153	0xbe07820f	-0.13233207
154	0x3e1285a8	0.14308798
155	0x3d69c806	0.057075523
156	0xbd4c7657	-0.049917545
157	0xbf0657b5	-0.5247758
158	0x3e0a9cdc	0.135364
159	0x3e6d41ff	0.23169707
160	0xbdb991e4	-0.090610296
161	0xbedee07d	-0.43530646
162	0xbe129b09	-0.14316954
163	0x3e899f1e	0.2687921
164	0x3f0d620b	0.55227727
165	0xbedc9c71	-0.43088105
166	0xbdbe8e47	-0.09304481
167	0x3e6c6c39	0.23088159
168	0x3e05e219	0.1307453
169	0xbe815ba1	-0.2526522
170	0xbe385d50	-0.18004346
171	0x3f0fe1a9	0.56203705
172	0x3e63e537	0.22255407
173	0xbe9e75b9	-0.3094919
174	0xbdb8906d	-0.09011922
175	0xbd40376b	-0.04692785
176	0x3e87e969	0.26545265
177	0x3d4773e3	0.048694503
178	0x3f18821a	0.5957352
179	0xbd8034c7	-0.062600665
180	0x3d433f57	0.047667827
181	0x3f05138b	0.51982945
182	0xbd438823	-0.047737252
183	0xbeba15af	-0.36344668
184	0x3e3bd8ea	0.18344465
185	0x3e7cd734	0.24691468
186	0xbe1e63a3	-0.15467696
187	0x3eed877b	0.46392426
188	0xbe65bf2b	-0.22436206
189	0x3d4c1d46	0.049832605
190	0xbcc61662	-0.024180595
191	0x3e9d1b47	0.30684873
192	0x3ea985f4	0.3311001
193	0x3e9656b7	0.29363033
194	0xbe91212f	-0.2834563
195	0x3ce7723a	0.02825271
196	0x3f07596b	0.52870816
197	0x3e23a3c1	0.15980436
198	0x3d36aec1	0.044600252
199	0x3f0f147c	0.5589063
200	0xbea8f28e	-0.32997555
201	0xbbd90cc3	-0.006623836
202	0x3de78042	0.1130376
203	0x3dc0035e	0.09375642
204	0xbae9517c	-0.0017800773
205	0xbe0b6a99	-0.13614883
206	0x3ddc498f	0.10756218
207	0x3f0fdec8	0.5619931
208	0x3f03ec47	0.51532406
209	0x3ef30fdb	0.47473034
210	0x3e1d0474	0.1533373
211	0x3ddead12	0.10872854
212	0xbe688993	-0.2270873
213	0xbc8e2faf	-0.017356722
214	0x3e51a75a	0.20473996
215	0xbe758036	-0.2397469
216	0x3ea8ebf5	0.3299252
217	0xbc969dbe	-0.018385764
218	0x3dddbeb2	0.10827388
219	0xbf0d0e97	-0.5510039
220	0xbef13722	-0.47112375
221	0x3de0bbb7	0.10973304
222	0x3e9ec240	0.31007576
223	0xbf125d77	-0.57173866
224	0xbcc085df	-0.023501335
225	0xbc394e58	-0.0113101825
226	0x3ecd98d6	0.40155667
227	0x3eb458c2	0.35223967
228	0x3e988be0	0.29794216
229	0xbd077a8c	-0.033075854
230	0xbe6f8bb0	-0.2339313
231	0xbb561934	-0.003266883
232	0xbdbc730b	-0.0920163
233	0x3df62413	0.12018599
234	0xbd53adf5	-0.05167957
235	0x3d2f70e9	0.04283229
236	0xbde1add4	-0.11019483
237	0x3f0573ac	0.52129626
238	0x3e922bc8	0.28549027
239	0x3ead787e	0.3388099
240	0x3ec07a3c	0.37593257
241	0xbd3a7187	-0.045518424
242	0x3cbef921	0.023312153
243	0x3e2efb6b	0.17088096
244	0x3e8e48da	0.27789956
245	0x3ead9c1d	0.33908167
246	0x3e367c61	0.17820884
247	0xbdc5239a	-0.09625931
248	0x3e9c20ce	0.30493778
249	0x3c781d42	0.015143694
250	0x3e3922be	0.1807966
251	0x3e4c2546	0.19936094
252	0xbe5e1cfd	-0.21690746
253	0x3e39c5c1	0.18141843
254	0xbe83cedf	-0.25743768
255	0x3dd0f084	0.10202125
