ensemble_autoencoder_weights_h1.pth (torch, 55580 bytes, 75 tensors)

autoencoders.0.encoder.cells.0.weight_h_2 f4 [8, 8]
0	0xbaea3166	-0.0017867505
1	0xbc6dea18	-0.014521144
2	0x3b6040b9	0.0034218265
3	0x395434cd	0.00020237565
4	0x3e23bc70	0.15989852
5	0x3cdac190	0.026703626
6	0xba6fdae9	-0.00091497466
7	0x3dbd6888	0.092484534
8	0xbadcc464	-0.0016843197
9	0xb8e671d0	-0.00010988454
10	0x3acfa636	0.0015842381
11	0x3d9a808d	0.0754405
12	0x3a2a601f	0.00064993085
13	0x3e3804c3	0.17970566
14	0x3d6319fe	0.05544471
15	0xbca0c536	-0.019625288
16	0xb8317b93	-4.2315176e-05
17	0x3d048455	0.032352764
18	0x383897bb	4.401033e-05
19	0x37951e3d	1.7776265e-05
20	0x3c47daac	0.0121981315
21	0x3d79ac1e	0.06095516
22	0xb6cdb247	-6.1302303e-06
23	0x389ea0eb	7.5640004e-05
24	0x3979b268	0.00023812952
25	0x380d1692	3.363804e-05
26	0xbdc51336	-0.09622805
27	0x3911b0e9	0.00013894182
28	0xbc015aec	-0.007895213
29	0xba9d2f46	-0.0011992238
30	0xb8dc08e9	-0.00010492077
31	0x39f81d3a	0.00047324022
32	0x3ccd9db0	0.025099605
33	0x3c1d2444	0.009591166
34	0x398cf4de	0.0002688532
35	0x391ac783	0.00014760908
36	0x3a88ca03	0.0010436181
37	0xba4400a9	-0.0007476905
38	0x3ccaf0a0	0.024772942
39	0xbab3a845	-0.0013706764
40	0x3a23ee95	0.0006253508
41	0xb7e1e780	-2.692989e-05
42	0xbcba77cc	-0.022762202
43	0xbb22a299	-0.0024816154
44	0x39b83f2b	0.0003514228
45	0xb98bb0c8	-0.00026643858
46	0xba0d861e	-0.0005398708
47	0xba68683e	-0.0008865631
48	0xbb2fd1bc	-0.0026827892
49	0x36c1760e	5.7655916e-06
50	0x3d4f306c	0.050583288
51	0x3a274530	0.0006380854
52	0xbc62a7c4	-0.013833944
53	0xb889ee4b	-6.5770546e-05
54	0xbcda32b4	-0.026635505
55	0xbde26fcd	-0.110564806
56	0x3b1dfbe2	0.0024106433
57	0x3dc3c0a9	0.095582314
58	0xbe4102c8	-0.18848717
59	0x3d0edde4	0.03487958
60	0xba17fff0	-0.00057983305
61	0x3c038e7c	0.008029576
62	0x3c9de8bc	0.019276015
63	0xbe329444	-0.17439371

autoencoders.0.encoder.cells.0.bias_h_2 f4 [8]
0	0x00000000	0.0
1	0x00000000	0.0
2	0x00000000	0.0
3	0x00000000	0.0
4	0x00000000	0.0
5	0x00000000	0.0
6	0x00000000	0.0
7	0x00000000	0.0

autoencoders.0.encoder.cells.0.lstm.weight_ih f4 [32, 1]
0	0xbe5cce61	-0.21563102
1	0x37c6215d	2.3618975e-05
2	0x3b00d8f9	0.0019660576
3	0xba2ed88f	-0.0006669843
4	0x3e422fdd	0.18963571
5	0x3e42066d	0.18947764
6	0x3da0e7c2	0.07856704
7	0xb9368af8	-0.00017408642
8	0x3e194f0e	0.14971563
9	0xbdb2be53	-0.08727708
10	0xbd5b04c4	-0.05347134
11	0xbaf79525	-0.0018889053
12	0xbe491088	-0.19635212
13	0x3bbd4ef8	0.005777236
14	0x3db08612	0.08619322
15	0x3e886043	0.26635942
16	0x3e5ba822	0.21450856
17	0xbd344f23	-0.044020783
18	0x3e3b12f2	0.18268946
19	0x3e46a04d	0.19397087
20	0x3e5248fd	0.20535655
21	0xbdf120a2	-0.11773802
22	0x3b54ca30	0.0032469146
23	0xbddeeb01	-0.10884667
24	0x3e6d7c6f	0.23191999
25	0x3e5cb623	0.21553855
26	0x3e4c37df	0.19943188
27	0xb997987c	-0.00028914574
28	0xbe29d892	-0.16586521
29	0xbd4f0d98	-0.050550073
30	0xbbe14700	-0.006874919
31	0x3b21c6b0	0.0024685077

autoencoders.0.encoder.cells.0.lstm.weight_hh f4 [32, 8]
0	0xb979b5ce	-0.00023814218
1	0x3e8afbe5	0.27145305
2	0xbbd350b8	-0.0064488314
3	0x3e76e6bd	0.24111457
4	0x3e1bb42a	0.15205446
5	0x3cbdeb60	0.023183525
6	0xba0d2107	-0.00053836446
7	0xbc405ed4	-0.011741359
8	0xbe65bab0	-0.22434497
9	0x38991da4	7.3011295e-05
10	0x3da83afe	0.08214377
11	0x3e549477	0.2075976
12	0xbe89eb5c	-0.26937377
13	0xbe82f6d2	-0.25578934
14	0x3651150f	3.1155685e-06
15	0xbdf93756	-0.121687576
16	0x3b2eff5b	0.0026702497
17	0x39839158	0.00025094557
18	0x3e8baf3f	0.2728214
19	0xbe2b4c10	-0.16728234
20	0xbd454ea9	-0.04817072
21	0x3e528a51	0.20560576
22	0x3e062e0a	0.131035
23	0x3e2df8b2	0.16989401
24	0xbe6b1cf7	-0.22960268
25	0x3ce4ae0a	0.02791502
26	0x3e8be51b	0.2732323
27	0x396d81e6	0.00022650472
28	0x3d6d7d69	0.05798093
29	0xbe51683a	-0.20449916
30	0xbd4ee54c	-0.050511643
31	0xbe1c24ae	-0.15248367
32	0x3db05ffa	0.08612056
33	0x3e6b83e9	0.22999538
34	0x3d6ff328	0.0585815
35	0xbe5d54d8	-0.21614397
36	0xbcd0a634	-0.025469877
37	0x3a85f2c2	0.0010219442
38	0x39c6d82a	0.00037926558
39	0xbdb2a735	-0.087232985
40	0xbe1dd2c9	-0.1541244
41	0xbe79fc28	-0.24412596
42	0xbce9e464	-0.028551288
43	0x3e80c785	0.2515222
44	0xbe5386b8	-0.2065686
45	0xbdc5e706	-0.09663205
46	0xb899a099	-7.325522e-05
47	0xbdb42857	-0.08796757
48	0x3dbca77c	0.092116326
49	0xbe5ed42f	-0.21760629
50	0x3d3bf8e5	0.04589166
51	0x3e3dc245	0.18531139
52	0x3e497408	0.19673169
53	0xbe72e92f	-0.23721765
54	0x3cf48aee	0.029851403
55	0x3e8aaec9	0.27086475
56	0x3e4a1a7d	0.19736667
57	0x3e453518	0.19258535
58	0xbe6e7412	-0.23286465
59	0xbe5675e3	-0.20943408
60	0x3e115a76	0.14194664
61	0x3e81843f	0.25296208
62	0x3e8bc5e1	0.27299407
63	0x3e0bd03a	0.13653651
64	0x3e48457f	0.1955776
65	0x3e47781a	0.19479409
66	0x3d9e72a3	0.07736709
67	0x3dc08c9a	0.094018176
68	0xb8cca114	-9.757481e-05
69	0xbe0ea5ff	-0.1393051
70	0xba4925f4	-0.0007673197
71	0xb8bcc135	-9.000526e-05
72	0x3dd0ec8a	0.10201366
73	0x3db1cc4a	0.08681543
74	0xbe430e96	-0.19048533
75	0xbe89bcaa	-0.26901752
76	0xbe608269	-0.21924748
77	0x3af85a62	0.0018947835
78	0x3e4db26c	0.20087594
79	0x3b3133eb	0.0027039002
80	0xbd71b61e	-0.05901157
81	0x3df786e9	0.12086279
82	0xbe55fffa	-0.20898429
83	0xbd84895c	-0.06471512
84	0xbcdd7f68	-0.027038291
85	0x3cc2ec92	0.023794446
86	0x3d281a32	0.041040607
87	0xbe78631e	-0.2425656
88	0xbe1a59e6	-0.15073356
89	0x3e09d086	0.13458452
90	0x3e863939	0.26215532
91	0x3db7fc4f	0.08983671
92	0x3e5fea66	0.2186676
93	0xbdda5cbb	-0.10662218
94	0xbe149e0e	-0.14513418
95	0x3e829515	0.25504366
96	0x3e2375e6	0.15962943
97	0x3e357df1	0.17723824
98	0xbd73d63b	-0.059530478
99	0x3d7072f0	0.058703363
100	0xbe8b831a	-0.2724846
101	0xbdac898e	-0.08424674
102	0x3c1a02a8	0.009400047
103	0x3e3acb0e	0.18241522
104	0xbd91bed9	-0.071164794
105	0x3d536c67	0.051617052
106	0x3e844b55	0.25838724
107	0xbe2d8cc1	-0.16948225
108	0x3cd85866	0.02640934
109	0x3df65bb9	0.120292135
110	0xbe18bd50	-0.14915967
111	0x3e11b5b2	0.14229468
112	0xbe82a2c5	-0.25514808
113	0xbe7ad380	-0.24494743
114	0xba21c240	-0.0006170608
115	0xbdc48ca7	-0.0959714
116	0xbe5ca891	-0.21548678
117	0xba398225	-0.0007076583
118	0xbd610990	-0.05494076
119	0xbd356f53	-0.04429562
120	0x3e89a663	0.26884755
121	0xbd65968d	-0.05605178
122	0xbdeeccf7	-0.11660188
123	0x3d733606	0.059377693
124	0x3b432706	0.0029777898
125	0xbe2bebde	-0.16789195
126	0x3a22b640	0.0006206967
127	0x3a365ff4	0.0006957047
128	0xbbfb45c8	-0.0076682307
129	0x3e868513	0.26273403
130	0x3d7af9d4	0.06127341
131	0xbd9bbd12	-0.07604422
132	0xb4e82c25	-4.3245487e-07
133	0x3dd5e658	0.10444325
134	0xbcfe1f70	-0.03102085
135	0xbe82555d	-0.25455752
136	0x3ce374ca	0.02776565
137	0xbd0f2674	-0.03494878
138	0x3e498438	0.19679344
139	0x3c2d2d30	0.010569856
140	0xb92d513a	-0.00016528825
141	0x3e5bde02	0.21471408
142	0x3dbe6a54	0.09297624
143	0x3e2ca002	0.16857913
144	0x3d2ba593	0.04190595
145	0x3cc537d2	0.024074469
146	0x3cb5657e	0.022143122
147	0xbdca0796	-0.09864728
148	0xbb3202eb	-0.0027162384
149	0xbe4f4bf2	-0.20243815
150	0xbe5ebd19	-0.21751823
151	0xbe2a4d2c	-0.16631001
152	0x3e467945	0.19382198
153	0x3e63df52	0.22253159
154	0xbcea82c4	-0.028626807
155	0x3e457ad4	0.19285136
156	0x3e80d2e5	0.251609
157	0x3e89397f	0.2680168
158	0xbe4c9c45	-0.19981487
159	0xbbdfa0c0	-0.006824583
160	0x3ceef4dc	0.029169492
161	0x3e14c3ee	0.14527866
162	0x3e276182	0.1634579
163	0x3d820361	0.06348301
164	0xbe796e6f	-0.24358533
165	0x3aa7f05c	0.0012812722
166	0xbe3b3152	-0.18280533
167	0x3d175d06	0.03695395
168	0x38ec8f66	0.00011280067
169	0x3e0e9902	0.13925555
170	0xb99626e0	-0.00028639194
171	0xbb1e20f5	-0.002412853
172	0x3e6c25c6	0.23061284
173	0x3e0f223e	0.13977906
174	0xbe8b40a8	-0.27197766
175	0xbe17af73	-0.14813022
176	0x3dadc71c	0.08485243
177	0xbe3c3d71	-0.18382813
178	0xbdacb072	-0.08432092
179	0x3e6f4f19	0.23370017
180	0xbe5d1bd9	-0.21592654
181	0xb98a004a	-0.00026321627
182	0xbe18f01d	-0.14935346
183	0x38f5a746	0.000117136675
184	0x3e511074	0.20416433
185	0xbe60b203	-0.21942906
186	0xbc882ed4	-0.016623892
187	0x3c85d612	0.016337428
188	0xbe188374	-0.14893895
189	0x3e27c44a	0.16383472
190	0xbdf7bba5	-0.12096337
191	0x3df706c9	0.12061841
192	0xbe5cfe55	-0.21581395
193	0x3e306b34	0.17228395
194	0x3e14c9ee	0.14530155
195	0xb9d82d1d	-0.00041232342
196	0x3b432a6a	0.002977992
197	0x39321928	0.00016984774
198	0xbe858a59	-0.26082113
199	0xbd9cdaa2	-0.076588884
200	0xbe553fae	-0.20825073
201	0xbddfd726	-0.10929708
202	0xbe7d3705	-0.2472802
203	0x3e6e2644	0.23256785
204	0x3bdf3040	0.006811172
205	0xbd1a25ef	-0.037633833
206	0xbe3353a5	-0.17512377
207	0xbcc19c12	-0.02363399
208	0xb66c5fc7	-3.522249e-06
209	0xbd60d3e8	-0.05488959
210	0x3d8bdff4	0.06829825
211	0xbe00e2b4	-0.1258648
212	0xb9918464	-0.00027755194
213	0x3e355a9d	0.17710347
214	0xbdb40d6d	-0.08791623
215	0xb97e658a	-0.00024261154
216	0xbd34d6e7	-0.04415026
217	0x3e81b3e9	0.25332573
218	0xbe093fae	-0.13403198
219	0xbd44c285	-0.04803707
220	0x3e8107a3	0.2520114
221	0x3e82de89	0.25560406
222	0x3a65300c	0.0008742816
223	0xb9084a41	-0.00012997632
224	0xbbaee6f0	-0.0053375885
225	0xbe0b1f5a	-0.13586178
226	0xbccfbb2c	-0.025357805
227	0xbe16de0f	-0.14733146
228	0xbd616a76	-0.05503317
229	0x3e0c69a2	0.1371217
230	0x3b08b1a9	0.0020857847
231	0x3e482fbb	0.19549458
232	0x3dbd9d84	0.09258559
233	0xb9ab5c4b	-0.00032684425
234	0xbe491b02	-0.19639209
235	0x3e7698a0	0.2408166
236	0xbe7a6540	-0.24452686
237	0x3de2e9a3	0.11079719
238	0xb99a71a5	-0.0002945784
239	0x3d96a9e7	0.07356625
240	0xbe87b576	-0.2650563
241	0x389c674e	7.457902e-05
242	0x3df01d04	0.11724284
243	0x394bf987	0.00019452545
244	0x3e1c4472	0.15260485
245	0xb897beba	-7.235767e-05
246	0x3a739cc4	0.0009293074
247	0x3e820485	0.25394073
248	0xb9b77fad	-0.00034999606
249	0xbd021c01	-0.031764988
250	0x3d123d65	0.03570308
251	0x3e786d5a	0.24260464
252	0xbe5e5fe7	-0.21716271
253	0x3e0ff0de	0.14056727
254	0x3e4e4195	0.20142205
255	0xbe79bb69	-0.24387898

autoencoders.0.encoder.cells.0.lstm.bias_ih f4 [32]
0	0x3d914022	0.070923105
1	0xb9204934	-0.0001528606
2	0x3985b555	0.0002550284
3	0x3e6dcf98	0.23223722
4	0xbe89f9a3	-0.2694827
5	0x3e03994e	0.1285145
6	0x3e3e0d09	0.1855966
7	0x3e65fb50	0.2245915
8	0xbd106cc8	-0.035259992
9	0xbe1a13fe	-0.15046689
10	0x3d44c081	0.04803515
11	0x3e81c56f	0.25345942
12	0x3e87c64d	0.2651848
13	0xbd466a41	-0.048441175
14	0xbe17cbe4	-0.14823872
15	0x3cc2eff2	0.023796055
16	0xbe2b50ac	-0.16729993
17	0xbe1740a0	-0.14770746
18	0x3c196888	0.009363301
19	0xbdc6af93	-0.09701457
20	0x3dfef1ed	0.124484874
21	0x3a0d5f4d	0.0005392924
22	0x38952e3f	7.113488e-05
23	0xbdb6c98b	-0.0892516
24	0x3e3fe527	0.18739758
25	0x3e6de238	0.23230827
26	0xbdc8d438	-0.098061025
27	0x3e85cde1	0.26133636
28	0xbe684830	-0.22683787
29	0xbd99c4a5	-0.0750821
30	0x3e516774	0.2044962
31	0x3e6e5ecc	0.2327835

autoencoders.0.encoder.cells.0.lstm.bias_hh f4 [32]
0	0xbe61a512	-0.22035626
1	0xbdeb3601	-0.1148491
2	0xbe49af36	-0.19695744
3	0x3e8bf0c3	0.27332124
4	0xbcf179d4	-0.029477037
5	0x3e2769b6	0.1634892
6	0x3dc9e986	0.09858994
7	0xbc4c1014	-0.012455005
8	0x3e15f83e	0.14645478
9	0xbe23b462	-0.1598678
10	0x3d4f9aa0	0.05068457
11	0xbe0d925e	-0.13825366
12	0xbe6b06bb	-0.22951786
13	0xbe597cfa	-0.21239081
14	0xb7590024	-1.2934241e-05
15	0x3bb07630	0.005385183
16	0x3e0baade	0.136394
17	0xbd82d097	-0.063874416
18	0xbe1a8982	-0.15091518
19	0x38778ea1	5.9022223e-05
20	0x3e2750ee	0.16339466
21	0xbe434ba6	-0.19071826
22	0xbddd4e13	-0.10805907
23	0x3aa65b5c	0.0012692022
24	0x3e70e287	0.23523913
25	0x3e823283	0.25429162
26	0x3e01a146	0.12659177
27	0xbe812708	-0.2522509
28	0xbe603fb2	-0.21899298
29	0xbd44a2a9	-0.048006687
30	0xbdd3b469	-0.10337145
31	0xbe1b0625	-0.15139063

autoencoders.0.encoder.cells.1.weight_h_2 f4 [8, 8]
0	0xbd90efbc	-0.07076976
1	0xbde4ae28	-0.1116603
2	0xbd89aba1	-0.06722189
3	0xb97c9940	-0.00024089683
4	0x3db5d0f4	0.08877745
5	0xba14aa70	-0.0005671149
6	0xb99f8541	-0.00030426125
7	0x3c901326	0.017587256
8	0x38e2d966	0.000108170134
9	0xbcd0176c	-0.025401793
10	0xba5f9c69	-0.0008530082
11	0x38b64830	8.691882e-05
12	0x39ed85cf	0.00045303858
13	0xbd19162a	-0.037374653
14	0x3c8c506c	0.017128192
15	0x3922fc2d	0.00015543467
16	0xb90a296f	-0.00013176141
17	0x3bfc1448	0.0076928474
18	0xbc3f18cc	-0.011663627
19	0xbbb8cb88	-0.005639497
20	0x39256007	0.00015771399
21	0xbad465d3	-0.0016204662
22	0x3d4a6ea8	0.049421936
23	0x3c815dce	0.0157918
24	0xb9603626	-0.00021382477
25	0x391b37ed	0.00014802786
26	0xba541d4a	-0.00080915226
27	0x373311bb	1.067336e-05
28	0xb9e38f9f	-0.0004340382
29	0xb8039563	-3.137196e-05
30	0xba689329	-0.0008872026
31	0x39a94873	0.0003228817
32	0xb9b72985	-0.00034935414
33	0x3dcd28c6	0.100175425
34	0xbd144a53	-0.036203694
35	0x383ba1bb	4.4734898e-05
36	0xb95b665b	-0.00020923598
37	0x38958480	7.129554e-05
38	0x3e73c6b4	0.23806268
39	0xb9dd7b80	-0.0004224442
40	0x38ab7391	8.175441e-05
41	0x377716a2	1.4727617e-05
42	0xba72e98c	-0.00092663686
43	0xb93647b1	-0.0001738358
44	0xb9e14685	-0.00042967885
45	0x3a08b370	0.00052147266
46	0xb7ddbcf2	-2.6433238e-05
47	0x3b44c40c	0.003002408
48	0xba61098f	-0.0008584493
49	0x3e01dcac	0.12681836
50	0x38357c82	4.326972e-05
51	0xbcebc998	-0.02878265
52	0xb998548e	-0.00029054697
53	0xbb336529	-0.0027373529
54	0x39ec340f	0.00045052214
55	0xb9510108	-0.00019932177
56	0x38878e17	6.463768e-05
57	0x398fffa2	0.00027465547
58	0x3ab6667f	0.0013916044
59	0xba8ada42	-0.001059361
60	0x3999b4d8	0.00029317173
61	0xb8b2d143	-8.5266794e-05
62	0xbb2085e8	-0.0024493877
63	0xb9a2adcb	-0.00031028534

autoencoders.0.encoder.cells.1.bias_h_2 f4 [8]
0	0x00000000	0.0
1	0x00000000	0.0
2	0x00000000	0.0
3	0x00000000	0.0
4	0x00000000	0.0
5	0x00000000	0.0
6	0x00000000	0.0
7	0x00000000	0.0

autoencoders.0.encoder.cells.1.lstm.weight_ih f4 [32, 8]
0	0xbe0c161f	-0.13680314
1	0xb935fdd6	-0.00017356066
2	0x3da8c6be	0.08241032
3	0xbe1129b2	-0.14176062
4	0x3d03b1f9	0.03215215
5	0x3d1302dd	0.035891403
6	0x3bf9c088	0.0076218285
7	0xbe59ef12	-0.21282604
8	0xbe85d0f1	-0.26135972
9	0x3de4b07a	0.11166473
10	0x3c11b0c8	0.008892246
11	0x3db8fa8e	0.090321645
12	0xbe1b0aac	-0.1514079
13	0xbd82d651	-0.06388534
14	0xbe651a55	-0.22373326
15	0xbe6c1804	-0.23056036
16	0xbc365f30	-0.011131093
17	0x3a39923b	0.000707898
18	0x3e0879e2	0.13327745
19	0x3e4864b7	0.1956967
20	0x3d157a7d	0.036493767
21	0x3e657d30	0.22411036
22	0xbc1f650c	-0.009728681
23	0x39280b74	0.00016025995
24	0x3c0b7e28	0.008513965
25	0x3af3a7f1	0.0018589479
26	0x3e89977b	0.26873383
27	0xbe6c5948	-0.23080933
28	0x39bac11a	0.00035620556
29	0x3b0d5ea2	0.0021571298
30	0xbdab1c73	-0.08355036
31	0xbe234bad	-0.15946837
32	0x3ab5bb38	0.0013865
33	0x3de6ecb9	0.1127562
34	0xbe86b65b	-0.26311
35	0x3e4c75bb	0.19966786
36	0x3e77ef56	0.24212393
37	0xbe44a3d2	-0.19203117
38	0xb9ac290f	-0.00032836988
39	0xbe88bf02	-0.26708227
40	0xbe87d9a6	-0.2653324
41	0x39e1d3af	0.0004307306
42	0xbd7b8a4c	-0.061411187
43	0xbdd7c32a	-0.105352715
44	0xbc2dbff0	-0.0106048435
45	0x3e391664	0.18074948
46	0xbe6be280	-0.23035622
47	0xbe89c6e5	-0.26909557
48	0xbdcf7f95	-0.10131756
49	0x3a851af9	0.0010155133
50	0x3e40a11c	0.18811458
51	0x38aebe25	8.332384e-05
52	0xbe244ca4	-0.16044861
53	0xb72116ad	-9.601627e-06
54	0x3d0c1d13	0.034207415
55	0xbb7083d0	-0.003669966
56	0x3931df53	0.0001696323
57	0xb98cedd7	-0.00026880085
58	0x3e23406a	0.15942541
59	0xbe80e089	-0.25171307
60	0xbdba75db	-0.091045104
61	0xbb4d47c0	-0.0031323284
62	0x399a1d28	0.00029394892
63	0xbe8bbe4e	-0.27293628
64	0x3e0c159e	0.13680121
65	0x3bdea940	0.0067950785
66	0xbd8d0362	-0.06885411
67	0xbe2131e3	-0.15741687
68	0x3b7a6ad0	0.0038210638
69	0x3d2b7263	0.041857135
70	0x3e2b15d6	0.16707548
71	0x3e8007b5	0.2500588
72	0xbd0e1078	-0.034683675
73	0xbe255394	-0.16145164
74	0x3adea1bf	0.001698546
75	0xbe406c91	-0.18791415
76	0x3e797c8b	0.24363916
77	0xbda735d9	-0.081645675
78	0x3e6e6d90	0.23283982
79	0xbe7dbc61	-0.24778892
80	0xbc5e82bc	-0.013580974
81	0x3dd88488	0.10572153
82	0x3e540cc3	0.20707993
83	0xbd89d0ab	-0.067292534
84	0xbdbba123	-0.09161594
85	0xbe4a88a9	-0.19778694
86	0x3e63a87a	0.22232237
87	0xbcb54e6e	-0.022132125
88	0xbc4b2a14	-0.012400169
89	0x3e3d2a70	0.1847322
90	0x3d3edf9c	0.04659997
91	0x38102fa8	3.437666e-05
92	0x3e505c03	0.203476
93	0xbcd887d6	-0.02643196
94	0x3a706623	0.0009170493
95	0x3e511d34	0.20421296
96	0x3e87c961	0.26520827
97	0x3e3981b9	0.18115892
98	0x3e5856ab	0.21126811
99	0xb8dd843a	-0.0001056273
100	0xbdaf43dd	-0.08557866
101	0x3d7af3ec	0.06126778
102	0x3dd94a3f	0.106098644
103	0xbdc5880c	-0.096450895
104	0x3c177048	0.0092430785
105	0xbab3fed4	-0.0013732561
106	0xbe469a13	-0.19394712
107	0x3a6da53e	0.00090654555
108	0xbe24f3ee	-0.16108677
109	0x3e118cce	0.14213869
110	0x3cd83406	0.026391994
111	0xb989da7e	-0.00026293466
112	0x3dd66d28	0.10470039
113	0x3ccada84	0.0247624
114	0xbe805e02	-0.25071722
115	0xb92f1245	-0.00016696106
116	0xbd4b76a1	-0.04967368
117	0x3e8083f5	0.25100675
118	0xb9bc4d7b	-0.00035915882
119	0xbe71cbda	-0.2361292
120	0xbe5c973d	-0.21542068
121	0xbd8cecfa	-0.06881137
122	0xbe89605f	-0.26831338
123	0xbe348124	-0.17627388
124	0x3bad9df0	0.0052983686
125	0xbe53158c	-0.20613688
126	0xbe161d4e	-0.14659616
127	0x389b33ce	7.400625e-05
128	0xbd976fa7	-0.07394343
129	0x3dcc1515	0.099649586
130	0xb72d3abc	-1.0325279e-05
131	0x3e206c76	0.15666375
132	0x3c737e00	0.014861584
133	0xbcc7d1ba	-0.024391998
134	0xbe4f73ac	-0.20258969
135	0x3dc404b9	0.09571213
136	0xbdee7933	-0.11644211
137	0xbe56843d	-0.20948882
138	0x3954e65d	0.00020303713
139	0x3e38e138	0.18054664
140	0x3e69c8b0	0.22830462
141	0xbd1900e2	-0.037354358
142	0x3937340e	0.00017471632
143	0x3e3c969c	0.18416828
144	0x3e8497ef	0.25897166
145	0x3b1a86a2	0.0023578783
146	0x3dc69b98	0.09697646
147	0x3e41fbfd	0.18943782
148	0xb9a20de1	-0.00030909388
149	0x3dced8c4	0.100999385
150	0x3e797fbb	0.24365132
151	0xbe08e8ce	-0.13370058
152	0x3dfa6627	0.12226515
153	0xbe16476f	-0.14675687
154	0xbdd42ead	-0.10360465
155	0x3df85d30	0.12127149
156	0xbdb4efa6	-0.08834772
157	0x3e5fceae	0.21856186
158	0x3da13c1a	0.078727916
159	0xb9563f53	-0.0002043222
160	0xb9607980	-0.00021407567
161	0xb931f924	-0.00016972848
162	0x3e2eea7e	0.17081639
163	0x3cd29f56	0.025710743
164	0xbe81428c	-0.25246084
165	0x3e27e232	0.1639488
166	0xbe14a7f4	-0.14517194
167	0xbdcd51c4	-0.10025361
168	0x3a476c8f	0.0007607424
169	0xb88e0a1e	-6.772972e-05
170	0xbdc47065	-0.0959175
171	0xbd9241ff	-0.07141494
172	0x3dfcbf96	0.123412296
173	0xbe3c7466	-0.18403777
174	0x3d22f9c9	0.039788995
175	0xbe6b978c	-0.2300703
176	0x3e2b7f3e	0.16747758
177	0xbe37a8c1	-0.17935468
178	0xbb103ff9	-0.0022010787
179	0x3dc1c732	0.094618216
180	0x3e84beb5	0.25926748
181	0x3e706ba6	0.23478565
182	0x3e74df7f	0.23913382
183	0xbd335433	-0.04378147
184	0x3e4f3b32	0.20237425
185	0x3e2b0352	0.16700485
186	0xb9eb0179	-0.0004482379
187	0xbe0967be	-0.13418481
188	0xbe1b6db6	-0.1517857
189	0x3d9affc5	0.075683154
190	0xba0657de	-0.00051247876
191	0xbe22f3e0	-0.15913343
192	0xb984070c	-0.00025182252
193	0xb995f6d1	-0.00028603387
194	0xbd033181	-0.032029632
195	0xbb1ecaf5	-0.0024229859
196	0xbdbce65c	-0.09223625
197	0x38bf5191	9.122783e-05
198	0xba96025d	-0.0011444796
199	0x3e82fea1	0.2558489
200	0x3e175daa	0.14781824
201	0x3e5ed285	0.21759994
202	0x3d04b669	0.032400522
203	0xb8f81a62	-0.00011830476
204	0x3e7c0a76	0.24613366
205	0xbe2f28b5	-0.17105372
206	0xba2c38e0	-0.00065697543
207	0x3e731119	0.23736991
208	0x3c7f07e4	0.015565846
209	0x3dd5e7e8	0.10444623
210	0xbe61b652	-0.22042206
211	0xb8223a3f	-3.8678056e-05
212	0x3de294fb	0.11063572
213	0x3d2e6962	0.04258097
214	0xbd51984e	-0.05117064
215	0x396f025f	0.000227937
216	0x38c449c5	9.359749e-05
217	0xbe58b0c5	-0.21161182
218	0xbdfc6010	-0.1232301
219	0x3dc4df48	0.096129
220	0xbe881f4a	-0.26586372
221	0xbe7bf616	-0.24605593
222	0xbdf7e6ea	-0.1210459
223	0x3d6b8d99	0.057508085
224	0x3e841d7f	0.25803754
225	0x3974b1e6	0.00023335926
226	0xb81444e8	-3.5350124e-05
227	0x3dc59018	0.09646624
228	0xba16afee	-0.00057482615
229	0x3e32d7ae	0.17465088
230	0xbd108dcc	-0.035291478
231	0x3e0ce42a	0.13758913
232	0x3e21e2ba	0.15809146
233	0x3de061ec	0.10956177
234	0xbe0374d2	-0.12837532
235	0x3de0ecac	0.109826416
236	0x3d908b12	0.070577756
237	0xba8e03d0	-0.0010834876
238	0xbdbc8de8	-0.09206754
239	0xbc4081b4	-0.011749674
240	0xbe1af236	-0.15131459
241	0xb9dc3fb9	-0.00042009147
242	0x3e2bc786	0.16775331
243	0xbe3a4b7f	-0.18192862
244	0x3bf4a980	0.007466495
245	0xb9329fdd	-0.00017034957
246	0xb8fa0a62	-0.00011922863
247	0xba9c8325	-0.001194094
248	0xbd1f2f44	-0.038863435
249	0xbdee1c7b	-0.11626526
250	0xbe4f35a8	-0.20235312
251	0xbe50b86b	-0.2038285
252	0x3df43e8a	0.11925991
253	0x3dc941ee	0.09827028
254	0x3e41c0c1	0.18921186
255	0x3e8a5dd5	0.27024713

autoencoders.0.encoder.cells.1.lstm.weight_hh f4 [32, 8]
0	0x3e54e083	0.2078877
1	0xbdbab459	-0.0911643
2	0x3e803d2d	0.25046673
3	0x3bbc4eb8	0.0057466887
4	0x3e2288da	0.15872517
5	0xbe3c224f	-0.18372463
6	0xbb1645f9	-0.002292989
7	0x38e57932	0.00010942145
8	0xbe6786fa	-0.22610083
9	0x3ccba164	0.02485723
10	0xbe6b83e9	-0.22999538
11	0xbdc67614	-0.0969049
12	0x3e5b8aaa	0.21439615
13	0xbe2a9638	-0.16658866
14	0x3e86971d	0.26287165
15	0x3e00eefe	0.12591168
16	0xbe8b884e	-0.2725243
17	0xbab94f5d	-0.0014138032
18	0xbe708f9a	-0.2349228
19	0x3e11989a	0.14218369
20	0x3e4222d5	0.189586
21	0x3dcf7ee3	0.101316236
22	0x3a209093	0.0006125059
23	0xbb652240	-0.0034963042
24	0xbd273826	-0.04082503
25	0xbe376b3f	-0.17912005
26	0x3e76a7b8	0.24087417
27	0x3d67782a	0.05651108
28	0xbe1cc8d4	-0.15310985
29	0x3e2fc197	0.17163692
30	0xbdf7135b	-0.12064239
31	0x3a9b6a15	0.0011857176
32	0xbd54c3fb	-0.051944714
33	0xb985f52f	-0.00025550413
34	0x3d5dfbfb	0.054195385
35	0x3d8aef2d	0.067839004
36	0xbe6e34d4	-0.2326234
37	0x3bb6f778	0.0055837
38	0x3a47443f	0.0007601417
39	0xbd416882	-0.047218807
40	0xbe65a24a	-0.2242519
41	0xba0d3fdd	-0.00053882395
42	0xbc331250	-0.010929659
43	0xb8dbc986	-0.000104802704
44	0x3b1bbcdb	0.002376369
45	0x3e68b4a7	0.22725163
46	0xbe38aea4	-0.1803537
47	0x3db7df67	0.089781575
48	0xbe32cff8	-0.17462146
49	0x3e5ae3ad	0.21375914
50	0xbb442bcc	-0.0029933332
51	0xb91c5f1a	-0.00014912747
52	0xbe3ff50b	-0.1874582
53	0x38e5db8f	0.00010960467
54	0xb8632df4	-5.4163815e-05
55	0xbdc55f54	-0.09637323
56	0x3961f600	0.00021549314
57	0x3e06cd56	0.13164267
58	0x3e4ae1be	0.19812676
59	0x3abbb717	0.0014321533
60	0xbd0d0dcb	-0.034436982
61	0xb97fde93	-0.0002440161
62	0x3d2f9992	0.042871065
63	0xbe636a4a	-0.22208515
64	0xbe1ee659	-0.15517558
65	0xbb050ff8	-0.0020303708
66	0x3e83676b	0.2566484
67	0xbe5921f2	-0.21204355
68	0x392481b3	0.00015688576
69	0xbe7cc624	-0.2468496
70	0xbde198b1	-0.11015452
71	0xbe161c47	-0.14659224
72	0x39e25c4f	0.00043174854
73	0xbe7062e0	-0.23475218
74	0x39aeb919	0.00033325775
75	0xb8e54f45	-0.00010934336
76	0x3e8028a3	0.25031003
77	0xbe77cc8f	-0.24199127
78	0xb8072f41	-3.2230517e-05
79	0xbe2e68fc	-0.17032236
80	0xbe5dcae2	-0.21659425
81	0xbd920c7f	-0.0713129
82	0xbe220feb	-0.15826385
83	0x3daea5c3	0.0852771
84	0xbe6a6724	-0.22890908
85	0xbe2e12d4	-0.1699937
86	0x3e8a4af3	0.27010307
87	0xba78859a	-0.00094803574
88	0xbd519e96	-0.05117663
89	0x388ff0ba	6.86361e-05
90	0x3e69f380	0.22846794
91	0xbd738596	-0.05945357
92	0x3d398acc	0.045298383
93	0x396912d6	0.00022227629
94	0x3e2353ba	0.15949908
95	0xbd9eee2d	-0.07760272
96	0xbe4de9c3	-0.20108704
97	0xbe85f347	-0.26162168
98	0xbe6a3492	-0.22871616
99	0xbd888fea	-0.066680744
100	0x3dcec9dc	0.10097095
101	0x3e3cac08	0.18425
102	0x3e89debf	0.26927754
103	0x3dfee89d	0.12446711
104	0x37dbd721	2.6207012e-05
105	0xbe643b8c	-0.2228834
106	0x3d3eafe4	0.04655446
107	0x3e844cc5	0.2583982
108	0x3dfcea96	0.12349431
109	0xbdd8e50e	-0.10590564
110	0x3e671379	0.22566022
111	0xbe6fcdda	-0.2341837
112	0xba579be9	-0.00082248315
113	0x3df1bfcb	0.1180416
114	0xbe267d96	-0.16258845
115	0x3d1075cc	0.03526859
116	0x393e6c27	0.00018160102
117	0x3e5819db	0.21103613
118	0xbb49c9f9	-0.003079055
119	0x3dd3b5f1	0.10337437
120	0xbaba8946	-0.0014231585
121	0x3d5eadfb	0.05436514
122	0xbe3b880f	-0.18313621
123	0x3c332cd0	0.010935977
124	0xbddb388c	-0.10704145
125	0x3e14b4ae	0.14522049
126	0x3e37db7f	0.17954825
127	0xbd7a044c	-0.061039254
128	0x3b29c8bc	0.0025907
129	0xbe3a3c73	-0.18187122
130	0x3db394e9	0.08768637
131	0xbe87e960	-0.26545238
132	0xbe82a427	-0.25515863
133	0xb9056864	-0.00012722757
134	0x3d1e4d50	0.03864795
135	0xbe5ea485	-0.21742447
136	0xb929e5d7	-0.00016202718
137	0x3cbecd30	0.0232912
138	0x3db43c48	0.0880056
139	0xbd93b9b4	-0.072131544
140	0x3e3a6da6	0.1820589
141	0xbe41e577	-0.1893519
142	0x3df0b54c	0.1175333
143	0x3e3f0092	0.18652561
144	0x397a1bbf	0.00023852194
145	0x3ceea1fc	0.029129975
146	0x38f26cc4	0.000115597184
147	0x3ccdb6a4	0.025111504
148	0xba3b2708	-0.00071393
149	0xbe0033bb	-0.12519734
150	0xbe1f1dde	-0.15538737
151	0xb99965c6	-0.0002925826
152	0xbdd3d5f9	-0.103435464
153	0x3e59a0a0	0.2125268
154	0x3cc31702	0.023814682
155	0x3e4a3df9	0.19750203
156	0xbe593732	-0.21212462
157	0x3e54f27b	0.20795624
158	0xbc359c30	-0.011084601
159	0x3e7798ed	0.2417943
160	0x3d19113e	0.03736996
161	0x3de42c62	0.11141278
162	0xb9519ffa	-0.00019991389
163	0xb987b607	-0.00025884827
164	0x3e78f32b	0.24311511
165	0x38aabc6f	8.14133e-05
166	0x3e73ac19	0.23796119
167	0x3c4d8f38	0.012546353
168	0xbda2b9f3	-0.07945623
169	0x3c45da54	0.012075979
170	0x3e37ad6b	0.17937247
171	0x3daed7bb	0.08537241
172	0x394e438d	0.00019670856
173	0x3927f55f	0.00016017769
174	0x3e30be40	0.17260075
175	0xb9abf1b5	-0.00032795747
176	0xbcf2f466	-0.029657554
177	0x391d6764	0.00015011203
178	0xbe26e3e6	-0.16297874
179	0xbd7f5c5b	-0.062343936
180	0xbe3cc1f0	-0.18433356
181	0xb914ff53	-0.00014209496
182	0x3e53ce9e	0.20684287
183	0xbdc517fe	-0.09623717
184	0x3e440ffb	0.19146721
185	0xbe818bdf	-0.25302026
186	0x3dcc9a8d	0.09990416
187	0xba7ddcce	-0.00096840865
188	0xbe1c7eb0	-0.15282702
189	0x3dc85077	0.097809725
190	0xbceef6cc	-0.029170416
191	0xbdaf0ff5	-0.085479654
192	0x38db0332	0.00010443329
193	0x3d2261e9	0.039644156
194	0x3e531682	0.20614055
195	0x3e03c88e	0.12869474
196	0xbe6d7583	-0.23189358
197	0xb9c3514d	-0.00037253872
198	0xbe1f871a	-0.15578881
199	0x3e619edc	0.22033256
200	0x39a58ff3	0.00031578503
201	0xbaad465c	-0.0013219821
202	0xb8b2b365	-8.521116e-05
203	0xbb3606bc	-0.002777501
204	0x3e170bfa	0.14750662
205	0xbd9f776b	-0.07786449
206	0xbb8ff968	-0.004393745
207	0xbe233c7c	-0.15941042
208	0x3e0976ae	0.13424179
209	0x3c3a19f0	0.011358723
210	0x3a9a5825	0.0011775537
211	0x395263e4	0.00020064373
212	0x37604b61	1.3368991e-05
213	0x3948858c	0.00019123236
214	0x3d8318dc	0.06401226
215	0xbd897e95	-0.06713597
216	0x3a31bc3f	0.0006780065
217	0x3e8a5b45	0.27022758
218	0xb71530a4	-8.892417e-06
219	0x3e7b9381	0.24567987
220	0x3d98cd2e	0.0746101
221	0x3e3167fd	0.17324825
222	0x3c9d2378	0.019181952
223	0xb8e31e9e	-0.000108299064
224	0x3e0018ee	0.1250951
225	0xb71e8772	-9.44907e-06
226	0xbe27caa8	-0.16385901
227	0x3930a240	0.00016845111
228	0xbe0dbef6	-0.13842377
229	0x38018ecb	3.0888983e-05
230	0x3dfcd186	0.12344651
231	0x3e47bc4f	0.19505428
232	0x3d6e3b4f	0.05816203
233	0x3ab9cd46	0.0014175556
234	0xbe132774	-0.14370519
235	0x3e864fdf	0.26232812
236	0xbdf944e8	-0.12171346
237	0x391d468e	0.0001499897
238	0xbe548255	-0.20752843
239	0x3a21a7f0	0.0006166687
240	0xbe34a1bc	-0.17639822
241	0xba43b189	-0.00074651145
242	0x3df747b1	0.12074221
243	0xbe689a0f	-0.22715019
244	0x3e1ff572	0.15620974
245	0xb88395b8	-6.274454e-05
246	0xbe16d306	-0.14728937
247	0x38ecaeae	0.000112858936
248	0x3d98ffb6	0.07470648
249	0xbd839e98	-0.06426734
250	0xb980daab	-0.00024576983
251	0x37f5ffef	2.9325454e-05
252	0xbdcb492f	-0.09926068
253	0x3e68c603	0.22731785
254	0x3e78fbeb	0.24314849
255	0xb8722b5b	-5.7737674e-05

autoencoders.0.encoder.cells.1.lstm.bias_ih f4 [32]
0	0xbe2005d2	-0.1562722
1	0xbe6b4037	-0.22973715
2	0xb9af9d26	-0.00033495686
3	0xbda83bde	-0.08214544
4	0x3e7af66d	0.24508066
5	0xbdf88476	-0.1213464
6	0xbdb3f041	-0.08786059
7	0xbd1b8ebf	-0.03797793
8	0xbd1fb404	-0.038990036
9	0x3dc32c11	0.095298894
10	0xbe5c5305	-0.21516044
11	0xbd568f31	-0.05238265
12	0xbb4a8686	-0.0030902936
13	0x3e44d410	0.1922152
14	0x3e0df8aa	0.13864389
15	0x377b5ef0	1.498287e-05
16	0x3e12a452	0.14320496
17	0xbd976951	-0.073931344
18	0xb7055300	-7.946743e-06
19	0xbd3cebc3	-0.046123277
20	0xbe0a5cab	-0.13511913
21	0xbd5ae570	-0.053441465
22	0xbcdc15b8	-0.026865825
23	0xb8f28ab9	-0.00011565298
24	0xbe1c16ca	-0.15243068
25	0x3931100c	0.00016886013
26	0x3cbda9a0	0.023152173
27	0xbe8a629d	-0.2702836
28	0x398dff63	0.00027083894
29	0xbd2a68d3	-0.041603874
30	0x388f09e1	6.8206115e-05
31	0xbe666464	-0.22499233

autoencoders.0.encoder.cells.1.lstm.bias_hh f4 [32]
0	0xbdb06154	-0.08612314
1	0x3e55a95c	0.20865387
2	0x3db10612	0.08643736
3	0xb93797f1	-0.00017508843
4	0x3e499848	0.19686997
5	0xb66ea4bb	-3.556065e-06
6	0x3e8bcbf3	0.27304038
7	0xb979ba5d	-0.00023815916
8	0xb9b66df7	-0.00034795675
9	0xbe727474	-0.23677236
10	0xb8962b2f	-7.160601e-05
11	0xba98db43	-0.0011662025
12	0xbe219ab7	-0.15781675
13	0x3a015b09	0.0004934525
14	0xb8be689f	-9.079393e-05
15	0x3e0d806e	0.13818523
16	0x398c3ab2	0.00026746612
17	0x3d4fdb68	0.05074635
18	0xbdc34a43	-0.09535649
19	0x3b164659	0.0022930114
20	0x3dcb6075	0.09930507
21	0xbdf7553b	-0.12076803
22	0x3e1b9bca	0.15196148
23	0x3d4b8009	0.04968265
24	0x3e704392	0.23463276
25	0x3dc7245f	0.09723734
26	0x3d35c65b	0.04437862
27	0x3e531f9e	0.2061753
28	0xbe1d7bdb	-0.15379278
29	0xba071601	-0.000515312
30	0x3c8cc954	0.017185844
31	0xbe27bf94	-0.16381675

autoencoders.0.decoder.cells.0.weight_h_2 f4 [8, 8]
0	0xb9a38e0a	-0.0003119561
1	0x3abe57aa	0.0014521976
2	0xba0ce9ce	-0.0005375416
3	0x38b322c1	8.5418586e-05
4	0x389d196c	7.4910786e-05
5	0x3a123bcc	0.00055783684
6	0x3ca0e1f4	0.019638993
7	0x3a077108	0.0005166684
8	0xbd748a0d	-0.059701968
9	0xb970d34c	-0.00022966898
10	0xbc1ab18a	-0.009441743
11	0xbc11a60b	-0.008889685
12	0xb8e1be78	-0.000107643136
13	0x398630ac	0.00025594735
14	0xbd365443	-0.044513952
15	0xb986d158	-0.00025714445
16	0x385b16bb	5.223484e-05
17	0xbc146484	-0.009057168
18	0x3a730234	0.00092700426
19	0x39becf48	0.0003639406
20	0x3caeb68e	0.021327283
21	0xb94a1ec2	-0.0001927568
22	0xbc0ee2cf	-0.008721068
23	0x3b01b3f6	0.0019791103
24	0x3e2d0682	0.16897014
25	0x392815c3	0.00016029835
26	0xbd3332df	-0.043749686
27	0x3d4503bb	0.04809926
28	0xbc4a3145	-0.012340848
29	0xbd63add1	-0.055585686
30	0xb8a5a58a	-7.898647e-05
31	0x3ae53496	0.0017486985
32	0x3e1e1b5e	0.15440127
33	0x39811db4	0.00024626928
34	0x3c262c2f	0.01014237
35	0xbc6dc6cd	-0.01451273
36	0xb9031780	-0.00012501888
37	0x3995badf	0.00028558724
38	0xbc88a14a	-0.016678471
39	0x3d788ce7	0.06068125
40	0x3a75f057	0.0009381822
41	0x3b162b1b	0.0022913876
42	0x3d478110	0.048707068
43	0xb80905d3	-3.266877e-05
44	0x39132168	0.00014031457
45	0x3c4bd87c	0.012441751
46	0x39dfccbc	0.00042686414
47	0xb99d0667	-0.00029950144
48	0x3debefad	0.11520324
49	0xb90c6b0a	-0.00013391316
50	0x38b560a5	8.648754e-05
51	0xba75ec85	-0.00093812525
52	0x39861b38	0.0002557875
53	0xbd56d525	-0.052449364
54	0x3da53ad7	0.080678634
55	0x3a835a5d	0.0010021437
56	0x3d9a4d0e	0.07534228
57	0xb88c0756	-6.677087e-05
58	0xb8f50b39	-0.00011684601
59	0xbdfd776e	-0.12376295
60	0x3a0f405b	0.0005464607
61	0x3c7d37ed	0.015455228
62	0x3a2ee0c7	0.00066710677
63	0x38932444	7.016261e-05

autoencoders.0.decoder.cells.0.bias_h_2 f4 [8]
0	0x37efb271	2.8574113e-05
1	0xb8c190fc	-9.2299626e-05
2	0x38c53513	9.403578e-05
3	0xb7a720f3	-1.9923295e-05
4	0xb9018f5f	-0.00012355809
5	0x397ef2d6	0.00024313791
6	0xb8ef0bde	-0.000113986185
7	0x39804cfb	0.00024471417

autoencoders.0.decoder.cells.0.lstm.weight_ih f4 [32, 1]
0	0xbdb6b5d3	-0.08921399
1	0xb988bbe1	-0.00026079922
2	0x3e3b64d2	0.18300179
3	0xbe25999b	-0.16171877
4	0x39a5c66c	0.00031619088
5	0xb78de42e	-1.6914764e-05
6	0xbd7f2a66	-0.062296294
7	0xb9801825	-0.00024432052
8	0xbb4db953	-0.003139098
9	0x3e1236cf	0.1427872
10	0x3d23b955	0.03997167
11	0x3dceeecd	0.101041414
12	0x3aa3de21	0.0012502113
13	0x3c6664f4	0.014062155
14	0x3d83926b	0.064244114
15	0x3e607edd	0.21923395
16	0x3a25aac3	0.0006319696
17	0xba0049e6	-0.0004893824
18	0x3e0810aa	0.13287607
19	0xbd30b429	-0.043140564
20	0x39ebf297	0.00045003436
21	0x3a0d035b	0.0005379223
22	0xbe25fa9f	-0.16208886
23	0xbe695ae1	-0.22788574
24	0xbd8e8e6b	-0.06960758
25	0xbe1e69ff	-0.15470122
26	0x3d05fc27	0.032711174
27	0xba411af9	-0.0007366385
28	0xb9a655dc	-0.00031725958
29	0x3e86a98f	0.26301238
30	0xb9140dd8	-0.00014119537
31	0xb89a4cc4	-7.357591e-05

autoencoders.0.decoder.cells.0.lstm.weight_hh f4 [32, 8]
0	0x3e7063d4	0.23475581
1	0xbe863b42	-0.26217085
2	0x3dfbb9f6	0.122913286
3	0x3d480b99	0.048839185
4	0xbdd8f1a2	-0.10592963
5	0xbdc7fe96	-0.09765355
6	0xbcf2af99	-0.029624747
7	0xb9449d87	-0.000187507
8	0xbe072eee	-0.13201496
9	0xbe8a7eda	-0.27049905
10	0xbd807e61	-0.06274105
11	0x3da2b641	0.079449184
12	0x3e61ed22	0.22063115
13	0x3e4ee8a8	0.20205939
14	0xb953a9ce	-0.00020185785
15	0x3b0bc0c1	0.0021324607
16	0x3e86fab3	0.26363143
17	0x3d44465c	0.047918662
18	0xbd7ec053	-0.062195133
19	0x3e4014ec	0.18757981
20	0x387e0b72	6.056898e-05
21	0x3d7fc70a	0.062445678
22	0x3d8cd841	0.06877185
23	0xbe16e9ca	-0.14737621
24	0xbe860ca7	-0.26181528
25	0x3e12e36e	0.1434457
26	0x3b103d42	0.0022009169
27	0xbe3e8d9f	-0.18608712
28	0xba766410	-0.0009399066
29	0xbdd9444f	-0.10608732
30	0xbc59e170	-0.013298377
31	0x3cc6431b	0.02420192
32	0x3dca5a20	0.09880471
33	0xbd865c36	-0.065605566
34	0x3e50f6ce	0.20406649
35	0x3e3b9b4f	0.18320964
36	0xba36b0d5	-0.0006969099
37	0xbe6c3531	-0.23067166
38	0x3de365b8	0.11103386
39	0xba454792	-0.00075256184
40	0x3d809e9b	0.062802516
41	0xbe3f383c	-0.18673795
42	0xba395395	-0.00070696446
43	0x3dd91793	0.106001996
44	0x3d2208db	0.039559226
45	0xbaab450e	-0.0013066845
46	0x3de7f605	0.113262214
47	0xbd1d69f7	-0.038431134
48	0x3de5482f	0.111954086
49	0xbbe7a72f	-0.0070694904
50	0xbd604c89	-0.05476049
51	0x3e2810aa	0.16412607
52	0xbe6300ed	-0.22168322
53	0xbd1cae33	-0.038252067
54	0x3e58351a	0.21114007
55	0x3e89ea23	0.26936445
56	0xba98a64b	-0.0011646239
57	0x3e27eae9	0.16398205
58	0xbe265013	-0.16241483
59	0xb9d35d4d	-0.0004031457
60	0xbe4acaa7	-0.19803868
61	0xbe52146f	-0.20515607
62	0xbd952798	-0.072829425
63	0xbe2558bb	-0.16147129
64	0xb47eef77	-2.374271e-07
65	0xbe77dba9	-0.24204887
66	0x3e689796	0.22714075
67	0x3cc7de9a	0.024398137
68	0xb94932d6	-0.00019187792
69	0x3def60f8	0.11688417
70	0x3dfa826c	0.12231907
71	0xbe87e8d7	-0.2654483
72	0x39fc43c4	0.00048115675
73	0x3e663458	0.22480905
74	0xbe78b860	-0.24289083
75	0x3e30d141	0.17267324
76	0xbe3921a3	-0.18079238
77	0xbdccb686	-0.09995751
78	0x3d92e4f4	0.071725756
79	0x3e7b7c7e	0.24559209
80	0xbe73a1d8	-0.23792207
81	0x3ddd070c	0.1079236
82	0x3b702bd1	0.003664721
83	0x3e45ceb1	0.19317128
84	0x3e01e514	0.12685043
85	0xbe292932	-0.16519621
86	0x3e3112a2	0.17292264
87	0x3a7484d1	0.00093276525
88	0x3cb6e1b7	0.022324426
89	0x398e2e23	0.00027118725
90	0xb951e987	-0.00020018789
91	0x3e2239d4	0.15842372
92	0xbe879773	-0.26482734
93	0x3e13bed9	0.14428271
94	0x37a5d969	1.9770772e-05
95	0xbd99723c	-0.074924916
96	0xbd62cb26	-0.05536952
97	0xbe678d95	-0.22612603
98	0xb8021540	-3.1014206e-05
99	0xb8f94e7b	-0.000118878634
100	0xbe781c8b	-0.24229638
101	0xbd6aeacf	-0.057352837
102	0x37c79d0c	2.379578e-05
103	0x38ad15c6	8.2533385e-05
104	0xbd8f1901	-0.06987191
105	0x3c3f2d3d	0.0116685005
106	0x36f88eca	7.407599e-06
107	0xbb2dcf06	-0.00265211
108	0xbd0a8371	-0.03381676
109	0x3e82bec0	0.25536156
110	0x3e040ff6	0.12896714
111	0x3debce6b	0.115139805
112	0xbe5448fd	-0.20730968
113	0x3e85497a	0.2603262
114	0x3e5a9a74	0.21347982
115	0x3e1d68de	0.15372035
116	0xb9721e4b	-0.00023090203
117	0xba026ce2	-0.0004975331
118	0x3d99cb0c	0.07509431
119	0x3a70a48e	0.0009179794
120	0x3e1df8ca	0.15426937
121	0xbdc71451	-0.09720672
122	0xbbe9ad8d	-0.0071312846
123	0x3d0186ba	0.031622626
124	0x3d2fc11a	0.042908765
125	0x39de6ed4	0.00042425713
126	0xbbff9c8c	-0.0078006443
127	0x3d1a4d3e	0.03767132
128	0xbde2c1a7	-0.110720925
129	0x3d920ef0	0.07131755
130	0xb702df81	-7.800642e-06
131	0xbe54dfb4	-0.20788461
132	0x3e1091dc	0.14118141
133	0xbe5c5154	-0.21515399
134	0x3c4a1e69	0.012336352
135	0x3da3369d	0.07969401
136	0x3e85976e	0.26092094
137	0xbcb9ff62	-0.022704784
138	0xb8b4a986	-8.614645e-05
139	0x3e3fd45d	0.18733354
140	0xbd8cceaf	-0.06875359
141	0xbe6afce2	-0.2294803
142	0x3db6f3c3	0.089332126
143	0xbdc6504d	-0.09683285
144	0x39c31333	0.00037207603
145	0xbbb7f952	-0.005614438
146	0xbd1c4389	-0.038150344
147	0x389074db	6.888221e-05
148	0x3e409040	0.18805027
149	0xbe390b15	-0.18070634
150	0xbe8b7c5f	-0.27243325
151	0x3e782001	0.24230959
152	0xbd8b940e	-0.068153486
153	0x39abe033	0.00032782703
154	0x3920c99e	0.00015333897
155	0xbe43025a	-0.19043866
156	0xbe56ed68	-0.20989001
157	0x3b5a7be7	0.0033338012
158	0x3e5454c7	0.20735465
159	0x3d6ef7ef	0.058341917
160	0x3c828a2f	0.015935032
161	0xbde048d7	-0.10951393
162	0x391237ae	0.00013944387
163	0x3e6370b3	0.2221096
164	0xbdb015f5	-0.08597938
165	0xbdb4c060	-0.08825755
166	0x3c851fd4	0.016250528
167	0x3a71ddc7	0.0009226468
168	0x3e120500	0.1425972
169	0xbb3c6aac	-0.0028750105
170	0x3de6b21f	0.11264443
171	0xb9e77594	-0.00044147356
172	0x3df86e2d	0.12130389
173	0xb92d6424	-0.00016535871
174	0xbe6449a1	-0.22293712
175	0xbe24a534	-0.16078645
176	0xbe2e23c5	-0.17005832
177	0xb8be71fb	-9.0811365e-05
178	0x3e1efb2d	0.15525503
179	0x3d73d0db	0.059525352
180	0x3e97a1dc	0.29615676
181	0x3e2ba882	0.167635
182	0xbd0cc131	-0.03436393
183	0xbd72e577	-0.059300866
184	0x3a0394b6	0.0005019413
185	0x3e3f1740	0.18661213
186	0xbdae42ef	-0.0850886
187	0xbde8576a	-0.11344798
188	0x3e38b784	0.18038756
189	0xbda43ad1	-0.08019031
190	0xbe6926cf	-0.2276871
191	0x3b684b34	0.0035445215
192	0xbcf9554f	-0.030436186
193	0xbe84dac7	-0.25948164
194	0x3d746e57	0.05967554
195	0xbe85c79a	-0.26128846
196	0xbe36adc9	-0.17839731
197	0xbd933abf	-0.07188939
198	0xbe69557f	-0.2278652
199	0x3e38b68e	0.18038389
200	0xbdfef7ed	-0.12449632
201	0xbe1aacb4	-0.15104944
202	0xbe3659ea	-0.17807737
203	0x3cc7865f	0.024356065
204	0xbdf5759c	-0.11985323
205	0xbe76383e	-0.24044892
206	0x3e8be40a	0.27322417
207	0xb9b01253	-0.00033582989
208	0x3b5a0e99	0.003327286
209	0x3e14d12a	0.14532915
210	0x3e2268ea	0.15860334
211	0x39e0bf76	0.0004286726
212	0xb9a13666	-0.00030748843
213	0x3e022326	0.1270872
214	0xbd526cda	-0.05137334
215	0x3d9f3531	0.07773817
216	0x3e7254a0	0.23665094
217	0xbe524d77	-0.20537363
218	0xbe5c4a97	-0.21512829
219	0x3d10419b	0.035218816
220	0xb8b30835	-8.536914e-05
221	0xbace9fff	-0.0015764235
222	0xbb27966f	-0.0025571843
223	0xb9070120	-0.00012875022
224	0xbb503857	-0.0031771862
225	0xb9fc0e24	-0.0004807572
226	0x3d084560	0.033269286
227	0x3e6243d7	0.22096191
228	0x38eb1e83	0.000112113565
229	0x3da53f74	0.08068743
230	0xbe6df4ce	-0.23237917
231	0x39be5cb7	0.00036308702
232	0xb950780b	-0.00019881145
233	0xbe31fda7	-0.17381917
234	0x3d8c12f1	0.0683955
235	0x3e3dc480	0.1853199
236	0xbe7ef7ad	-0.24899168
237	0xbafc6f25	-0.0019259198
238	0xb9b4aed3	-0.0003446253
239	0xbcef1b03	-0.029187685
240	0xb974eba4	-0.00023357436
241	0x3cef9095	0.029243747
242	0x3dd814d5	0.105508484
243	0xba180420	-0.00057989545
244	0xb95652ae	-0.00020439431
245	0xbe03c3ba	-0.12867633
246	0x3d6bdcdf	0.057583686
247	0x38a46ad4	7.840028e-05
248	0x3c04ee74	0.008113492
249	0xbda52ec7	-0.08065563
250	0xbe5e1841	-0.2168894
251	0xb5a35aeb	-1.2170907e-06
252	0xbe7140d6	-0.23559889
253	0xb76ef4ac	-1.4242873e-05
254	0xba2ca7c3	-0.0006586278
255	0x3d572a61	0.05253065

autoencoders.0.decoder.cells.0.lstm.bias_ih f4 [32]
0	0xbe3bf7af	-0.18356203
1	0xbded53df	-0.11588263
2	0x3e529487	0.20564471
3	0xbe15ee98	-0.14641798
4	0xba0174d7	-0.000493837
5	0xb8b8fabb	-8.820506e-05
6	0xbe39f77b	-0.18160813
7	0x3d5ec47d	0.054386605
8	0xbcf3605c	-0.029709034
9	0x3e46b216	0.19403872
10	0xbe55cd03	-0.20878987
11	0xbda4cbf5	-0.08046714
12	0xbde1e1eb	-0.110294186
13	0xbd8945a6	-0.067027375
14	0xbdcbd153	-0.09952035
15	0xb816be25	-3.5939873e-05
16	0xbe851667	-0.25993654
17	0x3d4b7715	0.049674112
18	0x3e00b9b3	0.12570839
19	0x3e2c7d19	0.16844596
20	0x3912d5f0	0.00014003343
21	0x3a962f00	0.0011458099
22	0xbe6ad5bd	-0.22933097
23	0x3db3aafd	0.08772848
24	0xbcdd8e5c	-0.027045421
25	0x3e521ff1	0.20519997
26	0x3e5fc7b1	0.2185352
27	0x3e71f40a	0.2362825
28	0x39d9bdcb	0.00041530872
29	0xbd85b58a	-0.065287665
30	0x3e280fe1	0.16412307
31	0x3cd62557	0.026140852

autoencoders.0.decoder.cells.0.lstm.bias_hh f4 [32]
0	0x3cd4974c	0.02595105
1	0xbe1c6443	-0.15272622
2	0xb8dec67f	-0.00010622758
3	0x3d3d8924	0.046273366
4	0xb954da5f	-0.00020299245
5	0x3a2c9004	0.00065827393
6	0x39242188	0.0001565275
7	0xb9504d33	-0.00019865185
8	0x3e1c7862	0.15280297
9	0xbd190c8f	-0.037365492
10	0x3e796b19	0.24357261
11	0xbe77fe36	-0.24218068
12	0x3e28787c	0.16452211
13	0xbe2ea4e2	-0.17055085
14	0x38cfb317	9.903887e-05
15	0x3e34a008	0.17639172
16	0x3e788afb	0.24271767
17	0xbd7d84a3	-0.06189407
18	0x3ced0b41	0.02893603
19	0xbe4332b6	-0.19062313
20	0x3e808244	0.25099385
21	0x3aa8622b	0.0012846639
22	0x3d9899a2	0.07451178
23	0xbe7cb98c	-0.24680156
24	0x3e545d8e	0.20738813
25	0x389f1847	7.586233e-05
26	0xb9e19ff3	-0.00043034516
27	0x398a2f19	0.00026356502
28	0x3a18cf21	0.00058292045
29	0xbc0214d8	-0.00793954
30	0x3e2fa0ed	0.17151232
31	0x3e70b5aa	0.235068

autoencoders.0.decoder.cells.1.weight_h_2 f4 [8, 8]
0	0x3ad0736b	0.0015903538
1	0x3d846a22	0.06465556
2	0x3d82e162	0.063906446
3	0x393d2608	0.00018038612
4	0xbb7f0dce	-0.003891814
5	0x3d8f396d	0.06993375
6	0xb91edebc	-0.00015151029
7	0xb970db86	-0.00022969962
8	0xbbb07570	-0.0053850934
9	0x3c8447eb	0.016147574
10	0xbc9adafc	-0.018903248
11	0x3b33c4f4	0.0027430626
12	0xbd8c85f0	-0.06861484
13	0xbdc0a3c9	-0.094062395
14	0xbdd74f23	-0.10513141
15	0x3c6457fd	0.013936994
16	0x3df70618	0.12061709
17	0x3abc030d	0.0014344171
18	0x3899a1eb	7.325768e-05
19	0x3cf2a515	0.029619733
20	0xb88936df	-6.5428896e-05
21	0x3dbd061b	0.0922968
22	0xb5f86df1	-1.8509437e-06
23	0xb9afe4fe	-0.00033549214
24	0x3ac7c66f	0.0015241633
25	0xbc599da8	-0.013282217
26	0xba30b5b5	-0.00067409436
27	0x375cbdf7	1.31572515e-05
28	0xb9eb59ee	-0.00044889696
29	0xbb61fd10	-0.0034483112
30	0x3a244d53	0.0006267626
31	0x3be40f31	0.006959819
32	0xbb406add	-0.002936057
33	0x36a021e1	4.7723156e-06
34	0x3d6a6ec1	0.05723453
35	0xb7608cc2	-1.3384213e-05
36	0xbc97292c	-0.01845225
37	0x3afdeac1	0.001937233
38	0x3daca489	0.0842982
39	0xb9affabc	-0.00033565413
40	0x3d9e6c13	0.07735457
41	0x39f469d7	0.00046618163
42	0xba88fdd1	-0.001045162
43	0x3d499911	0.04921824
44	0xba1f2097	-0.0006070225
45	0xbd537585	-0.051625747
46	0x3d927265	0.07150725
47	0xba264473	-0.0006342597
48	0x3ce88739	0.028384792
49	0xbb4354ea	-0.0029805251
50	0xbe70ee56	-0.23528418
51	0xbd585aa8	-0.05282083
52	0xbd58e17e	-0.05294942
53	0x3db3f3c2	0.087867275
54	0x3d29a4c3	0.041416895
55	0x38701eeb	5.7249254e-05
56	0x3d56ad72	0.052411504
57	0x3d007af9	0.031367276
58	0xbda2967e	-0.0793886
59	0xb86a6f58	-5.5893644e-05
60	0xba0ad5f2	-0.00052961626
61	0x3d975457	0.073891334
62	0x3af9fd70	0.0019072723
63	0xb81bf8c8	-3.7186575e-05

autoencoders.0.decoder.cells.1.bias_h_2 f4 [8]
0	0xbd68c328	-0.05682674
1	0x398a7783	0.00026410454
2	0xbd7ce5dd	-0.061742652
3	0xb844e21a	-4.6940615e-05
4	0xbd76982a	-0.06020371
5	0xbd5b9525	-0.053609032
6	0x3951e87e	0.00020018403
7	0x39a06184	0.00030590233

autoencoders.0.decoder.cells.1.lstm.weight_ih f4 [32, 8]
0	0xbe8303ba	-0.2558878
1	0xbe6baa4a	-0.23014179
2	0x3d5394f5	0.05165573
3	0xb91a1f57	-0.0001469826
4	0x3e1fe6b2	0.15615347
5	0x3e4d6092	0.2005637
6	0xbe772d55	-0.24138387
7	0xbd2d0572	-0.04224152
8	0xb86218d6	-5.390573e-05
9	0x3d054182	0.032533176
10	0x3c9e595f	0.019329725
11	0xbd82e9c7	-0.06392246
12	0x3cad1e1a	0.021132518
13	0x3db51ca9	0.08843357
14	0x3e650d54	0.22368366
15	0xbe82f85f	-0.25580117
16	0x3e1bf60f	0.15230583
17	0xbd972c83	-0.07381537
18	0xb9bb5164	-0.0003572806
19	0x3aa2a8bc	0.0012409906
20	0xbdca6863	-0.098831914
21	0xbd08306d	-0.033249307
22	0x3e15d124	0.14630562
23	0x3926c8e4	0.00015905831
24	0x3d63b7fd	0.055595387
25	0xb8cbdd01	-9.7209595e-05
26	0xbd86d03d	-0.06582687
27	0xbca21146	-0.019783627
28	0xbe68697a	-0.22696486
29	0x3d820f95	0.06350628
30	0x3e7818d2	0.24228218
31	0x3dad333a	0.08457036
32	0x3e8722f7	0.26393864
33	0xbe1fbb8b	-0.15598886
34	0x3e042a58	0.12906778
35	0x3da898f7	0.08232301
36	0xbd8f2905	-0.06990246
37	0xbe6113b0	-0.21980166
38	0x3ca549d6	0.02017681
39	0x3cd1713f	0.025566695
40	0x3df54441	0.11975909
41	0xbe0c171e	-0.13680694
42	0x38f47f37	0.00011658522
43	0x3d13cf3d	0.03608631
44	0x3df18007	0.117919974
45	0x382d7034	4.135091e-05
46	0xbc2fa895	-0.010721345
47	0xbda79650	-0.08182967
48	0x3e8b8c2b	0.27255377
49	0xbe32fec8	-0.17480004
50	0xbd9e8442	-0.0774007
51	0x3dddd53f	0.10831689
52	0xbe3639a1	-0.17795421
53	0xbe0ea7b8	-0.13931167
54	0xba82c50d	-0.0009976939
55	0xbe813974	-0.25239146
56	0xb9d1583a	-0.0003992932
57	0x3998343d	0.0002903062
58	0xbd1b05aa	-0.0378472
59	0xbdad5572	-0.08463563
60	0x39d469d2	0.00040514633
61	0x3a097de4	0.00052448944
62	0x3d84da02	0.06486894
63	0x3e763d6c	0.24046868
64	0xbda9c397	-0.08289259
65	0x3dfe8735	0.124281324
66	0xbd0b5d29	-0.03402439
67	0xbabf1ed9	-0.0014581337
68	0xb9d1fbc7	-0.00040051175
69	0x38f52936	0.000116901865
70	0x3dc8c456	0.09803073
71	0xbded5b06	-0.11589627
72	0xbdd3f92e	-0.10350262
73	0xb8865e14	-6.407141e-05
74	0xbe86d530	-0.26334524
75	0x39801f67	0.0002443746
76	0xbcb75765	-0.02238054
77	0x398a96e1	0.00026433825
78	0xbdd903b8	-0.105964124
79	0x3e6726e8	0.22573435
80	0xbe28eb0f	-0.16495918
81	0x3b88bc07	0.004172805
82	0x3eb47799	0.35247496
83	0x3e81ad06	0.2532732
84	0x3bb73427	0.005590934
85	0xbe82b3d0	-0.2552781
86	0x3e4ef517	0.20210682
87	0x3d98ff25	0.0747054
88	0xb7e019dc	-2.6714923e-05
89	0x3d077366	0.033069037
90	0xb8ad3fc4	-8.26116e-05
91	0xbe131aa0	-0.14365625
92	0xbdd93b5c	-0.10607025
93	0xbe44529a	-0.19172135
94	0x3700edbb	7.6847455e-06
95	0x3952acaf	0.0002009149
96	0xbdcf7e8b	-0.10131558
97	0xbe606a23	-0.21915488
98	0x393fb912	0.00018284124
99	0x3e34d473	0.17659168
100	0x3e4e04f4	0.20119077
101	0xbe0bce37	-0.13652883
102	0x3a787947	0.0009478521
103	0x3951a08c	0.00019991602
104	0x3e401cf8	0.1876105
105	0x3e37f938	0.17966163
106	0xbdd345ad	-0.10316024
107	0x3df0a999	0.11751098
108	0xbe3b42b7	-0.18287168
109	0xbdf13b72	-0.117789164
110	0xbe86f5e2	-0.2635947
111	0x3e0518c7	0.12997733
112	0xbe81ec1b	-0.25375447
113	0xb8b3654c	-8.554253e-05
114	0x3e5fb042	0.21844581
115	0x3e685483	0.22688489
116	0x3e1f4576	0.15553841
117	0x3e6fa46a	0.23402563
118	0xbe48efc0	-0.19622707
119	0x3e33c62b	0.17556064
120	0xbdd86898	-0.10566825
121	0x3e82db69	0.25558022
122	0x3993a657	0.00028161958
123	0x3daa21e9	0.08307249
124	0xbd0e60eb	-0.034760397
125	0x390c435e	0.00013376537
126	0x3db226dc	0.08698818
127	0xbe38fe3d	-0.18065734
128	0x3c52c631	0.012864635
129	0xbe9a65eb	-0.30155882
130	0xbd3b7081	-0.04576159
131	0x3e6ffc95	0.23436196
132	0x3d9e5b1b	0.07732221
133	0xbde9130f	-0.11380588
134	0xbe9e4957	-0.3091533
135	0x3df5630a	0.11981781
136	0x3e585601	0.21126558
137	0xbce3fb34	-0.027829744
138	0xb9fae55d	-0.00047854605
139	0xbe2e9ce9	-0.17052044
140	0xbd8fa4a8	-0.070138276
141	0x3dc06a2b	0.0939525
142	0x3dcea72e	0.10090481
143	0xbe747570	-0.23872924
144	0xbeb7198b	-0.35761675
145	0xbc85b982	-0.016323809
146	0xbdc18e62	-0.094509855
147	0xbe206c2a	-0.15666261
148	0xbe089896	-0.13339457
149	0xbe435cbf	-0.19078349
150	0xbeb0fed4	-0.34569418
151	0xbe8adfb1	-0.27123788
152	0xbd90c0a7	-0.070679955
153	0xbb308657	-0.0026935542
154	0x3e73b496	0.23799357
155	0xbd9c9fe2	-0.07647683
156	0xbdeb1867	-0.11479264
157	0xbe861b5b	-0.26192746
158	0x3cf48fc5	0.02985371
159	0xb9f58467	-0.0004682869
160	0xbb9e3fdd	-0.0048293904
161	0xbe96102b	-0.2930921
162	0x3ca3c119	0.019989537
163	0xbb7e05ec	-0.0038760854
164	0x3e8bb16b	0.27283797
165	0xbea5dfad	-0.32397214
166	0xbe5aa4a4	-0.21351868
167	0x38a3ad3f	7.804715e-05
168	0x3e5d069b	0.21584551
169	0xbde66a40	-0.11250734
170	0xbb933d62	-0.0044934014
171	0x3e89889d	0.2686204
172	0xbc0f16b8	-0.008733444
173	0xbe098c0e	-0.13432333
174	0xbe474416	-0.19459566
175	0xbe0ecfbf	-0.13946436
176	0x3d2beab0	0.041971862
177	0xbdc8b01d	-0.09799216
178	0x3e8105b3	0.2519966
179	0x3ddc74e8	0.107644856
180	0x3e4d7595	0.20064385
181	0x3e84e749	0.25957707
182	0x39b0f7a7	0.0003375385
183	0xbd6c05f4	-0.057622865
184	0x3d29298f	0.0412994
185	0x3daefa14	0.08543792
186	0xbd151f83	-0.036407005
187	0x3e848fe9	0.25891045
188	0xbe7e6e18	-0.24846685
189	0x3a221cb2	0.00061840855
190	0xbb95d703	-0.0045727505
191	0x3e72b71e	0.23702666
192	0x3e4d88a1	0.20071651
193	0x3e600fad	0.2188098
194	0xbe402f7b	-0.18768112
195	0xbe1380b9	-0.14404573
196	0x3e4fdbe1	0.20298721
197	0x38b127ed	8.4474545e-05
198	0xbdb7ea3a	-0.08980222
199	0x3e78a9b6	0.2428349
200	0xbe571cf0	-0.21007133
201	0x3e4068d2	0.18789986
202	0x3e7a974f	0.24471782
203	0xbdd3afe0	-0.1033628
204	0xbe1845c6	-0.14870366
205	0x393abe1a	0.0001780916
206	0xba0ebaef	-0.00054447254
207	0x3e627fd2	0.22119072
208	0x3e6ac444	0.22926432
209	0x3e52af4c	0.20574683
210	0x3b6c9ef5	0.0036105488
211	0x3e52a248	0.20569718
212	0x3ba7b701	0.0051182513
213	0xbe0fa8bf	-0.14029215
214	0x3e11133d	0.14167495
215	0x3911c736	0.0001390249
216	0x3c8809a8	0.016606167
217	0xbe3cfef4	-0.18456632
218	0xbd653bdf	-0.0559653
219	0xbe5affa9	-0.21386589
220	0xbe2e1351	-0.16999556
221	0xbd5adc0a	-0.0534325
222	0x3e879fe6	0.2648918
223	0xbe850ab2	-0.25984722
224	0xbe3b71aa	-0.18305078
225	0xbdd2db62	-0.1029575
226	0x3e2a97ef	0.1665952
227	0x3e08388f	0.13302825
228	0x3dacedf7	0.08443826
229	0xbe3f1025	-0.18658502
230	0xbe8a680f	-0.27032515
231	0xbc542eea	-0.012950638
232	0xbe7ba98c	-0.24576396
233	0xb8cfc481	-9.907131e-05
234	0xbe499b10	-0.19688058
235	0x389da057	7.516209e-05
236	0xbdd3ecf8	-0.103479326
237	0x3e50d1a7	0.20392476
238	0x3e1897b8	0.14901626
239	0x3e8124c0	0.2522335
240	0x3ccc7396	0.02495746
241	0xbe64d964	-0.22348553
242	0xbe1015a3	-0.14070754
243	0x3b42d47d	0.0029728704
244	0xb96b42af	-0.00022436188
245	0xbaf423ff	-0.001862645
246	0x3c954b10	0.01822427
247	0xbdc9ee02	-0.098598495
248	0x3e4b319f	0.19843148
249	0xb703775c	-7.835999e-06
250	0x3e6781c8	0.22608101
251	0x3cbdc92a	0.023167212
252	0xbe3b74e9	-0.18306316
253	0x3d8b342b	0.067970596
254	0xbe8276f4	-0.2548138
255	0x38914f3e	6.928899e-05
