ensemble_autoencoder_weights.pth (torch, 179986 bytes, 250 tensors)

autoencoders.0.encoder.cells.0.weight_h_2 f4 [8, 8]
00000000: b47f a7bd 2b94 c1bd da86 95bd 8b7a e7bc
00000010: 00a8 753e 4687 da3d b233 883d c49f 303e
00000020: b733 9f3d ea6a a33b 91d6 763d be2b 1f3e
00000030: a84b 54bd 25f8 843e efb1 0a3e 3308 ccbd
00000040: be11 b7bc 0a19 e63d 962d c4bb 48e4 253d
00000050: 3fd2 bc3d 7856 103e e2a1 ef3c a4cc 4c3d
00000060: fa4b 3a3c 07e6 d2bc 1d75 34be c8a7 4a3d
00000070: 4902 b4bd ac4b a6bd 3c25 f73c 97af 56bd
00000080: 4f3e d73d 737b b73d 01b7 20bc ae27 3c3d
00000090: 2e98 733d b8ba 3c3d 0b93 d63d 3753 8a3d
000000a0: 2a4f 2c3d 283b f5bb d774 d2bd 9a78 903d
000000b0: 5394 443d 4533 233d b969 563d 3e9d a13d
000000c0: c8f5 983d 311b 5d3c 89b7 053e dd59 6b3d
000000d0: e12b c0bd 6466 1f3d 8f63 dabd 6f23 43be
000000e0: eab6 9dbd d6cb 333e 2377 89be d045 eb3d
000000f0: f0a6 a23d bb48 b43d 1551 cb3d e83f 82be
-0.08178654 -0.09452089 -0.073011115 -0.028256675 0.23989868 0.106703326 0.06650485 0.17248446
0.07773536 0.0049871104 0.06026322 0.1554403 -0.051829964 0.2597057 0.13544439 -0.099625014
-0.022347327 0.112352446 -0.0059868796 0.04050091 0.09219789 0.14095485 0.029251996 0.049999848
0.011370653 -0.025744451 -0.176228 0.049476415 -0.08789498 -0.08119902 0.030169122 -0.05241355
0.10509931 0.08959093 -0.0098092565 0.04593628 0.0594713 0.046076506 0.10477265 0.06754153
0.042067684 -0.0074838586 -0.10276192 0.07054253 0.047993015 0.039843816 0.05234692 0.0789132
0.07468754 0.0134952525 0.13058294 0.057458747 -0.09383369 0.038916007 -0.106635205 -0.19056486
-0.07700904 0.17558226 -0.26848707 0.11487925 0.07941997 0.08802935 0.099275745 -0.25439382

autoencoders.0.encoder.cells.0.bias_h_2 f4 [8]
00000000: 0000 0000 0000 0000 0000 0000 0000 0000
00000010: 0000 0000 0000 0000 0000 0000 0000 0000
0.0 0.0 0.0 0.0 0.0 0.0 0.0 0.0

autoencoders.0.encoder.cells.0.lstm.weight_ih f4 [32, 1]
00000000: e25c 97be 8059 cdbb d80b 8cbd a034 a5bd
00000010: ad0d 8a3e f5f8 893e 5a5f 223e 00c1 173b
00000020: 9e3a 6b3e a74a 2bbe a0ac 08be 8443 893d
00000030: ff7d 8dbe dcab af3d 862e 2a3e e355 b13e
00000040: c3c9 963e 6cfe fdbd 3b7f 863e e345 8c3e
00000050: 351a 923e dd7b 4abe f069 91bd 0861 41be
00000060: e1b3 9f3e c350 973e a911 8f3e 7800 3fbd
00000070: 22c4 7bbe d4ae 05be 5ceb b1bd 24e5 a83d
-0.2956305 -0.0062667727 -0.068381965 -0.08066678 0.2696356 0.26947752 0.15856686 0.0023155808
0.2297158 -0.16727696 -0.13347101 0.06702331 -0.2763519 0.085777014 0.1661931 0.3463584
0.29450807 -0.12402043 0.26268944 0.2739707 0.2853562 -0.19773813 -0.07100284 -0.1888467
0.31191924 0.29553804 0.2794316 -0.046631306 -0.24586537 -0.13054973 -0.08687469 0.0824683

autoencoders.0.encoder.cells.0.lstm.weight_hh f4 [32, 8]
00000000: d09b cd3c 85f1 b33e f80b b1bd 0369 a43e
00000010: ba9f 6d3e bc51 d33d 7890 1d3d c4e2 bbbd
00000020: 05d3 9bbe a8b0 a3bd fa08 263e f13f 933e
00000030: fce0 b2be 72ec abbe 380b 12bd 3987 4ebe
00000040: e0a9 9abd a02d 193c dfa4 b43e a037 7dbe
00000050: 183f 03be df3a 923e 9a19 583e 42e4 7f3e
00000060: 2684 9ebe 6402 dd3d bbda b43e 40be f83c
00000070: ca4a 0d3e d4a9 91be c1a4 05be 3e10 6ebe
00000080: 7a1b 2a3e 9fb7 9e3e 3ae8 0d3e 1da0 97be
00000090: 7000 d8bd dc2f 803d 6c23 86bd 183f 2bbe
000000a0: 59be 6fbe b7f3 a5be fa4f debd 25bd a93e
000000b0: 12b9 92be 05df 34be f8b7 10bd a9ff 2bbe
000000c0: 3e3f 303e c85f 98be a6e9 003e e3d6 873e
000000d0: bfaf 8d3e 3e6a a2be 9cf9 e03d 69a4 b33e
000000e0: f902 8e3e 4990 8b3e b22f a0be a630 94be
000000f0: 0646 633e df79 aa3e 81bb b43e cabb 5d3e
00000100: 7b18 8d3e c9b1 8c3e ca24 213e ce31 323e
00000110: 808b 353b 8f91 60be 68aa 79bd 1890 1ebd
00000120: ca61 3a3e a2d1 2a3e 097d 8abe 4ab2 b2be
00000130: e436 99be 58b8 a73d efce 8f3e 3c98 9abd
00000140: f858 0ebe 02af 4d3e b2f5 93be 2030 14be
00000150: bc36 dbbd 0892 d43d f4e3 f73d 3327 a5be
00000160: 7645 6cbe 16bc 5b3e d92e af3e a6e9 2d3e
00000170: e3ea 983e e419 3fbe 9e89 66be b58a ab3e
00000180: 7661 753e bdb4 833e ffe0 0ebe 2c08 0e3e
00000190: ba78 b4be 4330 28be 4017 b73d 495b 863e
000001a0: e2ca 1abe 88c6 063e f540 ad3e 5178 7fbe
000001b0: fcec d93d 6a19 4d3e e0a8 6abe 42a1 633e
000001c0: 6598 abbe 635f a6be 081c 503d d531 34be
000001d0: fa49 97be 242e 82bd d32d 0abe 848e febd
000001e0: 039c b23e 1351 0bbe 0752 49be f2b8 0e3e
000001f0: 704c 94bd 6ed7 7dbe 3818 50bd 4896 6b3d
00000200: 488b b3bd b37a af3e e6a9 103e 01ca 1fbe
00000210: 80f6 e03c b2de 3c3e bc5e e3bd fd4a abbe
00000220: 14b4 dc3d 186a ebbd d7b7 8d3e 907c b93d
00000230: 982d a4bd b3e4 963e aa20 313e 928b 7e3e
00000240: a4a9 f93d d824 d53d 4430 d13d 4eef 36be
00000250: c491 9a3d b19b 90be 3d54 98be bc38 7cbe
00000260: 5f32 8c3e 57e5 9a3e 9277 debd 27b3 8b3e
00000270: 85c8 a93e 1f2f b23e dc43 8fbe f8d0 b1bd
00000280: 1894 df3d 7eaf 663e 124d 793e 22ed 123e
00000290: dbac a5be 486a 783d 6b8e 86be 6085 ef3d
000002a0: 50c6 8d3c 9284 603e c092 64bd a074 953d
000002b0: 8d08 9f3e ce0d 613e 4836 b4be 039b 69be
000002c0: 0acf 283e 7a14 87be b543 28be 359d a03e
000002d0: 9e83 97be d0e7 8f3c addb 6abe a860 25bd
000002e0: f17d 913e b14e 99be 9ce2 c5bd 6c4c c53d
000002f0: 046f 6abe daaf 793e 60c9 4dbe f26e 4d3e
00000300: dc74 97be 612b 813e 7eb5 663e 20ed 173d
00000310: 8808 9abd 2030 f23c f97f aebe c958 20be
00000320: 8c95 93be 1bd7 41be 2491 a7be cb08 a03e
00000330: f0c9 b13d d4e9 f0bd 989f 82be e83d d4bd
00000340: c0d2 89bb 6920 0abe 6edb 173e 44ce 52be
00000350: 3854 42bd 13a3 833e 34f2 2bbe c092 973c
00000360: 4e42 febd 89a9 aa3e 3e2b 5bbe 0f1c 03be
00000370: 43fd a93e 29d4 ab3e e86f 6f3d 28de 623d
00000380: 5cc5 aebd ea0a 5dbe aec5 d7bd 9fc9 68be
00000390: 0d46 0abe 3255 5e3e 0045 9dbd 990d 8d3e
000003a0: 42ba 303e 78cf 603d 3c83 8dbe f541 a43e
000003b0: 4328 a6be 5a60 433e 60cb 45bd 6a40 1d3e
000003c0: 16ab b0be 488d 25bd 0efa 493e 1027 983c
000003d0: 0230 6e3e 9030 35bd 0870 7e3d 25fa aa3e
000003e0: 9460 84bd e0e4 e4bd 90f5 ec3d 512c a53e
000003f0: a425 98be 6edc 613e 8316 903e 58d3 a5be
0.025098711 0.35145202 -0.08644861 0.32111368 0.23205462 0.10318324 0.038467854 -0.091741115
-0.30434433 -0.07992679 0.16214362 0.2875972 -0.34937274 -0.3357883 -0.03565523 -0.20168771
-0.07551932 0.009349257 0.35282037 -0.2472825 -0.12817037 0.2856054 0.21103516 0.24989417
-0.30960196 0.107914716 0.35323128 0.030364156 0.13798061 -0.2844988 -0.1305113 -0.23248383
0.16612044 0.30999467 0.13858119 -0.29614344 -0.105469584 0.062591285 -0.06549725 -0.16723287
-0.23412456 -0.32412502 -0.10855098 0.33152118 -0.28656822 -0.176632 -0.035331696 -0.16796745
0.17211625 -0.29760575 0.1258913 0.26531133 0.27673146 -0.3172168 0.10985109 0.35086372
0.27736643 0.27258518 -0.3128639 -0.28943366 0.2219468 0.33296105 0.35299304 0.21653667
0.2755774 0.2747939 0.1573669 0.17401811 0.0027701557 -0.21930526 -0.060953528 -0.038711637
0.18201366 0.16681531 -0.2704852 -0.3490165 -0.2992469 0.08189458 0.28087565 -0.07548568
-0.13901126 0.20086291 -0.28898388 -0.14471483 -0.10703799 0.10379416 0.121040255 -0.3225647
-0.23073372 0.21458468 0.3421543 0.16983661 0.29866704 -0.1866222 -0.22513434 0.33504263
0.2396296 0.2572383 -0.13953017 0.13870305 -0.35248357 -0.1642466 0.089399815 0.2624152
-0.15116456 0.13161671 0.3383862 -0.24948241 0.10640904 0.20029226 -0.22915983 0.22229484
-0.33514705 -0.3249465 0.050807983 -0.17597134 -0.29548627 -0.06356457 -0.13494043 -0.124295264
0.34884652 -0.13605146 -0.19660197 0.13937739 -0.07241142 -0.24789211 -0.050804347 0.057516366
-0.087668 0.342733 0.14127311 -0.15604402 0.02746129 0.18444327 -0.111020535 -0.3345565
0.10776535 -0.11494845 0.2767932 0.090569615 -0.08016509 0.2947136 0.17297617 0.2485793
0.121905595 0.10407418 0.10214284 -0.17864725 0.07547334 -0.28243783 -0.2975177 -0.24631017
0.2738218 0.30253097 -0.1086265 0.2728512 0.33160797 0.34801576 -0.2798146 -0.08682436
0.109169185 0.22527882 0.24345806 0.14348271 -0.3235844 0.060648233 -0.2628053 0.11695361
0.017306477 0.21925572 -0.055804014 0.07297635 0.3106121 0.21977922 -0.35197663 -0.22813039
0.16485229 -0.2638281 -0.16432078 0.3136994 -0.29592603 0.017566592 -0.22935362 -0.04037538
0.28416398 -0.2994285 -0.09662363 0.09633717 -0.22893912 0.24383488 -0.2009635 0.20061854
-0.29581344 0.25228408 0.22530171 0.037091374 -0.075211585 0.029563963 -0.3408201 -0.15658869
-0.28825033 -0.18929712 -0.3272792 0.31256709 0.08681095 -0.11763349 -0.25512385 -0.1036337
-0.0042060316 -0.13488926 0.148298 -0.20586497 -0.0474436 0.25710353 -0.16791612 0.018502593
-0.1241499 0.3333247 -0.21403214 -0.12803672 0.33201036 0.33560303 0.05845633 0.055387646
-0.08533737 -0.21586195 -0.10535751 -0.22733162 -0.13503285 0.21712187 -0.07679176 0.27549437
0.17258552 0.054885358 -0.27639186 0.3208157 -0.32452592 0.19079724 -0.048289657 0.15356603
-0.34505528 -0.04041794 0.19724295 0.018573314 0.23260501 -0.044235766 0.06211856 0.3339397
-0.06463733 -0.11176467 0.11570275 0.32260373 -0.29716218 0.22056744 0.28142175 -0.32387805

autoencoders.0.encoder.cells.0.lstm.bias_ih f4 [32]
00000000: 868b 1a3e 2846 21bd a04f 8ebc 75dd 9f3e
00000010: 43ef b2be de84 553e 45fc 873e 55f3 9b3e
00000020: 420d ecbd 8eff 6bbe 8e1b 033e 0fbb aa3e
00000030: edbb b03e fe85 03be 74b7 69be e092 d43d
00000040: 3c3c 7dbe 302c 69be fc03 b73d 4c43 35be
00000050: 8664 513e b0ec 4cbd 8070 89bb 4450 2dbe
00000060: 53e8 883e c5e6 9f3e 9f55 36be 81c3 ae3e
00000070: c419 9dbe cacd 1ebe 71a9 913e 0f25 a03e
0.15092286 -0.039373547 -0.017371953 0.31223646 -0.34948167 0.20851466 0.26559654 0.30459085
-0.11525966 -0.23046705 0.1280348 0.3334584 0.34518376 -0.12844083 -0.22823888 0.10379577
-0.24730009 -0.22770762 0.08936307 -0.17701453 0.20448503 -0.05003041 -0.0041943192 -0.1692515
0.2673975 0.3123075 -0.178061 0.34133533 -0.3068372 -0.1550819 0.28449586 0.31278273

autoencoders.0.encoder.cells.0.lstm.bias_hh f4 [32]
00000000: 38c8 99be 8b86 47be 56cd 8dbe 63e6 b43e
00000010: 5635 e0bd 4655 793e 46e0 363e ec58 bdbd
00000020: cee3 673e f29f 75be 16d2 053e ee7d 5fbe
00000030: 0879 9ebe 30b4 95be 001f 7e3b 50de ae3d
00000040: 6e96 5d3e bd53 13be 1275 6cbe 989d 25bd
00000050: 7e3c 793e 919b 8abe 9192 40be a05d 783d
00000060: eb66 a13e 2328 ab3e d68c 533e a81c aabe
00000070: 8915 99be 1814 03be bac5 3bbe b5f1 6cbe
-0.30035567 -0.19484918 -0.2769572 0.3533202 -0.10947673 0.24348935 0.17858991 -0.09245476
0.22645494 -0.23986796 0.13068423 -0.21825382 -0.30951715 -0.29239035 0.0038775802 0.085384965
0.21639416 -0.14387412 -0.23091534 -0.040433496 0.24339482 -0.27071813 -0.1880591 0.060636163
0.31523833 0.3342906 0.20659193 -0.33224988 -0.29899243 -0.12800634 -0.18337145 -0.23139079

autoencoders.0.encoder.cells.1.weight_h_2 f4 [8, 8]
00000000: 5363 1abe 9d42 44be 44c1 16be a39f 3fbd
00000010: f8d3 2c3e 9bad a23d 177d c1bc b0db c73d
00000020: 9abc 8d3c bedc d7bd 2f54 883d 5176 01bc
00000030: 473d a43a f261 f0bd 02eb c63d 6075 ef3c
00000040: 10c3 f0bc 3098 b33d 03ba bbbd a563 afbd
00000050: 69dd 873b 08c1 8c3d 1887 043e 5b2e c43d
00000060: 5750 92bc aa01 26bc 7221 20bd 2b62 a8ba
00000070: 23ef 153d 9605 35bd 2a53 24bd 2974 713d
00000080: 86c1 fe3c e77f 383e 07fc edbd 305e 13bc
00000090: c816 84bd bf75 ba3c 00d9 a23e 12dd 133d
000000a0: f0f4 05bd db5b 4cbd cea6 6fbd 2689 2c3c
000000b0: ef66 38bd 89c5 a2bd fb40 11bc 364e 98bd
000000c0: 0299 a5bd 3cc8 533e 19f4 aebc 47c9 debd
000000d0: 6af3 0f3d 86f2 8f3d d52b d9bc 1f31 98bc
000000e0: f9bb 66bc f612 1d3d 7594 a0bd 67f8 7ebd
000000f0: c5d2 44bd 5621 46bc 45de 8d3d d5e0 603d
-0.15076952 -0.19166036 -0.14722162 -0.0467831 0.16877735 0.07943269 -0.023619218 0.09758699
0.017301846 -0.1054015 0.06656682 -0.007901744 0.0012530469 -0.117374316 0.09712793 0.029230773
-0.029389888 0.08769262 -0.09166338 -0.085639276 0.004146267 0.06872755 0.12942159 0.09579154
-0.017860575 -0.010132233 -0.039094396 -0.0012846639 0.03660501 -0.04419478 -0.040118374 0.05894867
0.031098139 0.18017541 -0.11620336 -0.008994624 -0.06449658 0.022761224 0.31806183 0.0360995
-0.032704294 -0.049892288 -0.058508687 0.010530746 -0.04502004 -0.07947833 -0.00886559 -0.074367926
-0.080858245 0.20681852 -0.02135663 -0.10878234 0.035144247 0.070286795 -0.026510159 -0.01857811
-0.014082902 0.03834816 -0.07840816 -0.062248614 -0.048052568 -0.012092909 0.0692716 0.054901917

autoencoders.0.encoder.cells.1.bias_h_2 f4 [8]
00000000: 0000 0000 0000 0000 0000 0000 0000 0000
00000010: 0000 0000 0000 0000 0000 0000 0000 0000
0.0 0.0 0.0 0.0 0.0 0.0 0.0 0.0

autoencoders.0.encoder.cells.1.lstm.weight_ih f4 [32, 8]
00000000: af01 5ebe 988a 213d da4e 263e 4215 63be
00000010: dcaf e53d 4c58 ed3d f472 b33d 3ced 95be
00000020: 91c6 aebe c643 443e 040d b63d c668 2e3e
00000030: 3cf6 6cbe 9a56 13be d882 9bbe ac01 9fbe
00000040: d0a2 babd 00f2 57bd 7265 5a3e 1728 8d3e
00000050: 1c94 ee3d 45b4 9b3e 8cc3 b7bd 70ee 2ebd
00000060: b046 b53d d413 8fbd 1b8d b23e 4e22 9fbe
00000070: 40aa 283d d43b 9ebd b579 27be 3d37 75be
00000080: a81e 7d3d e661 453e fbab afbe 9730 8f3e
00000090: 4fed a43e a647 8bbe 60cb ddbc a2b4 b1be
000000a0: 46cf b0be 304b 353d 04ce 10be 1bcd 3dbe
000000b0: e88e b9bd f580 853e eae6 9ebe 85bc b2be
000000c0: 4fab 39be a0e5 6c3d 4d46 893e 20e2 0bbc
000000d0: 3438 76be e0c2 efbc 68e5 e93d 0c5b abbd
000000e0: 5491 86bd 8099 dc3b fa2b 753e 29d6 a9be
000000f0: 6d26 2fbe 2c41 aabd 88ef 52bd eeb3 b4be
00000100: 2e01 5e3e 80c1 b13d 256d 18be 731d 73be
00000110: 44aa ab3d 0c90 f93d 6601 7d3e 55fd a83e
00000120: 1adf eabd 243f 77be 88f3 9fbd 082c 89be
00000130: e9b3 a53e 6786 25be 712c a03e d2d3 a7be
00000140: 40a7 bfbd ca2d 3e3e 17fc 923e c9d3 16be
00000150: 11bc 2fbe 0f3a 8ebe ebc9 9a3e 802a d1bd
00000160: 2c3c bdbd f98a 873e 54a3 013e 803f e13c
00000170: b923 913e d8f8 d9bd ec9b 823d 5184 913e
00000180: 01bf b03e 9fb6 853e 0921 953e a0de 893c
00000190: 6b8d 29be 6ca8 103e a690 3e3e 88af 34be
000001a0: f4c4 b63d a442 8d3d c642 8cbe c492 a1bd
000001b0: 7edf 76be 5e78 633e e4e3 d93d 38c9 473d
000001c0: 1a22 3d3e 848d d63d a253 a9be 80d5 1fbb
000001d0: 16c9 04be 9579 a93e c008 84bb 94db a1be
000001e0: 5041 97be f161 18be ff55 b2be 5736 83be
000001f0: ccb0 ae3d 7c80 92be de08 68be e0a2 c33c
00000200: 4aa3 1dbe 0ef6 373e 5019 12bd 0658 723e
00000210: a846 c23d 52cb d5bd 8eaf 90be deed 333e
00000220: 2528 49be d337 94be f817 313d 5f66 853e
00000230: 03da 9d3e 4e57 f0bd 805d c8bb 0f41 873e
00000240: 8f8d ad3e 94d2 9dbd 4e39 353e bdf3 893e
00000250: 9020 2abd e657 393e 81b5 a53e 5ed4 5abe
00000260: a21e 4f3e ff32 68be dc02 3cbe 261a 4e3e
00000270: 5163 2cbe 07dd 983e 8689 223e b06b b33c
00000280: 20eb e1bc 800f 68bb 076b 803e b87e d83d
00000290: 2c38 aabe c2cd 793e 8493 66be 6694 38be
000002a0: c865 a53d 8005 e33b b423 34be 750c 1bbe
000002b0: 5a4b 503e f42f 87be c053 f53d 70c1 9ebe
000002c0: ce6a 7d3e 24ca 84be a090 8b3d 1acf 323e
000002d0: 55b4 ad3e 7b2b a13e 6565 a33e f480 fdbd
000002e0: 5193 903e e2ee 7c3e a016 303d 4e53 5bbe
000002f0: 4659 6dbe 5a6b 1f3e d054 2ebd 70df 74be
00000300: 405d ae3c 8074 b2bb a06f e5bd 506f 953d
00000310: ae5e 30be 0048 e039 d8da 77bd 41f4 ab3e
00000320: 3a49 693e f35e 983e 1432 e63d 407e 22bc
00000330: ddfa a63e 228a 80be 582e 073d 337e a23e
00000340: e4b7 c33d 7adf 3c3e d8d0 99be 80ac b4bb
00000350: 0636 433e 8c0b fb3d 8251 06be 4018 c33c
00000360: f020 dc3c 164e 95be 971b 50be 265b 343e
00000370: ea14 b1be adf0 a6be 03df 4dbe d6ce 0c3e
00000380: 1f13 ad3e a0cc f83c 78e9 a3bd 8eb3 343e
00000390: 8817 6bbd 9d61 823e c41d ecbd bacf 5e3e
000003a0: 4ace 733e 7e1c 423e 6260 55be de61 423e
000003b0: fe30 1a3e 30b3 65bd 7432 30be 20e7 bbbd
000003c0: c6dd 6cbe f0f3 2dbd 16b3 7d3e 821b 86be
000003d0: 8421 b33d 002f 2b3d 2082 22bc 701c 7abd
000003e0: 7e6e f3bd c9f9 48be 8c90 90be ed51 91be
000003f0: d20a 4c3e 7a8c 363e 1fd6 893e 7553 b33e
-0.2168033 0.039438814 0.16241017 -0.22176078 0.11215183 0.11589107 0.0876216 -0.29282558
-0.3413587 0.19166479 0.08889201 0.17032155 -0.23140806 -0.14388505 -0.30373263 -0.31055963
-0.09113085 -0.052721024 0.21327761 0.2756965 0.11649343 0.30410972 -0.089728445 -0.04270786
0.08851373 -0.06986204 0.3487328 -0.3108086 0.041177988 -0.07726255 -0.16355021 -0.23946853
0.061796814 0.19275627 -0.34310898 0.2796676 0.32212302 -0.272031 -0.027074516 -0.34708124
-0.34533137 0.044261158 -0.14141089 -0.18535273 -0.0906046 0.2607495 -0.31035548 -0.34909454
-0.18131755 0.057836175 0.26811448 -0.008537799 -0.24044877 -0.029267728 0.11420709 -0.08366975
-0.06570688 0.006732166 0.23942557 -0.33171204 -0.17104502 -0.08313212 -0.051497966 -0.35293525
0.21680138 0.08679485 -0.14885385 -0.23741703 0.08382085 0.12185678 0.24707565 0.33005777
-0.114683345 -0.2414518 -0.07810122 -0.26791406 0.32363823 -0.16164552 0.31283906 -0.32778794
-0.09358072 0.18572155 0.28707954 -0.14729227 -0.17161585 -0.2777867 0.30232176 -0.10213184
-0.092399925 0.26473215 0.12659961 0.0274961 0.28347567 -0.10643166 0.06377396 0.28421262
0.34520724 0.2611589 0.29126766 0.016829789 -0.16557853 0.14126748 0.18609866 -0.17645085
0.089242846 0.06897476 -0.27394694 -0.078893214 -0.24108693 0.22213885 0.1063917 0.04877588
0.1847004 0.10476211 -0.3307162 -0.002438873 -0.12967333 0.33100572 -0.0040293634 -0.31612837
-0.29542017 -0.14881112 -0.34831235 -0.25627396 0.08529815 -0.2861365 -0.22659633 0.023881376
-0.15394321 0.17964956 -0.03566867 0.23666391 0.09486133 -0.10439171 -0.28258938 0.17571208
-0.1964422 -0.2894884 0.04323575 0.26054665 0.30830392 -0.11735402 -0.0061146617 0.26416823
0.33897063 -0.0770618 0.17697641 0.2694377 -0.04153496 0.18099937 0.3236504 -0.21370074
0.20226529 -0.22675703 -0.18360466 0.20127162 -0.16834761 0.2985613 0.15872774 0.021901935
-0.027577937 -0.003540963 0.25081655 0.10571045 -0.3324598 0.24394897 -0.2251721 -0.1802536
0.08076054 0.006928146 -0.17591745 -0.1514147 0.20341244 -0.26403773 0.11978865 -0.31006956
0.24747774 -0.2593547 0.068146944 0.17461815 0.33926645 0.31478485 0.31913295 -0.123781115
0.28237393 0.24700502 0.042990327 -0.21418497 -0.23178586 0.15568295 -0.042561352 -0.2391336
0.0212847 -0.005446017 -0.112029314 0.07296622 -0.17223617 0.00042778254 -0.06051144 0.33584788
0.2278184 0.2975994 0.112400204 -0.009917796 0.32613268 -0.25105387 0.03300318 0.31736907
0.09556559 0.18444625 -0.30042148 -0.0055137277 0.19063577 0.12258062 -0.1311703 0.023815274
0.026871175 -0.29161137 -0.20323025 0.17612895 -0.3458627 -0.32605496 -0.20104603 0.13750777
0.3380365 0.03037101 -0.08003515 0.1764662 -0.057395488 0.25465098 -0.11529115 0.21758929
0.23809162 0.18956181 -0.20837548 0.18982646 0.15057752 -0.05607909 -0.17206746 -0.09174943
-0.23131475 -0.042468965 0.24775347 -0.26192862 0.08746627 0.04179287 -0.0099187195 -0.061062276
-0.11886309 -0.19626535 -0.2823528 -0.28382817 0.19926003 0.17827025 0.26921174 0.3502461

autoencoders.0.encoder.cells.1.lstm.weight_hh f4 [32, 8]
00000000: f765 933e ac45 2fbe cd32 a93e d89b af3d
00000010: 6a74 743e e906 87be 7060 8b3d a088 553c
00000020: 29b9 9cbe 3cbf d63d 9fb7 9ebe 8c26 35be
00000030: 07bb 963e c881 7cbe bd8c af3e 8eda 523e
00000040: ee7d b4be 40f5 78bd 753d a1be 2a84 633e
00000050: 2907 8a3e f6aa 393e 6093 813d 0000 abbd
00000060: ee72 f7bd 63ab 84be 8149 a43e 7ac9 0b3e
00000070: 64b4 6ebe 93d6 803e 3b75 4dbe c0a5 87bd
00000080: 6d1c 07be a07e bcbc 6e6a 093e 0a63 173e
00000090: 1310 a0be 6446 af3d 0086 4fbd 8e45 02be
000000a0: d2c6 9bbe 7070 2ebd 3439 babd 5019 073d
000000b0: f443 9bbd ff4f 9d3e 154d 85be 32db 2d3e
000000c0: c25d 82be 8967 963e f852 983d 2082 2fbc
000000d0: 45f0 88be 2054 edbc a088 633c 2c9b 34be
000000e0: c066 49bc e6b8 583e 9966 8e3e 1837 763d
000000f0: c45d eabd c84a 233d a4a3 fb3d d3aa 9abe
00000100: e9d1 70be f4b9 8e3d 0b5d ac3e ac86 95be
00000110: e861 01bd b458 a7be e1b7 42be d707 68be
00000120: 18d8 27bd 1827 a1be 3092 283d f0e0 ccbc
00000130: 431e a93e ecdb a4be f8a1 2b3d 462a 80be
00000140: 22db 97be b5f1 1abe 7bfb 73be 5e3e 293e
00000150: 3d29 9ebe 64fe 7fbe 9340 b33e 00b5 493d
00000160: 1453 06be c0d7 373d 6bef 9d3e d6cc 0ebe
00000170: 204e 003e 908c c7bc 4a3f 753e 8f62 21be
00000180: 9aea 8fbe e7e8 aebe f40f 9ebe 6833 16be
00000190: 7250 393e c54b 873e 5fd4 b23e de5f 513e
000001a0: 5041 d8bc 7413 9bbe 6697 013e 6542 ad3e
000001b0: da60 503e 0d5e 3ebe 697f 9c3e 95dc a0be
000001c0: 3064 883d 72cb 4a3e 2669 78be c411 ec3d
000001d0: 206a 1cbd a102 953e 903a 963d 7ec6 3b3e
000001e0: 14c1 a6bd ee96 093e c9b9 86be 843c ba3d
000001f0: cd87 3fbe 3ea0 663e 83e3 843e 846c 10be
00000200: 1026 99bd fc13 86be f2b5 2b3e 00df b0be
00000210: c799 abbe 60fd 553c 84fd f23d f347 98be
00000220: b096 213d 308a d33d a209 2c3e 50c8 1bbe
00000230: 952c 863e 7ae8 89be 3246 4a3e 0976 883e
00000240: 08e2 01bd 607f df3d 4096 78bc 8c44 d73d
00000250: 9853 5b3d 4b1f 52be 6e09 71be b04b 94bc
00000260: 82d6 3bbe 03c6 953e a49c d43d b714 8e3e
00000270: 4c91 95be f36e 933e 708a babd 1bc2 a43e
00000280: 7c5f f03d ba01 443e a8f1 0d3d f079 00bd
00000290: 396f a53e a09c 64bc b3cb a23e d088 bd3d
000002a0: 7348 23be 3492 bc3d 79cc 843e 5a57 293e
000002b0: 5014 36bd 5877 60bd e754 813e f04b d63c
000002c0: fa93 e0bd 80b9 29bb 76cf 78be 88c2 11be
000002d0: b956 87be c49f 863d 05dd 923e 8177 34be
000002e0: bbfd 8a3e 7f81 aabe ca38 383e c058 62bd
000002f0: 406a 6ebe be13 363e 9494 dfbd 7773 29be
00000300: 200e a5bc d007 f53d f780 923e 1eb4 553e
00000310: 6bb0 9fbe e8c6 5e3d aa72 71be 1dc5 993e
00000320: b86c 713d f894 78bd 0068 1bbb 20c4 983d
00000330: 8af7 683e 2ea7 21be 84d6 acbd 0c28 75be
00000340: 3e62 5b3e 281a bb3d 180b 7a3d 10f1 fc3c
00000350: 805a a9bc b08a e33c e077 133e beaa 16be
00000360: 20dc 4fbd e550 b33e 9049 86bc 63bf a63e
00000370: 0e52 1e3e c5a9 813e c41f cb3d 40f3 1c3c
00000380: 7e04 523e 90c7 a2bc 38b6 79be d0b5 62bd
00000390: 86aa 5fbe e02e 123d 5254 503e e3d3 8c3e
000003a0: 447a 0d3e 24be a63d 0413 65be 7f45 af3e
000003b0: 028e 4ebe 2067 0dbd e036 93be 6843 6b3d
000003c0: a346 83be e83e 7fbd 668f 4d3e b342 9dbe
000003d0: 02e1 713e a8ab 403d 96be 68be 20e0 1cbc
000003e0: 526b 1e3e beba 13be 981d 603d 0066 9e3c
000003f0: 1b90 37be ad58 9d3e 9973 a53e 1822 17bd
0.2878873 -0.17116421 0.3304657 0.08574647 0.23872533 -0.2637246 0.06805503 0.013033062
-0.30610016 0.10485694 -0.30999467 -0.17690486 0.29439566 -0.24658883 0.34287062 0.20591184
-0.35252327 -0.060780764 -0.314922 0.22218385 0.26958588 0.18131623 0.06326938 -0.083496094
-0.12082468 -0.25912008 0.3208733 0.13651076 -0.23311001 0.25163707 -0.20064251 -0.06623411
-0.13194437 -0.023009598 0.13419506 0.14783874 -0.31262264 0.08558348 -0.0506649 -0.12721846
-0.30425125 -0.042587698 -0.09092942 0.032983124 -0.075813204 0.30725095 -0.2603537 0.16978148
-0.25462157 0.29375866 0.074377 -0.010712177 -0.2674581 -0.028970778 0.013887554 -0.17637318
-0.012292564 0.21164283 0.2781265 0.060111135 -0.114436656 0.03986624 0.12287071 -0.30208454
-0.23517574 0.069690615 0.33664736 -0.2920431 -0.03158751 -0.32684863 -0.19015457 -0.2265924
-0.040977567 -0.3147514 0.04115504 -0.025009602 0.330309 -0.32199037 0.041902512 -0.25032252
-0.29659373 -0.15131266 -0.23826401 0.16527697 -0.30890837 -0.24999386 0.35010204 0.04924488
-0.1311763 0.04488349 0.30846724 -0.13945326 0.12529802 -0.024359018 0.23949924 -0.15760253
-0.28108674 -0.34162065 -0.30871546 -0.14668047 0.18097094 0.26424995 0.3492765 0.20446727
-0.02639833 -0.3028828 0.1265541 0.33839718 0.20349446 -0.18590565 0.30565956 -0.3141829
0.06659734 0.1980417 -0.24258861 0.11526826 -0.038187146 0.29103568 0.07335389 0.18337438
-0.081422955 0.13436481 -0.26313618 0.09093574 -0.18704148 0.22522065 0.25954828 -0.14103895
-0.07477963 -0.26187122 0.16768625 -0.34545135 -0.3351576 0.013060898 0.118647605 -0.29742393
0.039450347 0.103290915 0.1680055 -0.15213132 0.26205888 -0.26935178 0.1975334 0.26652554
-0.0317097 0.10912967 -0.015172541 0.10511121 0.053546518 -0.2051975 -0.23538753 -0.018102497
-0.18343547 0.29252633 0.10381439 0.2775018 -0.29212415 0.28795585 -0.09108436 0.3217934
0.11736962 0.19141284 0.03465429 -0.03136629 0.3231142 -0.013953358 0.31796035 0.092546105
-0.15945606 0.092075735 0.2593725 0.16537228 -0.044452965 -0.054801315 0.25260088 0.026159257
-0.10965724 -0.002589792 -0.2429789 -0.14234364 -0.26433352 0.065734416 0.2868425 -0.17623712
0.27146706 -0.33301923 0.17990413 -0.05526042 -0.23282719 0.17780969 -0.10917011 -0.16547953
-0.020148337 0.11964381 0.28614017 0.2086949 -0.31189284 0.05438891 -0.23578897 0.30033198
0.058941573 -0.060688943 -0.0023713112 0.07459283 0.22750679 -0.1578643 -0.08439353 -0.23941058
0.21424195 0.09135848 0.061045736 0.030876666 -0.020673037 0.027776092 0.14401197 -0.1471357
-0.050747037 0.35022655 -0.0163925 0.3256789 0.15460989 0.25324836 0.09918168 0.00957948
0.20509526 -0.01987055 -0.24385917 -0.05534917 -0.21842393 0.035689235 0.20344666 0.27505407
0.13816172 0.08141735 -0.22370535 0.3423271 -0.20171359 -0.034522176 -0.28752804 0.05743733
-0.2563983 -0.06231585 0.20074233 -0.3071495 0.2362099 0.047038704 -0.22728953 -0.00957492
0.15470627 -0.14426705 0.054715723 0.019335747 -0.17926066 0.30731717 0.32314757 -0.03689775

autoencoders.0.encoder.cells.1.lstm.bias_ih f4 [32]
00000000: 62f1 71be c695 9ebe 20aa 1e3c 6a09 26be
00000010: d970 a63e c92d 4ebe 9ee3 2bbe 3c9e f1bd
00000020: deb0 f3bd 8a81 333e 341f 97be 3b8f 07be
00000030: 7411 943d c55f 8b3e 3ae4 5f3e 80d6 4b3c
00000040: e28f 643e 1fa0 1dbe 800f edbc 5e26 01be
00000050: 3b48 5cbe cba4 08be 50dc dabd 206a dd3c
00000060: 5a02 6ebe 801d 3a3b 4c41 d33d 3d58 b3be
00000070: 40bd 23bd 440b f9bd 7025 ee3c df27 9cbe
-0.23627236 -0.30973643 0.009684116 -0.16214529 0.3250797 -0.20134653 -0.16786048 -0.11797759
-0.11898969 0.17529884 -0.29515994 -0.13238232 0.072298914 0.27221504 0.21864405 0.0124412775
0.22320512 -0.15393113 -0.028938055 -0.12612292 -0.21511929 -0.13344114 -0.106865525 0.027028143
-0.23243085 0.002839893 0.10315189 -0.35028258 -0.039975405 -0.12160352 0.029070586 -0.3049917

autoencoders.0.encoder.cells.1.lstm.bias_hh f4 [32]
00000000: 271c 2abe 63ca 933e 866e 2a3e 8084 003b
00000010: dfc1 8d3e 108f 93bc 93c1 b43e b02d c3bc
00000020: 4835 083d e12f a2be 2057 b0bc b818 74bd
00000030: 4786 73be c83a 5cbd 8070 f4bb fe6b 5f3e
00000040: 4056 9f3c 48e2 053e a390 33be 7cdb 90bd
00000050: be9b 373e 2b96 4dbe 5a87 6d3e 70cb 043e
00000060: 7117 a13e b27d 353e 08ba fe3d 8585 923e
00000070: 6b67 6fbe 8814 32bd 3c09 c73d 24ab 79be
-0.16612302 0.28865346 0.16643724 0.0019610226 0.27686974 -0.018012553 0.35303935 -0.023825496
0.033253938 -0.31677154 -0.02152592 -0.059593886 -0.23781691 -0.053766996 -0.0074597 0.2181854
0.019450307 0.130746 -0.17535643 -0.07073113 0.17930505 -0.20076816 0.23196164 0.1296823
0.31463197 0.1772373 0.124378264 0.28617492 -0.23379295 -0.04347661 0.09718558 -0.24381691

autoencoders.0.decoder.cells.0.weight_h_2 f4 [8, 8]
00000000: d95c d53d 807e 3b3e 56a8 9f3d ab26 b63d
00000010: 1385 10be dd33 203e 74a2 503e 9258 07be
00000020: b8fc 97be eba8 cfbd 2ca1 87be 8455 1b3e
00000030: 4580 aebc ec81 2bbe 42aa 66bc 6e2d 43be
00000040: ab6d ae3d 3e79 07bc 4561 4fbd 1e5b 233e
00000050: 0e8b 86bd 718a a73d 6d68 063d 0259 a8be
00000060: 2801 ce3e e6bc 96bd ea19 3a3d 7f7a 3d3e
00000070: ded5 ef3c 745e 09be c266 77be 755b ee3d
00000080: c0f1 de3e 3cfa 923d 5590 a63e 1ede 34be
00000090: 04bb 283d 7dbf 103e a579 9abe 4a66 8f3e
000000a0: bbc3 163e 462c 72bd 5f51 2b3e 4690 013e
000000b0: c0fe 73bd f22a f93d 1361 da3d 3635 f6bd
000000c0: b27d 813e 92a2 30bd 6df4 333d 693b 7b3e
000000d0: 08e0 a0bb 2cde 12be 552c 2c3e dea1 673d
000000e0: 8583 dd3e e4b5 0e3e 01a0 973e 0e0c c5be
000000f0: 2b75 07be 1a79 a53e 956c 85bd 9d77 d23d
0.104181 0.18309975 0.077957794 0.08894094 -0.14113264 0.15644784 0.20374471 -0.1321738
-0.29684997 -0.101396404 -0.26490152 0.1516934 -0.021301398 -0.1674878 -0.014078679 -0.19060299
0.08517011 -0.0082686525 -0.050629873 0.15952727 -0.06569491 0.081807025 0.032814432 -0.32880408
0.40235257 -0.07360248 0.04543487 0.1850376 0.029276785 -0.13414937 -0.24160293 0.11638538
0.43543816 0.07176635 0.32531992 -0.17662856 0.041193977 0.14135547 -0.30170932 0.28007728
0.14723103 -0.059124254 0.1673026 0.12652692 -0.05956912 0.12166394 0.10663047 -0.12021868
0.2529121 -0.04312379 0.043934274 0.24534382 -0.004909519 -0.14342564 0.16813786 0.056550853
0.43264404 0.13936573 0.2961426 -0.3848576 -0.1322829 0.32318956 -0.06514851 0.10276721

autoencoders.0.decoder.cells.0.bias_h_2 f4 [8]
00000000: 1e0d 053e e2a0 dfbc 48e7 973d faf9 2c3e
00000010: 3735 053d e46b c5bb 2cf5 4bbd e218 a43b
0.12993285 -0.027298395 0.0741716 0.16892233 0.032521453 -0.0060248245 -0.04979436 0.005007849

autoencoders.0.decoder.cells.0.lstm.weight_ih f4 [32, 1]
00000000: dc15 b5bd 5644 19be ee9e c53e 3a30 92be
00000010: 80af 3dbe 5027 803e 412d d4be 07c1 b4bd
00000020: be12 673d 18c2 81bc ef6e 923e 0801 a13c
00000030: c6fd 56be 6ef3 b63e 0302 f0bd c762 9b3e
00000040: 9034 9d3e d96c a43e 6835 ee3e 7506 c9be
00000050: 2a6d a8be 0e95 693e efad fdbc 8962 07bf
00000060: 8fb2 c3bd f948 e1be ec38 9f3e 489c 94bd
00000070: 113a 89be 0157 203f fa75 8dbe c1ec 3bbd
-0.0884206 -0.14967474 0.38597816 -0.2855242 -0.18523979 0.25029993 -0.41440776 -0.088258795
0.05641436 -0.015839621 0.2860026 0.019653812 -0.20995244 0.35732597 -0.11719134 0.303488
0.30704165 0.32114294 0.4652512 -0.3926274 -0.32895786 0.22810766 -0.030966727 -0.5288473
-0.09555542 -0.44000986 0.31098115 -0.07256371 -0.26802114 0.6263276 -0.2762907 -0.045880083

autoencoders.0.decoder.cells.0.lstm.weight_hh f4 [32, 8]
00000000: 269b 193f 2eb8 84bd 4605 fb3e 810d d53e
00000010: 0c2b e93d 4f02 d83d fab3 213e 280c 503e
00000020: 8dc0 b73d 140d 77bd 0120 173e 08e9 e93e
00000030: 4956 153f 0f9f 123f b71b 8a3e 60a8 4b3e
00000040: 6a3d 243f 0799 c83e 2a9b 133e c4a2 103f
00000050: 164a 943e 4617 de3e 3318 d53e 9011 823d
00000060: 8d3a 5ebd 2f2c 003f a14f 493e e17e 9c3c
00000070: 9f2b a73e d507 ba3d 8dcf 243e e65d b63e
00000080: 143b ed3e 526f 073e 4382 0c3f 3086 0b3f
00000090: 6354 6b3e 09cc 04bd caf3 e83e 42c7 a23e
000000a0: d9d4 ba3e 4bd1 c6bd 95e9 353e cc83 ba3e
000000b0: 1bb6 b93e 99b2 0f3e d817 bb3e 979a 113e
000000c0: b805 c13c 06ce 9cbe 3dd3 b7be b2a3 8b3e
000000d0: 2b7f 8bbe 021b 9bbe e10f e73d b729 c33e
000000e0: a240 283e 793e ec3e 2559 ccbc 478a 803e
000000f0: d0d7 81bd 4afb 89bd e14d 463d cddb dcbc
00000100: f4aa 19bb 1599 c3be e8ce 9f3e d476 f23d
00000110: 0bf8 c33d a1c6 3f3e c606 2b3e 3df1 85be
00000120: 5c50 edbd 4bc1 9d3e 5de5 00bf c750 863e
00000130: 7f40 aabe f230 9dbe 029c d43d e4f9 503e
00000140: d65e 9bbe df6e 0a3e 40e1 ae3d ae06 993e
00000150: a4d0 9a3e 14f0 67be 3256 893e b10d cf3d
00000160: 9977 a83d 239c 73bc 69c4 87bd 8b03 8a3e
00000170: a1b2 adbe e4b6 553e ca6c 8e3c 44ed 33be
00000180: 04b4 f2bd 878f 82be d97f d0bd ff41 323e
00000190: 5161 49be d8ab c1bd de35 9b3c 685c 833d
000001a0: f2fe 8ebd 6890 3c3d cea9 0f3e 2398 433d
000001b0: ad80 023b 5395 bf3e 7e75 443e f22d e83e
000001c0: fdc9 d7be 88d4 073e 15d8 9f3d 7cdb ac3e
000001d0: fb55 a63d 4e7c 2bbe 59de 003d 13d0 2e3e
000001e0: 1fc0 633e 1f45 58be c6bc b0bd 6dc5 fd3d
000001f0: ab6b 253e b466 ca3c bd7d d3bd c2fc 2c3e
00000200: 18a1 97bd d240 27bd c138 e43d 5d17 38be
00000210: 55af c63e 5109 52be f31b b23d b735 d33e
00000220: 070f bc3e 9285 2ebe de73 423e 5003 1a3e
00000230: bf77 01be ca75 8bbe 34c3 eb3d b0e5 25bd
00000240: a518 53bd 874e 91be 0073 dcbd 1dd8 88ba
00000250: a861 b23e 0660 90be cc7b b8be cae5 f83e
00000260: ab33 b8bd 3195 2f3e 5dd0 c8bd 2677 d6bd
00000270: 4a99 84be f2d6 11bc be32 c43e d793 153d
00000280: 5752 4ebd 2a52 59be 98c7 53be 1c94 c03e
00000290: 5f44 11be a96f 8cbe 002b ed3d dbc9 e3bd
000002a0: f011 9f3e bcde 90ba d877 b73e ce40 8c3d
000002b0: 3ba0 a43e 1dbf 523d 8af1 5abe d0ce bfbc
000002c0: 5418 cabe 144e 273c 95b0 453e 7c9f 71bd
000002d0: 9eaf 0b3e 6c61 8b3d c176 78be 755e adbe
000002e0: 768a a1bc 0902 713e b5ce 80be 12fc b1bc
000002f0: 4d88 ab3e ac6e abbd 8480 1ebe ab21 4cbd
00000300: 0fac 363e e2bf 82bd cf02 d73e 6a34 5bbd
00000310: 852e 383d 7742 093e 6d85 0abd a557 0a3f
00000320: a555 993d 770b 3a3b c968 10be 9a5a ce3e
00000330: f769 963d b599 7bbd ca2e 1f3f 1a09 6b3e
00000340: fb3b c23e 9723 013f 1e73 053f 8d17 783e
00000350: 85c0 a03e e6f8 fe3e dc06 0f3e 987e e23e
00000360: 6064 193f 34b3 bcbc 9c0b 27bd b7c2 c93e
00000370: fbd2 633e 3b1f 563e 9da7 9b3e b140 693e
00000380: ece0 ba3e 253c 3f3e 5b4c bc3e ee95 163f
00000390: 6649 913e fe68 e33e d66c 39bd f1f1 a53e
000003a0: 6dab 2f3e e4c0 97bd ead1 d73e 8d01 023e
000003b0: 6661 9abe e5cd 8f3e 6345 b33c b375 02bd
000003c0: 3f31 4bbe e042 ddbd 8c2d 29bd 4cb4 0b3c
000003d0: 28d2 4a3d 7465 c4be 9d5e d1bc 58cc c53d
000003e0: dd40 a83e 548f 803d 33ea a1bd a47e 883e
000003f0: 7005 b6bd 2ce8 513e 8932 163e 12fb b93e
0.6000236 -0.06480442 0.4902746 0.41611865 0.11385164 0.10547315 0.15791312 0.20317137
0.08972273 -0.060315207 0.14758302 0.456856 0.58334786 0.57273954 0.2697427 0.19888449
0.6415621 0.3917925 0.14414659 0.5649836 0.28962773 0.4337713 0.41620025 0.06351006
-0.054255057 0.5006742 0.19659282 0.01910347 0.32650468 0.09083525 0.160948 0.35618514
0.46334136 0.13226059 0.54886264 0.5450163 0.2298141 -0.032421146 0.45498496 0.31792647
0.36490515 -0.09707888 0.17764886 0.36428678 0.36271748 0.14032973 0.3654163 0.14219128
0.023562297 -0.30625933 -0.3590335 0.27273327 -0.2724546 -0.30294043 0.112823255 0.38117763
0.16430905 0.46141413 -0.024944851 0.25105497 -0.06339991 -0.06737383 0.048414115 -0.026960278
-0.0023447843 -0.3820273 0.31212544 0.11839071 0.09568795 0.18728115 0.16701803 -0.26160613
-0.11587593 0.30811533 -0.5034998 0.26233503 -0.33252332 -0.30701405 0.10381319 0.20407826
-0.30345792 0.13518856 0.08539057 0.2988791 0.30237305 -0.22650176 0.26823574 0.10110033
0.082259364 -0.014868769 -0.06629259 0.26955828 -0.33925346 0.20870548 0.017385859 -0.17570978
-0.118507415 -0.25500128 -0.10180635 0.17407988 -0.1966603 -0.09456605 0.018946584 0.064141095
-0.06982221 0.046036154 0.14029619 0.04775251 0.0019913123 0.37418613 0.19185445 0.45347553
-0.42146292 0.13264668 0.07804886 0.33761203 0.08121868 -0.16746637 0.031462047 0.17071562
0.22241257 -0.21120118 -0.08629756 0.123911716 0.16154353 0.024707176 -0.10326717 0.16893294
-0.07403773 -0.0408333 0.111436374 -0.17977662 0.38805643 -0.20511366 0.08696737 0.4125192
0.36730215 -0.1704314 0.18989512 0.15040326 -0.12643336 -0.27238303 0.115118414 -0.04050225
-0.051537175 -0.28380224 -0.10764122 -0.0010440383 0.3484013 -0.2819826 -0.3603195 0.48612815
-0.0899423 0.17146756 -0.09805367 -0.104719445 -0.258982 -0.008901345 0.38319963 0.036517944
-0.050371494 -0.2122275 -0.20681608 0.37612998 -0.14186238 -0.2742894 0.11580467 -0.11122485
0.31068373 -0.0011052708 0.3583362 0.06848298 0.32153496 0.05145179 -0.21381202 -0.023414046
-0.39471686 0.010211486 0.19305642 -0.058989987 0.13641211 0.06805691 -0.24264051 -0.33861127
-0.019719344 0.23535933 -0.25157705 -0.021726642 0.33502427 -0.08370718 -0.15478712 -0.049836796
0.17839073 -0.06384255 0.4199433 -0.053516783 0.04496624 0.1340426 -0.03381865 0.54039985
0.074870385 0.0028388181 -0.14102472 0.40303499 0.0734443 -0.061425883 0.6218077 0.2295269
0.37936386 0.5044493 0.5212878 0.24227734 0.3139688 0.4979927 0.1396746 0.44237208
0.59918785 -0.02303467 -0.040782556 0.39406368 0.22248451 0.20910351 0.30401316 0.22778584
0.36499727 0.18675287 0.36777005 0.58822525 0.2837631 0.4441604 -0.04526981 0.3241115
0.17155237 -0.07409838 0.4215234 0.12695904 -0.30152434 0.28086773 0.021883672 -0.031850528
-0.19843005 -0.10803771 -0.041303203 0.008526873 0.049516827 -0.38358653 -0.02555781 0.09658116
0.32861987 0.06277338 -0.07905998 0.2665912 -0.08887756 0.20498723 0.14667715 0.36324364

autoencoders.0.decoder.cells.0.lstm.bias_ih f4 [32]
00000000: 46d5 0a3d 224f c73d a2fe 133f 08ed 523d
00000010: 0a04 9d3e 1dbe 733e 6e6f d3be 8c04 b53e
00000020: a3ca d6bd df11 5e3e cced 92be 9d84 20be
00000030: 0e36 b7bd 0df8 0cbe c5dc 7cbe 6c8c 713c
00000040: 9d76 8dbe ad5c bc3d 47e2 043e 48dd c63e
00000050: b3f4 d6bc 8939 2c3e 5fee f3be 5869 923e
00000060: e2c6 483e 1252 153f b71f 173f d3b5 163f
00000070: bbd5 803e b8d7 423c eecd fc3d de9d aa3e
0.0338948 0.0973189 0.57810414 0.051495582 0.30667144 0.23802991 -0.41295952 0.35355031
-0.10487869 0.21686505 -0.2869705 -0.15675588 -0.08945857 -0.13766499 -0.24693592 0.014742952
-0.27629557 0.09197364 0.12976943 0.388407 -0.026239729 0.16818823 -0.476428 0.28595996
0.19607118 0.58328354 0.5903277 0.5887119 0.25163063 0.011892252 0.123439655 0.33323568

autoencoders.0.decoder.cells.0.lstm.bias_hh f4 [32]
00000000: 438b ce3e feb4 773d 1eb3 8a3e fff1 ce3e
00000010: 8018 923e 7397 8a3e 391f 1abe 8819 6e3e
00000020: e455 733e 41ba 32be b7ae a63e 6b0e a3be
00000030: 1bd2 b03e 22fa 76be 87fd adbd f7a6 833e
00000040: 2fe7 c53e 6632 3fbe 1b28 073d 311b 05be
00000050: d1c2 973e 1ff5 003e 5c9a 1abe b5b4 5cbe
00000060: 342b 173f 8524 9b3e d20c a13e 83e4 a13e
00000070: f03a a73e e5cd 8d3d 04f8 053e 36cb 0a3f
0.40340623 0.060475342 0.2708978 0.40419003 0.28534317 0.27068672 -0.15050973 0.23251927
0.23763233 -0.17453863 0.32555172 -0.31846938 0.34535298 -0.24118856 -0.08495622 0.25713322
0.38652942 -0.18671569 0.032997232 -0.12998654 0.2964082 0.12593506 -0.15097946 -0.2155331
0.590503 0.303013 0.31455094 0.31619653 0.32662153 0.06924037 0.13082892 0.54216325

autoencoders.0.decoder.cells.1.weight_h_2 f4 [8, 8]
00000000: c110 933d ec74 913e 8290 343b b6f0 4a3e
00000010: 140d f03d 4f14 acbc 8940 9dbe 34c7 1cbe
00000020: 4471 b63c f9ba e03d 5e0a d6bd 6c1c 2a3e
00000030: 608b 9bbd 831a 1abe d433 a0be 3cda 233e
00000040: f41b 933e ffa1 813d 6081 0ebc 0b7f 8c3e
00000050: cbff de3d 78b9 053e c13d 82be fec9 413c
00000060: e716 fb3d 2744 08bd 3db3 0cbe 8e1f de3d
00000070: ae1c fcbc 9fb0 2fbd ccce d0bd b9d4 85bc
00000080: 36c3 993d 8128 1e3d af60 c63c 5bb8 253e
00000090: 5048 08be ff4a 5bbe 50db 0fbd 23b7 49be
000000a0: 9840 993e 051b d93d 3f0c a43d 925b a83e
000000b0: 12e1 423e 1273 c0bd db8b c9bd b6a1 163e
000000c0: a38f c73b ecd8 94bd 8d58 1bbe 8242 8fbe
000000d0: 6526 11be 06ce a83e 63fa 903e 74a9 503e
000000e0: ee60 323e de1b 363e fc22 d4bd 57b6 2f3d
000000f0: 7af0 a63c 111c 4a3e 5f96 05bd 9490 a23d
0.0718093 0.28409517 0.0027551954 0.19818386 0.117212445 -0.021005778 -0.307133 -0.15310365
0.022270806 0.10973162 -0.10451196 0.16612405 -0.07594943 -0.15049176 -0.31289542 0.16001219
0.28732264 0.063297264 -0.008697838 0.27440676 0.108886324 0.13059032 -0.2543774 0.011827944
0.12260228 -0.03326812 -0.13740249 0.10845862 -0.030775394 -0.04289305 -0.101956934 -0.016336786
0.07507937 0.038612846 0.024216024 0.16183607 -0.13308835 -0.21415327 -0.035121262 -0.19698767
0.29932094 0.10600857 0.08010148 0.32882363 0.1903117 -0.09396948 -0.098411284 0.14710125
0.006090121 -0.07267937 -0.15170498 -0.2798043 -0.14174803 0.32969683 0.2831603 0.20377141
0.17419788 0.17784068 -0.10358235 0.042898502 0.02037834 0.19737269 -0.03261411 0.07937732

autoencoders.0.decoder.cells.1.bias_h_2 f4 [8]
00000000: 8677 f13b 010e 423c 15dc 94bd e7c7 713d
00000010: c30e febc b2bd 4a3d bc6b 8fbd d8a0 0e3e
0.0073689846 0.011844159 -0.0726854 0.059028532 -0.031012898 0.049497314 -0.070029706 0.13928545

autoencoders.0.decoder.cells.1.lstm.weight_ih f4 [32, 8]
00000000: bbbe 2cbe 18e4 32be 68ac 323e dd37 983e
00000010: b3b4 f73e be0b fb3e 8d29 a9bd 4c44 fc3d
00000020: 110f d2bd a9ac 1fbe 7eff 18be 241e 0b3e
00000030: b313 a23e 97eb df3c 5e9a e23e 6d77 9dbd
00000040: d640 e13e 29f5 2a3d 677b 883e 420d 053e
00000050: 8909 a3bd 3b36 ed3d 73d7 ad3e 3207 ec3d
00000060: a87a a43e 49ee 8d3e e84c f33d 83c2 c9be
00000070: fdf8 0abf 1311 c13e 05ca 513e a7a0 debd
00000080: e15c 173f 4707 16bd cf15 f03e 9ba0 9e3e
00000090: 1b4a d239 d5bd 8cbd df7d 7a3e 0372 643e
000000a0: f0a9 e43e dcc0 8ebc c511 693e 150b 713e
000000b0: 93bf ab3e 2b02 543e 0c0a 3b3d 018f 86bd
000000c0: cb4d 1f3f 8f97 9f3c b87d c73d cda2 e03e
000000d0: a340 18bc 351f 623d eefb 5d3e 9d9e 59be
000000e0: 4b97 cb3d 67a8 9f3d 3892 75be 9de1 7cbc
000000f0: ad09 3e3d 972a debb e973 863e c5b2 ff3e
00000100: fa3e a7be 2201 fa3d c2f1 aebe 8676 973e
00000110: 4e8f 253e bb43 bdbd e782 b23e e2f9 683b
00000120: 9f4b c7be d3eb a2be b0e1 1fbf 97d3 913e
00000130: d2af b63d 5c4f 5cbe d5cf 15be 3a56 033f
00000140: 4099 55be cdd9 23bc 0bc9 0a3f 5696 423e
00000150: 60d8 0cbe c70d aebe 8477 313e ba62 393d
00000160: f745 5a3e 4f68 be3e 326f 413e 3843 fbbe
00000170: 4d9f c2be aa79 9ebc eca5 9bbd 6bd2 69be
00000180: 7b29 75be 3610 acbe 575b 18bd bdd6 493e
00000190: 84a6 783e 0b69 88be 93ff 3dbd 9ce9 86bd
000001a0: 19fe d23e eb59 d53e e064 6a3c 92c5 cb3d
000001b0: f2fb b3be a878 e7bc e2db a7be ab42 f33d
000001c0: 568c 0abe f255 7d3e d3e7 073f ef77 b73e
000001d0: 0255 b03e c0e7 013f e4a6 96be 9cd1 4d3e
000001e0: 4396 68be a56a a63e 609d 58be 5ed0 a13e
000001f0: eeff 60bd cbc1 8cbd 726f 8a3e 7d8e 76be
00000200: d901 22be 0904 e5be 9156 8abe 86d9 0a3f
00000210: 6bd0 ae3e baa9 91be c47e 5bbe 4974 bd3e
00000220: e5a9 943d f536 c2be 84fb a7be e98a 09bd
00000230: 9c4c 543d 059c 2ebd 6e5d 2d3e 4963 e9bd
00000240: 7567 d4be 7186 babd 0ba9 a5be 50ac e63d
00000250: 0211 c53d 72b1 79be ac05 36be d13e 0abe
00000260: 0052 b7be b690 36be 5111 b63d c1a1 bf3d
00000270: 0451 dbbc 06f2 12bf 15d5 c53d 7683 8d3e
00000280: fb3b ebbd 2760 e7be 6420 26be 6330 923e
00000290: 2bf9 123f 3bf9 e5be ea4b c8bd 77c6 713e
000002a0: 8356 e43d 6e6b 76be 6cb6 55be b6ba 173f
000002b0: aa68 753e e9a9 a7be 146d 5dbd cdf8 74bd
000002c0: fa61 923e 6cbb 673d ab7d 1b3f fcad 9cbd
000002d0: 1dae 1e3d c145 073f 7868 b5bc 020b b7be
000002e0: 53be 2a3e 2d7d 733e 10d7 28be 1129 003f
000002f0: 0b97 44be 9d45 4e3d 7cc5 a7ba 78c9 a33e
00000300: ca70 ab3e 3f0f a03e e291 6dbe 0c70 353d
00000310: a9df 0a3f d14e 263e 1133 b13d 4a95 143f
00000320: 36a4 a3be 101b 25bd 8729 963d 302a 003e
00000330: 0673 9f3c 9f84 d9bd 8622 3b3e ed96 173f
00000340: d2a5 103f efea 003f 8781 2a3e 2056 5a3e
00000350: 3dcb 00be d1f1 df3c 07e6 9a3e a3d1 23be
00000360: 7fd3 b13e 2efc 9cb9 68ef 0a3e a74c 11bf
00000370: 16a5 efbe 8b72 063e 34cc ba3e 3917 14bf
00000380: effe a53a 5144 2e3d a34c ea3e 40d7 bf3e
00000390: 8c1f a13e de69 47bc 3b85 40be 0507 003d
000003a0: fb72 89bd 3814 2c3e b905 8ebc 0a13 e93d
000003b0: 4e5a 5dbd 713d 0c3f 26f7 b83e 1678 cd3e
000003c0: 51ca c83e 9f31 2abc 4fb2 593d 77cb 3b3e
000003d0: e14f 953e 4356 b63e 21af 443e 396d 8ebd
000003e0: e531 b33e 2340 eb3c ec63 213e fbca 883e
000003f0: 2e49 1dbe 376a 543e 6455 51be 43a3 283e
-0.16869633 -0.17469823 0.1744858 0.2973012 0.4838005 0.49032396 -0.08259878 0.12317714
-0.1025678 -0.15593208 -0.14941213 0.13585716 0.31655654 0.027334018 0.44258398 -0.07688794
0.43994778 0.04173771 0.2665665 0.12993339 -0.07960803 0.11582609 0.33953437 0.1152481
0.3212483 0.2772086 0.11879903 -0.39406213 -0.54286176 0.3770834 0.2048722 -0.10870486
0.59126097 -0.036628034 0.4689164 0.30981907 0.00040109534 -0.06872145 0.24462079 0.22309117
0.44660902 -0.017425947 0.22760685 0.23539384 0.33544597 0.20703952 0.04566388 -0.065702446
0.6222808 0.019481448 0.09740776 0.43874207 -0.009292754 0.055205543 0.21678135 -0.21251912
0.09940966 0.07795792 -0.2398156 -0.01543465 0.046395946 -0.0067799794 0.26260307 0.49941078
-0.32665235 0.12207247 -0.34168822 0.29582614 0.16167948 -0.09241434 0.34865496 0.0035549332
-0.38924882 -0.31820545 -0.62453747 0.28481743 0.08920254 -0.21514648 -0.14630063 0.51303446
-0.20859241 -0.010000658 0.5421302 0.19002661 -0.13754416 -0.33994886 0.17330748 0.04526017
0.21315752 0.37188956 0.18890074 -0.4907472 -0.38012162 -0.019345123 -0.076000065 -0.22834174
-0.23941605 -0.33606118 -0.037196483 0.19710822 0.2428227 -0.2664264 -0.046386313 -0.06587526
0.41209486 0.41670164 0.014306277 0.09949793 -0.35153157 -0.028255776 -0.32784945 0.1187795
-0.13530096 0.24739817 0.5308811 0.3583369 0.34439856 0.5074425 -0.29424202 0.20099491
-0.2271357 0.32503238 -0.21153784 0.31604284 -0.054931574 -0.068729006 0.2703815 -0.24077792
-0.15821017 -0.4472964 -0.2701917 0.54238164 0.34143385 -0.28449804 -0.21435076 0.3700278
0.07258967 -0.37932554 -0.3280908 -0.03357974 0.051830873 -0.04262926 0.16930172 -0.1139589
-0.4148518 -0.09107674 -0.32355532 0.11263335 0.096223846 -0.24384096 -0.17775601 -0.13500525
-0.3580475 -0.1782864 0.088900216 0.09357024 -0.02677203 -0.5740055 0.09659783 0.2763936
-0.1148605 -0.45190546 -0.16223294 0.2855254 0.5741145 -0.4491671 -0.097801045 0.23610865
0.11149313 -0.24064419 -0.2087037 0.59269273 0.23965707 -0.3274682 -0.054059103 -0.059807587
0.28590375 0.056575224 0.6073863 -0.076503724 0.038740266 0.5284081 -0.022144541 -0.35750586
0.16674165 0.2377822 -0.1648829 0.5006266 -0.19198243 0.050359357 -0.0012799944 0.31989646
0.3348449 0.31261632 -0.23200181 0.04429631 0.5424753 0.16241004 0.08652318 0.580403
-0.3196122 -0.040309012 0.073321395 0.12516093 0.019464027 -0.106209986 0.18274888 0.5921467
0.5650302 0.5035848 0.16650973 0.21321917 -0.12577529 0.027336987 0.30253622 -0.15997939
0.3473167 -0.00029942527 0.13567889 -0.5675759 -0.46805638 0.13129632 0.3648392 -0.57847935
0.0012664477 0.04254562 0.45761594 0.3746891 0.3146938 -0.012171237 -0.18800823 0.031256694
-0.06711384 0.16804588 -0.017336713 0.113805845 -0.0540412 0.5478125 0.3612606 0.4013068
0.39216855 -0.010387807 0.053148564 0.18339334 0.29162505 0.35612687 0.19207431 -0.06954426
0.34999004 0.028717106 0.15760773 0.26717362 -0.15359947 0.20743643 -0.2044273 0.1646853

autoencoders.0.decoder.cells.1.lstm.weight_hh f4 [32, 8]
00000000: e3b9 983e 7d4f e63e 753f 873d af7f ad3c
00000010: 94b7 f53e 874f a6bd 5c8b bc3d cda9 6a3e
00000020: 7832 b43d 22a8 3cbe 8fbe f33e 27f8 2cbd
00000030: 622a 49be f266 8b3c 2d69 2a3e 7bb3 fb3e
00000040: 3a9e 9dbd fda8 e33e d505 403e 4520 bcbc
00000050: ff1c 3e3d f191 1c3e 0a83 4e3e 33e4 c2bc
00000060: cf42 bd3d ac13 6fbe 21eb a2be e0f6 1dbe
00000070: 42dd 19be 84d9 8cbe df69 e13e ea26 4e3e
00000080: c6b3 d53e c2e6 c63e 576e 013f f545 45bd
00000090: 2772 9dbb be50 ba3e 5e61 46bd af30 673e
000000a0: 148e de3e ceb7 3ebd ce29 11be 274c e73e
000000b0: 7f69 f9bd 5e69 e13e 0698 f13c a47f 303e
000000c0: 25b8 6e3e 5019 ae3e 893e d63e 25ed 6e3d
000000d0: a71e 153f d835 d63d dda7 063c 49ea 9c3e
000000e0: 86ed 103e 3aca 5c3d fb00 a73e 1d67 babd
000000f0: 8343 b03d fe8d c4bd 8cf8 13be b81c 90bc
00000100: c1a0 203e c83e 423e 221e b23d 5228 3abe
00000110: ebaa 05bd 0938 8b3d a493 803e 2562 063e
00000120: 46ae 8b3e 28cb 1dbe 9679 b33e 1c93 fc3d
00000130: d6c4 743d c2df 6a3c cade 9cbe d03c 30be
00000140: bd90 cbbd d929 0d3e 04dd 353e 3dc2 b2bc
00000150: 65a3 243e a653 6fbe 4c63 b43d 7677 713c
00000160: 85b1 74be 5060 69be 4dfa 99be ea4c adbe
00000170: a4de c4bd 16ed 89be 986b b33e c404 123e
00000180: 6247 3a3e 16cf 4c3e c593 8bbe 3bf9 b9be
00000190: 63cb 9abc 9da1 1f3d 4664 3bbe eb03 c7be
000001a0: 7ead 81be 7cd3 4fbc 2f9d 603e ed83 043e
000001b0: 10c3 753d f66a f4bd ca70 10be f263 96bc
000001c0: 115d ae3e f63a f8bd 674d 973e fdde a23c
000001d0: e34e 883e b564 013e cd9b d8bd 214f ae3e
000001e0: fcf1 00bd 8af1 2fbe a1ec 3ebd 9190 c23d
000001f0: fed1 c33d 97c6 16be 5f81 a13e 4dac 0e3d
00000200: 88e8 0fbe 0036 123e 2e55 853e 2c47 70be
00000210: 9596 57be 7aeb 8a3e a36a 6e3e 7176 e7bd
00000220: 4238 b93e 473f 8fbe 5c2b 5a3e 1491 b6bd
00000230: bd4a 383e 5027 cdbc ffe6 98be acd2 6b3e
00000240: 2a20 4f3e 6c62 22bd f08f b83d 8b76 83be
00000250: 86a4 1c3e c109 ce3e fe9f 993e f941 1e3e
00000260: dea3 75be 4bd4 c4be 44ac 70be 9b93 c7bc
00000270: 15c9 fc3d a83d 85bd b96b 7cbe 653a 2f3e
00000280: 7bcb 963e b396 193c b71c ac3e 7e65 0f3e
00000290: 28bf 2fbd f3ce 593e 8d89 97bd c1f1 933e
000002a0: 2222 87be af87 34be 33d5 103c 6cc7 e9bd
000002b0: ae0d c0bd 3de2 d83e 562a a03d 9148 053e
000002c0: 50f9 f13d e36a c2bc b005 b9be f5fc df3b
000002d0: 90a8 d03d eb80 dcbe cda3 5abe 54f1 7cbe
000002e0: 8a0f 82bd 1deb a63e f189 33be 2ace 9cbe
000002f0: 9aaa 50be 9630 b03e a27a e5bd da3f 12bd
00000300: fc40 b73e f62a 8ebd f14e f1bb 60b3 bb3d
00000310: f59f 2b3e ae7e d33d a97c f03e fee6 4fbc
00000320: 4dd0 9c3e b4ea 97bd f379 e93d 3d9d 57bd
00000330: 88d6 fa3d 1101 0dbe 12a7 e23d c4f8 c9bd
00000340: a4ab d5bd b4a6 c5bd 0cd5 ec3d a63d d6bd
00000350: 5387 93bc 56d0 993e 73d2 aa3e f35b c93e
00000360: 1a1c b6bd 3d94 a53e b7c5 34be 9d2f c33d
00000370: 05c9 68be 8b6b 8ebe f7f4 d73d 381d b83d
00000380: c320 c13e 9fe5 f93e e1e7 c13e c054 7a3e
00000390: 2940 f93e b446 973e e7f2 523e 75d0 653e
000003a0: e02e 05be 93f2 633e c774 be3d 2773 a33e
000003b0: d2cc 833d 6915 e43e 32cb 223e 98ac d53e
000003c0: 4baa 073f 97d0 333d bb7d 163e a245 e9bc
000003d0: c0c4 063f efe5 cb3d 8c27 ca3e 886a 0f3f
000003e0: c7b6 c53c 944c 3e3e 363b 60be 89a2 95be
000003f0: 1480 af3e 453c 713e 739a c9bc 31e1 77be
0.2982932 0.4498252 0.066039 0.021179048 0.47991621 -0.081206374 0.09206268 0.22916336
0.08798689 -0.18423513 0.47606322 -0.042228844 -0.19645074 0.017016862 0.16641684 0.4916037
-0.07696195 0.44464865 0.18752225 -0.022964606 0.04641437 0.15290047 0.20167175 -0.023790454
0.09241258 -0.23347348 -0.31820014 -0.15426207 -0.1502581 -0.275097 0.44026086 0.20132032
0.4173872 0.3884793 0.5055899 -0.04816242 -0.004804868 0.36389726 -0.0484327 0.22577165
0.43467772 -0.04656201 -0.14176103 0.45175287 -0.12178325 0.440257 0.029491436 0.17236191
0.23312433 0.34003687 0.41844586 0.058331627 0.58249897 0.10459489 0.008218733 0.30647495
0.14153108 0.053903796 0.32617936 -0.091016985 0.08606627 -0.09597395 -0.14450282 -0.01759182
0.15686323 0.18969262 0.08697154 -0.18179443 -0.032633703 0.06797797 0.2511264 0.13123377
0.27281398 -0.15409529 0.350537 0.123327464 0.05975803 0.014335575 -0.30638725 -0.17210698
-0.09939716 0.13785495 0.17760092 -0.021821136 0.16077955 -0.23371753 0.08808002 0.014737954
-0.23895843 -0.22790647 -0.30073777 -0.33847743 -0.09612778 -0.26938695 0.35043025 0.1425963
0.18191293 0.20000872 -0.27261177 -0.3632296 -0.01889581 0.038972486 -0.1829997 -0.38870177
-0.25327677 -0.012684699 0.21934961 0.1294095 0.06000048 -0.11934464 -0.14105526 -0.018358205
0.3405538 -0.12120621 0.2955124 0.01988172 0.26622686 0.12636073 -0.10576592 0.34044746
-0.031480774 -0.17181984 -0.046612386 0.0950023 0.09561537 -0.14724194 0.31544015 0.034832288
-0.14053547 0.14278412 0.2604155 -0.2346465 -0.21053536 0.2713278 0.23282866 -0.11301888
0.36175734 -0.27977964 0.21305603 -0.0891439 0.1799726 -0.02504316 -0.29863736 0.23029584
0.20227113 -0.039644644 0.09011829 -0.2567638 0.15297136 0.40241817 0.30004877 0.15454854
-0.23988292 -0.38443217 -0.23503214 -0.024362376 0.12343041 -0.065059006 -0.24650468 0.1711212
0.29452118 0.009374308 0.33615658 0.1400356 -0.04290691 0.21270351 -0.073992826 0.2889538
-0.2639323 -0.17629884 0.008839893 -0.1141499 -0.09377609 0.42360106 0.07820575 0.13015963
0.11815131 -0.023732608 -0.36137152 0.0068355747 0.10188401 -0.43067107 -0.21351548 -0.24701434
-0.0635062 0.32601252 -0.17533089 -0.3062604 -0.2037758 0.34412068 -0.11205031 -0.035705425
0.35791767 -0.06941788 -0.007364147 0.091650724 0.16760238 0.103268966 0.46970108 -0.01268935
0.3062767 -0.07417813 0.11400213 -0.05264019 0.1224795 -0.13769938 0.110670224 -0.098619014
-0.104331285 -0.09650937 0.11564073 -0.10460977 -0.018008864 0.3004176 0.33363685 0.39327964
-0.08892079 0.3233966 -0.17653547 0.09530566 -0.22732933 -0.27816424 0.1054477 0.08989948
0.37720308 0.48808 0.37872222 0.24446392 0.48681763 0.2954613 0.20600472 0.22442801
-0.13006163 0.22260503 0.09299617 0.31923792 0.06435551 0.44547585 0.15897825 0.4173324
0.5299422 0.0439001 0.146964 -0.028475586 0.52643967 0.09955966 0.39483297 0.5602193
0.024135007 0.185839 -0.21897587 -0.29225567 0.34277403 0.23558147 -0.02460978 -0.24206997
