H1_ensemble_autoencoder_weights.pth (torch, 9628 bytes, 13 tensors)

autoencoders.0.encoder.cells.0.weight_h_2 f4 [8, 8]
00000000: 521b 2d3f 085e fd3c acb8 c63d d574 663d
00000010: 1434 a4bd cdc4 54bf cdd8 21b9 3a23 15bf
00000020: f426 92bf 33e7 14bf b8cb de3e 2a54 49bf
00000030: 3a09 efbe 3d33 de3e 6864 d33e 1bf4 1e3f
00000040: 349a e4bd a622 583d ecf6 3e3f 79a4 323e
00000050: a333 ca3d c3f5 4a3a e2ba c33e baec f33e
00000060: 1ea2 693e 940c fb3e 4049 093f 9957 e73d
00000070: af28 25bf 728f 19bf dab6 b4be a096 6d39
00000080: 7e61 743f 2dec 42be 14ec 953f 474d b0b8
00000090: 1fde 483f 1e5f e43d 1b60 213f 95fd ea3d
000000a0: 74f2 cf3e 063d 8abe 594f e83e a320 283f
000000b0: f072 e0be 8334 303e c22f c3bc 6457 0bbf
000000c0: edbd 6b39 235d 9c3e 29f6 f63d 2603 90be
000000d0: 0725 e93e 0a13 f53e edaf cd3d aa64 bcbe
000000e0: 7b34 843a eb75 b03e 89e4 02bc 8fbc 51bf
000000f0: c093 5d3f 0c05 1fbf ebbc 1c3f c4dc 6d3e
0.6761981 0.030928627 0.09703192 0.056263763 -0.080177456 -0.83112794 -0.00015434921 -0.58256876
-1.1418138 -0.5816528 0.435148 -0.7864405 -0.46686727 0.43398467 0.4128754 0.62091225
-0.111622244 0.05276742 0.7459552 0.17445554 0.0987313 0.000774231 0.38228518 0.47641546
0.22815749 0.49033034 0.53627396 0.11296005 -0.64515203 -0.59984505 -0.35295755 0.00022658193
0.9546126 -0.19035406 1.171267 -8.406728e-05 0.7846393 0.11150955 0.6303727 0.11474148
0.40614665 -0.26999682 0.45373037 0.656748 -0.4383769 0.17207532 -0.023826484 -0.5443022
0.000224821 0.30539808 0.1205867 -0.28127402 0.45536062 0.47866088 0.10043321 -0.3679555
0.0010086441 0.34464964 -0.007989057 -0.8192834 0.86553574 -0.62117076 0.61225766 0.23228747

autoencoders.0.encoder.cells.0.bias_h_2 f4 [8]
00000000: 0000 0000 0000 0000 0000 0000 0000 0000
00000010: 0000 0000 0000 0000 0000 0000 0000 0000
0.0 0.0 0.0 0.0 0.0 0.0 0.0 0.0

autoencoders.0.encoder.cells.0.lstm.weight_ih f4 [32, 1]
00000000: b1fa 183e 08a8 52bf f791 e2bd 4edc a13f
00000010: 0753 afbf cae0 2f40 9279 fa3f 5ee8 ef3f
00000020: 1a54 67bf 840e 8cbd a067 7abf 282f f4be
00000030: 0280 8340 1798 2dbd 902a 98bf 0654 3d40
00000040: 5bd1 adbf 141c 10c0 0391 c23f bffb 39bf
00000050: 1e64 6e3f 6f62 483f e8c2 b2bf 97a2 21bf
00000060: e2c1 bcbe b07d d43f 3f52 b33e d0f2 f0bf
00000070: e89c 1940 4c47 4240 8c71 a4bf 9c6c 0140
0.14939381 -0.82287645 -0.11062997 1.2645357 -1.3697213 2.748095 1.956835 1.8742788
-0.90362704 -0.06838706 -0.9781437 -0.47692227 4.109376 -0.042381372 -1.1887989 2.9582534
-1.3579515 -2.2517138 1.5200504 -0.7264976 0.93121517 0.782752 -1.3965731 -0.6313872
-0.3686667 1.6600857 0.35023686 -1.88241 2.4002018 3.0356016 -1.2847152 2.022254

autoencoders.0.encoder.cells.0.lstm.weight_hh f4 [32, 8]
00000000: 2e44 f0be 12bb 5cbf ebcb 8f3e 7ccd c13b
00000010: 6c2a 90be 4b4f c4be f04b 87be a900 113e
00000020: fc07 4cbf 713f 063e 52e8 d33e dad6 35bf
00000030: 0bec 31bf 6bed 14bf 58d3 63bf c2da 45bf
00000040: 7074 f13d 7f59 133f 2b75 853f 0a53 053f
00000050: 4e85 f73c 977f 6b3e adcd dd3d 6a83 a33d
00000060: c542 4e3f 110f eebd 310c 283a 78e7 05bf
00000070: 41b1 85be 3443 22bf aeb7 47be 021b fab8
00000080: fe5f 923e 194d 343d cf80 07bf 099d 49ba
00000090: 03a5 9a3e 18e2 30be e383 173f d45f 203e
000000a0: 7c74 31bb 5765 17bf 47d0 08bf cbac 8fbe
000000b0: 6bbd 1b3f 49c3 2a3f 9ee3 843e d8b8 1f3d
000000c0: 26ac 99be 85be c6be b5c6 5b3f 2b7a 6f3f
000000d0: aa78 26bf 491f 5abf 3679 88bc 845c 7a3e
000000e0: 9d0f 9abe a048 883e 4d9f a83a 81e5 b23e
000000f0: 6ade 65be ece8 303f 0b37 e13e e95f d53e
00000100: b89f 1f3f d33c 41bf aa61 e439 5e8b 273d
00000110: 7b1f 53bf d411 033e 82b5 f33e d258 e33c
00000120: e94c 0c3c cc5e 94be 7b2b 2c3d b482 823f
00000130: 9604 5c3f b020 11be dd70 2c3e 298d 1739
00000140: e41d 8bbe 4f79 1ebf 0fce 003f 5212 073f
00000150: cf75 c639 af32 bdbe 18c8 1ebf 7789 e63e
00000160: bfed 293e 79a2 0a3a da2e 55bf bf91 923d
00000170: de78 823e 0679 aa3e 56fe 913e 7af5 1e39
00000180: 20c5 debe add2 ad3e 9f37 8ebe 8124 353e
00000190: 0d3a 213f 3542 76bd 1db6 5e3f 5985 9d3f
000001a0: 1c5c 3b3f f2c6 0b3f 00ca 653e 708c 2a3e
000001b0: 78c6 11be 663e 333f 5ed5 9bbe 581f 833e
000001c0: 678b 92be 6fac 0e3f a795 dbbe d0d1 b9be
000001d0: 67ea 8b3e 1e5c cbbd 5131 6dbf e75e af3e
000001e0: c7e5 9e3e bcda 0fbf c9e4 70bf 9f9c 77bd
000001f0: d85c 3dbe d2b6 1c3e 4333 13bf ea67 6cbe
00000200: f3b2 80bf befe 48bf 2237 4c3f b7d2 d9be
00000210: 2bbd 303e 7e4b 873e 90e7 e9be dfef 9bbe
00000220: 2abf 82bf d24e 0abf 271c 2d3f 96a8 b43e
00000230: 2ecd 943e 6369 2cbf 14e5 25bf b8a1 f4bd
00000240: 2820 323f 8b0c 0dbe c62f b43d 2432 ae3e
00000250: 34c0 8dbe 87a1 853f aa27 573e 6c34 f8bd
00000260: f680 c13e 2116 293f d377 9c39 a8ab cf3e
00000270: d413 85be 2439 333f 78a5 f93e 4c20 2a3b
00000280: ac52 fc3c 0757 2a3f 3cde eebe 494c 1a3f
00000290: eccd 1c3f 037d 47be 992a 42be d4cd 0a3f
000002a0: 4cda b83e 7fa3 d23e c5bb 28be 7e63 28bf
000002b0: 612d 73be 86a5 b93e 98fe 8239 cc77 0dbf
000002c0: 69af 8b3e b522 323e 1511 2c3c f32e 3b3e
000002d0: ff3d c1b9 b495 333f 3ab1 24be 7644 92be
000002e0: dca3 a8bf 80c0 d13e b496 4a3f 93a7 77bf
000002f0: 5cf5 fe3e 6d5c b5be 1aca 99bf d633 c6bc
00000300: a6f1 c1be 0e19 0bbf ddf6 a839 106b f9bd
00000310: ced1 a6ba 74c5 223f 9878 e8bd 3a55 9d3e
00000320: deae a6be 9e4e 103b 212b 713f a06b 2a3f
00000330: 0012 a3bd c845 263f 5a78 72be a271 cf3d
00000340: b6da 3e3f cb06 ee3d 03c1 15bf 9003 6c3e
00000350: 7ea9 1d3f 8af2 3cbe 7a1d 8dbf 59de 453e
00000360: b425 09bf 7938 35be 2524 58be f957 3e3f
00000370: 5fba 983f ea67 92bf 3ded d33e be83 ac3e
00000380: 61c0 6a3e 6a81 f13e 236e 54be 111e 23bf
00000390: 66c3 aa3e d77c a43e 9a0f e9be f2c5 9f3f
000003a0: 5f2b 03bf 5d61 73be cd4c b0be 1878 a23c
000003b0: 547e 58bd ebd7 d93e 5a52 e0bd 7f36 c7be
000003c0: 9b5e 26bf ec4c 2e3f 8c83 c53b 469e af39
000003d0: 8591 503f ba8c 2f3f 7400 593d 3844 2fbe
000003e0: 4fff 02be 8102 ce3e 42d8 1b3e 3ac6 0abf
000003f0: 168f 973c 2f54 103e 77d6 c43e 1657 0abf
-0.46927017 -0.86222947 0.28085265 0.005914388 -0.28157365 -0.38341746 -0.26425123 0.14160408
-0.79699683 0.13110138 0.41388184 -0.7103096 -0.695008 -0.5817477 -0.8899436 -0.7728692
0.11789787 0.57558435 1.0426382 0.5207983 0.030214932 0.2299789 0.10830245 0.079840496
0.8057063 -0.116239674 0.0006410508 -0.5230632 -0.26111796 -0.63383794 -0.19503662 -0.000119259596
0.2858886 0.04401884 -0.5293092 -0.00076909416 0.3020402 -0.17273748 0.5918562 0.15661556
-0.0027077487 -0.5913901 -0.53442806 -0.28061518 0.60835904 0.6670423 0.25954908 0.03899464
-0.3001415 -0.3881723 0.8585008 0.9354579 -0.6502787 -0.8520399 -0.01665936 0.24449354
-0.30090037 0.26617908 0.0012864858 0.34940723 -0.22448125 0.6910541 0.43987307 0.41674736
0.62353086 -0.75483435 0.00043560314 0.040904395 -0.8246991 0.1279977 0.47599417 0.027752314
0.008563259 -0.28978574 0.042033654 1.0196137 0.859445 -0.14172626 0.16839929 0.00014453068
-0.27171242 -0.6190385 0.5031442 0.5276233 0.00037853277 -0.3695273 -0.6202407 0.45026752
0.16594599 0.00052884925 -0.83274615 0.07156705 0.2548284 0.3329546 0.28514355 0.00015159501
-0.4350977 0.33949795 -0.2777681 0.17689706 0.62979203 -0.060121734 0.8699663 1.230632
0.7318742 0.5460044 0.22440338 0.16655135 -0.14235866 0.7001709 -0.30436224 0.2560985
-0.2862198 0.5573186 -0.42887613 -0.36292887 0.27327272 -0.09929679 -0.92653376 0.34252092
0.3103468 -0.5619314 -0.940991 -0.0604521 -0.18492448 0.15304115 -0.57500094 -0.23086515
-1.0054611 -0.78513706 0.79771626 -0.42543575 0.17259662 0.26424783 -0.4568448 -0.30456445
-1.0214589 -0.5402652 0.6762108 0.3528487 0.2906279 -0.6734831 -0.6480267 -0.11944908
0.69580317 -0.13774316 0.087981746 0.3402263 -0.27685702 1.0439919 0.21011224 -0.12119374
0.37793702 0.6604939 0.00029843915 0.4056065 -0.2599169 0.70009065 0.48759055 0.0025959192
0.03080114 0.66539043 -0.46653926 0.6027265 0.6125171 -0.19481282 -0.18961562 0.5422032
0.36104047 0.41140363 -0.16477878 -0.65776813 -0.2374778 0.36259097 0.0002498522 -0.5526092
0.27282265 0.17396052 0.01050212 0.18279628 -0.0003685802 0.70150304 -0.16083232 -0.28567857
-1.3175006 0.40967178 0.79136205 -0.9674007 0.4979657 -0.35422078 -1.2014802 -0.02419464
-0.37879676 -0.54335105 0.00032227385 -0.12178624 -0.0012727322 0.6358254 -0.113511264 0.30729085
-0.32555288 0.0022019516 0.94206434 0.6657047 -0.079624176 0.6495023 -0.23678723 0.101290956
0.74552476 0.116223894 -0.5849764 0.23048234 0.6158675 -0.18451896 -1.102462 0.193231
-0.53573155 -0.17697324 -0.21107538 0.74352986 1.1931876 -1.1437962 0.41391936 0.3369426
0.22924949 0.47169048 -0.20745139 -0.6371775 0.33352202 0.32126495 -0.45519716 1.2482283
-0.51238054 -0.2376761 -0.34433594 0.019832656 -0.05285485 0.42547545 -0.10953207 -0.38908765
-0.64988106 0.68086123 0.0060276445 0.00033496524 0.81472045 0.68574107 0.052978948 -0.17115867
-0.12792705 0.40236285 0.15219215 -0.5420872 0.018500846 0.14094613 0.38444874 -0.5403913

autoencoders.0.encoder.cells.0.lstm.bias_ih f4 [32]
00000000: 0000 0000 0000 0000 0000 0000 0000 0000
00000010: 0000 0000 0000 0000 0000 0000 0000 0000
00000020: 0000 0000 0000 0000 0000 0000 0000 0000
00000030: 0000 0000 0000 0000 0000 0000 0000 0000
00000040: 0000 0000 0000 0000 0000 0000 0000 0000
00000050: 0000 0000 0000 0000 0000 0000 0000 0000
00000060: 0000 0000 0000 0000 0000 0000 0000 0000
00000070: 0000 0000 0000 0000 0000 0000 0000 0000
0.0 0.0 0.0 0.0 0.0 0.0 0.0 0.0
0.0 0.0 0.0 0.0 0.0 0.0 0.0 0.0
0.0 0.0 0.0 0.0 0.0 0.0 0.0 0.0
0.0 0.0 0.0 0.0 0.0 0.0 0.0 0.0

autoencoders.0.encoder.cells.0.lstm.bias_hh f4 [32]
00000000: 0000 0000 0000 0000 0000 0000 0000 0000
00000010: 0000 0000 0000 0000 0000 0000 0000 0000
00000020: 0000 0000 0000 0000 0000 0000 0000 0000
00000030: 0000 0000 0000 0000 0000 0000 0000 0000
00000040: 0000 0000 0000 0000 0000 0000 0000 0000
00000050: 0000 0000 0000 0000 0000 0000 0000 0000
00000060: 0000 0000 0000 0000 0000 0000 0000 0000
00000070: 0000 0000 0000 0000 0000 0000 0000 0000
0.0 0.0 0.0 0.0 0.0 0.0 0.0 0.0
0.0 0.0 0.0 0.0 0.0 0.0 0.0 0.0
0.0 0.0 0.0 0.0 0.0 0.0 0.0 0.0
0.0 0.0 0.0 0.0 0.0 0.0 0.0 0.0

autoencoders.0.decoder.cells.0.weight_h_2 f4 [8, 8]
00000000: 30f8 1bbe 9ca5 893e 6581 663f bd6c 23bd
00000010: 6b2a 873d 5771 25be f2fa c73c edf7 3fbf
00000020: 461f 503e 3733 56be 610c 153f 8a07 a03e
00000030: 786f 1d3f 1337 143f 700a 843e 15b9 92bd
00000040: 5c06 80bd c96a 1f3f 1a17 463f d35e 683f
00000050: a1da 0ebf db4a 56be e928 d43d bf51 01bf
00000060: 6ac7 a33d df84 e7be 5ff0 d4be 86aa a3be
00000070: fbe9 2d3e 791a 2a3f c5bd 31be 600e 2cbf
00000080: 6393 ad3e bbbd 22be 577b 083f 9f10 3a3f
00000090: 599a a63e 9b48 c13e 9385 13bf a1d8 bf3e
000000a0: de00 1ebf 3bda 843e 8fd2 06be 55d5 4d3e
000000b0: 3924 f4be 8245 033f 803f e33d 5159 edbe
000000c0: 8ee8 833f 3b06 d7be 9702 37bf 7dbd 66be
000000d0: 2df5 93bf a996 ebbe 46e5 c23e d4b8 003e
000000e0: 4300 31bf 1684 57bc 2659 15be 0040 b5bd
000000f0: 6268 e6be 538a ed3e 12ba fabe 7d3f 30bd
-0.15231395 0.26884162 0.9004119 -0.039898623 0.065998875 -0.16156517 0.024411652 -0.7498768
0.2032443 -0.20917974 0.58222014 0.31255752 0.6149821 0.57896537 0.25789213 -0.07164208
-0.06251213 0.62272316 0.77379 0.9076969 -0.5580235 -0.20926993 0.103593655 -0.5051536
0.079970196 -0.4521856 -0.4158964 -0.31966037 0.16983788 0.66446644 -0.17357548 -0.67209435
0.3390151 -0.15892689 0.533132 0.7268161 0.32539633 0.37750706 -0.57625693 0.37469962
-0.61720073 0.25947747 -0.13166259 0.20100911 -0.47683886 0.51277936 0.11096096 -0.46357206
1.0305345 -0.4199694 -0.71488327 -0.22533222 -1.1559197 -0.46013382 0.38065547 0.12570506
-0.69141024 -0.01315405 -0.14584789 -0.08850098 -0.45001513 0.46394596 -0.48970085 -0.043029297

autoencoders.0.decoder.cells.0.bias_h_2 f4 [8]
00000000: 09be 9abc 06fc 243c e145 5fbc 11fc 1b3c
00000010: 75da 18bc 7089 2b3c b4d1 283c 6d02 2f3c
-0.018889444 0.010069853 -0.0136275 0.0095205465 -0.009329428 0.010469779 0.010303903 0.010681731

autoencoders.0.decoder.cells.0.lstm.weight_ih f4 [32, 1]
00000000: 745d 5abf 9299 383f 5a15 afbf 8748 a73c
00000010: 4435 c2bf efac 86bf a176 acbe 3eb3 a63f
00000020: 44a3 28bf 9cb4 d8bf 4551 20c0 4aba 4ebf
00000030: e24e 5ebf a30d 97bf 30ae 8dbf 84d1 32bf
00000040: 1427 e6be 110f 643f 26c9 acbf 4639 72bf
00000050: d3f2 b7bf 97c4 c13f a19b 59bf fd64 f8be
00000060: baa2 e13f 5c2f c53f d9eb 08c0 ac6d 4abf
00000070: 07b0 843e 9234 f3bd a3b5 723c 5dfb 2a3e
-0.8529885 0.7210933 -1.3678391 0.020420326 -1.5172505 -1.0521525 -0.33684257 1.302345
-0.65874124 -1.6930118 -2.5049603 -0.80753005 -0.86839116 -1.1801037 -1.1068783 -0.69850945
-0.4495169 0.8908549 -1.3498886 -0.9461864 -1.4370979 1.513812 -0.85003096 -0.48514548
1.7627785 1.5405078 -2.139395 -0.79073596 0.25915548 -0.11875261 0.014813813 0.1669745

autoencoders.0.decoder.cells.0.lstm.weight_hh f4 [32, 8]
00000000: 8b55 b23e 1df2 8c3d b6da 76be 2dc3 c0bd
00000010: a770 a23e b4e0 903e d0bc dfbe 76ec dabe
00000020: 1c0d 903f 47ad 8cbb 0826 543f 49e3 3cbf
00000030: b2e2 14be 70ca 5abe 3fb7 d53c 28ca 903e
00000040: 1ed6 b83f 46c9 903e 8301 a5be 7ea0 383f
00000050: 1355 f0be 64f0 313d bd95 02bf c41b 36be
00000060: 102e 053e 0aa4 2bbf 54d3 633e d4c3 323f
00000070: 8f9c 9ebe 4bab 433f 7e1f 0f3f 29b7 6abe
00000080: 8921 64be 7984 8d3e 8d8f 70bf 64d2 9b3d
00000090: 9e4e 7dbe d243 04be 572d e03d 564b 9bbe
000000a0: 87d5 49bf 5393 8a3e 9960 fc3e bc03 7dbf
000000b0: d746 e5be dbe1 903d 7777 53bf feb1 0b3f
000000c0: 496c 34bf 6d2c 853e 10ad 5e3e a96b 6fbf
000000d0: f52c 053e f3e9 b73e ab6c 5cbe b923 583f
000000e0: c7d5 dc3e b86f c8be b038 b03e 1cc3 32be
000000f0: 1f28 dd3d f652 6d3e 5409 883f e700 a53f
00000100: 3e76 15bf b96c 013e 657c 8e3f d082 e13e
00000110: b593 c33e a67c 603c 836c 30be 441b 813d
00000120: d550 b0bd 0e04 58bd 6269 9b3e b7be 0dbf
00000130: 4c0a da3e 0cd7 593f 74cd 55bf 7573 02bc
00000140: 574b b5bd 819d 41bf 40a3 1cbf d93e 083f
00000150: 6dc4 5f3f f42e c63d 367e 6bbf d4a0 b3bd
00000160: 82c8 d8bd 91de b83e 4df1 863e 1320 61bf
00000170: c50c 403d f906 78be f1c8 93be 86c8 fa3e
00000180: e9d6 bdbd 647a edbd c061 11bf aba5 f4be
00000190: b8d3 8dbd 2d60 d23e 7597 0d3e b73c a63d
000001a0: e946 ca3e e0d4 ffbd c1cb 0c3e 3ac8 b2be
000001b0: e6a3 ec3d a8f3 64bd a19e f5be 0bdf 09bf
000001c0: 84ea ac3d 4206 803b 7b3b 45bf 5bd9 01bf
000001d0: e51e 85be f2c8 02bf bd4b 0dbf e7e9 a6be
000001e0: 04a9 39be 85b6 af3f cbc5 443f 8512 46bf
000001f0: 3a6b fbbe 4583 34be 6740 0d3f 3db1 15bf
00000200: f56d b43e a41f fdbe 5308 16bf beed 103e
00000210: da78 6abe b0ab 383e cb51 e7bc 6f0a 933b
00000220: 1269 f3bc fd65 213f 844c f0bd 9b18 15be
00000230: a599 5f3f 1092 be3d c3fa 2ebf 832d 493f
00000240: efa2 fabd 6ecf ecbe 17ae debe 118f df3e
00000250: 14ad 593f b955 45be 3f24 d03b 6158 ccbe
00000260: 062c 013f d4fb 69bd 60b2 50bd 0ce9 ce3e
00000270: 7e7f 0a3f 4272 273e 3f06 1f3b 6203 95bf
00000280: 171b 8f3e 05ef 7fbe f31c da3d 576a 7dbf
00000290: 2957 b23d 0935 babe 6c41 1f3f fe00 823e
000002a0: bc6a 21bf 2bae 633e c1e1 17bf 9027 07bf
000002b0: abd5 b5be ac81 213d bbd7 9d3e 4b15 db3e
000002c0: 578a 83be b7ae d63e 9b28 b7bd 1b46 cc3d
000002d0: 63ae 873f 6f7e 12be c10e d73e f088 aabe
000002e0: c873 d43d 596b c0be cab8 503f 11b2 473f
000002f0: 9f42 8ebf 041e 6d3f 2e09 353e bea4 763e
00000300: 65ba b83d 14a5 cd3c 7b18 003f 13f5 0dbd
00000310: 3df5 063d 9a4c c33e 61be 2e3e 3e63 75bf
00000320: 9b0c d93e 8827 8d3d 34cd 113f b568 5cbd
00000330: 7257 813e 7cfe d03d de73 ad3b 83c5 553e
00000340: 2e62 253f c10b 3d3f d2b8 4d3f d94d 81be
00000350: d1d6 0ebf c2f5 41bf 2bb5 aabe be5d 45bf
00000360: 7965 4ebe e4eb 033f d5fa e63e 28b7 e0be
00000370: bf1e 473e a028 de3e 239e 75be 58a7 293e
00000380: fc88 22bf b488 9a3e bb10 2bbe 887e 4c3f
00000390: 465f 0e3f 3738 23bf 791d 15be 7416 b1be
000003a0: 11c7 433e f1ba c13e b4cf 30bf 307b 47bf
000003b0: edfc f73d 519a e7be dea9 a53c ff0d 033f
000003c0: dae6 b6be 5c23 a2bd 0bb9 3b3f db04 ffbe
000003d0: baed 023f d225 9fbe 68ef 26bf d747 5bbe
000003e0: 796d b9be a413 333f 92f3 c73e a8a5 ccbd
000003f0: 114c 303e 8390 1f3d fd2d c23e 7198 0dbf
0.3483089 0.06882117 -0.24106869 -0.09412227 0.31726572 0.28296435 -0.4369874 -0.4275853
1.1254001 -0.004293117 0.8287053 -0.7378431 -0.14539602 -0.21366286 0.026088355 0.28279233
1.4440343 0.2827856 -0.32227716 0.7211989 -0.46939906 0.043442145 -0.5100973 -0.17784029
0.13005853 -0.6704718 0.22248584 0.6983006 -0.3097882 0.7643325 0.5590743 -0.22921433
-0.22278418 0.2764013 -0.9396904 0.07608488 -0.24737021 -0.12916496 0.10946148 -0.30330914
-0.7884144 0.27065524 0.49292448 -0.98833823 -0.4478061 0.070743285 -0.82604164 0.5456847
-0.7047773 0.26010457 0.21745706 -0.9352365 0.13005431 0.35920677 -0.21525829 0.8442951
0.4313185 -0.39147735 0.3441825 -0.17457241 0.10798668 0.23176178 1.0627847 1.28909
-0.5838355 0.1263913 1.1131712 0.44045115 0.3819863 0.0137015935 -0.17228894 0.06304029
-0.086091675 -0.05273824 0.30353838 -0.5536913 0.4258598 0.8509376 -0.8351662 -0.007962097
-0.088522606 -0.75630957 -0.611866 0.532209 0.87409097 0.09676924 -0.9198946 -0.0877091
-0.10585119 0.36107305 0.26355973 -0.87939566 0.046887178 -0.2422141 -0.28864244 0.48981112
-0.092695065 -0.1159561 -0.5678978 -0.47782645 -0.06925148 0.41089 0.13827308 0.08117049
0.39507225 -0.124917746 0.13749601 -0.34918386 0.11554699 -0.05589643 -0.47972587 -0.5385596
0.08443168 0.003906996 -0.77043885 -0.50722283 -0.26000133 -0.5108787 -0.5519369 -0.32600328
-0.1813088 1.3727576 0.7686431 -0.7737201 -0.49105245 -0.176282 0.55176395 -0.5847357
0.3524014 -0.49438202 -0.5860645 0.14153191 -0.22897664 0.18034244 -0.028237244 0.0044873278
-0.029713187 0.63046247 -0.11733344 -0.14560167 0.8734382 0.09305203 -0.6835138 0.7858507
-0.12238108 -0.46252006 -0.43492195 0.43663839 0.8502972 -0.19270982 0.006351977 -0.39911178
0.504578 -0.057124928 -0.05095136 0.40412176 0.5410079 0.1635218 0.0024265198 -1.1641657
0.27950355 -0.24993522 0.10650053 -0.98990387 0.08708031 -0.36368588 0.622092 0.25391382
-0.6305349 0.22234409 -0.5932885 -0.5279474 -0.35514578 0.039430305 0.30828652 0.42789683
-0.25691482 0.41930172 -0.08943292 0.09974309 1.0600094 -0.14306043 0.42003444 -0.333076
0.10373646 -0.375819 0.81531966 0.7800608 -1.1114081 0.92623925 0.17679283 0.24086282
0.09019927 0.02510313 0.50037354 -0.03465755 0.03294872 0.3814438 0.17064811 -0.95854557
0.4239243 0.068923056 0.5695374 -0.053810794 0.25262028 0.10204789 0.0052933535 0.20876126
0.64602935 0.7384606 0.8036014 -0.25254706 -0.55796534 -0.7576562 -0.33341345 -0.77096164
-0.20155896 0.51531816 0.45113245 -0.43889737 0.19445322 0.4339037 -0.23986106 0.16567743
-0.6349027 0.3018242 -0.16705601 0.7988057 0.55614126 -0.6375765 -0.14562024 -0.34587443
0.19118907 0.37837937 -0.6906693 -0.77922344 0.12108789 -0.45234922 0.0202226 0.5119323
-0.35723 -0.079169005 0.7332923 -0.49808392 0.5114399 -0.31083542 -0.65209055 -0.21414123
-0.36216334 0.69951844 0.39053017 -0.09992534 0.17216517 0.038956176 0.3792571 -0.5531073

autoencoders.0.decoder.cells.0.lstm.bias_ih f4 [32]
00000000: b3cb acbb dd26 203c 526a bcbb 9d24 993b
00000010: 34cc a83b 49b3 183c fcba a3bb dea3 9cbb
00000020: 5b6e b93b d591 163c f2e1 b2bb 3d74 7d3b
00000030: da86 a9bb 0180 143c 5688 d03a 8e05 aebb
00000040: 2b25 24bc d728 263c 383b b23b ff14 1d3c
00000050: 767a c23b edf4 203c 2d9e 213c 3c2e 293c
00000060: 5b3f b9bb 9565 133c 718c aebb c6ec a53b
00000070: 71ff b03b 21df 203c 12c9 d8bb 7234 97bb
-0.0052733063 0.009774891 -0.005749979 0.004673554 0.005151296 0.009320089 -0.0049966555 -0.0047802767
0.0056589074 0.0091900425 -0.0054590637 0.003867402 -0.0051735463 0.009063722 0.0015909772 -0.0053107208
-0.010018627 0.010141573 0.0054391883 0.009587525 0.0059350086 0.00982402 0.009864372 0.010325965
-0.0056533045 0.008996387 -0.0053268005 0.005063626 0.0054015447 0.009818823 -0.0066157663 -0.0046144063

autoencoders.0.decoder.cells.0.lstm.bias_hh f4 [32]
00000000: b3cb acbb dd26 203c 526a bcbb 9d24 993b
00000010: 34cc a83b 49b3 183c fcba a3bb dea3 9cbb
00000020: 5b6e b93b d591 163c f2e1 b2bb 3d74 7d3b
00000030: da86 a9bb 0180 143c 5688 d03a 8e05 aebb
00000040: 2b25 24bc d728 263c 383b b23b ff14 1d3c
00000050: 767a c23b edf4 203c 2d9e 213c 3c2e 293c
00000060: 5b3f b9bb 9565 133c 718c aebb c6ec a53b
00000070: 71ff b03b 21df 203c 12c9 d8bb 7234 97bb
-0.0052733063 0.009774891 -0.005749979 0.004673554 0.005151296 0.009320089 -0.0049966555 -0.0047802767
0.0056589074 0.0091900425 -0.0054590637 0.003867402 -0.0051735463 0.009063722 0.0015909772 -0.0053107208
-0.010018627 0.010141573 0.0054391883 0.009587525 0.0059350086 0.00982402 0.009864372 0.010325965
-0.0056533045 0.008996387 -0.0053268005 0.005063626 0.0054015447 0.009818823 -0.0066157663 -0.0046144063

autoencoders.0.decoder.output_layer.weight f4 [1, 8]
00000000: c644 e5bd 7a40 513e 74cc ebbd dfcc 743d
00000010: 396e 54bd d31f f93d 3be6 813e 4590 043e
-0.11194758 0.20434752 -0.11513606 0.059765693 -0.05186293 0.12164273 0.25370964 0.1294566
