results/H5_Bi-directional/ec2_cpu_utilization_825cc2/ensemble_autoencoder_weights.pth (torch, 174366 bytes, 190 tensors)

autoencoders.0.encoder.encoder.forward_cells.0.weight_h_2 f4 [8, 8]
000000 d9 ee c7 37 48 1c 42 39 41 39 02 39 0d ae 8b b8
       2.383387e-05 0.00018511817 0.00012419095 -6.660456e-05
000010 92 70 0a 39 fd 1b 8f 38 b8 67 95 b8 03 5d 52 b6
       0.00013202641 6.8239846e-05 -7.124193e-05 -3.1346578e-06
000020 02 24 8a b9 f2 29 90 39 f6 54 5e b9 2a c2 2b 39
       -0.0002634824 0.00027497072 -0.0002120322 0.00016380163
000030 f4 3c 45 b9 83 9d 8b 38 10 86 12 39 dc 93 f6 b8
       -0.00018810091 6.657375e-05 0.00013973587 -0.00011757735
000040 bc 0e a9 b8 2f a4 82 b8 a1 64 3e b9 d2 31 9f b8
       -8.0612925e-05 -6.2294646e-05 -0.00018157299 -7.5909906e-05
000050 65 79 95 39 ef 8f 58 39 b9 84 0a b9 8d ce d0 38
       0.0002850994 0.00020652985 -0.00013210149 9.956686e-05
000060 43 bc 1d 38 5a 4b b5 38 e9 60 53 b8 61 a3 b6 38
       3.760705e-05 8.644788e-05 -5.0396575e-05 8.708868e-05
000070 37 24 bc b8 83 dc e8 b8 56 1e 94 b8 bf 88 0d b7
       -8.971284e-05 -0.000111036956 -7.0628405e-05 -8.436094e-06
000080 f0 5d 94 b9 d7 27 48 37 b9 5a 82 39 15 dd 1b 39
       -0.0002829875 1.1930205e-05 0.00024863126 0.00014864311
000090 92 d9 0d 38 51 3f 97 39 51 ce 41 b9 53 e6 5c 39
       3.3819648e-05 0.0002884814 -0.00018482773 0.00021066637
0000a0 80 0e 6b b8 a6 03 2d b9 9b 0e 1e 39 8d 5a 6d b8
       -5.604187e-05 -0.00016499925 0.00015073495 -5.6589535e-05
0000b0 34 b9 8a 38 20 e3 93 b8 50 19 c4 b8 45 51 14 b8
       6.6148496e-05 -7.0518116e-05 -9.350723e-05 -3.5361638e-05
0000c0 eb fa e3 b7 9b bf 57 b9 27 55 8b b8 e7 2d 8f b8
       -2.7177352e-05 -0.00020575376 -6.643897e-05 -6.827321e-05
0000d0 e9 97 13 39 97 2d e0 b8 fa 12 ff b8 51 51 11 b9
       0.00014075603 -0.00010689644 -0.00012162882 -0.0001385857
0000e0 97 c8 7d b8 62 eb 22 b8 79 bf e6 37 c0 3a 90 38
       -6.0506714e-05 -3.8843027e-05 2.7507298e-05 6.877398e-05
0000f0 4b ef 39 b9 71 9f 74 39 d1 a4 d2 39 5e b2 f0 38
       -0.00017732118 0.0002332905 0.0004017712 0.00011477315

autoencoders.0.encoder.encoder.forward_cells.0.bias_h_2 f4 [8]
000000 00 00 00 00 00 00 00 00 00 00 00 00 00 00 00 00
       0.0 0.0 0.0 0.0
000010 00 00 00 00 00 00 00 00 00 00 00 00 00 00 00 00
       0.0 0.0 0.0 0.0

autoencoders.0.encoder.encoder.forward_cells.0.lstm.weight_ih f4 [32, 1]
000000 43 3c 98 39 a2 70 26 39 1a 7a bd b9 cc 46 a3 38
       0.00029036598 0.00015872953 -0.00036139862 7.7856326e-05
000010 30 17 9b 38 7c 6b 3d 38 9e a6 31 39 58 3a ad b5
       7.395295e-05 4.5161214e-05 0.00016942105 -1.2906485e-06
000020 d2 92 0e b9 97 7f bc 38 59 ab 29 b9 7a c4 15 39
       -0.0001359687 8.988304e-05 -0.00016180928 0.0001428294
000030 ff 72 f7 39 6c ce cc b8 61 43 7b 38 79 5c 90 37
       0.0004719719 -9.765927e-05 5.9905815e-05 1.7209199e-05
000040 b5 c2 04 b8 56 0b 1a b9 9a ff 6d 38 cd ea 4a b9
       -3.1652587e-05 -0.00014690807 5.674325e-05 -0.00019351691
000050 41 68 a3 39 5c af 24 b9 87 8d 5b b9 f0 93 13 39
       0.00031167458 -0.00015705585 -0.0002093819 0.00014074123
000060 68 fc 9b b8 0c 62 25 37 85 99 5e b9 db a8 3b b9
       -7.43799e-05 9.857595e-06 -0.0002122876 -0.00017896613
000070 e2 c4 06 b8 0c 50 1b b9 af 87 a0 38 96 17 60 38
       -3.213145e-05 -0.00014811772 7.6546676e-05 5.3427728e-05

autoencoders.0.encoder.encoder.forward_cells.0.lstm.weight_hh f4 [32, 8]
000000 99 9c 79 39 f7 a2 bd 38 e3 42 06 b9 65 f2 0d 39
       0.00023804828 9.042577e-05 -0.00012804153 0.00013537107
000010 d4 79 89 39 c1 9d ab 37 29 d6 0e b8 4c 21 03 38
       0.00026221445 2.0458248e-05 -3.405489e-05 3.1263844e-05
000020 65 6f fc b8 5d 01 d4 b8 c4 80 b4 b8 78 64 26 39
       -0.00012037045 -0.00010109202 -8.607053e-05 0.00015868421
000030 3e 63 ee b9 0d a2 84 b8 a1 b7 23 b8 b2 f6 0c b9
       -0.0004546884 -6.324435e-05 -3.9033246e-05 -0.00013443342
000040 ab 18 1c b4 bf c5 53 b8 c9 6d 92 b8 cb 61 c4 b9
       -1.4537606e-07 -5.0490486e-05 -6.9822716e-05 -0.00037456895
000050 92 69 02 b9 8d 78 e4 b8 3e 1f da b7 db 3f d2 39
       -0.00012437094 -0.000108943415 -2.6002173e-05 0.00040101897
000060 ea e2 ab 38 64 5b 07 39 8d 90 a8 b9 10 a6 14 b8
       8.1961814e-05 0.00012908649 -0.00032151156 -3.5440607e-05
000070 f9 0f 45 b8 a9 ac 1f b9 be cd d1 b8 d6 d7 3b b9
       -4.6983336e-05 -0.00015227743 -0.00010004219 -0.00017914115
000080 a7 a8 cc 37 7a 3d 41 b9 b4 42 20 39 49 e6 31 b9
       2.439723e-05 -0.00018428816 0.00015283638 -0.00016965823
000090 81 6a 3b b8 be 87 d6 b6 70 82 20 b9 18 3d 02 3a
       -4.4683464e-05 -6.3934995e-06 -0.00015307381 0.000496821
0000a0 1a bb 23 b9 fd bc 98 38 16 80 25 b9 3d db 96 39
       -0.00015614592 7.2831266e-05 -0.00015783342 0.00028773575
0000b0 4c 79 a1 39 f4 47 8a 39 50 ab be b8 59 1c fb 38
       0.00030798686 0.0002637502 -9.0918154e-05 0.00011973893
0000c0 61 3d 43 39 bf 16 09 39 af 1a 6a b9 61 3f ab 39
       0.00018619515 0.00013073812 -0.0002232592 0.00032662883
0000d0 5f dd dc 39 29 5b 16 b9 4d 80 52 38 a7 f0 c7 b8
       0.00042126604 -0.00014339075 5.018739e-05 -9.5338844e-05
0000e0 0e 08 10 b9 ba 42 88 39 3b d2 7e b9 75 ea f0 b8
       -0.00013735911 0.00025989657 -0.00024301645 -0.00011487763
0000f0 3f bd fa b7 8b 20 ac b6 0b 24 73 37 cd 9c 61 b9
       -2.9890447e-05 -5.129788e-06 1.4492321e-05 -0.00021516085
000100 3f 35 cf b9 a9 76 c7 37 32 26 3b 39 ef 64 1b b9
       -0.00039521788 2.3777904e-05 0.00017847939 -0.00014819553
000110 3d 84 05 39 dc d1 35 39 a4 c8 42 39 01 f4 83 b8
       0.00012733131 0.00017339684 0.00018576026 -6.292016e-05
000120 d6 96 0a 39 ad 52 d2 b7 7c 43 30 b7 4d ec 81 b8
       0.00013216896 -2.507245e-05 -1.050613e-05 -6.195214e-05
000130 a3 4b 74 b9 95 cc 9a b8 c0 5a 2a 38 8b 4b ec b9
       -0.0002329783 -7.3813986e-05 4.0615676e-05 -0.00045069712
000140 1d 9b 33 b9 36 2f 11 38 cc 16 7d 39 b8 48 43 b7
       -0.00017128554 3.4614663e-05 0.00024136453 -1.1639837e-05
000150 0b 6f 48 38 93 77 eb 38 2b b9 4a b9 0d 19 23 39
       4.7787133e-05 0.00011227946 -0.00019333202 0.00015554224
000160 01 dd 95 39 1e 5f f9 b7 24 04 b5 b8 53 2a c0 b8
       0.00028584155 -2.9727405e-05 -8.631524e-05 -9.163157e-05
000170 c9 6e 76 b9 6f e0 7a b9 88 c7 40 39 83 a3 ea b9
       -0.00023501659 -0.00023925466 0.00018384878 -0.00044753784
000180 56 38 f5 36 4f 2b 85 39 91 04 62 39 ac 8f 91 b8
       7.3081274e-06 0.00025400004 0.0002155474 -6.9409e-05
000190 fb bd 92 b7 4c 17 8c 39 c4 54 74 38 97 ea 3f 39
       -1.7493023e-05 0.00026720238 5.8253077e-05 0.00018302571
0001a0 8d ed e9 38 31 63 e9 37 29 bd 83 39 80 8e c0 b9
       0.00011154553 2.7821954e-05 0.00025127202 -0.00036727265
0001b0 56 cc a6 36 f0 a4 c7 b7 14 62 c3 b7 5c ac f8 38
       4.9709734e-06 -2.3799454e-05 -2.3291483e-05 0.00011857666
0001c0 96 9e a9 b9 e2 1e 1d 38 15 a3 bb b8 de ae 15 39
       -0.00032352348 3.746048e-05 -8.947231e-05 0.0001427489
0001d0 f4 68 89 38 bd 47 07 b9 dd 1c 64 39 e0 e9 68 39
       6.552218e-05 -0.00012901328 0.00021754527 0.0002221237
0001e0 90 b6 bc b5 72 1f 07 39 48 96 1f b7 12 9c b6 b8
       -1.4060224e-06 0.00012886318 -9.512129e-06 -8.707507e-05
0001f0 25 13 e8 b8 47 a3 63 b8 12 cb 0e 39 cd 98 a3 b9
       -0.00011066188 -5.427308e-05 0.00013617825 -0.00031203628
000200 82 b8 75 39 39 1a 90 37 e3 36 e8 39 ea c3 42 b8
       0.00023433755 1.7178349e-05 0.00044291382 -4.6435664e-05
000210 fc ea cf b8 0c 68 64 38 67 73 65 38 04 39 58 39
       -9.9142984e-05 5.4456337e-05 5.470533e-05 0.00020620605
000220 9d 7a 50 38 5d a6 8b b9 74 ae 10 39 03 54 07 b9
       4.9705257e-05 -0.00026636096 0.00013797899 -0.000129059
000230 f2 bf ff 39 e6 9d a8 38 12 22 96 39 87 db 5b b6
       0.000487804 8.040275e-05 0.00028635614 -3.2761325e-06
000240 3d 3d 0c b7 22 85 3b b9 1f 16 2f 37 6e 74 72 b7
       -8.358908e-06 -0.00017883306 1.0435963e-05 -1.4451432e-05
000250 b3 02 5c b5 16 35 a6 39 47 46 84 b9 22 a1 b9 b8
       -8.1960314e-07 0.0003170154 -0.00025229363 -8.851501e-05
000260 72 bf d3 b8 f6 29 0d b9 78 fb c6 38 77 80 2a 39
       -0.000100969235 -0.0001346244 9.4882154e-05 0.0001626032
000270 c6 bb 83 b7 20 b5 1c 38 34 31 14 b8 40 b0 ff b8
       -1.5703856e-05 3.7361984e-05 -3.5331774e-05 -0.00012192177
000280 c9 ea 81 b9 54 c7 90 b8 63 56 48 39 b0 b5 f6 b7
       -0.00024779726 -6.903583e-05 0.00019105668 -2.941009e-05
000290 18 e2 13 b7 7a 6e 10 39 12 27 37 39 e1 e4 c6 38
       -8.814524e-06 0.00013774066 0.00017466795 9.484008e-05
0002a0 15 74 5e 39 46 9a 15 b9 5a a2 7b 38 1d 37 79 38
       0.00021214814 -0.00014267219 5.9994265e-05 5.9417554e-05
0002b0 99 cc 33 b7 45 55 1d b8 08 1f f7 38 9d 50 0d 39
       -1.0716868e-05 -3.751113e-05 0.00011783658 0.00013476839
0002c0 5a 25 83 b9 ac aa 81 b8 75 2f 40 b7 76 af 94 b7
       -0.00025014096 -6.1829895e-05 -1.1455141e-05 -1.772468e-05
0002d0 58 40 89 b8 e0 aa c2 37 a9 47 21 b7 f1 c8 63 b8
       -6.544654e-05 2.3206172e-05 -9.6130325e-06 -5.430816e-05
0002e0 20 15 7e 37 c5 63 0d b9 0b 95 88 b8 a1 09 31 b9
       1.5144498e-05 -0.00013483975 -6.512747e-05 -0.00016883622
0002f0 6d a3 86 b9 99 31 6d b9 4f e7 72 b9 2c 3d 8f b9
       -0.00025680233 -0.00022620558 -0.00023165088 -0.00027320662
000300 42 1a a3 b9 c4 48 a8 b8 f2 40 25 b9 c1 24 fc b4
       -0.00031109346 -8.024418e-05 -0.0001575982 -4.69654e-07
000310 57 6d 7c b7 47 3e 07 39 fc af 38 36 0e 51 33 38
       -1.5045828e-05 0.00012897803 2.7520573e-06 4.2752414e-05
000320 84 57 0d 39 91 9a 9c b8 68 b9 52 39 eb 1a 6d 36
       0.0001347941 -7.46745e-05 0.0002009623 3.533142e-06
000330 5e 31 4d b9 c2 fb 83 36 ed df 33 b7 37 4f 86 37
       -0.00019568714 3.9334127e-06 -1.0721368e-05 1.6010932e-05
000340 94 9a 19 39 bb c3 d2 b8 d5 2c 3b 39 4d f1 0e b8
       0.00014648802 -0.00010050038 0.00017850411 -3.4080167e-05
000350 e4 20 e8 b7 c3 cc 8a 38 ab 26 8a b8 2f 26 13 39
       -2.7671871e-05 6.6184926e-05 -6.587555e-05 0.00014033237
000360 23 09 4d b9 74 25 06 39 87 2d 3d 39 bf ba c2 37
       -0.00019553727 0.00012793188 0.00018041405 2.3213563e-05
000370 b2 b4 4c b9 e6 3b 87 38 51 5c c9 b7 af c2 6b b7
       -0.0001952227 6.4484586e-05 -2.4004055e-05 -1.405242e-05
000380 be 0c 32 b8 81 af c1 38 ff 6c 76 b8 5a 85 52 39
       -4.2450374e-05 9.235647e-05 -5.875248e-05 0.00020076838
000390 f8 d5 39 b8 c4 3b cd b8 81 45 ec 38 74 bb 04 39
       -4.430671e-05 -9.786294e-05 0.00011266303 0.00012658333
0003a0 b4 44 14 39 3f bf 80 b8 f7 1e 0b ba e8 02 08 b9
       0.00014139974 -6.139138e-05 -0.00053070433 -0.00012971053
0003b0 fd 1e 8f 38 a5 4e 4f 37 76 6a 15 b9 1f 85 41 38
       6.8245434e-05 1.2356472e-05 -0.00014249407 4.6138764e-05
0003c0 1b a7 a4 38 92 a2 2f b8 66 0b a4 b9 8d f3 8a b9
       7.851255e-05 -4.1874657e-05 -0.0003128901 -0.0002650287
0003d0 d1 b6 19 39 3f e6 0e 37 b0 a8 d6 b8 5b 4d 22 39
       0.00014659321 8.517468e-06 -0.00010235736 0.00015478341
0003e0 87 4d 48 b8 5e b3 8f 39 88 d8 aa 39 59 52 94 38
       -4.775592e-05 0.00027408724 0.00032586255 7.0725284e-05
0003f0 73 50 ea 38 0a fc df b9 01 b0 f6 b9 8b 83 8f 39
       0.00011172974 -0.00042721658 -0.0004705191 0.00027373093

autoencoders.0.encoder.encoder.forward_cells.0.lstm.bias_ih f4 [32]
000000 00 00 00 00 00 00 00 00 00 00 00 00 00 00 00 00
       0.0 0.0 0.0 0.0
000010 00 00 00 00 00 00 00 00 00 00 00 00 00 00 00 00
       0.0 0.0 0.0 0.0
000020 00 00 00 00 00 00 00 00 00 00 00 00 00 00 00 00
       0.0 0.0 0.0 0.0
000030 00 00 00 00 00 00 00 00 00 00 00 00 00 00 00 00
       0.0 0.0 0.0 0.0
000040 00 00 00 00 00 00 00 00 00 00 00 00 00 00 00 00
       0.0 0.0 0.0 0.0
000050 00 00 00 00 00 00 00 00 00 00 00 00 00 00 00 00
       0.0 0.0 0.0 0.0
000060 00 00 00 00 00 00 00 00 00 00 00 00 00 00 00 00
       0.0 0.0 0.0 0.0
000070 00 00 00 00 00 00 00 00 00 00 00 00 00 00 00 00
       0.0 0.0 0.0 0.0

autoencoders.0.encoder.encoder.forward_cells.0.lstm.bias_hh f4 [32]
000000 00 00 00 00 00 00 00 00 00 00 00 00 00 00 00 00
       0.0 0.0 0.0 0.0
000010 00 00 00 00 00 00 00 00 00 00 00 00 00 00 00 00
       0.0 0.0 0.0 0.0
000020 00 00 00 00 00 00 00 00 00 00 00 00 00 00 00 00
       0.0 0.0 0.0 0.0
000030 00 00 00 00 00 00 00 00 00 00 00 00 00 00 00 00
       0.0 0.0 0.0 0.0
000040 00 00 00 00 00 00 00 00 00 00 00 00 00 00 00 00
       0.0 0.0 0.0 0.0
000050 00 00 00 00 00 00 00 00 00 00 00 00 00 00 00 00
       0.0 0.0 0.0 0.0
000060 00 00 00 00 00 00 00 00 00 00 00 00 00 00 00 00
       0.0 0.0 0.0 0.0
000070 00 00 00 00 00 00 00 00 00 00 00 00 00 00 00 00
       0.0 0.0 0.0 0.0

autoencoders.0.encoder.encoder.backward_cells.0.weight_h_2 f4 [8, 8]
000000 4f 4a 8e b8 aa d6 00 b9 07 05 04 39 4c df 1a 35
       -6.784929e-05 -0.00012287 0.00012590374 5.769441e-07
000010 1a ad cf 36 76 6f 70 39 4f a5 2c 38 9b 18 5b 39
       6.1892324e-06 0.00022929706 4.116195e-05 0.00020894634
000020 07 c8 0a 38 d8 20 54 39 5d cf a0 38 b0 65 87 37
       3.3088054e-05 0.00020230131 7.668019e-05 1.6140606e-05
000030 0c 4e 0e b9 f4 03 67 b8 da 8c 24 b9 e4 6b 94 b9
       -0.0001357125 -5.5078373e-05 -0.0001569273 -0.00028309145
000040 04 b0 1f 39 b9 28 be b8 f0 53 1c b9 87 3a 92 b8
       0.00015228993 -9.067491e-05 -0.00014908588 -6.972724e-05
000050 94 ec 01 39 b9 0c be 39 be f8 0c b9 f7 c7 67 38
       0.00012390531 0.00036249103 -0.00013444104 5.5260924e-05
000060 d4 ad 90 b8 e2 03 ee 39 8b 29 9f b8 1b 42 ef b4
       -6.898833e-05 0.0004539779 -7.589449e-05 -4.4565317e-07
000070 81 f6 2a b9 06 b3 fe 38 89 a5 47 b9 f1 98 13 38
       -0.00016304293 0.000121450095 -0.00019039786 3.518997e-05
000080 e6 20 ae 38 93 f9 af 39 e6 db 45 38 5f a5 df b6
       8.3030944e-05 0.00033564548 4.7173256e-05 -6.6651696e-06
000090 91 55 9a b6 df a1 9b b9 83 72 d0 b7 0f a2 33 b8
       -4.599519e-06 -0.00029684507 -2.4848856e-05 -4.2827854e-05
0000a0 49 5d c9 38 1d a7 34 b8 35 a2 76 39 44 4b 88 39
       9.6018026e-05 -4.307098e-05 0.00023520815 0.0002599602
0000b0 37 1a 40 b9 07 37 3b 39 68 3a 82 b9 26 00 a7 37
       -0.00018320313 0.00017854209 -0.00024839048 1.990802e-05
0000c0 e5 70 35 39 53 b2 cc b8 dd 89 7b 39 df e5 66 b7
       0.00017303562 -9.7606935e-05 0.00023988583 -1.3762589e-05
0000d0 84 06 10 b9 3a 8b 1f 39 1e 1b 22 39 2d ad 1a 39
       -0.00013735337 0.00015215288 0.00015459626 0.00014751097
0000e0 d9 d9 99 38 8a 4c 12 b9 51 3c ca b7 30 bf 67 39
       7.336186e-05 -0.00013952158 -2.4108364e-05 0.000221011
0000f0 6c b3 72 36 9e 1a ba 38 39 d8 93 37 e0 cb 59 b8
       3.6165247e-06 8.874129e-05 1.7624452e-05 -5.1926705e-05

autoencoders.0.encoder.encoder.backward_cells.0.bias_h_2 f4 [8]
000000 00 00 00 00 00 00 00 00 00 00 00 00 00 00 00 00
       0.0 0.0 0.0 0.0
000010 00 00 00 00 00 00 00 00 00 00 00 00 00 00 00 00
       0.0 0.0 0.0 0.0

autoencoders.0.encoder.encoder.backward_cells.0.lstm.weight_ih f4 [32, 1]
000000 d1 5b af 38 2a f8 04 39 e4 d8 62 39 f4 44 77 b9
       8.3617524e-05 0.0001268095 0.00021633838 -0.00023581443
000010 98 6d cd b8 5b 8d f2 36 e3 0a 50 39 63 38 1c b8
       -9.795575e-05 7.228618e-06 0.00019840481 -3.7245813e-05
000020 51 7a ae b9 a0 a4 16 36 37 cb 1f 38 29 af a6 b7
       -0.00033279 2.2447566e-06 3.8097813e-05 -1.9870307e-05
000030 30 7f 1c 39 54 bc ac b9 df ae 90 b9 2b 9d 43 35
       0.000149247 -0.00032946712 -0.0002759611 7.287187e-07
000040 d3 80 e2 b8 07 7b ae b9 a5 43 7a 39 ad 14 0c b9
       -0.00010800515 -0.0003327953 0.00023867057 -0.00013359143
000050 f3 b2 95 b9 7e 24 41 b9 bd 90 cf 38 e5 c5 49 b8
       -0.00028552822 -0.00018419509 9.897489e-05 -4.8106438e-05
000060 35 09 9f 37 bd ab 2c 39 bf 00 b7 39 b9 f3 6c 39
       1.8958564e-05 0.00016467176 0.00034905036 0.00022597508
000070 be 0f 54 39 f0 20 c7 38 c1 ea 67 39 82 bf 28 39
       0.0002022376 9.4951945e-05 0.0002211733 0.00016093071

autoencoders.0.encoder.encoder.backward_cells.0.lstm.weight_hh f4 [32, 8]
000000 e9 f0 95 38 d5 d8 d3 b8 cb e1 a0 b9 b0 6b 61 39
       7.149747e-05 -0.00010101652 -0.00030685807 0.00021497789
000010 84 db a3 38 4d ec b3 38 17 28 a4 b9 27 20 32 b9
       7.813334e-05 8.5793996e-05 -0.00031310387 -0.0001698738
000020 51 3c 65 39 17 d0 4c b9 89 20 3f b7 bb 42 7b 39
       0.00021861611 -0.00019532476 -1.1392062e-05 0.00023962084
000030 4e eb 0d b9 71 3c d2 38 5e 3d d3 b5 21 f2 e8 36
       -0.00013534466 0.000100248384 -1.5738585e-06 6.9423263e-06
000040 70 c4 a3 38 cf 38 8d 39 28 4b 0e b9 6b e3 e0 39
       7.809035e-05 0.0002693594 -0.00013570173 0.0004289405
000050 b3 a7 e6 b7 da 5f 97 b7 49 dd 80 b8 4a 04 14 39
       -2.7496228e-05 -1.8045237e-05 -6.144733e-05 0.00014115978
000060 03 9b 82 b9 0d ff 52 39 7a 1a e8 b8 f5 cb 6e b9
       -0.00024911025 0.00020122174 -0.00011067554 -0.00022773429
000070 f6 c9 14 39 67 19 3c 38 2a e4 8d b9 27 cf 2b 38
       0.00014189616 4.484635e-05 -0.0002706361 4.0962503e-05
000080 3d ce df 38 ad 02 d3 37 6e 3d 26 b8 eb ca 7a b9
       0.000106718835 2.5154406e-05 -3.9634695e-05 -0.00023917451
000090 f9 ea e4 b8 41 b2 a4 38 7b 64 8c b9 71 b9 80 b7
       -0.00010915654 7.853332e-05 -0.00026777745 -1.5345142e-05
0000a0 ec 1a 25 b9 d3 ab 1e b9 3d 73 03 b9 e4 f9 94 39
       -0.00015745655 -0.00015132064 -0.00012536063 0.00028414943
0000b0 4a a1 90 b9 46 80 00 b9 de ac a9 38 d6 3f 0e b8
       -0.0002758599 -0.00012254817 8.090747e-05 -3.391489e-05
0000c0 90 68 ca 38 18 72 47 b9 29 1e 58 b9 de 95 e1 b8
       9.651587e-05 -0.00019020622 -0.00020610601 -0.00010756751
0000d0 69 00 c2 b7 b6 f8 d1 b6 62 4c 24 39 5a ad c6 38
       -2.3126793e-05 -6.257639e-06 0.00015668714 9.473665e-05
0000e0 7f c2 03 39 d1 ea 72 39 37 bc 1d 38 da c1 8d b8
       0.00012565589 0.00023166394 3.7607006e-05 -6.7595116e-05
0000f0 5c 32 db 38 dc da 1e b8 c0 82 ed 38 9d 53 d0 b7
       0.00010452114 -3.7873964e-05 0.00011325395 -2.4834468e-05
000100 1a 74 f1 b6 25 94 1c 39 0c 0d 73 b8 06 09 b9 b8
       -7.1958757e-06 0.00014932507 -5.7947866e-05 -8.823168e-05
000110 87 41 48 b8 62 42 a7 b8 b6 7b a9 39 2c 79 9c 38
       -4.7744743e-05 -7.975545e-05 0.00032326364 7.46123e-05
000120 c7 91 7b b9 57 5a b7 37 47 5a b4 b7 fd 7d b6 39
       -0.00023991532 2.1857368e-05 -2.149971e-05 0.00034807614
000130 77 74 58 38 7f 8a 42 b9 d7 66 1b 39 3d d9 89 b9
       5.160688e-05 -0.00018552876 0.00014820263 -0.0002629253
000140 13 d8 45 39 a9 38 57 37 e9 81 9c 39 91 22 2d b8
       0.00018867878 1.2828191e-05 0.0002985143 -4.1278607e-05
000150 ac 93 18 39 1e ad b0 38 4c 17 9f 38 ea cd bd b8
       0.00014550862 8.4245796e-05 7.58605e-05 -9.050577e-05
000160 59 dd d2 39 a9 35 10 b8 d3 a9 63 39 c5 37 f8 b8
       0.00040219238 -3.438225e-05 0.00021711671 -0.000118359494
000170 9b f4 52 b8 10 86 f3 39 a0 a4 a1 b9 a8 7f 7a b9
       -5.029571e-05 0.00046448456 -0.00030830968 -0.00023889414
000180 f4 59 80 38 d0 e8 ad 38 df 66 8a 38 f3 a9 a8 39
       6.120271e-05 8.2926475e-05 6.599514e-05 0.0003217008
000190 bb 87 37 b9 9f 35 04 39 8c d9 d5 b8 a3 07 8b 38
       -0.00017502804 0.00012608476 -0.00010197153 6.629459e-05
0001a0 25 ca 00 38 b7 4d 08 b9 e6 36 16 b9 2d 42 99 b8
       3.070584e-05 -0.00012998922 -0.00014325566 -7.307935e-05
0001b0 a4 a5 23 39 b1 2d 8d 37 58 ae 40 b8 22 5d 24 39
       0.00015606597 1.6829787e-05 -4.5938737e-05 0.00015674953
0001c0 a1 1c a0 39 47 c7 25 38 34 1b 20 b8 fb 79 51 b9
       0.00030538908 3.9524657e-05 -3.8172308e-05 -0.00019977234
0001d0 d4 12 31 39 b8 af 51 b8 44 65 16 b8 65 f0 9f b8
       0.0001688705 -4.9993134e-05 -3.5857098e-05 -7.626488e-05
0001e0 bd f3 a3 38 92 92 67 b9 90 bf d2 b5 80 99 53 b9
       7.8178455e-05 -0.00022084478 -1.5701971e-06 -0.00020179711
0001f0 5d bf 66 37 11 0c 86 b9 a7 87 84 39 b3 4b 8c b9
       1.37536235e-05 -0.00025567462 0.0002527807 -0.0002675928
000200 8a 63 b9 38 89 d8 e5 b7 0f c1 13 38 f3 84 65 b9
       8.840028e-05 -2.739976e-05 3.522733e-05 -0.0002188867
000210 a8 44 36 38 31 1b ab 38 5e cf 48 38 1a 6b d2 39
       4.3456123e-05 8.15898e-05 4.787684e-05 0.00040134118
000220 c7 e5 cd b7 52 15 05 b9 75 18 f7 35 cc 44 07 37
       -2.4544903e-05 -0.00012691811 1.8410052e-06 8.062645e-06
000230 76 19 39 36 81 34 40 39 96 59 06 39 64 90 7f b9
       2.7581968e-06 0.00018330106 0.00012812609 -0.00024372485
000240 7d dc 0d 38 02 e2 1b b7 37 83 24 39 10 b8 17 37
       3.3822365e-05 -9.2913415e-06 0.0001568914 9.043157e-06
000250 5c 78 41 b9 a9 bf 65 37 c6 88 d4 b7 06 4d 18 b8
       -0.00018450752 1.3694088e-05 -2.533606e-05 -3.6311358e-05
000260 7f fe 0b b8 91 b0 d0 b8 0f 84 db b8 9f 06 a7 b7
       -3.33772e-05 -9.951101e-05 -0.000104673316 -1.9911035e-05
000270 46 42 d1 b8 07 75 cc 37 84 ab b6 b8 fd 7a b4 38
       -9.978241e-05 2.437319e-05 -8.7103836e-05 8.605977e-05
000280 1f 20 dd b6 f6 08 f4 b8 67 5b ae b9 23 c9 3b b9
       -6.5900526e-06 -0.00011636496 -0.00033255966 -0.00017908639
000290 80 27 90 b9 84 9c 9d b8 9d 47 7f 38 37 90 86 b8
       -0.0002749525 -7.515497e-05 6.0863433e-05 -6.41648e-05
0002a0 a0 6f 15 b8 1e 37 e3 b9 f2 b4 04 b8 9c 67 ce b7
       -3.5628327e-05 -0.0004333788 -3.163977e-05 -2.460536e-05
0002b0 3c 47 9b b9 f3 4e cb 38 25 e5 a8 b9 cf db dc b9
       -0.00029616978 9.6945e-05 -0.00032214183 -0.0004212544
0002c0 4e 00 a3 b8 7f 23 49 39 21 cc 39 39 e5 c9 57 39
       -7.7725024e-05 0.00019182077 0.00017719019 0.0002057921
0002d0 68 7e c0 b9 2e 4d 69 b8 fd eb d4 38 4f f1 58 b8
       -0.00036715274 -5.5623408e-05 0.00010152904 -5.172315e-05
0002e0 e5 49 6a 39 94 21 1a 39 13 9e 07 38 db e1 0e 38
       0.00022343507 0.00014699093 3.2333726e-05 3.4065783e-05
0002f0 52 55 f8 38 d9 9e 45 b8 b7 1e 46 b8 71 24 ab b9
       0.00011841454 -4.71164e-05 -4.7235484e-05 -0.00032642813
000300 ab 98 76 b8 cc 91 04 b9 ff 59 da b8 b0 c8 20 38
       -5.8793154e-05 -0.00012642815 -0.00010411813 3.8333877e-05
000310 b0 ac 27 38 e6 bb 33 39 6a a4 90 b8 ef 4f da b9
       3.997673e-05 0.00017140768 -6.8970796e-05 -0.00041639755
000320 26 88 07 b9 cd 48 69 37 f9 0c 32 b9 2a 3b 3f b9
       -0.00012925323 1.39048325e-05 -0.00016980236 -0.0001823722
000330 3e bc 14 b9 92 a5 98 39 f8 5b 65 38 2b e2 7b b9
       -0.00014184506 0.0002911506 5.4683507e-05 -0.0002402148
000340 75 ca db b8 d0 ce be 35 bc 2b 1c 39 5f 9d d8 b8
       -0.00010480444 1.4216293e-06 0.00014893612 -0.00010328995
000350 5d 8a b4 b7 dc ac 1b 39 7c 90 aa 38 bc fa a5 38
       -2.1522103e-05 0.00014846347 8.133144e-05 7.914516e-05
000360 68 f2 00 38 cc 1c af 38 e0 cb a7 37 fe 57 82 b8
       3.0743337e-05 8.350014e-05 2.0002888e-05 -6.215273e-05
000370 6a 8f 89 37 86 a4 53 b8 f3 28 e2 b8 3d 6d e5 37
       1.6398455e-05 -5.0459545e-05 -0.00010784147 2.7349795e-05
000380 01 3e 90 b8 fb 26 79 b8 eb 74 44 b9 1a 36 af b8
       -6.878004e-05 -5.940253e-05 -0.00018735572 -8.3547275e-05
000390 17 50 00 39 9a 28 47 b9 2c 91 07 ba 91 7f 15 b8
       0.00012236867 -0.00018993244 -0.00051714736 -3.5643174e-05
0003a0 4e f5 89 39 bc 65 58 38 85 bf 83 b7 05 93 0b 39
       0.00026313443 5.159316e-05 -1.57056e-05 0.00013310842
0003b0 7c 8d 3d b9 40 e4 2b b8 07 da 5a b8 a4 ef ff b8
       -0.00018077152 -4.098215e-05 -5.2178304e-05 -0.00012203984
0003c0 79 d2 58 b9 61 c0 16 b8 61 69 c4 b9 d9 8b 37 b9
       -0.00020677772 -3.5941954e-05 -0.00037462547 -0.00017504337
0003d0 27 3d b4 39 1a 48 ae b9 3d 00 f7 b8 76 68 b7 38
       0.00034377837 -0.00033241586 -0.00011777922 8.745577e-05
0003e0 9e 88 64 b8 09 1d b4 35 32 60 21 b9 84 7e 66 b8
       -5.448667e-05 1.3419495e-06 -0.00015389992 -5.49541e-05
0003f0 6b 7b 80 38 43 80 3c 38 8f 81 1d b9 53 ce 3b 38
       6.126504e-05 4.4942146e-05 -0.00015020951 4.477643e-05

autoencoders.0.encoder.encoder.backward_cells.0.lstm.bias_ih f4 [32]
000000 00 00 00 00 00 00 00 00 00 00 00 00 00 00 00 00
       0.0 0.0 0.0 0.0
000010 00 00 00 00 00 00 00 00 00 00 00 00 00 00 00 00
       0.0 0.0 0.0 0.0
000020 00 00 00 00 00 00 00 00 00 00 00 00 00 00 00 00
       0.0 0.0 0.0 0.0
000030 00 00 00 00 00 00 00 00 00 00 00 00 00 00 00 00
       0.0 0.0 0.0 0.0
000040 00 00 00 00 00 00 00 00 00 00 00 00 00 00 00 00
       0.0 0.0 0.0 0.0
000050 00 00 00 00 00 00 00 00 00 00 00 00 00 00 00 00
       0.0 0.0 0.0 0.0
000060 00 00 00 00 00 00 00 00 00 00 00 00 00 00 00 00
       0.0 0.0 0.0 0.0
000070 00 00 00 00 00 00 00 00 00 00 00 00 00 00 00 00
       0.0 0.0 0.0 0.0

autoencoders.0.encoder.encoder.backward_cells.0.lstm.bias_hh f4 [32]
000000 00 00 00 00 00 00 00 00 00 00 00 00 00 00 00 00
       0.0 0.0 0.0 0.0
000010 00 00 00 00 00 00 00 00 00 00 00 00 00 00 00 00
       0.0 0.0 0.0 0.0
000020 00 00 00 00 00 00 00 00 00 00 00 00 00 00 00 00
       0.0 0.0 0.0 0.0
000030 00 00 00 00 00 00 00 00 00 00 00 00 00 00 00 00
       0.0 0.0 0.0 0.0
000040 00 00 00 00 00 00 00 00 00 00 00 00 00 00 00 00
       0.0 0.0 0.0 0.0
000050 00 00 00 00 00 00 00 00 00 00 00 00 00 00 00 00
       0.0 0.0 0.0 0.0
000060 00 00 00 00 00 00 00 00 00 00 00 00 00 00 00 00
       0.0 0.0 0.0 0.0
000070 00 00 00 00 00 00 00 00 00 00 00 00 00 00 00 00
       0.0 0.0 0.0 0.0

autoencoders.0.decoder.cells.0.weight_h_2 f4 [16, 16]
000000 30 01 89 3e 5a be 83 be 38 f2 67 3c 19 85 7f be
       0.26758718 -0.25731164 0.014156871 -0.24953116
000010 11 cb 95 3e cb f8 52 3e 78 e6 a3 bd 2e 2f e0 be
       0.2925649 0.2060272 -0.08002943 -0.43785995
000020 d9 76 83 b9 1b 1b 9a 3e 45 91 00 3f f6 84 0b be
       -0.00025074815 0.30098805 0.50221664 -0.1362494
000030 71 72 0b bf ca ee 21 3d ff c3 c1 be 9c f2 0f 3f
       -0.544715 0.039534368 -0.37844846 0.5622957
000040 ee 5d 98 bd 60 51 1c be 9d 28 80 39 08 25 34 be
       -0.07439791 -0.15265417 0.00024444322 -0.17592251
000050 a9 b3 98 be 11 87 8c 3e eb dd 85 3d 6c 3c 12 bf
       -0.2982457 0.27446797 0.06536468 -0.57123446
000060 cb df 9e b9 9a 2d ea be b9 13 2f 3d 46 1b 4e 38
       -0.00030302847 -0.45737916 0.04274342 4.9139628e-05
000070 45 68 99 3d a3 d7 9f 3e 8e 15 b4 3d 26 36 07 3f
       0.07490591 0.31219205 0.08793174 0.52817
000080 2f b9 05 3c a0 36 b1 bd 1d 1c 13 38 f9 70 a8 38
       0.008161827 -0.08652997 3.5073714e-05 8.031907e-05
000090 6b 87 f8 3d 9f 56 bc bd 7e 47 84 3e 78 a1 d7 3e
       0.12135204 -0.09196209 0.25835794 0.42115378
0000a0 f9 51 57 38 e7 39 8e bd dc d5 cb 3e c2 45 e4 3d
       5.1336337e-05 -0.06944638 0.398116 0.11146118
0000b0 2f 1d 13 bd cb ed b0 3e 4b 2f 70 be a1 e2 a4 3e
       -0.035916504 0.34556422 -0.23455541 0.32204154
0000c0 db e4 d0 b8 8f b1 f7 37 bc aa 98 b8 77 47 0e be
       -9.9608405e-05 2.9527377e-05 -7.2797266e-05 -0.13894449
0000d0 8f 17 04 b7 92 26 76 3d 62 1a 15 be 87 56 31 be
       -7.873298e-06 0.060095377 -0.14560845 -0.17318164
0000e0 d5 fb 98 b7 88 70 b1 3b 56 d4 a8 be 36 df c7 bc
       -1.823708e-05 0.005415026 -0.329745 -0.024398427
0000f0 51 8c b2 bc 4a 5e 85 bd b2 d4 94 3d ca 36 aa be
       -0.021795424 -0.06512125 0.07267131 -0.33244926
000100 91 3f 72 be 9a 65 1b 3e 92 b0 55 3e 6d d5 9e b9
       -0.23657061 0.15175477 0.20868137 -0.00030295123
000110 b1 00 00 3e 80 77 ea 38 73 93 61 bd be 2d 22 bf
       0.12500264 0.00011180248 -0.05507226 -0.6335105
000120 7f ff cc b9 bb 12 a0 3e 5a 13 b8 3d 31 46 15 bd
       -0.00039100272 0.3126429 0.08988066 -0.036443893
000130 92 c4 96 bd 38 3c 2f be e7 d9 05 be 7a 16 a4 3e
       -0.073617116 -0.17112815 -0.13071404 0.32048398
000140 8a 3f b2 3d 95 ff 6c be 27 c8 e6 bc 3c b2 dd bc
       0.08703525 -0.23144372 -0.028171612 -0.027062528
000150 df 4d 29 bd 2b 27 9c bd 3a e8 ab bd dc de d4 3e
       -0.04133403 -0.07624658 -0.08393903 0.41576278
000160 50 75 57 3d 94 6d a9 3e 2c d4 d5 bc cf 35 27 be
       0.052602112 0.33091414 -0.026102148 -0.1632912
000170 dc 6f 58 be ce ef a3 3e 97 88 fb 3d 1a 0b 85 3d
       -0.21136421 0.32018894 0.12281912 0.06496258
000180 d4 ce 98 38 28 04 a7 3e 16 8c a4 3e c5 a4 79 be
       7.2864495e-05 0.32620358 0.32138127 -0.24379261
000190 a4 f4 25 37 67 fd 73 38 76 39 aa 3e da ce b2 be
       9.891726e-06 5.8171714e-05 0.33246964 -0.3492344
0001a0 83 7a a3 b9 2d d0 14 3e 04 fc 81 be ac 37 de 3d
       -0.0003118106 0.14532538 -0.25387585 0.10850462
0001b0 6f c6 ef 3d 56 12 c7 3e af 7c 32 bd 1e f8 d9 3d
       0.1170777 0.38881177 -0.04357594 0.10643028
0001c0 32 44 99 3d b1 f9 7d be 64 15 0a be fc 2b 3c 3d
       0.0748371 -0.24802281 -0.13484722 0.045940384
0001d0 0c 53 ed be 0e b5 8c 36 d9 ee 73 37 2a 40 fb 3d
       -0.46352422 4.1934027e-06 1.453954e-05 0.12268098
0001e0 77 fd 91 b9 3a 3f 44 be 9f 14 91 3e 19 3d 80 3d
       -0.000278454 -0.19164744 0.28336045 0.062616535
0001f0 a4 9b 68 39 29 85 1c 3e 35 47 d0 bd 7a 1e 86 bd
       0.00022183225 0.15285172 -0.10169832 -0.06548782
000200 46 85 12 39 dd 5a cb 3d bb bf 23 3e 8d 23 5e be
       0.00013973293 0.0992944 0.15991108 -0.21693249
000210 49 a2 86 be 94 48 89 37 c3 0d fc be 49 fe 1f 3e
       -0.2629569 1.636547e-05 -0.4922925 0.15624346
000220 d2 31 4b b9 6e a9 0d be b3 51 ab 3c 7c 67 a4 be
       -0.00019378148 -0.13834164 0.02091298 -0.32110202
000230 57 c4 87 be 07 f2 3a 3e d9 b3 b8 3e c6 60 1d bd
       -0.26516983 0.18256389 0.36074713 -0.03842237
000240 2a f5 c8 be e3 c9 cf be b7 01 93 be 22 fa 22 bf
       -0.39249545 -0.40583715 -0.28712246 -0.6366292
000250 b3 c0 74 3d 16 ce 55 be 61 02 5c be 0b 00 43 b8
       0.059754085 -0.20879397 -0.21485282 -4.6491663e-05
000260 bd 8e 9d 3e 71 e2 2e bd b4 35 7a 3e 61 4d 0e be
       0.30772963 -0.04269642 0.24434549 -0.13896705
000270 e0 af 78 be f0 d1 8f 3e 61 fd 16 3d 32 df 2b be
       -0.24285841 0.28089857 0.036862735 -0.16784361
000280 d4 ee 8a bd 02 6a 07 be e2 fe 97 be 6e 38 f2 3c
       -0.06783834 -0.13224033 -0.29686648 0.029567923
000290 8b a7 2e bd 3d f6 69 b7 06 92 b6 bc 06 32 1d be
       -0.04264025 -1.3945214e-05 -0.022286426 -0.15351114
0002a0 6b 35 2e bd 71 7e 5a be c1 4b 0d 3f 14 74 83 be
       -0.042531412 -0.21337296 0.55193716 -0.25674498
0002b0 39 b2 c6 ba 4b 2f a1 be 58 d3 eb 38 23 64 ad 3d
       -0.0015159316 -0.31481394 0.00011245039 0.08466365
0002c0 7b 8c 69 b8 45 60 51 be f0 2d 05 3e f9 1a 84 be
       -5.568236e-05 -0.2044688 0.13005805 -0.25801829
0002d0 c8 01 e1 bd 78 6f 4c bd e1 96 60 be b0 1f 53 3c
       -0.10986668 -0.049910992 -0.21932556 0.012885973
0002e0 58 2c d1 b8 f5 91 13 3e 72 f4 2c 3e 50 e6 3f bd
       -9.974156e-05 0.14411147 0.16890123 -0.046850502
0002f0 40 09 46 3e a1 ff a0 3d b3 32 5b 3d ca 96 98 3e
       0.19339466 0.07861257 0.053515147 0.29802543
000300 46 fe 67 38 2f ae 20 bd 91 5d 72 38 4f 4c d3 3d
       5.5311502e-05 -0.039228614 5.7784437e-05 0.10317289
000310 36 71 6c 3e f6 1b 8a 3e 07 aa fd be 67 a8 e7 bd
       0.23090062 0.26974458 -0.49543783 -0.11311417
000320 66 bf d0 bd 7e 84 95 be d6 21 8a b9 7f 4b a8 bd
       -0.10192756 -0.29202646 -0.0002634662 -0.08217525
000330 7e 79 cb be 97 d3 32 3c d2 5a fa bd 7f 15 e5 3d
       -0.3974113 0.010914705 -0.12224354 0.11185741
000340 27 33 c9 bd fe 40 2f be 36 bb dc bd f7 4a 2a bf
       -0.0982421 -0.17114636 -0.10777895 -0.6652064
000350 1b 89 b4 be 93 7f e5 bd a3 f2 39 37 36 d9 ad ba
       -0.35260853 -0.112059735 1.1083353e-05 -0.0013263586
000360 ac 74 a3 3d 75 4a 7a 39 d7 85 27 be c1 ea 55 be
       0.07981238 0.00023869595 -0.1635965 -0.20890333
000370 da d3 17 be 4b 3e a0 3e 63 da d8 be b2 00 8e 3d
       -0.14826909 0.31297526 -0.42354116 0.06933726
000380 a9 c5 3e 3e 0d d5 68 be 67 fa 0a 3e e2 9e 32 3d
       0.18630089 -0.22737522 0.13572083 0.043608554
000390 7b 6e 28 3e 27 02 d1 be 61 58 c9 3e be 1d 49 bd
       0.16448395 -0.40821955 0.3932524 -0.04910063
0003a0 c0 f6 e0 36 a1 7b cf 3c 61 bf 7b bd 05 2a c2 bd
       6.7044457e-06 0.025327506 -0.06146181 -0.09480671
0003b0 08 0d 0e b8 38 c1 99 be 6c 82 00 3e 76 1e 9b bd
       -3.3867575e-05 -0.30030227 0.12549752 -0.07574169
0003c0 85 ba c7 3e 46 90 00 bf 44 35 60 be 7a e3 d8 be
       0.3900949 -0.50220144 -0.21895319 -0.4236105
0003d0 96 f8 01 3e 50 37 fa 3d 76 69 4e be 07 12 c8 bd
       0.12692484 0.12217581 -0.20157418 -0.097690634
0003e0 02 e8 62 be 2d 6a a1 3d fe 39 94 bc 99 45 00 3e
       -0.22158816 0.078815795 -0.01809406 0.1252655
0003f0 92 65 71 3e 9a 04 8b be a4 e5 3c bf 96 e7 e9 3e
       0.23573902 -0.27151948 -0.73787904 0.456845

autoencoders.0.decoder.cells.0.bias_h_2 f4 [16]
000000 c2 6e 78 3d eb 14 3b bd 3d 0e dc 38 65 75 62 bd
       0.060652502 -0.045674246 0.000104930696 -0.055287737
000010 d3 28 a1 bd 67 33 b5 bc ce 0a 72 bd d4 0f 50 bd
       -0.07869115 -0.022119237 -0.059092335 -0.050796345
000020 ca 00 92 39 02 4f 5d 3d bd 16 1a 3d 2f e6 08 bd
       0.00027847878 0.054030426 0.03761934 -0.033422645
000030 ea 6c b8 bd 85 ae 2b 3d 2f d6 f5 bc 9e 1e e9 3c
       -0.09005149 0.04191448 -0.030009357 0.028456982

autoencoders.0.decoder.cells.0.lstm.weight_ih f4 [64, 1]
000000 9a b1 86 3d 20 de aa 3c 0b 28 cb 3d 28 6d 9e 3e
       0.065768436 0.02085787 0.09919747 0.30942655
000010 b6 41 c1 39 bc 3d c9 b7 47 d4 37 bc d6 f8 f8 bd
       0.00036860787 -2.3989815e-05 -0.011220044 -0.12156837
000020 07 62 00 3d 4a 2b 90 3c 0d cb 8d 3d 2e 08 2d 34
       0.031343486 0.017598767 0.069234945 1.6114856e-07
000030 fd a1 1e 3a 5e d5 d3 3e fa a9 66 3d b1 19 d5 3d
       0.000605136 0.41373724 0.056314446 0.10405291
000040 84 08 e2 38 16 13 0a b9 74 2a a3 b9 a2 c6 4c be
       0.00010778106 -0.00013167816 -0.00031121413 -0.19997647
000050 ea 18 cd 3d 7b fa e8 3d 91 ef 57 b8 1a ee 27 3e
       0.100145176 0.113759 -5.1483108e-05 0.16399422
000060 f1 96 b9 b8 38 ae 7e 3e a8 34 83 3d b7 58 3e b8
       -8.8496025e-05 0.24871147 0.06406528 -4.5382152e-05
000070 1c ae 34 3a 8d 17 4c 3e 10 24 22 3d c5 cf 20 3e
       0.00068923994 0.19930859 0.039585173 0.15704258
000080 f0 aa 1e 3e 64 34 d8 bd 63 bc c6 bd 9b 12 4b be
       0.15494895 -0.10556868 -0.09703901 -0.19831316
000090 36 99 e9 bc 9a 2d 6d 3e 75 a0 d0 3a 9b b4 45 bc
       -0.02851544 0.23161927 0.001591696 -0.0120669855
0000a0 36 a2 7e 3d 81 d8 ea 3d 99 3b 5f 3e bb c4 3f 3d
       0.062166415 0.11467076 0.21800078 0.046818476
0000b0 66 f4 91 3d 0b 90 98 3d 52 26 71 3d 69 37 02 3f
       0.071266934 0.07449349 0.058874436 0.508658
0000c0 a5 8a 21 3e 5f 5a fb 3d 52 7d 9c 3e 1b 10 9c 3e
       0.15775545 0.12273096 0.30564362 0.30481037
0000d0 f9 f4 09 3e 58 ee f8 3e f6 08 2b bc c9 dd b9 3d
       0.13472356 0.48619342 -0.010439148 0.09075505
0000e0 f9 1d d6 3d ff 62 01 3e b5 fa 86 3e 0e 62 74 b8
       0.104549356 0.1263542 0.2636315 -5.8265454e-05
0000f0 e6 dd a2 3c de 31 b8 3e d1 86 ab bd cd a0 97 3e
       0.0198812 0.35975546 -0.083753236 0.2961487

autoencoders.0.decoder.cells.0.lstm.weight_hh f4 [64, 16]
000000 b8 bc 5e b9 77 3b 2e b9 98 ff cd b9 68 4e a5 38
       -0.00021241873 -0.00016616085 -0.0003929108 7.8824174e-05
000010 4b c2 7a b8 ce c8 f3 b9 a3 1c 9a b8 ed b1 15 3a
       -5.9785594e-05 -0.00046498183 -7.348626e-05 0.0005710412
000020 c1 5a de b9 95 cf dd 3c 08 0e e7 3d cc f3 64 38
       -0.00042410757 0.027076522 0.11281973 5.458649e-05
000030 38 10 0a 3d e2 35 a8 3e 90 d0 8e b9 10 d3 e1 3c
       0.033706874 0.3285361 -0.00027239742 0.027566463
000040 ca 1a 7f b9 8f 1d 02 39 bb 73 f9 38 3c c3 1c b8
       -0.00024328675 0.00012408778 0.00011894802 -3.7375125e-05
000050 52 6a 82 3d 9d 4e 22 b9 f5 55 a2 38 cd a1 99 38
       0.06367935 -0.0001547881 7.740773e-05 7.325746e-05
000060 48 ca dd b8 8e 2e 5d 3d fb 82 9b b9 68 84 17 39
       -0.00010575779 0.053999476 -0.00029661492 0.00014449807
000070 ce 0b 90 38 85 09 0f b9 ff 89 e0 b5 37 11 90 b8
       6.868654e-05 -0.00013641089 -1.6729463e-06 -6.8696616e-05
000080 fc 02 8a 38 41 ab a3 b8 0b be 35 39 5f 1c cf b8
       6.580909e-05 -7.804344e-05 0.00017332302 -9.875814e-05
000090 23 91 95 38 ba 7a c0 b8 3e 6a 69 b8 65 37 55 39
       7.1319075e-05 -9.178133e-05 -5.5650475e-05 0.00020333899
0000a0 d5 10 fa b8 db a8 81 b8 2a 0c 27 38 27 0c be b7
       -0.00011924064 -6.182651e-05 3.982723e-05 -2.2655424e-05
0000b0 9a e2 3f 39 c7 d9 7c b9 df 4e 98 b9 38 13 29 b9
       0.00018299595 -0.00024113721 -0.00029050463 -0.00016124255
0000c0 26 93 7f bd e2 80 9b b8 10 57 0c b9 ec 74 eb 38
       -0.06239619 -7.414982e-05 -0.00013383874 0.000112274516
0000d0 16 05 6e bc 1f 80 87 3e 22 0c 7a b9 c6 d7 f3 37
       -0.01452758 0.26464936 -0.00023846378 2.9068335e-05
0000e0 71 70 00 b9 31 00 aa 3e 4c fa 49 b9 43 1f ba 3d
       -0.00012248919 0.3320327 -0.00019262097 0.09087994
0000f0 7a 4f 29 3e a6 13 9e b7 4d 5a 18 b7 2e 64 80 b9
       0.16534224 -1.8844217e-05 -9.080931e-06 -0.00024488702
000100 9a e6 d3 b6 2a 24 c3 b8 61 49 be 38 3e da 88 37
       -6.3151356e-06 -9.305061e-05 9.073574e-05 1.631409e-05
000110 18 02 03 b7 07 1b eb b6 8a 18 24 b7 26 85 49 3d
       -7.808696e-06 -7.006692e-06 -9.780875e-06 0.049199246
000120 dc 2e 03 bd a8 33 e3 b8 02 ec d9 b8 86 e8 ae b8
       -0.03202711 -0.00010833825 -0.00010391326 -8.3402774e-05
000130 07 5f 46 38 f3 96 3b 3e a1 a7 18 38 de 82 c9 36
       4.729538e-05 0.18319301 3.639574e-05 6.0055017e-06
000140 a2 30 92 3c 3d 4e 34 bd cc 95 67 b7 58 4f 76 b8
       0.017845456 -0.044019926 -1.380355e-05 -5.8724865e-05
000150 15 3b 0b bd 9c 8e 11 be 6a 1d 0a b7 c0 47 e1 bb
       -0.033991892 -0.14214557 -8.2322895e-06 -0.0068750083
000160 6f 57 bd 3c 24 7b 64 be eb 5b 81 3d eb af 92 3b
       0.02311298 -0.223126 0.0631636 0.0044765375
000170 27 34 74 3e b7 41 48 b8 72 c6 87 bd d0 cb 00 bd
       0.2384802 -4.7744918e-05 -0.06629647 -0.03144437
000180 47 b6 14 38 90 4e 1a 39 aa 59 72 37 81 5d 3d 38
       3.545571e-05 0.00014715851 1.4445201e-05 4.5148194e-05
000190 88 3f ec bd fa e1 d6 3c 79 0d f0 35 23 e0 72 39
       -0.11535555 0.0262308 1.7885314e-06 0.00023162416
0001a0 bf 31 3a 3e 8d c2 00 39 67 d9 66 38 50 ad 2c 3d
       0.18183039 0.00012279507 5.5038745e-05 0.04215747
0001b0 2b a7 77 3d e4 29 91 39 3c 39 0b 3d 42 a3 8c 39
       0.06046216 0.00027687766 0.03399013 0.00026824517
0001c0 8a 14 61 3d c4 2d fe bc c4 41 2a 3e aa 8f 28 b8
       0.05495123 -0.031027682 0.1662665 -4.018812e-05
0001d0 35 ab 33 3e 82 67 a0 bd 5c 97 21 b8 ab 29 1a 38
       0.17545779 -0.078322425 -3.8526356e-05 3.6755268e-05
0001e0 27 24 c8 3d 48 cc 7d 35 8d b6 32 3e b3 ef 12 b8
       0.097725205 9.4547113e-07 0.1745245 -3.503235e-05
0001f0 50 6d 98 37 79 f1 e0 3d af 1f e3 3d a2 d8 b9 be
       1.8170715e-05 0.10983557 0.110900275 -0.3629809
000200 59 cf aa 37 6d 34 5d 39 e2 55 5a 38 09 3a 02 b9
       2.0362133e-05 0.00021095733 5.2055235e-05 -0.00012419386
000210 b7 90 16 ba 6d 0f 07 39 e4 3b 03 b9 04 f4 69 39
       -0.000574361 0.0001288035 -0.00012515445 0.00022311514
000220 d1 31 50 38 92 0e 67 38 4a d1 d4 38 98 2a 02 39
       4.963746e-05 5.508826e-05 0.00010147931 0.00012413634
000230 98 95 08 b7 09 0f 0d 39 0f ba 9b 39 1e ac 8c 38
       -8.141062e-06 0.00013452409 0.00029702528 6.7077795e-05
000240 ee 1b 12 3e ce 14 5d 3d d9 59 26 38 93 59 96 3d
       0.14268467 0.05397492 3.966116e-05 0.07341304
000250 5f b1 a3 3d b5 0f 74 bd ea 7b 07 b9 56 0f 51 39
       0.07992815 -0.059585292 -0.00012920765 0.00019937506
000260 0a 60 3e 3c 2e f5 90 3a 8f 6e 91 3d e2 85 83 3e
       0.011619577 0.0011059397 0.071011655 0.25688082
000270 58 74 16 3e 04 7a 25 3d 0c 09 74 b9 55 4d 11 3e
       0.14692819 0.040399566 -0.00023273024 0.14189656
000280 c5 70 06 3d aa 60 11 3d b3 3b 2d 3c b1 f8 cd b8
       0.03282239 0.035492577 0.010573315 -9.821484e-05
000290 75 21 89 bd 1c f3 80 3d 64 14 d3 3c 39 38 a3 bc
       -0.066958345 0.062963694 0.025766559 -0.01992427
0002a0 8c 90 aa 3c 23 32 46 3c be 6c c3 3d 5c 4b 05 3e
       0.020820878 0.012096914 0.09542225 0.13017029
0002b0 af 75 c9 3d b0 72 d7 3d 17 b6 7f b8 ce 92 d7 3d
       0.098368995 0.10519922 -6.0966322e-05 0.10526048
0002c0 ae 51 8f b8 c7 12 ad b8 73 f2 be 38 f5 aa 1d b9
       -6.8339854e-05 -8.2527804e-05 9.105066e-05 -0.00015036373
0002d0 a4 b6 f4 b8 f5 0f 9b 37 d7 e7 4c b7 70 50 17 b9
       -0.00011668846 1.848487e-05 -1.2213327e-05 -0.00014430447
0002e0 bc 76 22 38 54 60 cb b7 fb 64 d5 35 97 36 9b b8
       3.873439e-05 -2.4244342e-05 1.5899126e-06 -7.401144e-05
0002f0 7a 4c 34 b7 e1 1f 8d b9 54 20 ca 38 67 1b 2d 38
       -1.0746642e-05 -0.00026917367 9.638132e-05 4.1271935e-05
000300 1e 2c b4 3a 5c 4a 8c b8 cb 22 1a 39 16 08 a0 b8
       0.0013746058 -6.689571e-05 0.00014699546 -7.630901e-05
000310 56 c5 eb 39 5c 48 3e 3a ca 2d e6 36 a4 ec 5a 38
       0.0004496972 0.0007258707 6.8598647e-06 5.219564e-05
000320 0f 66 87 3a 3b 8b 9b 3a 89 30 97 3a 4a 1f 86 37
       0.0010330098 0.0011867055 0.001153485 1.5988615e-05
000330 0c fa f9 b7 7f 24 4a 3a 42 16 aa b7 fa 91 06 3a
       -2.979955e-05 0.0007711127 -2.0275944e-05 0.00051334465
000340 b5 cd 68 37 32 45 93 b9 00 13 20 ba 4f c7 93 39
       1.38761725e-05 -0.0002808958 -0.0006106347 0.0002818652
000350 27 0f 0b 3e 85 ce 96 3d ba 88 15 b9 30 c9 cb b8
       0.13579999 0.07363609 -0.00014260682 -9.7172684e-05
000360 bb 60 b2 b9 37 36 3b b9 e7 96 86 b9 29 5c 17 3e
       -0.00034022875 -0.00017853906 -0.00025670903 0.1478125
000370 37 dc 73 b9 8c 4b 60 be 34 a0 40 b9 70 be fd 3d
       -0.00023256322 -0.21903819 -0.00018370227 0.12389839
000380 af 4e 8b b9 4e 68 bf 38 b6 70 d2 b7 e2 80 40 38
       -0.0002657077 9.127018e-05 -2.5086436e-05 4.58964e-05
000390 56 25 98 b7 d8 4e bb 37 6e f7 83 38 93 ce 48 b9
       -1.8137198e-05 2.2328852e-05 6.292654e-05 -0.00019150441
0003a0 f9 76 22 b9 6f 83 c2 b8 a4 19 19 bd 53 d6 d3 bd
       -0.00015493845 -9.275122e-05 -0.03737797 -0.103436135
0003b0 2f ff c1 38 28 27 24 b9 2c 7a 62 b8 a2 55 a1 3d
       9.250489e-05 -0.00015654846 -5.399638e-05 0.07877661
0003c0 42 b6 5d 3e a1 99 3a 3d 70 56 2e 3c 71 9b 45 3e
       0.21651557 0.04555667 0.0106407255 0.19297577
0003d0 0b 86 f9 3b 10 e6 53 3e 34 f3 24 3d e6 72 9f b8
       0.007614856 0.2069323 0.040271 -7.603112e-05
0003e0 0d b6 7e 3d c9 52 72 3d 7c 9c 20 3e 2e 32 9c 3e
       0.062185336 0.05916098 0.15684694 0.30507034
0003f0 39 5f bf 38 ab ac 5a 3e c4 52 dc 3b e3 98 41 3e
       9.125326e-05 0.2135493 0.0067237336 0.18905978

autoencoders.0.decoder.cells.0.lstm.bias_ih f4 [64]
000000 48 34 05 3a 2a 67 3b b9 ab ed 91 b9 ed 57 2a 3d
       0.0005081338 -0.00017872141 -0.00027833632 0.04158776
000010 cd d9 9b 38 f9 3f 6e bc 7f a1 43 3c f6 fd 08 3d
       7.4315445e-05 -0.014541619 0.011940359 0.03344532
000020 aa 9b 85 b9 37 97 ec 3c 38 29 3d 3c 90 a1 11 b8
       -0.00025483716 0.028880699 0.011545472 -3.472116e-05
000030 a3 7b d7 39 75 b7 e6 39 d2 7c 60 b9 db bc 1a 3e
       0.00041100112 0.00044005705 -0.00021408804 0.15111105
000040 a4 e1 be b9 12 10 c9 b9 9f c5 e7 b5 22 52 da b8
       -0.0003640774 -0.0003834968 -1.7268356e-06 -0.000104103485
000050 1a a9 d3 b8 1d 6d 18 bc 46 3e 34 39 31 77 80 3c
       -0.00010092762 -0.009303358 0.00017189336 0.015681835
000060 a6 38 47 b9 42 16 6b bc 7f 8a d5 b9 eb 8c d0 b8
       -0.00018999222 -0.014348568 -0.00040729714 -9.944461e-05
000070 43 0c b5 39 4c 17 4d bc 2d f9 a4 b9 12 f5 0e 3e
       0.00034532146 -0.012517761 -0.00031466168 0.13960674
000080 f8 f9 ae 3c 5c fb d2 bc 7a a9 71 bc 8b ce 8a bc
       0.021359429 -0.025754623 -0.014749879 -0.01694419
000090 df dc 4a bd 28 f1 de bc 96 59 39 bd 82 3b 21 bd
       -0.049527045 -0.027214602 -0.04525145 -0.03936339
0000a0 1d 85 09 3c 5c 72 cd 3c f5 87 6c 3d 19 41 e8 bc
       0.008393553 0.025078945 0.057746846 -0.028351353
0000b0 e0 a3 a4 bd cd 26 19 3d 88 bf e1 bc ee 2a d8 bc
       -0.08039069 0.03739052 -0.02755715 -0.026387658
0000c0 aa 95 83 3c a9 5b 82 b9 4d 8e d1 b9 c8 31 81 3d
       0.016062576 -0.00024863824 -0.0003996961 0.06308323
0000d0 23 02 a8 39 58 2d 16 bc ae f6 f9 3c 87 da b9 3c
       0.0003204505 -0.009166084 0.030513134 0.02268721
0000e0 30 d5 42 b9 42 23 14 3d 25 61 b5 3b 73 30 92 b8
       -0.000185807 0.036166437 0.005535262 -6.970847e-05
0000f0 1b a9 41 39 09 b6 f1 3c 73 9c 90 b9 a4 1f 1d 3e
       0.00018468911 0.029505746 -0.00027582384 0.15344101

autoencoders.0.decoder.cells.0.lstm.bias_hh f4 [64]
000000 48 34 05 3a 2a 67 3b b9 ab ed 91 b9 ed 57 2a 3d
       0.0005081338 -0.00017872141 -0.00027833632 0.04158776
000010 cd d9 9b 38 f9 3f 6e bc 7f a1 43 3c f6 fd 08 3d
       7.4315445e-05 -0.014541619 0.011940359 0.03344532
000020 aa 9b 85 b9 37 97 ec 3c 38 29 3d 3c 90 a1 11 b8
       -0.00025483716 0.028880699 0.011545472 -3.472116e-05
000030 a3 7b d7 39 75 b7 e6 39 d2 7c 60 b9 db bc 1a 3e
       0.00041100112 0.00044005705 -0.00021408804 0.15111105
000040 a4 e1 be b9 12 10 c9 b9 9f c5 e7 b5 22 52 da b8
       -0.0003640774 -0.0003834968 -1.7268356e-06 -0.000104103485
000050 1a a9 d3 b8 1d 6d 18 bc 46 3e 34 39 31 77 80 3c
       -0.00010092762 -0.009303358 0.00017189336 0.015681835
000060 a6 38 47 b9 42 16 6b bc 7f 8a d5 b9 eb 8c d0 b8
       -0.00018999222 -0.014348568 -0.00040729714 -9.944461e-05
000070 43 0c b5 39 4c 17 4d bc 2d f9 a4 b9 12 f5 0e 3e
       0.00034532146 -0.012517761 -0.00031466168 0.13960674
000080 f8 f9 ae 3c 5c fb d2 bc 7a a9 71 bc 8b ce 8a bc
       0.021359429 -0.025754623 -0.014749879 -0.01694419
000090 df dc 4a bd 28 f1 de bc 96 59 39 bd 82 3b 21 bd
       -0.049527045 -0.027214602 -0.04525145 -0.03936339
0000a0 1d 85 09 3c 5c 72 cd 3c f5 87 6c 3d 19 41 e8 bc
       0.008393553 0.025078945 0.057746846 -0.028351353
0000b0 e0 a3 a4 bd cd 26 19 3d 88 bf e1 bc ee 2a d8 bc
       -0.08039069 0.03739052 -0.02755715 -0.026387658
0000c0 aa 95 83 3c a9 5b 82 b9 4d 8e d1 b9 c8 31 81 3d
       0.016062576 -0.00024863824 -0.0003996961 0.06308323
0000d0 23 02 a8 39 58 2d 16 bc ae f6 f9 3c 87 da b9 3c
       0.0003204505 -0.009166084 0.030513134 0.02268721
0000e0 30 d5 42 b9 42 23 14 3d 25 61 b5 3b 73 30 92 b8
       -0.000185807 0.036166437 0.005535262 -6.970847e-05
0000f0 1b a9 41 39 09 b6 f1 3c 73 9c 90 b9 a4 1f 1d 3e
       0.00018468911 0.029505746 -0.00027582384 0.15344101

autoencoders.0.decoder.output_layer.weight f4 [1, 16]
000000 5b c3 cd 3d c3 5b 07 be 4b 49 9a bb 52 5c 57 be
       0.10047027 -0.13218598 -0.0047084442 -0.21031311
000010 8b 8e 0e be c9 8d b5 bc d8 02 44 bd c8 8a 05 bd
       -0.13921563 -0.022162335 -0.047854275 -0.032603055
000020 4b fc ff 3c 70 17 36 3e 8f f1 8b 3e 79 70 6c bd
       0.031248232 0.17782378 0.27332732 -0.05772445
000030 86 bf 09 bd 2e e3 62 3e d1 b6 5d bd c8 d6 54 3e
       -0.033629917 0.22156975 -0.054129425 0.20785058

autoencoders.1.encoder.encoder.forward_cells.0.weight_h_2 f4 [8, 8]
000000 87 d9 c2 b9 f3 61 ba 38 4b 6a a0 b9 2b 17 18 b9
       -0.00037164634 8.8874156e-05 -0.00030596773 -0.0001450448
000010 01 82 42 b8 77 ac 2f 38 c4 0f 23 b8 d2 38 a7 b9
       -4.637428e-05 4.188387e-05 -3.887691e-05 -0.00031895057
000020 4f ba 44 b9 34 ac 41 39 54 10 cb 38 64 a7 3e b8
       -0.00018761422 0.00018470065 9.682836e-05 -4.5455425e-05
000030 a0 88 99 b8 9a 57 a4 b9 51 27 11 39 21 26 b9 b9
       -7.321057e-05 -0.00031345786 0.00013842924 -0.00035314358
000040 15 93 5d 39 48 8b b0 b8 72 11 03 b9 85 0e 89 38
       0.00021130995 -8.418277e-05 -0.00012499632 6.5353735e-05
000050 6a ea 13 b8 4a c3 6f b8 18 d4 14 b8 de 0a c0 bd
       -3.5265846e-05 -5.7163918e-05 -3.5483477e-05 -0.09377073
000060 9e e4 7c 39 e4 c3 0e b9 ed 90 ab 38 c8 ce 86 38
       0.0002411776 -0.0001361515 8.18091e-05 6.428134e-05
000070 0c f9 fb 37 9f db a8 39 e1 75 16 b7 8c e8 42 b9
       3.0037503e-05 0.00032207087 -8.9681425e-06 -0.00018587912
000080 4e 66 3c b7 7a ea ea b9 d1 7c c3 36 5c 14 89 38
       -1.1229493e-05 -0.00044806657 5.8259834e-06 6.536461e-05
000090 15 fd b8 36 7f f6 9e b9 ae 65 12 b8 69 7f a7 b9
       5.51309e-06 -0.00030319762 -3.490381e-05 -0.0003194765
0000a0 8d 23 b4 b8 5a 68 d5 b8 c4 81 84 37 36 25 a6 b9
       -8.589691e-05 -0.000101760685 1.5796053e-05 -0.00031689712
0000b0 81 6f 00 b8 ef 6d b1 b7 27 7f 59 39 90 dc ba 37
       -3.0621424e-05 -2.1151236e-05 0.000207421 2.2275635e-05
0000c0 f8 48 88 39 b6 32 c5 39 2a 9e 38 b9 ee 22 09 b8
       0.00025994307 0.0003761255 -0.00017606528 -3.2695876e-05
0000d0 d1 c7 31 38 df cb 98 b8 13 fe 6c 33 ba 0a 8f b7
       4.2386182e-05 -7.285899e-05 5.517911e-08 -1.7051923e-05
0000e0 b1 b1 d7 b9 4e ab 12 39 01 b8 ab b9 fd 21 58 b9
       -0.00041140386 0.00013987461 -0.00032752755 -0.00020612027
0000f0 a8 b3 0e 39 c6 17 54 b8 d2 fb 1c b9 98 77 3e b9
       0.00013609102 -5.056688e-05 -0.0001497113 -0.00018164364

autoencoders.1.encoder.encoder.forward_cells.0.bias_h_2 f4 [8]
000000 00 00 00 00 00 00 00 00 00 00 00 00 00 00 00 00
       0.0 0.0 0.0 0.0
000010 00 00 00 00 00 00 00 00 00 00 00 00 00 00 00 00
       0.0 0.0 0.0 0.0

autoencoders.1.encoder.encoder.forward_cells.0.lstm.weight_ih f4 [32, 1]
000000 16 8f f9 b6 63 4f a7 39 28 f1 e4 38 7b f2 cc b8
       -7.4374357e-06 0.0003191187 0.00010916806 -9.7726435e-05
000010 29 e9 d2 38 23 c2 2d b9 ee b7 30 b9 08 2d 57 b9
       0.0001005701 -0.00016570887 -0.00016853187 -0.00020520773
000020 b7 fd e5 b8 8b 2a c2 b8 87 d4 02 38 2c 7c fc 38
       -0.00010966829 -9.258565e-05 3.1192347e-05 0.00012039425
000030 66 b9 36 b9 7f da bf b8 38 53 af b8 ba b9 a1 b9
       -0.00017425939 -9.148288e-05 -8.360151e-05 -0.0003084669
000040 05 5b c3 b8 03 03 c9 36 22 da 24 b9 e5 b0 93 36
       -9.315278e-05 5.9906174e-06 -0.0001572152 4.4015346e-06
000050 19 92 61 b8 70 c0 9b 37 7c e4 1b b8 52 0f f7 39
       -5.3780244e-05 1.856705e-05 -3.7167672e-05 0.00047122926
000060 03 04 61 b9 ef 15 51 b9 06 8c 64 38 c5 e0 02 39
       -0.00021459167 -0.00019939964 5.4489843e-05 0.000124815
000070 14 af 53 39 ee 37 85 b9 3c 2d 71 b8 75 f1 d9 b9
       0.0002018775 -0.00025409408 -5.7501005e-05 -0.00041569365
