results/H4/ensemble_autoencoder_weights.pth (torch, 87914 bytes, 130 tensors)

autoencoders.0.encoder.cells.0.weight_h_2 f4 [8, 8]
0	0x3eda5f44	0.42650807
1	0xba6db719	-0.0009068116
2	0x3c8b112d	0.016975963
3	0xbb10c8ea	-0.002209241
4	0xbba5bdc8	-0.005058024
5	0xbf093b5f	-0.5360622
6	0x39b944eb	0.00035337298
7	0xbeb8797f	-0.36030194
8	0xbf4178f5	-0.7557519
9	0xbeb8249a	-0.35965425
10	0x3e831a42	0.2560597
11	0xbf012483	-0.5044634
12	0xbe8e960f	-0.2784886
13	0x3e82ae70	0.2552371
14	0x3e7613fc	0.24031061
15	0x3ec65b3e	0.38741487
16	0xbcdf9570	-0.027292937
17	0xb960def3	-0.0002144536
18	0x3ef3a0ad	0.47583523
19	0x3d92e35e	0.07172273
20	0x3c94e934	0.018177606
21	0x3975965f	0.00023421038
22	0x3e5fedaa	0.21868005
23	0x3e920b01	0.2852402
24	0x3de0a810	0.109695554
25	0x3e9714aa	0.29507953
26	0x3ea7b6ce	0.32756656
27	0x3ce75546	0.028238904
28	0xbecf21d5	-0.404555
29	0xbebebab2	-0.37251812
30	0xbe4ab162	-0.19794229
31	0x38be02bc	9.060415e-05
32	0x3f1f95c5	0.62337905
33	0xbda9e964	-0.08296469
34	0x3f46cdda	0.77657855
35	0x391bf00d	0.00014871378
36	0x3f00d10b	0.50318974
37	0x3cdeee4f	0.027213244
38	0x3ec9c80e	0.39410442
39	0x3cf1a702	0.02949858
40	0x3e7134b8	0.23555267
41	0xbe0e9f78	-0.1392802
42	0x3e89d482	0.26919943
43	0x3ed35491	0.41275457
44	0xbe844585	-0.2583429
45	0x3d8f70f4	0.07003966
46	0x39b8b1d3	0.00035227704
47	0xbeaa9ee1	-0.3332434
48	0x39053042	0.00012701846
49	0x3e284194	0.16431266
50	0x3d09c17d	0.03363179
51	0xbe16c9da	-0.14725438
52	0x3e8a6b9a	0.27035218
53	0x3e92db1d	0.28682795
54	0x3c9ec500	0.019381046
55	0xbe558d76	-0.20854744
56	0xb97312a0	-0.00023181224
57	0x3e44ad66	0.19206771
58	0x393f4157	0.0001823952
59	0xbf07167c	-0.52768683
60	0x3f0f75dd	0.5603922
61	0xbec67333	-0.38759765
62	0x3ec3391e	0.38129514
63	0x3de6a322	0.11261584

autoencoders.0.encoder.cells.0.bias_h_2 f4 [8]
0	0x00000000	0.0
1	0x00000000	0.0
2	0x00000000	0.0
3	0x00000000	0.0
4	0x00000000	0.0
5	0x00000000	0.0
6	0x00000000	0.0
7	0x00000000	0.0

autoencoders.0.encoder.cells.0.lstm.weight_ih f4 [32, 1]
0	0xba2c5213	-0.00065735093
1	0xbd8ff2b4	-0.07028714
2	0x397b2283	0.00023950082
3	0x3e16b3e0	0.14717054
4	0xbe2973db	-0.16548102
5	0x3ecf93c5	0.40542427
6	0x3e890dee	0.2676844
7	0x3e81b245	0.2533132
8	0xbdacbc8c	-0.084344
9	0x38b26609	8.506707e-05
10	0xbdc74d8c	-0.09731588
11	0xbc24e51e	-0.010064391
12	0x3f247403	0.6423952
13	0x39453fd5	0.00018811163
14	0xbe0933c0	-0.13398647
15	0x3ee24ef9	0.44200876
16	0xbe275ac2	-0.16343215
17	0xbea355fb	-0.31901535
18	0x3e443fe2	0.19164994
19	0xbd5b2d0d	-0.05350976
20	0x3db6926e	0.08914648
21	0x3d81a4aa	0.06330235
22	0xbe2e3d32	-0.17015532
23	0xbd175c44	-0.036953226
24	0x3b46f8eb	0.003036077
25	0x3e5d362c	0.21602696
26	0xba6f16f5	-0.00091205473
27	0xbe826bcc	-0.25472867
28	0x3eb091fd	0.3448638
29	0x3ee933db	0.45547375
30	0xbe1a4cbc	-0.15068334
31	0x3e8ee277	0.27907154

autoencoders.0.encoder.cells.0.lstm.weight_hh f4 [32, 8]
0	0xbe176147	-0.14783202
1	0xbea5aace	-0.32356876
2	0x3d82308a	0.06356914
3	0x390d0685	0.00013449237
4	0xbd82d998	-0.06389159
5	0xbde020c8	-0.109437525
6	0xbd65f813	-0.056144785
7	0x3aa9d609	0.0012957464
8	0xbe96bb0d	-0.29439583
9	0xbb156ce9	-0.0022800511
10	0x3dfc07b8	0.1230616
11	0xbe82e1b1	-0.25562814
12	0xbe7ec182	-0.24878505
13	0xbe4ae382	-0.1981335
14	0xbeac0354	-0.3359629
15	0xbe9134c2	-0.28360564
16	0xbb192cb5	-0.0023372595
17	0x3e4810f4	0.19537717
18	0x3ecef9fe	0.40425104
19	0x3e2efa26	0.17087612
20	0x39aa2f36	0.00032460102
21	0x3d2730b4	0.04081793
22	0xba86f7f2	-0.0010297282
23	0xba20764d	-0.0006121144
24	0x3e98b994	0.29829085
25	0x3ae8e8fc	0.001776963
26	0xb9a65a73	-0.00031729377
27	0xbe3003aa	-0.17188898
28	0xbd603ac8	-0.05474356
29	0xbe62be46	-0.22142896
30	0xbcce5e49	-0.025191443
31	0x389312d5	7.013014e-05
32	0x3d86cd50	0.06582129
33	0xb9f41196	-0.0004655241
34	0xbe32dfea	-0.17468229
35	0x363f1353	2.8472466e-06
36	0x3d95985a	0.073044494
37	0xbc79590f	-0.015218987
38	0x3e4f8492	0.20265415
39	0x3c03386c	0.0080090575
40	0xb8b37559	-8.557243e-05
41	0xbe4f4dec	-0.20244569
42	0xbe353806	-0.17697152
43	0xbd81f8dc	-0.06346294
44	0x3e571346	0.21003446
45	0x3e71f2f8	0.23627841
46	0x3d5d5b11	0.054041926
47	0x38da62e7	0.00010413472
48	0xbd93db2c	-0.07219538
49	0xbde47ba4	-0.11156395
50	0x3ea4d03d	0.32190123
51	0x3eb66f3f	0.3563175
52	0xbe6a45b2	-0.22878149
53	0xbea35585	-0.31901184
54	0x399b5132	0.000296244
55	0x3d41c708	0.04730895
56	0xbd948d1a	-0.072534755
57	0x3d69801e	0.057006948
58	0xb97da214	-0.00024188339
59	0x3dc0fa72	0.09422769
60	0xbd1d1eb3	-0.038359355
61	0x3e7cf1fa	0.24701682
62	0x3e09eaed	0.13468523
63	0x3dfea79a	0.12434311
64	0x3e5e05ee	0.2168195
65	0xbe8d139b	-0.2755402
66	0xb8246c84	-3.920171e-05
67	0x39b50ce6	0.0003453262
68	0xbe9d12e1	-0.30678466
69	0xbb4358ff	-0.0029807684
70	0x3e1a7590	0.15083909
71	0x394971c6	0.00019211238
72	0xb8dabcec	-0.000104302395
73	0xbd8a5f12	-0.067564145
74	0x3937ef20	0.00017541321
75	0x3ec9b45e	0.39395422
76	0x3ea50796	0.3223235
77	0xbab0ff49	-0.0013503815
78	0x3c598fb7	0.013278893
79	0x39d2b611	0.0004018997
80	0xbd73a2e8	-0.05948153
81	0xbe5bf746	-0.21481046
82	0x3e26e47a	0.16298094
83	0x3e321a44	0.17392832
84	0x398f19f1	0.00027294413
85	0xbdd367fa	-0.10322566
86	0xbe5c8436	-0.2153481
87	0x3e0ead83	0.13933377
88	0x3c4795f0	0.012181744
89	0xb8d0f40e	-9.9636716e-05
90	0xbe9eea93	-0.3103834
91	0x37a60e0d	1.9795285e-05
92	0x3d54b55f	0.05193078
93	0x3db1e8d0	0.086869836
94	0x3d861ea0	0.0654881
95	0x39d45e19	0.000405059
96	0xbe07bb17	-0.13254963
97	0x3db7e708	0.089796126
98	0xbd7ebaa1	-0.062189702
99	0x3c8be9ad	0.017079199
100	0x3e60e3f4	0.21961957
101	0xb99fbe28	-0.0003046852
102	0x3ea77051	0.32702878
103	0x3efa05ec	0.48832643
104	0x3e87d1bf	0.2652721
105	0x3e3a852a	0.1821486
106	0x3d1cfa2f	0.03832453
107	0x3c4c057a	0.012452478
108	0xbad61129	-0.0016332018
109	0x3e808f63	0.25109395
110	0xbd97b8ce	-0.074082956
111	0x3d5708fb	0.0524988
112	0xbd871af8	-0.06596941
113	0x3e3fb394	0.18720847
114	0xbe04e1b5	-0.12976725
115	0xbdcd5cd8	-0.10027474
116	0x3d767e93	0.060179304
117	0xba4e6e1c	-0.0007874684
118	0xbeb46424	-0.3523265
119	0x3dbaabd2	0.091148034
120	0x3d9d3400	0.07675934
121	0xbe41d05a	-0.18927136
122	0xbeb7b395	-0.35879198
123	0x37ef9e69	2.8564786e-05
124	0xbca95261	-0.020669164
125	0x3bd20f96	0.0064105494
126	0xbe47cc8e	-0.19511625
127	0xbd28d04c	-0.041214272
128	0xbec676c7	-0.38762495
129	0xbe9403dd	-0.28909197
130	0x3e96e539	0.29471758
131	0xbe034e60	-0.12822866
132	0x3c7850d7	0.0151559925
133	0x3d65f67b	0.056143265
134	0xbe11b099	-0.14227523
135	0xbd97e836	-0.074173376
136	0xbeca2086	-0.39477938
137	0xbe37e456	-0.17958197
138	0x3e7625d4	0.24037868
139	0x3dc4215c	0.09576675
140	0x3d8b2488	0.06794077
141	0xbe74e60c	-0.23915881
142	0xbe693db0	-0.22777438
143	0x3b3bf3cb	0.0028679247
144	0x3e7f1eba	0.24914065
145	0x39e1ebad	0.00043090936
146	0x39f700cd	0.00047112108
147	0x3db891ce	0.09012185
148	0xbd7d0f61	-0.061782245
149	0x3ecf4959	0.40485647
150	0x3d02cca7	0.031933453
151	0x3b536b54	0.0032260017
152	0x3ddb1bca	0.1069866
153	0x3e6ef344	0.23334986
154	0x38afa79c	8.37587e-05
155	0x3df4736a	0.11936076
156	0xbd5e078d	-0.05420642
157	0x3e808aaf	0.25105807
158	0x3e1fc50e	0.15602514
159	0x38d65700	0.0001022052
160	0xb984be2a	-0.00025318685
161	0x3e713150	0.23553967
162	0xbe16211f	-0.14661072
163	0x3e547ef2	0.20751551
164	0x3e58fabe	0.211894
165	0xbccd8c65	-0.02509136
166	0xbcba8213	-0.022767102
167	0x3e38c788	0.18044865
168	0x3dcba214	0.09943023
169	0x3df9c2a8	0.12195331
170	0xbc3f0890	-0.011659756
171	0xbe6db3b6	-0.23213086
172	0xbd34ed27	-0.04417148
173	0x3dcd0d9e	0.10012363
174	0xb5167e41	-5.606308e-07
175	0xbe3d8b7a	-0.18510237
176	0x3d75ab87	0.059978034
177	0x3c812796	0.015765946
178	0xb8e77a4c	-0.00011037718
179	0x3ca18666	0.019717406
180	0x3841f15e	4.6239576e-05
181	0x3e80dd79	0.2516897
182	0xbc221dfe	-0.009894846
183	0xbd869c10	-0.06572735
184	0xbf06f4fc	-0.52717566
185	0x3df82c98	0.121178806
186	0x3e9570c1	0.29187587
187	0xbebdbfac	-0.37060297
188	0x3e248561	0.16066505
189	0xbdc56312	-0.09638037
190	0xbef35913	-0.47528896
191	0x39b29e97	0.00034068964
192	0xbddbe55e	-0.10737108
193	0xbe394e1a	-0.180962
194	0x389bf0f0	7.435854e-05
195	0x3b420dd4	0.0029610293
196	0x39f821a4	0.0004732731
197	0x3e63a746	0.22231779
198	0x3ad5107c	0.0016255523
199	0x3d9a6778	0.07539266
200	0xbdab2158	-0.08355969
201	0xb899ff59	-7.343171e-05
202	0x3eb7f280	0.359272
203	0x3e715628	0.23568022
204	0x3a39d29d	0.0007088574
205	0x3e69eaac	0.22843426
206	0xbd33a953	-0.043862652
207	0x3a1b68f8	0.00059284223
208	0x3e8af1e7	0.27137682
209	0xbae9d5bc	-0.0017840187
210	0xbe4c5e06	-0.19957742
211	0x3d281cc8	0.041043073
212	0x3e5a8386	0.21339235
213	0xbca7d60f	-0.020487813
214	0xbedcacbe	-0.43100542
215	0x3cc7c0db	0.024383953
216	0xbe35d0d6	-0.17755446
217	0xbc8c3121	-0.01711327
218	0xbd04904d	-0.03236418
219	0x3e8a7cf8	0.2704847
220	0x3ef172f9	0.4715803
221	0xbee623b5	-0.44949117
222	0x3dfc1086	0.12307839
223	0x3db58fe2	0.08865334
224	0x3d25daa9	0.040491734
225	0x3e187d05	0.14891441
226	0xbcfbd9c3	-0.030743485
227	0xbe6445ca	-0.22292247
228	0x3db26ddc	0.0871236
229	0x3da733f6	0.08164208
230	0xbe10ef70	-0.14153838
231	0x3efe0d68	0.49619603
232	0xbe2b1f4b	-0.16711156
233	0xbd354a25	-0.044260163
234	0xbdbc5562	-0.09195973
235	0xb7f3c6b9	-2.9060395e-05
236	0xb9b2d7ec	-0.0003411168
237	0x3e035308	0.12824643
238	0x39fb9070	0.00047982065
239	0xbde55242	-0.1119733
240	0xbe6a1714	-0.22860366
241	0x3e784706	0.24245843
242	0xb99dcf8f	-0.00030100017
243	0xb98af3c0	-0.0002650302
244	0x3e9ac9f6	0.3023221
245	0x3e7a831a	0.24464074
246	0x39cff0ec	0.00039661617
247	0xbc6dc79c	-0.014512923
248	0x3b456aff	0.003012359
249	0x3df17ae2	0.11791016
250	0x3bc59e82	0.0060308585
251	0xbe38b9f0	-0.1803968
252	0xb99c7b41	-0.0002984647
253	0x3a8344b9	0.0010014988
254	0x3de11294	0.109898716
255	0xbe37f31e	-0.17963836

autoencoders.0.encoder.cells.0.lstm.bias_ih f4 [32]
0	0x00000000	0.0
1	0x00000000	0.0
2	0x00000000	0.0
3	0x00000000	0.0
4	0x00000000	0.0
5	0x00000000	0.0
6	0x00000000	0.0
7	0x00000000	0.0
8	0x00000000	0.0
9	0x00000000	0.0
10	0x00000000	0.0
11	0x00000000	0.0
12	0x00000000	0.0
13	0x00000000	0.0
14	0x00000000	0.0
15	0x00000000	0.0
16	0x00000000	0.0
17	0x00000000	0.0
18	0x00000000	0.0
19	0x00000000	0.0
20	0x00000000	0.0
21	0x00000000	0.0
22	0x00000000	0.0
23	0x00000000	0.0
24	0x00000000	0.0
25	0x00000000	0.0
26	0x00000000	0.0
27	0x00000000	0.0
28	0x00000000	0.0
29	0x00000000	0.0
30	0x00000000	0.0
31	0x00000000	0.0

autoencoders.0.encoder.cells.0.lstm.bias_hh f4 [32]
0	0x00000000	0.0
1	0x00000000	0.0
2	0x00000000	0.0
3	0x00000000	0.0
4	0x00000000	0.0
5	0x00000000	0.0
6	0x00000000	0.0
7	0x00000000	0.0
8	0x00000000	0.0
9	0x00000000	0.0
10	0x00000000	0.0
11	0x00000000	0.0
12	0x00000000	0.0
13	0x00000000	0.0
14	0x00000000	0.0
15	0x00000000	0.0
16	0x00000000	0.0
17	0x00000000	0.0
18	0x00000000	0.0
19	0x00000000	0.0
20	0x00000000	0.0
21	0x00000000	0.0
22	0x00000000	0.0
23	0x00000000	0.0
24	0x00000000	0.0
25	0x00000000	0.0
26	0x00000000	0.0
27	0x00000000	0.0
28	0x00000000	0.0
29	0x00000000	0.0
30	0x00000000	0.0
31	0x00000000	0.0

autoencoders.0.decoder.cells.0.weight_h_2 f4 [8, 8]
0	0xbe13b33e	-0.14423844
1	0x3e78cd60	0.24297094
2	0x3f1a80c9	0.6035276
3	0x3c89ba2d	0.016812408
4	0x3d8da1ee	0.06915651
5	0xbd813cbc	-0.06310412
6	0x3d7d1af2	0.061793275
7	0xbef773fa	-0.4833067
8	0x3dbbc5cb	0.091685854
9	0xbdada1b4	-0.08478108
10	0x3ec286dc	0.37993515
11	0x3e97d729	0.29656342
12	0x3ef9f44b	0.48819193
13	0x3ef8ced6	0.48595303
14	0x3e843abe	0.25826067
15	0x3cb4ce53	0.02207104
16	0xbdb8c1fb	-0.09021374
17	0x3f0369af	0.51333135
18	0x3f0333c6	0.51250875
19	0x3f36457d	0.7119978
20	0xbeb3968c	-0.35075796
21	0xbda8c737	-0.08241122
22	0x3e0f07fa	0.13967887
23	0xbe930a61	-0.28718856
24	0xba207d48	-0.0006122184
25	0xbe720c8c	-0.23637599
26	0xbea81e3d	-0.3283557
27	0xbe1a3663	-0.1505981
28	0x3e301fa1	0.17199565
29	0x3f0d898b	0.55288
30	0xbd3a42e2	-0.04547394
31	0xbeca612e	-0.39527267
32	0x3e40901a	0.1880497
33	0xbd0d611b	-0.034516435
34	0x3eb180e9	0.34668663
35	0x3f15bda2	0.5849248
36	0x3e8f5f5e	0.28002447
37	0x3eb08eec	0.3448404
38	0xbea9e30a	-0.3318103
39	0x3eb24951	0.3482156
40	0xbf02e2c4	-0.51127267
41	0x3e883a1b	0.2660683
42	0xbe10cba7	-0.14140187
43	0x3e647299	0.2230934
44	0xbe957e70	-0.29198027
45	0x3ee17cfd	0.4404067
46	0x3e21cd18	0.15800893
47	0xbe7d3705	-0.2472802
48	0x3f2d9a69	0.67813736
49	0xbe6336eb	-0.22188918
50	0xbf0a50a5	-0.54029304
51	0xbdb0e8e0	-0.086381674
52	0xbf456740	-0.7711067
53	0xbe833b8b	-0.25631365
54	0x3eae0e81	0.3399544
55	0x3e37b2df	0.17939328
56	0xbf0e424b	-0.55569905
57	0x3d8a6a01	0.067585
58	0xbe141a41	-0.1446314
59	0x3c4f6f08	0.012660749
60	0xbe87530b	-0.26430544
61	0x3eccc824	0.39996445
62	0xbe8b52df	-0.27211663
63	0x3d3e2a41	0.046427015

autoencoders.0.decoder.cells.0.bias_h_2 f4 [8]
0	0xbd630ab4	-0.05543013
1	0x3d937d8e	0.07201682
2	0xbd1bf367	-0.038073923
3	0x3d8fec2e	0.070274696
4	0x3d496ba9	0.04917494
5	0x3d8f302b	0.06991609
6	0x3d90a7ba	0.07063241
7	0x3d9821b2	0.07428302

autoencoders.0.decoder.cells.0.lstm.weight_ih f4 [32, 1]
0	0xbda66950	-0.081255555
1	0x3e539785	0.20663269
2	0xbe501c4e	-0.20323297
3	0xbcce4dc1	-0.02518356
4	0xbe9e327b	-0.3089789
5	0xbdbf43bc	-0.09339091
6	0x3d0d9b48	0.034571916
7	0x3e9c34ed	0.3050913
8	0xbd38500f	-0.044998225
9	0xbe5ac5fd	-0.21364589
10	0xbeccaad0	-0.3997407
11	0xbe2efdfb	-0.17089073
12	0xbe41e0f4	-0.18933469
13	0xbde428b2	-0.111405745
14	0xbdc156ef	-0.094404094
15	0xbd2917e1	-0.04128254
16	0xbe066722	-0.1312528
17	0x3e5d2651	0.21596648
18	0xbe8ac11c	-0.27100456
19	0xbdc8bc08	-0.09801489
20	0xbe4a304f	-0.19744991
21	0x3eaaf247	0.33387968
22	0xbd9aacf9	-0.07552523
23	0xbcb1b6dd	-0.021693641
24	0x3ec4049a	0.3828476
25	0x3eb52915	0.35382906
26	0xbeacff1a	-0.33788377
27	0xbe2d261a	-0.16909066
28	0xbaad6fb0	-0.0013232138
29	0x3d92a0f1	0.071596034
30	0x3dd6aaf8	0.104818285
31	0x3df25954	0.11833444

autoencoders.0.decoder.cells.0.lstm.weight_hh f4 [32, 8]
0	0x3e5a331b	0.21308558
1	0x3de7ee22	0.11324717
2	0xbd6a08a1	-0.057137135
3	0x3ca0c323	0.019624298
4	0x3e5bfafc	0.21482462
5	0x3e592c18	0.21208227
6	0xbe05576a	-0.13021627
7	0xbdf2f986	-0.11863999
8	0x3f113a93	0.5673
9	0x3dac1632	0.08402671
10	0x3ee3f6b1	0.44524148
11	0xbe818a95	-0.25301042
12	0x3b46f712	0.0030359668
13	0xbc86e617	-0.016467137
14	0x3dd1965e	0.102337584
15	0x3e62ced1	0.22149207
16	0x3f2ce4ad	0.6753643
17	0x3e29f740	0.16598225
18	0xbdea936c	-0.114539
19	0x3eb6151c	0.3556298
20	0xbe343cd9	-0.17601337
21	0x3d704425	0.058658738
22	0xbe4bf627	-0.19918118
23	0xbd3cf66a	-0.046133436
24	0x3d9b3f06	0.0758038
25	0xbeac27c1	-0.3362408
26	0x3d8c46f1	0.068494685
27	0x3e9b1a3d	0.30293456
28	0xbdb231c0	-0.08700895
29	0x3ea0c25f	0.31398293
30	0x3e60ccdb	0.21953146
31	0xbe213b5a	-0.15745297
32	0xbda7fc35	-0.082024015
33	0x3da11c0c	0.07866678
34	0xbee2f42a	-0.44326907
35	0xbc74601a	-0.0149154905
36	0xbe10d0e8	-0.14142191
37	0xbde5d645	-0.11222509
38	0x3b078fb2	0.0020685014
39	0xbe3fb7f3	-0.18722515
40	0xbe924432	-0.28567654
41	0x3e67a26b	0.22620551
42	0x3ea23555	0.31681314
43	0xbeb55c0c	-0.3542179
44	0xbde65535	-0.11246721
45	0x3e0ceb6b	0.1376168
46	0xbe910c07	-0.2832949
47	0x3eb38b8b	0.350674
48	0xbe805f5b	-0.2507275
49	0x3e61c104	0.22046286
50	0x3e46d9e3	0.19419055
51	0xbea5f86e	-0.324161
52	0x3e2286c0	0.15871716
53	0x3e84aa6a	0.25911266
54	0xbad9f080	-0.0016627461
55	0x3ef37b15	0.47554842
56	0x3e83698b	0.2566646
57	0xbdcc1d31	-0.09966505
58	0x3e637e5d	0.22216173
59	0xbbfdfb16	-0.007750879
60	0x3e0c48fb	0.13699715
61	0x3e439a2c	0.1910178
62	0x3f0f3b7f	0.5595016
63	0x3f2af8a8	0.6678567
64	0xbe55df22	-0.208859
65	0x3e0f3b84	0.13987547
66	0x3f10cac9	0.56559426
67	0x3e8e1125	0.27747455
68	0x3e829d0f	0.2551045
69	0x3db9604d	0.09051571
70	0xbbf3c521	-0.007439271
71	0x3dea64d6	0.11445014
72	0x3c27d9b1	0.010244773
73	0x3d73ce11	0.059522692
74	0x3e5b993b	0.21445172
75	0xbe2a3674	-0.16622335
76	0x3e8fc6e8	0.2808144
77	0x3ef418fa	0.47675306
78	0xbe967fbe	-0.29394335
79	0x3da8b600	0.08237839
80	0xb7ca251f	-2.4097562e-05
81	0xbe9b6ada	-0.3035496
82	0xbe760854	-0.24026614
83	0x3e8a335d	0.26992312
84	0x3ed17507	0.40909597
85	0x3da68aaa	0.08131917
86	0xbec2a3ca	-0.38015586
87	0xbb78dee9	-0.0037974662
88	0xbd8eb90a	-0.06968887
89	0x3e03df2f	0.12878107
90	0x3daec449	0.08533532
91	0xbed20d04	-0.41025555
92	0x3bbf9671	0.0058467914
93	0xbe108ba4	-0.14115769
94	0xbe193b5e	-0.14964053
95	0x3e3e0d0b	0.18559663
96	0xbd05a166	-0.032624625
97	0xbdc198a6	-0.094529435
98	0xbe8d0fde	-0.27551168
99	0xbe8370f8	-0.25672126
100	0xbd50aa43	-0.050943624
101	0x3e0a4b9d	0.13505407
102	0x3c4e0d48	0.012576409
103	0xbc338754	-0.010957558
104	0x3e8597a3	0.26092252
105	0x3d1e70ff	0.03868198
106	0x3e214031	0.15747143
107	0xbd89b4d3	-0.067239426
108	0x3e2086e5	0.15676458
109	0x3d8f9923	0.070116304
110	0xbdfd4dfb	-0.12368389
111	0xbe142122	-0.14465764
112	0x3dfc3930	0.12315595
113	0x3ddb89da	0.107196525
114	0xbe80613b	-0.2507418
115	0xbe024872	-0.12722948
116	0xbc8ae2bf	-0.016953824
117	0xbe084360	-0.13306952
118	0xbe160008	-0.1464845
119	0xbd4c9f47	-0.049956586
120	0xbccf4b9a	-0.025304604
121	0x3f35e0a5	0.71045905
122	0x3ed78e7e	0.421009
123	0xbe87fbe6	-0.2655937
124	0xbe130460	-0.14357138
125	0x3b87bfac	0.004142722
126	0x3eadc44a	0.3393882
127	0xbe35a38b	-0.17738168
128	0x3defee20	0.117153406
129	0xbe8ebe2f	-0.27879474
130	0xbea0a874	-0.3137852
131	0x3c75e4b8	0.015008144
132	0xbe24aee7	-0.16082345
133	0x3ccc0890	0.024906427
134	0xbd9c625a	-0.076359466
135	0xbd8486a1	-0.06470991
136	0x3d070791	0.0329662
137	0x3eb0f258	0.34559894
138	0xbbbe698d	-0.0058109225
139	0xbaf81515	-0.0018927181
140	0x3eea5d17	0.45774147
141	0x3dd84976	0.105608866
142	0xbe7c9413	-0.24665861
143	0x3edc4098	0.4301803
144	0xbdb6c769	-0.08924753
145	0xbe7e6eb3	-0.24846916
146	0xbe6a6c65	-0.22892912
147	0x3e2ea4d3	0.17055063
148	0x3eb6c591	0.35697606
149	0xbe02a9c1	-0.12760068
150	0xbc9788bd	-0.01849782
151	0xbe61a345	-0.22034939
152	0x3e8ed661	0.27897933
153	0x3d349ccb	0.044094842
154	0x3ce001b9	0.027344571
155	0x3e837307	0.25673696
156	0x3ea1df43	0.31615648
157	0x3e168f7a	0.1470317
158	0x3d874d8a	0.06606586
159	0xbee507f6	-0.44732636
160	0x3e21c2dc	0.15796989
161	0xbd74e644	-0.05978991
162	0x3dca0e47	0.098660044
163	0xbec563b9	-0.38552645
164	0x3dca4c10	0.09877789
165	0xbde0b3ba	-0.1097178
166	0x3eaed90f	0.34149978
167	0x3e3d2f2c	0.18475026
168	0xbe6b5763	-0.22982554
169	0x3e3b82e1	0.18311645
170	0xbe561c4c	-0.20909232
171	0xbe27e037	-0.16394125
172	0xbdbf516e	-0.09341703
173	0x3dbaf93f	0.09129571
174	0x3e61a8ac	0.22037
175	0x3e8fa12b	0.2805265
176	0xbd829e15	-0.06377808
177	0x3e873bfc	0.26412952
178	0x3ca3ac38	0.019979581
179	0x3e017e4d	0.12645836
180	0x3f0da110	0.55323887
181	0x3c441b5b	0.011969413
182	0x3e896d59	0.26841238
183	0xbd91baf5	-0.07115737
184	0x3dd48b15	0.1037809
185	0xbdd3017e	-0.10303019
186	0x3ed907d3	0.42388782
187	0x3ed6fd70	0.41990232
188	0xbedb15f9	-0.427902
189	0x3ef55e47	0.4792349
190	0x3e1cbb21	0.15305759
191	0x3e406b4a	0.18790928
192	0x3dc874c6	0.09787898
193	0x3dc9147a	0.09818359
194	0x3e949c3d	0.2902545
195	0x3d46d1b1	0.04853982
196	0x3dc7c477	0.097542696
197	0x3e826323	0.2546626
198	0x3e2421f9	0.16028585
199	0xbeb6fc83	-0.35739526
200	0x3e839a3a	0.25703603
201	0x3e024d5f	0.12724827
202	0x3eaab82c	0.33343637
203	0x3d5549e1	0.05207241
204	0x3e4ded4a	0.2011005
205	0x3e10fb65	0.141584
206	0x3db73e78	0.08947462
207	0x3e458ecc	0.19292754
208	0x3ea42e8e	0.32066768
209	0x3ebda28b	0.37038073
210	0x3ecbbad0	0.39790964
211	0xbdaaf163	-0.08346822
212	0xbe5fd618	-0.21859014
213	0xbe9d2863	-0.30694875
214	0xbdf804c5	-0.12110285
215	0xbe9ffdbd	-0.31248274
216	0xbd95ce1b	-0.07314702
217	0x3e4b892b	0.19876544
218	0x3e30d57f	0.17268942
219	0xbe4b46ee	-0.19851276
220	0x3d935fea	0.071960285
221	0x3e2ab554	0.16670734
222	0xbe04dba0	-0.12974405
223	0x3d055a68	0.03255692
224	0xbe88e368	-0.26735997
225	0x3db798aa	0.08964665
226	0xbdbd96ee	-0.09257303
227	0x3e9bedbc	0.30454814
228	0x3e48c2b0	0.19605517
229	0xbead18a3	-0.3380786
230	0xbde7ce61	-0.113186605
231	0xbe52b64b	-0.20577352
232	0x3e27a2ac	0.16370648
233	0x3e8de00c	0.27709997
234	0xbe68300e	-0.22674581
235	0xbe84d0e8	-0.25940633
236	0x3e22e0eb	0.15906112
237	0xbdddc3d4	-0.10828367
238	0x3de76b99	0.112998195
239	0x3ead31af	0.33826968
240	0xbdb88767	-0.09010201
241	0x3d6e8870	0.058235586
242	0x3eda38cd	0.4262146
243	0xbdfed965	-0.124438085
244	0x3eacb296	0.3373
245	0xbd3bbeea	-0.045836367
246	0xbe453e87	-0.19262134
247	0xbb6ff6ec	-0.0036615683
248	0xbdd398d7	-0.10331886
249	0x3ed389a6	0.41315955
250	0x3e829e2f	0.2551131
251	0x3d188d1e	0.037243955
252	0x3e31b984	0.17355925
253	0x3defa4c8	0.117013514
254	0x3e87eabb	0.26546273
255	0xbe237b5c	-0.15965027

autoencoders.0.decoder.cells.0.lstm.bias_ih f4 [32]
0	0x3d8c5740	0.06852579
1	0x3d9f7f9b	0.07788011
2	0x3d051e31	0.032499496
3	0xbd0104b0	-0.03149861
4	0xbd38e510	-0.045140326
5	0x3dbbfe4d	0.091793634
6	0x3dc6d15b	0.097079
7	0x3d9892a8	0.074498475
8	0x3d95848d	0.07300673
9	0x3da98ca5	0.08278779
10	0x3d04d01c	0.03242503
11	0xbcddee79	-0.027091252
12	0xbd2a7558	-0.041615814
13	0x3dc4e7e3	0.096145414
14	0x3dd00b88	0.101584494
15	0x3da7ee60	0.08199763
16	0xbd5f7b54	-0.054560974
17	0x3d7ff4f0	0.06248945
18	0xbd04aa31	-0.03238887
19	0x3d8bab77	0.06819814
20	0x3d651d92	0.055936404
21	0x3d92c85e	0.07167123
22	0x3d97a47b	0.07404419
23	0x3d83d419	0.06436939
24	0x3d93a552	0.07209267
25	0x3da88de6	0.0823019
26	0x3d0770ce	0.033066563
27	0xbce5d0fa	-0.02805375
28	0xbd37ccb5	-0.04487296
29	0x3dc17ae7	0.0944727
30	0x3dce21b3	0.10065021
31	0x3daed772	0.08537187

autoencoders.0.decoder.cells.0.lstm.bias_hh f4 [32]
0	0x3d8c5740	0.06852579
1	0x3d9f7f9b	0.07788011
2	0x3d051e31	0.032499496
3	0xbd0104b0	-0.03149861
4	0xbd38e510	-0.045140326
5	0x3dbbfe4d	0.091793634
6	0x3dc6d15b	0.097079
7	0x3d9892a8	0.074498475
8	0x3d95848d	0.07300673
9	0x3da98ca5	0.08278779
10	0x3d04d01c	0.03242503
11	0xbcddee79	-0.027091252
12	0xbd2a7558	-0.041615814
13	0x3dc4e7e3	0.096145414
14	0x3dd00b88	0.101584494
15	0x3da7ee60	0.08199763
16	0xbd5f7b54	-0.054560974
17	0x3d7ff4f0	0.06248945
18	0xbd04aa31	-0.03238887
19	0x3d8bab77	0.06819814
20	0x3d651d92	0.055936404
21	0x3d92c85e	0.07167123
22	0x3d97a47b	0.07404419
23	0x3d83d419	0.06436939
24	0x3d93a552	0.07209267
25	0x3da88de6	0.0823019
26	0x3d0770ce	0.033066563
27	0xbce5d0fa	-0.02805375
28	0xbd37ccb5	-0.04487296
29	0x3dc17ae7	0.0944727
30	0x3dce21b3	0.10065021
31	0x3daed772	0.08537187

autoencoders.0.decoder.output_layer.weight f4 [1, 8]
0	0xbd997943	-0.07493832
1	0x3e907403	0.2821351
2	0xbd783f2d	-0.060607124
3	0x3e118a0f	0.14212821
4	0x3c412e45	0.011790817
5	0x3e4a0e53	0.19732027
6	0x3ea7175a	0.32635003
7	0x3e4f10db	0.20221274

autoencoders.1.encoder.cells.0.weight_h_2 f4 [8, 8]
0	0x3863a181	5.427143e-05
1	0xbebaa6ab	-0.36455283
2	0x3e9ac316	0.30226964
3	0xbe794de8	-0.24346125
4	0x3e0149c4	0.12625796
5	0xb8c06e49	-9.175816e-05
6	0xbf033947	-0.51259273
7	0x3dc14e30	0.09438741
8	0x3f143262	0.5788938
9	0x381ac139	3.6896414e-05
10	0xbecf23da	-0.4045704
11	0xba1a9d97	-0.00058981165
12	0x3b0af78a	0.0021204674
13	0x3baf5e1c	0.005351795
14	0xbe468250	-0.19385648
15	0xbf5a71a8	-0.85329676
16	0xbe070e21	-0.13188984
17	0x3e20322d	0.1564414
18	0xbe9b943c	-0.3038653
19	0x3e0e9a04	0.1392594
20	0x3cd31f3c	0.02577173
21	0x3eda8254	0.42677557
22	0xbea88f36	-0.3292176
23	0x3ee7f248	0.45302033
24	0x392008f4	0.00015262124
25	0xbdb17cd0	-0.08666384
26	0xbdb8cecc	-0.090238184
27	0x3e393ce2	0.18089631
28	0x3ef83c78	0.48483634
29	0xbda5909e	-0.08084224
30	0x3ed0fa61	0.40816024
31	0xbe25bc89	-0.16185202
32	0xb8089b87	-3.2569773e-05
33	0x3ee2a674	0.4426762
34	0x3f14f7de	0.58190715
35	0xbeb2284f	-0.34796378
36	0x3d964550	0.07337439
37	0x3f0e02c2	0.5547296
38	0xbecbcc71	-0.39804414
39	0x3eee560d	0.46550027
40	0xbe5cfb7a	-0.21580306
41	0x3c0fbf71	0.0087736705
42	0x3e8bad36	0.27280587
43	0x3e2eeb70	0.17082
44	0x3a28d0b6	0.0006439792
45	0xbeea427f	-0.45753857
46	0x3e3826b0	0.17983508
47	0xbea6ff89	-0.32616833
48	0xbee8f21a	-0.4549721
49	0x3e3cf676	0.18453392
50	0xbd24ef5d	-0.040267337
51	0x3ea9194c	0.33027112
52	0x3e8139e7	0.25239488
53	0xbea344b9	-0.3188837
54	0xbe818fa0	-0.2530489
55	0xbd219502	-0.039448746
56	0x3ec21f5a	0.37914544
57	0x39c60fbf	0.00037777235
58	0x3e3588c8	0.17727959
59	0xbb20da71	-0.0024544264
60	0x3f2a9427	0.6663231
61	0xbece0ffd	-0.40246573
62	0xbc140289	-0.009033808
63	0x380dd2ff	3.3813525e-05

autoencoders.1.encoder.cells.0.bias_h_2 f4 [8]
0	0x00000000	0.0
1	0x00000000	0.0
2	0x00000000	0.0
3	0x00000000	0.0
4	0x00000000	0.0
5	0x00000000	0.0
6	0x00000000	0.0
7	0x00000000	0.0

autoencoders.1.encoder.cells.0.lstm.weight_ih f4 [32, 1]
0	0xbd2fcc14	-0.042919233
1	0xb8e8677b	-0.00011081897
2	0xbd1d66bf	-0.038428064
3	0x3d1eec0e	0.038799338
4	0x3a1b27ef	0.00059187313
5	0x3d3f3adc	0.046686992
6	0xbe3edf7c	-0.1863994
7	0xbdc0b776	-0.094099924
8	0x3b382233	0.0028096556
9	0xbc9223cc	-0.017839335
10	0x3f09bb6d	0.53801614
11	0x39051754	0.00012692559
12	0x3ec9cf26	0.39415854
13	0x3d9cda14	0.076587826
14	0xbbebe4ed	-0.007198921
15	0xbe098e63	-0.13433222
16	0xbe2480ac	-0.1606471
17	0xbf033fca	-0.5126921
18	0x3e3af4cc	0.18257445
19	0xbd3d5cc9	-0.046231065
20	0xbd53f5ff	-0.051748272
21	0xba66c832	-0.0008803635
22	0xbe1bc32e	-0.15211174
23	0xbcb6c58d	-0.022310996
24	0xbd82243c	-0.063545674
25	0x3dcbd6d2	0.09953083
26	0x3e0007c1	0.12502958
27	0x3ea0e82c	0.31427133
28	0x3cf90c31	0.030401321
29	0xbd0fbfe8	-0.035095125
30	0xb95089a0	-0.00019887695
31	0xbe4027a2	-0.18765119

autoencoders.1.encoder.cells.0.lstm.weight_hh f4 [32, 8]
0	0x3721ff23	9.6557515e-06
1	0x3d32723b	0.04356597
2	0xbe40be0c	-0.18822497
3	0xbe162684	-0.1466313
4	0x38c6a176	9.47145e-05
5	0xb87d0134	-6.032102e-05
6	0xbc7436e7	-0.014905668
7	0xbca17c9e	-0.019712742
8	0xbdd5f20e	-0.10446559
9	0xbec2fcfc	-0.38083637
10	0x3d09dbbd	0.033656824
11	0xbd5bdd99	-0.05367813
12	0x3e058771	0.13039948
13	0xbd84cd10	-0.06484425
14	0xbca969f5	-0.020680407
15	0x3df37db0	0.11889207
16	0x3b9119e2	0.0044281343
17	0x396e5a5b	0.00022731109
18	0x3ac792c9	0.001522624
19	0xbe4c39e6	-0.19943962
20	0xbd1f5e46	-0.038908266
21	0xbce988df	-0.028507648
22	0x3e6e15c4	0.2325049
23	0x3e8e4e5f	0.27794167
24	0x3b32aea7	0.0027264745
25	0x3d14db3b	0.036341887
26	0x39833cf0	0.0002503167
27	0xba358067	-0.00069237355
28	0xbc9f3d3c	-0.019438379
29	0x3e693ed2	0.2277787
30	0x3ccb0eb9	0.024787294
31	0x3e1d99e0	0.1539073
32	0x3e0bd2ad	0.13654585
33	0x3d8443ba	0.0645823
34	0xbdd7bed6	-0.10534446
35	0xb989bf8a	-0.00026273384
36	0xbdbf62b8	-0.09345001
37	0x3d7c02a5	0.06152596
38	0x37a4c715	1.9643028e-05
39	0xbe9c359c	-0.3050965
40	0x3c0a3aee	0.0084369015
41	0xbe883827	-0.2660534
42	0x3e2bc88f	0.16775726
43	0xbe406b2c	-0.18790883
44	0xb97450db	-0.00023299774
45	0xb9d22b71	-0.00040086688
46	0xbe2513d3	-0.16120844
47	0xb89b492c	-7.404605e-05
48	0x399a000f	0.00029373213
49	0x3dda73e4	0.10666636
50	0x3e28eb41	0.16495992
51	0xba8cb368	-0.001073462
52	0x3c1be823	0.009515795
53	0x3e942f88	0.28942513
54	0xbbae36bc	-0.0053165834
55	0xb9af8c83	-0.0003348329
56	0xbda808b6	-0.082047865
57	0xbdd9c77a	-0.1063375
58	0x3e299c71	0.16563584
59	0x3eb62e35	0.35582128
60	0xbd6e21c1	-0.05813766
61	0xbccd0b2d	-0.025029743
62	0x3e14c650	0.14528775
63	0xbd525be4	-0.051357165
64	0x3884232b	6.300801e-05
65	0xbe408b54	-0.1880315
66	0x3b8823de	0.0041546663
67	0x3c720937	0.014772705
68	0x3d929416	0.071571514
69	0x38955e53	7.122443e-05
70	0xbe87049f	-0.26370713
71	0x3e8ceb16	0.27523106
72	0x38d2265c	0.00010020725
73	0xbd3d2355	-0.046176273
74	0x3d41ec4c	0.04734449
75	0xbe452a08	-0.19254315
76	0x3a1ab016	0.00059008726
77	0xbd782496	-0.060581766
78	0xbbd61a56	-0.006533901
79	0x3815cddf	3.57161e-05
80	0xba807ea2	-0.0009803365
81	0x3ceb4db5	0.028723577
82	0xb988aebf	-0.00026070137
83	0xbe36676c	-0.1781289
84	0xbd7dce41	-0.061964277
85	0xbcd30170	-0.025757521
86	0x3daf14d0	0.085488915
87	0x3e8e8d13	0.27842006
88	0x3ab76363	0.0013991412
89	0xba4ba5aa	-0.00077685213
90	0xbe37b778	-0.17941082
91	0x3d444d0f	0.04792505
92	0xbd9ebeac	-0.077512115
93	0x3e1c2f2a	0.15252367
94	0xbea0a56a	-0.313762
95	0xb854ec5c	-5.0764866e-05
96	0xbd5a7fa2	-0.053344376
97	0x3e04e087	0.12976275
98	0xbdc1a800	-0.094558716
99	0xbb02404b	-0.0019874747
100	0x3ed98bbe	0.42489427
101	0x3db2fca4	0.087395936
102	0xb9e78c0c	-0.00044164096
103	0xbe302408	-0.17201245
104	0xb8d35b30	-0.00010078249
105	0x3cf5a9fc	0.029988281
106	0xbce8a50f	-0.028399019
107	0xbe1e177e	-0.15438649
108	0xb8844e02	-6.3087806e-05
109	0x3dacf4c6	0.08445124
110	0x3e400ab2	0.1875408
111	0x3ec105e7	0.37699816
112	0x3ea508be	0.32233232
113	0xb5d855fc	-1.6118279e-06
114	0x3a1ec1cd	0.00060561
115	0xbd75595f	-0.059899684
116	0xbd3d0985	-0.046151657
117	0x3900d519	0.00012286416
118	0x3d3184ec	0.043339655
119	0xbe377638	-0.1791619
120	0x3a75bf77	0.0009374539
121	0x3ca9409d	0.020660693
122	0xbb0ad28a	-0.002118262
123	0x3d4a7b22	0.049433835
124	0x3e950989	0.29108837
125	0xba74361a	-0.0009315923
126	0x3cfe804b	0.031067034
127	0xbdcd293a	-0.10017629
128	0x3c55345d	0.013012973
129	0xbe0118f1	-0.1260717
130	0xb996a5b9	-0.00028733702
131	0xbc275a9e	-0.010214476
132	0xb8b4b7fc	-8.6173386e-05
133	0x3b23c9f9	0.0024992211
134	0xb899d279	-7.334812e-05
135	0xbc8b9c19	-0.017042207
136	0xbb307836	-0.002692712
137	0xbc1ae0eb	-0.009453039
138	0x3d6ef389	0.058337722
139	0x3dd38634	0.103283316
140	0xba101ca2	-0.00054974307
141	0xbebc4355	-0.3677012
142	0x3a8fbe72	0.0010966791
143	0xbd7697b7	-0.06020328
144	0x3e4ce564	0.2000938
145	0x39a286c5	0.0003099946
146	0xbe29dc9f	-0.16588067
147	0x3e117462	0.14204553
148	0xbd0bc1ff	-0.034120556
149	0xbddfacd6	-0.10921638
150	0xbe346fe2	-0.17620805
151	0x3e837f0a	0.2568286
152	0xbe62cc72	-0.22148302
153	0xbe0f0df9	-0.13970174
154	0xbe50655a	-0.20351163
155	0xbd08456c	-0.03326933
156	0xb8f6b4b5	-0.000117638534
157	0x3a235683	0.0006230848
158	0xb89dde2b	-7.5277254e-05
159	0x3d82a3b0	0.06378877
160	0x3daf98f6	0.08574097
161	0xbd6de519	-0.058079813
162	0x3e108a5d	0.14115281
163	0x3dc0754e	0.09397374
164	0x388c1499	6.679557e-05
165	0xbcff392b	-0.03115519
166	0x3e7d4ce2	0.2473636
167	0xbe7d2140	-0.24719715
168	0x3e0e2517	0.13881336
169	0x3dcd363a	0.100201085
170	0x3e6195e4	0.22029835
171	0xbd2fbd9a	-0.042905428
172	0x3eb0493f	0.34430882
173	0xbe11db26	-0.14243755
174	0xbe29e640	-0.1659174
175	0x3e7eb4ea	0.248737
176	0x3df0ab1e	0.11751388
177	0xb9262819	-0.00015845931
178	0xbd11a68d	-0.035559226
179	0x3d4b708d	0.049667884
180	0xb90daeeb	-0.0001351197
181	0xbdcf6dc0	-0.10128355
182	0x393de916	0.00018111276
183	0x3e15aa24	0.14615685
184	0x3e2a8d2b	0.16655414
185	0x3c512285	0.012764578
186	0xb8e86827	-0.00011082022
187	0xbf0ea55a	-0.55721056
188	0xbe78c56e	-0.24294063
189	0xb89f8c57	-7.607851e-05
190	0x38ec4bfa	0.00011267509
191	0xbb20b444	-0.002452151
192	0xbe0872b3	-0.13325004
193	0x3e871db1	0.2638984
194	0xbe38034a	-0.17970005
195	0x3db36018	0.08758563
196	0xbd86c2b6	-0.06580107
197	0xbd3d7681	-0.046255592
198	0xbebab742	-0.3646794
199	0x3db9ea94	0.09077945
200	0xbf3b23b8	-0.7310138
201	0x3db92af2	0.09041394
202	0x3dfd4150	0.12365973
203	0x3e5a48b0	0.2131679
204	0xbe229300	-0.15876389
205	0x3a59eb5f	0.0008312966
206	0xbab2b900	-0.0013635457
207	0xb990c2bc	-0.0002761091
208	0xbd114e84	-0.03547527
209	0x3e34341c	0.17598003
210	0x3e34cbf8	0.17655933
211	0xbe08ad9b	-0.13347475
212	0x3e0076bd	0.12545295
213	0xbe91f38e	-0.2850613
214	0xbe4aab3c	-0.19791883
215	0x3df7cf52	0.1210009
216	0xbe195ee6	-0.14977607
217	0x3ed2491a	0.41071397
218	0xbda21548	-0.07914215
219	0xbb2e8ee8	-0.0026635472
220	0x3c152d19	0.00910499
221	0x3e91f627	0.28508112
222	0x3e2e954e	0.17049143
223	0xbed841ce	-0.42237705
224	0x3e252765	0.16128309
225	0x3cbed468	0.023294643
226	0xbb880fee	-0.0041522896
227	0x3e8ee90c	0.27912176
228	0x3dee9cea	0.11651023
229	0xb99c7831	-0.00029844188
230	0xbca918a9	-0.020641642
231	0x3e0adb97	0.1356033
232	0xbea57239	-0.32313707
233	0xbefafa54	-0.4901911
234	0x3e3fde46	0.18737134
235	0x3e69a748	0.22817719
236	0x3d7e474d	0.062079716
237	0x3cf4e0a8	0.02989228
238	0x39708bab	0.00022940214
239	0x3e83b437	0.2572343
240	0x3ea15ada	0.31514627
241	0x3d826572	0.063670054
242	0xbda5a6b4	-0.08088437
243	0xbd7e33f1	-0.062061254
244	0x3f012b72	0.5045692
245	0xbdefbafc	-0.11705586
246	0xbde41c70	-0.111382365
247	0xbe24c169	-0.16089405
248	0xbe05cf4f	-0.13067363
249	0xbc62f04a	-0.013851235
250	0x3ce44f62	0.027869884
251	0xbe1cad13	-0.15300398
252	0xbe809b35	-0.25118414
253	0x3e2a35e2	0.16622117
254	0x3e6af780	0.22945976
255	0x3b29bbdf	0.0025899333

autoencoders.1.encoder.cells.0.lstm.bias_ih f4 [32]
0	0x00000000	0.0
1	0x00000000	0.0
2	0x00000000	0.0
3	0x00000000	0.0
4	0x00000000	0.0
5	0x00000000	0.0
6	0x00000000	0.0
7	0x00000000	0.0
8	0x00000000	0.0
9	0x00000000	0.0
10	0x00000000	0.0
11	0x00000000	0.0
12	0x00000000	0.0
13	0x00000000	0.0
14	0x00000000	0.0
15	0x00000000	0.0
16	0x00000000	0.0
17	0x00000000	0.0
18	0x00000000	0.0
19	0x00000000	0.0
20	0x00000000	0.0
21	0x00000000	0.0
22	0x00000000	0.0
23	0x00000000	0.0
24	0x00000000	0.0
25	0x00000000	0.0
26	0x00000000	0.0
27	0x00000000	0.0
28	0x00000000	0.0
29	0x00000000	0.0
30	0x00000000	0.0
31	0x00000000	0.0

autoencoders.1.encoder.cells.0.lstm.bias_hh f4 [32]
0	0x00000000	0.0
1	0x00000000	0.0
2	0x00000000	0.0
3	0x00000000	0.0
4	0x00000000	0.0
5	0x00000000	0.0
6	0x00000000	0.0
7	0x00000000	0.0
8	0x00000000	0.0
9	0x00000000	0.0
10	0x00000000	0.0
11	0x00000000	0.0
12	0x00000000	0.0
13	0x00000000	0.0
14	0x00000000	0.0
15	0x00000000	0.0
16	0x00000000	0.0
17	0x00000000	0.0
18	0x00000000	0.0
19	0x00000000	0.0
20	0x00000000	0.0
21	0x00000000	0.0
22	0x00000000	0.0
23	0x00000000	0.0
24	0x00000000	0.0
25	0x00000000	0.0
26	0x00000000	0.0
27	0x00000000	0.0
28	0x00000000	0.0
29	0x00000000	0.0
30	0x00000000	0.0
31	0x00000000	0.0

autoencoders.1.decoder.cells.0.weight_h_2 f4 [8, 8]
0	0x3deca1fa	0.11554332
1	0xbea593a8	-0.32339215
2	0xbf515a42	-0.8177835
3	0x3f011869	0.5042787
4	0xbe7de5ec	-0.2479474
5	0xbd827b8d	-0.06371222
6	0xbf2353e8	-0.63799906
7	0x3ee1d21e	0.4410562
8	0xbe4b98fb	-0.19882576
9	0xbf0a5aae	-0.54044616
10	0x3e35c2de	0.17750117
11	0xbea276e5	-0.31731334
12	0x3df50a1e	0.1196482
13	0x3e4e9d15	0.2017711
14	0x3f288afb	0.6583707
15	0x3eee97d8	0.46600223
16	0x3eb4161e	0.35173124
17	0x3e733833	0.23751907
18	0xbe640738	-0.22268379
19	0x3e5673fc	0.20942682
20	0x3d82f815	0.06394974
21	0xbec97744	-0.39348805
22	0x3ec573b4	0.38564837
23	0x3e31fcfa	0.17381659
24	0x3f014de6	0.5050949
25	0x3e59c984	0.21268278
26	0xbe9dc7e2	-0.3081656
27	0xbe2e7bd8	-0.1703943
28	0x3eb520fb	0.35376725
29	0xbedba849	-0.4290183
30	0x3b37f61d	0.002807028
31	0x3f37a433	0.71734923
32	0xbf08a45a	-0.5337578
33	0x3dc74469	0.09729845
34	0x3e28e215	0.16492493
35	0xbed52fd3	-0.4163805
36	0xbf29fc0e	-0.6640023
37	0xbe052e6f	-0.13005994
38	0x3dc228fd	0.09480474
39	0x3e57d3c3	0.21076874
40	0xbdfe5e09	-0.124202795
41	0xbdd0174a	-0.10160692
42	0xbd10ba70	-0.03533405
43	0xbc26c437	-0.010178617
44	0xbec9c3bd	-0.3940715
45	0xbda1dd63	-0.07903554
46	0xbd937b33	-0.07201233
47	0x3eac1a60	0.33613873
48	0xbdf3a262	-0.118962064
49	0x3d4d4c79	0.050121758
50	0x3e04e0f1	0.12976433
51	0x3f1fe7c3	0.62463015
52	0x3e79e5e1	0.24404098
53	0x3dc846aa	0.09779103
54	0xbec16a45	-0.3777639
55	0x3f0f1fa1	0.55907637
56	0x3efb02e2	0.49025637
57	0xbdb9fea4	-0.09081772
58	0x3da90dc8	0.08254582
59	0x3f4ffe55	0.81247455
60	0x3e503773	0.20333652
61	0xbe87de39	-0.2653673
62	0x3eb1bd85	0.34714904
63	0xbe0c4091	-0.13696505

autoencoders.1.decoder.cells.0.bias_h_2 f4 [8]
0	0x3d943dd1	0.07238353
1	0x3d93c3cd	0.072150804
2	0xbd3f76d5	-0.046744186
3	0xbd7594d7	-0.059956398
4	0xbd08323a	-0.033251025
5	0x3d9485d4	0.07252088
6	0xbd739f06	-0.05947783
7	0x3da9172d	0.082563736

autoencoders.1.decoder.cells.0.lstm.weight_ih f4 [32, 1]
0	0xbd38b970	-0.045098722
1	0x3d2f3275	0.04277273
2	0xbdfd1902	-0.123582855
3	0x3c607c4c	0.01370151
4	0x3c722846	0.01478011
5	0xbe255637	-0.1614617
6	0xbe8c37ee	-0.2738642
7	0xbdf13d48	-0.117792666
8	0xbe2afac0	-0.16697216
9	0x3e860e28	0.26182675
10	0xbcec5c48	-0.028852597
11	0xbd73d063	-0.059524905
12	0xbe109233	-0.1411827
13	0x3c7b50dd	0.0153391035
14	0x3f05087d	0.5196608
15	0x3e266ee4	0.16253239
16	0x3e0f9283	0.14020734
17	0x3e723c30	0.23655772
18	0xbd9999a6	-0.07500009
19	0xbdad632c	-0.08466181
20	0x3ec3852b	0.38187537
21	0x3d86eb87	0.06587892
22	0xbe1daa41	-0.15396978
23	0x3f1e7c1e	0.6190814
24	0xbe455683	-0.19271283
25	0x3ec374b2	0.3817497
26	0x3d3b31ca	0.04570178
27	0x3f03e78c	0.5152519
28	0xbc7546ba	-0.014970476
29	0x3eea2cad	0.4573721
30	0x3ec86404	0.39138806
31	0xbea8735b	-0.3290051

autoencoders.1.decoder.cells.0.lstm.weight_hh f4 [32, 8]
0	0x3ea6d004	0.32580578
1	0x3e2e4d43	0.1702166
2	0x3e18e23f	0.14930056
3	0x3ee14624	0.43998826
4	0xbeecc46b	-0.46243605
5	0x3d410a65	0.047129054
6	0x3f2a5ea3	0.66550654
7	0x3e7d1921	0.24716617
8	0x3d9063ea	0.07050307
9	0x3d9ee86a	0.07759173
10	0x3eb304ed	0.34964696
11	0x3e7ad2d2	0.24494484
12	0x3e20088b	0.15628259
13	0x3d363a64	0.04448928
14	0xbe6601fd	-0.22461696
15	0xbcf6ff5b	-0.03015106
16	0x3d897eb0	0.06713617
17	0x3edf1749	0.43572453
18	0x3cfc7430	0.030817121
19	0x3e45998c	0.19296855
20	0xbe2b9676	-0.16756615
21	0x3d9cd243	0.07657292
22	0x3dc82dc6	0.097743556
23	0x3ac6de1c	0.0015172395
24	0x3ed33c5a	0.41256982
25	0xbeab794a	-0.33490974
26	0xbe8d17f7	-0.27557346
27	0x3eac8c09	0.33700588
28	0xbd86c5e1	-0.06580711
29	0x3e0c6c0a	0.13713089
30	0xbf07919e	-0.5295657
31	0x3c806ca5	0.015676806
32	0xbe5ea85b	-0.2174391
33	0x3dea2b3f	0.1143403
34	0xbef5b376	-0.4798848
35	0x3e612ebc	0.21990484
36	0xbda18260	-0.07886195
37	0xbec4962a	-0.38395816
38	0x3d747a9b	0.05968724
39	0x3e8a23f5	0.26980558
40	0x3e064048	0.13110459
41	0x3c6b9d72	0.0143808
42	0x3ea3c34a	0.3198493
43	0x3ed93a80	0.42427444
44	0xbc98faa5	-0.018674204
45	0x3e047a21	0.12937213
46	0x3e5b7d7c	0.21434587
47	0xbd504046	-0.050842546
48	0x3e7dd4ff	0.24788283
49	0x3dd493b6	0.10379736
50	0x3e0d35b8	0.13790023
51	0x3e944789	0.28960827
52	0xbdd77cd8	-0.10521859
53	0x3eb20485	0.34769073
54	0x3ec909ad	0.39265195
55	0xbde5946a	-0.11209948
56	0x3c5f571c	0.013631608
57	0x3e197412	0.14985684
58	0xbd4912b6	-0.04909011
59	0xbd8801d0	-0.06640971
60	0x3e4dae48	0.20086014
61	0x3e8a2a62	0.2698546
62	0x3def1d46	0.11675505
63	0x3ca26ab4	0.01982627
64	0x3e0ec641	0.13942815
65	0xbdfe0d6d	-0.124049045
66	0x3e234768	0.15945208
67	0xbdd4fe4a	-0.10400064
68	0x3dae6513	0.08515372
69	0x3e7665ab	0.24062221
70	0x3dc12654	0.09431139
71	0xbdf00b06	-0.117208526
72	0x3ef9fe99	0.48827055
73	0x3e1bbf87	0.1520978
74	0x3e050bba	0.12992755
75	0xbcf67ae6	-0.0300879
76	0x3dfdd005	0.12393192
77	0x3ed07315	0.407128
78	0x3c1cb158	0.009563766
79	0x3e92870f	0.28618667
80	0x3e1bbff1	0.15209939
81	0xbde41dc1	-0.111384876
82	0x3ec0152d	0.37516156
83	0xbd9e994d	-0.077440836
84	0x3d57e70e	0.052710585
85	0xbe46da05	-0.19419105
86	0x3df7f886	0.12107949
87	0x3ed9e418	0.42556834
88	0xbf3fbe6a	-0.74899924
89	0xbd7055dd	-0.058675636
90	0xbde73747	-0.1128984
91	0x3e9082ee	0.2822489
92	0xbe608f94	-0.2192977
93	0xbf08f2bc	-0.53495383
94	0xbd7cfeab	-0.061766308
95	0x3d65456a	0.0559744
96	0xbf0f2aef	-0.55924886
97	0xbd26b442	-0.04069925
98	0x3ece969f	0.4034929
99	0x3d65f7d5	0.056144554
100	0xbe0ee4c7	-0.13954459
101	0xbe185d9b	-0.14879458
102	0xbe0e803f	-0.1391611
103	0x3e36bfb9	0.17846574
104	0x3efd89d4	0.49519217
105	0xbe089e43	-0.13341622
106	0x3d9271f6	0.071506426
107	0x3dd59460	0.10428691
108	0x3efde278	0.49586844
109	0xbe1b0669	-0.15139164
110	0x3e42dd02	0.1902962
111	0xbe2533ab	-0.16132991
112	0x3b31ed35	0.0027149443
113	0xbe90eae3	-0.28304204
114	0x3e0e7957	0.13913475
115	0xbdba2694	-0.090893894
116	0xbbc212e9	-0.0059226644
117	0xbe142715	-0.14468034
118	0xbdb04d50	-0.08608496
119	0xbb82620c	-0.0039789733
120	0x3e9bab2d	0.30404034
121	0x3e2dcd00	0.16972733
122	0xbe82fc05	-0.255829
123	0x3e704ea3	0.23467498
124	0x3c6abad6	0.014326772
125	0x3e126000	0.14294434
126	0xbcada20e	-0.021195438
127	0x3e41bdfb	0.18920128
128	0x3e24994a	0.160741
129	0x3f21c3f6	0.6318964
130	0x3eecd4c4	0.46256077
131	0xbe117d9e	-0.14208075
132	0xbdc8f290	-0.0981189
133	0x3db3b6d0	0.08775103
134	0x3e0aca55	0.13553746
135	0xbdacf1a9	-0.084445305
136	0xbe9aa6d3	-0.30205402
137	0x3e1fb5b6	0.15596661
138	0xbdc0aca0	-0.094079256
139	0x3e9c7df1	0.30564836
140	0x3d425707	0.047446277
141	0x3e9c4745	0.30523124
142	0x3e9cefc9	0.30651692
143	0x3e13f87e	0.14450261
144	0x3e34ebe7	0.17668115
145	0x3dc3589d	0.09538386
146	0xbe0acbae	-0.1355426
147	0xbeb3ad65	-0.35093227
148	0xbca12077	-0.0196688
149	0xbe478c13	-0.19487028
150	0xbba3becb	-0.0049971095
151	0xbd43843a	-0.047733523
152	0xbd7a456e	-0.06110137
153	0x3def6ab5	0.116902746
154	0x3e355d2c	0.17711323
155	0x3ed0702d	0.40710583
156	0xbe0da7a0	-0.13833475
157	0x3db94e97	0.09048193
158	0xbdcb776f	-0.099348895
159	0xbe391920	-0.1807599
160	0x3db230c7	0.0870071
161	0x3e2baa56	0.16764197
162	0xbe2e0a51	-0.16996123
163	0xbe2ff47a	-0.17183104
164	0x3f14f05e	0.5817927
165	0xbcfb7554	-0.030695595
166	0xbdda6e89	-0.10665614
167	0xbd6f737e	-0.05845975
168	0x3e9e62e4	0.30934823
169	0x3ca756a6	0.02042706
170	0x3e556268	0.2083832
171	0x3d46d64d	0.048544217
172	0x3d5f0724	0.05445017
173	0xbd785fc4	-0.060638204
174	0x3e493268	0.19648135
175	0x3e4f72a9	0.20258583
176	0xbec77ed8	-0.38963962
177	0xbbb08619	-0.0053870794
178	0xbdeb2b8d	-0.11482916
179	0x3d855140	0.06509638
180	0x3cb7bcf8	0.022428975
181	0xbe8c0d8d	-0.27354088
182	0x3dc7b8c5	0.09752039
183	0xbe8ebbd2	-0.2787767
184	0xbed59007	-0.41711447
185	0x3d080fff	0.03321838
186	0xbed1021e	-0.40821928
187	0x3d244abc	0.040110335
188	0x3d9d8533	0.07691421
189	0x3eaccfd2	0.33752304
190	0x3e170485	0.14747818
191	0xbd6c3b2d	-0.057673622
192	0x3e3cc26b	0.1843354
193	0x3e97d870	0.29657316
194	0x3d09355b	0.03349815
195	0x3dc8687e	0.09785555
196	0xbd94de15	-0.07268921
197	0xbe3f9ba4	-0.18711716
198	0xbdd85298	-0.105626285
199	0x3edb0f6c	0.42785203
200	0xbdf6a1fb	-0.12042614
201	0x3e0ce3fb	0.13758843
202	0x3e83e19a	0.25758058
203	0xbe068c80	-0.13139534
204	0xbc8604b1	-0.016359659
205	0x3e248ef3	0.16070156
206	0x3db28729	0.08717186
207	0x3ee01564	0.4376632
208	0xbd7e0db7	-0.0620248
209	0xbcdb3495	-0.026758472
210	0x3e01ac2c	0.12663335
211	0x3c903c6f	0.017606942
212	0xbe2aef78	-0.16692913
213	0xbe313aae	-0.17307541
214	0xbe4440ad	-0.19165297
215	0xbe546a5a	-0.20743695
216	0xbc766b7b	-0.015040274
217	0xbee872eb	-0.45400175
218	0x3d73a195	0.05948027
219	0xbd358a26	-0.0443212
220	0xbe47ae31	-0.19500042
221	0x3ea41088	0.32043862
222	0x3eca2905	0.3948442
223	0x3e6b5589	0.22981848
224	0x3ebf80d6	0.37402982
225	0x3e218680	0.15773964
226	0xbda3cbae	-0.07997833
227	0x3da48880	0.08033848
228	0x3dde6365	0.10858802
229	0xbe806bec	-0.25082338
230	0x3e4b5237	0.19855581
231	0xbeeadb86	-0.45870608
232	0xbc58b7ea	-0.013227442
233	0x3eadbcf2	0.33933216
234	0xbe8b9b56	-0.2726695
235	0xbdb4fd37	-0.088373594
236	0xbd8a03dd	-0.06739018
237	0x3d8c49b8	0.06849998
238	0x3e2a53f9	0.16633596
239	0x3e664fa2	0.22491315
240	0x3e879358	0.26479602
241	0xbe08a8e3	-0.13345675
242	0x3e0431db	0.12909643
243	0xbda0c2f9	-0.07849688
244	0x3f04a96c	0.5182102
245	0xbe12b6ad	-0.14327498
246	0x3e516715	0.20449479
247	0xbddcc351	-0.10779441
248	0x3e279744	0.16366297
249	0x3ec5ee91	0.38658574
250	0x3e972fe5	0.29528728
251	0x3e7f4af9	0.24930944
252	0xbe4c6ac0	-0.19962597
253	0x3e97741e	0.29580778
254	0xbe3525be	-0.17690179
255	0xbe83b309	-0.2572253

autoencoders.1.decoder.cells.0.lstm.bias_ih f4 [32]
0	0x3dae971e	0.08524917
1	0x3d9641e4	0.073367864
2	0x3d5b4bb8	0.053539008
3	0xbd053b7d	-0.032527436
4	0xbcfe7a32	-0.031064127
5	0x3db09bae	0.086234435
6	0x3d8891d8	0.066684425
7	0x3dc91d91	0.098200925
8	0x3dbaf95a	0.09129591
9	0x3da05e34	0.07830468
10	0x3d6ad1b9	0.057328913
11	0xbd035fda	-0.032073833
12	0xbcf6e770	-0.030139655
13	0x3db876a8	0.09007007
14	0x3d9134de	0.07090162
15	0x3dd19bec	0.10234818
16	0x3d8e8e46	0.0696073
17	0x3d855a65	0.06511382
18	0xbd3dd51e	-0.046345823
19	0xbd6a405d	-0.057190288
20	0xbd0878d9	-0.033318374
21	0x3d90a3f5	0.07062522
22	0xbd526e0d	-0.051374484
23	0x3daf885d	0.08570931
24	0x3db5c17e	0.08874796
25	0x3dab0b72	0.083517924
26	0x3d64e44a	0.055881776
27	0xbd0ac6ad	-0.03388088
28	0xbcfc67e4	-0.030811258
29	0x3db38341	0.08765269
30	0x3d950783	0.07276823
31	0x3dd19673	0.10233774

autoencoders.1.decoder.cells.0.lstm.bias_hh f4 [32]
0	0x3dae971e	0.08524917
1	0x3d9641e4	0.073367864
2	0x3d5b4bb8	0.053539008
3	0xbd053b7d	-0.032527436
4	0xbcfe7a32	-0.031064127
5	0x3db09bae	0.086234435
6	0x3d8891d8	0.066684425
7	0x3dc91d91	0.098200925
8	0x3dbaf95a	0.09129591
9	0x3da05e34	0.07830468
10	0x3d6ad1b9	0.057328913
11	0xbd035fda	-0.032073833
12	0xbcf6e770	-0.030139655
13	0x3db876a8	0.09007007
14	0x3d9134de	0.07090162
15	0x3dd19bec	0.10234818
16	0x3d8e8e46	0.0696073
17	0x3d855a65	0.06511382
18	0xbd3dd51e	-0.046345823
19	0xbd6a405d	-0.057190288
20	0xbd0878d9	-0.033318374
21	0x3d90a3f5	0.07062522
22	0xbd526e0d	-0.051374484
23	0x3daf885d	0.08570931
24	0x3db5c17e	0.08874796
25	0x3dab0b72	0.083517924
26	0x3d64e44a	0.055881776
27	0xbd0ac6ad	-0.03388088
28	0xbcfc67e4	-0.030811258
29	0x3db38341	0.08765269
30	0x3d950783	0.07276823
31	0x3dd19673	0.10233774

autoencoders.1.decoder.output_layer.weight f4 [1, 8]
0	0x3e8c6981	0.27424243
1	0x3e92981b	0.28631672
2	0xbd760117	-0.060059633
3	0xbe3df8bb	-0.18551914
4	0x3bb07ff0	0.005386345
5	0x3e8bed9d	0.27329722
6	0xbe5f4eb0	-0.2180736
7	0x3d9b8b88	0.07594973

autoencoders.2.encoder.cells.0.weight_h_2 f4 [8, 8]
0	0xbec42ae9	-0.38313988
1	0xbe3296e6	-0.17440376
2	0x3d2ee768	0.042701155
3	0xbe16b836	-0.14718708
4	0x3eb0bf64	0.3452102
5	0x3eb59e4d	0.35472336
6	0xb8ce9958	-9.851408e-05
7	0xbe85789b	-0.26068577
8	0xb8bdee4f	-9.056611e-05
9	0x3efe96c7	0.4972441
10	0x3d882456	0.066475555
11	0xbe9c3d44	-0.30515492
12	0x38c8b4cc	9.570419e-05
13	0x3f0ae5a5	0.5425666
14	0xbdb29f92	-0.08721842
15	0x3d2e975a	0.04262481
16	0xb93e2c91	-0.00018136414
17	0x3e5b8168	0.21436083
18	0x3df5785e	0.11985849
19	0x3e5b7404	0.21430975
20	0x3d3d4941	0.04621244
21	0xbe4ee2c6	-0.20203695
22	0xbe1b4cbf	-0.15165995
23	0x398afa84	0.0002650806
24	0xbf596288	-0.8491597
25	0xbf023f99	-0.5087829
26	0xb98d81e3	-0.0002699039
27	0xbf9d3ce5	-1.2284209
28	0x3d41f1cc	0.047349736
29	0x3d510adc	0.051035747
30	0x3aacba32	0.0013178049
31	0x3cd3bf1c	0.025847964
32	0xbd4362db	-0.047701698
33	0x3e93d3d3	0.28872547
34	0xbe31109a	-0.17291489
35	0x3e046917	0.12930714
36	0x39d1d9a5	0.00040025744
37	0xb716b105	-8.981912e-06
38	0x3e8064f8	0.25077033
39	0x3ac0307c	0.0014662887
40	0xbe9494de	-0.29019827
41	0x398e43e4	0.00027134933
42	0xbec7fc04	-0.3905946
43	0xbd8a4b12	-0.067526
44	0xbdc146ea	-0.09437354
45	0xbed25059	-0.41076925
46	0xbe0922af	-0.13392137
47	0x3e2e94a4	0.1704889
48	0xbd2a13b9	-0.041522715
49	0x39e44cbc	0.0004354472
50	0xbe5ca8d4	-0.21548778
51	0x3effd2dd	0.49965563
52	0x3eec9e4e	0.46214527
53	0xbed02dc6	-0.40659922
54	0x3ea75087	0.32678625
55	0xbb0bd0eb	-0.0021334242
56	0xbd57df3a	-0.05270312
57	0xbf3fd024	-0.7492697
58	0xbeabe386	-0.33572024
59	0x3db20ee4	0.086942464
60	0xbf304b95	-0.6886533
61	0x3d28d244	0.04121615
62	0x3ed8ef8b	0.42370257
63	0xbe2f2628	-0.17104399

autoencoders.2.encoder.cells.0.bias_h_2 f4 [8]
0	0x00000000	0.0
1	0x00000000	0.0
2	0x00000000	0.0
3	0x00000000	0.0
4	0x00000000	0.0
5	0x00000000	0.0
6	0x00000000	0.0
7	0x00000000	0.0

autoencoders.2.encoder.cells.0.lstm.weight_ih f4 [32, 1]
0	0xbf030279	-0.5117565
1	0x3e73b90a	0.23801056
2	0xbea426f8	-0.3206098
3	0x38f009d5	0.00011445923
4	0x3df6e992	0.12056269
5	0x3e151e77	0.14562403
6	0xbe18a6ac	-0.1490733
7	0x39fb3141	0.00047911148
8	0xb9321895	-0.0001698456
9	0x3e798714	0.24367934
10	0xbe8b019e	-0.2714967
11	0xbe062cce	-0.13103029
12	0xbaee0218	-0.0018158583
13	0x3dcbfa92	0.09959902
14	0xb720413d	-9.551933e-06
15	0x3d7ace7e	0.061232083
16	0xbe070e40	-0.1318903
17	0xbb31d2a1	-0.0027133601
18	0x3e8b2202	0.27174383
19	0x3b27bb68	0.002559388
20	0xbe789daa	-0.24278894
21	0xbe1ee051	-0.15515257
22	0xbd15a4fa	-0.036534287
23	0xb89909e3	-7.29745e-05
24	0x3db4d4da	0.08829661
25	0xbe7cb782	-0.24679378
26	0xbe2fec90	-0.17180085
27	0xbb6b235f	-0.0035879237
28	0x3a54340f	0.00080949155
29	0x3f03f192	0.5154048
30	0x3e3d7e2c	0.18505162
31	0x3da881e2	0.08227898
