results/H1_BaseModel/ec2_cpu_utilization_825cc2/ensemble_autoencoder_weights.pth (torch, 87914 bytes, 130 tensors)

autoencoders.0.encoder.cells.0.weight_h_2 f4 [8, 8]
000000 d9 ee c7 37 48 1c 42 39 41 39 02 39 0d ae 8b b8
       2.383387e-05 0.00018511817 0.00012419095 -6.660456e-05
000010 92 70 0a 39 fd 1b 8f 38 b8 67 95 b8 03 5d 52 b6
       0.00013202641 6.8239846e-05 -7.124193e-05 -3.1346578e-06
000020 02 24 8a b9 f2 29 90 39 f6 54 5e b9 2a c2 2b 39
       -0.0002634824 0.00027497072 -0.0002120322 0.00016380163
000030 f4 3c 45 b9 83 9d 8b 38 10 86 12 39 dc 93 f6 b8
       -0.00018810091 6.657375e-05 0.00013973587 -0.00011757735
000040 bc 0e a9 b8 2f a4 82 b8 a1 64 3e b9 d2 31 9f b8
       -8.0612925e-05 -6.2294646e-05 -0.00018157299 -7.5909906e-05
000050 65 79 95 39 ef 8f 58 39 b9 84 0a b9 8d ce d0 38
       0.0002850994 0.00020652985 -0.00013210149 9.956686e-05
000060 43 bc 1d 38 5a 4b b5 38 e9 60 53 b8 61 a3 b6 38
       3.760705e-05 8.644788e-05 -5.0396575e-05 8.708868e-05
000070 37 24 bc b8 83 dc e8 b8 56 1e 94 b8 bf 88 0d b7
       -8.971284e-05 -0.000111036956 -7.0628405e-05 -8.436094e-06
000080 f0 5d 94 b9 d7 27 48 37 b9 5a 82 39 15 dd 1b 39
       -0.0002829875 1.1930205e-05 0.00024863126 0.00014864311
000090 92 d9 0d 38 51 3f 97 39 51 ce 41 b9 53 e6 5c 39
       3.3819648e-05 0.0002884814 -0.00018482773 0.00021066637
0000a0 80 0e 6b b8 a6 03 2d b9 9b 0e 1e 39 8d 5a 6d b8
       -5.604187e-05 -0.00016499925 0.00015073495 -5.6589535e-05
0000b0 34 b9 8a 38 20 e3 93 b8 50 19 c4 b8 45 51 14 b8
       6.6148496e-05 -7.0518116e-05 -9.350723e-05 -3.5361638e-05
0000c0 eb fa e3 b7 9b bf 57 b9 27 55 8b b8 e7 2d 8f b8
       -2.7177352e-05 -0.00020575376 -6.643897e-05 -6.827321e-05
0000d0 e9 97 13 39 97 2d e0 b8 fa 12 ff b8 51 51 11 b9
       0.00014075603 -0.00010689644 -0.00012162882 -0.0001385857
0000e0 97 c8 7d b8 62 eb 22 b8 79 bf e6 37 c0 3a 90 38
       -6.0506714e-05 -3.8843027e-05 2.7507298e-05 6.877398e-05
0000f0 4b ef 39 b9 71 9f 74 39 d1 a4 d2 39 5e b2 f0 38
       -0.00017732118 0.0002332905 0.0004017712 0.00011477315

autoencoders.0.encoder.cells.0.bias_h_2 f4 [8]
000000 00 00 00 00 00 00 00 00 00 00 00 00 00 00 00 00
       0.0 0.0 0.0 0.0
000010 00 00 00 00 00 00 00 00 00 00 00 00 00 00 00 00
       0.0 0.0 0.0 0.0

autoencoders.0.encoder.cells.0.lstm.weight_ih f4 [32, 1]
000000 43 3c 98 39 a2 70 26 39 1a 7a bd b9 cc 46 a3 38
       0.00029036598 0.00015872953 -0.00036139862 7.7856326e-05
000010 30 17 9b 38 7c 6b 3d 38 9e a6 31 39 58 3a ad b5
       7.395295e-05 4.5161214e-05 0.00016942105 -1.2906485e-06
000020 d2 92 0e b9 97 7f bc 38 59 ab 29 b9 7a c4 15 39
       -0.0001359687 8.988304e-05 -0.00016180928 0.0001428294
000030 ff 72 f7 39 6c ce cc b8 61 43 7b 38 79 5c 90 37
       0.0004719719 -9.765927e-05 5.9905815e-05 1.7209199e-05
000040 b5 c2 04 b8 56 0b 1a b9 9a ff 6d 38 cd ea 4a b9
       -3.1652587e-05 -0.00014690807 5.674325e-05 -0.00019351691
000050 41 68 a3 39 5c af 24 b9 87 8d 5b b9 f0 93 13 39
       0.00031167458 -0.00015705585 -0.0002093819 0.00014074123
000060 68 fc 9b b8 0c 62 25 37 85 99 5e b9 db a8 3b b9
       -7.43799e-05 9.857595e-06 -0.0002122876 -0.00017896613
000070 e2 c4 06 b8 0c 50 1b b9 af 87 a0 38 96 17 60 38
       -3.213145e-05 -0.00014811772 7.6546676e-05 5.3427728e-05

autoencoders.0.encoder.cells.0.lstm.weight_hh f4 [32, 8]
000000 99 9c 79 39 f7 a2 bd 38 e3 42 06 b9 65 f2 0d 39
       0.00023804828 9.042577e-05 -0.00012804153 0.00013537107
000010 d4 79 89 39 c1 9d ab 37 29 d6 0e b8 4c 21 03 38
       0.00026221445 2.0458248e-05 -3.405489e-05 3.1263844e-05
000020 65 6f fc b8 5d 01 d4 b8 c4 80 b4 b8 78 64 26 39
       -0.00012037045 -0.00010109202 -8.607053e-05 0.00015868421
000030 3e 63 ee b9 0d a2 84 b8 a1 b7 23 b8 b2 f6 0c b9
       -0.0004546884 -6.324435e-05 -3.9033246e-05 -0.00013443342
000040 ab 18 1c b4 bf c5 53 b8 c9 6d 92 b8 cb 61 c4 b9
       -1.4537606e-07 -5.0490486e-05 -6.9822716e-05 -0.00037456895
000050 92 69 02 b9 8d 78 e4 b8 3e 1f da b7 db 3f d2 39
       -0.00012437094 -0.000108943415 -2.6002173e-05 0.00040101897
000060 ea e2 ab 38 64 5b 07 39 8d 90 a8 b9 10 a6 14 b8
       8.1961814e-05 0.00012908649 -0.00032151156 -3.5440607e-05
000070 f9 0f 45 b8 a9 ac 1f b9 be cd d1 b8 d6 d7 3b b9
       -4.6983336e-05 -0.00015227743 -0.00010004219 -0.00017914115
000080 a7 a8 cc 37 7a 3d 41 b9 b4 42 20 39 49 e6 31 b9
       2.439723e-05 -0.00018428816 0.00015283638 -0.00016965823
000090 81 6a 3b b8 be 87 d6 b6 70 82 20 b9 18 3d 02 3a
       -4.4683464e-05 -6.3934995e-06 -0.00015307381 0.000496821
0000a0 1a bb 23 b9 fd bc 98 38 16 80 25 b9 3d db 96 39
       -0.00015614592 7.2831266e-05 -0.00015783342 0.00028773575
0000b0 4c 79 a1 39 f4 47 8a 39 50 ab be b8 59 1c fb 38
       0.00030798686 0.0002637502 -9.0918154e-05 0.00011973893
0000c0 61 3d 43 39 bf 16 09 39 af 1a 6a b9 61 3f ab 39
       0.00018619515 0.00013073812 -0.0002232592 0.00032662883
0000d0 5f dd dc 39 29 5b 16 b9 4d 80 52 38 a7 f0 c7 b8
       0.00042126604 -0.00014339075 5.018739e-05 -9.5338844e-05
0000e0 0e 08 10 b9 ba 42 88 39 3b d2 7e b9 75 ea f0 b8
       -0.00013735911 0.00025989657 -0.00024301645 -0.00011487763
0000f0 3f bd fa b7 8b 20 ac b6 0b 24 73 37 cd 9c 61 b9
       -2.9890447e-05 -5.129788e-06 1.4492321e-05 -0.00021516085
000100 3f 35 cf b9 a9 76 c7 37 32 26 3b 39 ef 64 1b b9
       -0.00039521788 2.3777904e-05 0.00017847939 -0.00014819553
000110 3d 84 05 39 dc d1 35 39 a4 c8 42 39 01 f4 83 b8
       0.00012733131 0.00017339684 0.00018576026 -6.292016e-05
000120 d6 96 0a 39 ad 52 d2 b7 7c 43 30 b7 4d ec 81 b8
       0.00013216896 -2.507245e-05 -1.050613e-05 -6.195214e-05
000130 a3 4b 74 b9 95 cc 9a b8 c0 5a 2a 38 8b 4b ec b9
       -0.0002329783 -7.3813986e-05 4.0615676e-05 -0.00045069712
000140 1d 9b 33 b9 36 2f 11 38 cc 16 7d 39 b8 48 43 b7
       -0.00017128554 3.4614663e-05 0.00024136453 -1.1639837e-05
000150 0b 6f 48 38 93 77 eb 38 2b b9 4a b9 0d 19 23 39
       4.7787133e-05 0.00011227946 -0.00019333202 0.00015554224
000160 01 dd 95 39 1e 5f f9 b7 24 04 b5 b8 53 2a c0 b8
       0.00028584155 -2.9727405e-05 -8.631524e-05 -9.163157e-05
000170 c9 6e 76 b9 6f e0 7a b9 88 c7 40 39 83 a3 ea b9
       -0.00023501659 -0.00023925466 0.00018384878 -0.00044753784
000180 56 38 f5 36 4f 2b 85 39 91 04 62 39 ac 8f 91 b8
       7.3081274e-06 0.00025400004 0.0002155474 -6.9409e-05
000190 fb bd 92 b7 4c 17 8c 39 c4 54 74 38 97 ea 3f 39
       -1.7493023e-05 0.00026720238 5.8253077e-05 0.00018302571
0001a0 8d ed e9 38 31 63 e9 37 29 bd 83 39 80 8e c0 b9
       0.00011154553 2.7821954e-05 0.00025127202 -0.00036727265
0001b0 56 cc a6 36 f0 a4 c7 b7 14 62 c3 b7 5c ac f8 38
       4.9709734e-06 -2.3799454e-05 -2.3291483e-05 0.00011857666
0001c0 96 9e a9 b9 e2 1e 1d 38 15 a3 bb b8 de ae 15 39
       -0.00032352348 3.746048e-05 -8.947231e-05 0.0001427489
0001d0 f4 68 89 38 bd 47 07 b9 dd 1c 64 39 e0 e9 68 39
       6.552218e-05 -0.00012901328 0.00021754527 0.0002221237
0001e0 90 b6 bc b5 72 1f 07 39 48 96 1f b7 12 9c b6 b8
       -1.4060224e-06 0.00012886318 -9.512129e-06 -8.707507e-05
0001f0 25 13 e8 b8 47 a3 63 b8 12 cb 0e 39 cd 98 a3 b9
       -0.00011066188 -5.427308e-05 0.00013617825 -0.00031203628
000200 82 b8 75 39 39 1a 90 37 e3 36 e8 39 ea c3 42 b8
       0.00023433755 1.7178349e-05 0.00044291382 -4.6435664e-05
000210 fc ea cf b8 0c 68 64 38 67 73 65 38 04 39 58 39
       -9.9142984e-05 5.4456337e-05 5.470533e-05 0.00020620605
000220 9d 7a 50 38 5d a6 8b b9 74 ae 10 39 03 54 07 b9
       4.9705257e-05 -0.00026636096 0.00013797899 -0.000129059
000230 f2 bf ff 39 e6 9d a8 38 12 22 96 39 87 db 5b b6
       0.000487804 8.040275e-05 0.00028635614 -3.2761325e-06
000240 3d 3d 0c b7 22 85 3b b9 1f 16 2f 37 6e 74 72 b7
       -8.358908e-06 -0.00017883306 1.0435963e-05 -1.4451432e-05
000250 b3 02 5c b5 16 35 a6 39 47 46 84 b9 22 a1 b9 b8
       -8.1960314e-07 0.0003170154 -0.00025229363 -8.851501e-05
000260 72 bf d3 b8 f6 29 0d b9 78 fb c6 38 77 80 2a 39
       -0.000100969235 -0.0001346244 9.4882154e-05 0.0001626032
000270 c6 bb 83 b7 20 b5 1c 38 34 31 14 b8 40 b0 ff b8
       -1.5703856e-05 3.7361984e-05 -3.5331774e-05 -0.00012192177
000280 c9 ea 81 b9 54 c7 90 b8 63 56 48 39 b0 b5 f6 b7
       -0.00024779726 -6.903583e-05 0.00019105668 -2.941009e-05
000290 18 e2 13 b7 7a 6e 10 39 12 27 37 39 e1 e4 c6 38
       -8.814524e-06 0.00013774066 0.00017466795 9.484008e-05
0002a0 15 74 5e 39 46 9a 15 b9 5a a2 7b 38 1d 37 79 38
       0.00021214814 -0.00014267219 5.9994265e-05 5.9417554e-05
0002b0 99 cc 33 b7 45 55 1d b8 08 1f f7 38 9d 50 0d 39
       -1.0716868e-05 -3.751113e-05 0.00011783658 0.00013476839
0002c0 5a 25 83 b9 ac aa 81 b8 75 2f 40 b7 76 af 94 b7
       -0.00025014096 -6.1829895e-05 -1.1455141e-05 -1.772468e-05
0002d0 58 40 89 b8 e0 aa c2 37 a9 47 21 b7 f1 c8 63 b8
       -6.544654e-05 2.3206172e-05 -9.6130325e-06 -5.430816e-05
0002e0 20 15 7e 37 c5 63 0d b9 0b 95 88 b8 a1 09 31 b9
       1.5144498e-05 -0.00013483975 -6.512747e-05 -0.00016883622
0002f0 6d a3 86 b9 99 31 6d b9 4f e7 72 b9 2c 3d 8f b9
       -0.00025680233 -0.00022620558 -0.00023165088 -0.00027320662
000300 42 1a a3 b9 c4 48 a8 b8 f2 40 25 b9 c1 24 fc b4
       -0.00031109346 -8.024418e-05 -0.0001575982 -4.69654e-07
000310 57 6d 7c b7 47 3e 07 39 fc af 38 36 0e 51 33 38
       -1.5045828e-05 0.00012897803 2.7520573e-06 4.2752414e-05
000320 84 57 0d 39 91 9a 9c b8 68 b9 52 39 eb 1a 6d 36
       0.0001347941 -7.46745e-05 0.0002009623 3.533142e-06
000330 5e 31 4d b9 c2 fb 83 36 ed df 33 b7 37 4f 86 37
       -0.00019568714 3.9334127e-06 -1.0721368e-05 1.6010932e-05
000340 94 9a 19 39 bb c3 d2 b8 d5 2c 3b 39 4d f1 0e b8
       0.00014648802 -0.00010050038 0.00017850411 -3.4080167e-05
000350 e4 20 e8 b7 c3 cc 8a 38 ab 26 8a b8 2f 26 13 39
       -2.7671871e-05 6.6184926e-05 -6.587555e-05 0.00014033237
000360 23 09 4d b9 74 25 06 39 87 2d 3d 39 bf ba c2 37
       -0.00019553727 0.00012793188 0.00018041405 2.3213563e-05
000370 b2 b4 4c b9 e6 3b 87 38 51 5c c9 b7 af c2 6b b7
       -0.0001952227 6.4484586e-05 -2.4004055e-05 -1.405242e-05
000380 be 0c 32 b8 81 af c1 38 ff 6c 76 b8 5a 85 52 39
       -4.2450374e-05 9.235647e-05 -5.875248e-05 0.00020076838
000390 f8 d5 39 b8 c4 3b cd b8 81 45 ec 38 74 bb 04 39
       -4.430671e-05 -9.786294e-05 0.00011266303 0.00012658333
0003a0 b4 44 14 39 3f bf 80 b8 f7 1e 0b ba e8 02 08 b9
       0.00014139974 -6.139138e-05 -0.00053070433 -0.00012971053
0003b0 fd 1e 8f 38 a5 4e 4f 37 76 6a 15 b9 1f 85 41 38
       6.8245434e-05 1.2356472e-05 -0.00014249407 4.6138764e-05
0003c0 1b a7 a4 38 92 a2 2f b8 66 0b a4 b9 8d f3 8a b9
       7.851255e-05 -4.1874657e-05 -0.0003128901 -0.0002650287
0003d0 d1 b6 19 39 3f e6 0e 37 b0 a8 d6 b8 5b 4d 22 39
       0.00014659321 8.517468e-06 -0.00010235736 0.00015478341
0003e0 87 4d 48 b8 5e b3 8f 39 88 d8 aa 39 59 52 94 38
       -4.775592e-05 0.00027408724 0.00032586255 7.0725284e-05
0003f0 73 50 ea 38 0a fc df b9 01 b0 f6 b9 8b 83 8f 39
       0.00011172974 -0.00042721658 -0.0004705191 0.00027373093

autoencoders.0.encoder.cells.0.lstm.bias_ih f4 [32]
000000 00 00 00 00 00 00 00 00 00 00 00 00 00 00 00 00
       0.0 0.0 0.0 0.0
000010 00 00 00 00 00 00 00 00 00 00 00 00 00 00 00 00
       0.0 0.0 0.0 0.0
000020 00 00 00 00 00 00 00 00 00 00 00 00 00 00 00 00
       0.0 0.0 0.0 0.0
000030 00 00 00 00 00 00 00 00 00 00 00 00 00 00 00 00
       0.0 0.0 0.0 0.0
000040 00 00 00 00 00 00 00 00 00 00 00 00 00 00 00 00
       0.0 0.0 0.0 0.0
000050 00 00 00 00 00 00 00 00 00 00 00 00 00 00 00 00
       0.0 0.0 0.0 0.0
000060 00 00 00 00 00 00 00 00 00 00 00 00 00 00 00 00
       0.0 0.0 0.0 0.0
000070 00 00 00 00 00 00 00 00 00 00 00 00 00 00 00 00
       0.0 0.0 0.0 0.0

autoencoders.0.encoder.cells.0.lstm.bias_hh f4 [32]
000000 00 00 00 00 00 00 00 00 00 00 00 00 00 00 00 00
       0.0 0.0 0.0 0.0
000010 00 00 00 00 00 00 00 00 00 00 00 00 00 00 00 00
       0.0 0.0 0.0 0.0
000020 00 00 00 00 00 00 00 00 00 00 00 00 00 00 00 00
       0.0 0.0 0.0 0.0
000030 00 00 00 00 00 00 00 00 00 00 00 00 00 00 00 00
       0.0 0.0 0.0 0.0
000040 00 00 00 00 00 00 00 00 00 00 00 00 00 00 00 00
       0.0 0.0 0.0 0.0
000050 00 00 00 00 00 00 00 00 00 00 00 00 00 00 00 00
       0.0 0.0 0.0 0.0
000060 00 00 00 00 00 00 00 00 00 00 00 00 00 00 00 00
       0.0 0.0 0.0 0.0
000070 00 00 00 00 00 00 00 00 00 00 00 00 00 00 00 00
       0.0 0.0 0.0 0.0

autoencoders.0.decoder.cells.0.weight_h_2 f4 [8, 8]
000000 97 53 90 bd 54 63 2b 3e 2b 1d fa 3e 81 8e 66 37
       -0.070471935 0.1673711 0.48850378 1.3742248e-05
000010 fe 5b c9 ba 14 18 80 bd 95 83 40 bb 53 80 00 bf
       -0.0015362499 -0.062545925 -0.0029375304 -0.5019581
000020 fe 2b b2 3c 13 0b 1b bd b4 96 86 3e 68 8f b6 3e
       0.021749493 -0.037852358 0.26286852 0.35656285
000030 a5 86 f3 3e cd c1 fb 3e 6a 40 91 3e 30 4e 82 3d
       0.47563663 0.49171296 0.28369457 0.06362569
000040 1d 58 60 bd 24 b4 02 3f 1f 48 d7 3e 41 d0 2d 3f
       -0.05477153 0.5105612 0.42047212 0.67895895
000050 99 16 58 be 3a d5 1b bd c8 e3 0d 3e 0e 9e 75 be
       -0.2110237 -0.038045146 0.13856423 -0.23986074
000060 76 c6 a8 bc 63 a2 41 be 45 7c b9 be cb 2b c4 bc
       -0.020602446 -0.18909602 -0.36227623 -0.023946663
000070 12 97 ef 3d 98 6d 0a 3f 97 ed b0 bb 1f 4c a9 be
       0.11698736 0.54073477 -0.0053994167 -0.33065888
000080 83 73 b1 3d 33 23 29 bb 6e 78 22 3e 21 5c 15 3f
       0.0866461 -0.0025808334 0.15866253 0.583437
000090 b4 8e 2a 3e 3d dd 9e 3e 3a 04 96 be 15 99 ae 3e
       0.16656 0.31028166 -0.293001 0.34101167
0000a0 b0 94 09 bf c0 b2 9e 3e b9 43 21 be d6 47 98 3e
       -0.53742504 0.3099575 -0.1574849 0.29742306
0000b0 88 82 56 be 0f 50 ea 3e 6c ad 49 3e 5d 2f 2d be
       -0.20948231 0.45764205 0.19695061 -0.16912599
0000c0 ef 10 18 3f 58 e7 30 be 22 71 11 bf b1 fc ce 3b
       0.5940084 -0.1727575 -0.5681325 0.0063167443
0000d0 eb db 33 bf 8b 94 65 be 92 7c b9 3e 18 0c 5d 3e
       -0.70257443 -0.22419946 0.36227852 0.21586645
0000e0 72 bc 13 bf 5c 1b ce 3d c2 cd 32 be 87 bf 97 3d
       -0.5770942 0.10063812 -0.17461303 0.07409578
0000f0 5b 25 50 be e2 f0 cc 3e 67 f1 69 be 9e f2 af 3d
       -0.2032675 0.4002753 -0.22845994 0.085911974

autoencoders.0.decoder.cells.0.bias_h_2 f4 [8]
000000 43 56 95 bd 72 a1 ba 3d 46 3f 88 bd 24 bc ef 3d
       -0.07291844 0.091128245 -0.066526935 0.11705807
000010 5f 3d e3 3c 40 44 93 3d 13 f8 b2 3d 00 05 cb 3d
       0.027739225 0.07190752 0.08738723 0.09913063

autoencoders.0.decoder.cells.0.lstm.weight_ih f4 [32, 1]
000000 c4 01 a1 b8 46 df a0 3e 4a f4 09 be 3b 39 c1 3e
       -7.677407e-05 0.31420344 -0.13472095 0.37738976
000010 48 49 2c be 00 41 a0 3d 6f e0 5f 3e 32 66 c6 3e
       -0.1682483 0.07824898 0.21862958 0.38749844
000020 63 bb 60 b6 cb b9 f3 bd d4 a0 7f be d3 8f 51 3e
       -3.3487675e-06 -0.119006716 -0.24963695 0.20465021
000030 0e 56 1c 3a 28 a6 41 3d 46 81 81 3d b4 62 3c 3c
       0.0005963751 0.0472776 0.06323485 0.011498142
000040 cf 26 24 be 7f 6e 92 3e 13 1b 63 be 9e a0 87 3d
       -0.1603043 0.28599927 -0.22178297 0.06622432
000050 fa 5c 77 3c 78 6e f6 3e f5 a0 9d 3c 66 0e 26 3d
       0.015097851 0.48131156 0.01924179 0.040541075
000060 2c 32 d6 3e ca 8b f3 3e bb 39 9a be a7 fa a6 3e
       0.41835153 0.47567588 -0.3012217 0.32613108
000070 9a d8 b5 38 b7 2f 77 3e b8 66 b2 3e 3d 57 80 3e
       8.671098e-05 0.24139296 0.34843993 0.25066558

autoencoders.0.decoder.cells.0.lstm.weight_hh f4 [32, 8]
000000 37 19 ef 38 23 96 7f 3d 75 94 35 38 40 72 f0 b7
       0.00011401105 0.06239904 4.3292024e-05 -2.8663431e-05
000010 27 a4 7f 3d 36 c0 26 3e cb 6a 8c bc 7d 7a 8d bc
       0.062412407 0.1628426 -0.017140767 -0.017270321
000020 fc 38 0c 3f 44 9b 74 3d dc 5c ee 3e 94 89 7e be
       0.5477445 0.059718385 0.4655522 -0.2485717
000030 09 78 e6 b8 8f 94 26 bc a6 da 77 3d 07 e1 38 3e
       -0.00010989613 -0.010167255 0.060511254 0.18054591
000040 02 bc 8e 3e 4d 71 68 3d 6c 90 4a b8 36 64 4c 3e
       0.27877814 0.056748677 -4.8295056e-05 0.19960102
000050 c2 23 0d 39 bd 5f 71 3a 21 38 86 3a 49 37 c3 39
       0.00013460129 0.00092076865 0.0010240116 0.0003723449
000060 ae 11 c8 39 eb 31 0d bd e2 25 3f 39 26 22 4f 3e
       0.00038160145 -0.034471434 0.00018229292 0.2022787
000070 58 c3 65 38 82 a3 8a 3e fa 03 dd 3d 79 a1 4f ba
       5.4779783e-05 0.27077872 0.10791774 -0.00079204846
000080 e8 9f b4 35 e5 2a 46 3a 7f 86 92 36 3c b8 a2 3a
       1.3457584e-06 0.00075594924 4.3667965e-06 0.0012414525
000090 b1 c4 a5 36 31 9b 89 3a 05 36 90 3a 8b 80 48 3b
       4.940281e-06 0.0010498521 0.0011002427 0.0030594196
0000a0 6f f8 21 3b ce ee 83 3e bb 7b ac 3e 29 dc 60 be
       0.0024714728 0.2576813 0.3368815 -0.21958984
0000b0 8d 25 28 3c fe e7 34 3e 1e c4 38 be 49 11 bf 3e
       0.010262859 0.17666623 -0.18043563 0.37317875
0000c0 53 3c 0c 39 7b b1 5a 3e 04 00 6f 3e f8 81 7c be
       0.00013373913 0.21356766 0.2333985 -0.24658954
0000d0 fe 78 1f 3e 84 e5 83 3e bf 86 ed ba a3 3d e0 3e
       0.15573499 0.25761044 -0.0018121823 0.43797025
0000e0 a8 6d 39 3e 34 5a 6d bd 59 45 54 3e d5 94 d1 bb
       0.18108237 -0.057947353 0.20729579 -0.006395916
0000f0 6b 0a ab 3c f8 65 16 3e e0 d9 f4 3e 17 8f 15 3f
       0.020878991 0.14687335 0.47822475 0.5842146
000100 a9 9a 11 bd c9 90 90 3d 6f fa d5 3e 05 67 30 3e
       -0.035547886 0.070588656 0.41792628 0.17226799
000110 ec 96 56 3d ad 0c d6 3c c6 35 dc b8 84 1e 04 3d
       0.052390024 0.026129091 -0.000105004336 0.032255664
000120 cc 45 f9 ba 0f 90 f8 3b ca 68 28 3e 12 68 5f be
       -0.0019017993 0.0075855325 0.16446224 -0.21817043
000130 54 2e 20 3e 31 4c db 3e 6c 42 ae be ef f0 47 3c
       0.15642673 0.42831567 -0.3403505 0.012203439
000140 50 df e5 38 2b e7 c4 3a f6 17 b0 38 3f bd 18 3e
       0.00010961166 0.0015022507 8.396797e-05 0.14915942
000150 13 0b 03 b9 0a 0f 30 3b 29 8c 8d 3a 23 57 db 3a
       -0.00012497259 0.0026864433 0.0010799217 0.0016734343
000160 86 c2 9b 39 64 ee a8 3a e0 9a 9d 38 21 b7 4a be
       0.00029708835 0.0012888429 7.515191e-05 -0.1979642
000170 74 d3 e9 ba 38 8c 09 ba f8 e0 e9 bb e1 78 0f 3d
       -0.0017839507 -0.00052470295 -0.007137414 0.03502739
000180 78 82 ef b8 cc 0b d4 3a c9 a3 a3 38 57 c4 ad 3a
       -0.0001142071 0.0016177832 7.802953e-05 0.0013257366
000190 b5 85 47 39 20 70 f6 39 fe 6c 4a 3a b3 76 9d 3a
       0.00019027929 0.00047004316 0.00077219296 0.0012013525
0001a0 e7 4d 89 3d cd 12 d6 3c 8b b6 7c 3d 1d 83 55 bc
       0.06704312 0.026132012 0.061697524 -0.013031748
0001b0 b5 71 57 3d 2b 1f 82 3d d5 9f 9b bd 8a cc d0 bd
       0.052598674 0.06353601 -0.07598845 -0.10195263
0001c0 55 91 93 ba 77 c4 17 3d 8f b6 04 be 7d 5e 18 be
       -0.0011258522 0.037052598 -0.12960266 -0.14879794
0001d0 77 17 d3 bc fa 75 ed bd 1c 42 27 be 27 7c 8c bd
       -0.025768025 -0.11594768 -0.16333812 -0.06859618
0001e0 ca 69 34 ba bf 16 22 3f 16 9a a8 3e 7d 0b a7 be
       -0.0006882219 0.6331596 0.32930058 -0.32625952
0001f0 d9 d3 28 be dd 59 0d bd 19 d4 61 3e 3c 3f 61 be
       -0.16487063 -0.03450953 0.22053565 -0.21996778
000200 8b 92 9e 3d e4 d8 88 be b7 6d 9e be 2d 9e d3 39
       0.077427946 -0.26727974 -0.3094308 0.00040362906
000210 3a c9 0e be 0c f2 01 3c 21 3f 75 bd 7b 34 42 bd
       -0.1394395 0.007931244 -0.059874658 -0.04741333
000220 76 d8 4d 3d f3 20 a2 3e 68 c6 d6 3c 58 96 11 bd
       0.05025526 0.31665763 0.026217654 -0.03554377
000230 34 ad e2 3e a2 f2 a9 3d c6 94 8b be 3c 8f c5 3e
       0.44272768 0.08298232 -0.27261943 0.38585842
000240 e4 96 7a bc 36 33 9e be e7 6e 1b be 6e a0 58 bc
       -0.015294764 -0.30898446 -0.15179025 -0.013221843
000250 eb 93 fb 3d 72 47 47 be ba f5 d6 bd 9f 68 9e be
       0.122840725 -0.19460848 -0.10496087 -0.30939195
000260 b3 f1 8e 3e 3f 8d c3 3d 89 ad b3 3d b2 ee 9e 3e
       0.27918777 0.09548425 0.087733336 0.31041485
000270 5f 7b be 3e f7 11 53 3e 9a 9e f1 3d 24 af bb be
       0.372035 0.20612322 0.11797829 -0.3665706
000280 01 d0 87 bb 30 04 c2 bd 5b 70 80 3d ea b7 ec be
       -0.004144669 -0.09473455 0.0627143 -0.46234065
000290 9e 50 29 bb da ae 08 be 83 02 49 3e c1 4e 4d 3d
       -0.0025835405 -0.1334795 0.19629864 0.050123934
0002a0 74 e3 28 be d1 7c 84 3d 89 f9 0c be da e1 9d be
       -0.16493016 0.06469119 -0.13767065 -0.30836374
0002b0 42 c4 16 be f5 49 50 bc f4 80 4f 3d 45 93 f5 3d
       -0.14723304 -0.012712945 0.05066009 0.1199098
0002c0 ee 68 5e 3b c1 1d 95 3e 18 d2 98 3d 1f ab 21 3e
       0.0033937055 0.29124263 0.07461947 0.15787934
0002d0 82 ae 19 3f 64 c4 3d 3d b4 b4 98 3e b2 42 07 bd
       0.600319 0.04632987 0.29825366 -0.03302259
0002e0 59 35 0d 3e 3c 4f aa bd fc 44 ef 3e 53 ae d8 3e
       0.13789882 -0.08315894 0.46732318 0.423205
0002f0 4e 57 bd be 16 51 fa 3e 05 89 20 3e 16 d9 3d 3e
       -0.3698067 0.4888999 0.15677269 0.18539843
000300 3f c2 c2 38 ac d7 e3 3c b3 a5 19 3e e2 e2 98 b9
       9.286822e-05 0.027812801 0.15004615 -0.0002916074
000310 1e c9 3d b8 7c 8e 42 3e 1f 5b 88 3d b0 ed 86 be
       -4.5248416e-05 0.18999666 0.06658005 -0.26353216
000320 9c ef 57 3e 77 6f c6 3d fa b8 aa 3e 57 b1 0e ba
       0.21087497 0.09689229 0.3334425 -0.0005443296
000330 e4 cc 13 3e b4 08 f0 3d 03 be 1e 3d 45 d4 16 3e
       0.14433628 0.1172041 0.038755428 0.14729412
000340 4d 0b 3a 3c 5d 3c a3 3e 78 db cc 3d 2c 43 dc 3a
       0.011355233 0.3188199 0.10002798 0.0016804687
000350 c8 93 3a b9 2a 4a 18 bd a3 7a 9f 3a 25 e5 31 3a
       -0.00017793395 -0.037180103 0.0012167286 0.00067861594
000360 59 8a 38 3a 3d 9c 55 3e 63 c6 80 3d 31 be 85 39
       0.00070396584 0.20860381 0.06287839 0.0002550944
000370 25 c3 cd b9 25 35 64 3e 81 25 c8 b9 b5 46 4e b8
       -0.0003924604 0.22285898 -0.00038174915 -4.918008e-05
000380 3e e1 5f 39 a2 3e 95 3a b9 5f c5 b8 6a 0e dd 3a
       0.00021350847 0.0011386464 -9.411522e-05 0.0016865258
000390 65 e2 10 b9 38 2e 30 be 5e 4c f8 3a f5 01 33 3b
       -0.00013817249 -0.17205131 0.0018943658 0.00273144
0003a0 94 7f 71 3d 92 a5 a5 3e a5 b4 81 bd 0f c4 fc bd
       0.05895956 0.32352883 -0.06333283 -0.12342083
0003b0 ab 48 2b 3e 0a 9c 8c bb 20 9c 24 3e 92 e8 c2 3e
       0.1672694 -0.0042910622 0.16075182 0.38068062
0003c0 09 82 db 39 e3 1e 04 3d 00 18 de 3e ce 84 ef bd
       0.0004186782 0.03225602 0.43377686 -0.11695252
0003d0 51 d8 91 3e 48 bd ab bc 46 7c 3e be 92 ea 07 bd
       0.2848535 -0.02096428 -0.18602094 -0.033182688
0003e0 25 28 db bc 43 63 b4 3e b8 81 77 3e 88 01 ee bc
       -0.02675254 0.3523198 0.24170578 -0.029053465
0003f0 a2 b9 7d 3d 2c 00 93 3d df 7a 3a 3e ac 6b 48 be
       0.06194461 0.07177767 0.18210934 -0.19572324

autoencoders.0.decoder.cells.0.lstm.bias_ih f4 [32]
000000 92 cf 66 3d 0c bd a2 3d 9f c5 95 3b 98 9e 2e 3d
       0.0563503 0.07946214 0.0045706774 0.042631716
000010 a1 fd 31 3a ae 39 1e 3e 55 e8 07 3e 9e 6f 86 3d
       0.0006789808 0.1545169 0.13272221 0.06564258
000020 f9 b8 0a 3d de 92 05 3d 0c b3 4c 3d 5e 6e 75 bc
       0.03386781 0.032610767 0.04997544 -0.014979927
000030 70 39 12 3b 78 58 b9 3d b0 01 fa 3c 69 4a 40 3c
       0.0022312067 0.09050077 0.030518383 0.011736491
000040 13 53 67 bd 31 b4 6d 3d e5 d5 bb bd 4d 08 09 3e
       -0.05647571 0.058033172 -0.091716565 0.13382073
000050 e7 9c 8a bc b9 89 15 37 b8 0f f0 3d 1c 98 b4 3d
       -0.01692052 8.913158e-06 0.11721748 0.08818075
000060 b0 fe 2f 3d 7a d2 8f 3d d5 83 2a 3d 9c 9c c4 3d
       0.0429675 0.07022567 0.04162963 0.09600183
000070 c6 75 9d 3a 3f 62 23 3e 82 42 b5 3d 35 a9 43 3d
       0.0012013249 0.15955447 0.08850576 0.04776879

autoencoders.0.decoder.cells.0.lstm.bias_hh f4 [32]
000000 92 cf 66 3d 0c bd a2 3d 9f c5 95 3b 98 9e 2e 3d
       0.0563503 0.07946214 0.0045706774 0.042631716
000010 a1 fd 31 3a ae 39 1e 3e 55 e8 07 3e 9e 6f 86 3d
       0.0006789808 0.1545169 0.13272221 0.06564258
000020 f9 b8 0a 3d de 92 05 3d 0c b3 4c 3d 5e 6e 75 bc
       0.03386781 0.032610767 0.04997544 -0.014979927
000030 70 39 12 3b 78 58 b9 3d b0 01 fa 3c 69 4a 40 3c
       0.0022312067 0.09050077 0.030518383 0.011736491
000040 13 53 67 bd 31 b4 6d 3d e5 d5 bb bd 4d 08 09 3e
       -0.05647571 0.058033172 -0.091716565 0.13382073
000050 e7 9c 8a bc b9 89 15 37 b8 0f f0 3d 1c 98 b4 3d
       -0.01692052 8.913158e-06 0.11721748 0.08818075
000060 b0 fe 2f 3d 7a d2 8f 3d d5 83 2a 3d 9c 9c c4 3d
       0.0429675 0.07022567 0.04162963 0.09600183
000070 c6 75 9d 3a 3f 62 23 3e 82 42 b5 3d 35 a9 43 3d
       0.0012013249 0.15955447 0.08850576 0.04776879

autoencoders.0.decoder.output_layer.weight f4 [1, 8]
000000 e0 ca 60 bd f4 60 a3 3e f2 9f 99 bc 41 ba 3e 3e
       -0.054880977 0.31909907 -0.018753026 0.18625738
000010 95 a0 76 3d 57 e4 78 3e 81 14 b7 3e 6d 2b 70 3e
       0.060211737 0.24305855 0.3575783 0.23454066

autoencoders.1.encoder.cells.0.weight_h_2 f4 [8, 8]
000000 e9 1b 24 39 08 80 ca 38 9b e5 2c b9 37 bb 91 b8
       0.00015650656 9.655958e-05 -0.00016488733 -6.94901e-05
000010 0a 77 9d 38 4c ce c2 38 63 2f ba b8 83 81 52 b9
       7.508516e-05 9.289067e-05 -8.8779976e-05 -0.00020075408
000020 3d 5d 24 39 bc f3 a3 b8 41 74 dc b8 64 21 9b b9
       0.00015674993 -7.817845e-05 -0.000105120715 -0.00029588782
000030 4b 63 90 b8 77 f8 fc b8 2c f3 e0 39 9d 3c 0e b8
       -6.88495e-05 -0.000120625766 0.00042905787 -3.391189e-05
000040 c8 c0 8b 39 19 d6 ac 38 d2 78 0a 39 46 5f 8d 38
       0.0002665578 8.241478e-05 0.00013205715 6.74115e-05
000050 00 72 36 b9 d1 a4 c8 b7 17 03 39 b9 61 23 b3 b9
       -0.00017399341 -2.3918607e-05 -0.00017644126 -0.000341679
000060 23 7a 3e b9 d5 4d 37 b8 26 b9 30 39 d6 e5 00 b9
       -0.00018165311 -4.3703087e-05 0.00016853641 -0.00012292652
000070 8e b7 ae b9 21 78 6b b8 31 94 20 39 7e 3d 9e b9
       -0.00033324625 -5.6140245e-05 0.00015313995 -0.00030181924
000080 ac 62 28 37 15 6e 53 39 64 52 b3 b9 f6 dd 0e 38
       1.0036554e-05 0.00020163537 -0.00034202926 3.4062155e-05
000090 9c 97 fa b8 8a 80 0f b9 32 0a 46 39 af 70 2d 38
       -0.000119491684 -0.00013685427 0.0001888655 4.135136e-05
0000a0 f8 5d 8d 39 0a 19 d2 b8 34 f6 5f b7 77 5b 57 b9
       0.00026963628 -0.00010018244 -1.3349159e-05 -0.00020538071
0000b0 d5 14 62 b9 cb 80 aa 38 fc 61 8f b9 bb 28 7f b9
       -0.000215608 8.130221e-05 -0.0002734809 -0.00024333868
0000c0 80 9b 80 b8 8b 7d 65 b8 2c ec 40 39 52 c1 0c 39
       -6.13248e-05 -5.4714776e-05 0.00018398528 0.00013423458
0000d0 4d bd 94 36 05 ff 9d b7 1c b2 0b 39 97 13 33 b9
       4.432781e-06 -1.8834611e-05 0.00013322424 -0.00017078068
0000e0 35 5f 58 39 5e da 3b b9 7c 07 0b b9 26 e8 2c b9
       0.00020634833 -0.00017915058 -0.00013258861 -0.0001648968
0000f0 34 78 54 b9 4d c3 04 b8 8a a7 f3 b9 6f e5 57 b9
       -0.00020262675 -3.165314e-05 -0.00046473398 -0.00020589468

autoencoders.1.encoder.cells.0.bias_h_2 f4 [8]
000000 00 00 00 00 00 00 00 00 00 00 00 00 00 00 00 00
       0.0 0.0 0.0 0.0
000010 00 00 00 00 00 00 00 00 00 00 00 00 00 00 00 00
       0.0 0.0 0.0 0.0

autoencoders.1.encoder.cells.0.lstm.weight_ih f4 [32, 1]
000000 a7 e1 25 b9 a9 9b 98 b8 5e 2a 93 b9 23 69 08 b8
       -0.00015819688 -7.276919e-05 -0.0002806959 -3.2522843e-05
000010 d6 63 08 39 2a 35 40 b8 2d 80 25 38 d7 51 bb 37
       0.00013007162 -4.582588e-05 3.945844e-05 2.2330247e-05
000020 6e 82 1d b9 93 b3 77 38 32 64 ff 38 3a 21 31 b9
       -0.00015021276 5.905663e-05 0.000121780104 -0.00016892413
000030 d4 e2 f9 38 ee 6c 84 b8 2a 96 8c b9 31 95 62 39
       0.00011915495 -6.31454e-05 -0.00026814762 0.00021608618
000040 7e 0d 90 39 e6 95 d2 b8 f9 a6 98 b9 d6 3a 52 39
       0.00027475873 -0.00010041501 -0.00029116104 0.00020049079
000050 04 be 16 37 1b de 5a 38 43 0d 61 b9 32 30 41 38
       8.984938e-06 5.2182102e-05 -0.00021462612 4.605967e-05
000060 fb 67 56 b8 68 ca 08 b9 6c 76 10 b8 3b 84 9c 38
       -5.1118415e-05 -0.00013045373 -3.4442564e-05 7.4632895e-05
000070 b5 47 63 38 c1 61 7d 38 41 f7 dc 38 72 33 0e 39
       5.41878e-05 6.041094e-05 0.00010536472 0.0001356134

autoencoders.1.encoder.cells.0.lstm.weight_hh f4 [32, 8]
000000 6d 87 ac b7 7b b6 57 38 95 a3 cd 37 65 ee 29 b9
       -2.056706e-05 5.1429943e-05 2.4514078e-05 -0.00016205905
000010 1b 98 b9 b9 af c3 12 b8 ab bc fa 38 86 cf bb 37
       -0.00035399277 -3.4991357e-05 0.00011956071 2.2388773e-05
000020 79 91 f4 38 3d c2 41 39 52 7c 87 b8 5f 71 e4 b9
       0.00011661923 0.00018478274 -6.460458e-05 -0.00043572017
000030 0e 76 3c b8 70 7c 6b b9 40 4b 8f 33 a6 14 4c b8
       -4.493264e-05 -0.00022457703 6.672644e-08 -4.865662e-05
000040 d8 f3 82 35 0e 74 1c b6 6d cc 6a b9 f5 4d 12 b9
       9.756723e-07 -2.3313364e-06 -0.00022392134 -0.00013952686
000050 cf 68 82 39 b5 ad b7 b9 7a 96 68 b9 cb 93 96 39
       0.0002487362 -0.00035033902 -0.00022181301 0.00028720344
000060 03 d4 d1 b8 97 22 2b b8 12 1b 5a 39 67 a9 07 b9
       -0.00010005387 -4.080179e-05 0.00020800185 -0.0001293771
000070 4a 19 e5 38 10 de 93 b9 de 90 fb b8 b1 ad d2 b6
       0.000109242814 -0.00028203474 -0.00011995596 -6.278708e-06
000080 f6 d0 07 39 c2 2c bb 39 80 3d 12 39 17 b1 b1 38
       0.00012952447 0.00035700767 0.00013946556 8.473003e-05
000090 f1 66 40 38 9e 53 96 b8 08 78 41 b9 d2 3e fe 38
       4.587224e-05 -7.168132e-05 -0.0001845063 0.00012123365
0000a0 42 2c 41 b9 19 fe 54 b9 aa f9 1e b9 5d ad 0a 39
       -0.00018422402 -0.00020312554 -0.00015161061 0.00013225288
0000b0 96 08 2b b8 e2 2d 09 39 25 26 81 b7 35 7a 43 b7
       -4.0777573e-05 0.00013082431 -1.539576e-05 -1.1651359e-05
0000c0 18 78 29 b9 64 6b 27 39 08 e0 ad 34 1f b8 1c b9
       -0.00016161834 0.00015966367 3.2386765e-07 -0.0001494591
0000d0 8d 91 5a 39 48 fd 2d b8 cb 60 ad 39 c9 fb 94 39
       0.00020844322 -4.14823e-05 0.00033069248 0.00028416354
0000e0 85 2f f7 38 4b 28 3b b7 d7 71 0b b8 fe 39 09 38
       0.00011786729 -1.115545e-05 -3.3246204e-05 3.2717355e-05
0000f0 39 3a df 38 89 4d c5 39 65 e1 0c b9 44 ab 49 37
       0.000106443134 0.00037632536 -0.00013435406 1.20204095e-05
000100 ae ae dc 39 40 60 86 38 58 66 2e 36 6c 36 96 b8
       0.00042091816 6.407546e-05 2.5987592e-06 -7.162694e-05
000110 c9 ad d6 34 89 36 1d b9 25 b0 81 39 89 be a8 38
       3.9987052e-07 -0.00014993003 0.00024736035 8.046354e-05
000120 44 1b 0f b8 1b a7 c2 b8 44 47 27 39 70 fe 37 39
       -3.411925e-05 -9.281767e-05 0.0001595291 0.00017547025
000130 48 4d 17 b8 10 3a 95 38 6a d5 08 b9 c5 12 14 38
       -3.607318e-05 7.115689e-05 -0.00013049474 3.530343e-05
000140 28 08 23 b9 58 b0 d1 b8 62 1f 7c b9 da 72 08 b9
       -0.0001554793 -9.998743e-05 -0.00024044284 -0.00013012756
000150 78 68 ed 39 4b 4a 70 b9 c9 6f b2 37 72 6c f4 38
       0.00045281998 -0.0002291586 2.1271308e-05 0.00011655026
000160 01 2d c1 b6 91 22 68 b7 3e d5 36 b9 f1 50 80 b9
       -5.7570874e-06 -1.3836326e-05 -0.00017436311 -0.0002447437
000170 e4 85 09 39 07 46 1e 39 3c 98 15 39 be b8 2a b8
       0.00013115216 0.00015094141 0.00014266459 -4.0703213e-05
000180 88 2e 89 b7 11 33 b2 38 44 d0 ea b8 00 3a 22 b9
       -1.635334e-05 8.497213e-05 -0.00011196782 -0.0001547113
000190 8d 3f 24 b9 c3 ae a5 39 da 83 bb b9 22 57 e4 b8
       -0.00015663933 0.0003160146 -0.00035765657 -0.00010888117
0001a0 2f b1 36 b9 44 ae a0 39 26 11 b8 b7 c6 70 e2 b8
       -0.00017422879 0.00030647416 -2.1942495e-05 -0.000107975255
0001b0 7d 06 5b b8 c5 09 1a b9 6a 3d a7 b9 c5 94 aa 37
       -5.221971e-05 -0.00014690224 -0.0003189848 2.0334855e-05
0001c0 4e 33 14 b6 73 eb 5c 38 97 d2 e8 38 f7 06 3a b9
       -2.2083582e-06 5.2671367e-05 0.000111018475 -0.00017740937
0001d0 d5 ac 86 38 81 45 c9 b8 f5 5e c5 b8 2d 09 fd b7
       6.4218104e-05 -9.597373e-05 -9.411379e-05 -3.0164223e-05
0001e0 96 7b 0c b8 06 05 0a b9 a8 5c 79 38 13 e9 2d 39
       -3.34937e-05 -0.00013162577 5.945252e-05 0.00016585393
0001f0 1e 92 ae 38 0e ef 28 b6 a6 72 07 39 f2 02 61 b9
       8.324183e-05 -2.51731e-06 0.00012917313 -0.0002145877
000200 d7 39 d4 b9 49 08 64 38 f8 05 94 b9 5d 25 aa b7
       -0.00040478885 5.4367152e-05 -0.00028233207 -2.0282978e-05
000210 71 d5 b4 b8 8f ce 7f 38 25 59 9b b8 1d 92 f9 b8
       -8.6228254e-05 6.098911e-05 -7.4075804e-05 -0.00011900461
000220 f5 59 96 38 f2 41 04 39 86 8a 0c b9 2b f5 bd b8
       7.169313e-05 0.00012613068 -0.00013403044 -9.0578884e-05
000230 65 98 6b 39 2c c6 0c 37 15 7f 53 38 11 83 2c b9
       0.00022468118 8.390791e-06 5.0424675e-05 -0.00016452024
000240 83 15 07 39 24 0f 8e 39 ea 4f 99 b9 d9 63 f2 b7
       0.00012882617 0.0002709563 -0.00029241975 -2.8895143e-05
000250 63 e1 78 38 3e e9 71 b9 af 50 8a b7 40 52 c1 36
       5.9337715e-05 -0.0002307044 -1.6488453e-05 5.7614234e-06
000260 de cf e4 38 d6 10 0d 39 1f e8 74 b8 93 82 0a 39
       0.000109106055 0.0001345308 -5.8390313e-05 0.00013209348
000270 16 05 7a b9 94 da d8 39 eb e6 26 39 d9 18 81 38
       -0.00023843753 0.00041361584 0.00015917017 6.1558276e-05
000280 14 8d 05 39 3d c0 07 b9 ab eb 74 b4 0c cb 09 b8
       0.00012736424 -0.00012946218 -2.2810006e-07 -3.2852447e-05
000290 b8 84 6a 38 45 4f 6f b8 b1 ea 09 37 5d 51 01 39
       5.591355e-05 -5.7055866e-05 8.22048e-06 0.00012332709
0002a0 85 43 1b 39 1e ca 28 38 36 7e 6c b8 bc 67 17 b9
       0.00014807105 4.0242558e-05 -5.6384328e-05 -0.00014439126
0002b0 8e 0d 22 b9 bf 4f 0e b9 55 d2 a4 36 5d e2 f3 38
       -0.00015454573 -0.00013571883 4.9120667e-06 0.000116293064
0002c0 fe c1 07 b9 8c b4 27 b9 d1 c6 27 b7 d6 24 1f b8
       -0.00012946871 -0.0001599362 -1.0000266e-05 -3.794286e-05
0002d0 40 98 95 38 16 df b8 b8 9f e8 3d 39 6c 25 8a b8
       7.1332324e-05 -8.815357e-05 0.00018111103 -6.587323e-05
0002e0 22 d9 1d 39 94 86 9a b7 b3 f5 d2 b9 d5 0d 9c 38
       0.00015053575 -1.8420898e-05 -0.00040237381 7.441236e-05
0002f0 95 db f1 b8 8c 56 b3 b8 8d dd d8 b7 a7 f5 41 b8
       -0.00011532676 -8.551506e-05 -2.5852374e-05 -4.6243567e-05
000300 ad 8f d3 b7 7c 6f 64 b8 aa 4d 03 b9 c5 71 0b b9
       -2.5220064e-05 -5.4463264e-05 -0.00012522066 -0.00013298455
000310 59 1c 80 b9 0e b4 76 b8 a1 ae d7 b8 6c 0c 07 39
       -0.00024435183 -5.881866e-05 -0.00010284526 0.00012879231
000320 37 e8 9f b8 a1 7d 93 b8 41 ad 3a 38 4c 3e bf 37
       -7.624964e-05 -7.0329064e-05 4.450721e-05 2.2797984e-05
000330 46 98 05 b9 4d ea 9e 37 62 b4 61 38 bf 53 b9 b7
       -0.00012740595 1.8944173e-05 5.3812175e-05 -2.2092716e-05
000340 ed 2a b3 b8 b8 19 63 b8 8a 06 6a b9 1c 8f d1 37
       -8.543381e-05 -5.414497e-05 -0.00022318415 2.4981382e-05
000350 6a ef a5 b8 9e 32 dd 38 28 88 07 39 58 17 16 39
       -7.9124075e-05 0.000105475294 0.00012925325 0.00014313811
000360 40 9a 51 b8 ed b9 63 b9 ac fe 42 b9 1e 6a ed 38
       -4.997314e-05 -0.0002171767 -0.00018596154 0.000113208065
000370 3f 59 14 b7 6b 9c ce b8 35 e0 e7 b7 5d 9f 1a b8
       -8.842267e-06 -9.8519806e-05 -2.764175e-05 -3.686488e-05
000380 4d 4b 9c 38 a5 aa 6b b8 81 b8 97 38 90 9e ff b8
       7.4526855e-05 -5.618729e-05 7.2346076e-05 -0.00012188882
000390 d5 cf a1 b7 1c 4f a6 b9 67 40 d9 b8 c1 19 aa b8
       -1.9289475e-05 -0.00031720928 -0.00010359362 -8.111029e-05
0003a0 66 96 bc b8 9a ad b8 b7 5b a0 15 b7 3d c5 37 b9
       -8.9925525e-05 -2.2015349e-05 -8.918428e-06 -0.00017525717
0003b0 69 fb d7 b7 b0 96 48 38 4d 18 78 39 59 c1 a9 39
       -2.574707e-05 4.7824054e-05 0.00023660176 0.00032378247
0003c0 c0 a6 06 b9 27 88 ac b9 bc bb 2d 39 f4 2d 9d 38
       -0.00012841355 -0.00032907838 0.00016568502 7.494903e-05
0003d0 e4 01 01 b9 05 38 dc b8 64 19 86 39 69 95 ef b8
       -0.00012303103 -0.00010500852 0.0002557739 -0.00011424238
0003e0 4b a2 5c b8 16 c0 7e b9 f9 9f 51 b8 9e f1 6b 38
       -5.2603235e-05 -0.00024294885 -4.997847e-05 5.625339e-05
0003f0 f5 d4 88 b8 e2 e9 a3 38 10 58 8f 38 51 27 dd b6
       -6.524652e-05 7.81601e-05 6.835174e-05 -6.5908903e-06

autoencoders.1.encoder.cells.0.lstm.bias_ih f4 [32]
000000 00 00 00 00 00 00 00 00 00 00 00 00 00 00 00 00
       0.0 0.0 0.0 0.0
000010 00 00 00 00 00 00 00 00 00 00 00 00 00 00 00 00
       0.0 0.0 0.0 0.0
000020 00 00 00 00 00 00 00 00 00 00 00 00 00 00 00 00
       0.0 0.0 0.0 0.0
000030 00 00 00 00 00 00 00 00 00 00 00 00 00 00 00 00
       0.0 0.0 0.0 0.0
000040 00 00 00 00 00 00 00 00 00 00 00 00 00 00 00 00
       0.0 0.0 0.0 0.0
000050 00 00 00 00 00 00 00 00 00 00 00 00 00 00 00 00
       0.0 0.0 0.0 0.0
000060 00 00 00 00 00 00 00 00 00 00 00 00 00 00 00 00
       0.0 0.0 0.0 0.0
000070 00 00 00 00 00 00 00 00 00 00 00 00 00 00 00 00
       0.0 0.0 0.0 0.0

autoencoders.1.encoder.cells.0.lstm.bias_hh f4 [32]
000000 00 00 00 00 00 00 00 00 00 00 00 00 00 00 00 00
       0.0 0.0 0.0 0.0
000010 00 00 00 00 00 00 00 00 00 00 00 00 00 00 00 00
       0.0 0.0 0.0 0.0
000020 00 00 00 00 00 00 00 00 00 00 00 00 00 00 00 00
       0.0 0.0 0.0 0.0
000030 00 00 00 00 00 00 00 00 00 00 00 00 00 00 00 00
       0.0 0.0 0.0 0.0
000040 00 00 00 00 00 00 00 00 00 00 00 00 00 00 00 00
       0.0 0.0 0.0 0.0
000050 00 00 00 00 00 00 00 00 00 00 00 00 00 00 00 00
       0.0 0.0 0.0 0.0
000060 00 00 00 00 00 00 00 00 00 00 00 00 00 00 00 00
       0.0 0.0 0.0 0.0
000070 00 00 00 00 00 00 00 00 00 00 00 00 00 00 00 00
       0.0 0.0 0.0 0.0

autoencoders.1.decoder.cells.0.weight_h_2 f4 [8, 8]
000000 33 f3 44 3e 7b 59 6c be c9 87 41 bf 36 57 cf 3e
       0.19233398 -0.23081009 -0.75597817 0.40496224
000010 ba 23 17 be 8f 23 80 3c 7d a6 46 bf f1 1b db 3e
       -0.14759722 0.015641956 -0.7759779 0.42794755
000020 35 4c ba bd db d9 da be 3a 9a fa 3d 84 d5 c8 be
       -0.090965666 -0.42744336 0.12236448 -0.392254
000030 d7 f0 0d 3e 6b fa 97 3e 69 45 02 3f 0e 1e 06 3f
       0.13861404 0.2968324 0.5088716 0.5238961
000040 09 16 b9 3e bc 52 75 3e ab 03 08 be 18 96 1c 3e
       0.36149624 0.23957342 -0.13282649 0.15291631
000050 b4 55 a8 ba 14 34 b5 be 95 94 94 3e 48 a3 da 3c
       -0.0012842924 -0.35391295 0.2901961 0.026689187
000060 d6 7d 04 3f 87 f9 63 3e 84 6d 80 be 6a 67 3d be
       0.5175451 0.22263156 -0.25083554 -0.1849648
000070 62 b8 89 3e f0 de cd be 3f 4d 1a bd a6 5c 1f 3f
       0.26898485 -0.4020915 -0.037671324 0.62250745
000080 36 7f e6 be e6 1d 25 3e 65 e9 ee 3d 20 44 eb be
       -0.4501893 0.16124687 0.1166561 -0.45950413
000090 fd 45 0c bf e6 c5 39 bd 46 b6 ba bb f9 60 74 3e
       -0.54794294 -0.045354746 -0.005697998 0.23865117
0000a0 23 a8 99 bc 54 06 38 39 13 9f c5 3a 15 47 bb bd
       -0.018756932 0.00017549965 0.0015077315 -0.09144417
0000b0 41 7a 87 be e8 0f 2f 3c ef 2c 62 be 06 06 ab 3e
       -0.2646046 0.010684945 -0.22087453 0.33403033
0000c0 f1 d6 f3 bd 5b 2f e9 bb a8 a3 a3 3d ba 4c 21 3f
       -0.11906231 -0.007116241 0.07990199 0.630077
0000d0 7c 15 9c 3d 3c 39 94 3c 5e 23 a5 be b1 e3 a5 3e
       0.07621285 0.018093698 -0.32253546 0.32400277
0000e0 93 fe 1f 3f 96 25 a9 3d 1b 53 ca bb f9 d7 2e 3f
       0.62497824 0.08259122 -0.0061744577 0.682983
0000f0 db 3c b8 3e e8 0a 9b bd 3c 14 37 3e 40 d1 b0 3d
       0.3598393 -0.075704396 0.17878813 0.08633661

autoencoders.1.decoder.cells.0.bias_h_2 f4 [8]
000000 d4 12 ee 3d 8e f0 d9 3d 01 fd e6 bb 7a 70 cd bd
       0.11624685 0.10641585 -0.0070492034 -0.10031219
000010 02 ec 88 bc 7f ad ce 3d 4c 6f 10 be 44 78 38 3d
       -0.0167141 0.100916855 -0.14104956 0.04503657

autoencoders.1.decoder.cells.0.lstm.weight_ih f4 [32, 1]
000000 93 22 8a 3d a6 db 12 3e 0b af 5d 38 72 07 51 3d
       0.06744876 0.14341602 5.2853527e-05 0.05103249
000010 f1 b5 7b 3d 69 33 af bb a7 78 3f be 64 cb 88 3d
       0.06145281 -0.0053467047 -0.18698369 0.06679419
000020 ee e0 38 bd 5d 48 9a 3e 00 14 14 39 f1 d9 24 38
       -0.045136385 0.30133334 0.0001412183 3.930362e-05
000030 c9 c8 1e 3b 9b f3 d2 3d a5 d6 0c 3f e9 f8 7c 3e
       0.0024228564 0.1030037 0.5501502 0.24704327
000040 8e a9 57 3e 80 83 ae 3e 95 2f c1 bd 5f 36 0c be
       0.21060774 0.34084702 -0.09432904 -0.13692616
000050 05 86 0d 3f b9 07 16 3e 0c 7e 3e be 69 f9 64 3f
       0.5528262 0.14651383 -0.1860277 0.8944307
000060 02 85 bf bc 00 b2 f6 3e 52 f5 ff 37 e5 a0 0c 3f
       -0.023378853 0.48182678 3.0512605e-05 0.54933006
000070 4b a4 2b 3d 21 f2 1c 3f 3c db eb 3e 7d c6 bd bd
       0.04190473 0.6130696 0.460657 -0.09266374

autoencoders.1.decoder.cells.0.lstm.weight_hh f4 [32, 8]
000000 d4 65 ad 3e aa db 4a 3e 2c ae 0f 3e a8 40 e1 3e
       0.3386675 0.19810358 0.14031285 0.4399464
000010 08 6e b3 be 36 53 88 3d c0 b9 20 3f 49 5f aa 3e
       -0.35044885 0.06656496 0.6278343 0.33275822
000020 3b 47 01 3e ee 69 d4 3d 98 a8 cb 3e f1 36 86 3e
       0.12624829 0.10371767 0.39777064 0.26213792
000030 e3 22 49 3e ce ed a7 3d c8 8e 21 be 74 11 77 3c
       0.19642214 0.081996545 -0.15777123 0.015079845
000040 9b 66 a2 3a 1f 30 4e 3d 91 66 b0 38 88 37 3a 38
       0.0012390198 0.05033886 8.4114385e-05 4.4397573e-05
000050 12 4f e1 38 b1 98 9e b8 9f 52 ea b8 72 aa 3e b9
       0.00010743564 -7.562468e-05 -0.00011173379 -0.00018183308
000060 64 50 db 3e 7d fa 4e be 0f 65 13 be 07 55 9e 3e
       0.4283477 -0.20212741 -0.1439402 0.30924246
000070 a6 9b 3a b8 1d 74 10 3e 00 d0 c4 be 7e 4b 07 3d
       -4.4490815e-05 0.14106794 -0.3843994 0.03303098
000080 63 c2 6c 3d 2f f0 d0 3d 79 bb 7c bd b7 83 23 3e
       0.05780257 0.102020614 -0.061702225 0.15968214
000090 c9 ce 25 ba 40 df 59 3c 48 95 31 3a fe fc 86 3e
       -0.0006325064 0.013297856 0.0006774259 0.26364893
0000a0 38 1f 0f 3e 7a e9 2a 3d ff 85 a2 3e b4 5c da 3e
       0.13976753 0.041726567 0.31742856 0.42648852
0000b0 dd 2d a8 3c 54 63 15 3e 0b 2c 51 3e 25 c9 db 3c
       0.020529682 0.14588672 0.20426957 0.026829312
0000c0 80 04 89 3e ca 43 f1 3d 69 fc f1 3d cd b5 93 3e
       0.26761246 0.11780508 0.118157215 0.2884964
0000d0 e0 47 84 bc 1d 2e bc 3e 69 88 ac 3e 85 55 c1 bc
       -0.016147554 0.36753932 0.33697823 -0.02360035
0000e0 34 9c a0 3e ab 26 ab 3e 28 c1 3f 3e 46 39 f1 3d
       0.31369174 0.3342794 0.18726027 0.11778502
0000f0 cb 0e b9 3e b1 0b 02 3f 34 3e eb 3c e2 fb 15 3e
       0.361441 0.5079909 0.028716184 0.14646867
000100 08 9b eb 3d 11 6c 8e bd 3c 4b 05 3d 24 be a8 bd
       0.11504179 -0.06954206 0.032542452 -0.082393914
000110 82 27 b2 3d 3f bd 63 3e cf 6c 0b 39 38 cd 1b bb
       0.08698942 0.2224016 0.00013296607 -0.0023773443
000120 c9 3f e7 3e 34 14 fc 3d 4a 7c 70 3d 56 cb fc bc
       0.45165852 0.12308541 0.05871228 -0.030858677
000130 d7 88 cc 3d e1 28 b8 3e 12 00 8e 39 f7 d1 9a 3e
       0.09987038 0.35968688 0.00027084403 0.30238315
000140 18 95 16 38 52 7b ca 39 cb e2 90 39 04 be 28 b8
       3.590164e-05 0.00038620323 0.00027634794 -4.0231287e-05
000150 80 3b 01 b9 88 17 57 39 3e ad 00 39 07 7e f1 3d
       -0.00012324564 0.00020512764 0.00012271569 0.11791616
000160 79 5c 13 bf 54 84 48 b9 51 5b 25 b8 6c e4 68 3e
       -0.5756298 -0.00019122782 -3.942411e-05 0.22743386
000170 e1 d0 c5 bd 89 e5 a4 be a7 48 75 b9 82 7a 2e 3d
       -0.09658981 -0.3220637 -0.00023392086 0.0425973
000180 88 d7 05 be 7b db 65 ba 0b 32 38 3e d7 db 2c ba
       -0.130705 -0.0008768362 0.1798784 -0.0006594038
000190 b7 8b b7 ba 5a 18 5b 3c fa 84 c8 3a a7 98 ed 3d
       -0.001400343 0.013372505 0.0015298419 0.11601382
0001a0 62 b9 dd 3e d6 0b f0 bd 8a 9f 44 bc 93 bb 22 3d
       0.43305498 -0.117210075 -0.012000928 0.039729666
0001b0 1c e3 f4 3e 41 7c 29 be 33 88 a6 3d 29 63 88 bd
       0.4782952 -0.16551305 0.08131447 -0.06659538
0001c0 30 a9 a8 39 f2 9e 62 be 96 29 9d 3d c2 54 21 bd
       0.00032169512 -0.22130945 0.076739475 -0.039387472
0001d0 a4 4a 0f 39 fa 1a 98 bd 23 a6 9c bc 17 27 b7 3c
       0.00013665349 -0.0742702 -0.019122189 0.022357507
0001e0 dd ab 1a 3f d7 22 b1 3e 7f 24 36 3d d1 a7 d1 3e
       0.6041849 0.34596893 0.0444684 0.40948346
0001f0 c1 99 1a 3e e3 4c d8 3e ae bc 14 3b ae 7d 5f 3e
       0.15097715 0.4224616 0.002269547 0.21825287
000200 6d c3 25 3e c0 14 26 3f b9 43 f0 3e 9e 72 f2 bd
       0.1618783 0.6487541 0.46926668 -0.11838268
000210 e1 e0 60 bd c5 be c7 3d 37 69 21 3e 22 e2 bf bc
       -0.05490196 0.09753183 0.15762793 -0.023423258
000220 3c 48 d7 be f6 87 c4 3d 82 f1 05 be 98 cb 70 3e
       -0.42047298 0.09596245 -0.13080409 0.23515165
000230 ab b4 0d 3d b4 47 33 3e d3 c9 a7 3e 41 98 54 3e
       0.034596127 0.17507821 0.32771167 0.20761205
000240 54 65 78 3e 83 03 00 3e 0c ab 34 bd 02 d2 90 be
       0.24257404 0.1250134 -0.044108436 -0.28285223
000250 b4 fa 83 3b d2 7a 56 bd 53 14 bc ba 7a e4 b0 bc
       0.004027689 -0.052363224 -0.0014349319 -0.021593321
000260 53 84 a2 bd f4 9e a1 3d b8 0b 17 3e f7 dc c3 3e
       -0.07935395 0.07891646 0.14750564 0.3825452
000270 3f 85 24 be b2 a3 52 3d 43 82 ca bd d1 ab 6b be
       -0.16066454 0.051425643 -0.09888127 -0.23014762
000280 26 4d a9 bd 1d ad 0d 3d 36 08 11 be 53 a5 3f be
       -0.08266668 0.03458892 -0.14163288 -0.1871541
000290 df 16 fb 3e f6 d2 0d be d0 46 6d 3b d4 bd 93 3d
       0.49040887 -0.13850006 0.0036205538 0.07213941
0002a0 3d 32 82 3e 8a e8 21 3c ec 34 41 3e 73 35 00 3d
       0.25428954 0.009882102 0.18867844 0.031300973
0002b0 a6 2e 85 3d 8a 12 b7 bd 7c 2b 67 3e 04 95 89 3e
       0.06503038 -0.08939083 0.22575182 0.26871502
0002c0 2a 6a cb be 7b 34 80 bc 66 03 00 be 12 c9 21 3d
       -0.39729434 -0.015650025 -0.12501296 0.039498396
0002d0 48 4e f8 ba 08 a9 92 be 3d 33 70 3d c5 c3 9b be
       -0.0018944228 -0.28644586 0.058642615 -0.30422798
0002e0 6c 4e 0c bf 6c 16 ab bd a6 5c cb be 37 f4 0c bd
       -0.5480716 -0.08353886 -0.39719123 -0.03441259
0002f0 e1 46 8d 3c ff ff e3 3d 71 4e 33 3e 48 47 05 3c
       0.017245712 0.11132812 0.17510392 0.008134671
000300 e9 5a 5d 3e 31 dc b2 3e 5a 84 fa 3c e1 e0 df 3d
       0.2161671 0.34933618 0.030580688 0.10931564
000310 98 86 0a 3c e0 45 db bd ae 2f a2 bc bc be 0d 3f
       0.008454941 -0.10706687 -0.019798126 0.5536916
000320 76 c8 20 bd 49 6a 34 3e 40 64 89 3e ff 84 9f bd
       -0.039253674 0.1761867 0.26834297 -0.07789039
000330 3a 3e bf 3c e7 f3 52 3e 2b b9 d5 3c 52 a2 00 3f
       0.023345102 0.20600854 0.026089272 0.5024768
000340 ff 88 b1 39 cf 01 09 b9 f6 ef b7 b9 cd f8 06 39
       0.0003386214 -0.00013066012 -0.00035083265 0.00012871921
000350 bc ab 5d b9 17 bc 0f 36 3b 53 a5 b8 21 fa c0 b8
       -0.00021140178 2.1418143e-06 -7.883316e-05 -9.2018636e-05
000360 ad 7c 13 39 72 ca 99 be 7b 35 12 39 04 26 d5 38
       0.00014065458 -0.30037266 0.00013943568 0.000101637124
000370 c6 68 6f bd 61 1b 9c 3e 06 29 72 3e 8c ce 70 3e
       -0.05844953 0.30489638 0.23648462 0.23516291
000380 21 3d e8 3e d8 a6 25 3e 87 b3 9f b9 f1 6c cc 3c
       0.45359138 0.16176927 -0.00030460602 0.024954291
000390 a0 ff 84 3d 70 56 f8 3c 6d 08 90 39 dc 0b 36 be
       0.06494069 0.030314654 0.00027472098 -0.17777961
0003a0 e2 b3 0d bd d6 d1 a7 3e a6 99 67 be dc ae 99 bd
       -0.034595378 0.3277728 -0.22617206 -0.07504055
0003b0 e2 1e b6 39 67 aa ac 3c f6 68 cc 3d 8e 10 a1 3e
       0.00034736755 0.021077348 0.09980957 0.31457943
0003c0 0e 4d 96 3e b4 64 30 bd d9 23 ca 3d 9b 9e 76 39
       0.29355663 -0.043064788 0.09870119 0.00023519473
0003d0 3f d1 08 3f 6d a1 1c bd c1 8c f4 3d 45 b7 6e bb
       0.53444284 -0.038239885 0.11940909 -0.0036425155
0003e0 d6 ae fd 3e bd ea 1b 3f aa 16 18 3f 3e 8a e3 3e
       0.49547452 0.6090506 0.5940958 0.44441408
0003f0 10 bd 87 3d 39 e2 18 3f 51 d0 d9 38 4b 3b a3 bc
       0.06627858 0.5972019 0.00010386168 -0.019925734

autoencoders.1.decoder.cells.0.lstm.bias_ih f4 [32]
000000 63 f1 fd 3d fd ba 07 3e ab 6e 7a 39 01 b3 18 3c
       0.123995565 0.13254924 0.00023883085 0.009320022
000010 77 8e a3 3d ee d3 f7 3d 29 16 d0 3d 7b 28 c5 3e
       0.079861574 0.12100969 0.10160477 0.38507447
000020 4e d1 90 3d 39 8e 55 3d 52 4a 4a 39 2c 9a 2c b7
       0.07071172 0.052137587 0.00019291908 -1.0287895e-05
000030 f1 cc 50 3d 47 27 27 3d ab c8 9c 3d 8b 60 c8 3e
       0.050976697 0.040808942 0.07655462 0.39136156
000040 0e 07 b2 3d f4 cf e6 bb 8a 25 9a 3c 9d e1 9b bd
       0.08692752 -0.007043833 0.018816728 -0.07611392
000050 24 79 f9 bd d5 65 51 3d 0c 51 90 bd d9 3c 25 bd
       -0.12181309 0.051122505 -0.070467085 -0.040341232
000060 a7 7d 07 3e b4 18 07 3e 6b 5c cd 39 05 79 8e 3b
       0.13231526 0.13193017 0.00039169504 0.0043479227
000070 db d8 91 3d 34 03 71 3d 6e 7d e3 3d d2 3b d5 3e
       0.0712144 0.058840945 0.11107908 0.41647202

autoencoders.1.decoder.cells.0.lstm.bias_hh f4 [32]
000000 63 f1 fd 3d fd ba 07 3e ab 6e 7a 39 01 b3 18 3c
       0.123995565 0.13254924 0.00023883085 0.009320022
000010 77 8e a3 3d ee d3 f7 3d 29 16 d0 3d 7b 28 c5 3e
       0.079861574 0.12100969 0.10160477 0.38507447
000020 4e d1 90 3d 39 8e 55 3d 52 4a 4a 39 2c 9a 2c b7
       0.07071172 0.052137587 0.00019291908 -1.0287895e-05
000030 f1 cc 50 3d 47 27 27 3d ab c8 9c 3d 8b 60 c8 3e
       0.050976697 0.040808942 0.07655462 0.39136156
000040 0e 07 b2 3d f4 cf e6 bb 8a 25 9a 3c 9d e1 9b bd
       0.08692752 -0.007043833 0.018816728 -0.07611392
000050 24 79 f9 bd d5 65 51 3d 0c 51 90 bd d9 3c 25 bd
       -0.12181309 0.051122505 -0.070467085 -0.040341232
000060 a7 7d 07 3e b4 18 07 3e 6b 5c cd 39 05 79 8e 3b
       0.13231526 0.13193017 0.00039169504 0.0043479227
000070 db d8 91 3d 34 03 71 3d 6e 7d e3 3d d2 3b d5 3e
       0.0712144 0.058840945 0.11107908 0.41647202

autoencoders.1.decoder.output_layer.weight f4 [1, 8]
000000 9e c0 a2 3e f5 cf ae 3e ff 4e 04 bd 33 6d 0f be
       0.3178758 0.34143034 -0.0323019 -0.140065
000010 46 eb 8a 3d 02 c6 a5 3e 7a eb 17 be 40 4f 55 3e
       0.06783156 0.3237763 -0.14835921 0.20831013

autoencoders.2.encoder.cells.0.weight_h_2 f4 [8, 8]
000000 5b 0d 99 39 8c 41 81 38 a6 b6 06 b9 79 52 ed 38
       0.00029192385 6.1634084e-05 -0.00012847278 0.000113164024
000010 39 1a 11 b8 95 73 48 b9 65 87 06 b9 88 82 a1 b8
       -3.4595116e-05 -0.00019116544 -0.00012829674 -7.7013916e-05
000020 f1 d2 c2 b8 e9 3b 2e 39 87 a7 09 39 88 65 bc b8
       -9.289932e-05 0.00016616251 0.00013127747 -8.98345e-05
000030 9e e1 04 b8 60 9b d0 38 0c e2 ec 38 0b 9b f0 38
       -3.1681375e-05 9.947154e-05 0.000112954614 0.00011472971
000040 a7 b6 a5 b6 02 70 87 b8 b6 90 4d 39 51 8f 26 b9
       -4.9386467e-06 -6.458165e-05 0.00019604233 -0.00015884383
000050 c9 92 4c b9 26 d9 3e 39 b6 64 ed 38 11 00 8b 39
       -0.00019509638 0.00018200706 0.000113197995 0.00026512195
000060 04 6a 89 b9 e5 bb 15 b9 49 48 28 38 55 64 9e be
       -0.00026209664 -0.00014279743 4.0121642e-05 -0.30935922
000070 3e 2d 24 38 6f bb a9 38 b3 69 1d 38 92 24 aa 38
       3.9142782e-05 8.09346e-05 3.7530157e-05 8.1130434e-05
000080 97 b4 bd 36 25 e5 da b9 56 7d f7 38 46 4d 20 b9
       5.6536624e-06 -0.00041750926 0.000118012234 -0.00015287576
000090 f0 0d d2 39 c0 ce 81 b8 b6 0f 23 b8 79 65 4f 39
       0.00040064706 -6.1897095e-05 -3.887686e-05 0.0001977886
0000a0 0d de b5 38 c4 97 bc 38 ba 29 3d b9 af 95 de 36
       8.672113e-05 8.992807e-05 -0.00018039989 6.633541e-06
0000b0 83 0d 61 39 ac cb bf 38 06 46 de 39 35 20 fd b7
       0.00021462706 9.1455266e-05 0.0004239531 -3.0174948e-05
0000c0 00 ef 4b b9 a8 46 b1 b9 0a 40 10 b8 98 b2 68 b8
       -0.00019448623 -0.00033812714 -3.4391916e-05 -5.547944e-05
0000d0 6b 19 8d 36 56 cf 64 38 bc 3d 0c 39 28 66 01 b9
       4.2050865e-06 5.4552533e-05 0.00013374438 -0.00012340455
0000e0 cf b1 0d b9 92 43 a4 b9 b4 33 74 39 0f 7c cd b9
       -0.00013513047 -0.0003133086 0.00023288914 -0.00039193078
0000f0 3e 79 eb 38 cd 94 a4 39 b5 20 ce 37 10 c4 9b b8
       0.00011228256 0.00031391383 2.4572344e-05 -7.4274954e-05

autoencoders.2.encoder.cells.0.bias_h_2 f4 [8]
000000 00 00 00 00 00 00 00 00 00 00 00 00 00 00 00 00
       0.0 0.0 0.0 0.0
000010 00 00 00 00 00 00 00 00 00 00 00 00 00 00 00 00
       0.0 0.0 0.0 0.0
