results/H3_Concatenation/machine_temperature_system_failure/ensemble_autoencoder_weights.pth (torch, 98154 bytes, 130 tensors)

autoencoders.0.encoder.cells.0.weight_h_2 f4 [8, 8]
0.43610078 0.0003330235 0.0010160207 0.0014851191 -0.00012721811 -0.3917667 0.0008361154 -0.24880746
-0.5793121 -0.21049364 0.0016859227 0.0010604904 -0.22274564 0.17195977 0.0015425493 0.45202085
-0.00019859154 0.04714647 0.42271343 0.102973 0.1393261 0.0045534405 0.040865585 0.42041412
0.13569222 0.3340132 0.16735972 0.0026989183 -0.3638496 -0.24567266 0.0010878284 0.027412226
0.6943244 -0.03600214 0.7460095 0.0018625754 0.6269853 0.10330417 0.22999 0.17472295
0.23613301 -0.03536452 0.07136006 0.25929797 -0.19545583 0.09277473 0.002024365 -0.20929024
-0.00021288729 0.19805099 0.0014949649 0.0007764494 0.3717851 0.3044139 0.0012529104 -0.109196216
-0.00066250894 0.16473588 0.0010251314 -0.046781212 0.63155055 -0.18829982 0.00070349674 0.1891246
00000000: 9a48 df3e a899 ae39 ff2b 853a 54a8 c23a
00000010: da65 05b9 a595 c8be c12e 5b3a 62c7 7ebe
00000020: cc4d 14bf a58b 57be 2efa dc3a 2700 8b3a
00000030: 6f17 64be 3916 303e 5e2f ca3a 476f e73e
00000040: 033d 50b9 a81c 413d e56d d83e 82e3 d23d
00000050: 80ab 0e3e 0735 953b ac62 273d 8540 d73e
00000060: e7f2 0a3e c703 ab3e 5960 2b3e 56e0 303b
00000070: 7f4a babe 9d91 7bbe 7795 8e3a 9b8f e03c
00000080: 3ebf 313f fb76 13bd 7bfa 3e3f a921 f43a
00000090: 1c82 203f 2391 d33d 8082 6b3e 93ea 323e
000000a0: dacc 713e 63da 10bd 3925 923d b4c2 843e
000000b0: 9325 48be ad00 be3d 35ab 043b 2e50 56be
000000c0: 7f3a 5fb9 e1cd 4a3e b3f2 c33a a38a 4b3a
000000d0: 9e5a be3e 24dc 9b3e b238 a43a 44a2 dfbd
000000e0: 39ac 2dba 86b0 283e b45d 863a a89d 3fbd
000000f0: 4cad 213f abd1 40be de6a 383a e1a9 413e

autoencoders.0.encoder.cells.0.bias_h_2 f4 [8]
0.019707551 0.016613567 0.0013640636 0.05894941 0.04477532 0.010580419 0.0014117236 0.06769088
00000000: bb71 a13c 2d19 883c 61ca b23a f074 713d
00000010: 5366 373d 7e59 2d3c 9509 b93a 84a1 8a3d

autoencoders.0.encoder.cells.0.lstm.weight_ih f4 [32, 1]
-0.00062308996 -6.430198e-05 0.0005060149 0.00040378267 -0.12733427 0.1667145 -0.0022100015 0.12128433
0.00019771364 3.094406e-05 -0.00037726117 5.3286625e-05 0.73205656 -4.1195104e-05 -0.0018166888 0.3314674
-0.110319175 -0.3595411 0.38147664 0.00016569406 0.2156317 0.21714038 -0.15739733 -0.005707123
-0.0011436868 0.020211803 0.12176193 0.0003712389 0.46631926 0.3722978 -0.0019688113 0.18024994
00000000: dc56 23ba ddd9 86b8 16a6 043a cbb2 d339
00000010: ea63 02be 35b7 2a3e acd5 10bb eb63 f83d
00000020: 5a51 4f39 eec9 0138 23cb c5b9 1480 5f38
00000030: 0f68 3b3f e8c8 2cb8 f61d eeba 18b6 a93e
00000040: 05ef e1bd c515 b8be e850 c33e 29be 2d39
00000050: 8ece 5c3e 0c5a 5e3e c42c 21be d102 bbbb
00000060: c3e7 95ba 3993 a53c 525e f93d d7a2 c239
00000070: 66c1 ee3e d19d be3e 2c07 01bb 7193 383e

autoencoders.0.encoder.cells.0.lstm.weight_hh f4 [32, 8]
0.0001246635 0.00027839374 -0.0002703165 0.00016893737 -0.0012339505 7.622485e-06 5.86571e-05 8.113179e-05
-0.072131194 -2.180115e-05 -0.00057508016 4.7604935e-05 -0.033716403 -0.000121463854 -0.09779631 -0.00017998718
-2.7538057e-05 0.00093535427 0.17609374 -0.000118684955 -0.00067952997 0.0007088827 0.00081729615 0.0006454242
-0.0005198433 -0.0006619242 0.00039187324 -0.00022537757 0.00061662117 -0.0011551902 -0.0010441971 -0.00017870372
0.08259918 7.185625e-05 -0.14116414 -0.00019416555 0.13169545 6.984952e-05 0.21941008 -0.00022568103
-0.00024360543 -0.00016954006 -5.801921e-06 1.3889715e-05 4.8233047e-05 -8.36279e-05 8.049403e-05 9.0602225e-06
0.00025515814 0.00011829974 -0.0013091905 0.0003687303 -0.0016406762 -0.00024134558 -6.0951206e-05 0.00034295427
-1.3769329e-05 0.00027676474 -0.001027958 -0.00017159771 -0.00065217353 9.677353e-05 -2.2622418e-05 7.092585e-05
7.27347e-05 2.2475364e-05 0.00016402673 0.00024146032 0.00035437828 -9.687115e-05 3.542843e-05 0.0002007682
-1.5516884e-05 0.00029663407 9.99299e-05 0.1112178 0.13259715 -3.476861e-05 -7.7177916e-05 3.985175e-05
0.00043392926 0.00075159996 0.04892828 0.0002828463 -0.00065715116 0.0005709814 0.0003867891 0.0008051512
-0.0006706401 -0.001372634 -0.00045062337 0.00010523521 0.0012811143 -0.0012398746 -0.0011929056 -0.0008424639
-0.09233905 0.061895892 -0.05809686 0.051799536 0.2816096 2.4971263e-05 0.35556406 0.43854326
6.1096645e-05 -8.6290784e-05 -0.00013428922 3.100911e-05 -5.953017e-05 -0.00014565984 -0.00014876628 -6.553105e-05
0.00020062618 0.00011611192 -0.0012250849 7.366886e-05 -0.0015659279 0.00029445402 -0.00043754757 0.00023106998
5.190355e-05 0.0001411368 -0.30152357 -0.00038838762 -0.000406471 4.7072583e-05 -0.0146063 5.718753e-05
-0.25256723 -0.11456879 0.40279508 -0.025863357 0.12684347 0.12273524 -0.04796648 -4.7436184e-05
-0.2735821 -0.0053568804 0.33309355 0.17841886 0.16302025 -0.14505251 -0.12777217 0.003964035
0.12333133 -0.0026740504 -0.0004642473 -0.00084527634 -0.03986704 0.28899497 -0.00091146474 -0.0015342569
0.1190476 0.17496529 0.012066125 0.16174458 0.0018522028 0.19690126 0.16136463 0.0020321524
0.044548813 0.30594236 -0.17439163 0.29887456 0.31096125 -0.037873786 -0.046275124 0.25231943
0.145128 0.13163893 -0.022720963 -0.23851247 -0.06013117 0.16237496 -0.00018360723 -0.16601513
0.025076332 0.00026226093 0.0028528925 0.03994863 3.140069e-05 0.18898132 -0.0010373547 8.417012e-05
-0.47650087 0.23180264 0.42774525 -0.32975927 0.30073535 -0.043692168 -0.4411274 0.003977007
-2.7010901e-06 8.951769e-05 -0.0010057122 0.00048780272 -0.0009510326 2.5001584e-05 6.962616e-05 5.0097595e-05
-0.00016725608 0.00010273972 0.09867496 0.00025531414 -0.0001399471 0.00014806088 -0.00016997148 -0.00029407296
0.13518085 0.0009516419 -0.00024494564 0.00014177818 0.20360409 0.0007922011 -0.13486004 0.0006674745
5.674471e-05 -0.000749996 -0.00011247403 0.00024214867 0.20023152 -0.0009853275 -0.0010414717 -0.00027832668
0.08647137 0.15835947 -0.00036027274 -0.17256056 0.17292795 0.13530304 -0.0948066 0.48812413
7.34271e-05 -0.00023570085 8.155707e-06 0.00016397731 -1.7801314e-05 9.173037e-06 5.8142883e-05 0.00018997399
0.00036279537 0.00033706467 -0.0014279184 -0.00052390236 -0.001440271 -0.00025581283 0.00035067432 0.0003948777
0.00012631241 5.0558298e-05 7.774491e-05 -0.05420232 -0.0006047546 0.00010776857 7.447947e-05 -9.757194e-05
00000000: 1ab8 0239 60f5 9139 44b9 8db9 c824 3139
00000010: 82bc a1ba a6c4 ff36 9506 7638 4c25 aa38
00000020: 85b9 93bd 9de1 b6b7 fac0 16ba 69ab 4738
00000030: 361a 0abd 69ba feb8 6f49 c8bd f1ba 3cb9
00000040: 8701 e7b7 9032 753a eb51 343e 80e6 f8b8
00000050: 7c22 32ba 50d4 393a d13f 563a af31 293a
00000060: 1846 08ba fb84 2dba 5674 cd39 5553 6cb9
00000070: bfa4 213a c069 97ba 71dd 88ba 6a62 3bb9
00000080: c229 a93d 88b1 9638 558d 10be eb98 4bb9
00000090: 2cdb 063e 2d7c 9238 09ad 603e caa4 6cb9
000000a0: 5670 7fb9 90c6 31b9 1fae c2b6 df07 6937
000000b0: d74d 4a38 6361 afb8 e7ce a838 5c01 1837
000000c0: bfc6 8539 b017 f838 2599 abba 2552 c139
000000d0: f50b d7ba b611 7db9 dca5 7fb8 8bce b339
000000e0: d102 67b7 bc1a 9139 8cbc 86ba e9ee 33b9
000000f0: a0f6 2aba e5f2 ca38 46c5 bdb7 07be 9438
00000100: 2589 9838 7a89 bc37 97fe 2b39 8330 7d39
00000110: d9cb b939 4d27 cbb8 fd98 1438 4e85 5239
00000120: 412a 82b7 8d85 9b39 7591 d138 28c6 e33d
00000130: 8cc7 073e 83d4 11b8 94da a1b8 7e26 2738
00000140: 0081 e339 0507 453a 0569 483d fd4a 9439
00000150: ab44 2cba eaad 153a f4c9 ca39 c810 533a
00000160: e5cd 2fba f4e9 b3ba a541 ecb9 b9b1 dc38
00000170: 10eb a73a 4a83 a2ba 455b 9cba ccd8 5cba
00000180: 411c bdbd 8c86 7d3d f9f6 6dbd c02b 543d
00000190: 222f 903e 6179 d137 7e0c b63e be88 e03e
000001a0: 0321 8038 03f7 b4b8 fdcf 0cb9 c70f 0238
000001b0: 09b0 79b8 44bc 18b9 25fe 1bb9 b76d 89b8
000001c0: 2e5f 5239 1d81 f338 0793 a0ba ab7e 9a38
000001d0: d23f cdba f360 9a39 a466 e5b9 604b 7239
000001e0: 03b3 5938 1ffe 1339 4c61 9abe 81a0 cbb9
000001f0: 9d1b d5b9 cd6f 4538 434f 6fbc a5dc 6f38
00000200: 7e50 81be 0ba3 eabd 283b ce3e 64df d3bc
00000210: 41e3 013e 9d5c fb3d 8078 44bd 37f6 46b8
00000220: f412 8cbe c588 afbb 3d8b aa3e 6fb3 363e
00000230: c8ee 263e a588 14be b5d6 02be bce4 813b
00000240: 2395 fc3d 1f3f 2fbb 3866 f3b9 8995 5dba
00000250: 9f4b 23bd 26f7 933e 5def 6eba 1e19 c9ba
00000260: 3acf f33d 1a2a 333e ffb0 453c 5fa0 253e
00000270: 9dc5 f23a 7ca0 493e c53c 253e dc2d 053b
00000280: d178 363d 7aa4 9c3e b893 32be 1606 993e
00000290: 5036 9f3e 8b21 1bbd fc8a 3dbd 0330 813e
000002a0: 6f9c 143e 5bcc 063e 5021 babc 9d3c 74be
000002b0: 1a4c 76bd 9f45 263e b186 40b9 dfff 29be
000002c0: e16c cd3c 1180 8939 98f7 3a3b 2da1 233d
000002d0: 3cb4 0338 5284 413e d9f7 87ba 7d84 b038
000002e0: ecf7 f3be ac5d 6d3e 6d01 db3e 35d6 a8be
000002f0: fcf9 993e 8ff6 32bd 73db e1be 8e51 823b
00000300: 6044 35b6 72bb bb38 1ad2 83ba c6bf ff39
00000310: b84e 79ba 7eba d137 4304 9238 e21f 5238
00000320: 7661 2fb9 f875 d738 1916 ca3d afdb 8539
00000330: c3be 12b9 ca40 1b39 5f3a 32b9 ce2d 9ab9
00000340: d96c 0a3e 9b77 793a 0c6c 80b9 4aaa 1439
00000350: 977d 503e b7ab 4f3a c018 0abe 75f9 2e3a
00000360: 2b01 6e38 619b 44ba 09e0 ebb8 4ae9 7d39
00000370: 7e09 4d3e 1b26 81ba fe81 88ba 60ec 91b9
00000380: e717 b13d fc28 223e fde2 bcb9 b7b3 30be
00000390: 0614 313e e18c 0a3e f629 c2bd 68eb f93e
000003a0: e0fc 9938 7726 77b9 7fd4 0837 53f1 2b39
000003b0: 0854 95b7 e5e5 1937 72de 7338 c133 4739
000003c0: 9235 be39 0eb8 b039 fe28 bbba 7e56 09ba
000003d0: 7ac7 bcba 9e1e 86b9 b6da b739 9607 cf39
000003e0: bb72 0439 8f0e 5438 fb0a a338 4003 5ebd
000003f0: 6588 1eba cf01 e238 dc31 9c38 899f ccb8

autoencoders.0.encoder.cells.0.lstm.bias_ih f4 [32]
-0.00081540894 0.00013128783 -0.0008091964 0.001256426 0.011064747 1.8637049e-05 -0.001513491 -0.0005332273
-0.0008766384 -2.672673e-05 -0.0014008266 0.0012550591 0.0012776593 1.4285645e-05 -0.0013167048 -5.548724e-07
0.058476143 0.049466275 0.00043490026 0.08667674 0.038491067 0.025190547 0.05442338 0.07252701
-0.0008302613 6.525798e-05 -0.0006803006 0.0017441756 0.022054974 4.1677094e-06 -0.0010463533 -0.00044853467
00000000: 2bc1 55ba 4faa 0939 4020 54ba a9ae a43a
00000010: ea48 353c c256 9c37 5560 c6ba 47c8 0bba
00000020: 35ce 65ba 3733 e0b7 f19b b7ba cc80 a43a
00000030: 2277 a73a 61ac 6f37 4895 acba 8af2 14b5
00000040: ae84 6f3d 269d 4a3d 5303 e439 9383 b13d
00000050: cfa8 1d3d 685c ce3c 0deb 5e3d 0b89 943d
00000060: e5a5 59ba 1cdb 8838 3356 32ba d29c e43a
00000070: a2ac b43c 5ad8 8b36 ca25 89ba 4e29 ebb9

autoencoders.0.encoder.cells.0.lstm.bias_hh f4 [32]
-0.00081540894 0.00013128783 -0.0008091964 0.001256426 0.011064747 1.8637049e-05 -0.001513491 -0.0005332273
-0.0008766384 -2.672673e-05 -0.0014008266 0.0012550591 0.0012776593 1.4285645e-05 -0.0013167048 -5.548724e-07
0.058476143 0.049466275 0.00043490026 0.08667674 0.038491067 0.025190547 0.05442338 0.07252701
-0.0008302613 6.525798e-05 -0.0006803006 0.0017441756 0.022054974 4.1677094e-06 -0.0010463533 -0.00044853467
00000000: 2bc1 55ba 4faa 0939 4020 54ba a9ae a43a
00000010: ea48 353c c256 9c37 5560 c6ba 47c8 0bba
00000020: 35ce 65ba 3733 e0b7 f19b b7ba cc80 a43a
00000030: 2277 a73a 61ac 6f37 4895 acba 8af2 14b5
00000040: ae84 6f3d 269d 4a3d 5303 e439 9383 b13d
00000050: cfa8 1d3d 685c ce3c 0deb 5e3d 0b89 943d
00000060: e5a5 59ba 1cdb 8838 3356 32ba d29c e43a
00000070: a2ac b43c 5ad8 8b36 ca25 89ba 4e29 ebb9

autoencoders.0.decoder.cells.0.weight_h_2 f4 [8, 8]
0.11551656 0.4755356 -0.7339648 -0.0036529694 -0.12195239 -0.09686019 0.4593744 -0.18846104
-0.09832039 -0.0009982935 -0.39101464 0.07822463 -0.02897062 0.5788777 0.82547295 -0.33513844
0.32856038 0.25635895 0.22777632 -0.09610628 -0.3912978 -0.41649446 -0.53867996 0.17771727
-1.7790337e-05 0.083210394 0.2768137 1.42903855e-05 -0.10183601 0.5127258 0.08054662 -0.3641132
0.6150954 0.07150395 -0.7675003 -0.35847667 -0.3082668 0.33498916 -0.20487177 -0.70177144
-0.0003949189 0.2876379 0.28025323 0.38433322 -0.0006527962 -0.13913332 0.09112426 -0.035058353
-0.23969951 0.02448518 -0.0035401506 0.29042822 -0.19318329 -0.043530896 0.2155873 -0.073441565
0.47172505 -0.3161154 0.043915488 0.03984071 0.19926937 2.1509206e-05 -0.00020944595 0.21928488
00000000: f293 ec3d 6779 f33e 1ee5 3bbf a866 6fbb
00000010: 2dc2 f9bd a35e c6bd 1f33 eb3e eefb 40be
00000020: 335c c9bd 2cd9 82ba 1233 c8be 3c34 a03d
00000030: cb53 edbc 5431 143f 3252 533f 4497 abbe
00000040: 1139 a83e 7b41 833e 323e 693e 5fd3 c4bd
00000050: 2f58 c8be c33e d5be eee6 09bf 84fb 353e
00000060: 753c 95b7 366a aa3d 86ba 8d3e bdc0 6f37
00000070: 668f d0bd ff41 033f a0f5 a43d 0c6d babe
00000080: e476 1d3f aa70 923d e67a 44bf 418a b7be
00000090: 25d5 9dbe b383 ab3e e8c9 51be 4ba7 33bf
000000a0: 1e0d cfb9 4645 933e 5a7d 8f3e 53c7 c43e
000000b0: 6920 2bba f778 0ebe 5b9f ba3d 5999 0fbd
000000c0: ca73 75be 2595 c83c df01 68bb 02b3 943e
000000d0: d7d1 45be 744d 32bd ebc2 5c3e 8868 96bd
000000e0: f285 f13e e1d9 a1be bae0 333d 0330 233d
000000f0: 450d 4c3e ab6e b437 b89e 5bb9 378c 603e

autoencoders.0.decoder.cells.0.bias_h_2 f4 [8]
0.086286716 -0.09898602 -0.07775695 -0.05234051 -0.08192147 -0.06890779 0.044963405 -0.08870594
00000000: 17b7 b03d 2fb9 cabd 093f 9fbd 0163 56bd
00000010: 72c6 a7bd 871f 8dbd 8c2b 383d 76ab b5bd

autoencoders.0.decoder.cells.0.lstm.weight_ih f4 [32, 9]
-0.012807731 0.28432667 0.0766079 0.49344483 0.40497568 0.0015992292 0.0710451 0.034011725
0.25461555 0.26079273 -0.24903607 -0.21239239 0.027981227 -0.14384316 -0.0011248777 0.20713145
-0.13373233 6.781417e-05 0.4123391 -0.09501501 0.22223581 -0.03241528 -0.17041548 0.000149284
-0.0038798 0.30436262 0.15989159 -6.214793e-05 -0.0008519852 2.6298714e-05 0.1470454 -0.0042965785
-0.00020202069 0.009160103 0.28448135 0.000117365635 -0.00053139264 -0.0008138104 -6.1996136e-05 -0.13782342
-0.00037012505 1.7937247e-05 0.016522275 6.5699634e-05 1.3139978e-05 0.2821072 0.06355139 -5.2040014e-05
3.9115686e-05 0.2315904 0.32988712 0.34036255 -0.10483294 -3.894325e-05 0.00031444957 -0.21578936
8.3625895e-07 -0.22062272 -0.1921652 -0.17913914 0.00028994662 0.15500507 -0.015400741 -0.16860092
0.18311416 7.1061135e-05 0.29373276 0.35298213 0.19279787 0.21628962 -0.15938862 0.1679924
0.0017536188 0.3072128 0.13280924 0.28797385 0.045027632 0.45846072 0.2526262 0.032146417
0.6575736 -0.010295876 -0.24439032 0.00031286944 -0.4367141 -0.13889602 0.10580726 0.018302187
-0.27073205 8.890605e-05 -0.00020775401 -0.013710114 -0.10890121 0.18458869 -0.16010372 -0.008580243
0.12166696 -0.34904048 -0.00033770988 0.10432044 0.0007894076 -2.2372022e-05 0.29830855 -0.034176484
0.0680475 -4.573545e-05 0.07883961 0.07923169 0.026682664 0.08187226 0.0117007075 0.13559292
0.12576638 -7.930769e-05 0.00025192482 0.086029686 0.0005805565 0.20235166 -0.057271056 -4.7117224e-05
0.00014915229 0.075014025 0.091340706 -0.08861166 0.32913908 0.027657624 0.00022620028 0.049548794
-0.08235478 0.00019043485 0.21595888 -0.08802599 -0.20996891 0.034705464 1.2391036e-05 -0.14584687
-0.5746972 0.24136636 -0.15336171 0.10837315 0.11561706 -0.18198054 -0.069325 -0.2922587
0.80820876 -0.19676948 -0.3774733 0.28574687 -0.16815615 -0.04121373 -0.07860719 -0.39483762
-0.2773071 0.119544655 -0.047936253 -0.009090916 0.12920669 -0.14129625 -0.59373593 -0.26779512
-0.08772225 -0.1079263 -0.27767068 -0.088175006 -0.27317712 -0.06790497 0.017940113 0.15435342
-0.020226305 -0.066916145 -0.26541954 0.20352471 -0.35317892 -0.48699272 -0.06763586 -0.001933672
-0.18373102 -0.21474066 -0.107896194 -0.21920535 0.23993081 -0.09859505 0.09704531 -0.0691668
-0.44276473 -0.06161467 0.10254669 0.036621407 -0.0048224856 -0.23855855 -0.1307295 -0.27466592
0.12258606 -7.1438255e-05 -0.4115695 -0.19939803 1.4553984e-05 -0.09573742 -0.07013765 0.011736705
-0.60270935 0.20927066 0.18210712 -0.207607 -0.044236116 0.07006607 0.30479854 0.23381013
-0.7266488 -0.14598031 -0.13289703 -0.0726697 -0.14574791 -0.16920894 -0.10063194 -0.00013741583
-0.11128951 0.12273265 0.35913932 0.5502923 0.23551978 0.2665608 0.002234912 0.13633923
0.22813305 -0.1803347 0.16907088 -0.040981393 -0.030344112 -0.14005342 0.05434866 0.18218009
0.11352461 0.117510214 0.117020495 0.0005292697 0.23012558 0.010030418 0.38963684 3.3422137e-05
0.00024471525 -0.03925163 -0.4039521 0.29357553 0.00011115157 4.1659096e-06 -0.300439 -0.15966737
0.021425845 7.859635e-05 0.2925843 0.49764913 0.12969515 0.00027329204 2.4449922e-05 6.172249e-05
00000000: 84d7 51bc 4493 913e 9ae4 9c3d cda4 fc3e
00000010: f958 cf3e 3a9d d13a 1880 913d e14f 0b3d
00000020: f85c 823e a086 853e 5003 7fbe 647d 59be
00000030: e338 e53c 9f4b 13be a270 93ba 441a 543e
00000040: 21f1 08be 7537 8e38 1c1e d33e 3b97 c2bd
00000050: c991 633e e2c5 04bd 6581 2ebe 1e89 1c39
00000060: 3e44 7ebb 6bd5 9b3e 9fba 233e 6a55 82b8
00000070: c257 5fba 0f9c dc37 1293 163e 50ca 8cbb
00000080: 84d5 53b9 4214 163c 8aa7 913e 3222 f638
00000090: 284d 0bba e455 55ba ec03 82b8 9521 0dbe
000000a0: 580d c2b9 f277 9637 b959 873c 39c8 8938
000000b0: c773 5c37 5b70 903e 3b27 823d 8a45 5ab8
000000c0: 2610 2438 0926 6d3e f7e6 a83e 0044 ae3e
000000d0: a7b2 d6bd ff56 23b8 b5dc a439 e3f7 5cbe
000000e0: 477b 6035 ecea 61be f4c6 44be 4070 37be
000000f0: fa03 9839 a6b9 1e3e 6453 7cbc b8a5 2cbe
00000100: 4782 3b3e a806 9538 2464 963e 13ba b43e
00000110: ce6c 453e 077b 5d3e c536 23be 3306 2c3e
00000120: afd9 e53a ff4a 9d3e 25ff 073e 4f71 933e
00000130: e56e 383d 5dbb ea3e 3958 813e f6ab 033d
00000140: be56 283f 09b0 28bc 7541 7abe a008 a439
00000150: fe98 dfbe c23a 0ebe 7ab1 d83d 78ee 953c
00000160: 649d 8abe 1273 ba38 8bd8 59b9 63a0 60bc
00000170: 9907 dfbd d104 3d3e 3bf2 23be 2694 0cbc
00000180: 872c f93d 6fb5 b2be a70e b1b9 f4a5 d53d
00000190: 3ff0 4e3a 8dab bbb7 e6bb 983e a4fc 0bbd
000001a0: 7d5c 8b3d 11d4 3fb8 a976 a13d 3944 a23d
000001b0: 9a95 da3c a5ac a73d 53b4 3f3c dfd8 0a3e
000001c0: e7c8 003e fe51 a6b8 c714 8439 5530 b03d
000001d0: 7d30 183a 4635 4f3e 0e95 6abd bc9f 45b8
000001e0: c365 1c39 f4a0 993d d610 bb3d 087a b5bd
000001f0: eb84 a83e 3e92 e23c 2d30 6d39 adf3 4a3d
00000200: 9fa9 a8bd 77af 4739 5324 5d3e f846 b4bd
00000210: 1702 57be 5127 0e3d 18e3 4f37 e258 15be
00000220: 5b1f 13bf be28 773e da0a 1dbe bef2 dd3d
00000230: a3c8 ec3d 1b59 3abe 44fa 8dbd efa2 95be
00000240: c5e6 4e3f f07d 49be 2e44 c1be 6a4d 923e
00000250: 2031 2cbe bacf 28bd cefc a0bd 2828 cabe
00000260: 32fb 8dbe d4d3 f43d ce58 44bd 11f2 14bc
00000270: c24e 043e f7af 10be 14ff 17bf 711c 89be
00000280: b9a7 b3bd 7708 ddbd da2a 8ebe 1995 b4bd
00000290: dfdd 8bbe c311 8bbd 25f7 923c d30e 1e3e
000002a0: a3b1 a5bc 550b 89bd 12e5 87be c868 503e
000002b0: ded3 b4be 1c57 f9be ab84 8abd 4473 fdba
000002c0: fc23 3cbe fae4 5bbe aef8 dcbd 5e77 60be
000002d0: 6cb0 753e 34ec c9bd b1bf c63d 53a7 8dbd
000002e0: 0fb2 e2be aa5f 7cbd 0004 d23d 5400 163d
000002f0: f105 9ebb b148 74be f4dd 05be 03a1 8cbe
00000300: 660e fb3d 1fd1 95b8 3db9 d2be ff2e 4cbe
00000310: e32c 7437 fb11 c4bd 54a4 8fbd 4f4b 403c
00000320: 294b 1abf 0c4b 563e 4a7a 3a3e ee96 54be
00000330: ee30 35bd cd7e 8f3d 8e0e 9c3e ec6b 6f3e
00000340: a805 3abf dd7b 15be 2916 08be dad3 94bd
00000350: f13e 15be 1c45 2dbe 1e18 cebd 4817 10b9
00000360: c1eb e3bd 415b fb3d 1ce1 b73e f5df 0c3f
00000370: 192c 713e a87a 883e 9a77 123b 839c 0b3e
00000380: b69b 693e a9a9 38be eb20 2d3e 1bdc 27bd
00000390: 3794 f8bc 2a6a 0fbe b39c 5e3d 6b8d 3a3e
000003a0: 977f e83d 32a9 f03d 71a8 ef3d b0be 0a3a
000003b0: 0aa6 6b3e 9f56 243c 7b7e c73e bf2e 0c38
000003c0: 204d 8039 51c6 20bd cfd2 cebe 884f 963e
000003d0: 0b1a e938 e4c8 8b36 24d3 99be d87f 23be
000003e0: 4185 af3c 18d4 a438 9ccd 953e decb fe3e
000003f0: cece 043e a348 8f39 cf19 cd37 0271 8138

autoencoders.0.decoder.cells.0.lstm.weight_hh f4 [32, 8]
0.372477 0.0006487828 -4.0401537e-05 0.28970584 0.03763648 -0.00014972463 0.13085815 0.0010937826
-0.009754546 0.024172897 0.00041117717 0.33195892 0.3665304 -9.521509e-06 -0.0060231998 2.736087e-05
0.051086143 -0.08818179 0.16457738 -1.6509677e-05 0.08897744 0.11388117 0.0003853873 -3.4026423e-05
0.020471275 -8.3101375e-05 2.2571308e-05 3.212679e-05 0.11909719 3.482671e-06 6.84907e-06 0.0001451627
0.012008714 6.925341e-05 -2.8378961e-05 0.00020921743 -0.35032335 -0.000105114384 -0.0008158072 -2.8349177e-05
-0.019591805 0.017107254 -2.8751185e-06 -7.093482e-07 -0.004197166 -3.2489093e-05 0.08115086 0.0003121477
-0.18830165 -0.015249388 0.000102358776 0.25415516 0.3650122 -0.37426624 -0.18395843 8.4033425e-05
-0.15777221 -0.0573147 0.48659056 -1.9963572e-05 0.14169866 0.1944157 0.23410903 6.338708e-05
0.53561187 0.37680337 -1.578347e-05 0.00045945204 0.28564316 -0.041903075 0.0836089 0.056044433
0.28952304 -0.17245333 -0.0001945901 9.9446464e-05 0.38613006 -0.00052320334 0.00011462664 -0.00020940402
-0.24707873 0.28483957 -0.10795072 0.22432594 0.045843396 -3.9130435e-05 0.3092316 4.769149e-05
-0.26743633 0.2505994 -3.645553e-05 -0.00020547699 0.0563581 -7.329221e-05 4.2417676e-05 0.00017695143
0.0003928073 0.00023672242 0.00053473713 -0.12926513 0.00055639306 0.0003571907 0.0005363812 -0.00020857004
0.031112816 0.036404658 -8.5066116e-05 2.1159016e-05 0.33262044 -2.0977113e-05 0.00013553463 0.00013111084
0.16939554 -0.059597537 -0.00020273436 -0.018418362 0.115039445 -1.2972175e-05 0.20157352 3.8320297e-05
-0.07511105 2.0782389e-05 -9.7101125e-05 -0.027420152 0.21108243 -0.14159837 0.034662437 -9.7835895e-05
-0.02330189 0.22495301 0.0006520007 0.027778635 0.37783435 0.0021674666 -0.028142864 0.15666002
0.11523205 0.10951532 -0.15253022 0.06824784 -0.066564605 -0.007089901 -0.24384534 -0.0963871
0.013219238 -0.080324925 -0.00016781167 -0.17498173 -0.23820682 -0.06721458 0.0034992476 -0.0010840388
-0.111602165 0.3885899 0.1511024 0.069221556 -0.124268115 0.14533155 -0.3341903 -0.043865252
0.28041068 0.05018138 0.026570614 6.224582e-05 -0.00083532697 -0.0014638634 -0.03498172 -0.08313876
-0.32588732 0.25834054 0.16391706 -0.064308085 0.039679285 -0.312265 0.059485484 -4.4630895e-05
-0.0030697864 -0.19609618 0.37319735 -0.0258735 0.1159189 -0.00023236498 0.16065831 -0.05138253
-0.2610262 -9.250144e-06 -0.10340503 -0.13139439 -0.726298 0.09235031 0.01737192 0.09664125
0.06944738 0.016595228 0.20080721 6.5640284e-05 0.016024886 -0.0004411466 0.29335302 -0.00012269411
-0.059662953 0.26599994 0.0005437683 8.650935e-05 0.07692614 0.13255912 0.32466063 0.11566383
0.011347332 0.27516782 0.00010595591 0.17798544 -0.13413902 -0.00039008516 -0.07308269 6.627525e-05
0.20368892 0.14218578 0.00015628272 4.001957e-05 3.2841617e-05 -1.7511265e-05 -0.08384527 0.00010333504
0.17306146 -0.20906924 2.158655e-05 0.00038366189 -0.0489404 3.2621192e-05 4.1461004e-05 5.736869e-05
0.28195864 0.20417064 2.3713494e-05 -3.671925e-05 1.0950464e-05 0.15027817 0.17491171 -9.827839e-05
-0.3921528 -1.0086438e-05 -0.13474366 -4.147213e-06 0.16293938 7.7426586e-05 0.00040238973 -0.100760244
0.11243902 0.0993106 0.011902032 -0.029731164 -0.15938999 0.2431948 0.00012241273 0.074552216
00000000: 4eb5 be3e 1413 2a3a d274 29b8 5354 943e
00000010: b628 1a3d 66ff 1cb9 aeff 053e 415d 8f3a
00000020: 88d1 1fbc 3d06 c63c 4493 d739 85f6 a93e
00000030: dfa9 bb3e 92be 1fb7 435e c5bb 0585 e537
00000040: b43f 513d a898 b4bd f986 283e 437e 8ab7
00000050: ce39 b63d 883a e93d cf0d ca39 98b7 0eb8
00000060: 60b3 a73c b646 aeb8 8457 bd37 e1bf 0638
00000070: 3ae9 f33d d5b7 6936 10d1 e536 d136 1839
00000080: 32c0 443c 243c 9138 5b0f eeb7 6061 5b39
00000090: 955d b3be db70 dcb8 e5db 55ba 65cf edb7
000000a0: fe7e a0bc 8324 8c3c 29f2 40b6 0a6a 3eb5
000000b0: 6188 89bb e644 08b8 6c32 a63d c1a7 a339
000000c0: 26d2 40be 92d8 79bc 73a9 d638 a020 823e
000000d0: e1e2 ba3e d39f bfbe 995f 3cbe 1a3b b038
000000e0: 0a8f 21be d2c2 6abd 6622 f93e 7277 a7b7
000000f0: 7419 113e e914 473e 47ba 6f3e aeee 8438
00000100: dc1d 093f 5fec c03e be66 84b7 9ce2 f039
00000110: d23f 923e 8fa2 2bbd 253b ab3d d98e 653d
00000120: 5d3c 943e 9b97 30be e20a 4cb9 ea8d d038
00000130: d7b2 c53e 9527 09ba b563 f038 7793 5bb9
00000140: 3502 7dbe 7ed6 913e 4415 ddbd b3b5 653e
00000150: 49c6 3b3d fc1f 24b8 9b53 9e3e 5908 4838
00000160: 6aed 88be 914e 803e d4e7 18b8 4f75 57b9
00000170: c0d7 663d 75b4 99b8 a2e9 3138 0a8c 3939
00000180: b4f1 cd39 b138 7839 9a2d 0c3a 145e 04be
00000190: e8da 113a 5345 bb39 ef9b 0c3a 98b3 5ab9
000001a0: 4ee0 fe3c 0d1d 153d 8665 b2b8 a47e b137
000001b0: 3a4d aa3e 02f8 afb7 4d1e 0e39 cc7a 0939
000001c0: 0676 2d3e 8c1c 74bd 1795 54b9 1be2 96bc
000001d0: cd99 eb3d 11a3 59b7 4a69 4e3e 1bba 2038
000001e0: d2d3 99bd d755 ae37 c5a2 cbb8 3aa0 e0bc
000001f0: fe25 583e 2aff 10be 33fa 0d3d 3f2d cdb8
00000200: 9be3 bebc 155a 663e 07eb 2a3a 0590 e33c
00000210: 8173 c13e 0e0c 0e3b dd8b e6bc 7c6b 203e
00000220: c8fe eb3d 9149 e03d e230 1cbe 86c5 8b3d
00000230: 0653 88bd 6652 e8bb 98b2 79be 9a66 c5bd
00000240: 8195 583c 6581 a4bd 9af6 2fb9 692e 33be
00000250: 7dec 73be cca7 89bd a253 653b 4e16 8eba
00000260: ad8f e4bd 41f5 c63e 96ba 1a3e 08c4 8d3d
00000270: 4880 febd cbd1 143e fe1a abbe 0dac 33bd
00000280: fd91 8f3e fe8a 4d3d 9eaa d93c f889 8238
00000290: d8f9 5aba 1bdf bfba fe48 0fbd a744 aabd
000002a0: b4da a6be 3645 843e e0d9 273e f5b3 83bd
000002b0: bf86 223d 33e1 9fbe 0da7 733d 0f32 3bb8
000002c0: 782e 49bb 70cd 48be b913 bf3e aaf4 d3bc
000002d0: e366 ed3d 00a7 73b9 9d83 243e 7d76 52bd
000002e0: 3aa5 85be 1131 1bb7 04c6 d3bd 408c 06be
000002f0: aaee 39bf 2922 bd3d 8f4f 8e3c d9eb c53d
00000300: 6e3a 8e3d b7f2 873c 68a0 4d3e 5ca8 8938
00000310: 9f46 833c b249 e7b9 5e32 963e 73a7 00b9
00000320: 2461 74bd 2531 883e ac8b 0e3a 5b6c b538
00000330: 748b 9d3d 94bd 073e eb39 a63e 28e1 ec3d
00000340: 29ea 393c cce2 8c3e a534 de38 d141 363e
00000350: bd5b 09be 5884 ccb9 61ac 95bd 41fd 8a38
00000360: d493 503e 2699 113e d3df 2339 b0da 2738
00000370: 6bbf 0938 28e5 92b7 12b7 abbd 94b5 d838
00000380: 0637 313e 3f16 56be c314 b537 3a26 c939
00000390: bb75 48bd bdd2 0838 6ae6 2d38 299f 7038
000003a0: e25c 903e 1c12 513e 57ec c637 ff02 1ab8
000003b0: e2b7 3737 85e2 193e 0e1c 333e cf1a ceb8
000003c0: 40c8 c8be ec38 29b7 3efa 09be 4a28 8bb6
000003d0: 95d9 263e 1560 a238 d6f7 d239 635b cebd
000003e0: 6e46 e63d 5b63 cb3d be00 433c c58e f3bc
000003f0: 2137 23be 0f08 793e eb5b 0039 d5ae 983d

autoencoders.0.decoder.cells.0.lstm.bias_ih f4 [32]
0.17761375 -0.0041492395 0.039207876 0.0035458936 -4.5991474e-05 0.012922115 -0.037066136 0.051917803
0.21193664 -0.0085935155 -0.00847283 -9.0430054e-05 0.00026535158 0.00011196626 -0.012485193 0.018842423
-0.092366874 -0.060889475 -0.026988933 -0.042378526 -0.08102685 -0.03052961 0.07336183 -0.04088752
0.1934727 0.028351592 0.045482848 0.01666659 2.511e-05 0.041257277 -0.024445754 0.033518266
00000000: 61e0 353e 58f6 87bb 7098 203d 3962 683b
00000010: f8e6 40b8 47b7 533c a9d2 17bd c3a7 543d
00000020: eb05 593e d1cb 0cbc a0d1 0abc 44a5 bdb8
00000030: e31e 8b39 6ecf ea38 b28e 4cbc 6d5b 9a3c
00000040: d82a bdbd 3e67 79bd e517 ddbc 1b95 2dbd
00000050: 68f1 a5bd 3c19 fabc ba3e 963d ac79 27bd
00000060: b51d 463e 9941 e83c 394c 3a3d 5f88 883c
00000070: 50a3 d237 64fd 283d 7642 c8bc 734a 093d

autoencoders.0.decoder.cells.0.lstm.bias_hh f4 [32]
0.17761375 -0.0041492395 0.039207876 0.0035458936 -4.5991474e-05 0.012922115 -0.037066136 0.051917803
0.21193664 -0.0085935155 -0.00847283 -9.0430054e-05 0.00026535158 0.00011196626 -0.012485193 0.018842423
-0.092366874 -0.060889475 -0.026988933 -0.042378526 -0.08102685 -0.03052961 0.07336183 -0.04088752
0.1934727 0.028351592 0.045482848 0.01666659 2.511e-05 0.041257277 -0.024445754 0.033518266
00000000: 61e0 353e 58f6 87bb 7098 203d 3962 683b
00000010: f8e6 40b8 47b7 533c a9d2 17bd c3a7 543d
00000020: eb05 593e d1cb 0cbc a0d1 0abc 44a5 bdb8
00000030: e31e 8b39 6ecf ea38 b28e 4cbc 6d5b 9a3c
00000040: d82a bdbd 3e67 79bd e517 ddbc 1b95 2dbd
00000050: 68f1 a5bd 3c19 fabc ba3e 963d ac79 27bd
00000060: b51d 463e 9941 e83c 394c 3a3d 5f88 883c
00000070: 50a3 d237 64fd 283d 7642 c8bc 734a 093d

autoencoders.0.decoder.output_layer.weight f4 [1, 8]
0.22616434 -0.21393949 -0.15884297 -0.010822407 0.022433674 -0.032977607 0.2879457 -0.122928746
00000000: a097 673e f412 5bbe bba7 22be 7750 31bc
00000010: d3c6 b73c 8713 07bd 9e6d 933e 11c2 fbbd

autoencoders.1.encoder.cells.0.weight_h_2 f4 [8, 8]
0.20115152 -0.15478182 0.10184678 -0.4507388 -0.2771329 0.23702618 -0.048471846 -0.35842854
0.5094552 0.23126666 0.26054353 -0.10604604 -0.0010310451 0.6213371 0.09701574 0.07416311
-0.006178587 0.00051287154 0.67262053 -0.113177344 -0.025469573 -0.2005047 0.30919585 0.28065848
-1.0863004 -0.0011050865 -0.0028273838 0.36953267 -0.27905986 -0.6056046 0.030978784 -0.0015568011
-0.7387362 -0.0020786813 0.552614 -0.0004884497 -0.0147147225 -0.019409347 0.0027574876 0.09929363
0.5024194 -0.08725737 0.11201916 -0.0016397999 0.41981718 -0.19245806 0.3386089 -0.36839816
-0.14217317 -0.30092958 0.29637027 -0.19297151 -0.18166588 -0.15882833 -0.000353233 -0.1453232
0.21143414 0.14510456 -0.28142563 0.13327785 -0.1024669 0.13085555 0.018273769 -0.0011581662
00000000: aafa 4d3e 207f 1ebe 0b95 d03d 3cc7 e6be
00000010: 5de4 8dbe feb6 723e 6a8a 46bd f283 b7be
00000020: a86b 023f 2bd1 6c3e f665 853e ab2e d9bd
00000030: 2224 87ba f30f 1f3f 30b0 c63d d4e2 973d
00000040: bf75 cabb 3a72 063a dc30 2c3f 86c9 e7bd
00000050: 91a5 d0bc 1b51 4dbe eb4e 9e3e 78b2 8f3e
00000060: e40b 8bbf 8dd8 90ba a14b 39bb 6333 bd3e
00000070: efe0 8ebe e708 1bbf 38c7 fd3c 940d ccba
00000080: d11d 3dbf 7c3a 08bb 1c78 0d3f 4e0b 00ba
00000090: 0516 71bc 5a00 9fbc f7b6 343b 755a cb3d
000000a0: 8f9e 003f feb3 b2bd 4d6a e53d 8eee d6ba
000000b0: 47f2 d63e ba13 45be 255e ad3e af9e bcbe
000000c0: d895 11be 7113 9abe d8bd 973e 539a 45be
000000d0: 9f06 3abe e5a3 22be 2132 b9b9 9bcf 14be
000000e0: 3182 583e 4a96 143e 0517 90be fd79 083e
000000f0: 2bda d1bd fffe 053e dfb2 953c 9ccd 97ba

autoencoders.1.encoder.cells.0.bias_h_2 f4 [8]
-0.045011934 0.12617695 0.15251605 -0.003374612 -0.069286846 0.107681945 0.15170383 -0.0329971
00000000: 6f5e 38bd 8834 013e 2b2d 1c3e 9828 5dbb
00000010: 43e6 8dbd 5a88 dc3d 4058 1b3e f827 07bd

autoencoders.1.encoder.cells.0.lstm.weight_ih f4 [32, 1]
0.20573078 0.0805129 -0.008533927 1.9244897e-05 0.32439718 -0.62223816 -0.06515646 0.0022927653
0.6015425 0.088084325 -0.053031635 -0.00016609434 0.0704922 0.58361214 -0.27575022 0.0023534528
0.56159145 0.05446316 -0.3592853 0.04590704 0.17764468 -0.16688958 -0.29820105 0.03323737
0.53608894 -0.07388135 -0.0027921156 5.3687665e-05 0.078453116 -0.101841025 -0.026360802 0.0023015537
00000000: 17ab 523e f3e3 a43d e2d1 0bbc 1a70 a137
00000010: 6317 a63e 004b 1fbf c070 85bd 3842 163b
00000020: b0fe 193f 8e65 b43d b337 59bd 9c29 2eb9
00000030: 375e 903d 9b67 153f 222f 8dbe 633c 1a3b
00000040: 75c4 0f3f c314 5f3d 3ef4 b7be 0509 3c3d
00000050: 7de8 353e 1ae5 2abe cfad 98be e923 083d
00000060: 203d 093f 1b4f 97bd edfb 36bb b12e 6138
00000070: 07ac a03d 0792 d0bd 9cf2 d7bc aad5 163b

autoencoders.1.encoder.cells.0.lstm.weight_hh f4 [32, 8]
0.22377875 0.350297 0.2056936 0.00138981 -8.9700945e-05 0.23128779 0.31546116 0.0017825782
-0.0034281414 0.11852458 -0.0013486547 -0.0028433208 -0.00068658596 -0.0029371032 0.0965201 -0.0013512978
0.044557497 0.26736566 -0.07338874 0.016969273 -0.0016363307 0.0089380415 0.058673207 -0.0012296269
-2.1260412e-05 -0.012590425 -0.00012343223 -0.00016491808 -3.0983792e-05 0.00039742063 -5.6715948e-05 -8.8397675e-05
0.00162581 0.0022714557 0.0015883857 0.0025205668 0.0019798148 0.05549931 0.07719968 0.0016863819
0.015118019 -0.0017646819 -0.14436108 -0.002167974 -0.0017023532 -0.0018497776 0.35151374 -0.0012907536
-0.23524323 0.22544144 -0.1717195 -0.00090776384 -0.00062825915 0.15898839 -0.11800629 0.13581203
0.0024247975 0.0024613535 0.0029185389 0.0018257606 -0.00038049542 0.0026134555 0.0021935783 0.0019686988
0.24045993 0.560537 0.86312425 0.46477684 0.0032114768 0.29487333 0.43404937 0.8549864
-0.008531443 0.38769892 -0.002571236 -0.0034736372 -0.001748039 0.023366854 -0.002073192 -0.0014660141
-0.015455407 0.112749815 0.041005842 -0.0024747278 -0.0020698868 -0.002275491 -0.0019122433 0.048505336
1.1916329e-06 4.502783e-05 -2.7052852e-06 -1.654172e-05 1.7426037e-05 2.4307756e-05 -0.00010548907 0.00012661447
0.001450597 0.002142632 0.048837554 0.0020934 0.0022238086 0.0024558448 0.007049712 0.0022711135
0.03734807 -0.02393309 -0.007348138 -0.0021324663 -0.001868305 -0.0014907719 -0.010058594 -0.108408794
-0.036057066 0.36545622 0.1957152 -0.0027379899 -0.0012713736 -0.031100323 0.0012386793 0.2860055
0.002055213 0.0025596933 0.003111241 0.002196572 0.0001606278 0.0025888432 0.00205595 0.0007136261
-0.14788103 0.23478433 -0.029260468 -0.1986862 -0.084514834 -0.16645752 -0.38874924 0.054239746
0.09841116 0.0025726696 0.25344503 0.37288404 0.0001854296 0.4242087 0.039746456 0.18912303
-0.053300425 0.111220494 0.2056304 -0.14245182 0.025761537 0.28817463 0.16641678 0.09465081
0.07404564 -0.002040876 -0.0070047104 -0.11136242 -0.0008263667 -0.3106086 0.08553881 -0.012201821
-0.16844273 -0.06616116 -0.19192499 -0.0030760323 -0.0019302833 -0.25006485 -0.3623036 -0.19336785
-0.10108975 0.2382623 -0.0020437248 0.01278719 -0.0014368726 -0.0016520859 0.4630757 0.10938443
0.044472914 0.22276308 0.029573247 0.018552005 0.42489067 0.03828735 -0.045866586 0.53989065
-0.37684086 0.033225078 -0.09689339 0.30370033 -0.0014971413 0.06908148 0.06262119 -0.38910514
0.2838508 0.34649554 0.3365146 0.07892209 0.0026011493 0.12891646 0.91759855 0.031890076
-0.03925119 0.060538102 0.32513246 0.020454902 0.004962034 0.017897671 -0.014423276 -0.0015763416
-0.0026332664 0.33380646 0.13020697 -0.0016739501 -0.0013911815 0.060686443 0.098645635 -0.00052774267
4.5583292e-07 -3.7205395e-05 -4.1903928e-05 -9.20504e-05 -3.519625e-05 -0.00026116558 -0.20980082 1.1786251e-05
0.03028712 0.124407835 -0.15693694 0.030971115 0.0020506645 -0.022333642 0.09542728 0.14156961
-0.00809012 -0.0014296194 0.04195572 0.034593124 -0.0020951391 -0.0015756108 0.005086047 -0.0010785453
0.09779754 0.21875104 0.2391168 0.2449909 -0.0018466748 0.39732894 0.5011696 0.03450808
0.0025458774 0.0026389416 0.002844026 0.002442139 -7.029263e-05 0.0026703596 0.0021952142 0.0020726686
00000000: 4226 653e 215a b33e 58a1 523e 492a b63a
00000010: d41d bcb8 b5d6 6c3e 2084 a13e 66a5 e93a
00000020: abaa 60bb 04bd f23d 58c5 b0ba 0257 3abb
00000030: 01fc 33ba 6a7c 40bb 55ac c53d 081e b1ba
00000040: ec81 363d 27e4 883e d64c 96bd 2503 8b3c
00000050: 267a d6ba dd70 123c 5153 703d 6f2b a1ba
00000060: 6358 b2b7 1248 4ebc 966d 01b9 dced 2cb9
00000070: 98f4 01b8 e55c d039 49e2 6db8 2462 b9b8
00000080: 2219 d53a b4dc 143b 6131 d03a 1830 253b
00000090: c8bf 013b 3f53 633d de1a 9e3d 9609 dd3a
000000a0: 91b1 773c e64c e7ba 64d3 13be 9114 0ebb
000000b0: 7f21 dfba 3d74 f2ba 9cf9 b33e 812e a9ba
000000c0: 9ae3 70be 1fda 663e 3dd7 2fbe 00f7 6dba
000000d0: c2b1 24ba dacd 223e 48ad f1bd 4f12 0b3e
000000e0: 5ae9 1e3b a94e 213b f544 3f3b 5c4e ef3a
000000f0: 3b7d c7b9 8246 2b3b 23c2 0f3b 4905 013b
00000100: 213b 763e 5a7f 0f3f b6f5 5c3f 3bf7 ed3e
00000110: a477 523b a3f9 963e b83b de3e 64e0 5a3f
00000120: 77c7 0bbc 7980 c63e 2f82 28bb f6a5 63bb
00000130: 751e e5ba d86b bf3c 64de 07bb 4527 c0ba
00000140: ad38 7dbc 60e9 e63d bef5 273d 0b2f 22bb
00000150: f0a6 07bb 6720 15bb 3da4 faba 88ad 463d
00000160: 32f0 9f35 44dc 3c38 728c 35b6 13c3 8ab7
00000170: 212e 9237 82e8 cb37 033a ddb8 d0c3 0439
00000180: f521 be3a 666b 0c3b e309 483d 6d31 093b
00000190: 51bd 113b 3df2 203b 4501 e73b f6d6 143b
000001a0: 4afa 183d 540f c4bc a6c8 f0bb d9c0 0bbb
000001b0: eae1 f4ba 0166 c3ba cdcc 24bc 6e05 debd
000001c0: 93b0 13bd 141d bb3e 9169 483e d96f 33bb
000001d0: 38a4 a6ba 1bc6 febc 2e5b a23a 506f 923e
000001e0: c1b0 063b 87c0 273b f6e5 4b3b 5df4 0f3b
000001f0: 326e 2839 95a9 293b 1ebd 063b a312 3b3a
00000200: 206e 17be 4e6b 703e a6b3 efbc 6574 4bbe
00000210: 1d16 adbd d773 2abe 240a c7be 7f2a 5e3d
00000220: ca8b c93d 3c9a 283b 8cc3 813e a8ea be3e
00000230: e16f 4239 e231 d93e 2ecd 223d 78a9 413e
00000240: 8c51 5abd 92c7 e33d c790 523e e4de 11be
00000250: dc09 d33c a08b 933e 2969 2a3e 49d8 c13d
00000260: 3ea5 973d 38c0 05bb c587 e5bb fb11 e4bd
00000270: 88a0 58ba 1708 9fbe f92e af3d 26ea 47bc
00000280: 407c 2cbe 817f 87bd fc87 44be 4297 49bb
00000290: 8f01 fdba 8008 80be dc7f b9be 3902 46be
000002a0: 2508 cfbd 08fb 733e 03f0 05bb 5d81 513c
000002b0: 7255 bcba ce8a d8ba 4218 ed3e f204 e03d
000002c0: 3b29 363d 011c 643e 9843 f23c 60fa 973c
000002d0: 458b d93e 32d3 1c3d 9ade 3bbd 4636 0a3f
000002e0: 49f1 c0be 0517 083d 0b70 c6bd 9c7e 9b3e
000002f0: ba3b c4ba 977a 8d3d 8a3f 803d ca38 c7be
00000300: e454 913e dd67 b13e a44b ac3e e8a1 a13d
00000310: 0b78 2a3b ad02 043e bde7 6a3f 2b9f 023d
00000320: dbc5 20bd cdf6 773d c377 a63e 0a91 a73c
00000330: 8f98 a23b 239e 923c 9b4f 6cbc 3f9d ceba
00000340: e192 2cbb aee8 aa3e fa54 053e 7268 dbba
00000350: 4e58 b6ba 5992 783d b906 ca3d 3658 0aba
00000360: 33b9 f434 fd0c 1cb8 00c2 2fb8 2f0b c1b8
00000370: b09f 13b8 0ded 88b9 07d6 56be 90bd 4537
00000380: b21c f83c 89c9 fe3d 14b4 20be 23b7 fd3c
00000390: 7164 063b 0bf5 b6bc 616f c33d a0f7 103e
000003a0: 6c8c 04bc 1162 bbba c3d9 2b3d 85b1 0d3d
000003b0: 9a4e 09bb ba84 ceba dba8 a63b fa5d 8dba
000003c0: 144a c83d 4600 603e 09db 743e e5de 7a3e
000003d0: 200c f2ba b36e cb3e a74c 003f 5858 0d3d
000003e0: bcd8 263b 18f2 2c3b d762 3a3b 4b0c 203b
000003f0: 126a 93b8 3301 2f3b 95dd 0f3b 9cd5 073b

autoencoders.1.encoder.cells.0.lstm.bias_ih f4 [32]
0.31171027 0.11707548 0.047565565 4.0045234e-07 0.001646002 -0.0018185194 0.13072991 0.0024177958
0.3152226 0.10191537 0.035212737 1.6726979e-05 0.004049724 -0.001885533 0.09909593 0.0024403387
-0.002057634 0.16299807 0.13702507 0.018789047 -0.0288417 0.10563966 0.11991724 -0.06809644
0.34151384 0.1321578 0.07381247 -8.8644454e-05 0.019929009 -0.0015187056 0.217923 0.0024327193
00000000: 7d98 9f3e 45c5 ef3d 1cd4 423d c0fd d634
00000010: aabe d73a 635b eeba 10de 053e e273 1e3b
00000020: db64 a13e 01b9 d03d 3b3b 103d ea50 8c37
00000030: 8cb3 843b fd23 f7ba cff2 ca3d 17ee 1f3b
00000040: 5fd9 06bb f7e8 263e 4d50 0c3e 7deb 993c
00000050: 6e45 ecbc 9b59 d83d 2c97 f53d 2576 8bbd
00000060: e7da ae3e 6054 073e fe2a 973d a1e6 b9b8
00000070: 2942 a33c 4e0f c7ba 3527 5f3e 426e 1f3b

autoencoders.1.encoder.cells.0.lstm.bias_hh f4 [32]
0.31171027 0.11707548 0.047565565 4.0045234e-07 0.001646002 -0.0018185194 0.13072991 0.0024177958
0.3152226 0.10191537 0.035212737 1.6726979e-05 0.004049724 -0.001885533 0.09909593 0.0024403387
-0.002057634 0.16299807 0.13702507 0.018789047 -0.0288417 0.10563966 0.11991724 -0.06809644
0.34151384 0.1321578 0.07381247 -8.8644454e-05 0.019929009 -0.0015187056 0.217923 0.0024327193
00000000: 7d98 9f3e 45c5 ef3d 1cd4 423d c0fd d634
00000010: aabe d73a 635b eeba 10de 053e e273 1e3b
00000020: db64 a13e 01b9 d03d 3b3b 103d ea50 8c37
00000030: 8cb3 843b fd23 f7ba cff2 ca3d 17ee 1f3b
00000040: 5fd9 06bb f7e8 263e 4d50 0c3e 7deb 993c
00000050: 6e45 ecbc 9b59 d83d 2c97 f53d 2576 8bbd
00000060: e7da ae3e 6054 073e fe2a 973d a1e6 b9b8
00000070: 2942 a33c 4e0f c7ba 3527 5f3e 426e 1f3b

autoencoders.1.decoder.cells.0.weight_h_2 f4 [8, 8]
-0.014276828 0.18772382 0.5925008 0.28208518 -0.70968336 -0.041108195 0.36008823 0.16250366
0.11085427 0.25849184 0.88429075 1.084825 -0.0689905 0.44246346 -0.047352314 0.34943575
0.1718753 0.54257137 -0.33263636 -0.38611236 -0.10625524 8.010236e-05 0.09801376 -0.04272131
-0.09851756 -0.040916465 -0.09011549 0.4514833 -0.4657289 -0.28967842 0.14690612 0.0103123905
-0.04848101 0.23410691 -0.055830292 0.008159407 -0.04457891 0.23087178 -0.28724313 0.31495818
-0.06374359 -0.64140105 0.41602704 -0.06501858 0.12078413 0.8073091 0.35396126 0.29389688
-0.2816001 -0.18215719 0.043083478 -0.1434159 -0.10925757 0.48951533 -0.5923093 0.03496218
-0.05050137 0.07747659 0.0061930562 0.2471487 0.05647187 -0.1614047 0.24165277 -0.00024860218
00000000: 5be9 69bc ac3a 403e 22ae 173f 786d 903e
00000010: cfad 35bf 1161 28bd 7c5d b83e 5c67 263e
00000020: 9007 e33d 0b59 843e e160 623f 8cdb 8a3f
00000030: e44a 8dbd 928a e23e 80f4 41bd 3ee9 b23e
00000040: 1400 303e f5e5 0a3f 504f aabe 85b0 c5be
00000050: 599c d9bd a1fc a738 70bb c83d 8afc 2ebd
00000060: 93c3 c9bd 0698 27bd 788e b8bd d228 e73e
00000070: 0574 eebe bb50 94be 8f6e 163e 4df5 283c
00000080: 0694 46bd b9b9 6f3e 4eae 64bd 09af 053c
00000090: 6098 36bd a769 6c3e 8811 93be 3342 a13e
000000a0: 008c 82bd dc32 24bf 7f01 d53e 7628 85bd
000000b0: ac5d f73d cfab 4e3f 693a b53e a779 963e
000000c0: e32d 90be 6a87 3abe 4d78 303d 9edb 12be
000000d0: 6fc2 dfbd c1a1 fa3e 95a1 17bf 8134 0f3d
000000e0: 86da 4ebd 0cac 9e3d 1fef ca3b 8c14 7d3e
000000f0: 0c4f 673d 4647 25be d373 773e d256 82b9

autoencoders.1.decoder.cells.0.bias_h_2 f4 [8]
0.05467903 0.046647947 0.087572314 0.044377495 -0.099081874 -0.025398115 0.066129655 0.05657176
00000000: 1ef7 5f3d eb11 3f3d 1d59 b33d 2dc5 353d
00000010: 70eb cabd b50f d0bc fc6e 873d cab7 673d

autoencoders.1.decoder.cells.0.lstm.weight_ih f4 [32, 9]
0.44225198 0.23031564 0.00036802088 0.08025635 0.00062992505 -0.19186814 0.06526773 0.15696988
0.09306276 0.20840606 0.27639374 0.25087914 0.21309619 0.19572031 0.41886714 0.31322885
0.17205742 0.20136732 0.00044883697 0.19745862 0.10410696 -0.022226049 -0.0055493773 -8.7456516e-05
0.00041379983 -0.00035186094 -0.14610422 0.06518483 -0.11280049 0.04015594 0.13639897 0.00020462503
-0.00013549042 0.0153218405 -0.24334118 0.023989534 4.1833977e-05 -0.027470533 0.030526819 0.12847751
0.00010284655 0.1928489 7.463817e-05 -4.474646e-05 0.3441381 -3.431388e-05 0.12324798 0.009761225
8.057072e-05 6.870649e-05 0.00010304179 0.00016170612 0.00012528402 1.818967e-05 0.20086397 -0.019287128
-0.15678903 0.079443224 0.05079087 0.03598724 0.21647438 0.24551114 0.0006560998 -0.03170218
0.030899737 0.47573227 -0.16230068 -0.11096876 0.07233296 0.04566523 0.23559812 -0.021568237
0.12713066 -0.0030119596 0.15098614 0.03306624 0.3141664 0.20320925 0.0013486276 -0.1148871
-0.10079828 0.35287002 -0.014976821 0.40196213 0.43189058 0.2925079 -0.35912088 0.19888917
0.28020474 -0.15204284 0.0012232646 0.45029056 -0.19135725 -0.05312921 -0.18175218 0.05790079
-0.11833625 0.13701811 -0.04139168 0.25380576 0.19455306 -0.0009055766 -0.08885062 -0.0005999394
0.0012398373 -0.00019638131 2.4292447e-05 -0.03689419 3.5798726e-05 0.22788121 -0.14637849 0.31705183
0.03522255 4.558071e-05 -0.0002616487 0.2448184 0.07716286 0.28296235 0.09875605 0.00020459772
0.0001741351 -5.0197094e-05 -5.2925803e-05 0.24172583 0.00012151244 8.888127e-05 -0.17086604 0.27912796
0.063901514 0.362682 0.056749444 -0.10019839 -0.032629117 -0.004103023 0.1426291 0.13707957
-0.35075408 -0.06643021 -0.3400768 -0.05655741 -0.13220413 0.1503938 -0.24083918 -0.012557767
0.19836792 0.2441377 0.07093026 -0.27771488 0.30324742 0.4423078 -0.12258915 -0.11971871
0.004846702 0.44526333 0.38407582 -0.41882905 -0.09658062 -0.24365467 -0.096708655 0.00035227448
-0.076809116 -0.11299217 0.2657993 0.0288574 0.44750345 0.53454834 0.33289778 0.12623392
0.34272492 0.18963248 0.19782333 0.04723119 0.5450003 -0.42861295 -0.21580729 -0.039119147
-0.050734174 0.07562126 -0.09367415 -0.111610204 -0.051680163 -0.42148018 -0.1857307 0.00023504703
0.07008853 -4.7389967e-06 -0.09075449 -0.24847244 0.2311224 -0.1513833 -0.04434362 -0.030712381
0.029076621 0.21542525 -0.12511039 -0.12449728 -0.16960925 0.349304 0.36985722 0.017977586
0.16195877 -0.21600011 0.07811757 -0.05699165 -0.046935648 -0.48857844 0.31583256 0.114064865
0.12862521 0.0002768268 0.2890868 -0.034128748 -0.045582023 0.33601147 0.4007647 -0.1510722
0.034946725 0.00796127 -0.06053908 0.10711427 0.00771026 -0.30537793 0.31852436 0.14627445
-0.17558268 -0.018847072 0.37183625 0.553935 0.22153871 0.03915207 0.31945896 0.422259
0.21675506 0.06181518 -0.37198323 0.4682522 0.003059866 -0.0032818685 0.00048311776 0.26541007
-0.04424235 0.28695405 0.12013313 0.34567267 0.42804986 0.00070174056 0.03751672 0.00107008
0.07124567 0.018102812 0.002680392 -4.4682765e-05 0.09656531 0.09101939 0.05368349 0.31732035
00000000: da6e e23e ddd7 6b3e edf2 c039 715d a43d
00000010: 8e21 253a 1579 44be 16ab 853d b6bc 203e
00000020: b097 be3d 6668 553e 7b83 8d3e 3b73 803e
00000030: e335 5a3e e86a 483e c175 d63e 885f a03e
00000040: d22f 303e 3c33 4e3e e151 eb39 9832 4a3e
00000050: 0836 d53d 6713 b6bc 8dd7 b5bb dc68 b7b8
00000060: 46f3 d839 fa79 b8b9 589c 15be a07f 853d
00000070: f103 e7bd 8e7a 243d 2cac 0b3e 9d90 5639
00000080: 6f12 0eb9 7508 7b3c 6e2e 79be b385 c43c
00000090: e476 2f38 e209 e1bc 6113 fa3c 9c8f 033e
000000a0: 52af d738 2f7a 453e 1087 9c38 25ae 3bb8
000000b0: de32 b03e 40ec 0fb8 7069 fc3d 8ced 1f3c
000000c0: 13f8 a838 8416 9038 2418 d838 a88f 2939
000000d0: ac5e 0339 0596 9837 49af 4d3e 0a00 9ebc
000000e0: 4e8d 20be 21b3 a23d 160a 503d 5b67 133d
000000f0: 76ab 5d3e 4667 7b3e 1dfe 2b3a 25da 01bd
00000100: 7221 fd3c 2e93 f33e 2632 26be 9743 e3bd
00000110: 4e23 943d 770b 3b3d a240 713e dfaf b0bc
00000120: 8a2e 023e 4c64 45bb 1c9c 1a3e 7770 073d
00000130: 6bda a03e 1616 503e 6fc4 b03a ee49 ebbd
00000140: 546f cebd 61ab b43e 5761 75bc fbcd cd3e
00000150: c320 dd3e 98c3 953e b1de b7be 9aa9 4b3e
00000160: ff76 8f3e 1eb1 1bbe f355 a03a 7c8c e63e
00000170: 28f3 43be 049e 59bd 3e1d 3abe 6129 6d3d
00000180: 475a f2bd 7a4e 0c3e 528a 29bd d4f2 813e
00000190: eb38 473e 3864 6dba 50f7 b5bd 4045 1dba
000001a0: 0982 a23a b5eb 4db9 a2c7 cb37 5d1e 17bd
000001b0: 9726 1638 b159 693e 3ee4 15be 9e54 a23e
000001c0: 8545 103d ea2d 3f38 e52d 89b9 adb1 7a3e
000001d0: 9007 9e3d 71e0 903e 9d40 ca3d 4889 5639
000001e0: 0998 3639 b88a 52b8 a6fc 5db8 fa86 773e
000001f0: 7fd4 fe38 c565 ba38 82f7 2ebe dce9 8e3e
00000200: ccde 823d 75b1 b93e 1b72 683d d034 cdbd
00000210: 1ca6 05bd a772 86bb 5d0d 123e 965e 0c3e
00000220: 0a96 b3be 900c 88bd 8c1e aebe bea8 67bd
00000230: 8560 07be d500 1a3e 8c9e 76be 18bf 4dbc
00000240: f620 4b3e 3cff 793e e243 913d a530 8ebe
00000250: 3f43 9b3e 2b76 e23e 0510 fbbd 152f f5bd
00000260: 15d1 9e3b 8ef9 e33e 96a5 c43e c370 d6be
00000270: 0fcc c5bd 9c80 79be 300f c6bd 7bb1 b839
00000280: 194e 9dbd 7068 e7bd d916 883e 5b66 ec3c
00000290: 2c1f e53e 29d8 083f 9471 aa3e 7743 013e
000002a0: a479 af3e 042f 423e 3392 4a3e 7e75 413d
000002b0: 2485 0b3f 2873 dbbe 96fc 5cbe 663b 20bd
000002c0: a3ce 4fbd 52df 9a3d 3cd8 bfbd e493 e4bd
000002d0: 94ae 53bd 40cc d7be 3030 3ebe f576 7639
000002e0: 938a 8f3d ac03 9fb6 7ddd b9bd 8f6f 7ebe
000002f0: 5aab 6c3e 3904 1bbe a8a1 35bd 8898 fbbc
00000300: 1832 ee3c 7098 5c3e f01c 00be 6ef8 febd
00000310: 0cae 2dbe f9d7 b23e ed5d bd3e bb45 933c
00000320: 85d8 253e 222f 5dbe 1bfc 9f3d 1470 69bd
00000330: 983f 40bd f426 fabe ceb4 a13e d79a e93d
00000340: 54b6 033e 1023 9139 2f03 943e 96ca 0bbd
00000350: 37b4 3abd b209 ac3e 0831 cd3e acb2 1abe
00000360: 4c24 0f3d fd6f 023c d4f7 77bd ba5e db3d
00000370: 59a6 fc3b 7f5a 9cbe a015 a33e f8c8 153e
00000380: f2cb 33be 2d65 9abc 5261 be3e afce 0d3f
00000390: 0bdb 623e ec5d 203d 2090 a33e 5532 d83e
000003a0: 0af5 5d3e ea31 7d3d 9674 bebe c1be ef3e
000003b0: 0888 483b 9e14 57bb f84a fd39 d4e3 873e
000003c0: 7737 35bd a4eb 923e 5c08 f63d 02fc b03e
000003d0: 5a29 db3e 03f5 373a 22ab 193d ed41 8c3a
000003e0: 40e9 913d 594c 943c 84a9 2f3b c169 3bb8
000003f0: 09c4 c53d 6068 ba3d 38e3 5b3d d077 a23e
