H3/ensemble_autoencoder_weights.pth (torch, 98154 bytes, 130 tensors)

autoencoders.0.encoder.cells.0.weight_h_2 f4 [8, 8]
00000000: edf6 0d3f 756e c23d 1071 143e 2286 ca3d
00000010: fa43 e4bc 7d80 0bbf b8c3 993b 5bf8 c1be
00000020: 8933 48bf 764d c8be fe3e c23e ed2b 09bf
00000030: 1dc4 99be 2fe3 ce3e 5c2f 923e f94d 073f
00000040: 1f59 66bd 4440 e23d 38cb 1b3f 7e0e 3e3e
00000050: 8ae9 1d3e 6414 9b3d 1c63 8f3e 133e da3e
00000060: e014 753e 2d0e d73e 191a eb3e 6394 103e
00000070: c85e dabe c603 c3be 718e 86be 7800 503d
00000080: dfec 403f aea2 eabd 9560 683f 42fe 103d
00000090: fdf7 233f d6f0 353e 6439 e93e 6df2 2f3e
000000a0: 3018 bc3e fe36 2cbe d6d6 cd3e b323 063f
000000b0: 2941 8dbe 6045 673e 1a46 a5bc 0d2d b1be
000000c0: 6538 1b3d 817e 933e a9c2 273e c658 3cbe
000000d0: 5ccf cf3e 6e60 df3e bc5f 9a3d eeb9 67be
000000e0: 1a37 893d 22b8 a23e 5f00 cd3c 0ce6 0ebf
000000f0: d9ae 323f 7666 cabe 2660 d73e 9cb2 823e
0.55454904 0.09493724 0.14496255 0.09888865 -0.027864445 -0.5449293 0.004692521 -0.37884793
-0.78203636 -0.39121598 0.37938684 -0.5358265 -0.30032435 0.40407702 0.28551757 0.5285335
-0.056237336 0.11047414 0.6085696 0.18560216 0.1542112 0.075722486 0.28005302 0.42625484
0.23933744 0.42003003 0.45918348 0.14119105 -0.42650437 -0.38088816 -0.2628055 0.050781697
0.75361437 -0.1145681 0.9077237 0.03539873 0.64050275 0.17767653 0.45551598 0.17182322
0.36737204 -0.16817853 0.4020297 0.5239822 -0.27588776 0.22585058 -0.020175029 -0.34604684
0.03789558 0.28807452 0.1638285 -0.1839324 0.4058789 0.43628258 0.07537791 -0.2262952
0.06699963 0.31781107 0.025024591 -0.55819774 0.69798046 -0.39531296 0.42065543 0.25526893

autoencoders.0.encoder.cells.0.bias_h_2 f4 [8]
00000000: b0ef 3b3d 7100 2b3d fee0 593d e7b0 0a3d
00000010: c576 543d e404 843d 79bf c9b9 2a12 683d
0.04588288 0.041748468 0.053193085 0.033860113 0.05187108 0.06446245 -0.00038480366 0.056657948

autoencoders.0.encoder.cells.0.lstm.weight_ih f4 [32, 1]
00000000: 00d9 f2ba b962 39be 9162 e63c 46a0 833e
00000010: ac01 4bbe bea9 0a3f c261 a63e 041f 933e
00000020: da9b 43be 030c 42bd 0248 e5bd 5ea8 14bd
00000030: fc71 453f b7e6 913d 863f fcbd a169 f53e
00000040: 03e8 46be 5e6b b9be 2b8f a13e a9de c4bd
00000050: cdc8 543e 059b 563e 6a5d 48be f44b 77bd
00000060: 1bfa cebd e8a9 843e bf78 063e 0cce 8fbe
00000070: 6f67 f83e cdd1 193f c183 11be 4a86 a03e
-0.0018527806 -0.18104066 0.028123172 0.25708216 -0.19824857 0.54165256 0.32496458 0.287346
-0.19102421 -0.047374737 -0.11195375 -0.03629338 0.7712705 0.071240835 -0.12316804 0.4793215
-0.19424443 -0.36214727 0.3155454 -0.096127816 0.20779724 0.20957573 -0.19566885 -0.06037517
-0.101062976 0.25910878 0.13131998 -0.2808689 0.48516414 0.60085756 -0.14210416 0.31352454

autoencoders.0.encoder.cells.0.lstm.weight_hh f4 [32, 8]
00000000: 3c13 87be 3d42 debe a83d d63d 3f1c 1dbc
00000010: 975d 32be 451f 56be 643a 29be e5de fb3c
00000020: 9e11 d0be 9beb 0c3d cdc0 293e 8124 bbbe
00000030: 68c3 b8be 1844 9ebe 8df2 e3be 372b c8be
00000040: 746c ea3d 6fb3 9a3e 6eb4 083f c32e 973e
00000050: 469a a23d 2573 2a3e 2232 e13d e46e b43d
00000060: b975 c73e c849 03bc 9b92 243d 4083 46be
00000070: a6fe a0bd d475 77be 5164 4abd 9db9 0e3b
00000080: 304e 473e dacf ac3d f566 50be 4bad 233d
00000090: 3611 4f3e b366 25bd f38a a93e 7a8b 0a3e
000000a0: 55a6 be3d 86dd 47be e808 37be 7a0c 8cbd
000000b0: ae39 ad3e a0ff bf3e 892b 3a3e dc2c 013d
000000c0: 2bb4 79bd 1f3e cfbd d95b c43e b10c cb3e
000000d0: 9ce2 5dbe a78d 9cbe 5ae5 d43a 60b1 853d
000000e0: a6ad 4ebe 70f0 ae3d 4ac7 5ebd e1e0 f93d
000000f0: d87c 24be afb7 8b3e ed34 273e 9f31 1a3e
00000100: 140c 7e3e f84c b7be c57f 1cbd 26d0 2e3a
00000110: e1c3 d3be 516a d93c a767 3d3e beca 283a
00000120: 20f6 e5bb df39 30be e77d ce39 b49d de3e
00000130: c28c ba3e b029 debd 5251 623d 03b3 a4bc
00000140: 62fa 81bd 041b 63be 42c6 9a3e a58f 9e3e
00000150: 3a0e 6b3d f262 d4bd d756 65be fa17 8a3e
00000160: 15af ca3d 32b3 75ba 2303 abbe 2267 903d
00000170: de02 233e ceee 2e3e 6759 193e ae46 0c3b
00000180: ece1 22be 5e5c 633e 2f90 b6bd 4f62 193e
00000190: 3951 b43e f266 3a3c 9aa7 ea3e 47e8 1e3f
000001a0: f493 cc3e d6ca 9e3e 2c70 3c3e 6727 1e3e
000001b0: 6922 cc3b 9e29 ca3e e246 6bbd b27f 373e
000001c0: bf7c 63bd 8ad6 553e ff9c efbd c373 b4bd
000001d0: 3df8 f63d a0cd 7a3c bc18 aebe 8b62 e33d
000001e0: 682d e03d 7b56 9dbe ef9b f5be 1c45 b0bd
000001f0: d790 12be 7b52 133d e5cd a0be 80ab 1fbe
00000200: 117b d3be d509 a0be 55bf d93e e1e0 1dbe
00000210: 8aae 173e 8301 433e 1f60 2dbe 39d5 c8bd
00000220: 77e0 ddbe 2e50 5ebe 23f3 b63e 743b 5a3e
00000230: 434a 3e3e 878e 8dbe cec4 89be 76ff e4bc
00000240: d003 c03e b93e f5bc 015b d63d bd64 5c3e
00000250: 477f bebd 2559 083f cce1 1f3e c50d 8abc
00000260: 6637 603e 5a41 b23e f5e9 153d 077d 6e3e
00000270: 089e c2bd 10a2 b93e c0c4 873e 01d1 753c
00000280: 64ad 943d 2aca b63e acb4 3dbe fa56 a83e
00000290: 78d9 aa3e 7a03 7bbd e440 7fbd 67c0 9a3e
000002a0: 758e 7f3e 5f23 8b3e 25ef a8bc 31df 75be
000002b0: e9a3 55bd b6aa 823e e27e 9b3d f00f 44be
000002c0: 0254 423e 3b2c 173e 185a 993d 7f87 1c3e
000002d0: ecc8 1c3d 9ee2 c63e 1fc2 e6bc 4e61 adbd
000002e0: 5479 0bbf 30ed 853e b6f7 dc3e e6ef c6be
000002f0: c171 9a3e eefd e0bd 39a5 fcbe 0394 063d
00000300: d3e7 5fbe c91a 92be 2ad0 e6bc 3a51 ccbd
00000310: 00c2 82bc 776e 823e 7cca c2bd 23a6 d73d
00000320: 240e 41be 295a 1bbd 7ff5 cc3e 91d5 8b3e
00000330: 9571 a5bd 85fd 863e 3db5 14be 52ec 573c
00000340: c49e d53e 86af f83d a738 53be b0e5 3c3e
00000350: 7686 b63e ddd4 b0bc 8c25 e0be 1abf 283e
00000360: 755d 4abe 7809 fbbc c5d6 66bd d0cb c03e
00000370: 4639 143f 56de efbe d65a 573e 639a 213e
00000380: 2222 3d3e efc2 953e b812 39bd ee9e 72be
00000390: 3e47 6d3e 26bf 6d3e 3236 20be 53cf 233f
000003a0: fb42 19be 3aa4 e7bc 5fbe acbd 1db9 a13d
000003b0: c3a0 3e3d 52f3 8b3e 8b80 f03c 3cbc dfbd
000003c0: 5bf3 5ebe d335 893e b751 f13c a6db 083c
000003d0: db6c ba3e 072b 943e f14b b83b ec73 c0bb
000003e0: 23d2 fcbd 956b 163e 4745 263d f5ed 9cbe
000003f0: 3396 92bc e722 df3c 1c4d 0e3e 396b 9abe
-0.26381862 -0.4340991 0.10460979 -0.009589254 -0.17418514 -0.20910366 -0.1652618 0.030745933
-0.4063844 0.03440438 0.16577454 -0.36551288 -0.36086583 -0.30911326 -0.4452099 -0.3909547
0.11446467 0.30215022 0.53400314 0.29527864 0.079395816 0.16645487 0.1099589 0.08810213
0.38957003 -0.008013196 0.040178876 -0.19386005 -0.0786107 -0.24166042 -0.049412075 0.0021778115
0.1946342 0.08438082 -0.20351775 0.039960187 0.20221409 -0.040381145 0.33113822 0.13529769
0.09309069 -0.19518098 -0.17874491 -0.06838317 0.3383307 0.37499714 0.1818067 0.03153692
-0.060962837 -0.101192705 0.38351324 0.3965812 -0.21668476 -0.30576822 0.0016242668 0.06527972
-0.20183429 0.085419536 -0.054389276 0.12201095 -0.16063249 0.27288577 0.16328783 0.15057991
0.24809295 -0.3580091 -0.038207788 0.000666859 -0.4136038 0.026539953 0.18496571 0.00064389023
-0.007017866 -0.17209576 0.00039385186 0.43479693 0.36435515 -0.10847795 0.055253334 -0.02010489
-0.06346585 -0.22178274 0.30229384 0.30968967 0.057386614 -0.10370435 -0.22396408 0.26971418
0.098966755 -0.00093727105 -0.3340083 0.07050921 0.15919062 0.17083284 0.1497551 0.0021404433
-0.15906495 0.22203204 -0.089142196 0.14978908 0.35218218 0.011377083 0.45830995 0.6207318
0.3995663 0.31014127 0.18402165 0.15444718 0.006229688 0.39484876 -0.057440646 0.17919806
-0.05553889 0.20882621 -0.116998665 -0.08811142 0.120590664 0.015307814 -0.34003246 0.1110278
0.109461606 -0.30730042 -0.4797053 -0.086069316 -0.14313065 0.03596733 -0.31407085 -0.15592766
-0.4130483 -0.312575 0.42528787 -0.15417816 0.14812675 0.19043545 -0.16931199 -0.09806294
-0.43335316 -0.21710274 0.35732374 0.21311742 0.18583016 -0.27647802 -0.26907963 -0.027953845
0.3750291 -0.029937135 0.10466576 0.21522804 -0.0930162 0.53261024 0.15613478 -0.016852269
0.21896133 0.34815484 0.036600072 0.23289882 -0.09502798 0.36256456 0.26517296 0.015003444
0.07259634 0.35701114 -0.18525952 0.32878858 0.3336904 -0.061282612 -0.062317744 0.30224916
0.24956687 0.27175424 -0.020621845 -0.24010922 -0.05215827 0.25520867 0.0759256 -0.19146705
0.18977359 0.14762966 0.07487887 0.15286063 0.03827755 0.3884477 -0.028168736 -0.08465825
-0.5448201 0.26157522 0.43157738 -0.38854903 0.30164912 -0.10985933 -0.49344805 0.032856
-0.21865778 -0.2853606 -0.028175432 -0.0997643 -0.015961647 0.25474903 -0.09511277 0.10529735
-0.1885305 -0.03792778 0.4003105 0.27311376 -0.08078305 0.26365295 -0.14522262 0.013178902
0.4172269 0.121428534 -0.2062708 0.18446994 0.3564946 -0.021585876 -0.43778646 0.1647915
-0.19762214 -0.030644163 -0.056357164 0.37655497 0.5789989 -0.46849316 0.21030745 0.1578155
0.18470052 0.29250285 -0.045183867 -0.2369344 0.23171708 0.23217449 -0.15645674 0.63988227
-0.14966957 -0.028276552 -0.08434748 0.07896636 0.046540033 0.27334076 0.029358169 -0.10924575
-0.2177252 0.26798877 0.02945791 0.0083531495 0.36411175 0.28939077 0.0056242873 -0.005873194
-0.12344768 0.14689477 0.04059341 -0.30650297 -0.017893886 0.027238322 0.13896602 -0.3015993

autoencoders.0.encoder.cells.0.lstm.bias_ih f4 [32]
00000000: b87a 02bd d4a7 febc b8c9 613d a09a 043d
00000010: 4def 3c3d 72a5 9e3d b390 063d 608b 2bbd
00000020: fb24 e5bc af85 ecbc 93dd 7d3d bebd 0c3d
00000030: 2f73 483d 6471 a43d d55d 0a3d 5bb1 20bd
00000040: 4684 443d 5b1d 113d 0890 393d 243e 0a3d
00000050: b88e 1e3d 6857 873d aea3 523d 9e49 653d
00000060: ac4d fcbc 9886 e6bc cf06 8a3d 3d0d 143d
00000070: f066 763d 072b ab3d 31a8 243d 0817 2dbd
-0.031855315 -0.031085886 0.055124015 0.032374024 0.046126653 0.077464 0.03285284 -0.041880965
-0.027971735 -0.028872339 0.061978888 0.03436064 0.048937973 0.0802944 0.03378089 -0.03923164
0.04797771 0.035428386 0.045303375 0.03375067 0.038710326 0.06608468 0.05142563 0.05597841
-0.030798756 -0.028140351 0.0673958 0.036145438 0.060156763 0.08357816 0.040199462 -0.042258292

autoencoders.0.encoder.cells.0.lstm.bias_hh f4 [32]
00000000: b87a 02bd d4a7 febc b8c9 613d a09a 043d
00000010: 4def 3c3d 72a5 9e3d b390 063d 608b 2bbd
00000020: fb24 e5bc af85 ecbc 93dd 7d3d bebd 0c3d
00000030: 2f73 483d 6471 a43d d55d 0a3d 5bb1 20bd
00000040: 4684 443d 5b1d 113d 0890 393d 243e 0a3d
00000050: b88e 1e3d 6857 873d aea3 523d 9e49 653d
00000060: ac4d fcbc 9886 e6bc cf06 8a3d 3d0d 143d
00000070: f066 763d 072b ab3d 31a8 243d 0817 2dbd
-0.031855315 -0.031085886 0.055124015 0.032374024 0.046126653 0.077464 0.03285284 -0.041880965
-0.027971735 -0.028872339 0.061978888 0.03436064 0.048937973 0.0802944 0.03378089 -0.03923164
0.04797771 0.035428386 0.045303375 0.03375067 0.038710326 0.06608468 0.05142563 0.05597841
-0.030798756 -0.028140351 0.0673958 0.036145438 0.060156763 0.08357816 0.040199462 -0.042258292

autoencoders.0.decoder.cells.0.weight_h_2 f4 [8, 8]
00000000: 58cd a13c bade 103f ec0a 2ebf 123a b0bb
00000010: 9c13 8abe 2b79 9bbd bd2b d83e f4dc 02be
00000020: 8821 17be 71a8 c43c 48d7 d1be de4f 063e
00000030: 2135 07be 939c 203f 2bb5 5c3f aaa1 b1be
00000040: 33dd 163f 8554 873e 0050 843e a076 6ebe
00000050: 6298 1abf c504 0cbf 5f8b 06bf e7f8 4c3e
00000060: a968 3a3d 0a3c da3d 995c a43e 2b8d f1bc
00000070: a354 8abe ec9f 143f d930 d83d 31e3 cdbe
00000080: b82b 213f 5d14 eb3d 614e 45bf 5df4 c6be
00000090: 9b64 c7be 87c3 c63e 5744 5dbe 6fc7 31bf
000000a0: 57a1 653d 83a3 943e 1a73 a43e 5f1d fa3e
000000b0: 81b2 8d3d 655a 80be 90d4 1b3e 8d4a e1bd
000000c0: 2444 a7be 03ab c93d 681a 2d3d bb86 bc3e
000000d0: 0688 79be 3892 5bbd 23c6 773e c46e 43bd
000000e0: a6ec 383f 8ae2 d9be bd6e a53d 5248 3d3e
000000f0: 6f0b 0f3f 228c 3cbd 7c78 5f3d fc56 6a3e
0.019751236 0.56589854 -0.67985415 -0.0053780163 -0.26968086 -0.0759147 0.4222087 -0.127796
-0.14758885 0.0240061 -0.4098456 0.13116404 -0.13203861 0.62738913 0.8621394 -0.34693652
0.58931273 0.2643167 0.25842285 -0.2328744 -0.6038877 -0.5469478 -0.52556413 0.20016824
0.045509968 0.10655983 0.32101896 -0.02948626 -0.27017698 0.5805652 0.10556192 -0.40212396
0.62957335 0.11478493 -0.7707272 -0.3885831 -0.38943943 0.3882105 -0.21608101 -0.69444937
0.05606207 0.29031 0.32119066 0.48850533 0.069188125 -0.25068966 0.15217805 -0.110005476
-0.32669175 0.09847071 0.04226151 0.3682154 -0.24368295 -0.053606242 0.24196677 -0.047713056
0.72236097 -0.42555648 0.08077762 0.1848462 0.5587682 -0.04603208 0.054558262 0.22884744

autoencoders.0.decoder.cells.0.bias_h_2 f4 [8]
00000000: d72f 8b3d ddc6 69bd 0694 5dbd 8c96 4fbd
00000010: 6670 09bd 28ca 6cbd fd45 803d a159 71bd
0.06796234 -0.057074416 -0.054096244 -0.050680682 -0.033554457 -0.05780998 0.06263349 -0.058923367

autoencoders.0.decoder.cells.0.lstm.weight_ih f4 [32, 9]
00000000: ac60 63be 2eab 563e 4e26 23bc aec9 d83e
00000010: a8f1 a43e 2e7e 64be a9eb 08bb 0f60 c0bd
00000020: bbb4 253e 0a09 703e 9fdd 80be 129b 93be
00000030: 06db e63d b65a 0ebe 94da af3d 34ee 9c3e
00000040: 3dca d1bd 1838 c63c 852a c73e 0ca5 23be
00000050: 5ba9 983e cb42 a5bd 89ce 67be a3cc 17bd
00000060: 9dea bfbd 58c2 c33e d01c 773e 9522 233c
00000070: 214e 0c3e a57f a33d a3e5 6e3e 320e 3dbe
00000080: 975d 35bb a13c 3b3e 56cc eb3e 8314 143d
00000090: 4b8a 253b dc54 cbbd 3fd3 a2bc 6029 babe
000000a0: 4110 753d ff5a 07be cf1e 693e 620d d43d
000000b0: bff6 6f3e 3a77 9a3e 6452 243e c600 2f3c
000000c0: 2724 ba3c 04b5 a83e ba0e c93e 83b5 ea3e
000000d0: e667 4cbe 96c3 1fbd 2350 39bb 2b84 8cbe
000000e0: 0728 a6bc c1ef 7dbe d46c 71be a0b0 48be
000000f0: 63dc 8e3c 47eb 7a3e 3b2f 03be 54a6 6fbe
00000100: 6681 5c3e e0d8 f8ba 6983 9c3e 5dcd c53e
00000110: 70ca 5a3e c124 773e 200b 40be ac36 773e
00000120: b2f4 59be f3a8 413e 9ff9 003c 0017 273e
00000130: ed6a 14be 5970 993e 8377 033e 3555 07be
00000140: d19b 083f 853b 01be 5aa8 7cbe f58a 00bd
00000150: 0bb0 e6be 6749 10be 2ed3 6a3e 7689 033e
00000160: 5d81 77be 7b16 6c3d 004c d6ba 21ec d43c
00000170: 1bd5 06be 5dfc 893e 5081 1abe 4a36 3c3d
00000180: 62d4 7a3e 4549 a4be 2565 173e 029f 353e
00000190: 00c5 04be d949 e5bd d7a4 c93e 6207 1bbe
000001a0: a190 243e 4419 2d3c 712e 7d3e cf93 ae3e
000001b0: 0cba b93d 4cf1 7a3e a059 7f3e bd54 603e
000001c0: f3cb 843e 5fa5 f3bd b611 cc3d 8a2b 713e
000001d0: c914 1f3e 916f 743e bfe0 abbd 0538 413d
000001e0: 86ea 293d b253 2a3e 5b79 253e 0f36 0abe
000001f0: 8cab db3e be94 313e 5ecd 123c 064c f03d
00000200: 76e7 50be 2413 01bc c501 8f3e 784f 07be
00000210: dc5e 98be e3f7 d73d 7d80 b5bd b288 51be
00000220: 4f4f 15bf 5b49 a93e 544e 26be 5511 3c3e
00000230: d5cd 323e 7493 5ebe 698d 75bd a52d adbe
00000240: e300 1e3f 7a3d 03bd 4ade 7bbe 4647 e53e
00000250: 42a6 9dbc 6dc8 e83d 28ad 42bc bb14 6ebe
00000260: 9bf0 1ebe 5abb 283e 5513 43bd 7e69 55bc
00000270: cea7 183e a7ef 11be 39f0 17bf 8cad 83be
00000280: 1eb0 c8bd 0e11 cbbd 7d69 86be 4468 09be
00000290: 9c37 a0be f545 b9bd 1a12 4d3b b5ea 0b3e
000002a0: c88f 49bd 9c16 eebd 6501 a0be 9494 6b3e
000002b0: c257 b9be b3ba 00bf 955c 8abd 152e 30bc
000002c0: 114d 3ebe 4325 64be faa8 eebd 9182 6fbe
000002d0: 9fb4 f83d 9ee1 b2bd 6810 bd3e f968 70bd
000002e0: aabf d8be 1061 50bd 2ade 6a3e c160 4e3e
000002f0: 65af 103d 0c95 6fbe 24ed 1bbe 38b0 9dbe
00000300: f0ee 083e cc31 813b 2875 dcbe 2bcf 64be
00000310: caf9 fc3a 3bae 03be ca33 29be 0774 823c
00000320: 4040 2dbf 94e4 433e bc5a 373e 477a 7cbe
00000330: 0d76 dfbd 5e02 c23d 899c 953e 78a2 883e
00000340: aec0 43bf 6665 2fbe b495 12be 1690 c3bd
00000350: cf52 27be 7c0d 3dbe 3e42 0abe 7aaf 10bc
00000360: b88d 92be 0826 2c3d 5000 6d3e b8d6 e63e
00000370: 2c39 033e 0cb6 143e 747c 46be f1cd 7c3d
00000380: 1b34 b63d 268d a1be b7cd 843e bf5f 57be
00000390: 6a5a acbd 2508 33be e365 ce3d d862 583e
000003a0: cbff 713e ed6f 1f3e 967a a93d 1a89 debc
000003b0: 656f 833e 0b51 b83c df77 df3e ff70 fb3b
000003c0: 5e88 57bd 99aa 52bd f138 ffbe 986d a83e
000003d0: 5095 b53d b94c e93d 3936 c5be 570c 8dbe
000003e0: 7001 b43d c087 efbd 0781 e03e dfc8 2a3f
000003f0: e1e2 4b3e 1ad7 8b3b eeda fb3d c5be 80bd
-0.22204846 0.20963737 -0.009957863 0.4234137 0.3221562 -0.22313759 -0.0020892418 -0.09393322
0.16182224 0.23440948 -0.25169083 -0.28829247 0.11272244 -0.13901791 0.08586612 0.30650485
-0.10243652 0.02419667 0.38899627 -0.15980929 0.29816708 -0.080693804 -0.2263738 -0.03706039
-0.09370921 0.3823421 0.24132085 0.0099569755 0.13701679 0.07983331 0.23329787 -0.18462446
-0.0027674192 0.18284847 0.46054333 0.036152374 0.002525943 -0.09928295 -0.01987612 -0.36359692
0.059829954 -0.13218306 0.22765659 0.10354115 0.2343397 0.30169088 0.16047055 0.010681337
0.022722317 0.32950604 0.39269048 0.45841607 -0.19961509 -0.039004885 -0.0028276525 -0.27444586
-0.020282758 -0.2479849 -0.23576671 -0.19598627 0.017439073 0.24503814 -0.12810986 -0.23403293
0.21533737 -0.0018985532 0.30569008 0.38633242 0.21366286 0.24135114 -0.18754244 0.2414195
-0.2128475 0.18912105 0.007872014 0.16317368 -0.14493914 0.29968527 0.12838559 -0.13216098
0.53362757 -0.12620361 -0.24673596 -0.03138252 -0.45056185 -0.14090501 0.22932121 0.12845406
-0.24170442 0.057638627 -0.0016349554 0.025991501 -0.13167231 0.2695035 -0.15088391 0.04595021
0.2449508 -0.3208715 0.14784677 0.17736438 -0.12965775 -0.11195726 0.39383575 -0.15139535
0.16070797 0.010565106 0.24724747 0.34097144 0.09068689 0.2450611 0.24936533 0.21907325
0.2593685 -0.118967764 0.099643156 0.23551765 0.15535273 0.23870684 -0.08392476 0.047172565
0.041483425 0.1663349 0.16159575 -0.13497184 0.42904317 0.17341897 0.008960096 0.1173325
-0.20400795 -0.007878099 0.27931038 -0.13213909 -0.29759872 0.105453275 -0.08862398 -0.20462301
-0.5832414 0.33063778 -0.16240817 0.18365987 0.17461331 -0.21735936 -0.059949312 -0.33823887
0.61720103 -0.03204105 -0.24596515 0.4478094 -0.019244317 0.11366353 -0.011882104 -0.23250096
-0.15521471 0.16477719 -0.04762586 -0.01302564 0.14907762 -0.14251576 -0.59350926 -0.25718343
-0.09799217 -0.09915362 -0.26252356 -0.1341868 -0.31292427 -0.09046546 0.0031291307 0.13663752
-0.049209386 -0.11625406 -0.31251064 0.23005897 -0.36199766 -0.5028488 -0.0675594 -0.010753174
-0.18584086 -0.22279839 -0.116533235 -0.23389651 0.12143826 -0.08734439 0.3692658 -0.05869386
-0.42333728 -0.050873816 0.22936311 0.20154096 0.03532352 -0.233967 -0.1522718 -0.30798507
0.13372397 0.003942704 -0.43058133 -0.22344653 0.0019300517 -0.12859432 -0.16523662 0.015924467
-0.6767616 0.19130164 0.17905706 -0.2465602 -0.10911188 0.09473108 0.2922099 0.26686454
-0.7646588 -0.17128524 -0.1431492 -0.095489666 -0.16340183 -0.18462175 -0.13501832 -0.008830899
-0.28623748 0.042028457 0.2314465 0.45085692 0.12814778 0.1452257 -0.19383413 0.06171984
0.08896657 -0.31553 0.25938198 -0.21032618 -0.084156826 -0.17483576 0.10078027 0.21131456
0.23632734 0.1557004 0.082753345 -0.027164984 0.25670925 0.022499582 0.43646142 0.0076733823
-0.052620284 -0.051432226 -0.4984813 0.32896113 0.0886637 0.11391587 -0.3851793 -0.27548477
0.08789337 -0.11695814 0.4384844 0.66712755 0.19910766 0.0042675855 0.12297617 -0.062863864

autoencoders.0.decoder.cells.0.lstm.weight_hh f4 [32, 8]
00000000: a166 a43e 895d 15bc 805d 49be 6153 b93e
00000010: 4c62 75bb f194 abba 0de5 853d 4f8d be3e
00000020: 7651 eebd ac40 143e 2d9f db3d 7bb8 ba3e
00000030: 41b9 cc3e f917 86be bed8 12bd 7866 ee3d
00000040: 346a 503d efef 2ebe 9b8d 7f3e d62f 983b
00000050: 1d71 ca3d b9a4 4a3e 000d c63c 9b27 adbd
00000060: 766a f93d c7be d3bd e223 13bd 949e 5b3e
00000070: 85cd 863e d595 debc 093f c838 ac2e bfba
00000080: 7e23 483e f4d4 b6bd 6cbd 91be a272 843e
00000090: a6fc 1cbf d25b 75bd 8e16 d039 ef38 e43c
000000a0: 5d85 e2bd 5f17 fc3d 97f2 f2bd ddb8 edba
000000b0: 0d6c 0dbe 59e8 c93d a828 433e c18b 8c3e
000000c0: 20ea 69be c336 99bd c18b 93be 1892 ac3e
000000d0: 3c9d d63e cc0f 16bf 3278 84be 70f4 113e
000000e0: 8388 61be 1685 e4bd d021 0c3f f1b3 08bd
000000f0: df07 133e 88ca 823e 9f5e 8a3e 26d3 44bd
00000100: a468 f03e 649b d53e a996 053e 9999 1b3d
00000110: 7274 8c3e b926 69be 01e4 b7bd 978e ee3e
00000120: 8425 a03e 9d5c 96be 2bc9 0ebd d110 0a3e
00000130: 6c73 f73e 925b f13b 0f42 f53d 77f7 83be
00000140: 3135 91be 9c35 ca3e 9da7 66bd f826 e43e
00000150: 53fa 463e e369 39bd 42b8 f53e 465f 6c3e
00000160: 6311 babe 5b86 d23e 6045 723e ebb2 903e
00000170: 90d6 7a3e 84dd 153e 1c7b 193d bd17 013d
00000180: 4d3e aa3d 2b1d 37be 5fc8 853e e680 dabe
00000190: f606 1ebc 63bb 863d f8af 3fbc 8db3 303e
000001a0: 8b3e a93d d79a e73d 4f0f 8f3e 8951 52bc
000001b0: 97c0 d53e ca1a 41bd 4a78 d13c 7b18 4ebc
000001c0: 17f2 503e 755a 04be 24b8 d03d 3ccd 26be
000001d0: 4736 173e d184 c9bd c041 873e e9ee 20be
000001e0: f143 04be 018f 503d defd dfbc 257e 12be
000001f0: 6ea2 863e b993 8dbe 6fb1 ff3d baa5 903d
00000200: 5832 0cbe 6d70 c53e 617c 3e3e 7e54 943c
00000210: e4c9 f53e fa3e 2cbb 4466 9e3d 393f 6c3e
00000220: 48d5 1e3e e52e 0a3e ff24 b9bd da53 073e
00000230: 9394 0abd 0e2e 473d bd50 71be 9cc0 87bd
00000240: 81a4 2a3d 4176 c3bd 639d 6a3d 3899 24be
00000250: ccf8 6fbe f266 69bd 5745 22bc 7cc3 e23d
00000260: c1da e4bd d146 d53e b27b 713e ddc3 f03d
00000270: a9dd f8bd fcdf 593e 2ab7 aebe ab56 e5bd
00000280: ee55 803e 8d69 333e 668b 013f 228e eb3d
00000290: bded d13d 5832 353e 5f95 68bd bab6 97be
000002a0: 8b40 a8be 101d 8f3e ae54 803e c0a5 7dbd
000002b0: a64d 9c3d 1296 99be ad87 af3d 8bb8 653c
000002c0: 2e26 c4bd fab9 76be 4cd1 c63e 1291 e3bd
000002d0: e167 aa3d 664e de3c 238b 193e 9d60 2ebe
000002e0: d076 7dbe a426 fbba 69af 00be 4f5b 07be
000002f0: 1e48 39bf ca1a 0f3e 205f 0c3d 4378 3c3e
00000300: bb03 93bc 0218 f9bb a00c 663e 4a4c 6dbd
00000310: 8a6d f7bd 22a8 08be 6b37 413e 28fe 063e
00000320: ece9 3abe 8a50 a93e 32fb 09be 065d 32bd
00000330: 7a94 713d 7f61 f33d 8afa c63e babf 683e
00000340: 2067 fabc aca4 aa3e 4729 433e 93c4 813e
00000350: 16cc 53be f184 523d 3323 05be 36c1 18be
00000360: 9b2f 8b3e 9af3 a33e 3db8 c13e c3af 013e
00000370: 6dcc 75bd 4a7c 123e 2d68 63be 9dc2 73be
00000380: 7fcd a63e 7de5 ddbe 917a 31bc 5e26 2dbd
00000390: 140b 9bbe 1dcc 63bd 419b cb3c 55db 87bd
000003a0: ab86 993e 5f47 8d3e df0e c0bd a55f 333c
000003b0: 08b5 c83c f4a4 9c3e 83c4 7e3e 9a99 f13c
000003c0: a99d debe abc7 33bd c938 d9be 74b3 c1bd
000003d0: 37bb 313e 3c5c 0a3c 22c4 22bd 7829 bbbe
000003e0: 1db0 d83d 8870 0b3e 75b3 ec3c 59aa 25be
000003f0: aaa1 68be a131 7a3e d4a8 82bb 5a78 0b3e
0.3210955 -0.009116539 -0.19664574 0.36196426 -0.0037442623 -0.0013090653 0.065378286 0.37217185
-0.11636631 0.14477795 0.1072372 0.36468872 0.39985088 -0.26190165 -0.035851233 0.11640638
0.050882533 -0.17083715 0.24956362 0.0046443744 0.09884856 0.19789399 0.02417612 -0.0845482
0.12178509 -0.10339122 -0.035922892 0.21447212 0.26328674 -0.027171055 9.5484844e-05 -0.0014586053
0.19544789 -0.08927336 -0.2846483 0.25868708 -0.6132301 -0.05990202 0.00039689656 0.02785918
-0.11060593 0.12309145 -0.118626766 -0.0018136759 -0.1381075 0.0985877 0.19058478 0.27450374
-0.22843218 -0.07481148 -0.2881756 0.3370521 0.41916835 -0.58617854 -0.25872952 0.14253402
-0.22024731 -0.11158197 0.54739094 -0.03337473 0.14358471 0.25545144 0.27025315 -0.04805293
0.46954834 0.41720116 0.13045754 0.03798828 0.2743259 -0.22768678 -0.08979035 0.46593162
0.31278622 -0.29367533 -0.034859817 0.13482977 0.48330247 0.0073656524 0.1197549 -0.25774738
-0.28360894 0.39494026 -0.056312192 0.4456098 0.19431429 -0.045266997 0.4799214 0.23083219
-0.3634139 0.4111813 0.23659277 0.28261504 0.24495912 0.14635283 0.037470922 0.03151678
0.08312664 -0.1788222 0.26129434 -0.42676467 -0.009645214 0.0657871 -0.011699669 0.17255993
0.08263882 0.1130883 0.27941367 -0.012836822 0.41748497 -0.04714469 0.025570054 -0.012579079
0.2040485 -0.12925132 0.10191372 -0.16289228 0.14766799 -0.09839786 0.2641735 -0.15716137
-0.12916543 0.05091763 -0.027342733 -0.14305933 0.262958 -0.27651766 0.12485015 0.0706286
-0.1369108 0.38562337 0.18602134 0.018106695 0.48005593 -0.0026282654 0.07734349 0.23070993
0.15511048 0.13494451 -0.090402596 0.1321558 -0.033833098 0.048627906 -0.23565955 -0.06628534
0.04166079 -0.095440395 0.057279002 -0.16074073 -0.23434752 -0.056982942 -0.009904227 0.11072442
-0.111745365 0.4165559 0.23582342 0.11756108 -0.12151653 0.2127685 -0.34124118 -0.11198171
0.2506556 0.17520733 0.5060333 0.11501719 0.10250423 0.17694986 -0.056783076 -0.29631597
-0.32861742 0.2795186 0.25064605 -0.06192565 0.07631998 -0.29997307 0.085708 0.014021049
-0.09577595 -0.24094382 0.38831556 -0.11111654 0.083205946 0.027136993 0.14994483 -0.17029043
-0.24752355 -0.0019161296 -0.12566914 -0.13218425 -0.7237567 0.13975063 0.034270406 0.18405251
-0.017946115 -0.007601739 0.22465754 -0.057934083 -0.1208144 -0.13345388 0.18868797 0.1318289
-0.18253297 0.3306926 -0.1347473 -0.043545745 0.05897949 0.1188383 0.3886302 0.22729388
-0.030566752 0.3332876 0.19058715 0.25345287 -0.20683321 0.051396314 -0.13001709 -0.14917454
0.27184758 0.3202179 0.37835875 0.12664704 -0.06000941 0.14305225 -0.22207709 -0.23804708
0.32578656 -0.43339148 -0.010832445 -0.042272918 -0.3028189 -0.05561458 0.024854304 -0.06633631
0.29985556 0.27593514 -0.093778364 0.010948096 0.024500385 0.305946 0.24879651 0.029492188
-0.4347966 -0.04389159 -0.42426136 -0.09458056 0.17356573 0.008444842 -0.039737828 -0.36555076
0.10580466 0.13617146 0.028894166 -0.16178264 -0.2271792 0.24432994 -0.003987411 0.13620129

autoencoders.0.decoder.cells.0.lstm.bias_ih f4 [32]
00000000: d403 7f3d c349 6f3d 9d2c 763d 3951 6f3d
00000010: 02b2 ebbc 4801 3a3d cb30 4fbd 3065 793d
00000020: 4c98 8a3d 7a71 793d 934d 813d 2fc5 7c3d
00000030: 54f5 e5bc 757f 4c3d a68d 41bd 2908 8c3d
00000040: 4bd1 753d 61f7 53bd abb3 4cbd cff1 1bbd
00000050: def3 febc 30b8 1abd 577b 733d 2890 4fbd
00000060: 0797 933d d7ee 723d 3231 863d 95b4 913d
00000070: 5dd9 debc 76f1 813d 3911 45bd 2310 843d
0.06225951 0.058419954 0.06010114 0.05842707 -0.028771404 0.04541138 -0.050583642 0.060887516
0.067673296 0.060899235 0.06313624 0.061711486 -0.028071083 0.04992624 -0.047254227 0.06837494
0.06001405 -0.05174959 -0.049976032 -0.038072404 -0.031122144 -0.03777331 0.059443798 -0.050674587
0.072065406 0.059309807 0.06552352 0.071145214 -0.027203256 0.06344883 -0.048112128 0.0644839

autoencoders.0.decoder.cells.0.lstm.bias_hh f4 [32]
00000000: d403 7f3d c349 6f3d 9d2c 763d 3951 6f3d
00000010: 02b2 ebbc 4801 3a3d cb30 4fbd 3065 793d
00000020: 4c98 8a3d 7a71 793d 934d 813d 2fc5 7c3d
00000030: 54f5 e5bc 757f 4c3d a68d 41bd 2908 8c3d
00000040: 4bd1 753d 61f7 53bd abb3 4cbd cff1 1bbd
00000050: def3 febc 30b8 1abd 577b 733d 2890 4fbd
00000060: 0797 933d d7ee 723d 3231 863d 95b4 913d
00000070: 5dd9 debc 76f1 813d 3911 45bd 2310 843d
0.06225951 0.058419954 0.06010114 0.05842707 -0.028771404 0.04541138 -0.050583642 0.060887516
0.067673296 0.060899235 0.06313624 0.061711486 -0.028071083 0.04992624 -0.047254227 0.06837494
0.06001405 -0.05174959 -0.049976032 -0.038072404 -0.031122144 -0.03777331 0.059443798 -0.050674587
0.072065406 0.059309807 0.06552352 0.071145214 -0.027203256 0.06344883 -0.048112128 0.0644839

autoencoders.0.decoder.output_layer.weight f4 [1, 8]
00000000: cab2 1f3e 9145 90be 8889 50be 6722 8ebd
00000010: 9db8 e5bc ed74 fcbd d1cf 953e 391a 82be
0.15595546 -0.28178075 -0.20364964 -0.069401555 -0.028042132 -0.12326989 0.29260114 -0.2541063

autoencoders.1.encoder.cells.0.weight_h_2 f4 [8, 8]
00000000: 6a38 103e 3536 84be 1940 5c3e 9459 b2be
00000010: 5f16 b6bd 21c9 9d3e 4d82 ed3d 642f b8be
00000020: 3b88 353f 8ae5 493e 7fd4 3f3e 803c 55be
00000030: 965e 85bb dbe1 163f 9273 87bb a301 953e
00000040: c053 603e d598 41be 4f30 1d3f e19d 85be
00000050: a852 aebd 9792 a7be 0c1a 553e 4f67 0b3f
00000060: 08ff 88bf bd97 083d 344a 5cbd 5e9c e93e
00000070: c1c5 bcbe af94 39bf 5afd 563c c2e1 e33d
00000080: 2730 49bf b305 1a3d bd4b 413f f9b9 cf3d
00000090: f463 6dbe 032c 09be 918a 00be 2122 9a3e
000000a0: 6628 343f 3006 8bbe 1c84 9d3d 2b9e 84bc
000000b0: ba3b 103f 266a 9ebe d126 893e 20fd dabe
000000c0: f71e 3ebd 4b3f f6be 50ba 5a3e 90bf 96be
000000d0: 9d4b 4cbe fc76 8bbe 0cce 18be 096c 1cbe
000000e0: e05e c03e 63c9 3a3e 519e f2be 11ea 2c3e
000000f0: f7cc 54be 5ac0 053e 59ef d7bd bdd1 cf3d
0.1408402 -0.25822607 0.21508826 -0.34833968 -0.08890986 0.30817512 0.115971185 -0.35973656
0.70910996 0.19716468 0.18733405 -0.2082386 -0.0040701134 0.5893838 -0.00413365 0.2910281
0.21906948 -0.18905957 0.6140184 -0.26097015 -0.08511859 -0.32729027 0.20810717 0.5445451
-1.0702829 0.033347834 -0.053781703 0.4562711 -0.36869624 -0.724925 0.013121927 0.11127044
-0.785891 0.03760309 0.7550619 0.10142893 -0.2318266 -0.13395695 -0.12552859 0.30104163
0.70374143 -0.27153158 0.076912135 -0.016188702 0.56341136 -0.3094036 0.26787427 -0.42771244
-0.04641625 -0.48095164 0.21360135 -0.29443026 -0.19950719 -0.27239215 -0.1492235 -0.15275587
0.37572384 0.18240885 -0.4738641 0.16886164 -0.20781313 0.13061658 -0.10543699 0.10147426

autoencoders.1.encoder.cells.0.bias_h_2 f4 [8]
00000000: aedb 853d 7c6b a93d abef ad3d 3c45 2dbd
00000010: 8eb4 9bbd b337 993d 8749 913d 6de4 e4bc
0.06536041 0.08272454 0.08492979 -0.042302355 -0.076027974 0.07481327 0.07094102 -0.027940953

autoencoders.1.encoder.cells.0.lstm.weight_ih f4 [32, 1]
00000000: fb1a abbd f7d9 7e3e 9319 98bd 8286 a6bc
00000010: 6a7d d53e 25cb 3abf caa2 7a3d 4e39 6a3c
00000020: 91a7 a53e f461 873e 08ea ccbd 6ffd 55be
00000030: 52e6 323d 1c19 3e3f d157 35be 14b6 96bd
00000040: 9e47 b63e ef8d 083c 5446 bfbe f6ab 1b3e
00000050: cb45 883e 3563 55be 0a07 6dbe 1262 4e3e
00000060: a06c 8c3e ef0f bf3c a01e f63d 2b75 bb38
00000070: d0e7 88bd 9e52 46be 0726 293d fcd1 0cbd
-0.083547555 0.24887834 -0.07426753 -0.02032781 0.41697246 -0.72966224 0.061190404 0.014295889
0.32354406 0.2644192 -0.100055754 -0.20897458 0.04367668 0.74257064 -0.1770928 -0.073589474
0.35601515 0.008334621 -0.37358344 0.15202317 0.26615748 -0.20838626 -0.23147216 0.20154598
0.27426624 0.023323027 0.1201756 8.938679e-05 -0.0668484 -0.19367453 0.04129603 -0.034379944

autoencoders.1.encoder.cells.0.lstm.weight_hh f4 [32, 8]
00000000: f909 adbd 3112 883d 6e3a eebd c1b1 d7be
00000010: aeba 18be dfbb 72bd d9ff 9bbd cb20 3dbe
00000020: bb69 173e 1815 9e3e 4d4b 31bc 273f 38bc
00000030: e3b1 bbbc 1c80 ed3d 50dd 713e 9065 00bd
00000040: 62ad 893e d241 943e c99f 01bf 3bcb 453e
00000050: 42af 96be 28b1 1bbe d3a1 033d 8641 8cbd
00000060: a716 adbb 37ad c5be 2633 32bb 5cbd beba
00000070: 0863 12be 5fa6 9eba e8a8 0dbe 2b7e efba
00000080: 8e16 103d cd75 373e a5d3 4b3d 3c1f 183e
00000090: e396 413b bbbc f93e 5a2e c63e 5b19 4c3e
000000a0: 0b82 6a3e 15fd e63c 06ee aebe c3f5 093d
000000b0: f03c 30bd bed0 413e 2d19 003f 2974 103e
000000c0: c23d 72be 4df3 803e cda8 9fbe e5cf 833d
000000d0: d04b c53c 18e4 713e 634b 61be 02df 303e
000000e0: fb70 04be f387 b33d 7248 efbc 4694 873d
000000f0: 35c4 5dbe 41f1 a1bd c70c 093d 1a68 9ebd
00000100: b2e7 103d 0e51 5b3e 5f32 043f 1bb7 b03e
00000110: 116c 13be 9f4f 7f3b 8094 3e3d 8f65 2c3f
00000120: ee11 be3b 90c9 e53e a7b3 0d3c ab43 ad3e
00000130: b545 b83e f5b7 2b3e 3541 36bc 5a60 9f3d
00000140: ebbf 1c3e 7f12 193e 40f1 d939 9127 21be
00000150: fc2f a83c 2783 ce3d 282e 4dbe ad5c 273e
00000160: d037 203e ab5c 18bc c8d2 02bb cc50 393e
00000170: 57c6 b9be 99a6 c43d 4cae 073e 3428 b739
00000180: efff 853d 394e 1fbe 5731 8b3e 8e65 cc3d
00000190: e00f 04bb cf6f 33bc c1f8 bc3c 53f1 8e3e
000001a0: 94c0 903e 1c3f 44be e9d3 ffbd 3d4d 043e
000001b0: 0a77 ec3b 744e 563d 278a 5f3d a205 bebe
000001c0: 00e1 363e f820 ca3e ded7 813e 6cf7 943d
000001d0: 3d12 623e 8d23 b53a bc86 563d dc4e b33e
000001e0: 5410 9c3e f04a 733e 6475 87bd 2e0d 33bd
000001f0: dc1e 8c3e 9e37 93be 8801 923e 164c 3bbe
00000200: 3704 9fbe fa60 9a3e dfc8 3b3d 562d 47be
00000210: 7139 3b3d 2113 0cbe 42df bfbe ac78 023e
00000220: 487a 0b3e 78c2 6fbd 3564 793e 8772 e73e
00000230: 56a7 d1bd ffc6 df3e dee1 22bc 5f39 613e
00000240: 686b 99bd bd8d a73d 481a 433e 6433 6bbe
00000250: cc54 293d 3da1 923e d297 1a3e 2aa9 ac3d
00000260: 9bf8 483e 63b1 fb3b 8fd8 80bd cec5 32be
00000270: 8e0f 72bd d1de c9be c6a9 e23d 6dcb c7bd
00000280: 988a 44be 3c9e cbbd 9754 74be 7540 94bc
00000290: a1c5 f5bb b78a 98be 6f07 c3be f97a 84be
000002a0: d610 1bbe c98b 7d3e 3e95 923b a7cf 2f3d
000002b0: cc13 39bd 38b6 6a3c aff9 f93e c903 013e
000002c0: 02e1 1d3e 578c 7a3e 5b41 873d 75e4 573d
000002d0: 996f dd3e f77e b03d fbdd 58bb ec8c 103f
000002e0: ddbe 93be 6878 713e 1831 29bd e73d ee3e
000002f0: fe23 5abc f01c 9a3e ee9d 813e e237 d8be
00000300: 98de 713e 0fe0 d73d ed0f b73d 05de af3e
00000310: 0000 ffbe 0362 973b 7706 1b3f bfd9 2b3e
00000320: d3e3 b93d f0b7 ad3d a57d b13e 2d04 703e
00000330: c026 133e d422 633d 5da7 47be d2e9 b8bc
00000340: affb 3dbd cb48 a33e 850b 75bd bf38 b23d
00000350: 7706 88be 8f5c dcbc 79c6 9c3a 34c4 dfbd
00000360: 09cf c93e 7783 8bbe ee0e 42be 3972 a63e
00000370: 17f0 3c3b 2170 e13d ee1d f8be c7a9 85ba
00000380: c570 b9bd d4e2 753e 8f6c b7be 3eef a93e
00000390: 7205 1d3c 1652 84be 5875 453e 6f1a cc3e
000003a0: fdc8 653d 0121 febc 88d4 853e 0f1e b23e
000003b0: 3f40 b0bd 69a9 623d a185 323e 8c51 d5bd
000003c0: 4d3f 8e3e 261c 063e 3c7c 333e 558b a23e
000003d0: 55f5 bbbd 9cd3 c03e 98f4 e13e 5901 bdbd
000003e0: bd45 e6bd c536 1f3c e6ac 28be 282e 3fbe
000003f0: 7778 8e3d 1b7b 033e 15ac 8eb9 014a dabd
-0.08449168 0.06644095 -0.11632238 -0.42127803 -0.14914963 -0.0592612 -0.076171584 -0.18469541
0.14786427 0.30875468 -0.010821176 -0.011245525 -0.022911971 0.115967005 0.2361958 -0.031346858
0.26890093 0.28956467 -0.5063444 0.19315808 -0.29430586 -0.15204298 0.03213675 -0.06848435
-0.0052822414 -0.38608715 -0.0027191131 -0.0014552283 -0.1429559 -0.0012104026 -0.13833964 -0.0018271854
0.03517776 0.17916031 0.049762387 0.14855665 0.0029539398 0.48776802 0.38707238 0.19931547
0.2290117 0.02819685 -0.34165972 0.033681642 -0.043026865 0.18927285 0.50038415 0.14106812
-0.23656371 0.25185624 -0.31183472 0.06436137 0.024084002 0.23622167 -0.22001414 0.1727257
-0.12933724 0.08766165 -0.02920935 0.06620078 -0.21656878 -0.07907344 0.03345945 -0.077346995
0.035377212 0.21417639 0.5163936 0.34514698 -0.14396693 0.003895737 0.04652834 0.67342466
0.005800477 0.44880342 0.0086487895 0.3384069 0.35990682 0.16769393 -0.011123945 0.077820495
0.15307586 0.14948462 0.0004156921 -0.1573775 0.020530693 0.10083609 -0.20037138 0.16343947
0.15646291 -0.0092994375 -0.0019962061 0.18097228 -0.36284134 0.096020885 0.13250083 0.00034934434
0.06542956 -0.15557183 0.2718608 0.099803075 -0.0020151064 -0.01095195 0.023067834 0.2791849
0.28271925 -0.191647 -0.124915905 0.12920089 0.007216339 0.052320912 0.05457511 -0.37113672
0.17859268 0.39478278 0.25360006 0.072737545 0.2207727 0.0013819799 0.052374586 0.35021102
0.30481207 0.23759055 -0.06614187 -0.04371374 0.27367294 -0.2875337 0.28516793 -0.18290743
-0.31057903 0.30152112 0.045845862 -0.19450888 0.045709077 -0.13679172 -0.3747502 0.12741345
0.13620865 -0.05853507 0.24354632 0.45204565 -0.10236995 0.4370651 -0.009941546 0.21994542
-0.07491189 0.08181331 0.19052994 -0.22968823 0.041340634 0.2863864 0.15096977 0.08430703
0.19626085 0.0076810583 -0.06291305 -0.17458269 -0.059096865 -0.39427808 0.11067538 -0.09755597
-0.19193494 -0.0994229 -0.23860393 -0.018097142 -0.007500366 -0.2979333 -0.3809161 -0.2587507
-0.15143141 0.24760355 0.0044733575 0.042922642 -0.045184895 0.014325671 0.48823306 0.125991
0.15417865 0.24467598 0.066042624 0.052708108 0.43249205 0.086179666 -0.0033091295 0.5646503
-0.28856555 0.23581088 -0.041306585 0.46531603 -0.013314245 0.30100203 0.25315803 -0.42230135
0.23620069 0.10540783 0.089385845 0.34349075 -0.49804688 0.004619838 0.6055674 0.16782282
0.09076657 0.08482349 0.34666172 0.23439093 0.1437025 0.055453137 -0.19497438 -0.022572432
-0.046382602 0.31891474 -0.05982544 0.0870223 -0.26567432 -0.026899604 0.0011961005 -0.10926095
0.39415768 -0.27248737 -0.18951008 0.3250902 0.0028829628 0.11007715 -0.48460335 -0.0010197692
-0.09054712 0.2401231 -0.3582501 0.3319034 0.009583818 -0.25843877 0.19283044 0.39863917
0.05609988 -0.031021597 0.2613871 0.34788558 -0.08606004 0.055337343 0.17433788 -0.104159445
0.2778267 0.13096675 0.1752786 0.31746927 -0.09177653 0.37661445 0.44131923 -0.09228773
-0.1124377 0.009717648 -0.16472206 -0.18669951 0.069565706 0.1283993 -0.00027212562 -0.106586464

autoencoders.1.encoder.cells.0.lstm.bias_ih f4 [32]
00000000: a263 f53c 2586 9b3d bd49 63bd 5d1c 0abc
00000010: 57d5 af3d 0c62 de3c f015 c53d 395f e5bc
00000020: 2258 133d 42cd a43d 91af 5ebd f740 72bb
00000030: 1856 bd3d fd00 fa3c eede cb3d dccd e1bc
00000040: 5bd1 8e3d a43d 833d c506 ac3d 9177 0fbd
00000050: 4828 88bd 8b1c 983d 24e0 aa3d ab17 04bd
00000060: d9d3 103d fc70 a83d 014d 60bd e1ab d2bb
00000070: d9b6 c33d f79d f53c fc00 c33d 4bea e7bc
0.029954735 0.075939454 -0.055490244 -0.008429614 0.08585613 0.027146362 0.09623325 -0.027999507
0.035972722 0.08046962 -0.054366652 -0.0036964992 0.09244937 0.03051805 0.0995463 -0.027563982
0.06973525 0.064082414 0.08399729 -0.035026137 -0.06648308 0.07427319 0.08343533 -0.032249134
0.035358284 0.08224675 -0.054760937 -0.006429181 0.0955636 0.02998255 0.09521672 -0.028309962

autoencoders.1.encoder.cells.0.lstm.bias_hh f4 [32]
00000000: a263 f53c 2586 9b3d bd49 63bd 5d1c 0abc
00000010: 57d5 af3d 0c62 de3c f015 c53d 395f e5bc
00000020: 2258 133d 42cd a43d 91af 5ebd f740 72bb
00000030: 1856 bd3d fd00 fa3c eede cb3d dccd e1bc
00000040: 5bd1 8e3d a43d 833d c506 ac3d 9177 0fbd
00000050: 4828 88bd 8b1c 983d 24e0 aa3d ab17 04bd
00000060: d9d3 103d fc70 a83d 014d 60bd e1ab d2bb
00000070: d9b6 c33d f79d f53c fc00 c33d 4bea e7bc
0.029954735 0.075939454 -0.055490244 -0.008429614 0.08585613 0.027146362 0.09623325 -0.027999507
0.035972722 0.08046962 -0.054366652 -0.0036964992 0.09244937 0.03051805 0.0995463 -0.027563982
0.06973525 0.064082414 0.08399729 -0.035026137 -0.06648308 0.07427319 0.08343533 -0.032249134
0.035358284 0.08224675 -0.054760937 -0.006429181 0.0955636 0.02998255 0.09521672 -0.028309962

autoencoders.1.decoder.cells.0.weight_h_2 f4 [8, 8]
00000000: c681 a0bd c95f 193e f44c 0b3f 7499 873e
00000010: 4500 24bf 28d9 b7bd 23a0 9d3e 7787 033e
00000020: 1244 2bbd 7ae2 f83d 5532 413f 6532 783f
00000030: 9a6e 073d a892 fe3e ff28 59be b0e7 703e
00000040: 483c 1c3e 3d92 083f 005c d4be 5cbc e6be
00000050: 5f70 eebc ea11 09bd 6e79 7c3d 433e a1bd
00000060: 3ec4 74be 9f33 2cbe 3c23 87be aead bd3e
00000070: ed4d b3be 3dd4 b1be 964e c93c b375 cabd
00000080: a782 083d 9c36 b43e aefc 293d bc10 6f3e
00000090: 86c6 23be afe5 9c3e 46ae 55be d131 dd3e
000000a0: 934c 99bd fa5f 26bf 6047 d93e 1382 d4bd
000000b0: be14 2f3e 3a3e 573f 352c b63e 36fd 9b3e
000000c0: 3c36 bdbe 7aab 87be fd86 47bd 4614 8fbe
000000d0: db89 3cbc 4065 0a3f 7574 2fbf 41fa 02bd
000000e0: 52d4 babd db0f 953d 6103 90bd afd4 893e
000000f0: 5c5c 403e 1824 6bbe f9ce 563e fb07 ecbc
-0.07837252 0.14977945 0.54414296 0.26484263 -0.6406291 -0.08976966 0.30786237 0.12844644
-0.041812964 0.12152572 0.75467426 0.96951896 0.033064462 0.49721265 -0.21207045 0.23525882
0.1525737 0.5334814 -0.4147644 -0.45065582 -0.029106317 -0.03346435 0.061639242 -0.078732036
-0.23902985 -0.16816567 -0.2639407 0.3704657 -0.3502039 -0.34732237 0.024573606 -0.098857306
0.033327725 0.35197914 0.04150074 0.23346227 -0.159937 0.30643985 -0.20867261 0.4320207
-0.074853085 -0.649902 0.42437267 -0.10376372 0.17097756 0.84079325 0.35580602 0.30466622
-0.3695544 -0.26498014 -0.04871272 -0.27945155 -0.011507477 0.54060745 -0.68537074 -0.031976942
-0.09122528 0.07278415 -0.070318945 0.26920077 0.18785232 -0.22962987 0.20977391 -0.0288124

autoencoders.1.decoder.cells.0.bias_h_2 f4 [8]
00000000: fd84 8e3d eb66 843d 77e8 983d d405 993d
00000010: 436f 5bbd c670 51bd ab0e 873d cc45 813d
0.06958959 0.064649425 0.07466214 0.07471815 -0.053572904 -0.05113294 0.065945946 0.06312141

autoencoders.1.decoder.cells.0.lstm.weight_ih f4 [32, 9]
00000000: 601b cb3e 02f8 873e 4a25 243d 8457 383e
00000010: d56d 5b3c 6e7f 82be be0d 213e bd46 7d3e
00000020: ca86 3b3e 2ad6 0f3e f2a4 9d3e 9fd6 b63d
00000030: e8d5 943d 3c83 083e b59c 013f 71d8 663e
00000040: 082f 203d 8b43 193e 4ec8 1c3c 1a63 813e
00000050: 47d9 b53e 9a10 323e 6b4b b6bd 755d 53bd
00000060: bce8 293e 0781 433e 7c6e 48be 5f95 38be
00000070: 4274 bfbe 73c8 a2bb f9ef e73d b1c2 08bd
00000080: 2163 cfbd 6558 14be 673c dcbe cd01 c93d
00000090: 2b2e 2a3a 820f 46be de8a 923e c7ab f53e
000000a0: d9eb fd3d e917 203f 8a07 6d3e abdb 94bd
000000b0: 853b 1b3f 2bd0 503d d5f8 bc3e 7384 623e
000000c0: e00a 2ebe bda9 3a3a bddb 02be 3abf 59be
000000d0: 4f6e 1ebd 67bd c53d a218 033e 8a62 05be
000000e0: 5672 52be ff49 5a3d ba78 893d 21ee 7a3d
000000f0: 8462 563e 0519 6c3e 3e20 d03a 1c49 44be
00000100: cde4 ddbd ffdd 133f e4db 68be 13f9 4fbe
00000110: 3931 ce3d 6be8 fb3d af45 ab3e af9e 86bd
00000120: 1ec3 50bd be0c 87be 9f2d 263e 6d1a 44bd
00000130: 0f2f 9a3e abac 1a3e 5193 d9bd 3d7c 3dbe
00000140: a3b2 33be fc44 663e 7ac2 99bd 98cf ad3e
00000150: cda1 c93e 504c 983e 6455 d4be 5ebb 0f3e
00000160: c7f2 563e 4454 76be 2e72 a2bd 81c9 e43e
00000170: 165b 25be 78ed a23d fae0 6cbe addd 293e
00000180: b314 05be 3820 a03e f60d 65bd 26a1 ad3d
00000190: acc5 db3d 7d3d 3dbd 22ed 70be 2a9a 653d
000001a0: 99b7 393b 557a 9abd 742b b83c d6a5 50be
000001b0: 3620 5bbc 7ede 863e c127 27be 16f7 f13e
000001c0: 776d 123e 2573 b7bc 429a a53d 8c08 b93e
000001d0: 89e2 1c3e e026 c63e 68d8 b03e 8f29 c4bc
000001e0: 6b8b e43d dc1f 07be c1dc f83d 983f 043f
000001f0: 93a8 a13d ec9d ddbc 901d 94be ab4e 633e
00000200: 412c f83d 1bae cc3e 257a d03d b661 40be
00000210: ff57 63bd 99fd 593c a369 4a3e 2551 513d
00000220: 9c03 0bbf dae9 6d3c a4cd 8fbe 1322 c9bd
00000230: f058 9cbe a635 963e a49f 38be 26f9 bb3d
00000240: de21 0b3e fe7d 193e 4bf2 893e f61a ecbd
00000250: e2dd d63e d962 ed3e 47ab 89bb 4920 503d
00000260: 9ebb 083e a492 a53e 47b2 a93e 152d a4be
00000270: b237 833c 0545 4dbe dae7 65bd 2c0c b43d
00000280: a06d c03c f763 03bd 2845 793e da92 803c
00000290: 5bd2 f83e e40b 2c3f e814 bb3e cd80 123e
000002a0: 3c8c c23e 810c 653e 158f 653e 97f4 b9bd
000002b0: aeb6 ca3e 6fd6 83be 93fd 3fbd 3217 a43d
000002c0: 397f 7cbe d67f 853e 6fcf 0c3e f7d6 51bd
000002d0: 12d5 44bd 52e6 d2be a730 4fbe 574e bebc
000002e0: 60dc 9c3d a105 143c 49dc d8bd 211f 88be
000002f0: 6c61 723e f12f 35be 0d03 97bd 5472 c7bd
00000300: 9b12 c6bc 5ec6 5b3e a4a0 0dbe aab9 47be
00000310: 520c 73be 765f b33e a531 a23e a978 1ebd
00000320: 06e3 ac3e 9ff6 89bd 5b9b 293e 19e2 b0bd
00000330: 1e1e 9a3d 07cd a4be dad9 d63e 9c41 8b3d
00000340: 250e 8e3d ba7a 78bc e1f1 8e3e 34f2 78bd
00000350: 65d0 c1bd 38b3 a43e 077c ca3e 7bf2 2abe
00000360: cfba 0abe 310f 65be d3be 1abe 1cdc 063d
00000370: 17c8 93bd 62b8 ffbe be28 793e de5f c43d
00000380: bc4b 80be ff23 53be 2008 8c3e c876 ad3e
00000390: a889 083c 9acd ecbd 1d77 6f3e 95c8 7c3e
000003a0: 65d2 f53c 76ae 83bd 041d 04bf 7148 ba3e
000003b0: 3229 753d f1f0 993d a151 22bd 1faa 483e
000003c0: 0ce6 fbbd 407b af3e 9983 2a3e 84e3 db3d
000003d0: e3f9 bf3e c2fc 713d 0b9b 9a3b 16f8 fa3d
000003e0: c426 673d 0676 933c ea88 e4bd fc06 053e
000003f0: 3c03 913d 3108 d23d 07b5 463e 7a56 e73e
0.39669323 0.26556402 0.040074624 0.18002135 0.013392885 -0.25487846 0.15727898 0.24734016
0.18313137 0.14046541 0.30789906 0.089276545 0.07267362 0.13331312 0.5062974 0.22543503
0.039107352 0.14967172 0.009569241 0.2527092 0.35517332 0.17389145 -0.089011036 -0.0516028
0.16592687 0.19092189 -0.19573396 -0.1802573 -0.37393385 -0.004967743 0.11325068 -0.033388797
-0.10126329 -0.14486845 -0.43014833 0.098147966 0.0006491865 -0.19341853 0.28621572 0.47982618
0.123985 0.62536484 0.23147407 -0.07268461 0.60637695 0.050979774 0.36908594 0.22120838
-0.16996336 0.000712063 -0.12779136 -0.21264353 -0.038679417 0.09655266 0.12802365 -0.13025871
-0.20551428 0.053293224 0.0671248 0.061262254 0.20936018 0.23056419 0.001587875 -0.19168514
-0.10834656 0.57760614 -0.22740132 -0.20309858 0.10067982 0.123001896 0.33451602 -0.06573235
-0.05096733 -0.2637691 0.1622834 -0.047876764 0.30114028 0.1510493 -0.106238015 -0.18504424
-0.17548613 0.22487253 -0.075077966 0.33947444 0.39381257 0.29745722 -0.41471398 0.14036319
0.2099105 -0.24055582 -0.07931934 0.44684985 -0.16148028 0.0795545 -0.23132697 0.16588469
-0.12996177 0.3127458 -0.055921517 0.08478002 0.10731062 -0.046201218 -0.23527959 0.056055225
0.0028338192 -0.07542864 0.022481658 -0.20375761 -0.013374379 0.26341623 -0.16323759 0.47258824
0.1429957 -0.022393772 0.08086063 0.36139333 0.15320791 0.38701534 0.34540105 -0.023945598
0.11159404 -0.13195747 0.121514805 0.51659536 0.07893481 -0.027052842 -0.28928804 0.22197978
0.12117816 0.39976582 0.10179547 -0.18787274 -0.05550384 0.013305091 0.1976686 0.051102776
-0.5430238 0.014521087 -0.2808658 -0.09820952 -0.30536604 0.29337806 -0.18029648 0.09178381
0.13587138 0.14989468 0.26942667 -0.1152858 0.41966158 0.46364477 -0.004201326 0.05081204
0.1335282 0.3233844 0.33143827 -0.32065645 0.016017769 -0.2004586 -0.056129314 0.08791384
0.023489773 -0.032077756 0.24342787 0.015695024 0.48597988 0.67205644 0.36539388 0.14306946
0.37997615 0.22368051 0.22417863 -0.09079855 0.395925 -0.25749537 -0.046872687 0.08012237
-0.24657907 0.26074094 0.13751005 -0.051230397 -0.048054762 -0.41191345 -0.20233403 -0.023230715
0.07659221 0.009034545 -0.10588891 -0.2658625 0.23669976 -0.1769407 -0.07373629 -0.09738603
-0.024178794 0.2146239 -0.13830811 -0.19504419 -0.23735169 0.35033768 0.316785 -0.03868929
0.33766955 -0.06736492 0.1656317 -0.08636875 0.07525276 -0.32187673 0.41963083 0.06799623
0.069362916 -0.015165979 0.27918914 -0.060777858 -0.09463576 0.32167983 0.3954775 -0.16694061
-0.13547824 -0.22369076 -0.15111856 0.032924756 -0.072158985 -0.4994536 0.24331948 0.09588598
-0.2505778 -0.206192 0.2734995 0.33879685 0.008333601 -0.11562653 0.23385282 0.24685891
0.03000755 -0.0642976 -0.51606774 0.36383393 0.05985374 0.07516659 -0.03962863 0.19596146
-0.12299737 0.3427372 0.16651763 0.107367545 0.37495336 0.05907894 0.0047181896 0.1225435
0.056433454 0.018000614 -0.11158927 0.12990946 0.07080695 0.10255469 0.19404994 0.45183164
