results/H3_Concatenation/ec2_cpu_utilization_825cc2/ensemble_autoencoder_weights.pth (torch, 98154 bytes, 130 tensors)

autoencoders.0.encoder.cells.0.weight_h_2 f4 [8, 8]
0.46038088 0.01878203 8.334719e-05 0.04028345 9.081576e-05 -0.4221307 0.0025063888 -0.26103622
-0.60146934 -0.22298667 0.0008282307 9.1168025e-05 -0.22760601 0.18532594 0.0017427119 0.45935765
0.00019921953 0.066809006 0.44845018 0.19248094 0.14745802 0.016395979 0.096532695 0.4285307
0.16796616 0.36028853 0.23197247 0.17594992 -0.3644249 -0.27775696 0.0020186224 0.0446424
0.7121742 -0.034664582 0.7605656 0.07449581 0.63423145 0.1123004 0.2861061 0.17931004
0.27168313 -0.04534341 0.114532925 0.379942 -0.19928852 0.128693 0.0018589279 -0.22142318
-0.00032079162 0.22317244 0.00095706707 0.001114099 0.3846682 0.32309425 0.0016655105 -0.113409124
-0.00020862787 0.18873596 0.0008416404 -0.056299385 0.6421895 -0.2281682 0.0013885541 0.19436099
00000000: 0bb7 eb3e c6dc 993c afca ae38 4200 253d
00000010: 5774 be38 8421 d8be 3a42 243b 8aa6 85be
00000020: e5f9 19bf 9e56 64be 9f1d 593a 7631 bf38
00000030: 8d11 69be 15c6 3d3e b56b e43a ed30 eb3e
00000040: 96e5 5039 29d3 883d 439b e53e b919 453e
00000050: 3cff 163e dc50 863c efb2 c53d 6068 db3e
00000060: 52ff 2b3e bd77 b83e 318a 6d3e 372c 343e
00000070: e795 babe 2936 8ebe dd4a 043b f3da 363d
00000080: 0c51 363f 73fc 0dbd 6db4 423f 4291 983d
00000090: fe5c 223f c1fd e53d 807c 923e 0d9d 373e
000000a0: 0d1a 8b3e 03ba 39bd 3d90 ea3d c287 c23e
000000b0: 4a12 4cbe 19c8 033e 45a7 f33a c2bc 62be
000000c0: ec2f a8b9 5187 643e afe3 7a3a f606 923a
000000d0: 3bf3 c43e 9c6c a53e 424d da3a 0b43 e8bd
000000e0: 1ec3 5ab9 0044 413e 88a1 5c3a 2f9a 66bd
000000f0: 8866 243f eda4 69be 2500 b63a 9106 473e

autoencoders.0.encoder.cells.0.bias_h_2 f4 [8]
0.027856221 0.024860745 0.00081450306 0.12101381 0.04952714 0.011949498 0.0030841087 0.06765329
00000000: bb32 e43c c3a8 cb3c 6084 553a 17d6 f73d
00000010: f8dc 4a3d d4c7 433c c21e 4a3b cf8d 8a3d

autoencoders.0.encoder.cells.0.lstm.weight_ih f4 [32, 1]
1.1949189e-05 -0.045432482 -0.0005484739 0.00068753597 -0.13670696 0.31294835 0.00015389046 0.15501444
-9.762248e-05 2.9104118e-05 -0.0010730616 0.0006155757 0.7436068 -3.615969e-05 -0.00023184367 0.36561581
-0.12809566 -0.3567711 0.36089826 -0.006659104 0.22093573 0.23051201 -0.11863221 -0.012836625
6.61466e-05 0.06377009 0.121262394 0.0005989927 0.47823957 0.4896059 -0.00023246912 0.20777091
00000000: 6079 4837 6917 3abd 76c7 0fba c23b 343a
00000010: e9fc 0bbe c43a a03e a85d 2139 1bbc 1e3e
00000020: abba ccb8 9e24 f437 f9a5 8cba 965e 213a
00000030: 045d 3e3f 2caa 17b8 101b 73b9 ff31 bb3e
00000040: 822b 03be b4aa b6be a8c7 b83e 9d34 dabb
00000050: fa3c 623e 570b 6c3e 72f5 f2bd b550 52bc
00000060: 2fb8 8a38 e599 823d 6b58 f83d b805 1d3a
00000070: d1db f43e a0ad fa3e f4c2 73b9 e6c1 543e

autoencoders.0.encoder.cells.0.lstm.weight_hh f4 [32, 8]
-0.00010303598 -9.5469564e-05 0.00012072181 0.00016178536 0.00032546138 7.267577e-05 0.00025763654 2.6609094e-05
-0.1420632 9.918067e-06 0.027780164 -0.025040872 -0.113635115 0.00029329152 -0.16387442 0.00017404163
-0.00015611484 0.0011096 0.20915163 -0.0009847673 -0.001433672 0.0011019422 0.00040665685 0.00054233416
0.0033205105 0.0027976262 0.0023829618 0.003014901 0.0025393649 0.0014434446 0.0023900967 0.002508151
0.100649565 5.4919663e-05 -0.14897946 5.8921676e-05 0.14365588 5.906047e-06 0.23628217 0.0042598695
1.3438173e-06 3.3685235e-05 6.0143957e-05 -3.7846312e-05 3.6416557e-06 3.7967056e-05 -0.00012835552 -5.0721454e-05
-0.00092319393 -0.0013906589 -0.00075182447 8.176542e-05 0.000366414 -0.0011186758 -0.0009206306 -0.001727547
-0.0001788338 -7.3541116e-05 0.00017140369 -0.000100197954 2.2414086e-05 -0.0012104947 1.2265418e-05 9.1305196e-07
5.6219615e-05 5.1501924e-05 4.7610458e-05 0.00026747544 0.00020147445 6.7708247e-06 0.00013230972 -0.00012113665
0.00015193707 5.429605e-05 0.0002204907 0.17205171 0.17470028 -3.1003965e-05 7.871239e-05 -4.052293e-06
-0.0008134972 0.0010593134 0.07209206 -0.0005790567 -0.0015227185 0.0008329243 -0.0005426265 -0.0004264545
0.003336958 0.002887451 0.001805012 0.003026871 0.09453409 0.0013000162 0.0022021378 0.0024574432
-0.10320179 0.07222698 -0.064182125 0.058961973 0.2903271 -1.4996976e-05 0.3659332 0.45089018
0.037780777 -4.3962085e-05 -0.00021796144 -5.6983736e-05 4.0456507e-05 0.11340811 6.140389e-05 0.0002209792
-0.0011878692 -0.0016232259 -0.00028419908 -2.785393e-05 0.0007513583 -0.0013891996 -0.0008812798 -0.0019010665
-9.4295785e-05 -0.000118350596 -0.3389186 4.085726e-05 8.157857e-05 6.5541055e-05 -0.06891228 6.9895473e-06
-0.27788547 -0.13842586 0.4063421 -0.042145565 0.1267877 0.13447621 -0.064222045 4.0510073e-05
-0.29253557 -0.027808333 0.3331436 0.18289632 0.15978974 -0.16400164 -0.14361525 0.0066774725
0.12798136 -0.0019425444 -0.0011339795 -0.0029059902 -0.05579214 0.30217636 -0.0011085406 -0.0008357436
0.17188092 0.2575727 0.048958633 0.25171554 0.011135044 0.2501519 0.23682173 6.0938088e-05
0.047578633 0.30695853 -0.17540972 0.29991433 0.313564 -0.03910327 -0.04826032 0.25482646
0.13891818 0.11532102 -0.040148452 -0.27446762 -0.07987328 0.16871698 2.4811923e-05 -0.19755073
0.0730417 0.028090172 0.046759915 0.10892839 0.014571579 0.2485066 0.00027080099 -5.1334537e-05
-0.49201396 0.22821854 0.42727926 -0.34239694 0.29669422 -0.05525613 -0.45006347 -7.379141e-05
5.0223225e-05 0.00027171374 0.00023094138 0.00010308228 -0.00061377033 -4.7652054e-05 -2.1054355e-05 0.00022974735
0.00021481379 -1.0657486e-06 0.15120643 -6.2249055e-05 -0.00014896471 -9.738367e-06 -0.00012478851 3.6167527e-05
0.19061263 7.069681e-05 -0.039728943 -0.0014434295 0.23050134 -3.2707216e-05 -0.20588414 -3.4996156e-05
0.0018335831 0.0021717218 0.0024354602 0.22992489 0.48535568 0.0008769549 0.0027199753 0.0030620252
0.10271293 0.17331572 -0.006949442 -0.18550389 0.18285024 0.16109964 -0.10429522 0.50445694
-6.068053e-05 0.00015168359 -4.629685e-05 -5.012511e-05 -9.885545e-05 0.00014764215 -1.0893458e-05 7.6713224e-07
-0.0008544271 -0.0017458793 -0.00016902648 -0.00012142503 0.0011698925 -0.0016133616 -0.00061340263 -0.0019938743
5.8462738e-05 0.00015689144 5.991753e-06 -0.10014196 1.4072986e-05 6.194778e-05 1.4587069e-05 -2.2514601e-05
00000000: 0515 d8b8 d536 c8b8 072c fd38 eda4 2939
00000010: b0a2 aa39 8269 9838 6413 8739 9836 df37
00000020: 0479 11be c665 2637 3a93 e33c 8422 cdbc
00000030: 87b9 e8bd ecc4 9939 b2ce 27be f27e 3639
00000040: c2b2 23b9 ff6f 913a d82b 563e 4f13 81ba
00000050: 0dea bbba 0b6f 903a 8f34 d539 6e2b 0e3a
00000060: ec9c 593b 6158 373b 772b 1c3b a595 453b
00000070: 796b 263b f731 bd3a 2ba3 1c3b cb5f 243b
00000080: 5c21 ce3d 8a59 6638 128e 18be ab22 7738
00000090: 871a 133e 8f2c c636 f4f3 713e 6096 8b3b
000000a0: 365d b435 3f49 0d38 1543 7c38 2bbd 1eb8
000000b0: 2b63 7436 d13e 1f38 2c97 06b9 bfbd 54b8
000000c0: 7f02 72ba c546 b6ba 1616 45ba 7a79 ab38
000000d0: 411b c039 88a0 92ba 7956 71ba dc6e e2ba
000000e0: 5585 3bb9 163a 9ab8 d4ba 3339 5e21 d2b8
000000f0: e205 bc37 76a9 9eba 92c7 4d37 7418 7535
00000100: 5acd 6b38 c503 5838 57b1 4738 f23b 8c39
00000110: e342 5339 f130 e336 9fbc 0a39 be0a feb8
00000120: 4c51 1f39 f1bb 6338 8633 6739 532e 303e
00000130: a1e4 323e 410a 02b8 6512 a538 eff8 87b6
00000140: df40 55ba a9d8 8a3a 01a5 933d d6cb 17ba
00000150: f495 c7ba 9b58 5a3a 0c3f 0eba c195 dfb9
00000160: ddb0 5a3b 643b 3d3b 2796 ec3a 785e 463b
00000170: 179b c13d 4e65 aa3a be51 103b 0e0d 213b
00000180: 765b d3bd bdeb 933d eb71 83bd 1c82 713d
00000190: c1a5 943e 859b 7bb7 995b bb3e 14db e63e
000001a0: 04c0 1a3d ee63 38b8 948c 64b9 d201 6fb8
000001b0: d8af 2938 8342 e83d f6c5 8038 a7b6 6739
000001c0: 47b2 9bba 6cc2 d4ba 8e00 95b9 dca7 e9b7
000001d0: cdf6 443a ce15 b6ba b005 67ba 352d f9ba
000001e0: aac0 c5b8 fe32 f8b8 bd86 adbe 265e 2b38
000001f0: 2915 ab38 1673 8938 e221 8dbd c187 ea36
00000200: 0147 8ebe 82bf 0dbe 120c d03e d4a0 2cbd
00000210: a3d4 013e 22b4 093e d986 83bd 5ce9 2938
00000220: 39c7 95be 4dce e3bc cc91 aa3e 2c49 3b3e
00000230: ec9f 233e 0cf0 27be e00f 13be b3ce da3b
00000240: 8c0d 033e f99c feba 0aa2 94ba 6d72 3ebb
00000250: 4d86 64bd dcb6 9a3e 734c 91ba ce15 5bba
00000260: 8d01 303e 92e0 833e d988 483d dce0 803e
00000270: c26f 363c e913 803e 6581 723e c697 7f38
00000280: d0e1 423d ab29 9d3e 9b9e 33be 5f8e 993e
00000290: 768b a03e c02a 20bd 9dac 45bd 9d78 823e
000002a0: 9140 0e3e 6d2d ec3d b472 24bd 0587 8cbe
000002b0: 9a94 a3bd 25c4 2c3e 3323 d037 bd4a 4abe
000002c0: e396 953d 5c1d e63c 5387 3f3d d915 df3d
000002d0: a2bd 6e3c 8478 7e3e 4bfa 8d39 0a50 57b8
000002e0: 41e9 fbbe 1fb2 693e 59c4 da3e a74e afbe
000002f0: 4ee8 973e 4054 62bd b86e e6be 76c0 9ab8
00000300: c7a6 5238 cd74 8e39 db28 7239 e12d d838
00000310: 6ee5 20ba 01de 47b8 e29d b0b7 56e8 7039
00000320: a33f 6139 d80a 8fb5 dcd5 1a3e b58b 82b8
00000330: 6933 1cb9 f861 23b7 a9d9 02b9 96b2 1738
00000340: f52f 433e 1043 9438 d1ba 22bd 7531 bdba
00000350: 8b08 6c3e 1b2f 09b8 4bd3 52be d6c8 12b8
00000360: d754 f03a 7253 0e3b 3e9c 1f3b 6e71 6b3e
00000370: 8a80 f83e 72e3 653a 9d41 323b 42ac 483b
00000380: 285b d23d ad79 313e 25b8 e3bb bbf4 3dbe
00000390: 183d 3b3e 4ef7 243e bb98 d5bd 1724 013f
000003a0: 3983 7eb8 410d 1f39 dd2e 42b8 6d3d 52b8
000003b0: 9e50 cfb8 63d0 1a39 0cc3 36b7 edec 4d35
000003c0: a2fb 5fba fdd5 e4ba b33c 31b9 91a5 feb8
000003d0: 1457 993a 6f77 d3ba c1cc 20ba a9ab 02bb
000003e0: e335 7538 3a83 2439 c40c c936 3a17 cdbd
000003f0: 041b 6c37 f6e9 8138 fcba 7437 bddd bcb7

autoencoders.0.encoder.cells.0.lstm.bias_ih f4 [32]
7.990158e-05 -1.9643257e-05 -0.00084579655 0.048415575 0.019635292 -0.00010337869 0.00066580327 5.580204e-05
9.662991e-05 -2.39507e-05 -0.0015773048 0.08769137 0.00618648 -4.12581e-05 0.00048565728 -3.0111755e-07
0.05769903 0.04115505 0.00027715092 0.10554583 0.040782437 0.019023357 0.07056451 0.06838706
0.00010028186 -0.00013519442 -0.0008625302 0.07181944 0.028874176 -3.0314664e-05 0.0009165191 3.9426108e-05
00000000: d690 a738 93c7 a4b7 72b8 5dba 694f 463d
00000010: 31da a03c 03cd d8b8 4d89 2e3a fc0c 6a38
00000020: caa5 ca38 bde9 c8b7 91bd ceba 8897 b33d
00000030: f5b7 ca3b 8c0c 2db8 d19f fe39 48a9 a1b4
00000040: d155 6c3d 3392 283d 914e 9139 6a28 d83d
00000050: 7c0b 273d dfd6 9b3c 2084 903d 840e 8c3d
00000060: 6a4e d238 fac2 0db9 6c1b 62ba 1216 933d
00000070: 8989 ec3c 3f4c feb7 8e42 703a 765d 2538

autoencoders.0.encoder.cells.0.lstm.bias_hh f4 [32]
7.990158e-05 -1.9643257e-05 -0.00084579655 0.048415575 0.019635292 -0.00010337869 0.00066580327 5.580204e-05
9.662991e-05 -2.39507e-05 -0.0015773048 0.08769137 0.00618648 -4.12581e-05 0.00048565728 -3.0111755e-07
0.05769903 0.04115505 0.00027715092 0.10554583 0.040782437 0.019023357 0.07056451 0.06838706
0.00010028186 -0.00013519442 -0.0008625302 0.07181944 0.028874176 -3.0314664e-05 0.0009165191 3.9426108e-05
00000000: d690 a738 93c7 a4b7 72b8 5dba 694f 463d
00000010: 31da a03c 03cd d8b8 4d89 2e3a fc0c 6a38
00000020: caa5 ca38 bde9 c8b7 91bd ceba 8897 b33d
00000030: f5b7 ca3b 8c0c 2db8 d19f fe39 48a9 a1b4
00000040: d155 6c3d 3392 283d 914e 9139 6a28 d83d
00000050: 7c0b 273d dfd6 9b3c 2084 903d 840e 8c3d
00000060: 6a4e d238 fac2 0db9 6c1b 62ba 1216 933d
00000070: 8989 ec3c 3f4c feb7 8e42 703a 765d 2538

autoencoders.0.decoder.cells.0.weight_h_2 f4 [8, 8]
0.13760301 0.46343443 -0.7582183 -0.015612199 -0.13685066 -0.116106264 0.4733083 -0.21696718
-0.10943685 -0.00039168235 -0.39280066 0.081904314 -0.050794344 0.5830016 0.8288998 -0.33744657
0.30197096 0.285932 0.2559826 -0.10574007 -0.4349866 -0.41483957 -0.55923235 0.21291596
-8.473541e-05 0.09171128 0.28581 2.4336347e-05 -0.13083604 0.524567 0.08284831 -0.36095417
0.62869245 0.07234184 -0.7741846 -0.36838078 -0.3116798 0.33416328 -0.19658293 -0.7100997
-0.0062632877 0.30899513 0.29669988 0.39668122 -0.001432609 -0.13993774 0.08288464 -0.017815104
-0.24799085 0.027681086 -0.004650767 0.29078355 -0.22084169 -0.057823922 0.22168088 -0.08134347
0.4838519 -0.31395692 0.06999223 0.06829479 0.24232326 2.6587744e-05 -0.00061711547 0.25068867
00000000: cee7 0c3e 4747 ed3e 981a 42bf 4fca 7fbc
00000010: 9422 0cbe 1fc9 edbd 7755 f23e a52c 5ebe
00000020: 6d20 e0bd b75a cdb9 2b1d c9be 73bd a73d
00000030: bb0d 50bd 983f 153f c732 543f ccc5 acbe
00000040: f09b 9a3e ae65 923e 2710 833e 408e d8bd
00000050: 90b6 debe da65 d4be da29 0fbf a406 5a3e
00000060: fab3 b1b8 20d3 bb3d b055 923e e825 cc37
00000070: e2f9 05be 064a 063f 60ac a93d fcce b8be
00000080: fdf1 203f f527 943d f630 46bf 689c bcbe
00000090: 7f94 9fbe 7317 ab3e 094d 49be 18c9 35bf
000000a0: 443c cdbb 9c34 9e3e 0ce9 973e cd19 cb3e
000000b0: 62c6 bbba d74b 0fbe 6cbf a93d fbf0 91bc
000000c0: 50f1 7dbe 72c3 e23c 7665 98bb 95e1 943e
000000d0: 5324 62be c7d8 6cbd 5000 633e 6897 a6bd
000000e0: 70bb f73e f6be a0be 1658 8f3d 24de 8b3d
000000f0: 9723 783e bf08 df37 ebc5 21ba 445a 803e

autoencoders.0.decoder.cells.0.bias_h_2 f4 [8]
0.08511677 -0.0959579 -0.07754046 -0.05992595 -0.09600778 -0.07571452 0.048250865 -0.090717144
00000000: b351 ae3d 9385 c4bd 88cd 9ebd ea74 75bd
00000010: ba9f c4bd 3710 9bbd b3a2 453d e9c9 b9bd

autoencoders.0.decoder.cells.0.lstm.weight_ih f4 [32, 9]
-0.08131748 0.28984362 0.09339323 0.50475717 0.4401277 -0.021626752 0.07111638 0.036801167
0.26595423 0.29634723 -0.26472083 -0.26899725 0.033915073 -0.18759185 -0.0029877615 0.23488326
-0.1534204 -0.00012449053 0.43369335 -0.10314327 0.23060453 -0.03637318 -0.18654054 -0.00057893683
-0.010192426 0.3151972 0.17510843 -0.00014999564 0.027405 0.00010107472 0.16692041 -0.009048606
-0.00026730742 0.04923534 0.31858897 0.00015708433 -0.0008096935 0.0019349705 0.0024678083 -0.14073455
0.03676824 0.0016084379 0.08059878 0.03280926 0.07686773 0.30195177 0.07755239 -4.8842725e-05
2.8934178e-06 0.23979552 0.3383482 0.36734477 -0.11520425 1.3923428e-05 0.0001016107 -0.23192196
-6.4032014e-05 -0.22968188 -0.21380681 -0.18657051 -7.6001024e-06 0.15504533 -0.038640752 -0.17178984
0.19491562 -7.7237655e-06 0.3027238 0.36187243 0.20185336 0.23413417 -0.15800947 0.18542105
-0.09093822 0.2780063 0.12122788 0.27315617 0.03404879 0.42139405 0.22962944 0.0174781
0.63689524 -0.0042808913 -0.24913146 0.00018010718 -0.44037354 -0.16788821 0.1260161 0.060009237
-0.27787718 6.621202e-05 -0.00022944067 -0.035254277 -0.14417277 0.18707658 -0.19172709 -0.014779893
0.1415812 -0.37056506 -0.0007503905 0.11386202 -0.013925725 -0.00024226971 0.30817068 -0.043894894
0.08290877 -5.8604714e-05 0.10025313 0.0978146 0.06563732 0.18865474 0.14255431 0.21190247
0.25737906 0.009367437 0.010154774 0.19251141 0.05047022 0.21120143 -0.07520557 -7.409994e-05
0.00014836235 0.067388 0.09070235 -0.10450332 0.32652318 0.02465431 0.01938599 0.06766748
-0.09212842 0.00016149816 0.22733085 -0.09008443 -0.21492769 0.04449543 -6.438757e-06 -0.13878779
-0.5795037 0.24614945 -0.15440582 0.10801715 0.124656625 -0.1804986 -0.07424536 -0.3079359
0.8361441 -0.19024844 -0.38121724 0.2793992 -0.179899 -0.032355767 -0.05595981 -0.38702795
-0.25914305 0.117367685 -0.055958886 -0.014372495 0.12481404 -0.14590666 -0.599217 -0.27714148
-0.09622124 -0.11587528 -0.29057094 -0.07296563 -0.24659663 -0.059527714 0.054534566 0.17041141
-0.020093583 -0.047140494 -0.24694549 0.20609543 -0.35905975 -0.49356326 -0.07144935 -0.008764298
-0.18783039 -0.22136168 -0.11409257 -0.22563592 0.2324256 -0.1337398 0.09764221 -0.09574184
-0.48474395 -0.08796307 0.124546416 0.03736293 -0.02374567 -0.2471958 -0.12435612 -0.2602074
0.12898508 0.0072728926 -0.40487123 -0.20080899 0.0030621982 -0.086828865 -0.07187356 0.011098034
-0.6216368 0.20891574 0.17800486 -0.21449856 -0.04682562 0.07366198 0.29982746 0.23341624
-0.72885394 -0.14145625 -0.1334378 -0.06722796 -0.14564101 -0.17507905 -0.101969086 -7.993732e-05
-0.16078617 0.13087808 0.40176064 0.56395626 0.27706018 0.2675286 -0.013837707 0.16653475
0.24957667 -0.17407674 0.20415616 -0.06779458 -0.029528014 -0.15170845 0.07388083 0.2130551
0.14799422 0.14744528 0.13142838 0.0003202588 0.24215077 0.023283375 0.40332186 0.00011202902
0.000120895864 -0.03811254 -0.41024083 0.31238744 -0.00013779897 0.004345529 -0.30508876 -0.16392185
0.041932806 -0.00017990942 0.3282239 0.5270279 0.1631297 0.00070410204 0.05691672 0.022842914
00000000: c789 a6bd 6266 943e f344 bf3d c437 013f
00000010: 6b58 e13e 962a b1bc 77a5 913d d2bc 163d
00000020: 272b 883e d3ba 973e 7d89 87be 02ba 89be
00000030: 88ea 0a3d 1418 40be 52ce 43bb 3d85 703e
00000040: 3d1a 1dbe ac89 02b9 0e0d de3e c73c d3bd
00000050: 9823 6c3e 0bfc 14bd 7c04 3fbe cbc3 17ba
00000060: 22fe 26bc 8761 a13e a04f 333e 2648 1db9
00000070: 7380 e03c 14f8 d338 2fed 2a3e 9b40 14bc
00000080: 6525 8cb9 ffaa 493d 181e a33e 01b7 2439
00000090: 9c41 54ba d69e fd3a f4ba 213b b81c 10be
000000a0: 4b9a 163d 38d2 d23a f910 a53d 0163 063d
000000b0: d46c 9d3d 6c99 9a3e cad3 9e3d 7adc 4cb8
000000c0: 8a2c 4236 f58c 753e fa3b ad3e 9d14 bc3e
000000d0: 35f0 ebbd ab98 6937 d417 d538 f37c 6dbe
000000e0: ed48 86b8 ba31 6bbe 2cf0 5abe 570c 3fbe
000000f0: 6204 ffb6 34c4 1e3e c445 1ebd ade9 2fbe
00000100: f697 473e 5295 01b7 9dfe 9a3e 5847 b93e
00000110: a6b2 4e3e dec0 6f3e 3ccd 21be 04df 3d3e
00000120: d13d babd d756 8e3e 5346 f83d 20db 8b3e
00000130: be76 0b3d f6c0 d73e fb23 6b3e 3b2e 8f3c
00000140: 910b 233f b846 8cbb 511c 7fbe 27db 3c39
00000150: a478 e1be e3ea 2bbe 5d0a 013e 3fcc 753d
00000160: eb45 8ebe 4fdb 8a38 0396 70b9 ca66 10bd
00000170: 07a2 13be 0191 3f3e 1b54 44be 5d27 72bc
00000180: a9fa 103e b4ba bdbe dbb5 44ba 7e30 e93d
00000190: b928 64bc c809 7eb9 8cc8 9d3e 22cb 33bd
000001a0: 13cc a93d 55ce 75b8 8351 cd3d 0553 c83d
000001b0: dc6c 863d b52e 413e c2f9 113e f6fc 583e
000001c0: 30c7 833e e179 193c 3660 263c b621 453e
000001d0: ddb9 4e3d 3045 583e 6105 9abd 1a66 9bb8
000001e0: b791 1b39 b802 8a3d 27c2 b93d d605 d6bd
000001f0: 0c2e a73e d6f7 c93c 5ecf 9e3c 3f95 8a3d
00000200: d3ad bcbd d557 2939 6bc9 683e 307e b8bd
00000210: 0116 5cbe d740 363d 800c d8b6 631e 0ebe
00000220: 5b5a 14bf 9a0e 7c3e 8f1c 1ebe 1838 dd3d
00000230: f94b ff3d a0d4 38be f40d 98bd c6a9 9dbe
00000240: 8a0d 563f 7dd0 42be e82e c3be 690d 8f3e
00000250: 7237 38be 7b87 04bd 1d36 65bd 8728 c6be
00000260: 66ae 84be 785e f03d 2535 65bd 9d7a 6bbc
00000270: 819e ff3d 8e68 15be 4966 19bf 7de5 8dbe
00000280: a40f c5bd 0550 edbd b7c5 94be 016f 95bd
00000290: d483 7cbe 55d3 73bd a35f 5f3d 5480 2e3e
000002a0: 4c9b a4bc 6416 41bd 47df 7cbe ae0a 533e
000002b0: aed6 b7be 53b4 fcbe 0954 92bd 2198 0fbc
000002c0: 9c56 40be a3ac 62be 5ea9 e9bd 1a0d 67be
000002d0: fa00 6e3e 16f3 08be a4f8 c73d 4c14 c4bd
000002e0: 5c30 f8be fb25 b4bd 3112 ff3d df09 193d
000002f0: 4886 c2bc e520 7dbe 6cae febd e839 85be
00000300: aa14 043e 7251 ee3b 484b cfbe dfa0 4dbe
00000310: 29af 483b 55d3 b1bd 7232 93bd 87d4 353c
00000320: 9723 1fbf 02ee 553e e846 363e 83a5 5bbe
00000330: 39cc 3fbd 18dc 963d fc82 993e ab04 6f3e
00000340: 2c96 3abf e8d9 10be eba3 08be d0ae 89bd
00000350: eb22 15be ec47 33be 2bd5 d0bd 06a4 a7b8
00000360: 21a5 24be e704 063e 92b3 cd3e 705f 103f
00000370: d5da 8d3e 82f9 883e 8db7 62bc 1688 2a3e
00000380: 0791 7f3e 2c41 32be 500e 513e e2d7 8abd
00000390: bce4 f1bc 7659 1bbe d54e 973d 1e2b 5a3e
000003a0: cc8b 173e e5fb 163e 2995 063e 69e8 a739
000003b0: 5ff6 773e c7bc be3c 3480 ce3e 1ff1 ea38
000003c0: 7989 fd38 e51b 1cbd 160b d2be 3ff1 9f3e
000003d0: 217e 10b9 f064 8e3b 9834 9cbe 21db 27be
000003e0: bcc1 2b3d 11a6 3cb9 f70c a83e 4deb 063f
000003f0: 790b 273e 7d93 383a 8221 693d 1021 bb3c

autoencoders.0.decoder.cells.0.lstm.weight_hh f4 [32, 8]
0.3496 0.00042081258 0.0012056824 0.36278284 0.056265514 0.0001676627 0.15048483 0.033862896
0.0012370843 0.045486405 0.000588173 0.39306778 0.40484074 0.0001545036 -0.016632674 -0.00014499844
0.07322899 -0.094936445 0.20920512 0.00053409033 0.11297797 0.14739892 4.5220746e-05 -3.5789498e-07
0.04241584 -1.4689913e-05 0.00016230461 4.5397446e-05 0.14468524 -0.00019388688 7.629935e-05 0.000105455
0.017832616 0.0006528347 -0.00012986355 0.015082832 -0.38324896 -0.00015717697 0.0013230323 0.0004941291
-0.02037499 0.037781566 -9.180867e-05 3.788194e-05 -0.0076993904 0.0058912155 0.103382 -6.186275e-05
-0.18441007 -0.024287377 -0.028502025 0.27597934 0.37711358 -0.39883608 -0.19771262 7.066913e-05
-0.15758224 -0.060776208 0.5067283 -1.9566633e-05 0.15682267 0.21109483 0.25128034 -0.00021463785
0.47030634 0.3546173 0.0014385396 0.00072982104 0.280937 -0.021786442 0.04260968 0.12309542
0.330825 -0.18575123 -1.8175046e-05 0.000580335 0.43158853 0.0003773226 -0.00015553346 -0.00030288426
-0.25470954 0.28965515 -0.22472432 0.21201365 0.051444132 -0.07566923 0.30408812 -0.00010675961
-0.27943245 0.26475573 6.9715643e-06 -1.4245719e-05 0.059387594 -6.799514e-05 -0.00024915565 -0.00010274966
0.00015946937 0.0010405171 0.0010048595 -0.14458016 0.0004605584 0.0018505062 0.0021557168 0.0014868882
0.04048068 0.04150489 1.7730235e-06 -2.1990956e-05 0.33591032 9.419375e-06 0.000104704 -3.0450126e-05
0.1940011 -0.06392713 0.033122417 -0.01286105 0.14099856 3.9627557e-06 0.22612631 1.3031795e-05
-0.061578263 3.0006551e-05 -0.0001468469 -0.03772688 0.23738965 -0.16650479 0.048426162 -8.9261215e-05
-0.0468755 0.21153654 0.023651212 0.07916104 0.3951666 0.012875877 -0.014485082 0.18498053
0.11020192 0.107181266 -0.16318989 0.058553714 -0.0750542 -0.012626681 -0.25411677 -0.096041225
0.0055222968 -0.079836704 -0.0002176463 -0.1865086 -0.24755871 -0.06622751 0.01558154 -0.002564286
-0.11498704 0.38977104 0.15180759 0.0701661 -0.12810469 0.14413247 -0.3419137 -0.055826798
0.27694982 0.04328794 0.06503457 0.0030264035 0.0070471605 0.0005125623 -0.06805362 -0.10664406
-0.33632132 0.25996187 0.16596818 -0.07472923 0.037499715 -0.3216263 0.064691566 -1.6882424e-05
0.0047800518 -0.20009562 0.36597645 -0.024048364 0.12393688 -0.0009521114 0.1627059 -0.079209834
-0.26990277 -3.6101475e-05 -0.10469201 -0.14134905 -0.7360896 0.097233616 0.020039214 0.10942119
0.045574754 0.016513927 0.3088799 0.034797035 0.011346513 3.4725954e-06 0.3125299 -0.0002678857
-0.050592776 0.29207736 0.0006056542 0.043795936 0.11513002 0.14791596 0.35720083 0.12973724
0.015907919 0.28773996 0.0004317939 0.197255 -0.13310875 6.396869e-05 -0.07780412 -0.0113684125
0.22459042 0.16405463 -0.00021380474 0.000101141 -1.6006717e-05 -0.00011754092 -0.09324829 -0.000110678724
0.19810177 -0.21384121 6.7291665e-05 3.6668766e-06 -0.044541065 0.0002526389 0.003043074 0.000101945436
0.29813418 0.21964481 1.7004397e-05 1.14294e-05 3.6510908e-05 0.16281115 0.19393094 0.00016897007
-0.38036844 -5.7610032e-05 -0.12362888 0.00041537097 0.1872521 0.003254834 0.0003550802 -0.11962802
0.14003195 0.107214645 0.013110448 -0.015198202 -0.14715172 0.255045 0.0001478774 0.099377275
00000000: c5fe b23e 82a0 dc39 fd07 9e3a acbe b93e
00000010: ab76 663d 9dce 2f39 b218 1a3e d2b3 0a3d
00000020: a925 a23a f44f 3a3d 9f2f 1a3a 2e40 c93e
00000030: 4947 cf3e 3f02 2239 3f41 88bc b90a 18b9
00000040: 15f9 953d 0a6e c2bd de39 563e 3202 0c3a
00000050: fe60 e73d beef 163e 68ab 3d38 b624 c0b4
00000060: 3bbc 2d3d b274 76b7 5030 2a39 2369 3e38
00000070: 5e28 143e 1d4e 4bb9 e702 a038 b927 dd38
00000080: b515 923c ff22 2b3a fb2b 08b9 fc1d 773c
00000090: 3539 c4be dfcf 24b9 9969 ad3a 7188 013a
000000a0: 73e9 a6bc d8c0 1a3d 6889 c0b8 6ce3 1e38
000000b0: 2b4b fcbb 190b c13b f1b9 d33d 50bc 81b8
000000c0: fed5 3cbe 52f6 c6bc 147d e9bc 2a4d 8d3e
000000d0: 0815 c13e 3e34 ccbe 2d75 4abe 3334 9438
000000e0: 3d5d 21be 79f0 78bd f2b8 013f 0623 a4b7
000000f0: 1f96 203e 3e29 583e d1a7 803e 6910 61b9
00000100: fecb f03e 6690 b53e 618d bc3a 7651 3f3a
00000110: f9d6 8f3e 7b79 b2bc 7d87 2e3d 7419 fc3d
00000120: e561 a93e 9235 3ebe 9d76 98b7 9f21 183a
00000130: 2cf9 dc3e 62d3 c539 b216 23b9 70cc 9eb9
00000140: 4a69 82be ae4d 943e 221e 66be 1b1a 593e
00000150: 15b7 523d 78f8 9abd 70b1 9b3e 21e4 dfb8
00000160: c511 8fbe 108e 873e 48ed e936 e600 6fb7
00000170: 6840 733d 9d98 8eb8 1ba1 82b9 4e7b d7b8
00000180: 3c37 2739 f661 883a 7db5 833a d20c 14be
00000190: 1a77 f139 af8c f23a ed46 0d3b b0e3 c23a
000001a0: 12cf 253d 0801 2a3d a0f8 ed35 3879 b8b7
000001b0: 70fc ab3e e807 1e37 8894 db38 266f ffb7
000001c0: 39a8 463e 3aec 82bd 5fab 073d 27b7 52bc
000001d0: ed61 103e d0f7 8436 a88d 673e 22a3 5a37
000001e0: 7d39 7cbd 94b6 fb37 eafa 19b9 8087 1abd
000001f0: 4616 733e 3b80 2abe 835a 463d c031 bbb8
00000200: 8600 40bd 099d 583e 30c0 c13c 2f1f a23d
00000210: 4753 ca3e 58f5 523c d652 6dbc 896b 3d3e
00000220: 8bb1 e13d da81 db3d 401b 27be 05d6 6f3d
00000230: 04b6 99bd 23e0 4ebc 981b 82be 43b1 c4bd
00000240: 62f4 b43b 6d81 a3bd fc37 64b9 1cfc 3ebe
00000250: 0880 7dbe 4aa2 87bd b749 7f3c 950d 28bb
00000260: 537e ebbd 1290 c73e 7373 1b3e 3fb3 8f3d
00000270: e02d 03be 7697 133e 500f afbe a4aa 64bd
00000280: 5ecc 8d3e b24e 313d d830 853d a056 463b
00000290: deeb e63b 795d 063a b25f 8bbd 3368 dabd
000002a0: 4f32 acbe b919 853e 90f3 293e a30b 99bd
000002b0: 4d99 193d 34ac a4be 037d 843d bb9e 8db7
000002c0: fba1 9c3b dee5 4cbe 4461 bb3e 1301 c5bc
000002d0: 9ed2 fd3d 1d97 79ba 609c 263e c438 a2bd
000002e0: b230 8abe aa6b 17b8 c468 d6bd cebd 10be
000002f0: 5e70 3cbf 6b22 c73d 4729 a43c 3818 e03d
00000300: 98ac 3a3d 3748 873c 8225 9e3e 5687 0e3d
00000310: bae6 393c bc0a 6936 eb03 a03e 0373 8cb9
00000320: 5f3a 4fbd 2a8b 953e c4c4 1e3a 5e63 333d
00000330: 4ac9 eb3d 4877 173e 07e3 b63e d7d9 043e
00000340: 5351 823c a752 933e 6562 e239 37fd 493e
00000350: a94d 08be ee26 8638 c457 9fbd 9442 3abc
00000360: 08fb 653e f0fd 273e c630 60b9 a91b d438
00000370: 2a46 86b7 4d80 f6b8 f6f8 bebd 301c e8b8
00000380: 31db 4a3e 31f9 5abe f01e 8d38 7614 7636
00000390: b170 36bd 9f74 8439 4f6e 473b 8acb d538
000003a0: 0ba5 983e 92ea 603e aaa4 8e37 e6c0 3f37
000003b0: 4a23 1938 f7b7 263e d595 463e 8f2d 3139
000003c0: a7bf c2be 4da2 71b8 2331 fdbd 26c6 d939
000003d0: 04bf 3f3e 0e4f 553b 0f2a ba39 89ff f4bd
000003e0: 8964 0f3e 5a93 db3d 34cd 563c e101 79bc
000003f0: f1ae 16be 4295 823e 8a0f 1b39 5086 cb3d

autoencoders.0.decoder.cells.0.lstm.bias_ih f4 [32]
0.17952216 -0.011657801 0.045959353 0.01930637 0.022942854 0.0187139 -0.043925542 0.059084635
0.19030745 -0.008073895 -0.01420213 0.00020546826 0.038670965 5.703671e-05 -0.011667663 0.024225254
-0.07732489 -0.065755256 -0.014443915 -0.045271542 -0.09925772 -0.024946755 0.069881774 -0.04012226
0.20323776 0.04506098 0.05547989 0.031743705 0.0666574 0.050165396 -0.02157563 0.02647197
00000000: a8d4 373e 5d00 3fbc e03f 3c3d 6428 9e3c
00000010: a7f2 bb3c e54d 993c 45eb 33bd bb02 723d
00000020: f5df 423e 5f48 04bc 0db0 68bc f772 5739
00000030: 7265 1e3d b33a 6f38 ba29 3fbc 0a74 c63c
00000040: 835c 9ebd b1aa 86bd 2ca6 6cbc a76e 39bd
00000050: a247 cbbd 235d ccbc 2d1e 8f3d 3d57 24bd
00000060: 8f1d 503e dd91 383d e23e 633d b005 023d
00000070: ad83 883d 3b7a 4d3d 60bf b0bc bfdb d83c

autoencoders.0.decoder.cells.0.lstm.bias_hh f4 [32]
0.17952216 -0.011657801 0.045959353 0.01930637 0.022942854 0.0187139 -0.043925542 0.059084635
0.19030745 -0.008073895 -0.01420213 0.00020546826 0.038670965 5.703671e-05 -0.011667663 0.024225254
-0.07732489 -0.065755256 -0.014443915 -0.045271542 -0.09925772 -0.024946755 0.069881774 -0.04012226
0.20323776 0.04506098 0.05547989 0.031743705 0.0666574 0.050165396 -0.02157563 0.02647197
00000000: a8d4 373e 5d00 3fbc e03f 3c3d 6428 9e3c
00000010: a7f2 bb3c e54d 993c 45eb 33bd bb02 723d
00000020: f5df 423e 5f48 04bc 0db0 68bc f772 5739
00000030: 7265 1e3d b33a 6f38 ba29 3fbc 0a74 c63c
00000040: 835c 9ebd b1aa 86bd 2ca6 6cbc a76e 39bd
00000050: a247 cbbd 235d ccbc 2d1e 8f3d 3d57 24bd
00000060: 8f1d 503e dd91 383d e23e 633d b005 023d
00000070: ad83 883d 3b7a 4d3d 60bf b0bc bfdb d83c

autoencoders.0.decoder.output_layer.weight f4 [1, 8]
0.23967122 -0.2203295 -0.19333443 -0.0068000397 0.035448935 -0.0445209 0.2925996 -0.15357053
00000000: 5f6c 753e 0e9e 61be 76f9 45be ded2 debb
00000010: e732 113d 8c5b 36bd 9dcf 953e 9841 1dbe

autoencoders.1.encoder.cells.0.weight_h_2 f4 [8, 8]
0.14085159 -0.110428266 0.16488224 -0.3217869 -0.1330675 0.3098196 0.055529375 -0.20045058
0.5598885 0.23713692 0.26103926 -0.09808234 0.00065891264 0.63773143 0.11980416 0.10296766
0.022906156 0.001033679 0.69712466 -0.095925 -0.029703332 -0.15358172 0.35783106 0.2875304
-1.0477797 -0.00091984106 -0.002469265 0.3429827 -0.27294767 -0.6008972 0.024578225 0.00048152223
-0.72823966 -0.0025980975 0.58153677 0.00020415963 -0.030895565 -0.023662658 0.0027625847 0.12562722
0.53860724 -0.066814065 0.1349476 -0.0015413985 0.39407727 -0.15012214 0.38401332 -0.33471945
-0.10309558 -0.28108475 0.31600687 -0.18267243 -0.19234094 -0.11591013 0.02543638 -0.119332336
0.2634804 0.1540505 -0.3110851 0.09458989 -0.13304673 0.13923989 0.0066121444 7.2641145e-05
00000000: 663b 103e 3728 e2bd e4d6 283e 41c1 a4be
00000010: d942 08be ada0 9e3e c572 633d eb42 4dbe
00000020: da54 0f3f 05d4 723e f0a6 853e 65df c8bd
00000030: e1ba 2c3a 5e42 233f e25b f53d b5e0 d23d
00000040: b1a5 bb3c 837c 873a c376 323f 5474 c4bd
00000050: 6754 f3bc 8744 1dbe a235 b73e 2f37 933e
00000060: a51d 86bf 7d21 71ba 64d3 21bb 6e9b af3e
00000070: ccbf 8bbe 66d4 19bf 4658 c93c d274 fc39
00000080: ea6d 3abf d844 2abb 98df 143f af13 5639
00000090: b218 fdbc 31d8 c1bc 7b0c 353b 6ca4 003e
000000a0: 2ae2 093f d0d5 88bd b42f 0a3e c008 caba
000000b0: 7fc4 c93e 9eb9 19be 659d c43e 5960 abbe
000000c0: c723 d3bd 57ea 8fbe a7cb a13e 7b0e 3bbe
000000d0: 06f5 44be 4a62 edbd f55f d03c 8364 f4bd
000000e0: e7e6 863e 6abf 1d3e 8c46 9fbe 58b8 c13d
000000f0: 673d 08be e794 0e3e b0aa d83b eb56 9838

autoencoders.1.encoder.cells.0.bias_h_2 f4 [8]
-0.010125091 0.13421963 0.15439387 -0.0015218767 -0.07568765 0.12205444 0.17051087 -0.022649268
00000000: b6e3 25bc df70 093e 6d19 1e3e b579 c7ba
00000010: 2002 9bbd aef7 f93d 679a 2e3e f58a b9bc

autoencoders.1.encoder.cells.0.lstm.weight_ih f4 [32, 1]
0.057927717 0.08696766 -0.059794314 0.0003362026 0.1996412 -0.6234775 -0.030282192 -4.826579e-05
0.4177443 0.08842385 -0.120100684 5.7571386e-05 0.00227639 0.58084613 -0.24558996 5.893435e-05
0.53195125 0.04136898 -0.36453336 0.06877971 0.20450772 -0.16262312 -0.2483686 0.12287476
0.35250947 -0.07210936 -0.018999279 -0.00024936028 0.0009306456 -0.113251746 -0.03957902 9.204933e-06
00000000: 9d45 6d3d 1a1c b23d e2ea 74bd 5944 b039
00000010: be6e 4c3e 399c 1fbf 5c12 f8bc ff70 4ab8
00000020: 95e2 d53e 9017 b53d 59f7 f5bd ce78 7138
00000030: 7d2f 153b 55b2 143f ef7b 7bbe 4730 7738
00000040: f52d 083f 8572 293d 1ea4 babe 60dc 8c3d
00000050: 796a 513e ad86 26be 5754 7ebe c3a5 fb3d
00000060: 1f7c b43e 12ae 93bd 60a4 9bbc 92bc 82b9
00000070: 92f6 733a 88f0 e7bd 9c1d 22bd e36e 1a37

autoencoders.1.encoder.cells.0.lstm.weight_hh f4 [32, 8]
0.10276526 0.26483178 0.12820609 0.0025570807 0.0014640263 0.15448155 0.24517405 0.002351602
-0.004364588 0.1090784 -0.0027331433 -0.0018769176 8.1225015e-05 -0.002350654 0.11190714 -0.0014929073
0.050311 0.289134 -0.031861328 0.024015093 -0.00097038614 0.0012869138 0.092137575 -0.002807331
-0.00028987345 -0.00011386505 5.607723e-05 0.00013495378 -7.738758e-05 -0.00030340994 -0.00026711504 -2.6529184e-05
0.0026683244 0.0034047398 0.0029278363 0.0010105971 -0.00022351247 0.0032930246 0.02236032 0.0011472808
0.01878925 -0.0022353171 -0.059625316 -0.0026214905 -0.0016168249 -0.002967237 0.38316098 -0.0020750943
-0.15516779 0.25538075 -0.10939145 -0.00039595226 0.004735024 0.20172729 -0.055762835 0.13418049
3.180943e-05 6.697897e-05 7.246451e-05 -2.5152627e-05 9.964361e-05 8.821004e-05 0.00011908468 0.000104308194
0.11056269 0.47767615 0.8046629 0.4022287 0.0014176124 0.23953353 0.3559772 0.7963147
-0.004071355 0.35576034 -0.0032144443 -0.0031395908 0.00010945633 0.03056473 -0.0029447905 -0.0010088047
-0.0147667015 0.15188122 0.0893594 -0.0022476872 -0.0014829548 0.047687337 0.011372661 0.06862368
-6.246703e-05 -1.4725656e-06 5.5239165e-05 -0.00013441268 -0.00012657118 -6.8614296e-05 -0.0004262487 4.2137428e-05
0.0025858134 0.00094729423 0.0026593022 0.0007158029 -0.0003731582 0.0014646079 0.0022484285 0.00078513724
0.049427174 -0.0026971868 -0.0020732852 -0.0026001262 -0.0014114776 -0.0030917134 -0.0024407727 -0.06148391
0.029740423 0.40170458 0.2475044 -0.0019937195 0.0055775195 -0.00395175 0.060593337 0.29885727
-0.00013376484 -6.227235e-05 0.00015890355 -7.459179e-05 -1.7873099e-05 0.00015145852 -6.805729e-05 3.096646e-05
-0.202249 0.2663733 0.002662622 -0.1767022 -0.060103234 -0.14709231 -0.3719578 0.09121445
0.1059511 -0.0010468555 0.25634378 0.38692027 -4.5583954e-05 0.42983016 0.023323884 0.195877
-0.050243393 0.096717246 0.20065263 -0.15677124 0.021542784 0.28481403 0.16180538 0.0848872
0.07757953 -0.010863136 -0.013788618 -0.11096735 -0.00050131604 -0.31384712 0.052792642 -0.032727968
-0.14851595 -0.06226249 -0.18077268 -0.0012221378 -0.0005230902 -0.23813343 -0.35289612 -0.20788193
-0.0942013 0.2474102 -0.00046224077 0.02103701 -0.00051369466 0.0058259983 0.48865414 0.11684562
0.11190381 0.25115132 0.06603266 0.039469816 0.4287067 0.08022364 -0.0044686114 0.560199
-0.26908535 0.084861815 -0.003176845 0.33829564 0.00017019277 0.13118367 0.13103034 -0.38030645
0.16193756 0.24889757 0.28308624 0.068390556 0.0024425406 0.09935631 0.87318337 0.06954198
-0.024041729 0.020608496 0.3009879 0.010014437 0.0043319124 -0.0023753133 -0.051000156 -0.002497998
-0.0033980594 0.3882305 0.22468972 -0.0013009767 -0.0015625749 0.10894729 0.16936173 -0.0021429162
6.125288e-05 -0.00039483514 -0.00019157783 1.0786224e-05 2.9013201e-05 -0.0005278759 -0.00025019 -1.9762318e-05
0.0006732678 0.08389078 -0.1062136 0.0020111073 0.0009615129 0.002717379 0.062099155 0.10979965
-0.0034074865 -0.0014308875 0.09821563 0.019269839 -0.0020046034 -0.0019153098 0.06992469 -0.0026995302
0.14317101 0.26824972 0.31758684 0.24927467 0.0010567277 0.46688578 0.58429646 0.015117827
4.8975395e-05 4.5789378e-07 -9.537468e-05 -1.509742e-05 -0.00020331735 -0.00013211323 -5.1243853e-05 -7.7255325e-05
00000000: 9876 d23d 0898 873e 7548 033e b294 273b
00000010: 92e4 bf3a 6930 1e3e e80e 7b3e 561d 1a3b
00000020: d104 8fbb 7f64 df3d 891e 33bb e702 f6ba
00000030: 5957 aa38 6e0d 1abb 922f e53d a8ad c3ba
00000040: e812 4e3d 5f09 943e 0681 02bd 4dbb c43c
00000050: 8361 7eba a9ad a83a a0b2 bc3d 33fb 37bb
00000060: 28fa 97b9 d5ca eeb8 7834 6b38 6182 0d39
00000070: 244b a2b8 fe12 9fb9 930b 8cb9 fd8a deb7
00000080: 0edf 2e3b 0e22 5f3b f1e0 3f3b 0376 843a
00000090: ac5e 6ab9 c9cf 573b fd2c b73c 5b60 963a
000000a0: eaeb 993c 667e 12bb ad39 74bd 50cd 2bbb
000000b0: a4eb d3ba fa75 42bb ad2d c43e 4efe 07bb
000000c0: 4ee4 1ebe 44c1 823e a008 e0bd d097 cfb9
000000d0: 4328 9b3b 9991 4e3e 9267 64bd 9c66 093e
000000e0: 1e6b 0538 1077 8c38 16f8 9738 dbfe d2b7
000000f0: c1f7 d038 68fd b838 1abd f938 09c0 da38
00000100: b16e e23d f891 f43e 63fe 4d3f ecf0 cd3e
00000110: 2ecf b93a 4748 753e a542 b63e 48db 4b3f
00000120: 0069 85bb 3826 b63e 6da9 52bb 98c1 4dbb
00000130: eb8b e538 e262 fa3c 63fd 40bb de39 84ba
00000140: 09f0 71bc c086 1b3e 1002 b73d ef4d 13bb
00000150: b55f c2ba cc53 433d 6654 3a3c 928a 8c3d
00000160: bb00 83b8 f8a4 c5b5 9ab0 6738 21f1 0cb9
00000170: 31b8 04b9 05e5 8fb8 227a dfb9 b8bc 3038
00000180: c076 293b d753 783a b047 2e3b b8a4 3b3a
00000190: 72a4 c3b9 16f8 bf3a 5f5a 133b abd1 4d3a
000001a0: 2674 4a3d 49c3 30bb f4df 07bb e166 2abb
000001b0: 5401 b9ba 589e 4abb 5ff5 1fbb 8dd6 7bbd
000001c0: 30a2 f33c 39ac cd3e cb71 7d3e 10a9 02bb
000001d0: a0c3 b63b af7d 81bb b830 783d d203 993e
000001e0: 3a43 0cb9 3798 82b8 599f 2639 2a6e 9cb8
000001f0: 30ee 95b7 d6d0 1e39 fbb9 8eb8 fce1 0138
00000200: 5d1a 4fbe 1562 883e 627f 2e3b 6cf1 34be
00000210: cf2e 76bd 5e9f 16be 4171 bebe a4ce ba3d
00000220: e4fc d83d a436 89ba 7e3f 833e 6a1a c63e
00000230: 6631 3fb8 b312 dc3e bb11 bf3c fb93 483e
00000240: 04cc 4dbd b113 c63d e277 4d3e a488 20be
00000250: 7e7a b03c 25d3 913e 4fb0 253e 57d9 ad3d
00000260: 04e2 9e3d 4bfb 31bc a8e9 61bc da42 e3bd
00000270: c06a 03ba 92b0 a0be 193d 583d c30d 06bd
00000280: 9114 18be f406 7fbd 791c 39be 2430 a0ba
00000290: fd1f 09ba 40d9 73be cdae b4be 00df 54be
000002a0: 9cec c0bd 1959 7d3e e858 f2b9 cf55 ac3c
000002b0: 77a9 06ba 04e8 be3b e030 fa3e c24c ef3d
000002c0: d32d e53d e896 803e 223c 873d 1aab 213d
000002d0: 727f db3e 4b4c a43d 6e6d 92bb 3469 0f3f
000002e0: 8ec5 89be 08cc ad3d 9d32 50bb 1635 ad3e
000002f0: c675 3239 0355 063e d12c 063e 87b7 c2be
00000300: f6d2 253e 01df 7e3e aef0 903e 5910 8c3d
00000310: 0813 203b 527b cb3d f288 5f3f 076c 8e3d
00000320: 29f3 c4bc 26d3 a83c 161b 9a3e 9813 243c
00000330: b7f2 8d3b 25ab 1bbb 8ae5 50bd 74b5 23bb
00000340: fab1 5ebb 26c6 c63e 1015 663e 8985 aaba
00000350: 50cf ccba c21f df3d 296d 2d3e 2b70 0cbb
00000360: e474 8038 e001 cfb9 48e2 48b9 7bf6 3437
00000370: 6061 f337 2761 0aba ef2b 83b9 41c7 a5b7
00000380: 3d7e 303a eece ab3d 8486 d9bd c8cc 033b
00000390: 0a0e 7c3a 0e16 323b af5b 7e3d a4de e03d
000003a0: 2350 5fbb 9e8c bbba 4725 c93d c8db 9d3c
000003b0: aa5f 03bb 220b fbba ad34 8f3d 9aea 30bb
000003c0: 6c9b 123e 0758 893e be9a a23e dc41 7f3e
000003d0: e681 8a3a a70b ef3e 7494 153f c3b0 773c
000003e0: ee6a 4d38 71d4 f534 e403 c8b8 ed4a 7db7
000003f0: 9631 55b9 e087 0ab9 abee 56b8 2304 a2b8

autoencoders.1.encoder.cells.0.lstm.bias_ih f4 [32]
0.28985122 0.09503163 0.036806084 -6.488995e-05 0.0026409316 -0.0012570225 0.16044205 2.2369452e-06
0.2521811 0.07371036 0.03875646 0.0009321111 0.0018313682 -0.0017045324 0.13533215 7.508482e-05
0.03593068 0.15200111 0.12806705 -0.00035314827 -0.05569114 0.10677536 0.13600245 -0.05147521
0.27412406 0.09565974 0.08346851 4.9683887e-05 0.008641186 -0.00040024234 0.2567893 2.617927e-05
00000000: 6167 943e f19f c23d fac1 163d 8715 88b8
00000010: 7b13 2d3b adc2 a4ba ec4a 243e 6d1e 1636
00000020: e21d 813e 75f5 963d 18bf 1e3d eb58 743a
00000030: 850a f03a 9e6a dfba 8394 0a3e db76 9d38
00000040: 0c2c 133d 2ea6 1b3e 0224 033e c226 b9b9
00000050: 651c 64bd 0aad da3d 3a44 0b3e abd7 52bd
00000060: fd59 8c3e 41e9 c33d 8af1 aa3d ab63 5038
00000070: c393 0d3c 9ed7 d1b9 e379 833e 8e9b db37

autoencoders.1.encoder.cells.0.lstm.bias_hh f4 [32]
0.28985122 0.09503163 0.036806084 -6.488995e-05 0.0026409316 -0.0012570225 0.16044205 2.2369452e-06
0.2521811 0.07371036 0.03875646 0.0009321111 0.0018313682 -0.0017045324 0.13533215 7.508482e-05
0.03593068 0.15200111 0.12806705 -0.00035314827 -0.05569114 0.10677536 0.13600245 -0.05147521
0.27412406 0.09565974 0.08346851 4.9683887e-05 0.008641186 -0.00040024234 0.2567893 2.617927e-05
00000000: 6167 943e f19f c23d fac1 163d 8715 88b8
00000010: 7b13 2d3b adc2 a4ba ec4a 243e 6d1e 1636
00000020: e21d 813e 75f5 963d 18bf 1e3d eb58 743a
00000030: 850a f03a 9e6a dfba 8394 0a3e db76 9d38
00000040: 0c2c 133d 2ea6 1b3e 0224 033e c226 b9b9
00000050: 651c 64bd 0aad da3d 3a44 0b3e abd7 52bd
00000060: fd59 8c3e 41e9 c33d 8af1 aa3d ab63 5038
00000070: c393 0d3c 9ed7 d1b9 e379 833e 8e9b db37

autoencoders.1.decoder.cells.0.weight_h_2 f4 [8, 8]
-0.021822026 0.18523738 0.58847463 0.2868737 -0.71086675 -0.055786118 0.3538259 0.1590551
0.06263059 0.22323886 0.85306406 1.0707151 -0.075000644 0.41882762 -0.08765376 0.3226141
0.17025745 0.54482925 -0.34509054 -0.40072566 -0.10608478 -0.003336638 0.09586289 -0.051779326
-0.14288814 -0.08190579 -0.13540013 0.41710275 -0.46792483 -0.31591547 0.11221657 -0.021611191
-0.033558797 0.25087407 -0.040892504 0.04907352 -0.048425034 0.24212718 -0.2793987 0.33363682
-0.069040686 -0.6438136 0.41266137 -0.07792757 0.12784164 0.8077599 0.3502306 0.2892326
-0.28937566 -0.18653427 0.032404166 -0.15828446 -0.11154043 0.479811 -0.5991492 0.027922735
-0.055027552 0.08063787 0.0010211542 0.24883032 0.06383916 -0.17485045 0.23909147 -0.0062516276
00000000: 1bc4 b2bc deae 3d3e 46a6 163f 1ce1 923e
00000010: 5dfb 35bf fc7f 64bd ab28 b53e 57df 223e
00000020: 7744 803d ba98 643e 6862 5a3f 310d 893f
00000030: f099 99bd 9370 d63e d183 b3bd ad2d a53e
00000040: f857 2e3e ee79 0b3f b5af b0be ea2b cdbe
00000050: fa42 d9bd 7fab 5abb c353 c43d 8f16 54bd
00000060: 4551 12be 39be a7bd 55a6 0abe 7e8e d53e
00000070: d893 efbe acbf a1be cdd1 e53d f409 b1bc
00000080: f374 09bd 9172 803e e67e 27bd 5101 493d
00000090: 5459 46bd 30f0 773e 590d 8fbe 72d2 aa3e
000000a0: 3465 8dbd f8d0 24bf 5a48 d33e 7d98 9fbd
000000b0: ebe8 023e 5ac9 4e3f 6d51 b33e 4c16 943e
000000c0: 0c29 94be d702 3fbe 3bba 043d 5215 22be
000000d0: 4f6f e4bd caa9 f53e d861 19bf 38be e43c
000000e0: 9264 61bd 7825 a53d 40d8 853a 60cd 7e3e
000000f0: 1bbe 823d ff0b 33be 65d4 743e 74da ccbb

autoencoders.1.decoder.cells.0.bias_h_2 f4 [8]
0.06700339 0.058507606 0.09288089 0.05264379 -0.097355194 -0.029588684 0.07420612 0.05982139
00000000: 1339 893d aca5 6f3d 5638 be3d 04a1 573d
00000010: 2962 c7bd f863 f2bc 61f9 973d 4607 753d

autoencoders.1.decoder.cells.0.lstm.weight_ih f4 [32, 9]
0.45121962 0.21562907 0.026076442 0.19194058 0.0005487954 -0.17895605 0.14492874 0.24883321
0.14717534 0.15605897 0.27186477 0.2268718 0.21794517 0.17232978 0.4370179 0.32132685
0.17862399 0.19781886 0.026764639 0.22251318 0.12664369 -0.05617574 -0.0062319855 -8.450292e-05
-7.4874943e-06 -0.013027789 -0.15274389 0.042394638 -0.18688297 0.0034515846 0.099474914 0.00022817207
0.06012359 0.0055346484 -0.32180274 0.049180422 -1.2107132e-05 -0.047921397 0.06573953 0.1534205
-0.00010908396 0.28275022 2.1936017e-05 -0.00014614983 0.38221022 -2.4837831e-05 0.15793605 0.02666222
8.834892e-05 -7.079596e-05 -5.6436147e-05 1.2994013e-06 -1.5607786e-05 -7.10833e-05 0.16725343 -0.072417326
-0.12792124 0.12744382 0.072666556 0.047062553 0.25759363 0.30996814 0.01608482 -0.049672008
0.009049434 0.51533014 -0.16010351 -0.109644495 0.08640738 0.07628331 0.27608868 -0.009808038
0.061786067 -0.14421226 0.14982377 0.031860348 0.30938092 0.20475596 -0.004108285 -0.117632195
-0.101175375 0.29359317 -0.055467837 0.40860823 0.45882592 0.30760193 -0.34363675 0.2089649
0.29225904 -0.15680565 0.002833542 0.45221186 -0.19830288 -0.08562439 -0.18177801 0.08760622
-0.14060335 0.1383866 -0.042264447 0.20107965 0.12134367 -0.047041465 -0.20719792 -0.0018688514
-0.0003369315 -0.0029500853 -0.017811898 -0.12375871 5.884975e-05 0.24335477 -0.1535186 0.3192895
0.05543516 0.00010408213 -0.0008773807 0.24376984 0.08416616 0.3072652 0.1414232 0.00012323177
-7.6021206e-05 -0.00028065397 -4.3244225e-05 0.26951206 0.00012223421 -9.955286e-06 -0.18922305 0.23185913
0.1039543 0.41015363 0.086866975 -0.10560273 -0.007840431 0.026366534 0.17966688 0.1524832
-0.41068375 -0.04796396 -0.32466826 -0.04120714 -0.13409096 0.18769057 -0.2265673 -0.0012198783
0.2440202 0.21631965 0.06513514 -0.29213718 0.32388747 0.4611786 -0.12986664 -0.13189971
0.01769289 0.44584385 0.3485214 -0.40466556 -0.09231952 -0.22620407 -0.07710537 0.0035622513
-0.070599504 -0.08826698 0.27309853 0.03352155 0.44892585 0.5091665 0.33993456 0.13379359
0.3420898 0.18980917 0.20307644 0.047221225 0.5207088 -0.37056804 -0.18310365 -0.0013638465
-0.07881088 0.11076171 -0.046896476 -0.07481943 -0.05519942 -0.42242375 -0.18737039 0.001150874
0.06965851 -9.555237e-06 -0.09002074 -0.24713393 0.23194638 -0.17179367 -0.06442393 -0.047578584
0.01185869 0.2100237 -0.12811594 -0.14064887 -0.18354893 0.34809855 0.40397307 0.00677476
0.1758626 -0.21023472 0.097581655 -0.062000144 -0.044164468 -0.47118297 0.32787234 0.11217768
0.12307654 0.00019189926 0.2960822 -0.0313838 -0.05025851 0.34099302 0.4096529 -0.14474075
0.0026097826 -0.08329474 -0.06478436 0.1284778 0.007750385 -0.3208282 0.3339889 0.16893935
-0.16842738 -0.08047462 0.33957624 0.5196015 0.2193696 0.019940892 0.3199517 0.42350927
0.22059418 0.05301719 -0.3861403 0.4436982 0.019545006 -0.009934801 0.00021216847 0.2663814
-0.051787082 0.30680326 0.14500923 0.32755852 0.39564595 -0.0006713178 -0.00012672509 -0.00024238913
0.17683484 0.0036631047 -0.01949294 -2.739183e-05 0.12696548 0.10725391 0.06301979 0.32155728
00000000: 4206 e73e decd 5c3e 439e d53c 128c 443e
00000010: 09dd 0f3a 4140 37be 3368 143e 22ce 7e3e
00000020: 22b5 163e eccd 1f3e dc31 8b3e 1551 683e
00000030: 052d 5f3e 3877 303e cfc0 df3e f484 a43e
00000040: 35e9 363e 0791 4a3e 8441 db3c 7fda 633e
00000050: e2ae 013e 8818 66bd af35 ccbb 2937 b1b8
00000060: 163d fbb6 8272 55bc e568 1cbe 00a6 2d3d
00000070: 405e 3fbe fb33 623b 81b9 cb3d 7941 6f39
00000080: 2744 763d ff5b b53b 54c3 a4be 6971 493d
00000090: bc1f 4bb7 3a49 44bd 72a2 863d 431a 1d3e
000000a0: 01c4 e4b8 a3c4 903e 3d03 b837 cc3f 19b9
000000b0: 0fb1 c33e d65a d0b7 fdb9 213e ba6a da3c
000000c0: f747 b938 4b78 94b8 dab5 6cb8 1767 ae35
000000d0: 77ed 82b7 8e12 95b8 7c44 2b3e 894f 94bd
000000e0: c9fd 02be a280 023e 34d2 943d aac4 403d
000000f0: 50e3 833e 25b4 9e3e 50c4 833c e074 4bbd
00000100: 1444 143c adec 033f 2df2 23be 4b8d e0bd
00000110: 5af6 b03d 6d3a 9c3d 7f5b 8d3e e5b1 20bc
00000120: 6313 7d3d 61ac 13be 676b 193e ff7f 023d
00000130: 2d67 9e3e 8cab 513e cb9e 86bb 26e9 f0bd
00000140: 0935 cfbd d851 963e 3e32 63bd 1935 d13e
00000150: 3beb ea3e 007e 9d3e 28f1 afbe e5fa 553e
00000160: faa2 953e a991 20be f2b2 393b 5088 e73e
00000170: e90f 4bbe d75b afbd 0424 3abe e46a b33d
00000180: 53fa 0fbe 38b5 0d3e 7c1d 2dbd d3e7 4d3e
00000190: 0883 f83d 8dae 40bd b12b 54be 3ff4 f4ba
000001a0: 2ea6 b0b9 3856 41bb 42ea 91bc 3575 fdbd
000001b0: 70d5 7638 fe31 793e fb33 1dbe ea79 a33e
000001c0: fa0f 633d ab46 da38 0600 66ba cd9e 793e
000001d0: 4f5f ac3d dd51 9d3e 3ed1 103e c737 0139
000001e0: 936d 9fb8 bd24 93b9 2261 35b8 7cfd 893e
000001f0: ff2b 0039 a105 27b7 b0c3 41be 7b6c 6d3e
00000200: fee5 d43d a8ff d13e 50e7 b13d 3e46 d8bd
00000210: 2775 00bc a1fe d73c 98fa 373e 8e24 1c3e
00000220: 2445 d2be db75 44bd eb3a a6be d1c8 28bd
00000230: 244f 09be f531 403e 4201 68be 53e4 9fba
00000240: 6ee0 793e e682 5d3e 9365 853d 0193 95be
00000250: 94d4 a53e 9a1f ec3e c3fb 04be b810 07be
00000260: aef0 903c a545 e43e 6671 b23e 5330 cfbe
00000270: 0412 bdbd 0aa2 67be 6ce9 9dbd a974 693b
00000280: 7996 90bd 52c5 b4bd 92d3 8b3e e54d 093d
00000290: 9cd9 e53e bc58 023f e70b ae3e 3001 093e
000002a0: 6526 af3e 565d 423e 45f3 4f3e 0b6b 413d
000002b0: 2c4d 053f 18bb bdbe 867f 3bbe 18c3 b2ba
000002c0: 9967 a1bd 09d7 e23d 8516 40bd ee3a 99bd
000002d0: c918 62bd ed47 d8be 06de 3fbe ecd8 963a
000002e0: 1fa9 8e3d 6e4f 20b7 cb5c b8bd ad10 7dbe
000002f0: 5a83 6d3e aeea 2fbe b2f0 83bd c3e1 42bd
00000300: f34a 423c 7410 573e d330 03be 4206 10be
00000310: 40f4 3bbe f939 b23e 8fd5 ce3e cefe dd3b
00000320: 5315 343e c547 57be e4d8 c73d ddf3 7dbd
00000330: cde5 34bd e53e f1be e2de a73e 69bd e53d
00000340: 8e0f fc3d 9138 4939 1698 973e 4d8c 00bd
00000350: dedb 4dbd a396 ae3e 06be d13e eb36 14be
00000360: e308 2b3b 6f96 aabd aaad 84bd af8f 033e
00000370: f1f6 fd3b 9843 a4be 9800 ab3e 70fe 2c3e
00000380: 3a78 2cbe e1cf a4bd f0dc ad3e 9b04 053f
00000390: 6da2 603e 155b a33c b6d0 a33e 35d6 d83e
000003a0: 71e3 613e 8e28 593d 2eb4 c5be 692c e33e
000003b0: d91c a03c 93c5 22bc 8a79 5e39 2563 883e
000003c0: b11e 54bd 5115 9d3e 4d7d 143e c0b5 a73e
000003d0: 1b92 ca3e 60fb 2fba 82e1 04b9 d629 7eb9
000003e0: 3114 353e b310 703b a8af 9fbc 82c7 e5b7
000003f0: 3d03 023e f0a7 db3d 8510 813d 28a3 a43e
