results/H1_BaseModel/art_daily_jumpsup/ensemble_autoencoder_weights.pth (torch, 87914 bytes, 130 tensors)

autoencoders.0.encoder.cells.0.weight_h_2 f4 [8, 8]
2.383387e-05 0.00018511817 0.00012419095 -6.660456e-05 0.00013202641 6.8239846e-05 -7.124193e-05 -3.1346578e-06
-0.0002634824 0.00027497072 -0.0002120322 0.00016380163 -0.00018810091 6.657375e-05 0.00013973587 -0.00011757735
-8.0612925e-05 -6.2294646e-05 -0.00018157299 -7.5909906e-05 0.0002850994 0.00020652985 -0.00013210149 9.956686e-05
3.760705e-05 8.644788e-05 -5.0396575e-05 8.708868e-05 -8.971284e-05 -0.000111036956 -7.0628405e-05 -8.436094e-06
-0.0002829875 1.1930205e-05 0.00024863126 0.00014864311 3.3819648e-05 0.0002884814 -0.00018482773 0.00021066637
-5.604187e-05 -0.00016499925 0.00015073495 -5.6589535e-05 6.6148496e-05 -7.0518116e-05 -9.350723e-05 -3.5361638e-05
-2.7177352e-05 -0.00020575376 -6.643897e-05 -6.827321e-05 0.00014075603 -0.00010689644 -0.00012162882 -0.0001385857
-6.0506714e-05 -3.8843027e-05 2.7507298e-05 6.877398e-05 -0.00017732118 0.0002332905 0.0004017712 0.00011477315
00000000: d9ee c737 481c 4239 4139 0239 0dae 8bb8
00000010: 9270 0a39 fd1b 8f38 b867 95b8 035d 52b6
00000020: 0224 8ab9 f229 9039 f654 5eb9 2ac2 2b39
00000030: f43c 45b9 839d 8b38 1086 1239 dc93 f6b8
00000040: bc0e a9b8 2fa4 82b8 a164 3eb9 d231 9fb8
00000050: 6579 9539 ef8f 5839 b984 0ab9 8dce d038
00000060: 43bc 1d38 5a4b b538 e960 53b8 61a3 b638
00000070: 3724 bcb8 83dc e8b8 561e 94b8 bf88 0db7
00000080: f05d 94b9 d727 4837 b95a 8239 15dd 1b39
00000090: 92d9 0d38 513f 9739 51ce 41b9 53e6 5c39
000000a0: 800e 6bb8 a603 2db9 9b0e 1e39 8d5a 6db8
000000b0: 34b9 8a38 20e3 93b8 5019 c4b8 4551 14b8
000000c0: ebfa e3b7 9bbf 57b9 2755 8bb8 e72d 8fb8
000000d0: e997 1339 972d e0b8 fa12 ffb8 5151 11b9
000000e0: 97c8 7db8 62eb 22b8 79bf e637 c03a 9038
000000f0: 4bef 39b9 719f 7439 d1a4 d239 5eb2 f038

autoencoders.0.encoder.cells.0.bias_h_2 f4 [8]
0.0 0.0 0.0 0.0 0.0 0.0 0.0 0.0
00000000: 0000 0000 0000 0000 0000 0000 0000 0000
00000010: 0000 0000 0000 0000 0000 0000 0000 0000

autoencoders.0.encoder.cells.0.lstm.weight_ih f4 [32, 1]
0.00029036598 0.00015872953 -0.00036139862 7.7856326e-05 7.395295e-05 4.5161214e-05 0.00016942105 -1.2906485e-06
-0.0001359687 8.988304e-05 -0.00016180928 0.0001428294 0.0004719719 -9.765927e-05 5.9905815e-05 1.7209199e-05
-3.1652587e-05 -0.00014690807 5.674325e-05 -0.00019351691 0.00031167458 -0.00015705585 -0.0002093819 0.00014074123
-7.43799e-05 9.857595e-06 -0.0002122876 -0.00017896613 -3.213145e-05 -0.00014811772 7.6546676e-05 5.3427728e-05
00000000: 433c 9839 a270 2639 1a7a bdb9 cc46 a338
00000010: 3017 9b38 7c6b 3d38 9ea6 3139 583a adb5
00000020: d292 0eb9 977f bc38 59ab 29b9 7ac4 1539
00000030: ff72 f739 6cce ccb8 6143 7b38 795c 9037
00000040: b5c2 04b8 560b 1ab9 9aff 6d38 cdea 4ab9
00000050: 4168 a339 5caf 24b9 878d 5bb9 f093 1339
00000060: 68fc 9bb8 0c62 2537 8599 5eb9 dba8 3bb9
00000070: e2c4 06b8 0c50 1bb9 af87 a038 9617 6038

autoencoders.0.encoder.cells.0.lstm.weight_hh f4 [32, 8]
0.00023804828 9.042577e-05 -0.00012804153 0.00013537107 0.00026221445 2.0458248e-05 -3.405489e-05 3.1263844e-05
-0.00012037045 -0.00010109202 -8.607053e-05 0.00015868421 -0.0004546884 -6.324435e-05 -3.9033246e-05 -0.00013443342
-1.4537606e-07 -5.0490486e-05 -6.9822716e-05 -0.00037456895 -0.00012437094 -0.000108943415 -2.6002173e-05 0.00040101897
8.1961814e-05 0.00012908649 -0.00032151156 -3.5440607e-05 -4.6983336e-05 -0.00015227743 -0.00010004219 -0.00017914115
2.439723e-05 -0.00018428816 0.00015283638 -0.00016965823 -4.4683464e-05 -6.3934995e-06 -0.00015307381 0.000496821
-0.00015614592 7.2831266e-05 -0.00015783342 0.00028773575 0.00030798686 0.0002637502 -9.0918154e-05 0.00011973893
0.00018619515 0.00013073812 -0.0002232592 0.00032662883 0.00042126604 -0.00014339075 5.018739e-05 -9.5338844e-05
-0.00013735911 0.00025989657 -0.00024301645 -0.00011487763 -2.9890447e-05 -5.129788e-06 1.4492321e-05 -0.00021516085
-0.00039521788 2.3777904e-05 0.00017847939 -0.00014819553 0.00012733131 0.00017339684 0.00018576026 -6.292016e-05
0.00013216896 -2.507245e-05 -1.050613e-05 -6.195214e-05 -0.0002329783 -7.3813986e-05 4.0615676e-05 -0.00045069712
-0.00017128554 3.4614663e-05 0.00024136453 -1.1639837e-05 4.7787133e-05 0.00011227946 -0.00019333202 0.00015554224
0.00028584155 -2.9727405e-05 -8.631524e-05 -9.163157e-05 -0.00023501659 -0.00023925466 0.00018384878 -0.00044753784
7.3081274e-06 0.00025400004 0.0002155474 -6.9409e-05 -1.7493023e-05 0.00026720238 5.8253077e-05 0.00018302571
0.00011154553 2.7821954e-05 0.00025127202 -0.00036727265 4.9709734e-06 -2.3799454e-05 -2.3291483e-05 0.00011857666
-0.00032352348 3.746048e-05 -8.947231e-05 0.0001427489 6.552218e-05 -0.00012901328 0.00021754527 0.0002221237
-1.4060224e-06 0.00012886318 -9.512129e-06 -8.707507e-05 -0.00011066188 -5.427308e-05 0.00013617825 -0.00031203628
0.00023433755 1.7178349e-05 0.00044291382 -4.6435664e-05 -9.9142984e-05 5.4456337e-05 5.470533e-05 0.00020620605
4.9705257e-05 -0.00026636096 0.00013797899 -0.000129059 0.000487804 8.040275e-05 0.00028635614 -3.2761325e-06
-8.358908e-06 -0.00017883306 1.0435963e-05 -1.4451432e-05 -8.1960314e-07 0.0003170154 -0.00025229363 -8.851501e-05
-0.000100969235 -0.0001346244 9.4882154e-05 0.0001626032 -1.5703856e-05 3.7361984e-05 -3.5331774e-05 -0.00012192177
-0.00024779726 -6.903583e-05 0.00019105668 -2.941009e-05 -8.814524e-06 0.00013774066 0.00017466795 9.484008e-05
0.00021214814 -0.00014267219 5.9994265e-05 5.9417554e-05 -1.0716868e-05 -3.751113e-05 0.00011783658 0.00013476839
-0.00025014096 -6.1829895e-05 -1.1455141e-05 -1.772468e-05 -6.544654e-05 2.3206172e-05 -9.6130325e-06 -5.430816e-05
1.5144498e-05 -0.00013483975 -6.512747e-05 -0.00016883622 -0.00025680233 -0.00022620558 -0.00023165088 -0.00027320662
-0.00031109346 -8.024418e-05 -0.0001575982 -4.69654e-07 -1.5045828e-05 0.00012897803 2.7520573e-06 4.2752414e-05
0.0001347941 -7.46745e-05 0.0002009623 3.533142e-06 -0.00019568714 3.9334127e-06 -1.0721368e-05 1.6010932e-05
0.00014648802 -0.00010050038 0.00017850411 -3.4080167e-05 -2.7671871e-05 6.6184926e-05 -6.587555e-05 0.00014033237
-0.00019553727 0.00012793188 0.00018041405 2.3213563e-05 -0.0001952227 6.4484586e-05 -2.4004055e-05 -1.405242e-05
-4.2450374e-05 9.235647e-05 -5.875248e-05 0.00020076838 -4.430671e-05 -9.786294e-05 0.00011266303 0.00012658333
0.00014139974 -6.139138e-05 -0.00053070433 -0.00012971053 6.8245434e-05 1.2356472e-05 -0.00014249407 4.6138764e-05
7.851255e-05 -4.1874657e-05 -0.0003128901 -0.0002650287 0.00014659321 8.517468e-06 -0.00010235736 0.00015478341
-4.775592e-05 0.00027408724 0.00032586255 7.0725284e-05 0.00011172974 -0.00042721658 -0.0004705191 0.00027373093
00000000: 999c 7939 f7a2 bd38 e342 06b9 65f2 0d39
00000010: d479 8939 c19d ab37 29d6 0eb8 4c21 0338
00000020: 656f fcb8 5d01 d4b8 c480 b4b8 7864 2639
00000030: 3e63 eeb9 0da2 84b8 a1b7 23b8 b2f6 0cb9
00000040: ab18 1cb4 bfc5 53b8 c96d 92b8 cb61 c4b9
00000050: 9269 02b9 8d78 e4b8 3e1f dab7 db3f d239
00000060: eae2 ab38 645b 0739 8d90 a8b9 10a6 14b8
00000070: f90f 45b8 a9ac 1fb9 becd d1b8 d6d7 3bb9
00000080: a7a8 cc37 7a3d 41b9 b442 2039 49e6 31b9
00000090: 816a 3bb8 be87 d6b6 7082 20b9 183d 023a
000000a0: 1abb 23b9 fdbc 9838 1680 25b9 3ddb 9639
000000b0: 4c79 a139 f447 8a39 50ab beb8 591c fb38
000000c0: 613d 4339 bf16 0939 af1a 6ab9 613f ab39
000000d0: 5fdd dc39 295b 16b9 4d80 5238 a7f0 c7b8
000000e0: 0e08 10b9 ba42 8839 3bd2 7eb9 75ea f0b8
000000f0: 3fbd fab7 8b20 acb6 0b24 7337 cd9c 61b9
00000100: 3f35 cfb9 a976 c737 3226 3b39 ef64 1bb9
00000110: 3d84 0539 dcd1 3539 a4c8 4239 01f4 83b8
00000120: d696 0a39 ad52 d2b7 7c43 30b7 4dec 81b8
00000130: a34b 74b9 95cc 9ab8 c05a 2a38 8b4b ecb9
00000140: 1d9b 33b9 362f 1138 cc16 7d39 b848 43b7
00000150: 0b6f 4838 9377 eb38 2bb9 4ab9 0d19 2339
00000160: 01dd 9539 1e5f f9b7 2404 b5b8 532a c0b8
00000170: c96e 76b9 6fe0 7ab9 88c7 4039 83a3 eab9
00000180: 5638 f536 4f2b 8539 9104 6239 ac8f 91b8
00000190: fbbd 92b7 4c17 8c39 c454 7438 97ea 3f39
000001a0: 8ded e938 3163 e937 29bd 8339 808e c0b9
000001b0: 56cc a636 f0a4 c7b7 1462 c3b7 5cac f838
000001c0: 969e a9b9 e21e 1d38 15a3 bbb8 deae 1539
000001d0: f468 8938 bd47 07b9 dd1c 6439 e0e9 6839
000001e0: 90b6 bcb5 721f 0739 4896 1fb7 129c b6b8
000001f0: 2513 e8b8 47a3 63b8 12cb 0e39 cd98 a3b9
00000200: 82b8 7539 391a 9037 e336 e839 eac3 42b8
00000210: fcea cfb8 0c68 6438 6773 6538 0439 5839
00000220: 9d7a 5038 5da6 8bb9 74ae 1039 0354 07b9
00000230: f2bf ff39 e69d a838 1222 9639 87db 5bb6
00000240: 3d3d 0cb7 2285 3bb9 1f16 2f37 6e74 72b7
00000250: b302 5cb5 1635 a639 4746 84b9 22a1 b9b8
00000260: 72bf d3b8 f629 0db9 78fb c638 7780 2a39
00000270: c6bb 83b7 20b5 1c38 3431 14b8 40b0 ffb8
00000280: c9ea 81b9 54c7 90b8 6356 4839 b0b5 f6b7
00000290: 18e2 13b7 7a6e 1039 1227 3739 e1e4 c638
000002a0: 1574 5e39 469a 15b9 5aa2 7b38 1d37 7938
000002b0: 99cc 33b7 4555 1db8 081f f738 9d50 0d39
000002c0: 5a25 83b9 acaa 81b8 752f 40b7 76af 94b7
000002d0: 5840 89b8 e0aa c237 a947 21b7 f1c8 63b8
000002e0: 2015 7e37 c563 0db9 0b95 88b8 a109 31b9
000002f0: 6da3 86b9 9931 6db9 4fe7 72b9 2c3d 8fb9
00000300: 421a a3b9 c448 a8b8 f240 25b9 c124 fcb4
00000310: 576d 7cb7 473e 0739 fcaf 3836 0e51 3338
00000320: 8457 0d39 919a 9cb8 68b9 5239 eb1a 6d36
00000330: 5e31 4db9 c2fb 8336 eddf 33b7 374f 8637
00000340: 949a 1939 bbc3 d2b8 d52c 3b39 4df1 0eb8
00000350: e420 e8b7 c3cc 8a38 ab26 8ab8 2f26 1339
00000360: 2309 4db9 7425 0639 872d 3d39 bfba c237
00000370: b2b4 4cb9 e63b 8738 515c c9b7 afc2 6bb7
00000380: be0c 32b8 81af c138 ff6c 76b8 5a85 5239
00000390: f8d5 39b8 c43b cdb8 8145 ec38 74bb 0439
000003a0: b444 1439 3fbf 80b8 f71e 0bba e802 08b9
000003b0: fd1e 8f38 a54e 4f37 766a 15b9 1f85 4138
000003c0: 1ba7 a438 92a2 2fb8 660b a4b9 8df3 8ab9
000003d0: d1b6 1939 3fe6 0e37 b0a8 d6b8 5b4d 2239
000003e0: 874d 48b8 5eb3 8f39 88d8 aa39 5952 9438
000003f0: 7350 ea38 0afc dfb9 01b0 f6b9 8b83 8f39

autoencoders.0.encoder.cells.0.lstm.bias_ih f4 [32]
0.0 0.0 0.0 0.0 0.0 0.0 0.0 0.0
0.0 0.0 0.0 0.0 0.0 0.0 0.0 0.0
0.0 0.0 0.0 0.0 0.0 0.0 0.0 0.0
0.0 0.0 0.0 0.0 0.0 0.0 0.0 0.0
00000000: 0000 0000 0000 0000 0000 0000 0000 0000
00000010: 0000 0000 0000 0000 0000 0000 0000 0000
00000020: 0000 0000 0000 0000 0000 0000 0000 0000
00000030: 0000 0000 0000 0000 0000 0000 0000 0000
00000040: 0000 0000 0000 0000 0000 0000 0000 0000
00000050: 0000 0000 0000 0000 0000 0000 0000 0000
00000060: 0000 0000 0000 0000 0000 0000 0000 0000
00000070: 0000 0000 0000 0000 0000 0000 0000 0000

autoencoders.0.encoder.cells.0.lstm.bias_hh f4 [32]
0.0 0.0 0.0 0.0 0.0 0.0 0.0 0.0
0.0 0.0 0.0 0.0 0.0 0.0 0.0 0.0
0.0 0.0 0.0 0.0 0.0 0.0 0.0 0.0
0.0 0.0 0.0 0.0 0.0 0.0 0.0 0.0
00000000: 0000 0000 0000 0000 0000 0000 0000 0000
00000010: 0000 0000 0000 0000 0000 0000 0000 0000
00000020: 0000 0000 0000 0000 0000 0000 0000 0000
00000030: 0000 0000 0000 0000 0000 0000 0000 0000
00000040: 0000 0000 0000 0000 0000 0000 0000 0000
00000050: 0000 0000 0000 0000 0000 0000 0000 0000
00000060: 0000 0000 0000 0000 0000 0000 0000 0000
00000070: 0000 0000 0000 0000 0000 0000 0000 0000

autoencoders.0.decoder.cells.0.weight_h_2 f4 [8, 8]
-0.00016573156 -0.013956785 0.35666445 -0.0002795802 -0.0007395346 -0.23196983 -0.056394324 -0.48466903
6.411e-05 -0.05386255 0.047679666 0.050619025 0.0005183919 0.31562448 0.16950832 -0.0015251122
-0.00032347115 0.17966145 0.34099305 0.16219527 -0.0006930866 -0.30588832 -0.07758448 -0.3330766
-0.0015506026 -0.3024362 -0.24450314 -0.00051281 -0.0009901868 0.23030397 -0.08960907 -0.36577225
3.1317864e-05 -0.09954102 0.0018924464 0.0048144395 -0.00064684916 -0.006615177 -0.35020268 0.06238751
-0.5639301 0.24423759 -0.20403437 0.09383295 0.0017275992 0.37351406 0.14463459 -0.0855137
0.4816806 -0.25935736 -0.5188358 -0.00018234053 -0.4363859 -0.3160751 0.1615771 0.06815635
-0.52950543 -0.00843296 -0.117697276 8.3003826e-05 0.0007213766 0.1587562 -0.25917968 -0.0013234523
00000000: 3ac8 2db9 00ab 64bc b99c b63e 9f94 92b9
00000010: 54dd 41ba 8089 6dbe bcfd 66bd 8a26 f8be
00000020: cb72 8638 fa9e 5cbd c14b 433d e555 4f3d
00000030: b1e4 073a 8899 a13e 9793 2d3e 46e6 c7ba
00000040: 9097 a9b9 2cf9 373e a496 ae3e 8416 263e
00000050: 41b0 35ba 659d 9cbe 9de4 9ebd 0489 aabe
00000060: 973d cbba ebd8 9abe 085f 7abe 196e 06ba
00000070: 28c9 81ba ced4 6b3e f684 b7bd 8046 bbbe
00000080: 4d5b 0338 2adc cbbd f70b f83a 72c2 9d3b
00000090: 5091 29ba 20c4 d8bb c44d b3be 0c8a 7f3d
000000a0: b95d 10bf 6b19 7a3e 63ee 50be 7d2b c03d
000000b0: 9c70 e23a 3c3d bf3e 171b 143e cf21 afbd
000000c0: d79e f63e 7dca 84be 6cd2 04bf aa32 3fb9
000000d0: f96d dfbe 98d4 a1be 7874 253e 8e95 8b3d
000000e0: ab8d 07bf 662a 0abc 450b f1bd 5712 ae38
000000f0: c41a 3d3a fc90 223e 33b3 84be b177 adba

autoencoders.0.decoder.cells.0.bias_h_2 f4 [8]
-0.052235037 -0.05476863 -0.054018162 -0.00021855153 0.0018263658 -0.10315368 -0.04206817 -0.001165749
00000000: 68f4 55bd 1255 60bd 2642 5dbd fb2a 65b9
00000010: ab62 ef3a 3d42 d3bd ac4f 2cbd 0ccc 98ba

autoencoders.0.decoder.cells.0.lstm.weight_ih f4 [32, 1]
0.00086331315 0.38250148 -7.030446e-05 4.983326e-05 2.7289739e-06 0.055068463 0.367851 0.49240494
0.043954384 0.013541718 0.00016537745 0.000112867274 -0.00010391499 -0.00088936544 0.25382903 0.10074605
-0.51432824 0.57924896 -0.9025856 0.082542 -0.15879945 0.7387381 0.17920725 0.23600079
0.4759001 0.5691823 5.8010413e-05 0.00010841284 0.00013795515 0.37004384 0.580668 0.397211
00000000: f74f 623a 3cd7 c33e 6b70 93b8 0e04 5138
00000010: 6a23 3736 788f 613d f756 bc3e 801c fc3e
00000020: 8309 343d 15de 5d3c 2c69 2d39 28b3 ec38
00000030: efec d9b8 4e24 69ba e1f5 813e f253 ce3d
00000040: 04ab 03bf a949 143f da0f 67bf c80b a93d
00000050: 539c 22be f11d 3d3f 1b82 373e 31aa 713e
00000060: 2ea9 f33e eeb5 113f 3550 7338 b35b e338
00000070: 0ea8 1039 6376 bd3e a8a6 143f 3d5f cb3e

autoencoders.0.decoder.cells.0.lstm.weight_hh f4 [32, 8]
7.4582786e-05 -4.9529754e-05 -0.0001533881 0.00028316537 0.0004776054 0.1568454 -0.00016655646 0.00030160588
0.26025593 0.109360084 0.2455738 -0.0001711976 0.00023884393 0.046688583 0.13551901 0.2064887
0.025975328 -3.6803005e-05 0.0007142924 0.1103751 -8.966104e-06 0.010103029 0.00032405407 0.00034310034
-0.00021465159 0.00010170027 0.00010693205 0.00030687632 0.000103010636 -1.04538385e-05 5.4183198e-05 -2.5002422e-05
-2.5654238e-06 -0.00024947565 -7.788922e-05 0.00020858904 -4.368003e-06 -0.00030362606 0.00021479715 -5.01925e-05
0.00029794077 0.3237456 0.31619555 0.0002673969 0.0002732925 0.23306294 0.00026038065 0.42814866
0.0007422833 -0.00061678013 0.00012255792 9.138375e-05 0.0002719334 0.18567263 0.00020946322 0.12088445
-0.00024735907 -0.0017798381 -0.0008227172 -0.0006332555 0.00039179102 -0.0015470628 0.21999715 0.2976922
-0.00012408149 3.7277696e-05 -9.988111e-05 7.4291376e-05 -2.2490129e-05 0.002407928 1.3364899e-05 -0.00013914281
0.00011445664 0.016559524 -0.000996657 -0.0011066408 -0.002259105 0.4627045 -0.1340765 -0.0016563237
-0.0006196965 8.6633176e-05 -0.00088545267 -0.0011779309 -0.0011904795 0.00047368236 -0.0004511336 0.00020092317
-0.00023818089 -3.4008954e-05 -5.896398e-05 -0.00014503593 6.548252e-05 0.0001775413 -6.810838e-05 7.0685004e-05
9.968127e-05 6.104498e-05 0.00012947932 -3.9151864e-06 6.048578e-05 0.00013946509 4.3040513e-05 -5.3911917e-06
0.026934937 0.015398846 0.047979455 -0.0022704252 -0.0015819216 0.019332362 -0.013207524 -0.016637139
0.0005543152 -0.00034004968 -0.023932643 -0.0003867387 0.00035990367 -0.0008484994 -0.00035179735 -0.0004388398
-0.0017491413 0.48439175 -0.0006546657 -0.15472096 -0.0014340857 -0.0015061931 0.05717643 -0.069559686
0.18808939 -0.14750515 -0.08812407 0.08854452 0.0026319255 0.040234063 0.0149930315 0.028078556
-0.03237227 0.21296705 -0.11270065 -0.08334793 0.29048553 0.019300282 -0.3266653 0.27201685
0.00033950538 -0.054346528 0.0030608515 0.2032349 0.3290075 0.0028492499 0.027833 -0.008975971
0.00048061213 0.044473786 6.232489e-05 0.104408026 0.008999319 0.26496282 -6.487904e-05 -0.22001338
0.001931528 0.003874095 0.0027306376 -0.12730664 0.0031871826 0.004378444 0.00431404 0.0036977516
-0.22087257 0.10769692 -0.25614932 -0.17357053 -0.11947818 0.042040512 0.11747386 0.16763048
-0.06709349 0.27078897 -0.029373974 0.05367243 0.3843536 0.094833285 0.22307073 0.00016091435
-0.00061283086 -0.07014242 0.2705284 0.3181085 -0.39259917 0.443931 0.07106995 0.08709035
-0.00013108448 0.00021917817 0.00024293426 2.1261787e-05 0.00050099444 0.18472409 -0.00012180776 -8.9913534e-05
2.7441276e-05 0.2079055 0.09288454 0.05337924 0.00045781044 0.25780913 0.15589276 0.2410245
0.0003728613 0.324883 0.050791882 0.0007018265 0.00062071276 0.027464706 0.018994467 0.0004637999
-9.13733e-05 -0.0002833777 1.94357e-05 -0.00018520755 0.0003136157 0.00044724756 8.940301e-06 4.0516057e-05
3.729524e-05 4.137769e-05 0.00011615271 0.00024568845 -0.0002398435 -0.00018692108 0.00016924 -9.802518e-05
0.0003451267 0.43698144 2.3331035e-05 0.00026556136 0.061506085 0.078584485 0.28119177 0.4824723
0.001090548 0.06950265 7.85361e-05 -0.00038958286 -0.00031700576 0.1350271 -0.0003472862 -0.00034772052
-0.0008477833 0.2997618 -0.0014084098 0.00052825955 -0.00089206424 0.06880244 0.09577136 -0.0006789636
00000000: 5469 9c38 2bbe 4fb8 ced6 20b9 d075 9439
00000010: 1d67 fa39 159c 203e a9a5 2eb9 db20 9e39
00000020: 4440 853e 2ef8 df3d b377 7b3e 8183 33b9
00000030: 2e72 7a39 873c 3f3d 7fc5 0a3e c671 533e
00000040: 36ca d43c ed5c 1ab8 5a3f 3b3a 570c e23d
00000050: 206d 16b7 2d87 253c cde5 a939 26e2 b339
00000060: 1914 61b9 eb47 d538 b540 e038 3ee4 a039
00000070: 6a07 d838 e562 2fb7 c442 6338 4bbc d1b7
00000080: a529 2cb6 0ecc 82b9 7558 a3b8 b2b8 5a39
00000090: dc90 92b6 0030 9fb9 2c3b 6139 c985 52b8
000000a0: ef34 9c39 fcc1 a53e 62e4 a13e 6831 8c39
000000b0: b348 8f39 0da8 6e3e b383 8839 4d36 db3e
000000c0: ca95 423a 6aaf 21ba e482 0039 47a5 bf38
000000d0: 4892 8e39 f720 3e3e 5ba3 5b39 4492 f73d
000000e0: f9af 81b9 7549 e9ba 9eab 57ba 0f01 26ba
000000f0: 4d69 cd39 d0c6 caba ef46 613e 1d6b 983e
00000100: df1b 02b9 9f5a 1c38 4377 d1b8 e1cc 9b38
00000110: 2fa9 bcb7 54ce 1d3b ce39 6037 dde6 11b9
00000120: 7108 f038 d7a7 873c 42a2 82ba b40c 91ba
00000130: 7e0d 14bb 9be7 ec3e 5a4b 09be 0019 d9ba
00000140: 2173 22ba d5ae b538 b91d 68ba cd64 9aba
00000150: dd09 9cba 9258 f839 2086 ecb9 e7ae 5239
00000160: 32c0 79b9 d6a4 0eb8 1750 77b8 c914 18b9
00000170: a953 8938 612a 3a39 68d5 8eb8 b93c 9438
00000180: f90b d138 4605 8038 d7c4 0739 325f 83b6
00000190: 1db2 7d38 603d 1239 6686 3438 fce5 b4b6
000001a0: a8a6 dc3c 714b 7c3c 1b86 443d 6acb 14bb
000001b0: 7b58 cfba e75e 9e3c 5f64 58bc 9c4a 88bc
000001c0: 774f 113a b248 b2b9 640e c4bc 31c3 cab9
000001d0: 74b1 bc39 d56d 5eba 7171 b8b9 1514 e6b9
000001e0: 7143 e5ba 3202 f83e df9d 2bba 2c6f 1ebe
000001f0: eef7 bbba 746b c5ba d531 6a3d 4f75 8ebd
00000200: 819a 403e 970b 17be 647a b4bd d456 b53d
00000210: 627c 2c3b 79cc 243d 55a5 753c 0005 e63c
00000220: c998 04bd 0914 5a3e 99cf e6bd 52b2 aabd
00000230: 85ba 943e a01b 9e3c ad40 a7be cb45 8b3e
00000240: a4ff b139 779a 5ebd 9198 483b cf1c 503e
00000250: ac73 a83e 7bba 3a3b 0802 e43c f30f 13bc
00000260: abfa fb39 252a 363d 6cb4 8238 e0d3 d53d
00000270: e171 133c 35a9 873e ab0f 88b8 304b 61be
00000280: 532b fd3a 87e4 7d3b 7ff4 323b ac5c 02be
00000290: 0de0 503b 0d79 8f3b ca5c 8d3b fa55 723b
000002a0: 6b2c 62be 3490 dc3d 0126 83be 79bc 31be
000002b0: fab0 f4bd ac32 2c3d 2396 f03d 53a7 2b3e
000002c0: 5068 89bd daa4 8a3e b0a1 f0bc 9fd7 5b3d
000002d0: ffc9 c43e f437 c23d a76c 643e 1ebb 2839
000002e0: 62a6 20ba d4a6 8fbd b382 8a3e 1edf a23e
000002f0: c202 c9be ed4a e33e 1f8d 913d 6d5c b23d
00000300: b973 09b9 31d3 6539 2bbc 7e39 575b b237
00000310: 2b55 033a 5028 3d3e 0b73 ffb8 f68f bcb8
00000320: b131 e637 2ee5 543e 403a be3d 31a4 5a3d
00000330: 4706 f039 8fff 833e 5aa2 1f3e 20cf 763e
00000340: 997c c339 1157 a63e 260b 503d c7fa 373a
00000350: 54b7 223a aafd e03c 499a 9b3c 2b2a f339
00000360: ab9f bfb8 5092 94b9 d909 a337 4634 42b9
00000370: c96c a439 8d7c ea39 4dfe 1537 c9ef 2938
00000380: 766d 1c38 f58c 2d38 0397 f338 bfcf 8039
00000390: 807e 7bb9 3f00 44b9 0476 3139 de92 cdb8
000003a0: 1ff2 b439 08bc df3e 04b7 c337 0b3b 8b39
000003b0: ceed 7b3d e7f0 a03d 5ef8 8f3e 9c06 f73e
000003c0: b8f0 8e3a 6857 8e3d bfb3 a438 ed40 ccb9
000003d0: cb33 a6b9 8b44 0a3e f713 b6b9 424e b6b9
000003e0: c63d 5eba 617a 993e 649a b8ba e67a 0a3a
000003f0: 6bd9 69ba 4be8 8c3d c623 c43d 7afc 31ba

autoencoders.0.decoder.cells.0.lstm.bias_ih f4 [32]
0.19369167 0.20597346 0.38671327 6.796393e-05 2.5322197e-05 0.33770034 -5.472869e-05 -0.00051035755
0.0031095278 0.04036635 0.07857854 -0.0001542027 -9.891254e-05 0.120295435 -0.0005716515 -0.0015611443
0.04180659 -0.023813166 0.06486159 0.014831819 0.0033203587 0.012719813 0.044925567 0.011790348
0.14861646 0.22512282 0.3986757 0.00012994756 -5.7928744e-05 0.3558857 0.050835412 -0.00026937027
00000000: 1c57 463e b5ea 523e 48ff c53e db87 8e38
00000010: 016b d437 0fe7 ac3e 7c8c 65b8 84c9 05ba
00000020: 38c9 4b3b 3057 253d c9ed a03d 79b1 21b9
00000030: 446f cfb8 745d f63d e2da 15ba 4f9f ccba
00000040: 633d 2b3d d413 c3bc 27d6 843d 2801 733c
00000050: 609a 593b c366 503c df03 383d 4e2c 413c
00000060: ea2e 183e 9986 663e 391f cc3e 8842 0839
00000070: 84f8 72b8 a736 b63e cb38 503d 443a 8db9

autoencoders.0.decoder.cells.0.lstm.bias_hh f4 [32]
0.19369167 0.20597346 0.38671327 6.796393e-05 2.5322197e-05 0.33770034 -5.472869e-05 -0.00051035755
0.0031095278 0.04036635 0.07857854 -0.0001542027 -9.891254e-05 0.120295435 -0.0005716515 -0.0015611443
0.04180659 -0.023813166 0.06486159 0.014831819 0.0033203587 0.012719813 0.044925567 0.011790348
0.14861646 0.22512282 0.3986757 0.00012994756 -5.7928744e-05 0.3558857 0.050835412 -0.00026937027
00000000: 1c57 463e b5ea 523e 48ff c53e db87 8e38
00000010: 016b d437 0fe7 ac3e 7c8c 65b8 84c9 05ba
00000020: 38c9 4b3b 3057 253d c9ed a03d 79b1 21b9
00000030: 446f cfb8 745d f63d e2da 15ba 4f9f ccba
00000040: 633d 2b3d d413 c3bc 27d6 843d 2801 733c
00000050: 609a 593b c366 503c df03 383d 4e2c 413c
00000060: ea2e 183e 9986 663e 391f cc3e 8842 0839
00000070: 84f8 72b8 a736 b63e cb38 503d 443a 8db9

autoencoders.0.decoder.output_layer.weight f4 [1, 8]
-0.1600517 0.3185952 -0.21598662 0.06989847 -0.036655717 0.2886456 0.27285036 0.21860357
00000000: 98e4 23be e91e a33e 992b 5dbe ee26 8f3d
00000010: 4e24 16bd 5bc9 933e 0bb3 8b3e 9dd9 5f3e

autoencoders.1.encoder.cells.0.weight_h_2 f4 [8, 8]
0.00015650656 9.655958e-05 -0.00016488733 -6.94901e-05 7.508516e-05 9.289067e-05 -8.8779976e-05 -0.00020075408
0.00015674993 -7.817845e-05 -0.000105120715 -0.00029588782 -6.88495e-05 -0.000120625766 0.00042905787 -3.391189e-05
0.0002665578 8.241478e-05 0.00013205715 6.74115e-05 -0.00017399341 -2.3918607e-05 -0.00017644126 -0.000341679
-0.00018165311 -4.3703087e-05 0.00016853641 -0.00012292652 -0.00033324625 -5.6140245e-05 0.00015313995 -0.00030181924
1.0036554e-05 0.00020163537 -0.00034202926 3.4062155e-05 -0.000119491684 -0.00013685427 0.0001888655 4.135136e-05
0.00026963628 -0.00010018244 -1.3349159e-05 -0.00020538071 -0.000215608 8.130221e-05 -0.0002734809 -0.00024333868
-6.13248e-05 -5.4714776e-05 0.00018398528 0.00013423458 4.432781e-06 -1.8834611e-05 0.00013322424 -0.00017078068
0.00020634833 -0.00017915058 -0.00013258861 -0.0001648968 -0.00020262675 -3.165314e-05 -0.00046473398 -0.00020589468
00000000: e91b 2439 0880 ca38 9be5 2cb9 37bb 91b8
00000010: 0a77 9d38 4cce c238 632f bab8 8381 52b9
00000020: 3d5d 2439 bcf3 a3b8 4174 dcb8 6421 9bb9
00000030: 4b63 90b8 77f8 fcb8 2cf3 e039 9d3c 0eb8
00000040: c8c0 8b39 19d6 ac38 d278 0a39 465f 8d38
00000050: 0072 36b9 d1a4 c8b7 1703 39b9 6123 b3b9
00000060: 237a 3eb9 d54d 37b8 26b9 3039 d6e5 00b9
00000070: 8eb7 aeb9 2178 6bb8 3194 2039 7e3d 9eb9
00000080: ac62 2837 156e 5339 6452 b3b9 f6dd 0e38
00000090: 9c97 fab8 8a80 0fb9 320a 4639 af70 2d38
000000a0: f85d 8d39 0a19 d2b8 34f6 5fb7 775b 57b9
000000b0: d514 62b9 cb80 aa38 fc61 8fb9 bb28 7fb9
000000c0: 809b 80b8 8b7d 65b8 2cec 4039 52c1 0c39
000000d0: 4dbd 9436 05ff 9db7 1cb2 0b39 9713 33b9
000000e0: 355f 5839 5eda 3bb9 7c07 0bb9 26e8 2cb9
000000f0: 3478 54b9 4dc3 04b8 8aa7 f3b9 6fe5 57b9

autoencoders.1.encoder.cells.0.bias_h_2 f4 [8]
0.0 0.0 0.0 0.0 0.0 0.0 0.0 0.0
00000000: 0000 0000 0000 0000 0000 0000 0000 0000
00000010: 0000 0000 0000 0000 0000 0000 0000 0000

autoencoders.1.encoder.cells.0.lstm.weight_ih f4 [32, 1]
-0.00015819688 -7.276919e-05 -0.0002806959 -3.2522843e-05 0.00013007162 -4.582588e-05 3.945844e-05 2.2330247e-05
-0.00015021276 5.905663e-05 0.000121780104 -0.00016892413 0.00011915495 -6.31454e-05 -0.00026814762 0.00021608618
0.00027475873 -0.00010041501 -0.00029116104 0.00020049079 8.984938e-06 5.2182102e-05 -0.00021462612 4.605967e-05
-5.1118415e-05 -0.00013045373 -3.4442564e-05 7.4632895e-05 5.41878e-05 6.041094e-05 0.00010536472 0.0001356134
00000000: a7e1 25b9 a99b 98b8 5e2a 93b9 2369 08b8
00000010: d663 0839 2a35 40b8 2d80 2538 d751 bb37
00000020: 6e82 1db9 93b3 7738 3264 ff38 3a21 31b9
00000030: d4e2 f938 ee6c 84b8 2a96 8cb9 3195 6239
00000040: 7e0d 9039 e695 d2b8 f9a6 98b9 d63a 5239
00000050: 04be 1637 1bde 5a38 430d 61b9 3230 4138
00000060: fb67 56b8 68ca 08b9 6c76 10b8 3b84 9c38
00000070: b547 6338 c161 7d38 41f7 dc38 7233 0e39

autoencoders.1.encoder.cells.0.lstm.weight_hh f4 [32, 8]
-2.056706e-05 5.1429943e-05 2.4514078e-05 -0.00016205905 -0.00035399277 -3.4991357e-05 0.00011956071 2.2388773e-05
0.00011661923 0.00018478274 -6.460458e-05 -0.00043572017 -4.493264e-05 -0.00022457703 6.672644e-08 -4.865662e-05
9.756723e-07 -2.3313364e-06 -0.00022392134 -0.00013952686 0.0002487362 -0.00035033902 -0.00022181301 0.00028720344
-0.00010005387 -4.080179e-05 0.00020800185 -0.0001293771 0.000109242814 -0.00028203474 -0.00011995596 -6.278708e-06
0.00012952447 0.00035700767 0.00013946556 8.473003e-05 4.587224e-05 -7.168132e-05 -0.0001845063 0.00012123365
-0.00018422402 -0.00020312554 -0.00015161061 0.00013225288 -4.0777573e-05 0.00013082431 -1.539576e-05 -1.1651359e-05
-0.00016161834 0.00015966367 3.2386765e-07 -0.0001494591 0.00020844322 -4.14823e-05 0.00033069248 0.00028416354
0.00011786729 -1.115545e-05 -3.3246204e-05 3.2717355e-05 0.000106443134 0.00037632536 -0.00013435406 1.20204095e-05
0.00042091816 6.407546e-05 2.5987592e-06 -7.162694e-05 3.9987052e-07 -0.00014993003 0.00024736035 8.046354e-05
-3.411925e-05 -9.281767e-05 0.0001595291 0.00017547025 -3.607318e-05 7.115689e-05 -0.00013049474 3.530343e-05
-0.0001554793 -9.998743e-05 -0.00024044284 -0.00013012756 0.00045281998 -0.0002291586 2.1271308e-05 0.00011655026
-5.7570874e-06 -1.3836326e-05 -0.00017436311 -0.0002447437 0.00013115216 0.00015094141 0.00014266459 -4.0703213e-05
-1.635334e-05 8.497213e-05 -0.00011196782 -0.0001547113 -0.00015663933 0.0003160146 -0.00035765657 -0.00010888117
-0.00017422879 0.00030647416 -2.1942495e-05 -0.000107975255 -5.221971e-05 -0.00014690224 -0.0003189848 2.0334855e-05
-2.2083582e-06 5.2671367e-05 0.000111018475 -0.00017740937 6.4218104e-05 -9.597373e-05 -9.411379e-05 -3.0164223e-05
-3.34937e-05 -0.00013162577 5.945252e-05 0.00016585393 8.324183e-05 -2.51731e-06 0.00012917313 -0.0002145877
-0.00040478885 5.4367152e-05 -0.00028233207 -2.0282978e-05 -8.6228254e-05 6.098911e-05 -7.4075804e-05 -0.00011900461
7.169313e-05 0.00012613068 -0.00013403044 -9.0578884e-05 0.00022468118 8.390791e-06 5.0424675e-05 -0.00016452024
0.00012882617 0.0002709563 -0.00029241975 -2.8895143e-05 5.9337715e-05 -0.0002307044 -1.6488453e-05 5.7614234e-06
0.000109106055 0.0001345308 -5.8390313e-05 0.00013209348 -0.00023843753 0.00041361584 0.00015917017 6.1558276e-05
0.00012736424 -0.00012946218 -2.2810006e-07 -3.2852447e-05 5.591355e-05 -5.7055866e-05 8.22048e-06 0.00012332709
0.00014807105 4.0242558e-05 -5.6384328e-05 -0.00014439126 -0.00015454573 -0.00013571883 4.9120667e-06 0.000116293064
-0.00012946871 -0.0001599362 -1.0000266e-05 -3.794286e-05 7.1332324e-05 -8.815357e-05 0.00018111103 -6.587323e-05
0.00015053575 -1.8420898e-05 -0.00040237381 7.441236e-05 -0.00011532676 -8.551506e-05 -2.5852374e-05 -4.6243567e-05
-2.5220064e-05 -5.4463264e-05 -0.00012522066 -0.00013298455 -0.00024435183 -5.881866e-05 -0.00010284526 0.00012879231
-7.624964e-05 -7.0329064e-05 4.450721e-05 2.2797984e-05 -0.00012740595 1.8944173e-05 5.3812175e-05 -2.2092716e-05
-8.543381e-05 -5.414497e-05 -0.00022318415 2.4981382e-05 -7.9124075e-05 0.000105475294 0.00012925325 0.00014313811
-4.997314e-05 -0.0002171767 -0.00018596154 0.000113208065 -8.842267e-06 -9.8519806e-05 -2.764175e-05 -3.686488e-05
7.4526855e-05 -5.618729e-05 7.2346076e-05 -0.00012188882 -1.9289475e-05 -0.00031720928 -0.00010359362 -8.111029e-05
-8.9925525e-05 -2.2015349e-05 -8.918428e-06 -0.00017525717 -2.574707e-05 4.7824054e-05 0.00023660176 0.00032378247
-0.00012841355 -0.00032907838 0.00016568502 7.494903e-05 -0.00012303103 -0.00010500852 0.0002557739 -0.00011424238
-5.2603235e-05 -0.00024294885 -4.997847e-05 5.625339e-05 -6.524652e-05 7.81601e-05 6.835174e-05 -6.5908903e-06
00000000: 6d87 acb7 7bb6 5738 95a3 cd37 65ee 29b9
00000010: 1b98 b9b9 afc3 12b8 abbc fa38 86cf bb37
00000020: 7991 f438 3dc2 4139 527c 87b8 5f71 e4b9
00000030: 0e76 3cb8 707c 6bb9 404b 8f33 a614 4cb8
00000040: d8f3 8235 0e74 1cb6 6dcc 6ab9 f54d 12b9
00000050: cf68 8239 b5ad b7b9 7a96 68b9 cb93 9639
00000060: 03d4 d1b8 9722 2bb8 121b 5a39 67a9 07b9
00000070: 4a19 e538 10de 93b9 de90 fbb8 b1ad d2b6
00000080: f6d0 0739 c22c bb39 803d 1239 17b1 b138
00000090: f166 4038 9e53 96b8 0878 41b9 d23e fe38
000000a0: 422c 41b9 19fe 54b9 aaf9 1eb9 5dad 0a39
000000b0: 9608 2bb8 e22d 0939 2526 81b7 357a 43b7
000000c0: 1878 29b9 646b 2739 08e0 ad34 1fb8 1cb9
000000d0: 8d91 5a39 48fd 2db8 cb60 ad39 c9fb 9439
000000e0: 852f f738 4b28 3bb7 d771 0bb8 fe39 0938
000000f0: 393a df38 894d c539 65e1 0cb9 44ab 4937
00000100: aeae dc39 4060 8638 5866 2e36 6c36 96b8
00000110: c9ad d634 8936 1db9 25b0 8139 89be a838
00000120: 441b 0fb8 1ba7 c2b8 4447 2739 70fe 3739
00000130: 484d 17b8 103a 9538 6ad5 08b9 c512 1438
00000140: 2808 23b9 58b0 d1b8 621f 7cb9 da72 08b9
00000150: 7868 ed39 4b4a 70b9 c96f b237 726c f438
00000160: 012d c1b6 9122 68b7 3ed5 36b9 f150 80b9
00000170: e485 0939 0746 1e39 3c98 1539 beb8 2ab8
00000180: 882e 89b7 1133 b238 44d0 eab8 003a 22b9
00000190: 8d3f 24b9 c3ae a539 da83 bbb9 2257 e4b8
000001a0: 2fb1 36b9 44ae a039 2611 b8b7 c670 e2b8
000001b0: 7d06 5bb8 c509 1ab9 6a3d a7b9 c594 aa37
000001c0: 4e33 14b6 73eb 5c38 97d2 e838 f706 3ab9
000001d0: d5ac 8638 8145 c9b8 f55e c5b8 2d09 fdb7
000001e0: 967b 0cb8 0605 0ab9 a85c 7938 13e9 2d39
000001f0: 1e92 ae38 0eef 28b6 a672 0739 f202 61b9
00000200: d739 d4b9 4908 6438 f805 94b9 5d25 aab7
00000210: 71d5 b4b8 8fce 7f38 2559 9bb8 1d92 f9b8
00000220: f559 9638 f241 0439 868a 0cb9 2bf5 bdb8
00000230: 6598 6b39 2cc6 0c37 157f 5338 1183 2cb9
00000240: 8315 0739 240f 8e39 ea4f 99b9 d963 f2b7
00000250: 63e1 7838 3ee9 71b9 af50 8ab7 4052 c136
00000260: decf e438 d610 0d39 1fe8 74b8 9382 0a39
00000270: 1605 7ab9 94da d839 ebe6 2639 d918 8138
00000280: 148d 0539 3dc0 07b9 abeb 74b4 0ccb 09b8
00000290: b884 6a38 454f 6fb8 b1ea 0937 5d51 0139
000002a0: 8543 1b39 1eca 2838 367e 6cb8 bc67 17b9
000002b0: 8e0d 22b9 bf4f 0eb9 55d2 a436 5de2 f338
000002c0: fec1 07b9 8cb4 27b9 d1c6 27b7 d624 1fb8
000002d0: 4098 9538 16df b8b8 9fe8 3d39 6c25 8ab8
000002e0: 22d9 1d39 9486 9ab7 b3f5 d2b9 d50d 9c38
000002f0: 95db f1b8 8c56 b3b8 8ddd d8b7 a7f5 41b8
00000300: ad8f d3b7 7c6f 64b8 aa4d 03b9 c571 0bb9
00000310: 591c 80b9 0eb4 76b8 a1ae d7b8 6c0c 0739
00000320: 37e8 9fb8 a17d 93b8 41ad 3a38 4c3e bf37
00000330: 4698 05b9 4dea 9e37 62b4 6138 bf53 b9b7
00000340: ed2a b3b8 b819 63b8 8a06 6ab9 1c8f d137
00000350: 6aef a5b8 9e32 dd38 2888 0739 5817 1639
00000360: 409a 51b8 edb9 63b9 acfe 42b9 1e6a ed38
00000370: 3f59 14b7 6b9c ceb8 35e0 e7b7 5d9f 1ab8
00000380: 4d4b 9c38 a5aa 6bb8 81b8 9738 909e ffb8
00000390: d5cf a1b7 1c4f a6b9 6740 d9b8 c119 aab8
000003a0: 6696 bcb8 9aad b8b7 5ba0 15b7 3dc5 37b9
000003b0: 69fb d7b7 b096 4838 4d18 7839 59c1 a939
000003c0: c0a6 06b9 2788 acb9 bcbb 2d39 f42d 9d38
000003d0: e401 01b9 0538 dcb8 6419 8639 6995 efb8
000003e0: 4ba2 5cb8 16c0 7eb9 f99f 51b8 9ef1 6b38
000003f0: f5d4 88b8 e2e9 a338 1058 8f38 5127 ddb6

autoencoders.1.encoder.cells.0.lstm.bias_ih f4 [32]
0.0 0.0 0.0 0.0 0.0 0.0 0.0 0.0
0.0 0.0 0.0 0.0 0.0 0.0 0.0 0.0
0.0 0.0 0.0 0.0 0.0 0.0 0.0 0.0
0.0 0.0 0.0 0.0 0.0 0.0 0.0 0.0
00000000: 0000 0000 0000 0000 0000 0000 0000 0000
00000010: 0000 0000 0000 0000 0000 0000 0000 0000
00000020: 0000 0000 0000 0000 0000 0000 0000 0000
00000030: 0000 0000 0000 0000 0000 0000 0000 0000
00000040: 0000 0000 0000 0000 0000 0000 0000 0000
00000050: 0000 0000 0000 0000 0000 0000 0000 0000
00000060: 0000 0000 0000 0000 0000 0000 0000 0000
00000070: 0000 0000 0000 0000 0000 0000 0000 0000

autoencoders.1.encoder.cells.0.lstm.bias_hh f4 [32]
0.0 0.0 0.0 0.0 0.0 0.0 0.0 0.0
0.0 0.0 0.0 0.0 0.0 0.0 0.0 0.0
0.0 0.0 0.0 0.0 0.0 0.0 0.0 0.0
0.0 0.0 0.0 0.0 0.0 0.0 0.0 0.0
00000000: 0000 0000 0000 0000 0000 0000 0000 0000
00000010: 0000 0000 0000 0000 0000 0000 0000 0000
00000020: 0000 0000 0000 0000 0000 0000 0000 0000
00000030: 0000 0000 0000 0000 0000 0000 0000 0000
00000040: 0000 0000 0000 0000 0000 0000 0000 0000
00000050: 0000 0000 0000 0000 0000 0000 0000 0000
00000060: 0000 0000 0000 0000 0000 0000 0000 0000
00000070: 0000 0000 0000 0000 0000 0000 0000 0000

autoencoders.1.decoder.cells.0.weight_h_2 f4 [8, 8]
0.061068833 -0.24978757 -0.7166315 0.2648846 -6.50902e-05 -0.0011663315 -0.8315789 0.23963435
-0.061623633 -0.46698022 -6.482057e-05 -0.35303074 -5.309752e-05 0.1592596 0.34018216 0.29490912
0.0025941625 -0.0107908705 -0.012615697 0.026131555 0.00027996264 -0.39660344 0.13245428 -0.035216756
0.15698788 -0.042476375 -0.18937337 -0.07887669 0.106554694 -0.50225157 -0.0039507453 0.22333711
-0.53323454 -0.034285903 0.015118293 -0.39530742 -0.22021632 -0.11854881 -0.033218365 -0.028758466
-0.012427562 -0.06253196 0.0006756157 -0.0717122 -0.00010422689 5.8417565e-05 -0.27074355 0.08005194
-0.40697935 -0.25376096 0.00024237944 0.59464216 -0.00016618133 -0.1241337 -0.1538544 -0.055387404
0.54720205 -0.00060443033 0.0012984165 0.54846144 0.036251333 -0.06485375 -0.00038577834 -0.004751668
00000000: 5023 7a3d 50c8 7fbe 2975 37bf f49e 873e
00000010: 0981 88b8 97df 98ba 5be2 54bf b562 753e
00000020: 1069 7cbd 0818 efbe 47f0 87b8 72c0 b4be
00000030: 07b5 5eb8 f314 233e 5b2c ae3e 54fe 963e
00000040: d302 2a3b 31cc 30bc 12b2 4ebc d811 d63c
00000050: f3c7 9239 9b0f cbbe 18a2 073e 723f 10bd
00000060: 6ec1 203e b5fb 2dbd 18eb 41be 1a8a a1bd
00000070: 5939 da3d 8f93 00bf 4175 81bb 7cb2 643e
00000080: 0f82 08bf 606f 0cbd b8b2 773c bc65 cabe
00000090: 6380 61be b8c9 f2bd fb0f 08bd e096 ebbc
000000a0: f99c 4bbc c210 80bd cd1b 313a d9dd 92bd
000000b0: 6394 dab8 6205 7538 e69e 8abe 46f2 a33d
000000c0: 995f d0be f5ec 81be 3c27 7e39 783a 183f
000000d0: f640 2eb9 cf39 febd 028c 1dbe e7dd 62bd
000000e0: 6f15 0c3f a272 1eba a12f aa3a f867 0c3f
000000f0: 477c 143d 0bd2 84bd 4b42 cab9 e1b3 9bbb

autoencoders.1.decoder.cells.0.bias_h_2 f4 [8]
-0.08963357 -0.09533078 6.818148e-05 -0.06668177 -0.0006339662 -0.031135546 -0.15353313 -0.14157562
00000000: ce91 b7bd c93c c3bd a7fc 8e38 7490 88bd
00000010: c030 26ba f90f ffbc ca37 1dbe 33f9 10be

autoencoders.1.decoder.cells.0.lstm.weight_ih f4 [32, 1]
0.08675657 0.19985746 0.00014015517 -3.575536e-06 0.00010043741 0.06679837 8.8232504e-05 7.284995e-05
0.04427728 0.366754 -0.00019136768 -7.131347e-05 0.0002088187 0.19976309 0.5939078 0.0019803324
0.50825465 0.609911 -0.27927116 -0.37617388 0.3132497 0.37121573 -0.56659836 1.0049073
0.058575384 0.57877874 -8.0928476e-05 0.3403992 -0.00011510852 0.7519455 0.5365195 0.025949579
00000000: 6ead b13d 6fa7 4c3e 9ef6 1239 3ef3 6fb6
00000010: eda1 d238 95cd 883d 7709 b938 05c7 9838
00000020: 185c 353d 2ec7 bb3e dfa9 48b9 218e 95b8
00000030: 58f6 5a39 b28e 4c3e 570a 183f 77c8 013b
00000040: fa1c 023f 2123 1c3f a1fc 8ebe dd99 c0be
00000050: 4462 a03e fd0f be3e 970c 11bf cda0 803f
00000060: beec 6f3d d82a 143f 25b8 a9b8 ce48 ae3e
00000070: 6b66 f1b8 807f 403f 5859 093f 3694 d43c

autoencoders.1.decoder.cells.0.lstm.weight_hh f4 [32, 8]
0.29578897 0.1202424 0.00030675856 0.1897467 -1.5192368e-06 0.0051432718 0.112502486 0.35729256
0.22474618 0.14751294 0.2927948 0.24337181 0.23385113 0.12029359 -0.00012767382 0.06075018
-8.351284e-05 6.539585e-05 0.00013718312 0.00015842072 0.00011219796 0.00012365273 0.00037202492 -0.00012576289
0.36455238 2.3380415e-05 -0.00032358512 0.24496067 0.00026399488 0.07345494 -7.138557e-05 0.00011738504
-3.0957304e-05 -6.3469466e-05 5.7995174e-05 0.00015304667 -5.18321e-05 -6.178039e-05 -0.00014323408 0.00016216695
0.11888735 0.026323238 0.054925315 0.26581028 5.85686e-05 0.10325853 0.0006114666 0.010754197
0.21114478 0.09053242 0.00012530728 0.17091417 0.00061229774 0.31771487 0.022536343 0.00046350862
0.18421511 0.23710023 0.0002193163 0.054138344 0.3152875 0.3922843 0.019371904 0.16908157
0.19882615 0.0005959141 -0.00020119925 0.00030578903 0.059426863 0.28831702 -0.00016965656 0.06029122
0.43612763 0.11475513 -0.0014968055 -0.00068004354 0.046435267 0.32193482 7.627892e-05 0.29615074
5.539043e-06 -0.00012420716 2.7153472e-05 -4.152232e-05 -0.00017355813 2.8842473e-05 0.00030473722 -1.9680254e-05
-0.08341583 -0.00011556306 3.8908138e-07 0.09423949 -0.00013790456 -3.3163116e-05 0.00015573039 0.000416244
-0.00037387613 -2.0073123e-05 0.00018711541 -0.0001305528 -0.00010716475 0.00010936587 3.9426926e-05 -4.127714e-05
0.412527 -0.0007655953 -0.0006624987 -0.0013931835 0.38267192 -0.00120765 0.00027011105 -0.0004814032
-0.0017769445 -0.00022976659 4.97275e-05 -0.0016202831 -0.00025075898 -0.0009016553 -0.00036688126 0.037020463
0.24063984 0.08824362 -0.00023713156 0.15333205 -0.001284648 0.053530063 -0.00070555223 0.14165662
0.07870076 0.57579535 0.19247378 -0.22928077 -0.11646636 -0.0035473334 -0.12519816 0.013072849
-0.37041956 0.07197083 -0.15742329 0.14649431 -0.018521985 0.14194068 0.14782159 0.14339599
0.22065215 0.094024405 0.0005393892 -0.20158672 0.0010506212 0.002121073 0.00036761546 0.0038866634
-0.040416192 0.009093812 0.20347732 0.4492095 -0.053230073 0.0504148 0.10112596 -0.2479093
-0.0009977472 -3.391824e-05 5.0039205e-05 -0.0013463382 0.40019235 -0.0015575398 2.2439184e-05 0.00018553778
0.20996556 -0.0010314691 0.08835589 -0.008398019 -0.002577548 -0.112838306 0.06722978 0.23012678
-0.19129768 0.02007709 0.018108884 0.17236388 0.10285957 -0.041112196 0.21652289 -0.24006514
-0.42574576 0.0022607532 -0.36480343 0.0004188568 0.016440175 0.17884368 0.13802305 -0.021190012
0.36728418 0.45715582 4.75013e-05 0.0003509242 0.024859369 0.038734395 -0.00013983442 0.67090255
0.06913545 0.27463958 0.18725142 1.9636711e-05 0.092219844 0.3154576 -0.0003095463 0.59273577
0.00023059465 8.955827e-05 -0.00010748465 6.707686e-05 -0.00017865555 0.00021286214 -3.8238624e-05 -5.8736347e-05
0.00017951276 0.00013668285 -0.00063686236 -7.341092e-05 0.0003607858 0.25797492 0.037567794 0.15093926
1.8379362e-05 -6.884752e-05 0.0003022441 -3.457719e-05 -1.2169588e-05 9.6797434e-05 8.6476815e-05 -9.26983e-06
-0.00040469438 0.3668056 0.0007550459 -0.0005177052 -0.00027718942 0.025501579 -0.0002700163 0.311646
0.33577654 0.01213061 9.289717e-05 0.0003456573 0.5402281 0.02118074 0.00021353924 0.049738996
0.39273062 0.57036304 0.30673063 0.35900852 0.03934581 0.51299995 0.00012882033 0.04246903
00000000: a771 973e a641 f63d 70d4 a039 f54c 423e
00000010: 94e8 cbb5 e488 a83b b467 e63d 0def b63e
00000020: dd23 663e a20d 173e 33e9 953e 7636 793e
00000030: ac76 6f3e 7c5c f63d 2ee0 05b9 2ed5 783d
00000040: 9d23 afb8 2125 8938 d0d8 0f39 bd1d 2639
00000050: d24b eb38 c7a8 0139 570c c339 38df 03b9
00000060: 9ca6 ba3e 0f21 c437 dca6 a9b9 f8d6 7a3e
00000070: cb68 8a39 8b6f 963d d6b4 95b8 9d2c f638
00000080: 27d8 01b8 e91a 85b8 d83f 7338 277b 2039
00000090: 4b66 59b8 1890 81b8 1b31 16b9 5c0b 2a39
000000a0: 367b f33d d5a3 d73c 5ef9 603d 4918 883e
000000b0: 8ea7 7538 3579 d33d d44a 203a 5f32 303c
000000c0: 5636 583e 1069 b93d eb64 0339 2004 2f3e
000000d0: 9b82 203a 86ab a23e 239e b83c 1303 f339
000000e0: e3a2 3c3e 67ca 723e 45f8 6539 2bc0 5d3d
000000f0: 5d6d a13e 7dd9 c83e d4b1 9e3c b823 2d3e
00000100: 1599 4b3e 1e37 1c3a 03f9 52b9 4f52 a039
00000110: 9569 733d 4a9e 933e d6e5 31b9 edf3 763d
00000120: 1f4c df3e bd04 eb3d 7530 c4ba f344 32ba
00000130: e832 3e3d a4d4 a43e eff7 9f38 12a1 973e
00000140: 04dc b936 9b3d 02b9 a3c7 e337 4028 2eb8
00000150: 28fd 35b9 bdf2 f137 23c5 9f39 0617 a5b7
00000160: ebd5 aabd 725a f2b8 f0e2 d034 a200 c13d
00000170: 799a 10b9 a018 0bb8 8f4b 2339 533b da39
00000180: ce04 c4b9 b462 a8b7 6934 4439 00e5 08b9
00000190: a3bd e0b8 5b5b e538 575e 2538 fe20 2db8
000001a0: bd36 d33e 3bb2 48ba 89ab 2dba 7b9b b6ba
000001b0: 93ed c33e 034a 9eba b19d 8d39 d864 fcb9
000001c0: 5de8 e8ba 80ed 70b9 7f92 5038 ae5f d4ba
000001d0: 4d78 83b9 105d 6cba f859 c0b9 c5a2 173d
000001e0: 4a6a 763e 12b9 b43d 85a6 78b9 1403 1d3e
000001f0: a261 a8ba 5742 5b3d cff4 38ba 6f0e 113e
00000200: dd2d a13d 5367 133f d917 453e 94c8 6abe
00000210: ea85 eebd 617a 68bb f233 00be 812f 563c
00000220: a2a7 bdbe 7165 933d 9233 21be 9b02 163e
00000230: 6bbb 97bc e658 113e 8b5e 173e 66d6 123e
00000240: a3f2 613e de8f c03d cc65 0d3a c06c 4ebe
00000250: ffb4 893a b301 0b3b 83bc c039 64b7 7e3b
00000260: 738b 25bd 36fe 143c 5c5c 503e cafe e53e
00000270: c707 5abd c07f 4e3d 211b cf3d efdb 7dbe
00000280: d7c6 82ba 6f43 0eb8 30e1 5138 9d77 b0ba
00000290: 03e6 cc3e 5d26 ccba c83b bc37 eb8c 4239
000002a0: 3601 573e 5c32 87ba eff3 b43d d897 09bc
000002b0: 14ec 28bb c517 e7bd c4af 893d 5ba6 6b3e
000002c0: 8ae3 43be b678 a43c 1559 943c 2880 303e
000002d0: 0aa8 d23d 4365 28bd 2db8 5d3e a3d3 75be
000002e0: 59fb d9be 2529 143b 84c7 babe 029a db39
000002f0: 8cad 863c cc22 373e ea55 0d3e ad96 adbc
00000300: ac0c bc3e 5410 ea3e 223c 4738 40fc b739
00000310: e0a5 cb3c f5a7 1e3d 84a0 12b9 45c0 2b3f
00000320: e396 8d3d 8f9d 8c3e d6be 3f3e 84b9 a437
00000330: c2dd bc3d a983 a13e 9a4a a2b9 88bd 173f
00000340: c8cb 7139 3bd1 bb38 6269 e1b8 9dab 8c38
00000350: 7c55 3bb9 bf33 5f39 6962 20b8 ac5b 76b8
00000360: 973b 3c39 8652 0f39 1cf3 26ba 30f4 99b8
00000370: da27 bd39 4a15 843e b0e0 193d d28f 1a3e
00000380: 612d 9a37 3b62 90b8 8476 9e39 fa06 11b8
00000390: fc2b 4cb7 baff ca38 e35a b538 9e85 1bb7
000003a0: 292d d4b9 f2cd bb3e 46ee 453a 9cb6 07ba
000003b0: bc53 91b9 b0e8 d03c f990 8db9 1190 9f3e
000003c0: e7ea ab3e 77bf 463c cad1 c238 5639 b539
000003d0: 644c 0a3f 3b83 ad3c 81e9 5f39 1ebb 4b3d
000003e0: fd13 c93e 5003 123f cc0b 9d3e f7cf b73e
000003f0: 1229 213d f753 033f f213 0739 01f4 2d3d

autoencoders.1.decoder.cells.0.lstm.bias_ih f4 [32]
0.23034772 0.28153262 5.441884e-05 0.12629496 -9.037488e-05 0.16662736 0.25829002 0.4246477
0.18681486 0.070407 -0.00028389815 0.087890916 5.4481505e-05 0.017684465 0.07049552 0.14679609
-0.06241677 -0.0486125 0.025379436 0.028412977 -0.0027295337 -0.0045288755 0.10249504 -0.01638402
0.31265494 0.2886629 -0.00012549986 0.14519913 7.876224e-05 0.08067408 0.31153232 0.44024435
00000000: 46e0 6b3e 0b25 903e c93f 6438 7753 013e
00000010: a587 bdb8 5da0 2a3e 973e 843e 6c6b d93e
00000020: 654c 3f3e 8c31 903d 2ad8 94b9 2700 b43d
00000030: 1283 6438 03df 903c f55f 903d b751 163e
00000040: baa8 7fbd e71d 47bd 89e8 cf3c 55c2 e83c
00000050: fae1 32bb f666 94bb ebe8 d13d c837 86bc
00000060: 4f14 a03e a0cb 933e 9d98 03b9 15af 143e
00000070: 282d a538 7438 a53d 2a81 9f3e b567 e13e

autoencoders.1.decoder.cells.0.lstm.bias_hh f4 [32]
0.23034772 0.28153262 5.441884e-05 0.12629496 -9.037488e-05 0.16662736 0.25829002 0.4246477
0.18681486 0.070407 -0.00028389815 0.087890916 5.4481505e-05 0.017684465 0.07049552 0.14679609
-0.06241677 -0.0486125 0.025379436 0.028412977 -0.0027295337 -0.0045288755 0.10249504 -0.01638402
0.31265494 0.2886629 -0.00012549986 0.14519913 7.876224e-05 0.08067408 0.31153232 0.44024435
00000000: 46e0 6b3e 0b25 903e c93f 6438 7753 013e
00000010: a587 bdb8 5da0 2a3e 973e 843e 6c6b d93e
00000020: 654c 3f3e 8c31 903d 2ad8 94b9 2700 b43d
00000030: 1283 6438 03df 903c f55f 903d b751 163e
00000040: baa8 7fbd e71d 47bd 89e8 cf3c 55c2 e83c
00000050: fae1 32bb f666 94bb ebe8 d13d c837 86bc
00000060: 4f14 a03e a0cb 933e 9d98 03b9 15af 143e
00000070: 282d a538 7438 a53d 2a81 9f3e b567 e13e

autoencoders.1.decoder.output_layer.weight f4 [1, 8]
0.30202496 0.38243988 -0.064169504 -0.16847618 0.044750262 0.32736155 -0.30000144 0.24815549
00000000: 04a3 9a3e 29cf c33e 4d6b 83bd 0585 2cbe
00000010: 0d4c 373d ef9b a73e ca99 99be 791c 7e3e

autoencoders.2.encoder.cells.0.weight_h_2 f4 [8, 8]
0.00029192385 6.1634084e-05 -0.00012847278 0.000113164024 -3.4595116e-05 -0.00019116544 -0.00012829674 -7.7013916e-05
-9.289932e-05 0.00016616251 0.00013127747 -8.98345e-05 -3.1681375e-05 9.947154e-05 0.000112954614 0.00011472971
-4.9386467e-06 -6.458165e-05 0.00019604233 -0.00015884383 -0.00019509638 0.00018200706 0.000113197995 0.00026512195
-0.00026209664 -0.00014279743 4.0121642e-05 -0.30935922 3.9142782e-05 8.09346e-05 3.7530157e-05 8.1130434e-05
5.6536624e-06 -0.00041750926 0.000118012234 -0.00015287576 0.00040064706 -6.1897095e-05 -3.887686e-05 0.0001977886
8.672113e-05 8.992807e-05 -0.00018039989 6.633541e-06 0.00021462706 9.1455266e-05 0.0004239531 -3.0174948e-05
-0.00019448623 -0.00033812714 -3.4391916e-05 -5.547944e-05 4.2050865e-06 5.4552533e-05 0.00013374438 -0.00012340455
-0.00013513047 -0.0003133086 0.00023288914 -0.00039193078 0.00011228256 0.00031391383 2.4572344e-05 -7.4274954e-05
00000000: 5b0d 9939 8c41 8138 a6b6 06b9 7952 ed38
00000010: 391a 11b8 9573 48b9 6587 06b9 8882 a1b8
00000020: f1d2 c2b8 e93b 2e39 87a7 0939 8865 bcb8
00000030: 9ee1 04b8 609b d038 0ce2 ec38 0b9b f038
00000040: a7b6 a5b6 0270 87b8 b690 4d39 518f 26b9
00000050: c992 4cb9 26d9 3e39 b664 ed38 1100 8b39
00000060: 046a 89b9 e5bb 15b9 4948 2838 5564 9ebe
00000070: 3e2d 2438 6fbb a938 b369 1d38 9224 aa38
00000080: 97b4 bd36 25e5 dab9 567d f738 464d 20b9
00000090: f00d d239 c0ce 81b8 b60f 23b8 7965 4f39
000000a0: 0dde b538 c497 bc38 ba29 3db9 af95 de36
000000b0: 830d 6139 accb bf38 0646 de39 3520 fdb7
000000c0: 00ef 4bb9 a846 b1b9 0a40 10b8 98b2 68b8
000000d0: 6b19 8d36 56cf 6438 bc3d 0c39 2866 01b9
000000e0: cfb1 0db9 9243 a4b9 b433 7439 0f7c cdb9
000000f0: 3e79 eb38 cd94 a439 b520 ce37 10c4 9bb8

autoencoders.2.encoder.cells.0.bias_h_2 f4 [8]
0.0 0.0 0.0 0.0 0.0 0.0 0.0 0.0
00000000: 0000 0000 0000 0000 0000 0000 0000 0000
00000010: 0000 0000 0000 0000 0000 0000 0000 0000

autoencoders.2.encoder.cells.0.lstm.weight_ih f4 [32, 1]
-0.00012588035 0.0003110135 -2.0303933e-05 0.00016253671 -6.204292e-06 5.6929082e-05 -1.8419094e-05 3.404811e-05
-7.121237e-07 0.00015032105 0.00018609015 0.00020792178 8.720705e-05 -1.5179776e-05 9.034317e-06 -7.1304265e-07
0.00026609586 2.0428435e-05 0.00049416075 6.4156566e-06 0.00039000643 0.00011266412 -0.0001532106 1.1138612e-05
0.00012680178 -0.0004712857 -0.00019022012 0.00013994025 0.00012195311 2.5036574e-05 -0.00011999059 0.0002496429
00000000: c0fe 03b9 860f a339 5d52 aab7 9e6e 2a39
00000010: 762e d0b6 23c7 6e38 b482 9ab7 e1ce 0e38
00000020: c528 3fb5 809f 1d39 3221 4339 9405 5a39
00000030: eee2 b638 a4ac 7eb7 1992 1737 eb67 3fb5
00000040: c882 8b39 bb5d ab37 918a 013a 1246 d736
00000050: c779 cc39 1746 ec38 28a7 20b9 f9df 3a37
00000060: 18f6 0439 e516 f7b9 d375 47b9 edbc 1239
00000070: 14c1 ff38 a205 d237 75a3 fbb8 81e2 8239
