results/H6_Attention/machine_temperature_system_failure/ensemble_autoencoder_weights.pth (torch, 101734 bytes, 150 tensors)

autoencoders.0.encoder.cells.0.weight_h_2 f4 [8, 8]
00000000: 0ac1 d73e 69bd deb9 d4ae d538 b2dc 87b8
00000010: 8fa6 0bba 64c1 15bf 56a6 0cbc 96e0 8dbe
00000020: bf7b 56bf 7114 febd 7236 363e e2a8 0bbf
00000030: a2cd 96bd 46be 613e 3ee5 583e e6af 703e
00000040: 3040 0ebe 4539 90b9 c509 ec3e 9168 903d
00000050: 82c0 0139 e623 ebbb e6cd 5f3e 8f38 833e
00000060: 844b eb3d d7d9 043d 6a47 933e 132c 7b3c
00000070: fe49 9cbe 5b38 d7be a754 8cbe 66e3 7bb9
00000080: bae0 193f d9be af39 4cc9 3b3f d637 a3bc
00000090: 7597 f93e 2ec6 9b3b 2cd7 bc3e c092 033c
000000a0: d450 6b3e d9d4 66b9 0b13 513e 968d c33e
000000b0: fecd a0bd 8d42 3f3d a8c3 d1bc 32df 80be
000000c0: 2a9e 2839 1db5 49ba 6d2c 333c f49f 42be
000000d0: 0b14 bd3d 77bd 963e 3246 143d 96fd 4dbe
000000e0: ee22 e8b6 348d fc3b c15d 6b39 45fe 11bf
000000f0: 37ac c23e de34 d9be e0f4 9d3e e127 9339
0.42139465 -0.0004248426 0.00010189196 -6.478409e-05 -0.00053272484 -0.58498216 -0.008584579 -0.27710408
-0.8378257 -0.12406243 0.17794207 -0.5455457 -0.0736344 0.2204524 0.21181199 0.235046
-0.13891673 -0.0002750849 0.46101204 0.070511945 0.00012374113 -0.0071759103 0.21855888 0.25629088
0.11489013 0.03243431 0.28765422 0.015330332 -0.30525202 -0.42035183 -0.27408335 -0.00024021938
0.6010853 0.00033520794 0.7335403 -0.019924086 0.48748365 0.0047538495 0.36882913 0.008030593
0.22980052 -0.00022013801 0.2041742 0.3819396 -0.0785179 0.046694327 -0.025605991 -0.25170285
0.00016080649 -0.00076945295 0.010935885 -0.1900633 0.092323385 0.29441425 0.036199756 -0.20116267
-6.918205e-06 0.0077072624 0.00022446272 -0.5702861 0.38022014 -0.42423147 0.30850887 0.00028067737

autoencoders.0.encoder.cells.0.bias_h_2 f4 [8]
00000000: d6b8 2ebd 32a9 ddb8 428b 8abc c31d eabc
00000010: 983d 8f38 4dd4 d5bc d288 31bd cc39 13b9
-0.042656742 -0.00010569616 -0.016912106 -0.028578645 6.830244e-05 -0.02610221 -0.043343373 -0.00014040543

autoencoders.0.encoder.cells.0.lstm.weight_ih f4 [32, 1]
00000000: dc5e 1d3e 26e3 f538 abb8 41b8 9f2f 573e
00000010: be06 d83a eff0 ee3e af2b 093f 2479 943d
00000020: 4e93 723c d57a 5c38 dd44 0ebe 80a2 f039
00000030: 15fe 493f 4268 993d 69d3 0d3e ce9e ac3e
00000040: c3d8 b1be 8b58 03be 90db 163e 0b88 76be
00000050: 263c 813e 2c37 053d 915d c2be 5b46 233d
00000060: 95a4 8d3d 6ff6 a739 1931 9337 5683 d5bc
00000070: b6e5 eb3e 79e2 103f 6bc2 8c3d 6165 213e
0.15368217 0.0001172482 -4.618677e-05 0.2101426 0.0016481502 0.46668193 0.5358228 0.07249668
0.014805628 5.2566484e-05 -0.13893457 0.0004589744 0.78903323 0.07490589 0.13850178 0.33714908
-0.3473569 -0.12826745 0.14732194 -0.24075334 0.25241202 0.03252332 -0.3796201 0.039862018
0.06916157 0.0003203633 1.7546628e-05 -0.026063602 0.46073693 0.5659557 0.0687302 0.15761329

autoencoders.0.encoder.cells.0.lstm.weight_hh f4 [32, 8]
00000000: e439 b0bd 6b80 71be 3754 1e3e 1f18 cab9
00000010: 8984 ee39 4bd4 14bc bc54 a9bc f9ea 513d
00000020: d738 1a38 969a 1338 34cb 6b39 483f 8cb8
00000030: c412 8d38 451e cfb7 5ebc b7b9 ea8b 3638
00000040: ad6b 8cb8 b374 4c38 c177 a23e 5ea7 413c
00000050: a7b7 c3b7 edfe 23b8 de49 83b7 db28 a438
00000060: c295 a73d 33c6 8db9 4cdf f5b8 ae7d 3439
00000070: c5c2 163a e6ba 7639 6b16 a838 4083 85b9
00000080: e616 c8b7 6aba b8b9 d2c2 cab9 0f12 66b8
00000090: 1f38 cfb8 f050 1fb9 aeea 20b9 9b5a 23ba
000000a0: 3e68 88b8 b3cc 61ba bdcb 25ba b0c8 1f39
000000b0: 04ec 393d ff47 9f39 1ab4 05b9 dc2b 2eba
000000c0: 541a 9bb8 9dee 783a 563e bb3e f27f 243e
000000d0: 276c e43a 2d61 b539 9ea2 2eba 415b d23b
000000e0: 37d4 06b8 4160 3139 dd89 99b8 9e87 cfb8
000000f0: 08d5 58b7 665d bcb7 6701 32b9 71f8 4839
00000100: 0f6d 493e 0120 03be 5e33 893b efa4 ecb9
00000110: 262f 38be 1051 90b9 c8fb f83d b138 723a
00000120: 0b1e 00b9 ad25 fbb8 44f0 3b35 df24 6337
00000130: 5894 2cb9 3cd5 98b9 7b19 3f39 3492 a1b7
00000140: 75df 8f37 3f24 89bd e268 c73d 8451 233d
00000150: 1ccc 6438 b1bf 2e39 bf99 25be 212a ccb8
00000160: 1574 d9b7 1897 91b9 0d1e 72bd 274f 1a39
00000170: 0847 d03c ee5d 3fb9 8221 91b8 9c92 1cba
00000180: 9284 a039 0c91 50b9 8253 093a 12e5 7ab9
00000190: 05ee 543e 22a7 8b39 2b1d 043d 1c3d 573e
000001a0: e799 d138 29c9 1eba 02d4 dcb9 6fed dab9
000001b0: 253e 0739 8002 e2b9 6f1d 88b8 86e1 50ba
000001c0: cb57 6e3a 9d7c 943e d99f 593c 7061 3e3a
000001d0: 639e b63e d4a7 c93a 2ee6 f6bd 65b1 903e
000001e0: ab6b 3a38 77d0 6239 6740 63bd e03e 19b9
000001f0: cf36 4538 1c3e a838 71a1 c238 afc4 3fb9
00000200: a9c8 edbe 6a5e b4be 7aa4 a13e 7eee 54be
00000210: 102e 613c 2320 9f3d 582d 4dbe aac5 2cbe
00000220: 5265 4dbe e9cd bcbc c6d1 a33e 0f7d ff3c
00000230: ed3c 4c3e 38e4 babd 043e 2cbe 4b67 8f3a
00000240: e551 783e eb5b 9ebd 0ffe ce38 e6bf d23d
00000250: 1279 43be 2b8d cd3e 45fb 7a3d 837b b0bd
00000260: f18e e43d e320 6a3e e4ef e2bc e8ba 123e
00000270: 5587 3dbe 8114 833e cac7 433e e13d 13bd
00000280: 97fb 7db8 582b 2b3e 6f03 39be ec8c 183e
00000290: 64c4 853e a85a 08bd 6f10 b0bd c1a3 1a3e
000002a0: 0c93 de3d dad8 e63d 3f1f 0cbe efe1 a8be
000002b0: 74d2 3dbe efca ea3d 8391 c4bb 1368 9ebe
000002c0: 237e c83d 1fe0 c23d 737c 033b aaeb b43d
000002d0: 1985 3abd d297 943e fce3 ecbc ece6 eabd
000002e0: 80ae dfbe 40e3 c93d d807 ad3e 1ad8 b1be
000002f0: 6ab5 833e d077 6bbd 9982 f2be 9af4 5338
00000300: 15d7 e2bc b700 88bd 81fc d93c 9067 80b9
00000310: 5254 a63d 1dc1 4f3e b595 10ba 67c5 203e
00000320: c0e6 66b9 141f 50b9 4d95 5538 12b2 1a37
00000330: e0a5 173a e1a1 49b7 8dcb 5939 e0c4 5fb9
00000340: 495c 353e 95bc d037 bcf1 7fbe 2ed4 fe37
00000350: ce41 1e3e 7893 ce38 00af dfbe 54e7 32b8
00000360: b3eb 9736 598f cbb9 e800 15b9 86bf 6e3d
00000370: c7bf ed3e 5ddf 34be 5d3c 4237 303c 60b9
00000380: 968c ef39 a85f dbb9 d8b5 3f39 d82d 11ba
00000390: 1a0d 8f3c 21f5 8439 2ae8 f238 b1a2 f53d
000003a0: 0e0f 10ba fb94 5bba 4672 fdb9 bde1 20ba
000003b0: 8bb5 62b9 0828 4638 ff31 01ba befb 29ba
000003c0: 867c 4939 b30d af3e 3107 de3d b1cb 033a
000003d0: 0526 133f 3b3d 8a3a 40d5 45ba 9cfd b83c
000003e0: 96cd ccb6 a8c1 f636 b24e 8c39 1cc9 c2b8
000003f0: f50e c3b8 b7e6 14b9 8c7e 93b8 f081 a239
-0.08604792 -0.23584144 0.15461813 -0.00038546414 0.00045493644 -0.009083818 -0.020670287 0.051249478
3.6769397e-05 3.51915e-05 0.00022487045 -6.687507e-05 6.726899e-05 -2.4690418e-05 -0.00035044824 4.3522487e-05
-6.6957764e-05 4.8746075e-05 0.3173199 0.011819689 -2.3331331e-05 -3.9099647e-05 -1.5650814e-05 7.827739e-05
0.08182861 -0.00027041286 -0.00011724103 0.00017212957 0.0005751069 0.00023530013 8.01504e-05 -0.00025465526
-2.385252e-05 -0.00035234104 -0.00038673595 -5.485309e-05 -9.8809825e-05 -0.00015193573 -0.00015346214 -0.0006231458
-6.504402e-05 -0.00086135714 -0.000632461 0.00015238184 0.045391098 0.00030380485 -0.00012750961 -0.0006644109
-7.39588e-05 0.00094960054 0.36570996 0.16064432 0.0017427251 0.00034595412 -0.0006661805 0.0064195697
-3.214573e-05 0.00016915893 -7.3212876e-05 -9.89579e-05 -1.29242035e-05 -2.2454838e-05 -0.00016975925 0.00019166038
0.19670509 -0.12805177 0.0041870316 -0.00045136313 -0.17986736 -0.00027526217 0.121573985 0.0009240015
-0.00012218223 -0.0001197563 7.001256e-07 1.3538839e-05 -0.0001645846 -0.0002915057 0.00018224672 -1.9260777e-05
1.7150984e-05 -0.066963665 0.09736802 0.03987266 5.4549528e-05 0.00016665344 -0.1617193 -9.735325e-05
-2.592247e-05 -0.0002776913 -0.05911069 0.00014716071 0.025424495 -0.00018250171 -6.92038e-05 -0.0005972774
0.0003061635 -0.0001989046 0.0005238579 -0.00023927193 0.20793922 0.0002663667 0.03225438 0.21019405
9.994563e-05 -0.0006057197 -0.00042119628 -0.00041757102 0.00012897754 -0.00043107942 -6.490468e-05 -0.0007968176
0.00090920617 0.29001322 0.01328274 0.0007262444 0.35667714 0.00153851 -0.12055622 0.2826034
4.444613e-05 0.00021630699 -0.05548134 -0.0001461464 4.7019505e-05 8.022433e-05 9.280712e-05 -0.0001828845
-0.46442154 -0.35228282 0.31570798 -0.20794103 0.013743892 0.077698015 -0.20036829 -0.16872278
-0.20058182 -0.023047404 0.31995982 0.031187562 0.19945116 -0.091255605 -0.16820532 0.0010940818
0.2424999 -0.07732376 9.8701676e-05 0.10290508 -0.19089153 0.40146765 0.061274786 -0.08617308
0.111600764 0.22864108 -0.02770228 0.14329112 -0.18508656 0.2560158 0.19119182 -0.035947684
-6.055421e-05 0.16715753 -0.18067716 0.14897507 0.26126397 -0.03328958 -0.085968845 0.1510153
0.10867891 0.1127183 -0.13683794 -0.32984874 -0.18537313 0.11464488 -0.0059987917 -0.30938777
0.09789684 0.09515404 0.0020063191 0.08834012 -0.045537088 0.2902208 -0.028917305 -0.11469826
-0.4368782 0.098577976 0.33795047 -0.34735185 0.25724345 -0.05748731 -0.47365263 5.0534123e-05
-0.02769045 -0.06640761 0.026609661 -0.00024491223 0.081215516 0.2028851 -0.0005515472 0.15700303
-0.0002202047 -0.00019848003 5.0922205e-05 9.2205755e-06 0.000578491 -1.2018224e-05 0.00020770561 -0.00021340279
0.17710985 2.4883348e-05 -0.24994558 3.0377963e-05 0.1545479 9.850314e-05 -0.43688202 -4.265395e-05
4.5275897e-06 -0.0003882598 -0.00014210085 0.05828812 0.46435377 -0.17663331 1.15773555e-05 -0.00021384726
0.00045690377 -0.00041842205 0.00018282922 -0.0005538142 0.017462302 0.00025359637 0.00011582703 0.119939215
-0.00054954074 -0.0008376387 -0.0004834106 -0.0006137153 -0.0002162067 4.724416e-05 -0.00049284095 -0.0006484351
0.00019215242 0.3419014 0.108412154 0.0005027606 0.5747989 0.0010546813 -0.00075467303 0.022581868
-6.103607e-06 7.353916e-06 0.00026761513 -9.2881004e-05 -9.3011105e-05 -0.00014200328 -7.0330774e-05 0.0003099586

autoencoders.0.encoder.cells.0.lstm.bias_ih f4 [32]
00000000: 4560 2d3d e7b3 7ab9 4420 26b8 7bbb 0e3a
00000010: f36e 483a c75d f0b9 0f33 813d f957 84b9
00000020: 41a0 3f3d ec01 17ba 0bc1 6f36 98df bc3a
00000030: 70d4 343a 91eb 40b9 ad6e 313e 9c13 04b9
00000040: 09c2 11bd 369e 113d 0182 23bd 946f 12bd
00000050: 0981 a9b8 dc1d 5cbd 718c 1cbb 3b11 a43b
00000060: 4925 733d c58e 6fb9 65b9 07bb f037 873a
00000070: c0e4 7b3a 8b10 48b9 8eb2 2a3e a0f6 85b9
0.042328138 -0.00023908877 -3.9607534e-05 0.0005444807 0.0007645927 -0.00045846237 0.06308567 -0.00025242547
0.04678369 -0.0005760479 3.572614e-06 0.0014409898 0.0006898111 -0.00018398302 0.17327376 -0.00012595806
-0.035585437 0.035551272 -0.039918903 -0.03575094 -8.082583e-05 -0.053739414 -0.002388742 0.005006937
0.05936173 -0.00022846002 -0.002070987 0.0010316353 0.00096089765 -0.00019079649 0.16669676 -0.00025551487

autoencoders.0.encoder.cells.0.lstm.bias_hh f4 [32]
00000000: 4560 2d3d e7b3 7ab9 4420 26b8 7bbb 0e3a
00000010: f36e 483a c75d f0b9 0f33 813d f957 84b9
00000020: 41a0 3f3d ec01 17ba 0bc1 6f36 98df bc3a
00000030: 70d4 343a 91eb 40b9 ad6e 313e 9c13 04b9
00000040: 09c2 11bd 369e 113d 0182 23bd 946f 12bd
00000050: 0981 a9b8 dc1d 5cbd 718c 1cbb 3b11 a43b
00000060: 4925 733d c58e 6fb9 65b9 07bb f037 873a
00000070: c0e4 7b3a 8b10 48b9 8eb2 2a3e a0f6 85b9
0.042328138 -0.00023908877 -3.9607534e-05 0.0005444807 0.0007645927 -0.00045846237 0.06308567 -0.00025242547
0.04678369 -0.0005760479 3.572614e-06 0.0014409898 0.0006898111 -0.00018398302 0.17327376 -0.00012595806
-0.035585437 0.035551272 -0.039918903 -0.03575094 -8.082583e-05 -0.053739414 -0.002388742 0.005006937
0.05936173 -0.00022846002 -0.002070987 0.0010316353 0.00096089765 -0.00019079649 0.16669676 -0.00025551487

autoencoders.0.decoder.cells.0.weight_h_2 f4 [8, 8]
00000000: 8840 5dba b682 133e 7531 b63e e93d b838
00000010: 5031 19ba 3faa dbb7 195c 6836 af27 d5be
00000020: 871c cf3c f2bb abbd 2c53 673e a661 4e3e
00000030: 182b 843e 9fd2 cc3e 1fe3 563e 328f 4039
00000040: a093 e338 39aa d73e d09f 9a3e c930 023f
00000050: 3ef0 e9bc c14a febc edd4 6d3d d2c5 78be
00000060: e210 9338 cb09 76be 645b 25be b7af 7fbd
00000070: a5a3 15ba d5cd dc3e 732b 3dbd 4b41 bfbe
00000080: d8a4 203d aecd 27bc 10f0 403d 0504 a73e
00000090: dd83 34ba fe43 1f3e 6243 9abe 39fc 443e
000000a0: 05c1 e2be 5fed 5c3e b52f a6bc 3968 053e
000000b0: ca6c fabd 91f2 b63e aadd e83d 23ef 5cbe
000000c0: b5f3 183f 993f 67be b567 c9be a05d bfb8
000000d0: 150f 15bf 8fde 6ebe 2f2c 8c3e cf45 bd3d
000000e0: c6e3 efbe 2055 103b 7686 623a 8e7b 43b9
000000f0: 6d00 c2bd 62f6 973e 4699 88be 71e8 1b38
-0.0008440097 0.14405331 0.35584608 8.7853354e-05 -0.0005843835 -2.6186111e-05 3.4624302e-06 -0.4163184
0.025282158 -0.08385457 0.22590321 0.20154437 0.25814128 0.4000444 0.20985077 0.00018363891
0.00010851701 0.42122057 0.30200052 0.5085569 -0.02855694 -0.031041505 0.05806439 -0.24294212
7.012651e-05 -0.24027173 -0.16148144 -0.062423434 -0.0005708284 0.43125787 -0.046184015 -0.37354502
0.039219707 -0.010241909 0.04710394 0.32620254 -0.0006886104 0.1555328 -0.30129534 0.1923684
-0.44287887 0.21574925 -0.02028642 0.13028039 -0.12227781 0.35731938 0.11370404 -0.21575598
0.5974687 -0.22582854 -0.39336935 -9.125029e-05 -0.5822614 -0.23327087 0.2737746 0.092418306
-0.46853465 0.0022023395 0.0008641252 -0.00018642677 -0.094727375 0.29680163 -0.26679438 3.7171358e-05

autoencoders.0.decoder.cells.0.bias_h_2 f4 [8]
00000000: a7f6 83bc b740 d33c a647 bd38 5cf5 383c
00000010: ce6d 5db9 ef59 073c 7c98 003d b44c cd3c
-0.016108824 0.025787694 9.025568e-05 0.011288967 -0.00021117108 0.008261188 0.03139542 0.025060989

autoencoders.0.decoder.cells.0.lstm.weight_ih f4 [32, 1]
00000000: aa9f 82b9 0719 703e e47d 7037 0dd8 a139
00000010: 58cb 1b3a a9c7 e53a 4ff3 d93d 769b 7e3e
00000020: e4c9 32b9 c7f4 e2bd a7b0 b9bb b3e6 91b8
00000030: b610 1cb9 472a 6939 007e ae38 aa45 3d39
00000040: 679a 02be 1aa2 713e 071b 5fbe 1483 473b
00000050: ee19 bbba a20b c23e 0625 b43a 34ba 553c
00000060: d8f6 8f3e 4f56 ca3e 5520 c8bd b13d 6db9
00000070: 2b7e b8b9 1760 c23d 220f 223e 35f9 053e
-0.0002491449 0.23447047 1.4334426e-05 0.00030869283 0.00059430813 0.0017530817 0.106421106 0.24863991
-0.00017050613 -0.11081844 -0.0056668106 -6.95711e-05 -0.00014883545 0.00022236361 8.320436e-05 0.00018050396
-0.12754212 0.23596993 -0.21787654 0.003044312 -0.0014274695 0.378995 0.0013743944 0.013044883
0.28118014 0.39518973 -0.09771792 -0.00022625063 -0.00035189217 0.09490984 0.15826085 0.13083346

autoencoders.0.decoder.cells.0.lstm.weight_hh f4 [32, 8]
00000000: 32dc 5339 f680 a536 e2d0 1738 8f11 cf38
00000010: 25e8 ecb8 21e7 8139 df7b a4b8 ccff f9b9
00000020: 3f22 b93e 43b4 f137 928d 9a3e 42d2 51be
00000030: 31ff 22b9 0d6b 0539 f238 2bb8 dc08 f33d
00000040: 517b b9b9 bd68 deb8 7fca 1f39 aede 37b9
00000050: bc18 81b9 9304 2ab9 bbac 3fb8 9820 55b8
00000060: 8007 d5b8 0cd2 aeb8 a995 8eb9 ca63 9539
00000070: d5bf aa36 392e a437 da87 5237 4179 3cb8
00000080: 3be4 3db9 5290 33b8 532c 5cb9 819f 36b8
00000090: 7abb 81b9 a138 f5b7 fa09 1e37 0c66 c1b7
000000a0: f1df 7f39 9e91 e73d 9cff af39 a36f e5bd
000000b0: 509f 6639 50fa 8a3c efb6 c3bd 9cb5 5b3e
000000c0: 6b45 ca38 a3d6 3c3d 037f ebb9 6cd0 13be
000000d0: 3a98 b7b9 e51e 2c3d 72d5 b4b9 35c8 6e3e
000000e0: c4cb d0b9 74a4 b5bb 1c68 c1b8 8fcb f6b9
000000f0: 078b 25ba f5f7 b13a 556d 923e 2476 d03e
00000100: 0b86 05b8 7c55 68b8 07b5 403e 8e22 9ab8
00000110: 4359 0c39 bc0a 77b9 aa75 ad38 cbbb f8b7
00000120: dc18 1ab9 03c2 cd37 1ac2 1b3d 1b52 09be
00000130: 1afa 473d d682 c53e 829a 89be 5004 a9b8
00000140: 0899 fe38 4839 a6b8 3c1e 3d38 6cc0 2838
00000150: 78ab 21b9 52a1 4439 9616 2639 bb44 15b8
00000160: dbed f338 c116 c8b6 480a 2638 434f b639
00000170: 3952 53b9 c0b0 8bb8 3f06 003a 645b 3db8
00000180: 2955 7cb9 1dcf 4838 643d 7f39 111e 86b8
00000190: a174 dd38 7792 a2b8 be49 13b7 8285 9f37
000001a0: 0c9c 6aba a5b5 4eb9 5f59 58ba 5ae6 97b9
000001b0: e901 89ba 350b 90b8 9c48 cdb9 bd90 9fb9
000001c0: 774f c3ba 58c8 05ba fc1a 54bd 9177 bbb9
000001d0: 6038 13bb cdfd 803a 68ea 90b9 a2d0 09ba
000001e0: 7f95 e6b8 bd15 103f dfd7 ec3d a064 5abe
000001f0: a376 a1b9 e4c6 dab8 39fa 063e 88b6 11be
00000200: df8f a23d 6831 62be d25c 7abe 6dd9 b93b
00000210: 26fa 90bd 6e67 ad3c 11c0 91ba 93ad 5139
00000220: dec5 b8b9 b1f5 913e 7c63 2ebc c3e7 14bd
00000230: b045 c73e 9e6a 3b3d b3fb 92be 9106 b73e
00000240: 031a 9338 cd1e 11be ec59 72bd a851 223d
00000250: af0a e63d efd3 6fbc 65ef 8737 722d acbd
00000260: 5de6 2b3e 32a3 b03b 0d61 1539 1cde 423e
00000270: f775 7d3e 3837 d63d e841 a6b7 721b d0be
00000280: 4465 dab9 1858 7fbc 5e11 00ba ad27 acbe
00000290: aa35 9db9 045d 7bbd bd26 683d 731e df38
000002a0: a446 61be 1973 ae3d 3117 4bbe 8447 59be
000002b0: 4f41 49bd ffd7 a3ba b12c 9c3d b3b0 283e
000002c0: ff61 1bbd 4cbe 7f3e ad1a 9eb8 8cc1 bb3d
000002d0: e1ce 0a3f 60d3 9a39 50c6 6a3e 46c2 5bbd
000002e0: 24d9 3e3d fd5b cfbd 66a6 c73e 1c9e ba3e
000002f0: dba8 c0be 2f4c de3e f550 c13d 642a 123e
00000300: 3a98 c538 95bc c0b9 6d38 91b7 2548 1039
00000310: 8d77 1c38 d38a bfb8 d834 1939 ee4b fcbd
00000320: 43ab 3e3d 1d60 2b3d f1db 3e3e 9a66 4339
00000330: 7720 1e3d 21ab 593d 06a3 4cb8 492c ba3d
00000340: ac32 6537 e97e df38 800a dfb8 5cae f1b8
00000350: 4aa7 b439 b4e0 fe38 43de 0539 c845 eab8
00000360: 0544 64b9 8336 1db9 8c04 1738 907e a1b9
00000370: b962 b0b8 a150 eb38 94cf 5739 a384 0537
00000380: 13e6 bf38 ebc0 b137 8706 1737 f11b d7b7
00000390: a703 12b9 e6e7 eeb9 d01d 82b8 a28d e0b8
000003a0: 61d6 f539 3b2a 1c3e 5eba f838 1d4a 9cbc
000003b0: f072 15ba 7b21 5838 f294 79b9 8b9e 413e
000003c0: 7d90 3eba b2d2 30b9 b9d0 afba 4a90 0dbc
000003d0: dba2 31ba af06 fc39 0a97 b8bd 1f4d bfb9
000003e0: f142 b638 7383 893e b779 2f3d e86e 80b9
000003f0: c728 a6b9 a1a6 07b8 0ab4 9e3d 7ab5 07be
0.00020204557 4.932396e-06 3.6195743e-05 9.8738e-05 -0.00011296597 0.00024777002 -7.843202e-05 -0.00047683564
0.3615894 2.881338e-05 0.30186135 -0.20490363 -0.0001554459 0.00012723748 -4.082261e-05 0.11866924
-0.00035377828 -0.00010605294 0.00015238857 -0.00017535195 -0.00024623226 -0.00016214167 -4.5698816e-05 -5.0813513e-05
-0.000101580285 -8.336091e-05 -0.00027195856 0.00028493843 5.088727e-06 1.9571848e-05 1.2548606e-05 -4.493562e-05
-0.00018109467 -4.2811334e-05 -0.00020997347 -4.354073e-05 -0.00024744478 -2.9232646e-05 9.419857e-06 -2.3054912e-05
0.0002440212 0.11307071 0.00033569045 -0.11202934 0.00021993858 0.016965061 -0.09556376 0.21455997
9.645041e-05 0.04610313 -0.00044917324 -0.14434975 -0.00035017898 0.04202165 -0.00034491305 0.2331856
-0.0003982467 -0.005543286 -9.222349e-05 -0.0004707244 -0.0006314967 0.0013577925 0.2859904 0.40715134
-3.183451e-05 -5.5392724e-05 0.18819056 -7.3497285e-05 0.00013384693 -0.00023559754 8.2711995e-05 -2.9651352e-05
-0.00014695845 2.4528248e-05 0.038026907 -0.13410227 0.0488225 0.38576382 -0.26875693 -8.059351e-05
0.00012140168 -7.926166e-05 4.508927e-05 4.0233528e-05 -0.00015418034 0.00018752113 0.00015839408 -3.558838e-05
0.00011631447 -5.9631134e-06 3.958706e-05 0.000347728 -0.00020153158 -6.660959e-05 0.0004883743 -4.5146226e-05
-0.00024064317 4.7876605e-05 0.00024341565 -6.395218e-05 0.00010559825 -7.752043e-05 -8.779052e-06 1.9016446e-05
-0.00089496444 -0.00019713359 -0.00082530634 -0.0002897259 -0.001045284 -6.8685426e-05 -0.00039154745 -0.00030434682
-0.0014901002 -0.0005103401 -0.051783547 -0.00035756503 -0.0022464022 0.0009841264 -0.00027640467 -0.0005257224
-0.000109951005 0.5628317 0.11564612 -0.21327448 -0.00030796704 -0.00010432096 0.1318139 -0.14229786
0.079375975 -0.2208916 -0.2444947 0.005671671 -0.07078962 0.021167483 -0.0011119862 0.00019996455
-0.00035242637 0.2850776 -0.010643836 -0.036353838 0.38920355 0.045755975 -0.28707656 0.35747197
7.014351e-05 -0.14171906 -0.059167787 0.039628655 0.112325065 -0.014637931 1.620473e-05 -0.084071055
0.16787095 0.005390548 0.00014245902 0.1903004 0.24752031 0.10459751 -1.9819432e-05 -0.4064594
-0.0004165565 -0.015584968 -0.00048854004 -0.3362402 -0.00029985356 -0.061368003 0.05667757 0.0001063914
-0.21999604 0.08518047 -0.19833066 -0.21218687 -0.04913455 -0.0012500285 0.07625712 0.16473655
-0.037935253 0.24974936 -7.538996e-05 0.091677755 0.5422192 0.00029530656 0.22927213 -0.05365207
0.0465938 -0.10124967 0.3899414 0.36448753 -0.37628826 0.43417498 0.094392695 0.14273983
9.4220464e-05 -0.00036761598 -1.7311622e-05 0.00013759786 3.730464e-05 -9.133448e-05 0.00014610903 -0.1231917
0.046550047 0.041839708 0.18638588 0.00018634871 0.03860518 0.053141717 -4.8789218e-05 0.09090478
1.3661262e-05 0.000106571075 -0.000106354244 -0.000115242525 0.00034456915 0.00012153518 0.00012766667 -0.00011170987
-0.00021769114 -0.00014992994 3.600544e-05 -0.0003080261 -8.4107225e-05 0.000112206915 0.00020581327 7.9583e-06
9.1504444e-05 2.1189879e-05 9.001821e-06 -2.5643008e-05 -0.00013925006 -0.00045567675 -6.204436e-05 -0.000107075335
0.00046889766 0.15250485 0.00011860275 -0.019078309 -0.0005701026 5.1529594e-05 -0.00023801977 0.18908136
-0.0007269455 -0.00016863158 -0.0013413645 -0.008640358 -0.00067762815 0.00048070165 -0.090131834 -0.0003648782
8.690905e-05 0.268581 0.042840686 -0.00024496694 -0.0003169237 -3.2341693e-05 0.077491835 -0.13252822

autoencoders.0.decoder.cells.0.lstm.bias_ih f4 [32]
00000000: 76d7 68b9 e945 d03c afcd 8d38 725d a9b8
00000010: 2cb8 003a 99c8 373d d2a6 9039 3c82 ad37
00000020: c6b8 32b9 29f9 393c 0177 46b8 75cd 21b9
00000030: ddaa 8c39 dd0b 1ab9 801c 9cbc 1b34 15ba
00000040: 0610 92bc 4c3e 903c 235b c138 0d36 483d
00000050: 3c65 2fb9 2ddd 81ba e28c 8a3d 14c3 2f3d
00000060: 8737 84b9 a719 e83c cb3d d3b7 efa6 f4b9
00000070: 19fd 343a 5da6 e63c 3ec8 97b9 4dcb 0eba
-0.0002220551 0.02542396 6.7617155e-05 -8.0759535e-05 0.0004910256 0.04486904 0.0002759011 2.0683852e-05
-0.00017044236 0.011350908 -4.731771e-05 -0.00015430695 0.00026830184 -0.00014691004 -0.019056559 -0.0005691663
-0.017829906 0.01760783 9.219933e-05 0.04887967 -0.00016727013 -0.0009907834 0.067651525 0.04291065
-0.00025218373 0.028332544 -2.5181935e-05 -0.00046663682 0.00069041696 0.0281555 -0.00028950156 -0.00054471643

autoencoders.0.decoder.cells.0.lstm.bias_hh f4 [32]
00000000: 76d7 68b9 e945 d03c afcd 8d38 725d a9b8
00000010: 2cb8 003a 99c8 373d d2a6 9039 3c82 ad37
00000020: c6b8 32b9 29f9 393c 0177 46b8 75cd 21b9
00000030: ddaa 8c39 dd0b 1ab9 801c 9cbc 1b34 15ba
00000040: 0610 92bc 4c3e 903c 235b c138 0d36 483d
00000050: 3c65 2fb9 2ddd 81ba e28c 8a3d 14c3 2f3d
00000060: 8737 84b9 a719 e83c cb3d d3b7 efa6 f4b9
00000070: 19fd 343a 5da6 e63c 3ec8 97b9 4dcb 0eba
-0.0002220551 0.02542396 6.7617155e-05 -8.0759535e-05 0.0004910256 0.04486904 0.0002759011 2.0683852e-05
-0.00017044236 0.011350908 -4.731771e-05 -0.00015430695 0.00026830184 -0.00014691004 -0.019056559 -0.0005691663
-0.017829906 0.01760783 9.219933e-05 0.04887967 -0.00016727013 -0.0009907834 0.067651525 0.04291065
-0.00025218373 0.028332544 -2.5181935e-05 -0.00046663682 0.00069041696 0.0281555 -0.00028950156 -0.00054471643

autoencoders.0.decoder.output_layer.weight f4 [1, 16]
00000000: bf88 3fbd 9e30 523e d2a0 e0bc ad6f bb3d
00000010: 5084 8b3c 9608 103e f866 5e3e d65f 0f3e
00000020: d0c6 2dbe 8b5e 763d 9ace cebd ef76 01be
00000030: 0dff e93c 639b 29bd 20cf 35be 1f28 8f3b
-0.04676127 0.20526358 -0.027420435 0.0915216 0.017030865 0.14065775 0.21718967 0.14001402
-0.16970372 0.060148757 -0.10098 -0.12643026 0.028564 -0.041407954 -0.17754793 0.0043687965

autoencoders.0.decoder.attention.weight f4 [8, 16]
00000000: 1619 28b9 1600 80b7 0d71 a7b8 7d7f 0137
00000010: e9b1 52b8 099a 7439 3fd3 b438 58ee b738
00000020: b764 f1bd 217f d5bd 1402 fb3d d353 32be
00000030: 3e53 04be d24a 55bc 6c11 59be e7f4 163e
00000040: eab3 a8b9 58d3 2134 9861 2038 d39e 95b7
00000050: 567a e038 1336 b9b8 5000 0f39 1aca 9f38
00000060: 2bb1 3bbe b30a 283e 082f c2bd 9c7e 28bd
00000070: 0f7f 6c3d 1c66 01b9 f2da a4bc ac43 fe3d
00000080: 1cd3 5cb8 6314 4338 3678 b437 aa58 fb38
00000090: 223d 3f39 7d9d d738 ac8d 9b38 ce54 7339
000000a0: bce7 0cbe 0a23 39b7 a1b5 85be 7b90 debd
000000b0: 1a36 9c3d be97 0ab8 3733 2dbd 7d2d 5ebe
000000c0: f778 8db8 3873 be39 d0ce 6039 74f5 3a39
000000d0: fc95 2c37 5513 b3b7 6614 6039 2050 96b9
000000e0: d04b 62b9 296b 3e3d 15a6 fabd 2a4a 1339
000000f0: 0a16 093d 2402 cb3d b202 a6be 0363 843d
00000100: d4d4 e5b8 75d3 2239 4a48 7b38 a80f 9439
00000110: 65cf 9439 4e40 1cb8 ede2 ac37 e289 13b8
00000120: 2748 1cbd 646f 3bbc d3b6 b7bd 94b1 6abe
00000130: 4e9e e23c a420 eb3d 6be8 96bb 7aff 1a3e
00000140: bb64 ef38 2f30 25b8 6a37 4f39 58fe 0539
00000150: c914 98b9 0fb8 61b8 f766 5bb8 7d5b c737
00000160: 3971 4abe f034 c039 8631 813b 4ae3 d13c
00000170: 3c10 c639 7d0b 46bd 0196 4fbe ef7f 0f3e
00000180: c5f0 bcb8 b834 9439 5310 45b9 4129 7338
00000190: 463c 7b39 0de5 1d35 b3e7 76b8 dbca f7b8
000001a0: 36f0 a5bc 6445 8e39 09c5 0bbe 1a74 3ebd
000001b0: 2b15 c239 3392 5eb9 bd99 c43d 2d2f c8bd
000001c0: 256c cb38 7caa 26b5 41db 1339 86c3 0538
000001d0: d5d0 3db8 f290 1839 c0a7 a338 059a 3d38
000001e0: f1f3 80bd abd2 1dbe c5bd 7539 52c5 adbd
000001f0: d0c3 bb39 1359 f1bd 983f b03d ba04 1abe
-0.00016031074 -1.5258829e-05 -7.984238e-05 7.718682e-06 -5.0233593e-05 0.00023327036 8.6224165e-05 8.770515e-05
-0.11786788 -0.104246385 0.12256256 -0.17414789 -0.1292238 -0.013018327 -0.21198052 0.1474186
-0.00032177503 1.507118e-07 3.8237864e-05 -1.7836142e-05 0.00010703939 -8.8315595e-05 0.00013637659 7.619355e-05
-0.18329303 0.16410331 -0.09481627 -0.04113637 0.05773836 -0.00012340437 -0.020123933 0.12415251
-5.26487e-05 4.651061e-05 2.151365e-05 0.00011985128 0.00018237953 0.000102813334 7.4173644e-05 0.00023205878
-0.13760275 -1.1035017e-05 -0.26115134 -0.10867401 0.076275066 -3.3043085e-05 -0.04228517 -0.2169704
-6.7459354e-05 0.0003632547 0.00021439348 0.0001782978 1.028692e-05 -2.1347465e-05 0.00021369904 -0.00028669927
-0.00021581282 0.046488915 -0.12238709 0.0001404664 0.033468284 0.09912518 -0.3242393 0.064641975
-0.00010959213 0.00015528298 5.9910388e-05 0.00028240425 0.0002838328 -3.7253187e-05 2.0609668e-05 -3.5175945e-05
-0.038154747 -0.011440132 -0.08970418 -0.22919303 0.027663376 0.11480835 -0.004605343 0.15136519
0.000114151706 -3.938394e-05 0.00019761702 0.00012778619 -0.00029007185 -5.38156e-05 -5.2309562e-05 2.3765251e-05
-0.19769754 0.00036660535 0.003942671 0.025621075 0.00037777598 -0.0483508 -0.20272066 0.14013647
-9.0093854e-05 0.00028268038 -0.00018793465 5.7974135e-05 0.00023959679 5.882037e-07 -5.8866757e-05 -0.000118156626
-0.020256143 0.0002713605 -0.13649382 -0.04649744 0.00037018335 -0.00021226033 0.09599636 -0.09774623
9.699938e-05 -6.2087906e-07 0.00014100691 3.1891766e-05 -4.52556e-05 0.00014549846 7.8036916e-05 4.5204553e-05
-0.06296528 -0.15412395 0.00023435715 -0.084849015 0.0003581331 -0.11784568 0.086058795 -0.15040866

autoencoders.0.decoder.attention.bias f4 [8]
00000000: 0407 e3b7 a0fd bb3c ab73 913d d14d 36b9
00000010: 9496 d3b8 b7cd 9ab7 2e4b ea37 1018 beb8
-2.7063776e-05 0.022948086 0.0710214 -0.00017385861 -0.000100893114 -1.8454024e-05 2.7929982e-05 -9.064388e-05

autoencoders.1.encoder.cells.0.weight_h_2 f4 [8, 8]
00000000: b7a7 143f b427 f1bd cef8 2b3d 8750 d9b6
00000010: d83e 383e c848 6d3e b1ff 213e 02ef 8ebe
00000020: 1236 ccb9 57e6 feb9 ca0d 1d3e 96ff 10b9
00000030: b7fa 043e 69c2 d8bd 66b1 003f 0e41 c13e
00000040: 22ff 663e f644 233e be93 b3be fadf 0e3f
00000050: 8966 9abe 7208 133c 56a8 b4be 27de 1a3e
00000060: dc72 ebb9 f60a 3aba a64e 2db9 36f4 3939
00000070: aefd 623e a8cc 813f 9cc1 3cbf 5b22 5cbe
00000080: 3818 c7b6 4ef2 58be 19dc ea3e 511d feb9
00000090: 1794 953d a0ec 3abf c074 173c 5fe3 5b3e
000000a0: c43c 523e 6820 e8b9 1f33 8fbe 4be8 093e
000000b0: f0ab ab3d 5bc8 b6bd 3c91 2fbf 98c4 e3be
000000c0: 04d8 26b9 7bf6 7338 f253 073e 345f 8eb6
000000d0: 67ef 9738 f6a3 743c 3918 1cbf 3079 d13d
000000e0: 1f91 ad3e b19b d7b8 90a1 393f d4a1 7039
000000f0: 7a18 68b9 7f33 95bd 9d18 83be 9612 a03e
0.5806841 -0.11775151 0.041985326 -6.4764786e-06 0.17992723 0.23172295 0.15820195 -0.27916723
-0.00038950198 -0.00048618272 0.15337291 -0.00013828123 0.12986265 -0.10583956 0.5027069 0.37744945
0.22558263 0.15944275 -0.35073656 0.5581051 -0.30156353 0.0089741815 -0.3528468 0.15123807
-0.0004490827 -0.000709697 -0.00016527864 0.0001773395 0.22167084 1.0140581 -0.73732924 -0.2149748
-5.9334816e-06 -0.21186182 0.45871046 -0.00048468498 0.073036365 -0.7301731 0.009244144 0.21473454
0.20530993 -0.00044274633 -0.2796869 0.13467519 0.08382404 -0.089249335 -0.68580985 -0.44485927
-0.00015911466 5.8165268e-05 0.13215616 -4.243013e-06 7.244833e-05 0.014931669 -0.6097446 0.10228193
0.3389978 -0.00010280999 0.7251215 0.00022948469 -0.00022134362 -0.07285213 -0.25604716 0.3126418

autoencoders.1.encoder.cells.0.bias_h_2 f4 [8]
00000000: f730 27b6 1a7f 8db9 910a 153d e6cb aab9
00000010: 48cc 0b3c 520a 27bd 79c6 1cbd 103c 2d3d
-2.491344e-06 -0.00026988314 0.03638703 -0.00032576843 0.008532591 -0.040781327 -0.038275216 0.04229361

autoencoders.1.encoder.cells.0.lstm.weight_ih f4 [32, 1]
00000000: b676 913e b3bc 4b38 61cb c73b 5e33 0bb9
00000010: 0a1b d73c 6b5c 88b8 d682 a83e ce14 7ebe
00000020: 4e36 c53d c7f5 8f38 44fd 283e ef9a 7938
00000030: 17eb 1d3f ddb2 c138 691f e23e 4264 afbd
00000040: 0ba9 643e ec12 2b3a 5629 393d f3f8 6dbd
00000050: fca5 643e 1d31 31be e4ff b1bd 15de 5d3c
00000060: 02fb 053e 240b b437 2391 8d3e a726 f2b7
00000070: 641d 053e 9567 abbe 4b9a 623e 7ff6 d5bd
0.28410882 4.857471e-05 0.0060972427 -0.00013275209 0.02625801 -6.5021995e-05 0.3291232 -0.24812624
0.096294984 6.864551e-05 0.16502863 5.951052e-05 0.61686844 9.236273e-05 0.4416459 -0.085640445
0.2233011 0.0006525952 0.045205437 -0.058098745 0.22328943 -0.17303891 -0.086913854 0.013541718
0.13084033 2.146286e-05 0.27649793 -2.8866647e-05 0.12999493 -0.33477464 0.2212917 -0.10447406

autoencoders.1.encoder.cells.0.lstm.weight_hh f4 [32, 8]
00000000: 90ae 45ba 93d6 223a d635 10ba 10fa 73ba
00000010: 4819 12ba 9c39 12ba 8c0a 5c38 dd82 2339
00000020: 66f0 e539 1e1f 28b9 886c 96b8 d880 fc38
00000030: 933f 11b9 41ad 8439 ea51 a8b6 f245 85b9
00000040: 97c2 0f3e 6623 cdb9 d1c8 453e e2c3 9f3c
00000050: 1e98 8cb8 2083 13b9 9262 f83d 6ba0 02be
00000060: aab6 e337 69f3 6339 831c c4b8 4294 8838
00000070: 675e 5838 3837 ba37 2a41 8e37 cedd d4b8
00000080: f12a 41ba 6b5d fab9 eb04 f2b8 1874 48ba
00000090: 044d 84b9 3a0b 4fba 1213 a139 1d4f 89ba
000000a0: 3049 b1b8 8b74 7b39 d90e 99b8 f399 40be
000000b0: df38 42bd 6eaf 6939 3e47 b638 7b5d 9f37
000000c0: af21 eeb9 83aa be3b 2b0c c3bc 826e ac3d
000000d0: f193 6b39 187c c2b9 aeff 363a 7795 2d3d
000000e0: dfa7 21bf 1cdf 5939 8cd9 7839 a715 353d
000000f0: 045e 4ebd 0299 4ab9 7c0b 6db9 298d 4bb9
00000100: b077 abb9 a341 45ba 9ca5 3d3d 2e3a c939
00000110: 8d07 05ba ae2f ba38 935e 47b9 9f14 4dba
00000120: 15e1 2b39 3315 2039 2778 6cb8 9e8d 57b8
00000130: ba58 e7b8 5d4f b8b8 f770 d1b7 5378 e339
00000140: 9054 783e ad49 a5ba 8f4d c4b8 ffb9 873e
00000150: b97a 263e 692f b6b8 4657 8e37 c5f3 003e
00000160: ff04 6cbc ca56 6fb9 459b 8ab9 c311 9938
00000170: c3b5 c1b9 257f afb7 9ac6 9437 2bdb 17b9
00000180: 8808 373e 3e78 3aba 3ea2 0ab8 e604 dbb9
00000190: 02a6 993e 257c 2bba 361b f336 521e 37ba
000001a0: c1bb 7438 2cca 4438 a352 93b8 9a92 aab9
000001b0: fd2d cd37 83e6 95b7 6ebc c2b8 9c2e 3839
000001c0: 9269 9a3d 6fd4 8cb9 0ba2 923e b360 1db9
000001d0: 91bf 453e 6686 4bb9 44d6 7939 d139 ffb9
000001e0: 89e0 e43d 4fca 0a39 c19c e5bc 5987 47b9
000001f0: 6cd8 473a a6f8 9339 853e d138 b12a 4abd
00000200: 1e03 07bc 435d ae3c 2011 f6bd 8ffc 083d
00000210: aaa9 e53c 0a37 7e3e aef2 7bbd 65e8 643e
00000220: be42 68b9 5b26 29ba 182d 86b8 196f 1eba
00000230: 9971 2e3e cfb8 0eba deeb 84b8 8859 06ba
00000240: a1ef 153d d02f a13e cad1 e03e 439a 4fbe
00000250: 06c3 dc3d 8f98 cf3e 8354 62be 2303 aa3e
00000260: a790 1cbe 88f8 5cb9 11a1 0f3e 66ff 4a3d
00000270: eb70 25b9 47c6 98be 97c1 8c3c f3b0 33be
00000280: 05f4 3abe 6daf b53d 64ba b1b9 4202 373e
00000290: 61a8 783e 2b1a f1bd c055 dbbc 99cb c8b9
000002a0: 7344 5b3e 9745 5839 8fec b23d d92e 9b39
000002b0: 1d3e bd3e 53cb 9fbe 1e44 08bd bd0f 5dbc
000002c0: beab a2bb 600b 893e 1555 89bd 5293 f3be
000002d0: 98f4 54bd f101 533e f486 e93d 28cb 0abf
000002e0: 01d5 3b3e b36a 93b9 5b95 a6be 9a2e 08be
000002f0: 3f25 87be 659f 273e 3e9e f3be cb89 2a3e
00000300: ff1c 6bb9 53cb 53b9 06cc 73b9 c9a6 06ba
00000310: ff7b f7b9 b62e 83b7 d1e8 3339 5b62 40b9
00000320: 7e7e 92b9 6bb1 ee38 e3f7 69b7 052e bdb9
00000330: c431 8d38 453e b5b8 47b9 6838 8850 0b39
00000340: 0483 8b3d 1c52 cebd 3fbb 35be 6fdd a9be
00000350: ba07 253f 34db b0bb e204 0639 2939 58b9
00000360: 82b4 78b8 bfb6 0639 8e65 9339 3d44 08b9
00000370: f746 2038 cb37 4c38 012c 2d37 aa1f 30b8
00000380: 3ccc 0aba 9e19 26ba 0629 643e 30df 6aba
00000390: ee7b 483a 1396 62ba 4aa3 8e39 bf02 9cba
000003a0: b51b 3d38 bca1 7d38 0633 0237 f56f 68b8
000003b0: 96ec a4b8 2db8 8139 20c8 9c38 a78c 11b8
000003c0: d570 1037 3936 a9b9 ac16 e639 b574 2fbc
000003d0: e9f0 a639 571a 8b3a 7bc1 49b8 2e10 adb9
000003e0: 288f da39 8c35 1039 5b33 a839 d96a cab8
000003f0: 2b27 5c39 5af3 8c38 063a 00bd 3ce9 24b9
-0.00075409655 0.00062117836 -0.0005501186 -0.00093069766 -0.0005573225 -0.00055780425 5.246191e-05 0.00015593642
0.00043857394 -0.0001603332 -7.172773e-05 0.000120402954 -0.00013851961 0.00025306086 -5.016326e-06 -0.0002541985
0.14039074 -0.0003912702 0.19314887 0.019502584 -6.704054e-05 -0.0001406786 0.12128176 -0.12756507
2.7145568e-05 0.00021739084 -9.351319e-05 6.5126005e-05 5.1586332e-05 2.2198641e-05 1.6958063e-05 -0.00010150262
-0.00073687645 -0.00047753318 -0.00011540375 -0.0007646694 -0.00025234383 -0.0007898096 0.00030722521 -0.0010475848
-8.45365e-05 0.00023980641 -7.298374e-05 -0.18808727 -0.047417518 0.00022285964 8.691706e-05 1.8997807e-05
-0.00045419994 0.0058186664 -0.023809513 0.08419515 0.00022466459 -0.0003709502 0.0006980848 0.04237887
-0.63146776 0.00020777847 0.00023732166 0.044210102 -0.05038263 -0.00019321221 -0.0002260636 -0.00019412175
-0.00032704836 -0.0007524734 0.046300516 0.00038381055 -0.00050746725 8.878052e-05 -0.0001901335 -0.0007823202
0.0001639168 0.00015266686 -5.6378685e-05 -5.1391886e-05 -0.00011031465 -8.788586e-05 -2.4967345e-05 0.00043386462
0.24251008 -0.0012610458 -9.360455e-05 0.2650909 0.16257752 -8.687267e-05 1.6968359e-05 0.1259299
-0.014405488 -0.00022825148 -0.00026437096 7.298917e-05 -0.00036947252 -2.0920832e-05 1.7735456e-05 -0.00014482129
0.17874348 -0.00071132544 -3.3052864e-05 -0.00041774585 0.30009466 -0.00065416313 7.245132e-06 -0.0006985414
5.8348993e-05 4.691833e-05 -7.0248985e-05 -0.00032534153 2.445932e-05 -1.7869525e-05 -9.2857386e-05 0.00017564971
0.07539667 -0.00026861156 0.28639254 -0.0001500871 0.19311358 -0.00019409656 0.0002382631 -0.00048680467
0.11175639 0.00013236071 -0.028028848 -0.0001902854 0.0007623497 0.00028223282 9.977542e-05 -0.04935712
-0.008240489 0.021284705 -0.12014985 0.033443984 0.028035004 0.24825683 -0.061510734 0.22354276
-0.00022150108 -0.0006452554 -6.398017e-05 -0.00060437765 0.17035522 -0.0005444409 -6.338184e-05 -0.00051250355
0.03660548 0.3148179 0.43910056 -0.2027369 0.10779385 0.4054608 -0.22102551 0.33205518
-0.15289555 -0.0002107342 0.14026286 0.049559973 -0.00015777691 -0.29838774 0.017182155 -0.1754797
-0.18257149 0.088713504 -0.00033898943 0.17871955 0.24282981 -0.11772569 -0.026774287 -0.00038298665
0.2141283 0.0002062529 0.08736526 0.00029598808 0.3696145 -0.31209812 -0.033268087 -0.013492522
-0.004964321 0.2676649 -0.06705681 -0.47573334 -0.051991075 0.2060621 0.114026934 -0.5421624
0.18342973 -0.00028117522 -0.32535824 -0.13299027 -0.26395604 0.16369398 -0.47581667 0.16654126
-0.00022422148 -0.00020198272 -0.0002325029 -0.0005136547 -0.00047203896 -1.5638168e-05 0.00017157501 -0.00018347187
-0.00027941534 0.00011381771 -1.3945598e-05 -0.00036083176 6.7326735e-05 -8.642351e-05 5.5485663e-05 0.00013286073
0.068120986 -0.10074255 -0.1774721 -0.33176753 0.64464915 -0.005397225 0.00012781055 -0.00020620659
-5.929592e-05 0.00012847314 0.0002811369 -0.00012995391 3.8213064e-05 4.868935e-05 1.0321849e-05 -4.199116e-05
-0.00052947155 -0.0006336215 0.22281274 -0.0008959649 0.00076478615 -0.00086435786 0.0002720601 -0.0011902674
4.5086916e-05 6.0470527e-05 7.760484e-06 -5.541738e-05 -7.864197e-05 0.0002474202 7.475936e-05 -3.4701687e-05
8.60934e-06 -0.0003227459 0.0004388591 -0.0107089775 0.0003184148 0.0010612708 -4.8102327e-05 -0.00033009186
0.0004168686 0.00013752858 0.0003208172 -9.6520125e-05 0.00020995426 6.721048e-05 -0.031305335 -0.00015727145

autoencoders.1.encoder.cells.0.lstm.bias_ih f4 [32]
00000000: 9874 bd36 5ddc 6739 dc14 7a3b 6666 d7b7
00000010: 28ba 323a 772e 9ab8 aa21 c8b9 3170 4a39
00000020: 309f 0938 f305 e0b8 98a1 9c3c f688 8e36
00000030: b6c9 7e3a 148b 46b7 0e1e 603d cb7c 8739
00000040: cda6 313b 0d63 8fb7 9623 f33c e618 82ba
00000050: bb23 033d ba5b f8bc fdd4 5cbd 7d2b 8e3b
00000060: a64f be38 a568 6439 62af 063d b3f7 66b9
00000070: 1b09 b93a d2a4 31b7 677d 803d 2bee fe38
5.6462122e-06 0.00022111968 0.0038159406 -2.567768e-05 0.00068179006 -7.351947e-05 -0.00038172054 0.00019306016
3.28116e-05 -0.000106822605 0.019120023 4.247874e-06 0.00097193883 -1.1834101e-05 0.054716162 0.00025842185
0.0027107478 -1.7093053e-05 0.029680055 -0.0009925633 0.032016497 -0.030317176 -0.05391406 0.0043386803
9.074742e-05 0.00021782758 0.0328821 -0.00022026784 0.0014117094 -1.0588397e-05 0.062739186 0.00012156026

autoencoders.1.encoder.cells.0.lstm.bias_hh f4 [32]
00000000: 9874 bd36 5ddc 6739 dc14 7a3b 6666 d7b7
00000010: 28ba 323a 772e 9ab8 aa21 c8b9 3170 4a39
00000020: 309f 0938 f305 e0b8 98a1 9c3c f688 8e36
00000030: b6c9 7e3a 148b 46b7 0e1e 603d cb7c 8739
00000040: cda6 313b 0d63 8fb7 9623 f33c e618 82ba
00000050: bb23 033d ba5b f8bc fdd4 5cbd 7d2b 8e3b
00000060: a64f be38 a568 6439 62af 063d b3f7 66b9
00000070: 1b09 b93a d2a4 31b7 677d 803d 2bee fe38
5.6462122e-06 0.00022111968 0.0038159406 -2.567768e-05 0.00068179006 -7.351947e-05 -0.00038172054 0.00019306016
3.28116e-05 -0.000106822605 0.019120023 4.247874e-06 0.00097193883 -1.1834101e-05 0.054716162 0.00025842185
0.0027107478 -1.7093053e-05 0.029680055 -0.0009925633 0.032016497 -0.030317176 -0.05391406 0.0043386803
9.074742e-05 0.00021782758 0.0328821 -0.00022026784 0.0014117094 -1.0588397e-05 0.062739186 0.00012156026

autoencoders.1.decoder.cells.0.weight_h_2 f4 [8, 8]
00000000: d767 363c 72aa 003e 7223 933d 8f07 ebbd
00000010: 3ffa 2abe f107 6fbd 83ac 773e 90b0 08bd
00000020: 222b abbe af4d 78be 6c8f 09be a79b 5abf
00000030: 8f59 bd3e 93d0 a63e d321 0139 053c 003e
00000040: 6455 9a3e 37e7 a4be 0f0b 983e c1c9 8dbe
00000050: 5df6 d9bd ebb8 3dbf c74b 973e b2ab 503e
00000060: 11f8 d23d a129 cfb9 ecd6 fabe 5c65 4f3e
00000070: 2137 fe3d 80f5 013d fe5d dd3d f9fa f3bd
00000080: 47e5 813e 6c4a 9b3e 6371 b038 233f e33e
00000090: 539c 2ab7 3a23 15bf 25e2 363e 3e15 0cbe
000000a0: 630a dfbe e7ab dbbb a9a6 4cbe be24 36b9
000000b0: 369d e936 d9cc c23b ad18 81bd 1cb8 273d
000000c0: 23d9 633f 0139 573d 8c05 ecb8 7eed 863d
000000d0: 3351 4cbd 93a4 b7be 30bb 1938 8fdd bbbd
000000e0: d2cd bebd db5e d23e 8e07 0fbe c2cb 30be
000000f0: d5f1 4c3e 4b01 f4b8 ff87 223d 6e9c 4e3e
0.011133156 0.1256502 0.07184495 -0.11476051 -0.16697024 -0.058357183 0.24186902 -0.033371508
-0.33431345 -0.24248384 -0.13433617 -0.85393757 0.3698239 0.32581005 0.00012314999 0.12522896
0.30143273 -0.32207653 0.29695937 -0.2769299 -0.10642693 -0.7411029 0.2955 0.20377997
0.10301221 -0.00039513133 -0.48992097 0.2025351 0.12412859 0.031728268 0.10808943 -0.119131036
0.25370237 0.30330217 8.413454e-05 0.44384107 -1.0169187e-05 -0.58256876 0.17859705 -0.13679978
-0.43562612 -0.006703842 -0.19985451 -0.0001737056 6.962243e-06 0.00594483 -0.06303535 0.040947065
0.890032 0.052544598 -0.0001125439 0.06588267 -0.049882125 -0.35867748 3.6652375e-05 -0.09173118
-0.09316601 0.41087994 -0.13967726 -0.17265227 0.20014127 -0.000116350675 0.039680477 0.2017686

autoencoders.1.decoder.cells.0.bias_h_2 f4 [8]
00000000: f420 e23c 58f8 9b3b 3da8 40bd 3242 f83c
00000010: 660d 10b8 46ab 02bd a504 e53c 4864 123d
0.027603604 0.0047598295 -0.047035445 0.030305002 -3.4344754e-05 -0.03190162 0.027956316 0.035740167

autoencoders.1.decoder.cells.0.lstm.weight_ih f4 [32, 1]
00000000: 3faf b53c 20ae 22be 9abb 41b9 a29f b5bd
00000010: 7bd2 9f38 a834 b8bd b09d 2f3c 1501 fb3c
00000020: 980e b53e 6c56 e13d 852b a1be 3c3b 25b9
00000030: 5312 49b7 92b1 5cb9 1a2e 41b8 c4cc 4e3e
00000040: dbc3 373e dce6 213f b3aa b73e 1f53 a5bd
00000050: 8d68 2fbe bd7b 5cbd e6d9 4c3e 7548 94bd
00000060: 1442 3cbe 1f8c 3a3e 713d 55bd b05e eb3d
00000070: a8db 8438 bcab 2fb8 8aa2 ce3e ce1c 693e
0.02217829 -0.15886736 -0.00018475801 -0.08868338 7.620916e-05 -0.089944184 0.010718748 0.030640164
0.35362697 0.11002812 -0.31478515 -0.00015757693 -1.19848e-05 -0.00021046985 -4.605772e-05 0.201953
0.17945807 0.6324289 0.3587242 -0.08072495 -0.17129727 -0.053828944 0.20004997 -0.072403826
-0.18384582 0.18217514 -0.05206055 0.114926696 6.335165e-05 -4.188319e-05 0.40358382 0.22764894

autoencoders.1.decoder.cells.0.lstm.weight_hh f4 [32, 8]
00000000: 0ea9 413e e627 073e 4077 9039 58b5 7cbd
00000010: 7c0c 99b8 5379 58b9 355d af38 772f ddb8
00000020: 7b94 c739 eb29 ed3d 9427 b23d 04f6 8e3d
00000030: e73d 93b9 2e24 bbb9 0f6f d937 4a0d 4539
00000040: 9b59 00ba 88c5 96b9 41e1 2737 1b0f bd39
00000050: 6dbe 333e ffaf 46b9 fac5 1eba c9d0 34b9
00000060: 638e 55b9 f11b c438 f519 a9b8 f88a cc38
00000070: 10ef 3eb8 12a4 9e38 ebd6 2738 8b32 d6b9
00000080: 3f70 84b9 ffe0 55b7 6fad 51b9 9e72 2c39
00000090: 156b 15b9 a6bc df38 6a03 cf37 59ff bf38
000000a0: 70ad 72be c727 d1b8 4a86 0bbe a719 0cb7
000000b0: 8548 0a39 17ce dab7 1f79 14b7 8543 ff38
000000c0: 3fb4 e03d 5b52 693e 6668 5f38 3e1c d2b9
000000d0: d00b f4b8 30d9 aebd e972 c3bc 0e22 ac3e
000000e0: fef8 afbd a075 933d 710c 4b3e 5e95 0fbc
000000f0: 4ace 2139 9263 143d e64d 653c 283b b23e
00000100: e251 2c38 272b fb39 4301 773d 5fd8 5db9
00000110: 0429 ffbc 3ba4 09bd fa63 cabd 5a06 f5bd
00000120: c438 03b9 aea7 6fbe 80a1 f738 d3de 58ba
00000130: 2f5d afb9 255e 043e d9b3 9f3e f9e1 143e
00000140: a122 5bb9 c0ea b9b8 5b79 45b8 ace2 6837
00000150: 5d9a aeb8 84b7 fa38 0add dfb8 01a2 a1be
00000160: 06ce 49bc 8460 5b3c c85c 36be 1177 62b9
00000170: 5aca 3cba 03b6 b438 a1af 19b8 251c bdb8
00000180: 00f6 5d38 c7d2 0a38 2470 30b9 177c 5039
00000190: be4c 5bb9 47a2 62b9 c68c 6138 fe59 edb6
000001a0: c64a c038 abb3 8b38 948d 9138 a6dc 3739
000001b0: d20e 8bb7 64ed 1cb9 ca3f 8237 0fa2 6338
000001c0: 40ac 28ba 5633 0abe 9fcc b0be ae28 7b3d
000001d0: 7043 29bd 3257 52ba a97e 5abe cbdb 253e
000001e0: de06 a6bd 96d2 95be 2c71 023e 4749 9abc
000001f0: 864a 463d 4e8c d83c 249e ed3e 4da7 713e
00000200: db15 433e 5acd 043e ae39 c2bc a049 bd3d
00000210: 7e85 853d bcc2 69be 97f1 8a3e 4b4a 753d
00000220: 6d7e 783c a0c9 a3bb be77 73bc 1ee6 d1bc
00000230: 6f72 3abb fb32 79be 0077 b7bd e34d c23d
00000240: 72c4 d7be cf34 c7bc 7d72 573d 62b5 6abe
00000250: 5bb3 ddbe 45e9 1abe 8512 ff3c e9e9 833c
00000260: a594 00bd 0396 b6bc 6db2 913d 6f90 e63c
00000270: 96ff 02be 73cd acba 3193 1d3d 9c63 4c3e
00000280: 1516 88bd 97f7 6337 dba6 34b8 a770 bd3d
00000290: 04c1 d23b cf70 e837 1a97 31be 582f 243e
000002a0: d6ac 443e e381 fdbd 8453 feb7 139d e33e
000002b0: a746 9b3d 5f3d 56be a787 4d3e 032f 0fbe
000002c0: d8c9 85b9 1fcd 343e b56e 4c3e 1497 41bd
000002d0: 64bd 21be 6dc7 cb3e 48d8 0ebd 4e69 873e
000002e0: 885f e43e afbd dc3e b8d8 5cbd 2a57 743d
000002f0: 70a3 303d 94fd c63d 3754 15bc f783 0b3e
00000300: 688d 993b 8033 94bc 06ca 803c 02ef d439
00000310: 94b6 d0bc 3a43 0abe 1e26 12bc 623e 0c3e
00000320: d53e efb7 d132 a3b8 cc93 b238 ecb2 b3b9
00000330: ad50 263d 3a6d 4c3d c311 f9b8 4af4 853d
00000340: bdbb f8b9 c52c 03ba d672 33b6 b5d7 25ba
00000350: e79d abb8 41ca 7337 43f8 ccbd 0ac6 2cba
00000360: 79fa 5338 4482 0238 7304 0dbc 5883 8f38
00000370: c5ee 53b8 a913 3039 0d36 8fbd 3685 abb9
00000380: 67e7 fcb8 1f32 ae37 23d2 3e38 e916 5438
00000390: 05f1 42b9 6290 fcb7 2309 9538 e459 1338
000003a0: 6a50 8bb9 c708 cdb7 b78d adb9 8e59 0039
000003b0: a470 8e38 c287 4d38 0541 9fb9 d098 14b9
000003c0: 5a43 3e3d 4b83 3bb8 6bd4 d3b9 0173 39ba
000003d0: 5844 573d 3202 b7b9 4de7 83b9 1865 8db9
000003e0: ce03 383e 7655 713d e97a 1abd c690 7339
000003f0: 2cf6 3ebd 743d 87be 2af3 a33d e4d1 2abd
0.18912145 0.13198814 0.00027554668 -0.06169638 -7.297934e-05 -0.00020644562 8.3620114e-05 -0.00010546942
0.00038066864 0.11580261 0.08698955 0.069805175 -0.00028084146 -0.00035694375 2.5920132e-05 0.00018792335
-0.0004896165 -0.00028757402 1.0006422e-05 0.00036060144 0.1755311 -0.00018948315 -0.00060567225 -0.00017243916
-0.00020366306 9.351213e-05 -8.063383e-05 9.753363e-05 -4.5522174e-05 7.5645876e-05 4.001606e-05 -0.00040854918
-0.00025260632 -1.2748175e-05 -0.00019996402 0.00016445896 -0.00014249638 0.00010668607 2.4677913e-05 9.155152e-05
-0.23698974 -9.973306e-05 -0.13625446 -8.350623e-06 0.00013187721 -2.6083593e-05 -8.849688e-06 0.00012171924
0.10971879 0.22785322 5.326457e-05 -0.00040075363 -0.00011637027 -0.08537519 -0.023858504 0.33619732
-0.08592413 0.072001696 0.19828965 -0.008763639 0.00015431005 0.03622777 0.013995623 0.34810758
4.1084255e-05 0.00047906602 0.060303938 -0.00021156807 -0.031147487 -0.033603888 -0.0988235 -0.11964102
-0.0001251428 -0.23403808 0.000118079595 -0.00082729495 -0.00033448028 0.12926538 0.311919 0.14539327
-0.00020898368 -8.865213e-05 -4.708148e-05 1.3881054e-05 -8.325719e-05 0.000119551114 -0.0001067464 -0.31568912
-0.012317186 0.01338971 -0.1780883 -0.00021597395 -0.00072017836 8.616971e-05 -3.664161e-05 -9.0174646e-05
5.291961e-05 3.3098066e-05 -0.00016826444 0.00019882653 -0.00020914056 -0.00021613493 5.3775286e-05 -7.073627e-06
9.169201e-05 6.661502e-05 6.94051e-05 0.00017534438 -1.6576992e-05 -0.00014965754 1.5526912e-05 5.4271946e-05
-0.00064343587 -0.13496146 -0.34531114 0.061318092 -0.04132408 -0.00080238574 -0.2133738 0.16197126
-0.081067786 -0.29262227 0.12738484 -0.01883377 0.048410915 0.02643409 0.46409714 0.23598976
0.19051306 0.1296896 -0.023709144 0.092425585 0.06519602 -0.22828192 0.27137443 0.059885304
0.015166861 -0.004998401 -0.014860092 -0.025622424 -0.0028449555 -0.24335854 -0.08958244 0.09487512
-0.42142063 -0.024317173 0.05259942 -0.22920755 -0.433009 -0.15128048 0.03113676 0.016102748
-0.03139176 -0.022288328 0.0711411 0.028145043 -0.12792811 -0.0013183787 0.03847045 0.19959873
-0.06644837 1.3587901e-05 -4.307074e-05 0.09250002 0.0064317007 2.7709086e-05 -0.17342797 0.16033685
0.19206557 -0.123782896 -3.031805e-05 0.44455776 0.07581835 -0.20921849 0.20071279 -0.13982777
-0.00025518122 0.17656372 0.19964106 -0.04726322 -0.15794903 0.39800587 -0.03487423 0.2644753
0.44604135 0.43113467 -0.053917617 0.05965344 0.043124616 0.09716335 -0.009114317 0.1362456
0.0046860464 -0.018090963 0.015721332 0.00040613866 -0.025477685 -0.13502207 -0.008920221 0.13695672
-2.8520279e-05 -7.781911e-05 8.515231e-05 -0.00034274848 0.040604282 0.049908854 -0.000118765536 0.06540735
-0.00047442122 -0.00050039246 -2.6739922e-06 -0.00063263933 -8.183327e-05 1.453102e-05 -0.1000829 -0.00065907894
5.053959e-05 3.1115735e-05 -0.008607018 6.843236e-05 -5.052869e-05 0.00016791992 -0.06992731 -0.00032714912
-0.000120593984 2.0765756e-05 4.5495235e-05 5.0566076e-05 -0.00018591069 -3.0107974e-05 7.1065755e-05 3.513125e-05
-0.0002657206 -2.4441992e-05 -0.00033102717 0.00012240393 6.7920686e-05 4.9002243e-05 -0.00030375287 -0.00014171307
0.04645095 -4.470655e-05 -0.0004040332 -0.0007074327 0.052555412 -0.00034906116 -0.000251586 -0.00026968936
0.17970201 0.058919393 -0.037714873 0.00023228218 -0.046621487 -0.26414073 0.08005364 -0.041704074

autoencoders.1.decoder.cells.0.lstm.bias_ih f4 [32]
00000000: f07d b03b 12e0 4e3a dffe 61ba 3495 41b9
00000010: fcfc 84b8 8cca 02b9 dd52 443d 037d 123d
00000020: dd3f db3c f3f3 363a e830 69bd efdc 50ba
00000030: 35dc 1439 3745 1bb6 faf7 59ba 70eb 963c
00000040: b027 9f3c 6c6c b6bd cf12 30bd 2515 633d
00000050: 9ad1 09bc 7e30 adbc 8353 143d 5894 643d
00000060: 125a 963d a89f c53c aac7 83bd a5ad 37ba
00000070: b1ce db38 765c a538 e8c3 123c 67fe f43c
0.0053861067 0.00078916654 -0.00086210476 -0.00018461497 -6.3413725e-05 -0.0001247322 0.047930587 0.03576375
0.02676385 0.00069791 -0.056931406 -0.0007967492 0.00014196413 -2.3137088e-06 -0.00083148445 0.018422812
0.019428104 -0.089073986 -0.042986687 0.055440087 -0.008411789 -0.021141287 0.036212455 0.055805534
0.07341398 0.024123982 -0.06434567 -0.0007006771 0.00010481233 7.885035e-05 0.0089578405 0.029906465

autoencoders.1.decoder.cells.0.lstm.bias_hh f4 [32]
00000000: f07d b03b 12e0 4e3a dffe 61ba 3495 41b9
00000010: fcfc 84b8 8cca 02b9 dd52 443d 037d 123d
00000020: dd3f db3c f3f3 363a e830 69bd efdc 50ba
00000030: 35dc 1439 3745 1bb6 faf7 59ba 70eb 963c
00000040: b027 9f3c 6c6c b6bd cf12 30bd 2515 633d
00000050: 9ad1 09bc 7e30 adbc 8353 143d 5894 643d
00000060: 125a 963d a89f c53c aac7 83bd a5ad 37ba
00000070: b1ce db38 765c a538 e8c3 123c 67fe f43c
0.0053861067 0.00078916654 -0.00086210476 -0.00018461497 -6.3413725e-05 -0.0001247322 0.047930587 0.03576375
0.02676385 0.00069791 -0.056931406 -0.0007967492 0.00014196413 -2.3137088e-06 -0.00083148445 0.018422812
0.019428104 -0.089073986 -0.042986687 0.055440087 -0.008411789 -0.021141287 0.036212455 0.055805534
0.07341398 0.024123982 -0.06434567 -0.0007006771 0.00010481233 7.885035e-05 0.0089578405 0.029906465

autoencoders.1.decoder.output_layer.weight f4 [1, 16]
00000000: e5e1 643e da76 a03d 1117 e7bd 53c8 d53d
00000010: 65bf a8ba f0b6 a2bd bda4 6a3e 71ed 8b3e
00000020: 62af b63d e436 3b3d 79b9 5a3e 3863 85bc
00000030: e523 a53d 4ac2 07be fde7 37be b227 0b3e
0.22351797 0.07835169 -0.112836964 0.104385994 -0.0012874423 -0.07945049 0.22914405 0.2732959
0.0892017 0.045706645 0.21359815 -0.016282663 0.08063487 -0.13257709 -0.1795959 0.13589361
