results/H6_Attention/ec2_cpu_utilization_825cc2/ensemble_autoencoder_weights.pth (torch, 101734 bytes, 150 tensors)

autoencoders.0.encoder.cells.0.weight_h_2 f4 [8, 8]
0	0x3edbda4e	0.4293999
1	0x39516b01	0.00019971655
2	0x38263af8	3.9632403e-05
3	0x38d82e37	0.00010308291
4	0xb937dab8	-0.00017533719
5	0xbf1730be	-0.5905875
6	0xbc693869	-0.014234641
7	0xbe9bd396	-0.30434865
8	0xbf5769b5	-0.8414567
9	0xbe35197e	-0.17685506
10	0x3e4d6616	0.20058474
11	0xbf0bc5d6	-0.5459875
12	0xbddfc305	-0.10925869
13	0x3e726fa5	0.23675402
14	0x3e64b06e	0.22332928
15	0x3e84a419	0.25906447
16	0xbe116a88	-0.14200795
17	0xb944880f	-0.00018742702
18	0x3ef162b9	0.47145632
19	0x3da19d72	0.078913584
20	0xb8f45c8d	-0.000116520656
21	0xbc1644a4	-0.009171639
22	0x3e65eca2	0.2245355
23	0x3e8acfc3	0.27111635
24	0x3e033f1c	0.12817043
25	0x3da794cd	0.08182678
26	0x3e9e4819	0.3091438
27	0x3d0e8ea4	0.034804
28	0xbeb7b160	-0.35877514
29	0xbed4bf79	-0.41552332
30	0xbe8b0edb	-0.2715977
31	0xb89f18ff	-7.586367e-05
32	0x3f1a3056	0.60230005
33	0x394b0283	0.00019360524
34	0x3f3ee25d	0.7456415
35	0xbcd4d839	-0.02598201
36	0x3f06d29e	0.52665126
37	0x3c178aea	0.009249428
38	0x3ebe7d18	0.37204814
39	0x3d2d093b	0.04224513
40	0x3e77dc63	0.24205165
41	0x382cbac6	4.1181942e-05
42	0x3e687a03	0.22702794
43	0x3ecd1912	0.4005819
44	0xbe0a0f46	-0.13482389
45	0x3d844804	0.064590484
46	0xbcfeedd4	-0.031119265
47	0xbe95f6bd	-0.2928981
48	0x3a6ae8fb	0.00089611084
49	0xb914892c	-0.0001416548
50	0x3d05fa01	0.032709125
51	0xbe38b08e	-0.180361
52	0x3da64543	0.081186794
53	0x3ea261e4	0.3171531
54	0x3d5c4b51	0.053782765
55	0xbe77e2fb	-0.2420768
56	0xbc18a3d1	-0.009316401
57	0x3dda831d	0.10669539
58	0x398c3977	0.00026745696
59	0xbf14b60f	-0.580903
60	0x3ee345e2	0.44389254
61	0xbee041f9	-0.43800333
62	0x3ea13d17	0.3149192
63	0xb8ebe727	-0.00011248729

autoencoders.0.encoder.cells.0.bias_h_2 f4 [8]
0	0xbd314a05	-0.04328348
1	0x392a166f	0.0001622082
2	0xbc82e3de	-0.015977796
3	0xbcd7826d	-0.026307309
4	0x3a26fa38	0.0006369683
5	0xbccc686a	-0.024952132
6	0xbd3093f8	-0.043109864
7	0x38077b97	3.230161e-05

autoencoders.0.encoder.cells.0.lstm.weight_ih f4 [32, 1]
0	0x3e22a9b9	0.15885057
1	0x3897ba7c	7.2349765e-05
2	0x3790570a	1.7206668e-05
3	0x3e81c087	0.253422
4	0x391f2e8b	0.0001518076
5	0x3f088138	0.5332217
6	0x3f06839c	0.5254457
7	0x3e3d152d	0.18465109
8	0x3c7574b1	0.014981435
9	0xb8d37cb1	-0.000100844896
10	0xbe1b8168	-0.15186083
11	0x3d6c6cdc	0.057721004
12	0x3f50509b	0.81372994
13	0x3de7488e	0.112931356
14	0x3dde7997	0.10863035
15	0x3ee13c97	0.4399154
16	0xbeb60b21	-0.35555366
17	0xbe1f6f1b	-0.15569727
18	0x3e193192	0.14960316
19	0xbe82d595	-0.25553575
20	0x3e86c142	0.2631932
21	0x3d16cef9	0.03681848
22	0xbecd1dd3	-0.40061817
23	0x3d427990	0.047479212
24	0x3d8bc90c	0.06825456
25	0xb9c5d569	-0.0003773377
26	0x368bea9c	4.169835e-06
27	0xbd34ce99	-0.04414234
28	0x3f03b506	0.51448095
29	0x3f21026c	0.6289432
30	0x3d3364e2	0.04379738
31	0x3e8304ed	0.25589696

autoencoders.0.encoder.cells.0.lstm.weight_hh f4 [32, 8]
0	0xbdd35af6	-0.10320084
1	0xbe81bab7	-0.25337765
2	0x3e2b54b5	0.16731532
3	0xb95b4ff7	-0.00020915257
4	0x39eda5a1	0.00045327566
5	0xbd2769ed	-0.040872503
6	0xbd3dab7f	-0.04630613
7	0x3da728a4	0.081620485
8	0x39561dd7	0.00020419747
9	0x38c13ef8	9.214686e-05
10	0xb7fb310e	-2.9944375e-05
11	0xb91c5692	-0.0001490957
12	0x393f75aa	0.00018259013
13	0xb8c6f46d	-9.4869036e-05
14	0xbd6b93b9	-0.057513926
15	0x38063b71	3.200345e-05
16	0x37f13ebc	2.8758652e-05
17	0x380e6444	3.3948818e-05
18	0x3eacaeaf	0.33727023
19	0x3d11dc16	0.03561028
20	0xb782353a	-1.5521993e-05
21	0xb619496b	-2.2841512e-06
22	0x380ba72d	3.3295877e-05
23	0xb860ff7f	-5.364371e-05
24	0x3dfaf7de	0.12254308
25	0x39b9bca9	0.00035426512
26	0x3a73285d	0.0009275729
27	0x3799b9ae	1.8325485e-05
28	0x3b93c370	0.004509382
29	0x3986b34a	0.00025692052
30	0xb8967976	-7.175181e-05
31	0x3b113a61	0.002216004
32	0xb845adab	-4.71302e-05
33	0xb90fdc5f	-0.00013719637
34	0xb9263bf9	-0.00015853335
35	0x38857866	6.36436e-05
36	0x3d946238	0.07245296
37	0xb90c7915	-0.00013396547
38	0xb9251020	-0.00015741633
39	0xb9be9d7c	-0.0003635696
40	0xb7d305f0	-2.5155925e-05
41	0xba0392f8	-0.00050191535
42	0xba03e042	-0.00050306704
43	0xb8fc4152	-0.00012028463
44	0x3daf1bb0	0.08550203
45	0x38ddbb91	0.00010573038
46	0x38b59da1	8.660113e-05
47	0xba2bcb1e	-0.0006553399
48	0x3927e583	0.00016011861
49	0x3aa7efb7	0.001281253
50	0x3ee19237	0.44056866
51	0x3e8df517	0.2772605
52	0x3bc1eee8	0.0059183724
53	0x37352955	1.0798064e-05
54	0x38f2c3b1	0.000115759096
55	0x3e06e842	0.13174537
56	0xb9287305	-0.00016064577
57	0x3a0bd5d0	0.000533429
58	0x3a18bca9	0.00058264524
59	0x38ce9aec	9.851702e-05
60	0xb92e3ab2	-0.00016615799
61	0x39a6250d	0.00031689592
62	0xb8f73414	-0.00011787578
63	0x38f5084e	0.00011684057
64	0x3e64a09b	0.22326891
65	0xbe1cbb79	-0.1530589
66	0x3c7d27f5	0.015451421
67	0x38021fd9	3.1024076e-05
68	0xbe440f37	-0.19146429
69	0xb8d5b8df	-0.000101910664
70	0x3dfb588f	0.122727506
71	0x3cdfa4f1	0.02730033
72	0xb906335c	-0.00012798369
73	0x3925e336	0.00015820269
74	0x3865f929	5.4829903e-05
75	0xb7d35a93	-2.5195337e-05
76	0xb77a6846	-1.4925439e-05
77	0x37dcccfe	2.63215e-05
78	0x34f776f7	4.6093894e-07
79	0xb954a7f3	-0.00020280461
80	0x3a41ab52	0.00073878944
81	0xbdd322c3	-0.10309365
82	0x3de5f1c9	0.112277575
83	0x3d707f69	0.058715258
84	0xb79cb7af	-1.8682184e-05
85	0xbcb25a24	-0.021771498
86	0xbe439cff	-0.19102858
87	0xb7f75458	-2.948397e-05
88	0x398b8564	0.0002661153
89	0x3b039e7f	0.0020083485
90	0xbc0f9444	-0.008763377
91	0x397d634e	0.00024164954
92	0x3e3d6b2f	0.18497919
93	0x38d1f16a	0.000100108635
94	0x37146e59	8.84718e-06
95	0x3b1ffb69	0.0024411327
96	0xb8e9684a	-0.00011129731
97	0x3986509f	0.0002561854
98	0x3a2af17c	0.00065209693
99	0x394cdee1	0.00019537985
100	0x3e8e8b96	0.2784087
101	0xb9a0098d	-0.00030524694
102	0x3d9397b0	0.072066665
103	0x3eb1ab4e	0.34701008
104	0xba2145aa	-0.00061520434
105	0xba136811	-0.0005623112
106	0xba454a50	-0.0007526027
107	0xb922ce6c	-0.00015526422
108	0x3a14341c	0.0005653517
109	0x3992386a	0.00027889322
110	0xb7bf57fe	-2.2809949e-05
111	0x3924cb71	0.00015716047
112	0x3af5566b	0.0018717771
113	0x3ed7dda2	0.4216128
114	0x3d477d7a	0.04870365
115	0x3aa23f86	0.0012378551
116	0x3ed5c141	0.41749004
117	0x3aebe7ee	0.0017998198
118	0xbdcc7ae6	-0.099843785
119	0x3ed4bde4	0.41551125
120	0x3968ada4	0.0002218993
121	0xb703a52d	-7.846666e-06
122	0xbdbc25c9	-0.091868944
123	0xb807cc43	-3.237674e-05
124	0xb873710e	-5.8041005e-05
125	0xb653972e	-3.1529448e-06
126	0xb9057908	-0.00012728956
127	0xba253dcf	-0.00063034607
128	0xbeeb667d	-0.4597663
129	0xbeadd1ff	-0.33949277
130	0x3ea51255	0.3224055
131	0xbe473e39	-0.1945733
132	0x3c85a283	0.016312843
133	0x3db95320	0.09049058
134	0xbe33cb34	-0.17557985
135	0xbe2e9ed3	-0.17052774
136	0xbe6ee11d	-0.23328061
137	0xbd280952	-0.041024514
138	0x3eae6646	0.34062403
139	0x3d4ff20c	0.050767943
140	0x3e6ba558	0.23012292
141	0xbe083cb9	-0.13304414
142	0xbe5c2b66	-0.2150093
143	0x3a473a5e	0.0007599945
144	0x3e80e478	0.25174308
145	0xbd98f202	-0.07468034
146	0x38c10651	9.204134e-05
147	0x3defefaa	0.11715634
148	0xbe468db0	-0.19389987
149	0x3ed481f8	0.41505408
150	0x3da8410f	0.08215534
151	0xbdb9da32	-0.090748206
152	0x3dfa4601	0.122203834
153	0x3e79b90a	0.24386993
154	0xbcd5a970	-0.02608177
155	0x3e2c258b	0.16811197
156	0xbe4658b1	-0.1936977
157	0x3e8bee43	0.27330217
158	0x3e648841	0.22317602
159	0xbd4b79c5	-0.049676675
160	0xb8e7d84e	-0.00011055228
161	0x3e2ffaab	0.17185466
162	0xbe447f75	-0.19189246
163	0x3e0ec2ab	0.13941447
164	0x3e8c4b4b	0.27401194
165	0xbd6c600b	-0.05770878
166	0xbdf61641	-0.12015963
167	0x3e349208	0.17633832
168	0x3de71434	0.1128315
169	0x3decafd0	0.11556971
170	0xbe0dfd04	-0.13866049
171	0xbea7ccda	-0.32773477
172	0xbe43107d	-0.19049259
173	0x3df618c8	0.120164454
174	0xbaec6f58	-0.0018038554
175	0xbea4fbbd	-0.3222331
176	0x3dea325a	0.11435385
177	0x3e015669	0.12630619
178	0x3c452901	0.012033702
179	0x3dfbdff8	0.12298578
180	0xbd3e4e50	-0.046461403
181	0x3e9cefb8	0.3065164
182	0x3c8efe62	0.017455284
183	0xbdd9ff00	-0.106443405
184	0xbee68763	-0.45025167
185	0x3e0eab60	0.13932562
186	0x3eb57463	0.3544036
187	0xbec12624	-0.3772441
188	0x3e956c35	0.29184118
189	0xbdae256f	-0.08503234
190	0xbefe9a94	-0.4972731
191	0x3c13cf82	0.009021642
192	0xbd3a3323	-0.045458924
193	0xbda9f183	-0.08298018
194	0x3d1ac533	0.03778572
195	0xb9586de4	-0.00020640303
196	0x3dcba5f0	0.099437594
197	0x3e68bd18	0.22728384
198	0xb9f36586	-0.00046424213
199	0x3e45cea6	0.19317111
200	0x3816d461	3.596058e-05
201	0x391654fa	0.00014336771
202	0xb8c9f8cf	-9.630771e-05
203	0x38b0bc26	8.427379e-05
204	0x39908864	0.0002756744
205	0xb840e6c9	-4.5991303e-05
206	0xb86bc42f	-5.6211076e-05
207	0x390f5ce6	0.0001367215
208	0x3e48462e	0.19558021
209	0xb7fb8ccc	-2.9987095e-05
210	0xbe86b649	-0.26310948
211	0x369809fe	4.5311162e-06
212	0x3e3126e1	0.17299987
213	0xbc8b1fff	-0.01698303
214	0xbeeb62e7	-0.45973894
215	0x37197bd7	9.148344e-06
216	0x390fb242	0.00013703949
217	0x399b4e73	0.00029622353
218	0x38929eee	6.9914255e-05
219	0x3dbeb487	0.093117766
220	0x3f11b4ed	0.56916696
221	0xbe4084ba	-0.18800631
222	0xb8d2be2b	-0.00010049002
223	0x3d06c7ba	0.032905318
224	0xb8b6c3dd	-8.714919e-05
225	0x38ae8035	8.320847e-05
226	0x3a48b5c6	0.0007656481
227	0xb901ff69	-0.00012397546
228	0x3df8111d	0.12112639
229	0x38679c28	5.5220124e-05
230	0xb93bc2b3	-0.00017906241
231	0x3e902e5a	0.28160363
232	0x3a0a64d6	0.0005279308
233	0xb9fe58b1	-0.00048512736
234	0xb9414d51	-0.00018434717
235	0xb87d114d	-6.0336013e-05
236	0x397f2c66	0.00024335235
237	0x38ecf4f0	0.0001129898
238	0x38464b46	4.7276983e-05
239	0xba06b37f	-0.00051384413
240	0x3a3a4019	0.0007104888
241	0x3ee4da0e	0.44697613
242	0x3e1958f2	0.14975336
243	0xb88ed2ec	-6.810375e-05
244	0x3f1d0976	0.6134256
245	0x3e08e83f	0.13369845
246	0xb9b1a220	-0.00033880863
247	0x3dc1925a	0.094517425
248	0xb5ac4ac8	-1.2836763e-06
249	0x399ec74a	0.0003028459
250	0x3846b7fc	4.7378227e-05
251	0xb89d4613	-7.499396e-05
252	0x39514e94	0.00019961066
253	0xb8f3312c	-0.00011596302
254	0x386d5eae	5.659338e-05
255	0xba11f166	-0.0005567282

autoencoders.0.encoder.cells.0.lstm.bias_ih f4 [32]
0	0x3d43b28f	0.04777771
1	0xb734be95	-1.0773209e-05
2	0x37ed1da2	2.82664e-05
3	0x3d6c4a2f	0.057687934
4	0x3aae4853	0.0013296701
5	0xb9b9b171	-0.00035418154
6	0x3dfd41d7	0.123660736
7	0x3a3e3262	0.00072554324
8	0x3d599039	0.053116057
9	0xb783eb21	-1.5725907e-05
10	0x38a7e480	8.005742e-05
11	0x3ddc0827	0.107437424
12	0x3c3e7d33	0.0116265295
13	0xb8954daa	-7.11934e-05
14	0x3e6f1107	0.23346339
15	0x3a8c1451	0.0010687207
16	0xbcf3ce16	-0.029761355
17	0x3d4c9fc8	0.049957067
18	0xbd15deb4	-0.03658934
19	0xbcfc8110	-0.03082326
20	0x391da224	0.00015033089
21	0xbd61fb30	-0.05517119
22	0x3c0b6339	0.008507543
23	0x3caa7607	0.020808233
24	0x3d85a4c4	0.06525567
25	0xb8b7bddc	-8.761484e-05
26	0xbc3b0b92	-0.011416333
27	0x3d7db96c	0.06194441
28	0x3a72966a	0.0009253981
29	0xb96c4f1a	-0.00022536181
30	0x3e47caec	0.19511002
31	0x3a869f5b	0.001027088

autoencoders.0.encoder.cells.0.lstm.bias_hh f4 [32]
0	0x3d43b28f	0.04777771
1	0xb734be95	-1.0773209e-05
2	0x37ed1da2	2.82664e-05
3	0x3d6c4a2f	0.057687934
4	0x3aae4853	0.0013296701
5	0xb9b9b171	-0.00035418154
6	0x3dfd41d7	0.123660736
7	0x3a3e3262	0.00072554324
8	0x3d599039	0.053116057
9	0xb783eb21	-1.5725907e-05
10	0x38a7e480	8.005742e-05
11	0x3ddc0827	0.107437424
12	0x3c3e7d33	0.0116265295
13	0xb8954daa	-7.11934e-05
14	0x3e6f1107	0.23346339
15	0x3a8c1451	0.0010687207
16	0xbcf3ce16	-0.029761355
17	0x3d4c9fc8	0.049957067
18	0xbd15deb4	-0.03658934
19	0xbcfc8110	-0.03082326
20	0x391da224	0.00015033089
21	0xbd61fb30	-0.05517119
22	0x3c0b6339	0.008507543
23	0x3caa7607	0.020808233
24	0x3d85a4c4	0.06525567
25	0xb8b7bddc	-8.761484e-05
26	0xbc3b0b92	-0.011416333
27	0x3d7db96c	0.06194441
28	0x3a72966a	0.0009253981
29	0xb96c4f1a	-0.00022536181
30	0x3e47caec	0.19511002
31	0x3a869f5b	0.001027088

autoencoders.0.decoder.cells.0.weight_h_2 f4 [8, 8]
0	0xbbb164cf	-0.0054136286
1	0x3e0b2e38	0.1359185
2	0x3ec5152a	0.3849271
3	0xb83551e1	-4.323002e-05
4	0x360a428e	2.0602342e-06
5	0xbc90de54	-0.01768414
6	0xb6899674	-4.100433e-06
7	0xbee3da31	-0.44502404
8	0x3d1eae3a	0.038740374
9	0xbdbba300	-0.09161949
10	0x3e7d5c06	0.24742135
11	0x3e6723c3	0.22572236
12	0x3e989c93	0.29806957
13	0x3ecff95e	0.4061994
14	0x3e5f381e	0.21798751
15	0xb855a369	-5.0935345e-05
16	0xb7aea7b2	-2.0820506e-05
17	0x3ed62cee	0.41831154
18	0x3ea8ec46	0.32992762
19	0x3f0a7439	0.5408359
20	0xbdf01fe4	-0.11724833
21	0xbd5bef96	-0.053695284
22	0x3d83fdd4	0.06444898
23	0xbe86adac	-0.26304376
24	0x3958b517	0.00020666826
25	0xbe83cd22	-0.2574244
26	0xbe3624d0	-0.1778748
27	0xbda2f68a	-0.0795718
28	0xb99292d2	-0.0002795668
29	0x3edb395d	0.42817202
30	0xbd584bc5	-0.052806634
31	0xbec99fa1	-0.393796
32	0x3d7f9d1f	0.0624057
33	0xbcc0ec2b	-0.023550114
34	0x3d9ddaea	0.0770777
35	0x3ebef41d	0.3729562
36	0x398167a7	0.00024682024
37	0x3e2e09d5	0.16995938
38	0xbe9d37bf	-0.30706593
39	0x3e532524	0.20619637
40	0xbee82d77	-0.45347187
41	0x3e62d974	0.22153264
42	0xbd1c3ae1	-0.03814209
43	0x3e204b01	0.15653612
44	0xbe335ada	-0.17515126
45	0x3ebc4877	0.36774036
46	0x3dfef3ed	0.12448869
47	0xbe6477ad	-0.22311278
48	0x3f1e03b6	0.6172441
49	0xbe779c80	-0.24180794
50	0xbed182e8	-0.40920186
51	0xbc3e8b1f	-0.011629849
52	0xbf279bd0	-0.65472126
53	0xbe82ff71	-0.2558551
54	0x3e8e9fe8	0.27856374
55	0x3dba9808	0.09111029
56	0xbef2d0c2	-0.47424895
57	0xb8548af4	-5.067415e-05
58	0xbc7c07c4	-0.015382711
59	0xb91e6f89	-0.00015109604
60	0xbe24857f	-0.1606655
61	0x3e98aa76	0.2981755
62	0xbe8afb99	-0.2714508
63	0xb8dc48e0	-0.000105039915

autoencoders.0.decoder.cells.0.bias_h_2 f4 [8]
0	0xbc6b3df0	-0.014358029
1	0x3ca3901f	0.019966183
2	0x3936fe0b	0.00017451511
3	0x3cb8f2f2	0.022576783
4	0xb9afdeb2	-0.00033544522
5	0x3b5868dc	0.0033021485
6	0x3d094915	0.033516962
7	0x3cae1004	0.021247871

autoencoders.0.decoder.cells.0.lstm.weight_ih f4 [32, 1]
0	0xb911008c	-0.00013828481
1	0x3e80e754	0.2517649
2	0x38fa0b6b	0.00011923056
3	0x37c807b7	2.384545e-05
4	0xbdde4346	-0.10852675
5	0x3bf258d3	0.0073958426
6	0x3e185cf0	0.14879203
7	0x3e922228	0.28541684
8	0xb88676b1	-6.411726e-05
9	0xbdea5a54	-0.1144301
10	0xbd890279	-0.06689925
11	0xb921f152	-0.00015444055
12	0x39d4e287	0.00040604567
13	0xb950cb5d	-0.00019912185
14	0xb9c13c1a	-0.00036856608
15	0x3b9fa513	0.0048719733
16	0xbe117fa8	-0.14208853
17	0x3e82aa04	0.25520337
18	0xbe6e8b1b	-0.23295252
19	0x3b2620af	0.002534907
20	0xbc2751e4	-0.010212395
21	0x3edba72e	0.42900985
22	0x3b27acac	0.0025585098
23	0x3cabdb45	0.02097858
24	0x3eaf6af9	0.342613
25	0x3ed47691	0.4149671
26	0xbe140383	-0.14454465
27	0xb7e1bbbd	-2.6909513e-05
28	0x391a3968	0.0001470797
29	0x3dd2eaec	0.10298714
30	0x3e4ca77f	0.1998577
31	0x3e2934f2	0.16524103

autoencoders.0.decoder.cells.0.lstm.weight_hh f4 [32, 8]
0	0xb928beaa	-0.00016092756
1	0x39029879	0.00012454567
2	0x3808f261	3.265066e-05
3	0x39660e29	0.00021939784
4	0x38f900a2	0.00011873363
5	0x3befd05e	0.0073185405
6	0xb8eb286d	-0.00011213203
7	0x389adbaa	7.384208e-05
8	0x3ec42424	0.38308823
9	0x3c8221c3	0.01588524
10	0x3ea827cc	0.32842863
11	0xbe614a22	-0.22000936
12	0xb91f3cb0	-0.0001518603
13	0x39787d05	0.00023697696
14	0x38ce7e02	9.846316e-05
15	0x3e0cfe7c	0.13768953
16	0x3cd6a2e4	0.02620072
17	0xb989b4ba	-0.00026265328
18	0x37d281f2	2.5094461e-05
19	0xb8bbcd73	-8.955123e-05
20	0x37cef61f	2.4671723e-05
21	0x38b871f5	8.79503e-05
22	0xb7b629bb	-2.1715523e-05
23	0xb8d16a1e	-9.9856625e-05
24	0x37c18644	2.3069915e-05
25	0xb9bab5ff	-0.00035612282
26	0x37c75a46	2.3764685e-05
27	0xb8049aa6	-3.161528e-05
28	0xb92562a7	-0.00015772377
29	0xb8375f51	-4.371937e-05
30	0xb812d2cc	-3.5005432e-05
31	0x38bca55c	8.995339e-05
32	0xb8784d9e	-5.9200094e-05
33	0x39bbef12	0.0003584554
34	0xb7d7fe8e	-2.5748534e-05
35	0x39c68062	0.00037861156
36	0x38d3f314	0.00010106541
37	0x3934ac9d	0.00017230441
38	0x3a3576f7	0.0006922329
39	0x38ae9440	8.32458e-05
40	0x37e43708	2.7205344e-05
41	0x3e413900	0.188694
42	0x3dc84576	0.097788736
43	0xbdf6986b	-0.1204079
44	0xb87c894d	-6.0209353e-05
45	0x3db2d175	0.08731357
46	0xbdc85e7b	-0.09783646
47	0x3e9a4d4e	0.30137104
48	0x39a560a2	0.0003154325
49	0x3dac4677	0.084118776
50	0x391e266c	0.00015082367
51	0xbe48273d	-0.19546218
52	0x396703ae	0.00022031247
53	0x3da2a286	0.07941155
54	0xb8d2c37f	-0.00010049994
55	0x3e8d40e7	0.2758858
56	0xb84520ee	-4.699913e-05
57	0xbd334bba	-0.04377339
58	0xb9207f79	-0.00015306276
59	0xb9edd8c2	-0.0004536566
60	0xb8e05b5b	-0.000106981686
61	0x3c84fcc8	0.016233817
62	0x3e94aa6d	0.29036275
63	0x3ed4205c	0.41430938
64	0xb7e7fc16	-2.7654733e-05
65	0x382693aa	3.9715007e-05
66	0x3e7bd443	0.2459269
67	0x3c954096	0.018219274
68	0x397d89a3	0.00024179234
69	0xb9568931	-0.00020459738
70	0x38c04b46	9.169294e-05
71	0x39509212	0.00019890841
72	0xb8afdc6d	-8.385708e-05
73	0x39885bc6	0.00026008318
74	0x3d7b6670	0.06137699
75	0xbe1a737b	-0.15083115
76	0x3db3ba32	0.08775748
77	0x3ecf0b23	0.40438184
78	0xbe91bfb8	-0.28466582
79	0x38dbf95a	0.00010489179
80	0x3800ea0b	3.0735548e-05
81	0x38189247	3.6375855e-05
82	0x39583929	0.00020620659
83	0xb9361c62	-0.00017367446
84	0xb8ace611	-8.244452e-05
85	0x389cd15e	7.477657e-05
86	0x38a19a96	7.705872e-05
87	0xb910e764	-0.0001381911
88	0xb718277b	-9.069098e-06
89	0xb89d0dc3	-7.488907e-05
90	0x38f143c5	0.000115043986
91	0x38df6ab4	0.000106533436
92	0x38b0dce5	8.433479e-05
93	0xb98b6836	-0.0002658979
94	0x390fdc2f	0.00013719568
95	0x3879ccc1	5.9556918e-05
96	0x38d51e0b	0.000101622274
97	0x38c3714e	9.319429e-05
98	0x3985d946	0.00025529618
99	0xb8975dc0	-7.2177034e-05
100	0xb8f18a19	-0.00011517498
101	0x391621d4	0.00014317717
102	0xb8d29ef8	-0.000100431906
103	0x39ae681b	0.0003326543
104	0x3a04a4f3	0.000505998
105	0xb79c7403	-1.8650671e-05
106	0x392055b1	0.00015290712
107	0xb6d59e96	-6.3663565e-06
108	0x389f0b0f	7.583771e-05
109	0xb81d6d7e	-3.753369e-05
110	0x38f09ae4	0.000114729424
111	0xb911e8fb	-0.0001391507
112	0xbad62ae9	-0.0016339693
113	0xba4efbab	-0.0007895778
114	0xbe3cb866	-0.18429717
115	0xbcf38063	-0.029724305
116	0xbdf198aa	-0.117966965
117	0xbce5963a	-0.028025735
118	0xbd3329d3	-0.04374106
119	0xbd89db59	-0.0673129
120	0x38d71f2b	0.000102578044
121	0x3f13e51a	0.57771456
122	0x3e0c37a2	0.13693097
123	0xbe81d42b	-0.25357184
124	0x3a520324	0.0008011332
125	0xb9356652	-0.00017299622
126	0x3e0902b1	0.13379933
127	0xbe2d3117	-0.16913258
128	0x3dc86178	0.09784216
129	0xbe5ff819	-0.21871985
130	0xbe758650	-0.23977017
131	0x3cd596e8	0.026072934
132	0xbd9b469a	-0.075818256
133	0x3cfc1cea	0.030775506
134	0x3a9d9f6d	0.0012025662
135	0x3a7a2571	0.00095423224
136	0xbcd92bc4	-0.026510127
137	0x3e89ecf0	0.2693858
138	0xbd15b298	-0.036547273
139	0xbd9104e2	-0.070810094
140	0x3ebfab53	0.37435398
141	0x3d127865	0.03575935
142	0xbea38984	-0.31940854
143	0x3ea9f8b8	0.3319757
144	0x352eaa42	6.506781e-07
145	0xbe12e9db	-0.14347021
146	0xbd67fd58	-0.05663809
147	0x3d6e55df	0.05818736
148	0x3dfa73fd	0.12229154
149	0xbc98e11e	-0.018662032
150	0x39db94c3	0.0004188177
151	0xbda727c6	-0.08161883
152	0x3e2d2294	0.16907722
153	0x3c6a6c3d	0.014308033
154	0xb7f3376d	-2.8993667e-05
155	0x3e43cfdc	0.19122261
156	0x3e8c434a	0.27395087
157	0x3de8f798	0.1137535
158	0xb7b5dc63	-2.1679507e-05
159	0xbed4090d	-0.41413155
160	0xba0e7812	-0.0005434762
161	0xbd78fedf	-0.06078994
162	0xb94ee548	-0.00019731105
163	0xbed29c72	-0.41134983
164	0xb976e701	-0.00023546444
165	0xbdca4977	-0.098772936
166	0x3d24d746	0.040244363
167	0xb97037dd	-0.00022908994
168	0xbe891629	-0.2677472
169	0x3d870be2	0.06594063
170	0xbe6d6b2c	-0.23185414
171	0xbe89d1bb	-0.26917824
172	0xbd69423c	-0.05694793
173	0xbbcd208b	-0.006259983
174	0x3cc5251d	0.024065549
175	0x3e0642a3	0.13111357
176	0xbd4ed6db	-0.05049787
177	0x3e82ad56	0.2552287
178	0x3b0abde0	0.0021170303
179	0x3db759c2	0.08952667
180	0x3f100e27	0.56271595
181	0x399027df	0.00027495527
182	0x3e688416	0.22706637
183	0xbd620301	-0.055178646
184	0x3d2e5471	0.042561
185	0xbdd8a9cb	-0.105792604
186	0x3ec7ff36	0.39061898
187	0x3eb720b1	0.3576713
188	0xbebef065	-0.3729278
189	0x3ee03dbb	0.43797097
190	0x3db49228	0.088169396
191	0x3e134236	0.14380726
192	0x38f91d9a	0.00011878759
193	0xb91c5dff	-0.00014912336
194	0xb8c933bd	-9.594064e-05
195	0x380e0c16	3.3866694e-05
196	0x3929c7ba	0.000161915
197	0x3ca3da84	0.020001657
198	0x398b9cd1	0.00026628983
199	0xbe2495fb	-0.16072838
200	0x3d8d8f94	0.06912151
201	0x3d8195ee	0.06327425
202	0x3e5a8b19	0.21342124
203	0xb8e35516	-0.00010840052
204	0x3da82386	0.082099006
205	0x3d97f7b7	0.07420295
206	0x390543db	0.00012709147
207	0x3de6bb8b	0.1126624
208	0xb92df8e1	-0.0001659128
209	0x3d24c0a7	0.04022279
210	0x38ed9897	0.00011329463
211	0xb90e2150	-0.00013554585
212	0xb7d4ea0d	-2.5381358e-05
213	0x3ab14636	0.0013524953
214	0xb86d810a	-5.662538e-05
215	0x384a1fae	4.8190057e-05
216	0xb76493a8	-1.3624238e-05
217	0x38174842	3.60685e-05
218	0xb8cf09a2	-9.8723234e-05
219	0xb95551f3	-0.00020343791
220	0xb802bb88	-3.1169067e-05
221	0xb7e1da25	-2.6923672e-05
222	0xb7427ea6	-1.1592789e-05
223	0xb85bf56f	-5.2442247e-05
224	0x39a5caf5	0.00031622467
225	0x38dd7bda	0.0001056117
226	0xb99461df	-0.0002830168
227	0x37ed690c	2.8301518e-05
228	0xb90d8321	-0.00013495657
229	0xb9deeabf	-0.0004251804
230	0x397843c4	0.00023676368
231	0xb9f5ca38	-0.00046880706
232	0x39e9097b	0.00044448287
233	0x3e68b0dc	0.22723716
234	0x39600149	0.00021362783
235	0xbcf570ca	-0.029961009
236	0x37b151ce	2.1138138e-05
237	0xb829bf0c	-4.0470666e-05
238	0x3d27bd43	0.04095198
239	0x3e8c16b0	0.2736106
240	0xba5ba194	-0.0008378264
241	0xb949f366	-0.00019259527
242	0x3c19bdff	0.0093836775
243	0xbd6cce52	-0.05781395
244	0x3bc94c48	0.0061431266
245	0x398d2835	0.00026923572
246	0xbe0a42e2	-0.13502076
247	0xb9c4e8d1	-0.00037557495
248	0xbbff1598	-0.0077845566
249	0x3e916f60	0.28405285
250	0x3d610234	0.05493374
251	0xb98fabde	-0.00027403136
252	0xb924ced4	-0.00015717308
253	0x3a67088e	0.00088132254
254	0x3da5e1f3	0.08099737
255	0xbe2274ce	-0.1586487

autoencoders.0.decoder.cells.0.lstm.bias_ih f4 [32]
0	0xb94edbd3	-0.00019727582
1	0x3d10e1b3	0.035371494
2	0xb7b87d7f	-2.1992948e-05
3	0x37af8eba	2.0928088e-05
4	0x39e70a46	0.00044067408
5	0x3ddbd97e	0.10734843
6	0x3ba90628	0.0051582046
7	0xbab37674	-0.0013691918
8	0xb8f00c30	-0.00011446362
9	0x3c99cf71	0.018775674
10	0x38eb68f9	0.00011225226
11	0xb735db59	-1.0839512e-05
12	0x3a58bb47	0.00082676526
13	0x3ceac814	0.028659858
14	0xbda0d9a0	-0.07854009
15	0xb94f48c2	-0.00019768163
16	0xbc1c9b3d	-0.009558496
17	0xbb672f5c	-0.003527603
18	0x36feb583	7.5909206e-06
19	0x3d4831ff	0.048875805
20	0xbd3ca503	-0.046055805
21	0xbcb29cce	-0.021803286
22	0x3d8aff55	0.06786982
23	0x3d23caaf	0.039988216
24	0xb98bfc16	-0.00026699965
25	0x3d218b11	0.039439265
26	0x38307b85	4.2076706e-05
27	0xb8fc6945	-0.000120359044
28	0x38fc4473	0.00012029046
29	0x3db59bfb	0.088676415
30	0xb9bb7bc0	-0.0003575962
31	0xb837cb57	-4.3819975e-05

autoencoders.0.decoder.cells.0.lstm.bias_hh f4 [32]
0	0xb94edbd3	-0.00019727582
1	0x3d10e1b3	0.035371494
2	0xb7b87d7f	-2.1992948e-05
3	0x37af8eba	2.0928088e-05
4	0x39e70a46	0.00044067408
5	0x3ddbd97e	0.10734843
6	0x3ba90628	0.0051582046
7	0xbab37674	-0.0013691918
8	0xb8f00c30	-0.00011446362
9	0x3c99cf71	0.018775674
10	0x38eb68f9	0.00011225226
11	0xb735db59	-1.0839512e-05
12	0x3a58bb47	0.00082676526
13	0x3ceac814	0.028659858
14	0xbda0d9a0	-0.07854009
15	0xb94f48c2	-0.00019768163
16	0xbc1c9b3d	-0.009558496
17	0xbb672f5c	-0.003527603
18	0x36feb583	7.5909206e-06
19	0x3d4831ff	0.048875805
20	0xbd3ca503	-0.046055805
21	0xbcb29cce	-0.021803286
22	0x3d8aff55	0.06786982
23	0x3d23caaf	0.039988216
24	0xb98bfc16	-0.00026699965
25	0x3d218b11	0.039439265
26	0x38307b85	4.2076706e-05
27	0xb8fc6945	-0.000120359044
28	0x38fc4473	0.00012029046
29	0x3db59bfb	0.088676415
30	0xb9bb7bc0	-0.0003575962
31	0xb837cb57	-4.3819975e-05

autoencoders.0.decoder.output_layer.weight f4 [1, 16]
0	0xbd766e7e	-0.060163967
1	0x3e55b97d	0.2087154
2	0xbd0c3ba7	-0.034236576
3	0x3db44f3b	0.088041745
4	0x3ca6261d	0.020281846
5	0x3e167d95	0.14696343
6	0x3e5cc4ae	0.21559402
7	0x3e0e7c8c	0.13914698
8	0xbe321733	-0.17391662
9	0x3d5c90db	0.053849082
10	0xbdd36013	-0.10321059
11	0xbe0e0136	-0.1386765
12	0x3ceab6a6	0.028651547
13	0xbd3c0f8f	-0.045913275
14	0xbe463558	-0.19356287
15	0x3b980e6e	0.004640392

autoencoders.0.decoder.attention.weight f4 [8, 16]
0	0x38950e84	7.1075774e-05
1	0xb8bc18e3	-8.969174e-05
2	0x38ee2f73	0.000113575625
3	0xb9921115	-0.00027860017
4	0x39619d9c	0.00021516386
5	0x38e9ad63	0.000111426016
6	0xb74d626f	-1.22418705e-05
7	0x39038c7e	0.00012545471
8	0xbdf613fd	-0.12015531
9	0xbde7fc32	-0.11327399
10	0x3e030a6a	0.12796941
11	0xbe411c77	-0.18858515
12	0xbe137302	-0.14399341
13	0xbc955cd8	-0.018232748
14	0xbe65040c	-0.22364825
15	0x3e20ab8d	0.15690441
16	0xb9050eb7	-0.0001268935
17	0x3505bfb1	4.982531e-07
18	0x36f301e8	7.2421863e-06
19	0xb87a93f6	-5.9742444e-05
20	0x3719e451	9.17267e-06
21	0x3818ea65	3.645792e-05
22	0x3716ff5e	9.000154e-06
23	0x3682798d	3.8884523e-06
24	0xbe3d5dca	-0.18492809
25	0x3e34f2cd	0.17670746
26	0xbdc7ef94	-0.09762493
27	0xbd5d0b1d	-0.053965677
28	0x3d80ff70	0.06298721
29	0xb8e38cb3	-0.00010850411
30	0xbcd97c81	-0.026548626
31	0x3e092510	0.13393044
32	0xb9021254	-0.00012404594
33	0x38caf466	9.677633e-05
34	0xb82987c8	-4.0419196e-05
35	0xb5d5c008	-1.5925625e-06
36	0x38d03523	9.9281104e-05
37	0xb8e78098	-0.00011038891
38	0xb8adccf1	-8.287456e-05
39	0xb82be15c	-4.097946e-05
40	0xbe0ef215	-0.13959534
41	0xb7ab49e7	-2.0419202e-05
42	0xbe8737cb	-0.26409754
43	0xbdf9b442	-0.121925846
44	0x3da4777e	0.08030604
45	0x3c11caad	0.008898419
46	0xbd5c09af	-0.053720172
47	0xbe6b6250	-0.22986722
48	0xb62ed762	-2.605339e-06
49	0x38f8a5f6	0.00011856474
50	0xb8eb0ef4	-0.000112084585
51	0x378d6416	1.6855116e-05
52	0xb96680a4	-0.00021982432
53	0x394643f0	0.0001890806
54	0x38aeab8f	8.328922e-05
55	0x3514d95e	5.545061e-07
56	0x3aa9d729	0.00129578
57	0x3d62fc17	0.055416193
58	0xbe004b6d	-0.12528773
59	0x38d6bebe	0.00010239844
60	0x3d172ad3	0.036906075
61	0x3de5719c	0.1120331
62	0xbeab9935	-0.33515325
63	0x3d93831b	0.07202741
64	0x38d3bc93	0.00010096389
65	0x3948ee7e	0.00019162332
66	0xb7899c14	-1.6404352e-05
67	0x3925c4ac	0.00015808892
68	0x386236f2	5.393377e-05
69	0x39197a87	0.00014636862
70	0xb7171736	-9.005706e-06
71	0x38e5095c	0.00010921314
72	0xbd245c99	-0.04012737
73	0xbca83389	-0.020532386
74	0xbdbd0ff5	-0.09231559
75	0xbe7857bc	-0.24252218
76	0x3d0ec6eb	0.03485767
77	0x3e039faa	0.12853876
78	0xbc044209	-0.008072385
79	0x3e24e0b5	0.16101344
80	0x38733f93	5.7994923e-05
81	0x3868b8a9	5.548509e-05
82	0x38a46308	7.8385754e-05
83	0xb785cfcf	-1.5951604e-05
84	0x38f9a99a	0.00011904836
85	0x377b8edf	1.4994031e-05
86	0x383e0ac9	4.5309574e-05
87	0x3698f828	4.558842e-06
88	0xbe4c4faf	-0.19952272
89	0xb895b817	-7.139163e-05
90	0x3c1d45ad	0.0095991315
91	0x3cfca30f	0.030839471
92	0x391653e2	0.00014336364
93	0xbd5c137d	-0.053729523
94	0xbe5b6301	-0.21424486
95	0x3e17b7fe	0.14816281
96	0x38157d18	3.564087e-05
97	0xb8797922	-5.947904e-05
98	0x38cc372c	9.7377546e-05
99	0xb8700ac7	-5.7230496e-05
100	0xb7f10252	-2.873052e-05
101	0xb7957797	-1.7817873e-05
102	0x39179e0b	0.00014459358
103	0x3933dadf	0.00017152306
104	0xbcaf05d9	-0.021365093
105	0xbbb12f6d	-0.005407265
106	0xbe0deeff	-0.13860701
107	0xbd71d78f	-0.059043463
108	0x39bc594f	0.00035924694
109	0x3b375e76	0.0027979887
110	0x3dc05cd5	0.09392706
111	0xbde0e548	-0.10981232
112	0xb86b2939	-5.6066758e-05
113	0x3910894e	0.0001378406
114	0x38c723d7	9.495735e-05
115	0x363a7712	2.7785468e-06
116	0xb8b407cb	-8.5845204e-05
117	0xb833829f	-4.2798576e-05
118	0x389612a9	7.156033e-05
119	0x37bd3421	2.255483e-05
120	0xbd83536a	-0.06412394
121	0xbe283d3b	-0.16429608
122	0x39327d40	0.00017022062
123	0xbdc721e5	-0.09723262
124	0x39b088d9	0.00033671295
125	0xbdfab70f	-0.12241947
126	0x3dac6caa	0.084191635
127	0xbe2665bc	-0.16249746

autoencoders.0.decoder.attention.bias f4 [8]
0	0xb91fb9ce	-0.00015232639
1	0x3d3b8342	0.045779474
2	0x3da983be	0.08277081
3	0x3841f823	4.624588e-05
4	0xb77d8779	-1.5111517e-05
5	0xb9123df7	-0.00013946729
6	0x385cf890	5.268358e-05
7	0x372d4e7e	1.0329879e-05

autoencoders.1.encoder.cells.0.weight_h_2 f4 [8, 8]
0	0x3f1917a0	0.59801674
1	0xbe2be0d0	-0.16784978
2	0x3d3c8628	0.04602638
3	0x38cd0ddf	9.7777454e-05
4	0x3e5281bd	0.20557304
5	0x3e73dce1	0.23814727
6	0x3e2650f8	0.16241825
7	0xbe9249c6	-0.2857191
8	0xb9cee8b6	-0.00039464765
9	0x38602e6a	5.344899e-05
10	0x3e1eb258	0.1549772
11	0xb849c7b7	-4.8108133e-05
12	0x3e2840c9	0.16430964
13	0xbdeb95e8	-0.11503202
14	0x3f03c233	0.514682
15	0x3ec0f591	0.37687352
16	0x3e704927	0.23465405
17	0x3e6046aa	0.21901956
18	0xbeb91c8c	-0.36154592
19	0x3f15f762	0.585806
20	0xbeabd443	-0.3356038
21	0x3c928e7f	0.017890213
22	0xbeb54456	-0.354037
23	0x3e1ae340	0.15125751
24	0xb9aa89fd	-0.00032527736
25	0x3904e092	0.0001267216
26	0xb886ccbf	-6.427755e-05
27	0xbc3263b2	-0.010888027
28	0x3e7fcbe5	0.24980123
29	0x3f83754e	1.0270174
30	0xbf3c7190	-0.7361078
31	0xbe6bfafb	-0.2304496
32	0xbc0e8136	-0.0086977985
33	0xbe8f8c38	-0.28036666
34	0x3eecb32c	0.46230447
35	0x3900397b	0.00012228444
36	0x3dcd4935	0.10023729
37	0xbf3d64e3	-0.73982066
38	0x3c8d668d	0.017260814
39	0x3e5f44eb	0.21803634
40	0x3e5cfbbf	0.21580409
41	0xb8470d93	-4.745794e-05
42	0xbe95d972	-0.2926746
43	0x3e22efd0	0.15911794
44	0x3dd74806	0.10511784
45	0xbdc01073	-0.093781374
46	0xbf2fbea8	-0.68650293
47	0xbeea57f7	-0.45770237
48	0xb9064710	-0.00012805709
49	0xbd247917	-0.040154543
50	0x3e13608c	0.14392298
51	0x38dae81e	0.00010438285
52	0x38324caa	4.2509906e-05
53	0x3cec29a9	0.028828459
54	0xbf1e16a6	-0.6175331
55	0x3de3ec75	0.11129085
56	0x3ebaa0b5	0.36450735
57	0xbab5b3c9	-0.0013862784
58	0x3f3b23bb	0.73101395
59	0xb8b62a67	-8.686334e-05
60	0x3cda5bd4	0.026655115
61	0xbdab4dfe	-0.08364485
62	0xbe8563bb	-0.2605265
63	0x3ea26b25	0.3172237

autoencoders.1.encoder.cells.0.bias_h_2 f4 [8]
0	0xb959fd70	-0.00020789145
1	0xb9292701	-0.00016131626
2	0x3d0a7688	0.033804446
3	0xb922d552	-0.00015528992
4	0x3c43c7a8	0.011949457
5	0xbd2c93f4	-0.042133287
6	0xbd170a08	-0.0368748
7	0x3d1f3036	0.038864337

autoencoders.1.encoder.cells.0.lstm.weight_ih f4 [32, 1]
0	0x3ec69964	0.38788903
1	0x3959f18c	0.00020784716
2	0x3c86467f	0.016391037
3	0xb8c199a7	-9.231577e-05
4	0x3d6dd29e	0.05806219
5	0xb6d711a8	-6.4095548e-06
6	0x3eacf7f0	0.3378291
7	0xbe913fa5	-0.2836887
8	0x3e2063e8	0.15663111
9	0x376fc6f1	1.429183e-05
10	0x3e30f9e4	0.17282826
11	0xb53feb27	-7.1495236e-07
12	0x3f290875	0.6602853
13	0x388aa7b8	6.611593e-05
14	0x3ed82b88	0.42220712
15	0xbe0b88d9	-0.13626422
16	0x3e78ff4e	0.24316141
17	0x39c0a6fe	0.00036745513
18	0x3d44935e	0.047992103
19	0xbd84251e	-0.06452392
20	0x3e6852a9	0.22687782
21	0xbe37cf4a	-0.17950168
22	0xbdb0ceb8	-0.086331785
23	0x3c99ceb3	0.01877532
24	0x3e3617be	0.17782494
25	0x3880f172	6.148488e-05
26	0x3e91b0e2	0.28455263
27	0x377325bf	1.4492717e-05
28	0x3e1e32dd	0.1544909
29	0xbec9f97d	-0.39448157
30	0x3e4f31bd	0.20233817
31	0xbe10a767	-0.14126359

autoencoders.1.encoder.cells.0.lstm.weight_hh f4 [32, 8]
0	0x38c8e863	9.5800286e-05
1	0xb905fddc	-0.00012778438
2	0xb95de74c	-0.00021162367
3	0x39090604	0.00013067579
4	0x3a0b8b09	0.0005323147
5	0x3978ef4e	0.00023740271
6	0xb947192f	-0.000189875
7	0xb9409488	-0.00018365879
8	0x3763bc88	1.357415e-05
9	0x39091e8b	0.00013076716
10	0x3988f2f0	0.00026120944
11	0xb94c8bab	-0.00019506986
12	0x39293a5d	0.00016138838
13	0xb7f24482	-2.888055e-05
14	0xb899b515	-7.329338e-05
15	0xb922e9c0	-0.00015536603
16	0x3e1cdc11	0.15318324
17	0xb953dad9	-0.00020204055
18	0x3e4ef38c	0.20210093
19	0x3d0d1892	0.03444726
20	0xb8b5e188	-8.672761e-05
21	0xb9544f04	-0.00020247331
22	0x3e24e342	0.16102317
23	0xbe22843b	-0.15870754
24	0xb76443be	-1.36056315e-05
25	0xb7b2b542	-2.1303658e-05
26	0xb92b5038	-0.00016337715
27	0x39050b3d	0.00012688055
28	0xb915131f	-0.0001421687
29	0xb790634a	-1.7212373e-05
30	0xb8ccf677	-9.773386e-05
31	0xb93dfa5d	-0.00018117712
32	0xb963788c	-0.00021693314
33	0xb9ad9a8f	-0.00033112286
34	0xb99bb942	-0.00029701932
35	0xb9c702a2	-0.000379582
36	0xb99786f0	-0.000289015
37	0x395ad96a	0.00020871093
38	0x39167708	0.00014349457
39	0xb8b99415	-8.84907e-05
40	0x3c4cea16	0.012506982
41	0x3960d0e4	0.00021440123
42	0x3824fe52	3.93375e-05
43	0xbe4cf488	-0.20015156
44	0xbd86d2bf	-0.065831654
45	0x390eeed8	0.00013631152
46	0x36b2a25e	5.3237154e-06
47	0xb93c7f01	-0.0001797639
48	0xbc8227fb	-0.015888205
49	0x3d25b38f	0.040454444
50	0xbd8c2f70	-0.068449855
51	0x3dce9ba5	0.100882806
52	0x3a1befe0	0.0005948525
53	0xba05926d	-0.00050953665
54	0xbd72f6c8	-0.05931738
55	0x3d8c7077	0.068573885
56	0xbf29bc0d	-0.6630257
57	0xb81e3b04	-3.7725098e-05
58	0x3ca3c86f	0.019993035
59	0x3da25278	0.07925886
60	0xbd9948e6	-0.074846074
61	0x39aa0d90	0.00032435032
62	0x38fb06d0	0.000119698816
63	0xb6624623	-3.371745e-06
64	0x38ea633a	0.00011176472
65	0xb67b5d4d	-3.7456223e-06
66	0x3e0a8613	0.13527708
67	0x39788861	0.00023701928
68	0xb97ced18	-0.00024120917
69	0xb9752f34	-0.00023382605
70	0x3926616a	0.00015867283
71	0x39a96d4d	0.00032315627
72	0xb885ebe7	-6.3858744e-05
73	0x38ae44b4	8.3097635e-05
74	0x383f8b53	4.5667704e-05
75	0x3747a5e9	1.1899953e-05
76	0xb8fd008f	-0.00012064084
77	0xb95653dd	-0.00020439872
78	0xb7eb5953	-2.8055778e-05
79	0xb732a1e3	-1.0647319e-05
80	0x3e81b7a8	0.2533543
81	0x3c5500eb	0.013000707
82	0xb892b9d2	-6.996434e-05
83	0x3e8ca0e7	0.2746651
84	0x3e358186	0.1772519
85	0xb9479572	-0.00019033792
86	0x371bac27	9.278802e-06
87	0x3e183fbb	0.14868061
88	0xbdaf0f31	-0.085478194
89	0xbcd5ad39	-0.026083576
90	0x389d6d7b	7.506736e-05
91	0x39191e10	0.00014602416
92	0x3885866b	6.3669715e-05
93	0xb8dd3634	-0.00010548197
94	0x398ab34a	0.00026454992
95	0x391b2eb9	0.00014799357
96	0x3e95c8ef	0.29254863
97	0xb7d0a9f2	-2.487467e-05
98	0x39e6f91e	0.00044054625
99	0xba257d9d	-0.00063129683
100	0x3ee29097	0.44250938
101	0xba083caf	-0.0005197031
102	0xb8005e67	-3.0605497e-05
103	0xba31ffc4	-0.0006790126
104	0xb862a20b	-5.4033513e-05
105	0x37e5b306	2.7382292e-05
106	0x381379de	3.516103e-05
107	0x38ce0e2c	9.825485e-05
108	0x37dcc41b	2.6317362e-05
109	0x38856885	6.3614025e-05
110	0xb8ec2e65	-0.000112619986
111	0x38c7f4d6	9.534664e-05
112	0x3dbbdaa6	0.09172563
113	0x3a1a9efb	0.0005898324
114	0x3e97448c	0.29544485
115	0xb986e2f2	-0.0002572756
116	0x3e5d9eb3	0.2164257
117	0xb929a1bd	-0.00016177348
118	0xbb2fac44	-0.002680556
119	0x3be9b935	0.007132674
120	0x3e1d65f2	0.1537092
121	0x38940653	7.058368e-05
122	0xbd38fb1f	-0.045161363
123	0xb927c9df	-0.00016001564
124	0xb947c990	-0.00019053207
125	0xb835e0fc	-4.3363296e-05
126	0xb92afde6	-0.00016307048
127	0xbdad9723	-0.08476093
128	0xbcee2936	-0.029072385
129	0x3ca6ba91	0.020352634
130	0xbe16886f	-0.14700483
131	0x3cf240f0	0.02957198
132	0x3d086fb7	0.033309665
133	0x3e7d28c3	0.2472258
134	0xbdcbee38	-0.09957546
135	0x3e6e5883	0.23275952
136	0xb8fd63ab	-0.00012082545
137	0xb9e02ede	-0.00042759528
138	0xb99eddeb	-0.0003030145
139	0xb9f73ded	-0.0004715765
140	0x3e5cb7f9	0.21554555
141	0xb9a0c24a	-0.00030662335
142	0xb80cf22c	-3.360414e-05
143	0xba019213	-0.0004942726
144	0x3d1a3dc6	0.037656568
145	0x3ea0dc3a	0.3141802
146	0x3ee05904	0.43817914
147	0xbe5a716c	-0.2133233
148	0x3ddd1538	0.10795063
149	0x3ecfa622	0.40556437
150	0xbe6b57cc	-0.2298271
151	0x3eac336e	0.33632988
152	0xbe24ee00	-0.16106415
153	0x3636f98c	2.7265369e-06
154	0x3e177cf0	0.14793754
155	0x3d6aed01	0.05735493
156	0xb883a5d6	-6.277456e-05
157	0xbe9ea768	-0.30987096
158	0x3d0968b0	0.033547103
159	0xbe44b74f	-0.19210552
160	0xbe50d9ad	-0.20395537
161	0x3dd1f5c1	0.10251952
162	0xb88c15b9	-6.6797664e-05
163	0x3e3895bb	0.18025868
164	0x3e810bc0	0.25204277
165	0xbe1afc0e	-0.15135214
166	0xbd897f3e	-0.06713723
167	0xb9769df6	-0.00023519233
168	0x3e60ea06	0.21964273
169	0x38f05b7e	0.000114611335
170	0x3dc5ef3d	0.09664772
171	0x3950475a	0.00019863006
172	0x3ec300d2	0.38086563
173	0xbe9e4625	-0.3091289
174	0xbd1bff8c	-0.038085505
175	0xbc664d89	-0.014056572
176	0xbbb5c42f	-0.0055470685
177	0x3e8e76a2	0.27824885
178	0xbd82f41c	-0.063942164
179	0xbef071e0	-0.4696188
180	0xbd5191f2	-0.051164575
181	0x3e5c264c	0.21498984
182	0x3df6f492	0.12058367
183	0xbf0a8752	-0.5411273
184	0x3e338883	0.17532544
185	0xbc8542a7	-0.016267134
186	0xbeb2f9ab	-0.34956107
187	0xbe2468ca	-0.16055599
188	0xbe96a23f	-0.2942066
189	0x3e186aff	0.14884566
190	0xbefcda5a	-0.4938534
191	0x3e1ede0a	0.15514389
192	0xb7b41fd8	-2.14725e-05
193	0x39576d4f	0.00020544718
194	0xb9a53710	-0.00031512277
195	0x3981fd6b	0.00024793608
196	0x3d41ce61	0.04731596
197	0xb810bcfe	-3.4508288e-05
198	0xb955a35d	-0.0002037412
199	0xb87d9c64	-6.046555e-05
200	0x3798a91c	1.819856e-05
201	0xb8a7b743	-7.997316e-05
202	0xb81fac63	-3.80691e-05
203	0xb901b95b	-0.00012371449
204	0xb77b7d24	-1.4989902e-05
205	0x383e1182	4.5315835e-05
206	0x39443d50	0.00018714857
207	0xb8639b4f	-5.426566e-05
208	0x3da12934	0.07869187
209	0xbe0220a1	-0.1270776
210	0xbe462d13	-0.19353132
211	0xbeb61d2a	-0.35569125
212	0x3f28a9a4	0.6588385
213	0xbcc2043a	-0.023683656
214	0x37f6d721	2.9425662e-05
215	0xb9997352	-0.00029268354
216	0xb89f33b9	-7.591345e-05
217	0x38aa59a4	8.1229286e-05
218	0xbd4be626	-0.049780034
219	0xb90e0686	-0.00013544605
220	0x38a217b9	7.729181e-05
221	0xb806a238	-3.2099168e-05
222	0xb7ff949d	-3.0467572e-05
223	0x389f2e89	7.590379e-05
224	0xb9eee108	-0.0004556256
225	0xba07f887	-0.0005186875
226	0x3eabe302	0.3357163
227	0xb9edef24	-0.00045382336
228	0x3e148f39	0.1450776
229	0xba520ae0	-0.0008012485
230	0xb986f064	-0.00025737577
231	0xb84ee200	-4.9324706e-05
232	0xb832da4a	-4.2641805e-05
233	0xb96038d9	-0.00021383482
234	0x36f395c4	7.2593994e-06
235	0x37ebb6dd	2.8099335e-05
236	0x3866bac0	5.5010198e-05
237	0x39bce3af	0.00036027792
238	0xb88c3c31	-6.686932e-05
239	0x389957b8	7.3119474e-05
240	0x39be2292	0.0003626538
241	0x3ce8d287	0.0284207
242	0xbbf6c45c	-0.007530732
243	0xbd49548e	-0.049152903
244	0x3bc1d067	0.005914736
245	0x3ceaf67f	0.028681992
246	0xb9003521	-0.00012226823
247	0x380335cf	3.1282947e-05
248	0x38f62762	0.0001173753
249	0x39514413	0.00019957153
250	0x399d4384	0.00029995677
251	0x3b9ef874	0.0048513953
252	0x393d06dd	0.00018027001
253	0x38567db6	5.1138653e-05
254	0xbd8fc125	-0.07019261
255	0xb959104b	-0.00020700802

autoencoders.1.encoder.cells.0.lstm.bias_ih f4 [32]
0	0xb98747ed	-0.00025802795
1	0xb92791b4	-0.0001598064
2	0x3bafcda6	0.0053650914
3	0xb798626f	-1.8165649e-05
4	0x3a89bade	0.0010507961
5	0xb8bbec92	-8.9609195e-05
6	0xb945b81e	-0.00018855973
7	0x39887c46	0.00026032532
8	0xb8d593c6	-0.000101841564
9	0x37c3152e	2.3255674e-05
10	0x3ca1dd30	0.01975879
11	0xb90cdcf1	-0.00013433748
12	0x3ad5e66d	0.0016319283
13	0xb7c0754b	-2.2942802e-05
14	0x3d5b959e	0.053609483
15	0x39bb596c	0.00035734044
16	0xb8f9ff6b	-0.000119208205
17	0xb98260e3	-0.00024867718
18	0x3cdc3532	0.026880834
19	0xbbc0f729	-0.005888839
20	0x3ce025bc	0.027361743
21	0xbcd587ea	-0.026065785
22	0xbd4a7969	-0.049432192
23	0xbbb03b52	-0.0053781653
24	0xb911116a	-0.00013834765
25	0xb8b00670	-8.393533e-05
26	0x3d09e9d9	0.03367028
27	0xb9098629	-0.00013115317
28	0x3aba642c	0.0014220527
29	0xb7d88305	-2.5810217e-05
30	0x3d7dcf34	0.061965182
31	0x39c5bc42	0.0003771503

autoencoders.1.encoder.cells.0.lstm.bias_hh f4 [32]
0	0xb98747ed	-0.00025802795
1	0xb92791b4	-0.0001598064
2	0x3bafcda6	0.0053650914
3	0xb798626f	-1.8165649e-05
4	0x3a89bade	0.0010507961
5	0xb8bbec92	-8.9609195e-05
6	0xb945b81e	-0.00018855973
7	0x39887c46	0.00026032532
8	0xb8d593c6	-0.000101841564
9	0x37c3152e	2.3255674e-05
10	0x3ca1dd30	0.01975879
11	0xb90cdcf1	-0.00013433748
12	0x3ad5e66d	0.0016319283
13	0xb7c0754b	-2.2942802e-05
14	0x3d5b959e	0.053609483
15	0x39bb596c	0.00035734044
16	0xb8f9ff6b	-0.000119208205
17	0xb98260e3	-0.00024867718
18	0x3cdc3532	0.026880834
19	0xbbc0f729	-0.005888839
20	0x3ce025bc	0.027361743
21	0xbcd587ea	-0.026065785
22	0xbd4a7969	-0.049432192
23	0xbbb03b52	-0.0053781653
24	0xb911116a	-0.00013834765
25	0xb8b00670	-8.393533e-05
26	0x3d09e9d9	0.03367028
27	0xb9098629	-0.00013115317
28	0x3aba642c	0.0014220527
29	0xb7d88305	-2.5810217e-05
30	0x3d7dcf34	0.061965182
31	0x39c5bc42	0.0003771503

autoencoders.1.decoder.cells.0.weight_h_2 f4 [8, 8]
0	0x3c6a7cd5	0.014311989
1	0x3de3c72e	0.11121975
2	0x3da28042	0.079346195
3	0xbde23dce	-0.110469446
4	0xbe45766c	-0.19283456
5	0xbd7805eb	-0.06055252
6	0x3e7dde8c	0.24791926
7	0xbd217cf6	-0.039425813
8	0xbea3c1a6	-0.3198368
9	0xbe71bb8a	-0.23606697
10	0xbe182d49	-0.14861025
11	0xbf570d9b	-0.84005135
12	0x3ecc5b0b	0.3991321
13	0x3ea43cd1	0.3207765
14	0x398226bf	0.000248244
15	0x3e183627	0.14864407
16	0x3e9dea06	0.30842608
17	0xbeb73f84	-0.35790646
18	0x3e9bd77d	0.30437842
19	0xbe919913	-0.284371
20	0xbe186933	-0.1488388
21	0xbf40410c	-0.75099254
22	0x3e9cba7f	0.30611035
23	0x3e5654b5	0.2093075
24	0x3db6bc0c	0.08922586
25	0xba2ac517	-0.0006514354
26	0xbef7d807	-0.48407003
27	0x3e751172	0.23932436
28	0x3e4066d2	0.18789223
29	0x3d957e1e	0.072994456
30	0x3dc866a2	0.09785201
31	0xbe1a5053	-0.15069704
32	0x3e81ec72	0.25375706
33	0x3e91cdec	0.28477418
34	0x38b1ef34	8.484573e-05
35	0x3eefa7ec	0.46807802
36	0x37df1981	2.6595548e-05
37	0xbf158d8d	-0.58419114
38	0x3e3984e8	0.18117106
39	0xbe150695	-0.14553292
40	0xbee4667e	-0.44609445
41	0xbd6b1257	-0.057390537
42	0xbe4df012	-0.20111111
43	0x389065e8	6.8854366e-05
44	0xb7df756a	-2.6638347e-05
45	0x3cc07526	0.02349336
46	0xbd98ab04	-0.07454494
47	0x3d25a6b3	0.04044218
48	0x3f64ef27	0.8942742
49	0x3d2993b3	0.041400623
50	0xb801d3a4	-3.0953102e-05
51	0x3db8350d	0.08994494
52	0xbd9ce61d	-0.07661078
53	0xbeb92507	-0.36161062
54	0x38a910cd	8.061677e-05
55	0xbdc5991c	-0.09648344
56	0xbdc90cdf	-0.09816908
57	0x3ecb6036	0.3972184
58	0xbe113aeb	-0.14182632
59	0xbe2a94de	-0.16658351
60	0x3e77ae74	0.24187642
61	0x38671da8	5.510231e-05
62	0x3d40dc5b	0.047085147
63	0x3e51cb1d	0.20487638

autoencoders.1.decoder.cells.0.bias_h_2 f4 [8]
0	0x3cd65660	0.026164234
1	0xbbcc4611	-0.0062339385
2	0xbd39aa1a	-0.045328237
3	0x3d3e729a	0.04649601
4	0x35e54a06	1.7083373e-06
5	0xbcea1ab8	-0.028577194
6	0x3ce56c8e	0.028005864
7	0x3d08aa05	0.03336527

autoencoders.1.decoder.cells.0.lstm.weight_ih f4 [32, 1]
0	0x3d2611d3	0.040544342
1	0xbe3198ec	-0.17343491
2	0x3be7de3d	0.0070760534
3	0xbdcdb5f5	-0.10044471
4	0x382b875f	4.089565e-05
5	0xbe0be335	-0.13660891
6	0x3c8163b1	0.015794607
7	0x3d3a555e	0.04549157
8	0x3ebf3e3c	0.3735217
9	0x3e27b448	0.16377366
10	0xbeaff0a9	-0.34363297
11	0x3cd35d62	0.025801364
12	0x390fbef3	0.00013708677
13	0x38053a5c	3.1764022e-05
14	0xb90ba886	-0.00013318853
15	0x3e5800ac	0.21094006
16	0x3e4ef5d8	0.2021097
17	0x3f5c2d77	0.86006874
18	0x3eb73156	0.35779828
19	0xbdaa7413	-0.08322921
20	0xbe3ab6fc	-0.18233865
21	0xbd8b207b	-0.067933045
22	0x3e626ba2	0.22111371
23	0xbd90b7ac	-0.07066283
24	0xbe437d28	-0.19090712
25	0x3e54e865	0.20791776
26	0xbd8a31bc	-0.06747767
27	0x3e2a43c5	0.16627415
28	0xb81a5e78	-3.6804442e-05
29	0xb99e0429	-0.00030139208
30	0x3ed8b130	0.42322683
31	0x3e7d8097	0.24756084

autoencoders.1.decoder.cells.0.lstm.weight_hh f4 [32, 8]
0	0x3e543073	0.20721607
1	0x3e2e95c0	0.17049313
2	0xb845b9e1	-4.7141573e-05
3	0xbde2e2c1	-0.11078406
4	0x38f4a911	0.00011666318
5	0xb9198a3e	-0.00014642716
6	0x3c3eae3d	0.011638221
7	0x398c8065	0.00026798542
8	0x3db0bf59	0.08630247
9	0x3e49fd80	0.19725609
10	0x3e571b9c	0.21006626
11	0x3ecc97a7	0.39959452
12	0x3c3e514d	0.011616063
13	0x3e029a31	0.12754132
14	0x3d1414f1	0.036152784
15	0x3d40e1e1	0.047090415
16	0x39522a50	0.00020042923
17	0x38211bc7	3.841126e-05
18	0xb8a834c4	-8.0206926e-05
19	0x38b217ed	8.492158e-05
20	0x3e222bad	0.15836973
21	0x36c931b7	5.9960544e-06
22	0xbad4f237	-0.0016246502
23	0x38fbbeaf	0.0001200413
24	0x3c5c90a7	0.013462222
25	0x388ecfde	6.809806e-05
26	0xb67a8a91	-3.733356e-06
27	0xb935e621	-0.00017347235
28	0xb808d95e	-3.2627366e-05
29	0xb8b1e4a4	-8.482605e-05
30	0xb7bb11e0	-2.230046e-05
31	0xb8a4d70b	-7.860184e-05
32	0xb99862ed	-0.00029065405
33	0x3893d5b1	7.049309e-05
34	0x39d64341	0.0004086737
35	0x3978ecfb	0.00023739405
36	0x39a5b613	0.00031606908
37	0x3822a3b4	3.877627e-05
38	0xb8ba76ad	-8.891276e-05
39	0xb8b08b91	-8.41833e-05
40	0xbe7816b2	-0.24227408
41	0xb8db318a	-0.00010451961
42	0xbe341292	-0.17585209
43	0xb8b0e927	-8.435762e-05
44	0x38805d57	6.1209015e-05
45	0xb7f97058	-2.9735427e-05
46	0xb8b9bacd	-8.856282e-05
47	0xb90d3419	-0.00013466216
48	0x3e0d98a5	0.1382776
49	0x3e864538	0.26224685
50	0xb8a3f5da	-7.818239e-05
51	0xb944b887	-0.00018760758
52	0xb8681862	-5.533582e-05
53	0xbdd4a7c4	-0.10383561
54	0xbd11d507	-0.03560355
55	0x3eb888f9	0.36042002
56	0xbdc8828b	-0.09790524
57	0x3dc8773f	0.097883694
58	0x3e61c651	0.22048308
59	0xbd6e5008	-0.058181792
60	0x399a3f5c	0.00029420375
61	0x3d355dda	0.044278957
62	0x3cae24a0	0.021257699
63	0x3eb61a28	0.3556683
64	0x39dbbfcc	0.00041913835
65	0xb79f7915	-1.901066e-05
66	0x3dc43ea8	0.09582263
67	0xb803a4b8	-3.138624e-05
68	0xbd2f7983	-0.042840492
69	0xbd699a74	-0.057032064
70	0xbde733fa	-0.112892106
71	0xbe06a8b6	-0.13150296
72	0x3ded5390	0.11588204
73	0xbe45d3b8	-0.19319046
74	0x3d693c07	0.056942012
75	0x3dcad30e	0.09903537
76	0x3cf149f3	0.029454207
77	0x3eadef91	0.33971837
78	0x3f01e868	0.5074525
79	0x3eb93ec5	0.36180702
80	0x3bb977e3	0.0056600436
81	0x384c6d4a	4.8739174e-05
82	0x374c9a8a	1.2195329e-05
83	0xb9f92ec9	-0.0004752784
84	0xb84f8b64	-4.9482464e-05
85	0xbd9fe677	-0.078076296
86	0xb7b20013	-2.1219288e-05
87	0xbecc1596	-0.3986022
88	0xbd605f0c	-0.054778144
89	0x3d6438d9	0.055718277
90	0xbe7186e6	-0.23586616
91	0x38e14d22	0.00010743203
92	0xbd42978f	-0.04750782
93	0x388be182	6.6700406e-05
94	0xb7d390bb	-2.5220555e-05
95	0x38073297	3.2233624e-05
96	0xb830396d	-4.2015152e-05
97	0x38cfb9d7	9.9051445e-05
98	0x39548afe	0.00020269674
99	0xb908e186	-0.00013053985
100	0xb85c9428	-5.259007e-05
101	0x35f4ab0d	1.8229199e-06
102	0x3908d140	0.00013047922
103	0xb725101d	-9.838518e-06
104	0xb6cb0d69	-6.0514326e-06
105	0xb92fd327	-0.00016767961
106	0x387eef66	6.0781276e-05
107	0xb82c0d19	-4.1020194e-05
108	0x389321e0	7.015816e-05
109	0x39293f12	0.00016140591
110	0xb9828333	-0.00024893283
111	0xb846a06a	-4.7356276e-05
112	0xb9e5205e	-0.000437024
113	0xbe022ab1	-0.12711598
114	0xbec9e746	-0.3943426
115	0x3dbafca1	0.091302164
116	0xbdb392e6	-0.08768253
117	0xba436f2a	-0.00074552244
118	0xbe6a7672	-0.22896746
119	0x3e3bf462	0.18354943
120	0xbdd1e70c	-0.10249147
121	0xbe8d720f	-0.27626082
122	0x3e0c8d87	0.13725863
123	0xbdb0f0d9	-0.08639688
124	0x3d2ee844	0.042701975
125	0x3cd12bf2	0.02553365
126	0x3eee9955	0.46601358
127	0x3e71f297	0.23627697
128	0x3e2685c0	0.16261959
129	0x3e1fc8df	0.1560397
130	0xbd1e5e9d	-0.03866445
131	0xbbb4283b	-0.00549796
132	0x3d1271dc	0.035753116
133	0xbe876ce8	-0.26450276
134	0x3e79b985	0.24387176
135	0x3ceed70c	0.029155277
136	0xb9b6f8b4	-0.00034899043
137	0x3d1a7881	0.037712578
138	0x3ad8a41d	0.0016528402
139	0xbe80b512	-0.25138146
140	0xb91a881d	-0.0001473729
141	0xbea5e971	-0.32404664
142	0xbe2cc56f	-0.1687219
143	0x3d347998	0.044061273
144	0xbedb70ae	-0.42859405
145	0xbd1b369d	-0.03789388
146	0x3d5c0414	0.053714827
147	0xbe6ec3e5	-0.23316915
148	0xbee0906c	-0.43860185
149	0xbe1f153c	-0.15535444
150	0x3ce34ba9	0.027746039
151	0x3c3eb7bb	0.011640484
152	0xbcb2d951	-0.02183214
153	0xbb648bbb	-0.0034873325
154	0x3da94af9	0.08266253
155	0x3d4fce7f	0.05073404
156	0xbdf2e1c0	-0.11859465
157	0xb7620a29	-1.3473015e-05
158	0x3d63b69b	0.055594068
159	0x3e5fa0b2	0.21838644
160	0xbd9c19b8	-0.07622093
161	0x37882a20	1.623208e-05
162	0x37eb83a5	2.8075485e-05
163	0x3e1820f7	0.14856325
164	0x3d0a9d48	0.0338414
165	0xb794cbda	-1.77379e-05
166	0xbe3b0969	-0.18265308
167	0x3e41a5ec	0.1891095
168	0x3e4fad9b	0.20281069
169	0xbe131bdc	-0.14366096
170	0x389d9c2c	7.515433e-05
171	0x3efb4cec	0.49082124
172	0x3db39809	0.08769233
173	0xbe523e5c	-0.205316
174	0x3e57cb1a	0.21073571
175	0xbe0c087a	-0.13675109
176	0xbc20de97	-0.009818695
177	0x3e50301e	0.20330855
178	0x3e4de91a	0.20108452
179	0xbe012d95	-0.12615044
180	0xbe33fc84	-0.17576796
181	0x3ec10284	0.37697232
182	0xbd6d018a	-0.057862796
183	0x3e7a2b29	0.24430527
184	0x3ee02f82	0.43786246
185	0x3ee5068b	0.44731554
186	0xbd779258	-0.0604423
187	0x3cc06df7	0.023489935
188	0x3d16512e	0.036698513
189	0x3db21ee4	0.08697298
190	0xbcc03187	-0.023461116
191	0x3dfffc45	0.124992885
192	0x3cf40727	0.029788567
193	0xbb520ce0	-0.003205113
194	0x3d2792cb	0.040911477
195	0x3a305170	0.00067260023
196	0xbcad7961	-0.021176042
197	0xbe133cea	-0.14378706
198	0xbc32c53a	-0.01091128
199	0x3e258638	0.16164482
200	0x3dffbc63	0.12487104
201	0x3ca8d5c2	0.02060974
202	0x39113e41	0.00013851469
203	0x3d93f366	0.07224159
204	0x3e4ed53e	0.20198533
205	0x3e580205	0.2109452
206	0x3cfe0f15	0.031013051
207	0x3e61374e	0.21993753
208	0xbd312094	-0.04324396
209	0xb77cb9d1	-1.5063634e-05
210	0x3851ff2d	5.0067134e-05
211	0xbace0aa4	-0.0015719724
212	0xbc0a68f0	-0.008447871
213	0x373e6cb2	1.135019e-05
214	0xbe2cf249	-0.168893
215	0xb997d338	-0.00028958335
216	0xb80edc9b	-3.4060893e-05
217	0xb77ae81c	-1.4955203e-05
218	0xbd7e10e8	-0.06202784
219	0x3829b7f7	4.046407e-05
220	0xb874274c	-5.821073e-05
221	0xb85e5f2b	-5.3017557e-05
222	0xbddfe074	-0.10931483
223	0xb8bf7dba	-9.131008e-05
224	0xb5fa4b4a	-1.8648363e-06
225	0xb8675596	-5.51544e-05
226	0xb8367fb0	-4.35111e-05
227	0xb9df7775	-0.00042622877
228	0xb8e4651b	-0.000108907196
229	0xb7a2fe8e	-1.9430441e-05
230	0x37c39f2c	2.3319932e-05
231	0xb9491f52	-0.00019180521
232	0x3949c9f9	0.00019244094
233	0x38bddd6a	9.053464e-05
234	0x37e50100	2.7299393e-05
235	0xb8dd8261	-0.00010562386
236	0xb7866285	-1.6019922e-05
237	0x398a98c0	0.0002643522
238	0x39974aff	0.0002885684
239	0x3986c65a	0.00025706255
240	0x3d95753d	0.07297752
241	0x39411b81	0.0001841616
242	0x3c5b7936	0.013395598
243	0xba1f4dd8	-0.0006076968
244	0x3da370d3	0.07980504
245	0xb8e37451	-0.00010845869
246	0x3c81616d	0.015793527
247	0xb8e69a64	-0.00010996012
248	0x3e411f5f	0.18859623
249	0x3dc7b3f4	0.0975112
250	0xbd4d1030	-0.050064266
251	0x39303881	0.00016805717
252	0xbd6e0db1	-0.058118526
253	0xbe904e5b	-0.2818478
254	0x3dba4763	0.09095647
255	0xbd48961f	-0.04897129

autoencoders.1.decoder.cells.0.lstm.bias_ih f4 [32]
0	0x3c5ccab3	0.013476062
1	0x3e083814	0.13302642
2	0xbc62d4df	-0.013844698
3	0xb8bb4ee7	-8.9315516e-05
4	0xb915e0a9	-0.0001429344
5	0xb80797b7	-3.2327804e-05
6	0x3d7de689	0.061987434
7	0x3d13b3df	0.03606021
8	0x3d1d6633	0.038427543
9	0x3e1951da	0.1497263
10	0xbdb5dfca	-0.08880575
11	0xbc96e377	-0.01841901
12	0x394c032a	0.00019456135
13	0x385d5a53	5.2774627e-05
14	0xbb9cfc5a	-0.004790825
15	0x3c2807db	0.010255779
16	0xbbfbf627	-0.0076892558
17	0xbe20b548	-0.15694153
18	0xbd4033ab	-0.046924274
19	0x3d8a48dc	0.06752178
20	0xbc06ec2a	-0.008235017
21	0xbc764f03	-0.015033486
22	0x3c8a140b	0.01685526
23	0x3d37fb69	0.044917498
24	0x3db64c07	0.0890122
25	0x3e1db003	0.15399174
26	0xbdd3ae1d	-0.10335944
27	0xbca87939	-0.020565616
28	0x3630b349	2.6330401e-06
29	0x38ee49b8	0.000113624556
30	0x3cbb7b48	0.022885934
31	0x3cfde0e3	0.030991023

autoencoders.1.decoder.cells.0.lstm.bias_hh f4 [32]
0	0x3c5ccab3	0.013476062
1	0x3e083814	0.13302642
2	0xbc62d4df	-0.013844698
3	0xb8bb4ee7	-8.9315516e-05
4	0xb915e0a9	-0.0001429344
5	0xb80797b7	-3.2327804e-05
6	0x3d7de689	0.061987434
7	0x3d13b3df	0.03606021
8	0x3d1d6633	0.038427543
9	0x3e1951da	0.1497263
10	0xbdb5dfca	-0.08880575
11	0xbc96e377	-0.01841901
12	0x394c032a	0.00019456135
13	0x385d5a53	5.2774627e-05
14	0xbb9cfc5a	-0.004790825
15	0x3c2807db	0.010255779
16	0xbbfbf627	-0.0076892558
17	0xbe20b548	-0.15694153
18	0xbd4033ab	-0.046924274
19	0x3d8a48dc	0.06752178
20	0xbc06ec2a	-0.008235017
21	0xbc764f03	-0.015033486
22	0x3c8a140b	0.01685526
23	0x3d37fb69	0.044917498
24	0x3db64c07	0.0890122
25	0x3e1db003	0.15399174
26	0xbdd3ae1d	-0.10335944
27	0xbca87939	-0.020565616
28	0x3630b349	2.6330401e-06
29	0x38ee49b8	0.000113624556
30	0x3cbb7b48	0.022885934
31	0x3cfde0e3	0.030991023
