results/H4_VariableSkip/machine_temperature_system_failure/ensemble_autoencoder_weights.pth (torch, 87914 bytes, 130 tensors)

autoencoders.0.encoder.cells.0.weight_h_2 f4 [8, 8]
000000 d9 ee c7 37 48 1c 42 39 41 39 02 39 0d ae 8b b8
       2.383387e-05 0.00018511817 0.00012419095 -6.660456e-05
000010 92 70 0a 39 fd 1b 8f 38 b8 67 95 b8 03 5d 52 b6
       0.00013202641 6.8239846e-05 -7.124193e-05 -3.1346578e-06
000020 02 24 8a b9 f2 29 90 39 f6 54 5e b9 2a c2 2b 39
       -0.0002634824 0.00027497072 -0.0002120322 0.00016380163
000030 f4 3c 45 b9 83 9d 8b 38 10 86 12 39 dc 93 f6 b8
       -0.00018810091 6.657375e-05 0.00013973587 -0.00011757735
000040 bc 0e a9 b8 2f a4 82 b8 a1 64 3e b9 d2 31 9f b8
       -8.0612925e-05 -6.2294646e-05 -0.00018157299 -7.5909906e-05
000050 65 79 95 39 ef 8f 58 39 b9 84 0a b9 8d ce d0 38
       0.0002850994 0.00020652985 -0.00013210149 9.956686e-05
000060 43 bc 1d 38 5a 4b b5 38 e9 60 53 b8 61 a3 b6 38
       3.760705e-05 8.644788e-05 -5.0396575e-05 8.708868e-05
000070 37 24 bc b8 83 dc e8 b8 56 1e 94 b8 bf 88 0d b7
       -8.971284e-05 -0.000111036956 -7.0628405e-05 -8.436094e-06
000080 f0 5d 94 b9 d7 27 48 37 b9 5a 82 39 15 dd 1b 39
       -0.0002829875 1.1930205e-05 0.00024863126 0.00014864311
000090 92 d9 0d 38 51 3f 97 39 51 ce 41 b9 53 e6 5c 39
       3.3819648e-05 0.0002884814 -0.00018482773 0.00021066637
0000a0 80 0e 6b b8 a6 03 2d b9 9b 0e 1e 39 8d 5a 6d b8
       -5.604187e-05 -0.00016499925 0.00015073495 -5.6589535e-05
0000b0 34 b9 8a 38 20 e3 93 b8 50 19 c4 b8 45 51 14 b8
       6.6148496e-05 -7.0518116e-05 -9.350723e-05 -3.5361638e-05
0000c0 eb fa e3 b7 9b bf 57 b9 27 55 8b b8 e7 2d 8f b8
       -2.7177352e-05 -0.00020575376 -6.643897e-05 -6.827321e-05
0000d0 e9 97 13 39 97 2d e0 b8 fa 12 ff b8 51 51 11 b9
       0.00014075603 -0.00010689644 -0.00012162882 -0.0001385857
0000e0 97 c8 7d b8 62 eb 22 b8 79 bf e6 37 c0 3a 90 38
       -6.0506714e-05 -3.8843027e-05 2.7507298e-05 6.877398e-05
0000f0 4b ef 39 b9 71 9f 74 39 d1 a4 d2 39 5e b2 f0 38
       -0.00017732118 0.0002332905 0.0004017712 0.00011477315

autoencoders.0.encoder.cells.0.bias_h_2 f4 [8]
000000 00 00 00 00 00 00 00 00 00 00 00 00 00 00 00 00
       0.0 0.0 0.0 0.0
000010 00 00 00 00 00 00 00 00 00 00 00 00 00 00 00 00
       0.0 0.0 0.0 0.0

autoencoders.0.encoder.cells.0.lstm.weight_ih f4 [32, 1]
000000 43 3c 98 39 a2 70 26 39 1a 7a bd b9 cc 46 a3 38
       0.00029036598 0.00015872953 -0.00036139862 7.7856326e-05
000010 30 17 9b 38 7c 6b 3d 38 9e a6 31 39 58 3a ad b5
       7.395295e-05 4.5161214e-05 0.00016942105 -1.2906485e-06
000020 d2 92 0e b9 97 7f bc 38 59 ab 29 b9 7a c4 15 39
       -0.0001359687 8.988304e-05 -0.00016180928 0.0001428294
000030 ff 72 f7 39 6c ce cc b8 61 43 7b 38 79 5c 90 37
       0.0004719719 -9.765927e-05 5.9905815e-05 1.7209199e-05
000040 b5 c2 04 b8 56 0b 1a b9 9a ff 6d 38 cd ea 4a b9
       -3.1652587e-05 -0.00014690807 5.674325e-05 -0.00019351691
000050 41 68 a3 39 5c af 24 b9 87 8d 5b b9 f0 93 13 39
       0.00031167458 -0.00015705585 -0.0002093819 0.00014074123
000060 68 fc 9b b8 0c 62 25 37 85 99 5e b9 db a8 3b b9
       -7.43799e-05 9.857595e-06 -0.0002122876 -0.00017896613
000070 e2 c4 06 b8 0c 50 1b b9 af 87 a0 38 96 17 60 38
       -3.213145e-05 -0.00014811772 7.6546676e-05 5.3427728e-05

autoencoders.0.encoder.cells.0.lstm.weight_hh f4 [32, 8]
000000 99 9c 79 39 f7 a2 bd 38 e3 42 06 b9 65 f2 0d 39
       0.00023804828 9.042577e-05 -0.00012804153 0.00013537107
000010 d4 79 89 39 c1 9d ab 37 29 d6 0e b8 4c 21 03 38
       0.00026221445 2.0458248e-05 -3.405489e-05 3.1263844e-05
000020 65 6f fc b8 5d 01 d4 b8 c4 80 b4 b8 78 64 26 39
       -0.00012037045 -0.00010109202 -8.607053e-05 0.00015868421
000030 3e 63 ee b9 0d a2 84 b8 a1 b7 23 b8 b2 f6 0c b9
       -0.0004546884 -6.324435e-05 -3.9033246e-05 -0.00013443342
000040 ab 18 1c b4 bf c5 53 b8 c9 6d 92 b8 cb 61 c4 b9
       -1.4537606e-07 -5.0490486e-05 -6.9822716e-05 -0.00037456895
000050 92 69 02 b9 8d 78 e4 b8 3e 1f da b7 db 3f d2 39
       -0.00012437094 -0.000108943415 -2.6002173e-05 0.00040101897
000060 ea e2 ab 38 64 5b 07 39 8d 90 a8 b9 10 a6 14 b8
       8.1961814e-05 0.00012908649 -0.00032151156 -3.5440607e-05
000070 f9 0f 45 b8 a9 ac 1f b9 be cd d1 b8 d6 d7 3b b9
       -4.6983336e-05 -0.00015227743 -0.00010004219 -0.00017914115
000080 a7 a8 cc 37 7a 3d 41 b9 b4 42 20 39 49 e6 31 b9
       2.439723e-05 -0.00018428816 0.00015283638 -0.00016965823
000090 81 6a 3b b8 be 87 d6 b6 70 82 20 b9 18 3d 02 3a
       -4.4683464e-05 -6.3934995e-06 -0.00015307381 0.000496821
0000a0 1a bb 23 b9 fd bc 98 38 16 80 25 b9 3d db 96 39
       -0.00015614592 7.2831266e-05 -0.00015783342 0.00028773575
0000b0 4c 79 a1 39 f4 47 8a 39 50 ab be b8 59 1c fb 38
       0.00030798686 0.0002637502 -9.0918154e-05 0.00011973893
0000c0 61 3d 43 39 bf 16 09 39 af 1a 6a b9 61 3f ab 39
       0.00018619515 0.00013073812 -0.0002232592 0.00032662883
0000d0 5f dd dc 39 29 5b 16 b9 4d 80 52 38 a7 f0 c7 b8
       0.00042126604 -0.00014339075 5.018739e-05 -9.5338844e-05
0000e0 0e 08 10 b9 ba 42 88 39 3b d2 7e b9 75 ea f0 b8
       -0.00013735911 0.00025989657 -0.00024301645 -0.00011487763
0000f0 3f bd fa b7 8b 20 ac b6 0b 24 73 37 cd 9c 61 b9
       -2.9890447e-05 -5.129788e-06 1.4492321e-05 -0.00021516085
000100 3f 35 cf b9 a9 76 c7 37 32 26 3b 39 ef 64 1b b9
       -0.00039521788 2.3777904e-05 0.00017847939 -0.00014819553
000110 3d 84 05 39 dc d1 35 39 a4 c8 42 39 01 f4 83 b8
       0.00012733131 0.00017339684 0.00018576026 -6.292016e-05
000120 d6 96 0a 39 ad 52 d2 b7 7c 43 30 b7 4d ec 81 b8
       0.00013216896 -2.507245e-05 -1.050613e-05 -6.195214e-05
000130 a3 4b 74 b9 95 cc 9a b8 c0 5a 2a 38 8b 4b ec b9
       -0.0002329783 -7.3813986e-05 4.0615676e-05 -0.00045069712
000140 1d 9b 33 b9 36 2f 11 38 cc 16 7d 39 b8 48 43 b7
       -0.00017128554 3.4614663e-05 0.00024136453 -1.1639837e-05
000150 0b 6f 48 38 93 77 eb 38 2b b9 4a b9 0d 19 23 39
       4.7787133e-05 0.00011227946 -0.00019333202 0.00015554224
000160 01 dd 95 39 1e 5f f9 b7 24 04 b5 b8 53 2a c0 b8
       0.00028584155 -2.9727405e-05 -8.631524e-05 -9.163157e-05
000170 c9 6e 76 b9 6f e0 7a b9 88 c7 40 39 83 a3 ea b9
       -0.00023501659 -0.00023925466 0.00018384878 -0.00044753784
000180 56 38 f5 36 4f 2b 85 39 91 04 62 39 ac 8f 91 b8
       7.3081274e-06 0.00025400004 0.0002155474 -6.9409e-05
000190 fb bd 92 b7 4c 17 8c 39 c4 54 74 38 97 ea 3f 39
       -1.7493023e-05 0.00026720238 5.8253077e-05 0.00018302571
0001a0 8d ed e9 38 31 63 e9 37 29 bd 83 39 80 8e c0 b9
       0.00011154553 2.7821954e-05 0.00025127202 -0.00036727265
0001b0 56 cc a6 36 f0 a4 c7 b7 14 62 c3 b7 5c ac f8 38
       4.9709734e-06 -2.3799454e-05 -2.3291483e-05 0.00011857666
0001c0 96 9e a9 b9 e2 1e 1d 38 15 a3 bb b8 de ae 15 39
       -0.00032352348 3.746048e-05 -8.947231e-05 0.0001427489
0001d0 f4 68 89 38 bd 47 07 b9 dd 1c 64 39 e0 e9 68 39
       6.552218e-05 -0.00012901328 0.00021754527 0.0002221237
0001e0 90 b6 bc b5 72 1f 07 39 48 96 1f b7 12 9c b6 b8
       -1.4060224e-06 0.00012886318 -9.512129e-06 -8.707507e-05
0001f0 25 13 e8 b8 47 a3 63 b8 12 cb 0e 39 cd 98 a3 b9
       -0.00011066188 -5.427308e-05 0.00013617825 -0.00031203628
000200 82 b8 75 39 39 1a 90 37 e3 36 e8 39 ea c3 42 b8
       0.00023433755 1.7178349e-05 0.00044291382 -4.6435664e-05
000210 fc ea cf b8 0c 68 64 38 67 73 65 38 04 39 58 39
       -9.9142984e-05 5.4456337e-05 5.470533e-05 0.00020620605
000220 9d 7a 50 38 5d a6 8b b9 74 ae 10 39 03 54 07 b9
       4.9705257e-05 -0.00026636096 0.00013797899 -0.000129059
000230 f2 bf ff 39 e6 9d a8 38 12 22 96 39 87 db 5b b6
       0.000487804 8.040275e-05 0.00028635614 -3.2761325e-06
000240 3d 3d 0c b7 22 85 3b b9 1f 16 2f 37 6e 74 72 b7
       -8.358908e-06 -0.00017883306 1.0435963e-05 -1.4451432e-05
000250 b3 02 5c b5 16 35 a6 39 47 46 84 b9 22 a1 b9 b8
       -8.1960314e-07 0.0003170154 -0.00025229363 -8.851501e-05
000260 72 bf d3 b8 f6 29 0d b9 78 fb c6 38 77 80 2a 39
       -0.000100969235 -0.0001346244 9.4882154e-05 0.0001626032
000270 c6 bb 83 b7 20 b5 1c 38 34 31 14 b8 40 b0 ff b8
       -1.5703856e-05 3.7361984e-05 -3.5331774e-05 -0.00012192177
000280 c9 ea 81 b9 54 c7 90 b8 63 56 48 39 b0 b5 f6 b7
       -0.00024779726 -6.903583e-05 0.00019105668 -2.941009e-05
000290 18 e2 13 b7 7a 6e 10 39 12 27 37 39 e1 e4 c6 38
       -8.814524e-06 0.00013774066 0.00017466795 9.484008e-05
0002a0 15 74 5e 39 46 9a 15 b9 5a a2 7b 38 1d 37 79 38
       0.00021214814 -0.00014267219 5.9994265e-05 5.9417554e-05
0002b0 99 cc 33 b7 45 55 1d b8 08 1f f7 38 9d 50 0d 39
       -1.0716868e-05 -3.751113e-05 0.00011783658 0.00013476839
0002c0 5a 25 83 b9 ac aa 81 b8 75 2f 40 b7 76 af 94 b7
       -0.00025014096 -6.1829895e-05 -1.1455141e-05 -1.772468e-05
0002d0 58 40 89 b8 e0 aa c2 37 a9 47 21 b7 f1 c8 63 b8
       -6.544654e-05 2.3206172e-05 -9.6130325e-06 -5.430816e-05
0002e0 20 15 7e 37 c5 63 0d b9 0b 95 88 b8 a1 09 31 b9
       1.5144498e-05 -0.00013483975 -6.512747e-05 -0.00016883622
0002f0 6d a3 86 b9 99 31 6d b9 4f e7 72 b9 2c 3d 8f b9
       -0.00025680233 -0.00022620558 -0.00023165088 -0.00027320662
000300 42 1a a3 b9 c4 48 a8 b8 f2 40 25 b9 c1 24 fc b4
       -0.00031109346 -8.024418e-05 -0.0001575982 -4.69654e-07
000310 57 6d 7c b7 47 3e 07 39 fc af 38 36 0e 51 33 38
       -1.5045828e-05 0.00012897803 2.7520573e-06 4.2752414e-05
000320 84 57 0d 39 91 9a 9c b8 68 b9 52 39 eb 1a 6d 36
       0.0001347941 -7.46745e-05 0.0002009623 3.533142e-06
000330 5e 31 4d b9 c2 fb 83 36 ed df 33 b7 37 4f 86 37
       -0.00019568714 3.9334127e-06 -1.0721368e-05 1.6010932e-05
000340 94 9a 19 39 bb c3 d2 b8 d5 2c 3b 39 4d f1 0e b8
       0.00014648802 -0.00010050038 0.00017850411 -3.4080167e-05
000350 e4 20 e8 b7 c3 cc 8a 38 ab 26 8a b8 2f 26 13 39
       -2.7671871e-05 6.6184926e-05 -6.587555e-05 0.00014033237
000360 23 09 4d b9 74 25 06 39 87 2d 3d 39 bf ba c2 37
       -0.00019553727 0.00012793188 0.00018041405 2.3213563e-05
000370 b2 b4 4c b9 e6 3b 87 38 51 5c c9 b7 af c2 6b b7
       -0.0001952227 6.4484586e-05 -2.4004055e-05 -1.405242e-05
000380 be 0c 32 b8 81 af c1 38 ff 6c 76 b8 5a 85 52 39
       -4.2450374e-05 9.235647e-05 -5.875248e-05 0.00020076838
000390 f8 d5 39 b8 c4 3b cd b8 81 45 ec 38 74 bb 04 39
       -4.430671e-05 -9.786294e-05 0.00011266303 0.00012658333
0003a0 b4 44 14 39 3f bf 80 b8 f7 1e 0b ba e8 02 08 b9
       0.00014139974 -6.139138e-05 -0.00053070433 -0.00012971053
0003b0 fd 1e 8f 38 a5 4e 4f 37 76 6a 15 b9 1f 85 41 38
       6.8245434e-05 1.2356472e-05 -0.00014249407 4.6138764e-05
0003c0 1b a7 a4 38 92 a2 2f b8 66 0b a4 b9 8d f3 8a b9
       7.851255e-05 -4.1874657e-05 -0.0003128901 -0.0002650287
0003d0 d1 b6 19 39 3f e6 0e 37 b0 a8 d6 b8 5b 4d 22 39
       0.00014659321 8.517468e-06 -0.00010235736 0.00015478341
0003e0 87 4d 48 b8 5e b3 8f 39 88 d8 aa 39 59 52 94 38
       -4.775592e-05 0.00027408724 0.00032586255 7.0725284e-05
0003f0 73 50 ea 38 0a fc df b9 01 b0 f6 b9 8b 83 8f 39
       0.00011172974 -0.00042721658 -0.0004705191 0.00027373093

autoencoders.0.encoder.cells.0.lstm.bias_ih f4 [32]
000000 00 00 00 00 00 00 00 00 00 00 00 00 00 00 00 00
       0.0 0.0 0.0 0.0
000010 00 00 00 00 00 00 00 00 00 00 00 00 00 00 00 00
       0.0 0.0 0.0 0.0
000020 00 00 00 00 00 00 00 00 00 00 00 00 00 00 00 00
       0.0 0.0 0.0 0.0
000030 00 00 00 00 00 00 00 00 00 00 00 00 00 00 00 00
       0.0 0.0 0.0 0.0
000040 00 00 00 00 00 00 00 00 00 00 00 00 00 00 00 00
       0.0 0.0 0.0 0.0
000050 00 00 00 00 00 00 00 00 00 00 00 00 00 00 00 00
       0.0 0.0 0.0 0.0
000060 00 00 00 00 00 00 00 00 00 00 00 00 00 00 00 00
       0.0 0.0 0.0 0.0
000070 00 00 00 00 00 00 00 00 00 00 00 00 00 00 00 00
       0.0 0.0 0.0 0.0

autoencoders.0.encoder.cells.0.lstm.bias_hh f4 [32]
000000 00 00 00 00 00 00 00 00 00 00 00 00 00 00 00 00
       0.0 0.0 0.0 0.0
000010 00 00 00 00 00 00 00 00 00 00 00 00 00 00 00 00
       0.0 0.0 0.0 0.0
000020 00 00 00 00 00 00 00 00 00 00 00 00 00 00 00 00
       0.0 0.0 0.0 0.0
000030 00 00 00 00 00 00 00 00 00 00 00 00 00 00 00 00
       0.0 0.0 0.0 0.0
000040 00 00 00 00 00 00 00 00 00 00 00 00 00 00 00 00
       0.0 0.0 0.0 0.0
000050 00 00 00 00 00 00 00 00 00 00 00 00 00 00 00 00
       0.0 0.0 0.0 0.0
000060 00 00 00 00 00 00 00 00 00 00 00 00 00 00 00 00
       0.0 0.0 0.0 0.0
000070 00 00 00 00 00 00 00 00 00 00 00 00 00 00 00 00
       0.0 0.0 0.0 0.0

autoencoders.0.decoder.cells.0.weight_h_2 f4 [8, 8]
000000 89 6f bb bd 1a b3 5e 3e af ca f4 3e 34 5e 7f 39
       -0.09152133 0.2174801 0.47810885 0.00024353788
000010 4c d4 a1 ba c4 0b 00 bc cd 17 36 3d e0 7e da be
       -0.0012346595 -0.007815305 0.044456292 -0.42674923
000020 f7 ca f2 3c 52 4d 7e bd 3c 3f 83 3e fe d0 a1 3e
       0.029637797 -0.062085457 0.25634181 0.3160476
000030 d8 3c d8 3e 70 6e f3 3e 4b 53 84 3e e3 db 08 3d
       0.4223392 0.47545195 0.25844797 0.033412825
000040 ec 0d 5c bd ca ad 05 3f 88 ba d2 3e d0 2a 30 3f
       -0.053724214 0.52218306 0.41157937 0.68815327
000050 92 b3 29 be f8 94 b4 bc 4a f1 17 3e 69 13 63 be
       -0.16572407 -0.02204369 0.14838138 -0.22175373
000060 a0 cf 40 bb 8c 04 5d be 2c d9 b0 be 05 ed 48 bd
       -0.002942063 -0.21583766 -0.3454069 -0.049054164
000070 56 53 8c 3d 06 19 08 3f fb b6 da bc a6 96 b4 be
       0.068518326 0.5316318 -0.02669858 -0.35271186
000080 07 d8 b8 3d 22 fc 97 ba 93 5d 23 3e c2 7a 0f 3f
       0.09025579 -0.0011595527 0.15953664 0.5604669
000090 9e 80 fe 3d 90 ff a3 3e 3f cd 92 be 77 ae ac 3e
       0.124268755 0.32030916 -0.28672215 0.33726856
0000a0 ae 2f 04 bf 97 8d 89 3e 2e 20 25 be cd 77 7e 3e
       -0.51635253 0.26865837 -0.16125557 0.24850388
0000b0 8e 4d 82 be 5b 82 da 3e 83 e0 20 3e af 67 55 be
       -0.25449795 0.42677578 0.15710644 -0.20840333
0000c0 cc 13 1a 3f 6a e7 4b be 50 0b 0e bf 15 00 b8 3a
       0.6018646 -0.19912496 -0.5548601 0.001403811
0000d0 d6 d4 3a bf 68 6d 6e be 55 d1 aa 3e e4 80 3d 3e
       -0.7298101 -0.23283923 0.33362833 0.18506199
0000e0 57 2e 0f bf 71 ed 89 3d 9a 64 29 be ba f1 03 3d
       -0.55930084 0.067347415 -0.16542283 0.03221295
0000f0 d1 46 66 be 6c a9 c4 3e 4c 0e 83 be c0 7d 56 3d
       -0.22487952 0.3841051 -0.25596845 0.05236602

autoencoders.0.decoder.cells.0.bias_h_2 f4 [8]
000000 04 d9 8d bd fc d7 aa 3d d6 a0 84 bd 4d 52 da 3d
       -0.06926158 0.08341977 -0.064759895 0.10660229
000010 02 16 96 3b 71 2a 98 3d cb eb a3 3d 9a 69 bf 3d
       0.0045802603 0.0742997 0.08003958 0.09346314

autoencoders.0.decoder.cells.0.lstm.weight_ih f4 [32, 1]
000000 5b fc 80 36 b4 bd 9a 3e d4 40 b3 bd 2a 68 b6 3e
       3.8440753e-06 0.30222857 -0.08752599 0.35626346
000010 58 d0 47 be 38 5a a5 3d 46 1b 53 3e 35 d9 b8 3e
       -0.1951307 0.080738485 0.20615873 0.36103216
000020 33 de 7d b7 3e b7 f8 bd fa 58 3e be 36 af 4b 3e
       -1.513171e-05 -0.12144326 -0.1858863 0.19891056
000030 05 a3 b5 b8 fb 61 3d 3d 76 5b 8e 3d 18 60 0f 3b
       -8.661117e-05 0.04623602 0.069510385 0.0021877345
000040 0e 84 16 be 21 62 8b 3e 76 ea 75 be b9 3d 8a 3d
       -0.14698812 0.27223304 -0.24015221 0.06750054
000050 f3 6d 45 3c cb 83 d7 3e 7c a3 9a 3c d2 20 07 3d
       0.01205014 0.42092738 0.018876784 0.032990284
000060 6d 51 be 3e 75 b3 eb 3e 3c 51 85 be 0b aa 9e 3e
       0.37171498 0.46035352 -0.2603854 0.30989107
000070 36 6d 8f b9 d3 c5 7f 3e 1d f3 aa 3e 38 1d 68 3e
       -0.00027356454 0.24977808 0.33388606 0.22667396

autoencoders.0.decoder.cells.0.lstm.weight_hh f4 [32, 8]
000000 bd 32 77 37 2f 06 2a 3d a2 5c 97 36 93 ba 74 36
       1.4734161e-05 0.041509803 4.5109346e-06 3.6467434e-06
000010 fa f3 c0 3c 27 f3 09 3e 67 6c e6 ba 63 d0 03 bb
       0.023553837 0.13471662 -0.0017579914 -0.0020113222
000020 9f ce 09 3f 6d ae 4b 3d 26 f3 e4 3e 4e 3d 7a be
       0.53830904 0.049726892 0.44716758 -0.24437448
000030 37 c6 7e 39 b1 bf 96 bc 57 98 4b 3d 33 45 2f 3e
       0.00024297168 -0.018401952 0.04970583 0.17116241
000040 e5 bf 6f 3e 4b d1 52 3c 39 6a 4a 39 5a 71 f8 3d
       0.23413046 0.012867282 0.00019303792 0.12130995
000050 86 19 37 b9 fe fb 0e 39 7e e0 3e b9 f4 6b 2b b8
       -0.00017461748 0.0001363605 -0.00018203442 -4.0870116e-05
000060 67 99 8d 39 7c ac 83 3a a4 2e 42 39 2e f9 0b 3e
       0.0002700791 0.0010045911 0.00018518657 0.13669273
000070 56 1e 53 ba 78 a2 36 3e 64 b5 07 3d aa 87 4a ba
       -0.00080535316 0.17835414 0.033131972 -0.0007725904
000080 5a 6c 21 ba 5d 57 89 3a 35 b8 b0 b8 02 eb 0a 3a
       -0.0006157808 0.0010478307 -8.426645e-05 0.0005299301
000090 e9 d9 0d ba 3b 93 f3 39 5c 6a 97 3a 18 08 a9 3a
       -0.0005411194 0.00046458267 0.0011552083 0.0012896089
0000a0 fa 43 21 39 86 fc 58 3e 50 54 91 3e 10 c4 85 be
       0.0001537948 0.2119008 0.28384638 -0.26126146
0000b0 ea 73 27 38 e3 68 fd 3d d4 83 5c be 83 9e a4 3e
       3.9923856e-05 0.12373521 -0.21534663 0.32152185
0000c0 42 db 01 38 c3 76 47 3e 0f a0 4f 3e c9 2b 73 be
       3.0960196e-05 0.19478898 0.20275901 -0.23747171
0000d0 9f 31 0b 3e 0e 51 6e 3e 8e 8e 0e 39 1a 33 da 3e
       0.13593148 0.23273107 0.00013595281 0.42617112
0000e0 09 4a 2b 3e e5 cc 4d bd 1a 16 3f 3e 25 d6 81 ba
       0.16727461 -0.05024423 0.18660775 -0.0009905739
0000f0 91 2d 05 3c 04 93 04 3e b9 91 f1 3e 30 d3 13 3f
       0.00812854 0.12946707 0.4718149 0.5774412
000100 1c bd 88 bb 70 3d 62 3d dd cc c7 3e eb 3e 25 3e
       -0.004172934 0.055234373 0.39023486 0.16137283
000110 03 27 ce 3c 5a 2f f8 3b bb 3d 40 38 68 39 8b 3c
       0.025165087 0.007574004 4.5833858e-05 0.016995147
000120 36 5c 49 ba aa 8e ba ba 03 e6 15 3e f5 9a 58 be
       -0.0007681282 -0.0014233191 0.14638524 -0.21152861
000130 e4 78 1c 3e 0c df d0 3e fa 58 ae be c1 13 07 3b
       0.15280491 0.4079517 -0.3405226 0.002061114
000140 9b 07 9d 38 19 ce 21 b9 b8 6b 88 39 34 c9 3c 3a
       7.48776e-05 -0.00015430934 0.00026020198 0.00072016125
000150 c7 32 0f 39 ba 74 c0 38 48 93 28 38 14 12 87 b8
       0.00013656459 9.1770155e-05 4.0191488e-05 -6.440669e-05
000160 50 31 76 b9 38 55 d4 b9 62 d3 16 39 32 8c de bd
       -0.00023478759 -0.00040499284 0.00014383861 -0.10866584
000170 df 9c af ba 1e 73 3f bb 6b fd d9 b9 1a c6 a3 bb
       -0.0013398192 -0.0029212902 -0.00041578276 -0.004997981
000180 42 71 0a 38 66 d5 f5 3a 1f 3e 4f b9 ef 74 6e 3a
       3.3007243e-05 0.0018755614 -0.000197642 0.0009096404
000190 e5 96 39 39 55 57 30 39 04 64 a4 39 ec e9 dd 39
       0.00017699187 0.00016817202 0.00031355035 0.0004232669
0001a0 72 71 62 ba ff 9e 9a b9 ba 43 43 3c b4 7c 51 bd
       -0.00086381205 -0.0002949163 0.011918003 -0.051144317
0001b0 5c a2 1c ba f7 df bb 3b c9 f1 e8 bd 4e a2 0b be
       -0.0005975121 0.005733486 -0.11374242 -0.13636133
0001c0 6c 72 1d b9 e4 44 ea 3c 2a 59 00 be f3 68 07 be
       -0.00015015312 0.028597303 -0.12534013 -0.13223629
0001d0 8e f6 5f ba cb 27 05 be 58 a7 1d be f6 4d 77 bd
       -0.00085435144 -0.13003461 -0.15395868 -0.060377084
0001e0 ef 02 2d ba bb 37 20 3f 86 e4 9a 3e cd 05 9e be
       -0.00065998634 0.6258504 0.30252475 -0.308638
0001f0 47 d7 0c be 69 ce 24 bd 61 6f 5e 3e f2 b0 5a be
       -0.13753997 -0.04023591 0.21722175 -0.21356562
000200 de d7 96 3d be 86 89 be e5 b5 9a be 40 88 bb 38
       0.07365392 -0.26860613 -0.302169 8.9422334e-05
000210 4f ab 0f be 99 04 b1 3b 08 54 83 bd fc 13 51 bd
       -0.14030193 0.0054021594 -0.06412512 -0.05104445
000220 34 31 56 3d a5 ef a2 3e d3 e9 a2 3c 1a 06 c9 bc
       0.052293018 0.3182346 0.019886887 -0.024539042
000230 f8 cd e7 3e 64 7e 9a 3d 33 08 88 be 7d d5 c7 3e
       0.4527433 0.07543638 -0.26568756 0.39030066
000240 02 cb 53 bc 11 e8 92 be f8 21 1f be 0e 47 01 bb
       -0.012926819 -0.28692678 -0.15540302 -0.001972619
000250 23 f6 1c 3e e7 d3 38 be ce 4c 91 bd 3c 3e 8c be
       0.15328269 -0.18049584 -0.070947275 -0.2739123
000260 67 67 8e 3e 5e 58 ab 3d 11 3a 95 3d 3f 90 99 3e
       0.27813265 0.08366464 0.07286466 0.29992864
000270 4e 08 b6 3e 5d 59 3f 3e 27 aa d6 3d e4 c3 be be
       0.3555321 0.18686433 0.10481673 -0.37258828
000280 3e c1 c2 b7 83 ca d9 bd 8a 37 88 3c 4e 11 ea be
       -2.3216588e-05 -0.10634329 0.016628046 -0.45716327
000290 65 b5 c4 b9 84 85 2c be 9b 81 2f 3e 99 a0 bc 3c
       -0.00037519183 -0.16847807 0.17139284 0.023025798
0002a0 9a bb 1b be 99 c1 dc 3d 96 3a 15 be b7 00 6e be
       -0.15208283 0.10779113 -0.1457313 -0.2324246
0002b0 7c 74 a4 bd fa 08 cf 3b 60 e1 f0 3d d4 a4 38 3e
       -0.0803003 0.0063182088 0.11761737 0.18031627
0002c0 95 53 29 3b 68 bc 90 3e 6e 7a 84 3d ef 00 1a 3e
       0.0025837172 0.28268743 0.06468664 0.15039419
0002d0 2f fb 16 3f 6c 03 06 3d 17 d2 93 3e 87 31 25 bd
       0.58977026 0.032718107 0.28871223 -0.040330436
0002e0 f9 88 0a 3e 76 72 a8 bd 0e 54 ea 3e 9a 9c d9 3e
       0.13528813 -0.08224957 0.45767254 0.4250229
0002f0 5a 05 bc be 7f 99 f6 3e 93 67 20 3e e7 3c 3d 3e
       -0.36722833 0.48163983 0.1566451 0.18480264
000300 4e 28 ae b8 78 8e 20 3c 5d 71 ff 3d 62 8e 29 38
       -8.304474e-05 0.009799592 0.12472794 4.0425344e-05
000310 96 68 b1 38 db 0f 2a 3e ca 4c 38 3d a1 3a 77 be
       8.459498e-05 0.16607611 0.044995107 -0.24143459
000320 ea b2 54 3e 0e 1f ae 3d 3d de a2 3e 30 9f f6 b9
       0.20771375 0.08502017 0.3181018 -0.0004703938
000330 aa 1c 0f 3e 2a d8 c1 3d 90 ee d0 3c df d4 09 3e
       0.13975778 0.09465058 0.02550438 0.1346011
000340 19 e4 5b b8 a5 b8 8c 3e e3 df 98 3d 41 53 3c 3a
       -5.24261e-05 0.27484623 0.07464578 0.00071840367
000350 b5 fe c8 b9 43 32 03 bc 3d 92 17 39 cb 65 ae 39
       -0.00038336744 -0.008007589 0.0001445496 0.00033263708
000360 6d 1d 10 ba c9 5d 13 3e 3d a6 ee 39 97 45 e7 3a
       -0.0005497549 0.14391245 0.00045518755 0.0017644641
000370 32 40 ad b9 95 9f 0d 3e 8e fe a5 39 8d e5 38 3a
       -0.0003304496 0.13830407 0.0003166091 0.00070532487
000380 4b 97 f2 b7 0a c3 26 3a 37 ab 56 38 9d 31 04 3a
       -2.89191e-05 0.00063614605 5.1181032e-05 0.00050427933
000390 b7 86 04 b9 32 44 65 bd b5 ff 55 3a 08 cb 03 3a
       -0.00012638686 -0.05597324 0.00081634085 0.00050275074
0003a0 f9 74 2e 3c bb 47 90 3e e7 b3 38 bd 42 47 1f be
       0.010648006 0.28179726 -0.045093443 -0.15554526
0003b0 13 e1 cb 3d 45 d9 01 bd a3 9d d8 3d 50 68 aa 3e
       0.09955039 -0.031701345 0.10576942 0.3328271
0003c0 cc 63 a4 3a 2f a3 8b 3c 51 eb d3 3e e8 0f d6 bd
       0.0012541949 0.017045585 0.4139047 -0.104522526
0003d0 cc f2 8d 3e 95 a4 eb bc 6b 0a 3a be 29 6a d6 bc
       0.27724302 -0.028765002 -0.18168037 -0.026173668
0003e0 db 79 38 bc 10 9c ac 3e d1 76 62 3e f3 06 c9 bc
       -0.011259521 0.33712816 0.22115637 -0.024539446
0003f0 f9 49 61 3d e5 eb 31 3d 97 fd 2b 3e 90 f6 4b be
       0.055002186 0.043437857 0.16795956 -0.19918275

autoencoders.0.decoder.cells.0.lstm.bias_ih f4 [32]
000000 d6 1e 32 3d 3d d2 92 3d aa e9 a4 39 20 e6 70 3c
       0.04348644 0.07169006 0.0003145461 0.014703304
000010 43 3a c5 3a b9 00 e4 3d af 24 fd 3d b8 35 7a 3d
       0.001504727 0.1113295 0.123605125 0.061086386
000020 96 4d ee 3c 99 a8 d3 3c 2c 8d b2 39 5b 2c 11 bc
       0.02908973 0.02583723 0.00034055987 -0.008860673
000030 5c 10 0a 3c db 76 25 3d c1 01 f9 3c 12 7e 1e 3c
       0.008426752 0.040396553 0.030396344 0.009673612
000040 b9 0e 6d bd 71 a3 74 3d c3 61 9d bd 1a e4 fe 3d
       -0.05787537 0.059726182 -0.07684662 0.12445851
000050 c3 9d de bc 44 4e 16 3d 1e ad e0 3d 92 db b1 3d
       -0.027174836 0.036695734 0.109705195 0.08684458
000060 4c 3d 0f 3d 45 a1 7c 3d 67 54 82 3c f4 1d 92 3d
       0.034970567 0.061677236 0.015909387 0.07134619
000070 f9 fe 94 3b 05 b2 f7 3d 42 21 b0 3d 02 ca 1c 3d
       0.0045469967 0.120945014 0.086000934 0.038278587

autoencoders.0.decoder.cells.0.lstm.bias_hh f4 [32]
000000 d6 1e 32 3d 3d d2 92 3d aa e9 a4 39 20 e6 70 3c
       0.04348644 0.07169006 0.0003145461 0.014703304
000010 43 3a c5 3a b9 00 e4 3d af 24 fd 3d b8 35 7a 3d
       0.001504727 0.1113295 0.123605125 0.061086386
000020 96 4d ee 3c 99 a8 d3 3c 2c 8d b2 39 5b 2c 11 bc
       0.02908973 0.02583723 0.00034055987 -0.008860673
000030 5c 10 0a 3c db 76 25 3d c1 01 f9 3c 12 7e 1e 3c
       0.008426752 0.040396553 0.030396344 0.009673612
000040 b9 0e 6d bd 71 a3 74 3d c3 61 9d bd 1a e4 fe 3d
       -0.05787537 0.059726182 -0.07684662 0.12445851
000050 c3 9d de bc 44 4e 16 3d 1e ad e0 3d 92 db b1 3d
       -0.027174836 0.036695734 0.109705195 0.08684458
000060 4c 3d 0f 3d 45 a1 7c 3d 67 54 82 3c f4 1d 92 3d
       0.034970567 0.061677236 0.015909387 0.07134619
000070 f9 fe 94 3b 05 b2 f7 3d 42 21 b0 3d 02 ca 1c 3d
       0.0045469967 0.120945014 0.086000934 0.038278587

autoencoders.0.decoder.output_layer.weight f4 [1, 8]
000000 11 db 29 bd f9 19 9f 3e a2 0a 88 bc d8 ab 35 3e
       -0.041468684 0.31074503 -0.016606633 0.17741334
000010 84 62 67 3d b8 37 67 3e c0 82 b1 3e 04 32 66 3e
       0.056490436 0.22579849 0.34670067 0.22480017

autoencoders.1.encoder.cells.0.weight_h_2 f4 [8, 8]
000000 e9 1b 24 39 08 80 ca 38 9b e5 2c b9 37 bb 91 b8
       0.00015650656 9.655958e-05 -0.00016488733 -6.94901e-05
000010 0a 77 9d 38 4c ce c2 38 63 2f ba b8 83 81 52 b9
       7.508516e-05 9.289067e-05 -8.8779976e-05 -0.00020075408
000020 3d 5d 24 39 bc f3 a3 b8 41 74 dc b8 64 21 9b b9
       0.00015674993 -7.817845e-05 -0.000105120715 -0.00029588782
000030 4b 63 90 b8 77 f8 fc b8 2c f3 e0 39 9d 3c 0e b8
       -6.88495e-05 -0.000120625766 0.00042905787 -3.391189e-05
000040 c8 c0 8b 39 19 d6 ac 38 d2 78 0a 39 46 5f 8d 38
       0.0002665578 8.241478e-05 0.00013205715 6.74115e-05
000050 00 72 36 b9 d1 a4 c8 b7 17 03 39 b9 61 23 b3 b9
       -0.00017399341 -2.3918607e-05 -0.00017644126 -0.000341679
000060 23 7a 3e b9 d5 4d 37 b8 26 b9 30 39 d6 e5 00 b9
       -0.00018165311 -4.3703087e-05 0.00016853641 -0.00012292652
000070 8e b7 ae b9 21 78 6b b8 31 94 20 39 7e 3d 9e b9
       -0.00033324625 -5.6140245e-05 0.00015313995 -0.00030181924
000080 ac 62 28 37 15 6e 53 39 64 52 b3 b9 f6 dd 0e 38
       1.0036554e-05 0.00020163537 -0.00034202926 3.4062155e-05
000090 9c 97 fa b8 8a 80 0f b9 32 0a 46 39 af 70 2d 38
       -0.000119491684 -0.00013685427 0.0001888655 4.135136e-05
0000a0 f8 5d 8d 39 0a 19 d2 b8 34 f6 5f b7 77 5b 57 b9
       0.00026963628 -0.00010018244 -1.3349159e-05 -0.00020538071
0000b0 d5 14 62 b9 cb 80 aa 38 fc 61 8f b9 bb 28 7f b9
       -0.000215608 8.130221e-05 -0.0002734809 -0.00024333868
0000c0 80 9b 80 b8 8b 7d 65 b8 2c ec 40 39 52 c1 0c 39
       -6.13248e-05 -5.4714776e-05 0.00018398528 0.00013423458
0000d0 4d bd 94 36 05 ff 9d b7 1c b2 0b 39 97 13 33 b9
       4.432781e-06 -1.8834611e-05 0.00013322424 -0.00017078068
0000e0 35 5f 58 39 5e da 3b b9 7c 07 0b b9 26 e8 2c b9
       0.00020634833 -0.00017915058 -0.00013258861 -0.0001648968
0000f0 34 78 54 b9 4d c3 04 b8 8a a7 f3 b9 6f e5 57 b9
       -0.00020262675 -3.165314e-05 -0.00046473398 -0.00020589468

autoencoders.1.encoder.cells.0.bias_h_2 f4 [8]
000000 00 00 00 00 00 00 00 00 00 00 00 00 00 00 00 00
       0.0 0.0 0.0 0.0
000010 00 00 00 00 00 00 00 00 00 00 00 00 00 00 00 00
       0.0 0.0 0.0 0.0

autoencoders.1.encoder.cells.0.lstm.weight_ih f4 [32, 1]
000000 a7 e1 25 b9 a9 9b 98 b8 5e 2a 93 b9 23 69 08 b8
       -0.00015819688 -7.276919e-05 -0.0002806959 -3.2522843e-05
000010 d6 63 08 39 2a 35 40 b8 2d 80 25 38 d7 51 bb 37
       0.00013007162 -4.582588e-05 3.945844e-05 2.2330247e-05
000020 6e 82 1d b9 93 b3 77 38 32 64 ff 38 3a 21 31 b9
       -0.00015021276 5.905663e-05 0.000121780104 -0.00016892413
000030 d4 e2 f9 38 ee 6c 84 b8 2a 96 8c b9 31 95 62 39
       0.00011915495 -6.31454e-05 -0.00026814762 0.00021608618
000040 7e 0d 90 39 e6 95 d2 b8 f9 a6 98 b9 d6 3a 52 39
       0.00027475873 -0.00010041501 -0.00029116104 0.00020049079
000050 04 be 16 37 1b de 5a 38 43 0d 61 b9 32 30 41 38
       8.984938e-06 5.2182102e-05 -0.00021462612 4.605967e-05
000060 fb 67 56 b8 68 ca 08 b9 6c 76 10 b8 3b 84 9c 38
       -5.1118415e-05 -0.00013045373 -3.4442564e-05 7.4632895e-05
000070 b5 47 63 38 c1 61 7d 38 41 f7 dc 38 72 33 0e 39
       5.41878e-05 6.041094e-05 0.00010536472 0.0001356134

autoencoders.1.encoder.cells.0.lstm.weight_hh f4 [32, 8]
000000 6d 87 ac b7 7b b6 57 38 95 a3 cd 37 65 ee 29 b9
       -2.056706e-05 5.1429943e-05 2.4514078e-05 -0.00016205905
000010 1b 98 b9 b9 af c3 12 b8 ab bc fa 38 86 cf bb 37
       -0.00035399277 -3.4991357e-05 0.00011956071 2.2388773e-05
000020 79 91 f4 38 3d c2 41 39 52 7c 87 b8 5f 71 e4 b9
       0.00011661923 0.00018478274 -6.460458e-05 -0.00043572017
000030 0e 76 3c b8 70 7c 6b b9 40 4b 8f 33 a6 14 4c b8
       -4.493264e-05 -0.00022457703 6.672644e-08 -4.865662e-05
000040 d8 f3 82 35 0e 74 1c b6 6d cc 6a b9 f5 4d 12 b9
       9.756723e-07 -2.3313364e-06 -0.00022392134 -0.00013952686
000050 cf 68 82 39 b5 ad b7 b9 7a 96 68 b9 cb 93 96 39
       0.0002487362 -0.00035033902 -0.00022181301 0.00028720344
000060 03 d4 d1 b8 97 22 2b b8 12 1b 5a 39 67 a9 07 b9
       -0.00010005387 -4.080179e-05 0.00020800185 -0.0001293771
000070 4a 19 e5 38 10 de 93 b9 de 90 fb b8 b1 ad d2 b6
       0.000109242814 -0.00028203474 -0.00011995596 -6.278708e-06
000080 f6 d0 07 39 c2 2c bb 39 80 3d 12 39 17 b1 b1 38
       0.00012952447 0.00035700767 0.00013946556 8.473003e-05
000090 f1 66 40 38 9e 53 96 b8 08 78 41 b9 d2 3e fe 38
       4.587224e-05 -7.168132e-05 -0.0001845063 0.00012123365
0000a0 42 2c 41 b9 19 fe 54 b9 aa f9 1e b9 5d ad 0a 39
       -0.00018422402 -0.00020312554 -0.00015161061 0.00013225288
0000b0 96 08 2b b8 e2 2d 09 39 25 26 81 b7 35 7a 43 b7
       -4.0777573e-05 0.00013082431 -1.539576e-05 -1.1651359e-05
0000c0 18 78 29 b9 64 6b 27 39 08 e0 ad 34 1f b8 1c b9
       -0.00016161834 0.00015966367 3.2386765e-07 -0.0001494591
0000d0 8d 91 5a 39 48 fd 2d b8 cb 60 ad 39 c9 fb 94 39
       0.00020844322 -4.14823e-05 0.00033069248 0.00028416354
0000e0 85 2f f7 38 4b 28 3b b7 d7 71 0b b8 fe 39 09 38
       0.00011786729 -1.115545e-05 -3.3246204e-05 3.2717355e-05
0000f0 39 3a df 38 89 4d c5 39 65 e1 0c b9 44 ab 49 37
       0.000106443134 0.00037632536 -0.00013435406 1.20204095e-05
000100 ae ae dc 39 40 60 86 38 58 66 2e 36 6c 36 96 b8
       0.00042091816 6.407546e-05 2.5987592e-06 -7.162694e-05
000110 c9 ad d6 34 89 36 1d b9 25 b0 81 39 89 be a8 38
       3.9987052e-07 -0.00014993003 0.00024736035 8.046354e-05
000120 44 1b 0f b8 1b a7 c2 b8 44 47 27 39 70 fe 37 39
       -3.411925e-05 -9.281767e-05 0.0001595291 0.00017547025
000130 48 4d 17 b8 10 3a 95 38 6a d5 08 b9 c5 12 14 38
       -3.607318e-05 7.115689e-05 -0.00013049474 3.530343e-05
000140 28 08 23 b9 58 b0 d1 b8 62 1f 7c b9 da 72 08 b9
       -0.0001554793 -9.998743e-05 -0.00024044284 -0.00013012756
000150 78 68 ed 39 4b 4a 70 b9 c9 6f b2 37 72 6c f4 38
       0.00045281998 -0.0002291586 2.1271308e-05 0.00011655026
000160 01 2d c1 b6 91 22 68 b7 3e d5 36 b9 f1 50 80 b9
       -5.7570874e-06 -1.3836326e-05 -0.00017436311 -0.0002447437
000170 e4 85 09 39 07 46 1e 39 3c 98 15 39 be b8 2a b8
       0.00013115216 0.00015094141 0.00014266459 -4.0703213e-05
000180 88 2e 89 b7 11 33 b2 38 44 d0 ea b8 00 3a 22 b9
       -1.635334e-05 8.497213e-05 -0.00011196782 -0.0001547113
000190 8d 3f 24 b9 c3 ae a5 39 da 83 bb b9 22 57 e4 b8
       -0.00015663933 0.0003160146 -0.00035765657 -0.00010888117
0001a0 2f b1 36 b9 44 ae a0 39 26 11 b8 b7 c6 70 e2 b8
       -0.00017422879 0.00030647416 -2.1942495e-05 -0.000107975255
0001b0 7d 06 5b b8 c5 09 1a b9 6a 3d a7 b9 c5 94 aa 37
       -5.221971e-05 -0.00014690224 -0.0003189848 2.0334855e-05
0001c0 4e 33 14 b6 73 eb 5c 38 97 d2 e8 38 f7 06 3a b9
       -2.2083582e-06 5.2671367e-05 0.000111018475 -0.00017740937
0001d0 d5 ac 86 38 81 45 c9 b8 f5 5e c5 b8 2d 09 fd b7
       6.4218104e-05 -9.597373e-05 -9.411379e-05 -3.0164223e-05
0001e0 96 7b 0c b8 06 05 0a b9 a8 5c 79 38 13 e9 2d 39
       -3.34937e-05 -0.00013162577 5.945252e-05 0.00016585393
0001f0 1e 92 ae 38 0e ef 28 b6 a6 72 07 39 f2 02 61 b9
       8.324183e-05 -2.51731e-06 0.00012917313 -0.0002145877
000200 d7 39 d4 b9 49 08 64 38 f8 05 94 b9 5d 25 aa b7
       -0.00040478885 5.4367152e-05 -0.00028233207 -2.0282978e-05
000210 71 d5 b4 b8 8f ce 7f 38 25 59 9b b8 1d 92 f9 b8
       -8.6228254e-05 6.098911e-05 -7.4075804e-05 -0.00011900461
000220 f5 59 96 38 f2 41 04 39 86 8a 0c b9 2b f5 bd b8
       7.169313e-05 0.00012613068 -0.00013403044 -9.0578884e-05
000230 65 98 6b 39 2c c6 0c 37 15 7f 53 38 11 83 2c b9
       0.00022468118 8.390791e-06 5.0424675e-05 -0.00016452024
000240 83 15 07 39 24 0f 8e 39 ea 4f 99 b9 d9 63 f2 b7
       0.00012882617 0.0002709563 -0.00029241975 -2.8895143e-05
000250 63 e1 78 38 3e e9 71 b9 af 50 8a b7 40 52 c1 36
       5.9337715e-05 -0.0002307044 -1.6488453e-05 5.7614234e-06
000260 de cf e4 38 d6 10 0d 39 1f e8 74 b8 93 82 0a 39
       0.000109106055 0.0001345308 -5.8390313e-05 0.00013209348
000270 16 05 7a b9 94 da d8 39 eb e6 26 39 d9 18 81 38
       -0.00023843753 0.00041361584 0.00015917017 6.1558276e-05
000280 14 8d 05 39 3d c0 07 b9 ab eb 74 b4 0c cb 09 b8
       0.00012736424 -0.00012946218 -2.2810006e-07 -3.2852447e-05
000290 b8 84 6a 38 45 4f 6f b8 b1 ea 09 37 5d 51 01 39
       5.591355e-05 -5.7055866e-05 8.22048e-06 0.00012332709
0002a0 85 43 1b 39 1e ca 28 38 36 7e 6c b8 bc 67 17 b9
       0.00014807105 4.0242558e-05 -5.6384328e-05 -0.00014439126
0002b0 8e 0d 22 b9 bf 4f 0e b9 55 d2 a4 36 5d e2 f3 38
       -0.00015454573 -0.00013571883 4.9120667e-06 0.000116293064
0002c0 fe c1 07 b9 8c b4 27 b9 d1 c6 27 b7 d6 24 1f b8
       -0.00012946871 -0.0001599362 -1.0000266e-05 -3.794286e-05
0002d0 40 98 95 38 16 df b8 b8 9f e8 3d 39 6c 25 8a b8
       7.1332324e-05 -8.815357e-05 0.00018111103 -6.587323e-05
0002e0 22 d9 1d 39 94 86 9a b7 b3 f5 d2 b9 d5 0d 9c 38
       0.00015053575 -1.8420898e-05 -0.00040237381 7.441236e-05
0002f0 95 db f1 b8 8c 56 b3 b8 8d dd d8 b7 a7 f5 41 b8
       -0.00011532676 -8.551506e-05 -2.5852374e-05 -4.6243567e-05
000300 ad 8f d3 b7 7c 6f 64 b8 aa 4d 03 b9 c5 71 0b b9
       -2.5220064e-05 -5.4463264e-05 -0.00012522066 -0.00013298455
000310 59 1c 80 b9 0e b4 76 b8 a1 ae d7 b8 6c 0c 07 39
       -0.00024435183 -5.881866e-05 -0.00010284526 0.00012879231
000320 37 e8 9f b8 a1 7d 93 b8 41 ad 3a 38 4c 3e bf 37
       -7.624964e-05 -7.0329064e-05 4.450721e-05 2.2797984e-05
000330 46 98 05 b9 4d ea 9e 37 62 b4 61 38 bf 53 b9 b7
       -0.00012740595 1.8944173e-05 5.3812175e-05 -2.2092716e-05
000340 ed 2a b3 b8 b8 19 63 b8 8a 06 6a b9 1c 8f d1 37
       -8.543381e-05 -5.414497e-05 -0.00022318415 2.4981382e-05
000350 6a ef a5 b8 9e 32 dd 38 28 88 07 39 58 17 16 39
       -7.9124075e-05 0.000105475294 0.00012925325 0.00014313811
000360 40 9a 51 b8 ed b9 63 b9 ac fe 42 b9 1e 6a ed 38
       -4.997314e-05 -0.0002171767 -0.00018596154 0.000113208065
000370 3f 59 14 b7 6b 9c ce b8 35 e0 e7 b7 5d 9f 1a b8
       -8.842267e-06 -9.8519806e-05 -2.764175e-05 -3.686488e-05
000380 4d 4b 9c 38 a5 aa 6b b8 81 b8 97 38 90 9e ff b8
       7.4526855e-05 -5.618729e-05 7.2346076e-05 -0.00012188882
000390 d5 cf a1 b7 1c 4f a6 b9 67 40 d9 b8 c1 19 aa b8
       -1.9289475e-05 -0.00031720928 -0.00010359362 -8.111029e-05
0003a0 66 96 bc b8 9a ad b8 b7 5b a0 15 b7 3d c5 37 b9
       -8.9925525e-05 -2.2015349e-05 -8.918428e-06 -0.00017525717
0003b0 69 fb d7 b7 b0 96 48 38 4d 18 78 39 59 c1 a9 39
       -2.574707e-05 4.7824054e-05 0.00023660176 0.00032378247
0003c0 c0 a6 06 b9 27 88 ac b9 bc bb 2d 39 f4 2d 9d 38
       -0.00012841355 -0.00032907838 0.00016568502 7.494903e-05
0003d0 e4 01 01 b9 05 38 dc b8 64 19 86 39 69 95 ef b8
       -0.00012303103 -0.00010500852 0.0002557739 -0.00011424238
0003e0 4b a2 5c b8 16 c0 7e b9 f9 9f 51 b8 9e f1 6b 38
       -5.2603235e-05 -0.00024294885 -4.997847e-05 5.625339e-05
0003f0 f5 d4 88 b8 e2 e9 a3 38 10 58 8f 38 51 27 dd b6
       -6.524652e-05 7.81601e-05 6.835174e-05 -6.5908903e-06

autoencoders.1.encoder.cells.0.lstm.bias_ih f4 [32]
000000 00 00 00 00 00 00 00 00 00 00 00 00 00 00 00 00
       0.0 0.0 0.0 0.0
000010 00 00 00 00 00 00 00 00 00 00 00 00 00 00 00 00
       0.0 0.0 0.0 0.0
000020 00 00 00 00 00 00 00 00 00 00 00 00 00 00 00 00
       0.0 0.0 0.0 0.0
000030 00 00 00 00 00 00 00 00 00 00 00 00 00 00 00 00
       0.0 0.0 0.0 0.0
000040 00 00 00 00 00 00 00 00 00 00 00 00 00 00 00 00
       0.0 0.0 0.0 0.0
000050 00 00 00 00 00 00 00 00 00 00 00 00 00 00 00 00
       0.0 0.0 0.0 0.0
000060 00 00 00 00 00 00 00 00 00 00 00 00 00 00 00 00
       0.0 0.0 0.0 0.0
000070 00 00 00 00 00 00 00 00 00 00 00 00 00 00 00 00
       0.0 0.0 0.0 0.0

autoencoders.1.encoder.cells.0.lstm.bias_hh f4 [32]
000000 00 00 00 00 00 00 00 00 00 00 00 00 00 00 00 00
       0.0 0.0 0.0 0.0
000010 00 00 00 00 00 00 00 00 00 00 00 00 00 00 00 00
       0.0 0.0 0.0 0.0
000020 00 00 00 00 00 00 00 00 00 00 00 00 00 00 00 00
       0.0 0.0 0.0 0.0
000030 00 00 00 00 00 00 00 00 00 00 00 00 00 00 00 00
       0.0 0.0 0.0 0.0
000040 00 00 00 00 00 00 00 00 00 00 00 00 00 00 00 00
       0.0 0.0 0.0 0.0
000050 00 00 00 00 00 00 00 00 00 00 00 00 00 00 00 00
       0.0 0.0 0.0 0.0
000060 00 00 00 00 00 00 00 00 00 00 00 00 00 00 00 00
       0.0 0.0 0.0 0.0
000070 00 00 00 00 00 00 00 00 00 00 00 00 00 00 00 00
       0.0 0.0 0.0 0.0

autoencoders.1.decoder.cells.0.weight_h_2 f4 [8, 8]
000000 0f 1b 2b 3e c3 e8 75 be 3a 2b 49 bf 52 ec d2 3e
       0.16709541 -0.24014573 -0.78581583 0.41195923
000010 1d 1e f5 bd 76 60 32 3c e6 c3 43 bf cd cb c3 3e
       -0.11968634 0.010887256 -0.7647079 0.38241425
000020 91 03 d9 bd 4b e0 df be 15 0b e4 3d d6 42 c2 be
       -0.10596383 -0.4372581 0.11134926 -0.37941617
000030 d5 8e ff 3d 2d 62 8f 3e ca a9 03 3f 1c 47 f8 3e
       0.12478415 0.2800459 0.5143095 0.48491752
000040 08 2c b4 3e 7f 19 70 3e ef 5f 07 be 55 30 1b 3e
       0.35189843 0.23447226 -0.1322019 0.15155156
000050 46 f7 83 b9 7e 64 b6 be bf ad 90 3e 0b ca c5 bc
       -0.000251705 -0.35623544 0.28257558 -0.024144193
000060 c4 7b 01 3f c2 4a 5d 3e c7 fb 82 be 99 63 38 be
       0.50579476 0.21610549 -0.25582716 -0.18006743
000070 d1 42 8a 3e be 02 d1 be 61 5c 04 bd 24 06 14 3f
       0.27004102 -0.40822405 -0.032314662 0.5782187
000080 4b 50 ea be a0 07 1f 3e ed ef ec 3d 78 c4 e7 be
       -0.45764384 0.15530252 0.115692 -0.4526708
000090 2d 5b 09 bf 0f 75 52 bd 47 6e 9b bb 83 75 48 3e
       -0.5365475 -0.051381167 -0.0047433707 0.19576077
0000a0 40 45 d9 bc 1c ca d3 bb 6b 4b 55 ba 5d 41 99 bd
       -0.026522279 -0.0064633023 -0.00081365433 -0.0748317
0000b0 7f 9a 73 be 80 1b 97 3b e9 fc 50 be 50 df 8f 3e
       -0.23789404 0.0046114326 -0.20408978 0.2810006
0000c0 9c 3e e0 bd 11 cf 9a ba 0a e7 c2 3d 21 39 1e 3f
       -0.10949442 -0.0011810978 0.095167235 0.6180592
0000d0 8f a4 bb 3d 68 18 e6 3c c0 9c ac be ee b1 ac 3e
       0.091622464 0.02808781 -0.3371334 0.337295
0000e0 f7 c1 1e 3f 2d b8 dc 3d 52 0e 98 bd 7b 4b 2c 3f
       0.62014717 0.10777316 -0.074246064 0.67302674
0000f0 27 b4 cb 3e 33 a8 14 bd bb 60 37 3e cc 6a 45 3e
       0.39785883 -0.03629322 0.17907993 0.19279021

autoencoders.1.decoder.cells.0.bias_h_2 f4 [8]
000000 22 09 e7 3d 73 6c d2 3d b9 c3 ea 3a c1 05 c3 bd
       0.11281039 0.10274591 0.0017911113 -0.09522582
000010 4c 5b 9c ba 64 2f bd 3d 29 54 0e be b5 16 63 bb
       -0.0011929064 0.09237555 -0.13899292 -0.0034650986

autoencoders.1.decoder.cells.0.lstm.weight_ih f4 [32, 1]
000000 39 40 48 3d 28 7c 14 3e 51 93 49 39 aa 44 46 3d
       0.048889372 0.14500487 0.00019223733 0.048405327
000010 73 83 9a 3d 31 16 02 3c 03 05 38 be be eb 4d 3e
       0.07544603 0.007939861 -0.17970662 0.2010946
000020 2d 72 47 bd 8c 34 a4 3e 49 e7 cf 39 62 10 9a 3a
       -0.04869287 0.3207134 0.00039654438 0.001175415
000030 79 d3 48 3d 5a 21 f1 3d 22 78 0b 3f e0 8b 09 3f
       0.0490298 0.117739394 0.54480183 0.5372906
000040 2b 2d 49 3e 6b 6a 95 3e f6 84 ca bd 08 52 07 be
       0.19646136 0.29182753 -0.098886415 -0.13214886
000050 6f d8 ee 3e b0 41 f6 3d 96 d9 37 be e1 75 5e 3f
       0.466495 0.12024248 -0.17954096 0.8689862
000060 18 24 2f bd 74 17 00 3f 99 ce 1f 39 d2 61 0b 3f
       -0.04275903 0.50035787 0.00015240385 0.54446137
000070 e5 79 9b 3d 01 5e 1b 3f a5 7d e9 3e 8f 00 64 3d
       0.07591609 0.60690314 0.45603672 0.055664595

autoencoders.1.decoder.cells.0.lstm.weight_hh f4 [32, 8]
000000 0e 08 a7 3e d8 68 49 3e 77 fe f1 3d cb 8a d8 3e
       0.32623333 0.19668901 0.118161134 0.4229339
000010 bc 6e b0 be 42 f8 7f 3d a1 1d 1b 3f da e2 b4 3e
       -0.34459484 0.062492616 0.60592085 0.35329324
000020 f6 fd e0 3d 0e a3 d0 3d b2 da be 3e 42 c8 7b 3e
       0.10985939 0.1018735 0.37276226 0.24588111
000030 8e 73 43 3e 0e 3b 8c 3d 65 c9 2b be 7f 78 30 3d
       0.1908705 0.06847201 -0.16776045 0.043083664
000040 e5 f9 7a 39 10 58 a7 3c 71 f5 d7 3a 53 85 c2 39
       0.00023934951 0.020427734 0.0016476345 0.00037101898
000050 41 1b 20 3a 58 52 ca 3a e4 6d 05 ba 70 43 25 bb
       0.0006107577 0.0015435917 -0.00050899223 -0.0025217198
000060 71 87 d8 3e 8a 8e 39 be 89 3d 04 be 22 1b 9b 3e
       0.42290834 -0.1812078 -0.12914099 0.30294138
000070 23 69 c5 39 df 90 05 3e d5 ea c0 be ff 38 1b 3d
       0.000376531 0.13043545 -0.37679163 0.037896153
000080 5c df 1c 3d ef 85 91 3d 03 2a 62 bd e4 ba be 3d
       0.03829895 0.07105624 -0.055215847 0.0931299
000090 22 0b 65 3b 9e c7 32 3c 10 02 3c b9 d3 1b a1 3e
       0.0034949263 0.01091185 -0.00017929845 0.3146654
0000a0 32 87 13 3e ec de 43 3d 73 96 95 3e 9d 94 d2 3e
       0.14407042 0.047820017 0.29216346 0.41129008
0000b0 b1 5d 5e 3c 8d c5 15 3e ee c3 21 3e c3 89 9b 3d
       0.013572142 0.14626141 0.15797397 0.07594635
0000c0 61 26 81 3e ef 13 d8 3d ae 8f c7 3d 09 11 8c 3e
       0.25224593 0.10550677 0.097442016 0.27356747
0000d0 a9 03 2e bc 49 30 b3 3e 86 c4 a1 3e 98 a7 2c bc
       -0.01062099 0.34997776 0.31595248 -0.010538004
0000e0 6a 19 c1 3e 36 b3 cf 3e fa 00 80 3e d6 3f 15 3e
       0.37714702 0.40566415 0.25000745 0.14575133
0000f0 7a b1 d7 3e d1 4c 0f 3f 05 1e b2 ba 27 e8 4c 3e
       0.4212759 0.5597659 -0.0013589269 0.20010434
000100 0b d8 f0 3d ee 33 47 bd f8 2c ce 3c 3f 72 9b bd
       0.11759957 -0.04863351 0.025167927 -0.0759015
000110 97 f9 ae 3d 1f 09 71 3e d0 12 66 3a 04 69 0c 3d
       0.08543699 0.23538636 0.0008776607 0.03427984
000120 21 1c ed 3e 92 41 10 3e 7d a4 56 3d b1 0e 0c bd
       0.46310523 0.14087513 0.052402962 -0.0341937
000130 e2 e0 e6 3d 92 85 be 3e 64 9d 98 bc 99 92 c2 3e
       0.11273362 0.3721128 -0.018629737 0.3800247
000140 84 bc 8b 3a 35 7e 9a 39 92 79 f1 3a b5 bb 00 3b
       0.001066104 0.000294672 0.0018423072 0.0019643132
000150 2f 86 a7 3a 29 a2 cc 3a 21 bd e4 b9 58 b8 f6 3d
       0.0012781079 0.0015612292 -0.0004362846 0.120468795
000160 92 b6 0b bf 75 e5 c0 35 78 5d ec 38 d1 65 62 3e
       -0.54575455 1.4371896e-06 0.00011270767 0.22109152
000170 ad 94 9f bd 4c 09 92 be c7 66 04 b9 04 c2 6e 3d
       -0.077920295 -0.28522718 -0.00012626789 0.058290496
000180 d9 ba c5 bd 32 2e bf 3c 2f 5a f1 3d aa 52 93 b9
       -0.09654779 0.023337457 0.11784779 -0.00028099614
000190 e4 14 9d 3b f4 fe d8 3c e5 36 a2 b9 1c 98 71 3e
       0.00479375 0.026488759 -0.00030939947 0.23593181
0001a0 58 cb e7 3e a4 04 b5 bd b5 d0 9a bb 59 d6 04 3d
       0.45272326 -0.08838776 -0.004724587 0.03243098
0001b0 0c 1f f6 3e 33 b1 0f be 2b 96 e1 3c e6 d3 d6 3c
       0.48070562 -0.1403244 0.027537426 0.026224088
0001c0 25 d6 5a 3a 22 ef 5a be 72 e6 5d 3d cc 0c 15 bd
       0.000834795 -0.21380284 0.054174848 -0.036389157
0001d0 77 1e 96 b8 ab e9 8b bd d5 4c f0 bb e0 2f f0 3c
       -7.158232e-05 -0.06831678 -0.007333378 0.029319704
0001e0 58 eb 3d 3f 5d e4 04 3f b4 bd 20 3e 7f 0f f7 3e
       0.7418723 0.51910955 0.15697366 0.4825401
0001f0 87 e9 a5 3e f0 9e 0e 3f 74 5b 83 3a cb aa cb 3e
       0.3240473 0.5571127 0.0010021762 0.39778742
000200 7d 6c 2c 3e d7 dd 26 3f 00 b0 f0 3e 99 dc eb bd
       0.1683826 0.6518225 0.47009277 -0.11516685
000210 7a db 5d bd 19 a2 db 3d 93 28 1e 3e 51 8c 75 bc
       -0.054164387 0.10724277 0.15445165 -0.014987067
000220 fd 54 d2 be c1 62 cb 3d d5 0e 13 be ff 5d 70 3e
       -0.41080466 0.09930945 -0.14361127 0.23473357
000230 b6 aa ad 3c 65 90 40 3e 5c 5b a1 3e 49 8f 8a 3e
       0.021199565 0.18805082 0.31515014 0.27062443
000240 03 38 6a 3e eb ce 0d 3e f7 bb c4 bc 0f 96 8b be
       0.2287293 0.13848464 -0.02401541 -0.27262923
000250 b1 4e d9 3c c0 15 2e bd 1f 6a 04 3c c5 d1 b1 bd
       0.02652678 -0.04250121 0.008081942 -0.086825885
000260 85 3c 93 bd 06 be a8 3d 26 96 1b 3e a3 23 c5 3e
       -0.071892776 0.08239369 0.15193996 0.3850375
000270 a5 54 1c be c3 fe 6f 3d 9c 31 c3 bd 30 40 79 be
       -0.15266664 0.05859257 -0.095309466 -0.24340892
000280 9a 60 04 bd 13 b3 5f 3d e2 2c 19 be cd ce 33 be
       -0.03231869 0.054614138 -0.14958528 -0.17559357
000290 9c e3 f7 3e 3d 62 ae bd 5a 6d 2b bb e6 0c 31 3e
       0.4841584 -0.08514831 -0.0026157708 0.17290077
0002a0 46 17 67 3e ab 8b f8 bb f5 77 1e 3e fb fe 60 3c
       0.22567472 -0.007585009 0.15475447 0.013732667
0002b0 b0 fe 1e 3d 33 ba ee bd 58 9f 5e 3e 5c 17 9d 3e
       0.038817108 -0.116566084 0.21740472 0.30681884
0002c0 74 82 c7 be 02 0c 17 bc 8c 65 f5 bd ef c7 2a 3d
       -0.38966715 -0.0092191715 -0.11982259 0.041694578
0002d0 97 32 50 ba 70 2b 8e be 53 10 6c 3d 42 cb 9a be
       -0.0007942109 -0.27767515 0.057632755 -0.30233198
0002e0 93 a4 05 bf 92 13 ac bd 14 0d e8 be 70 0e 8c bd
       -0.52204245 -0.0840217 -0.45322478 -0.06838691
0002f0 3d 49 39 bc 06 2f d7 3d 06 df 0d 3d d8 c0 06 3e
       -0.011308965 0.10507016 0.03463652 0.13159502
000300 fe c2 49 3e 8a 7d b1 3e e7 b6 c3 3a 8d 6a bb 3d
       0.1970329 0.3466609 0.0014931828 0.09151182
000310 25 12 94 3b bf b6 cc bd 12 6f 60 bc 47 e4 14 3f
       0.0045187646 -0.099957936 -0.013698356 0.58160824
000320 6d 1d e7 bc 10 5d 3f 3e c7 42 83 3e 11 22 a4 bd
       -0.028212273 0.18687844 0.25636885 -0.0801431
000330 a8 72 18 3d ef 7d 56 3e d2 8c eb b9 b4 c3 0b 3f
       0.03721872 0.20946477 -0.00044927612 0.54595494
000340 c8 ef b2 37 fc a9 da ba 99 53 d4 3a 96 6c c1 3a
       2.133091e-05 -0.0016682739 0.001619923 0.0014757093
000350 e6 14 cb 39 22 d6 bb 3a 19 f6 86 b6 74 d8 e4 ba
       0.00038734748 0.0014330784 -4.0221607e-06 -0.0017459528
000360 71 22 0a 3b 4d 62 8f be 74 9c e3 38 21 11 66 38
       0.0021077658 -0.28004685 0.00010853345 5.4852226e-05
000370 33 bd 46 bd 63 19 96 3e b7 24 5c 3e b4 11 79 3e
       -0.04852028 0.29316244 0.2149838 0.2432316
000380 5e 17 d5 3e 54 79 25 3e 4a 12 5a 37 0d 39 80 b9
       0.4161939 0.16159564 1.2998071e-05 -0.0002445657
000390 aa 64 6d 3d 53 54 2e 3d 25 ef 49 39 f5 a4 7e bd
       0.05795733 0.042560887 0.00019257942 -0.062169034
0003a0 86 c1 a4 3a f1 4c b1 3e 1c 13 52 be c2 f3 74 bd
       0.0012569882 0.34629014 -0.20515102 -0.059802778
0003b0 e7 e3 87 3b c0 98 2e 3d e4 99 73 3d c1 f1 c6 3e
       0.004147041 0.042626143 0.059472933 0.3885632
0003c0 01 49 91 3e ab 3a 01 bd ed 17 a4 3d a7 a2 d5 38
       0.2837601 -0.03155009 0.08012376 0.00010186928
0003d0 b5 9f 05 3f 9b 00 e8 bc f6 d1 d4 3d 45 de 07 3b
       0.5219682 -0.028320601 0.10391609 0.0020731848
0003e0 57 29 1b 3f a5 fd 37 3f f2 17 2d 3f 41 c5 f8 3e
       0.60609955 0.71871406 0.6761466 0.48587993
0003f0 4b 3c 33 3e e9 a1 33 3f 78 9c e9 38 14 79 49 3d
       0.17503469 0.7016893 0.0001113945 0.049187735

autoencoders.1.decoder.cells.0.lstm.bias_ih f4 [32]
000000 24 7f f7 3d fd 74 ee 3d 36 81 9c 3a 72 e3 1a 3c
       0.12084797 0.116434075 0.0011940363 0.009453641
000010 c0 71 07 3d 02 21 e3 3d 6b 7e bb 3d c5 e3 dd 3e
       0.033067465 0.1109028 0.09154972 0.43337837
000020 38 d6 a1 3d 88 fd 50 3d ae d2 9b 3a e1 aa ac 39
       0.07902187 0.051023036 0.0011888349 0.0003293371
000030 6f 82 f5 3c dd ce 22 3d fa e4 86 3d b5 14 03 3f
       0.029969422 0.03974806 0.065866426 0.5120347
000040 8e 97 c0 3d 6d 6f 1a bc 3a 61 4e 3d dd 16 8b bd
       0.09403907 -0.00942598 0.05038569 -0.0679147
000050 eb 81 e5 bd 14 9e bf 3c e9 30 86 bd b3 a8 c6 bd
       -0.112064205 0.023390807 -0.065522976 -0.097001456
000060 94 77 00 3e e1 29 02 3e 20 75 8f 3a 83 cb ba 3b
       0.12545615 0.12711288 0.001094494 0.00570053
000070 bc e3 4e 3d 3c 3e 88 3d 00 41 d3 3d 75 58 02 3f
       0.050510153 0.06652495 0.10315132 0.50916225

autoencoders.1.decoder.cells.0.lstm.bias_hh f4 [32]
000000 24 7f f7 3d fd 74 ee 3d 36 81 9c 3a 72 e3 1a 3c
       0.12084797 0.116434075 0.0011940363 0.009453641
000010 c0 71 07 3d 02 21 e3 3d 6b 7e bb 3d c5 e3 dd 3e
       0.033067465 0.1109028 0.09154972 0.43337837
000020 38 d6 a1 3d 88 fd 50 3d ae d2 9b 3a e1 aa ac 39
       0.07902187 0.051023036 0.0011888349 0.0003293371
000030 6f 82 f5 3c dd ce 22 3d fa e4 86 3d b5 14 03 3f
       0.029969422 0.03974806 0.065866426 0.5120347
000040 8e 97 c0 3d 6d 6f 1a bc 3a 61 4e 3d dd 16 8b bd
       0.09403907 -0.00942598 0.05038569 -0.0679147
000050 eb 81 e5 bd 14 9e bf 3c e9 30 86 bd b3 a8 c6 bd
       -0.112064205 0.023390807 -0.065522976 -0.097001456
000060 94 77 00 3e e1 29 02 3e 20 75 8f 3a 83 cb ba 3b
       0.12545615 0.12711288 0.001094494 0.00570053
000070 bc e3 4e 3d 3c 3e 88 3d 00 41 d3 3d 75 58 02 3f
       0.050510153 0.06652495 0.10315132 0.50916225

autoencoders.1.decoder.output_layer.weight f4 [1, 8]
000000 53 4d a2 3e fa 69 af 3e 7f f0 14 bd c3 63 10 be
       0.3169962 0.3426054 -0.036362167 -0.14100556
000010 3d 89 79 3d e7 6d a5 3e d9 83 15 be 0d 0f 70 3e
       0.060921896 0.3231041 -0.14601077 0.23443241

autoencoders.2.encoder.cells.0.weight_h_2 f4 [8, 8]
000000 5b 0d 99 39 8c 41 81 38 a6 b6 06 b9 79 52 ed 38
       0.00029192385 6.1634084e-05 -0.00012847278 0.000113164024
000010 39 1a 11 b8 95 73 48 b9 65 87 06 b9 88 82 a1 b8
       -3.4595116e-05 -0.00019116544 -0.00012829674 -7.7013916e-05
000020 f1 d2 c2 b8 e9 3b 2e 39 87 a7 09 39 88 65 bc b8
       -9.289932e-05 0.00016616251 0.00013127747 -8.98345e-05
000030 9e e1 04 b8 60 9b d0 38 0c e2 ec 38 0b 9b f0 38
       -3.1681375e-05 9.947154e-05 0.000112954614 0.00011472971
000040 a7 b6 a5 b6 02 70 87 b8 b6 90 4d 39 51 8f 26 b9
       -4.9386467e-06 -6.458165e-05 0.00019604233 -0.00015884383
000050 c9 92 4c b9 26 d9 3e 39 b6 64 ed 38 11 00 8b 39
       -0.00019509638 0.00018200706 0.000113197995 0.00026512195
000060 04 6a 89 b9 e5 bb 15 b9 49 48 28 38 55 64 9e be
       -0.00026209664 -0.00014279743 4.0121642e-05 -0.30935922
000070 3e 2d 24 38 6f bb a9 38 b3 69 1d 38 92 24 aa 38
       3.9142782e-05 8.09346e-05 3.7530157e-05 8.1130434e-05
000080 97 b4 bd 36 25 e5 da b9 56 7d f7 38 46 4d 20 b9
       5.6536624e-06 -0.00041750926 0.000118012234 -0.00015287576
000090 f0 0d d2 39 c0 ce 81 b8 b6 0f 23 b8 79 65 4f 39
       0.00040064706 -6.1897095e-05 -3.887686e-05 0.0001977886
0000a0 0d de b5 38 c4 97 bc 38 ba 29 3d b9 af 95 de 36
       8.672113e-05 8.992807e-05 -0.00018039989 6.633541e-06
0000b0 83 0d 61 39 ac cb bf 38 06 46 de 39 35 20 fd b7
       0.00021462706 9.1455266e-05 0.0004239531 -3.0174948e-05
0000c0 00 ef 4b b9 a8 46 b1 b9 0a 40 10 b8 98 b2 68 b8
       -0.00019448623 -0.00033812714 -3.4391916e-05 -5.547944e-05
0000d0 6b 19 8d 36 56 cf 64 38 bc 3d 0c 39 28 66 01 b9
       4.2050865e-06 5.4552533e-05 0.00013374438 -0.00012340455
0000e0 cf b1 0d b9 92 43 a4 b9 b4 33 74 39 0f 7c cd b9
       -0.00013513047 -0.0003133086 0.00023288914 -0.00039193078
0000f0 3e 79 eb 38 cd 94 a4 39 b5 20 ce 37 10 c4 9b b8
       0.00011228256 0.00031391383 2.4572344e-05 -7.4274954e-05

autoencoders.2.encoder.cells.0.bias_h_2 f4 [8]
000000 00 00 00 00 00 00 00 00 00 00 00 00 00 00 00 00
       0.0 0.0 0.0 0.0
000010 00 00 00 00 00 00 00 00 00 00 00 00 00 00 00 00
       0.0 0.0 0.0 0.0
