H1_1/ensemble_autoencoder_weights.pth (torch, 87914 bytes, 130 tensors)

autoencoders.0.encoder.cells.0.weight_h_2 f4 [8, 8]
000000 be 7f b6 3e ca 1b e6 b7 09 94 3e b9 54 53 95 39
       0.35644335 -2.7431077e-05 -0.0001817496 0.0002848158
000010 9f bf 43 b9 81 96 ee be 25 4f 64 36 05 9a 94 be
       -0.00018668034 -0.465992 3.4020716e-06 -0.29023758
000020 c5 88 2f bf 20 45 94 be 90 75 3e 3e e8 68 de be
       -0.6856807 -0.28958988 0.18599534 -0.43439412
000030 2a 6d 55 be ec 9d 3d 3e 08 55 2e 3e c4 7b a2 3e
       -0.20842424 0.18517274 0.17024624 0.3173505
000040 c9 65 da b9 87 5f 46 b8 c5 c0 cf 3e 8a 58 d9 3a
       -0.00041656036 -4.7295845e-05 0.4057676 0.0016582173
000050 4f a8 97 b8 55 f8 ad 39 b6 2e 18 3e 0e 57 5c 3e
       -7.231591e-05 0.00033182153 0.14861569 0.21517584
000060 49 54 22 3d 60 6a 66 3e 54 d7 83 3e da ea 1e 3a
       0.03963116 0.22501516 0.2575022 0.0006062217
000070 5b 42 ab be 38 db 9a be 6e f2 02 be 4b 92 b3 38
       -0.33449063 -0.30245376 -0.12787792 8.562634e-05
000080 95 a5 0d 3f 6a 5b 53 bc aa dd 34 3f 54 aa 3b b9
       0.55330783 -0.012900213 0.7065073 -0.00017897162
000090 f9 c1 dd 3e c9 9d b0 39 94 e8 a5 3e 58 58 c3 b8
       0.43312052 0.00033686895 0.32404006 -9.31478e-05
0000a0 c4 75 29 3e 08 c1 8d bd 10 ea 4b 3e 17 75 af 3e
       0.1654883 -0.069215834 0.19913507 0.3426902
0000b0 16 cc 40 be cd 8d d0 b7 ff 26 1c 39 67 bf 86 be
       -0.18827853 -2.4861563e-05 0.00014891847 -0.26317903
0000c0 fb 9e 0f b9 40 05 c1 3d 90 e1 09 3a cc 15 9e bd
       -0.00013696768 0.094248295 0.00052597467 -0.07719001
0000d0 40 18 4d 3e 46 f7 5d 3e 8c 66 ff 38 82 ce 0d be
       0.20028782 0.21676359 0.000121784484 -0.13848308
0000e0 15 b1 ed 38 e4 dc f9 3d 55 ff 5a 38 c3 4c ea be
       0.00011334025 0.12200335 5.2213047e-05 -0.4576169
0000f0 64 0b fb 3e b9 93 a2 be a4 59 9f 3e 6f 4a 2e 3d
       0.49032128 -0.31753328 0.31123078 0.042551454

autoencoders.0.encoder.cells.0.bias_h_2 f4 [8]
000000 00 00 00 00 00 00 00 00 00 00 00 00 00 00 00 00
       0.0 0.0 0.0 0.0
000010 00 00 00 00 00 00 00 00 00 00 00 00 00 00 00 00
       0.0 0.0 0.0 0.0

autoencoders.0.encoder.cells.0.lstm.weight_ih f4 [32, 1]
000000 72 36 3f b9 42 6e 69 b9 23 25 fe 38 d8 e9 9d 3d
       -0.00018235462 -0.00022261686 0.00012118581 0.07710618
000010 ce 69 c3 bd 4b b4 ab 3e e8 5c 4a 3e 96 a5 3b 3e
       -0.09541665 0.3353599 0.19762003 0.18324885
000020 ae f4 69 bc ed 33 82 39 74 3e df bc 62 a3 65 39
       -0.014279528 0.0002483422 -0.02725146 0.00021900007
000030 d3 83 12 3f 2c 96 da 36 98 e9 82 bd 55 6f be 3e
       0.572324 6.5143886e-06 -0.06392211 0.37194315
000040 9c 37 bf bd 02 ed 7e be dc 01 f9 3d b9 bf 17 ba
       -0.093367785 -0.24895099 0.12158558 -0.0005788762
000050 eb 51 9c 3c 4f 7e 51 bb 7c fc cc bd 3f 67 f9 b7
       0.01908203 -0.0031966155 -0.10009095 -2.973119e-05
000060 5a ac 00 b8 38 77 15 3e 00 00 37 37 a4 18 3d be
       -3.0678093e-05 0.1459626 1.090765e-05 -0.18466431
000070 83 b2 8c 3e 1b 54 c5 3e 90 1b a5 bd fa 05 56 3e
       0.27479944 0.3854073 -0.08061898 0.20900717

autoencoders.0.encoder.cells.0.lstm.weight_hh f4 [32, 8]
000000 a6 44 9f bd 54 cb 81 be 58 02 40 bb 7a 26 22 b9
       -0.077767655 -0.2535044 -0.0029298272 -0.00015463858
000010 88 e0 2a 3b b9 45 21 bd 68 62 b0 3a 4d 24 f7 b8
       0.0026073772 -0.039373133 0.0013457062 -0.00011784639
000020 26 b7 65 be 2b c0 91 39 9f 13 59 3d 6e 04 3e be
       -0.22433147 0.00027799731 0.052997228 -0.18556377
000030 8e 02 37 be 8e 24 03 be da 23 88 be 90 aa 5a be
       -0.17872068 -0.12806913 -0.26589853 -0.21354127
000040 2e 57 1a 39 00 52 00 3e 84 1a ab 3e 64 76 ce 3d
       0.00014719061 0.1253128 0.33418667 0.10081175
000050 ac 7a e6 b8 e4 10 3a ba 06 83 02 39 df 34 50 39
       -0.00010990104 -0.0007097854 0.00012446576 0.00019856122
000060 34 b4 69 3e 8d 00 84 b9 b8 ec ad b9 6c 89 d0 bd
       0.22822648 -0.00025177412 -0.000331735 -0.10182461
000070 1c 07 c9 b9 52 ff 1a be 96 fa 48 39 62 49 8c 39
       -0.00038343004 -0.1513646 0.00019166837 0.00026757555
000080 8e 7d 1f bb 6d aa e1 b7 ec 41 d6 bd 39 b9 25 37
       -0.002433631 -2.690145e-05 -0.10461792 9.877892e-06
000090 cf 4b 43 3b 73 88 c7 b9 9e c5 07 3e c5 1c 18 38
       0.0029799824 -0.000380579 0.13258979 3.6266418e-05
0000a0 30 6e 03 38 f8 8e 07 be 24 f2 da bd 17 f8 46 3b
       3.1335454e-05 -0.13238132 -0.10690716 0.0030360275
0000b0 52 54 0f 3e 04 34 2a 3e 27 a6 3f 3a 38 aa b8 38
       0.1399701 0.16621405 0.00073108304 8.8055094e-05
0000c0 06 a6 0b bb 71 fb 29 bd c3 f0 80 3e c5 8f 92 3e
       -0.0021308674 -0.04149956 0.25183687 0.28625312
0000d0 be 86 22 be 16 ec 7e be cd b2 18 b7 fa dc bd 3a
       -0.15871713 -0.24894747 -9.101536e-06 0.0014485412
0000e0 be e3 21 bb d4 83 fd b9 ac cc 6e b9 06 f2 c5 3c
       -0.0024702395 -0.0004835414 -0.00022773695 0.024163257
0000f0 6f 9f 70 3a 06 33 35 3e f2 57 84 3d 63 53 5e 3d
       0.0009179031 0.17695245 0.06462087 0.054278743
000100 fa 46 16 3e 42 68 52 be d4 8d 31 b8 d0 c9 7e 39
       0.14675513 -0.20547584 -4.2332176e-05 0.00024298509
000110 ce 66 72 be b2 d7 6f 38 38 6d a5 3d f2 80 0a 39
       -0.2367203 5.7182922e-05 0.080774724 0.00013208741
000120 1a 57 be 38 94 b7 fb 3a 66 94 ef b8 e4 d4 a5 3e
       9.07613e-05 0.0019204491 -0.000114240494 0.32388985
000130 1c 28 81 3e 2c 0e aa b9 0c 17 df 38 5f 33 a8 b8
       0.25225914 -0.00032435486 0.000106377614 -8.020433e-05
000140 20 3c 17 3b 52 38 14 be 0c 4b be 3d a0 b6 d4 3d
       0.0023076609 -0.1447461 0.09291658 0.103863955
000150 d0 21 92 b8 1a d4 07 bd 42 c5 14 be 1e dd 8d 3d
       -6.9681206e-05 -0.03316126 -0.14528373 0.069269404
000160 96 4c 29 b9 a7 13 66 b9 32 16 76 be 52 88 e8 36
       -0.00016145626 -0.0002194183 -0.24031904 6.9300086e-06
000170 ae 41 bd 3a 6f ab 89 3c 9e 53 35 bb 3f 93 a1 b8
       0.001443913 0.016805379 -0.0027668248 -7.704505e-05
000180 8c f0 7f bd 56 a4 a1 3c e7 09 56 3b 36 08 de b9
       -0.062485263 0.019731682 0.003265971 -0.00042349257
000190 00 25 19 3e 18 d8 19 37 d7 90 83 3e ea 25 d6 3e
       0.1495552 9.169824e-06 0.25696442 0.418258
0001a0 8a e4 47 3e 6c 8c e5 3d 6e c0 79 ba ed 93 62 38
       0.19520774 0.11208424 -0.00095272704 5.4020365e-05
0001b0 19 ff 42 b9 d2 5f 39 3e 2c ad 83 bb 9c ee 5f 3a
       -0.00018596313 0.18102959 -0.0040184464 0.00085423305
0001c0 8e c8 15 3b 40 e9 ef 3d 04 8b 74 bd a8 7b f7 bc
       0.0022855136 0.11714411 -0.059702888 -0.030210331
0001d0 d7 dd 3e bb 90 8d 38 b8 aa 84 90 be 7f b7 ac 3c
       -0.0029123926 -4.400086e-05 -0.28226215 0.021083592
0001e0 66 60 db 3b cc 22 f4 bd 1b d4 93 be f1 98 4a b9
       0.006694841 -0.119206995 -0.2887276 -0.00019321196
0001f0 0d 76 21 b9 95 c4 4a b9 9a 0d 00 be 25 61 50 3a
       -0.00015398134 -0.00019337454 -0.12505189 0.0007949046
000200 4d 97 a2 be c6 48 60 be 7e 0b 66 3e b0 3d 6e bd
       -0.31756058 -0.21902761 0.22465321 -0.0581643
000210 41 ae 58 39 68 95 b0 ba 4a e3 93 bd ac a3 86 bb
       0.0002066428 -0.0013472261 -0.07221086 -0.0041088667
000220 0c 41 a6 be c4 4a e0 bd e0 66 2e 3e b0 8d d2 3c
       -0.32471502 -0.109517604 0.17031431 0.025702327
000230 f5 59 ca ba 18 27 2d be bc 7e 21 be 17 08 60 b9
       -0.0015438186 -0.16909444 -0.15771002 -0.00021365318
000240 c6 5f 37 3e 22 82 3d b9 82 80 64 39 6e 4f a4 3c
       0.17907628 -0.00018072923 0.00021791647 0.020057406
000250 78 19 26 3b df 69 ab 3e b0 d0 49 b9 63 dc 15 37
       0.002534477 0.3347921 -0.00019246596 8.932405e-06
000260 bd 3b 17 3d 50 34 27 3e db 76 ae b9 02 eb 49 3d
       0.036922205 0.1632855 -0.0003327642 0.049296387
000270 49 2e 21 39 6a 56 39 3e 34 0c b0 3d 09 62 00 39
       0.00015371399 0.1809937 0.085960776 0.00012243552
000280 5e 5c 8f b9 5c 72 29 3e 56 c4 9c bd fe bf 0c 3e
       -0.00027343904 0.16547531 -0.076546356 0.13745114
000290 ca 3b 11 3e 5a cd 84 38 0a 17 8e b9 28 11 e2 3d
       0.14182964 6.3325e-05 -0.00027101516 0.110384285
0002a0 98 90 f0 3c 7e 89 54 3d 16 ad 11 39 c2 f4 25 be
       0.029365823 0.051888935 0.00013892757 -0.16206649
0002b0 c8 b0 dd b9 c0 3e f6 3c 30 34 4e b7 0c 99 eb bd
       -0.00042284117 0.030059218 -1.2290708e-05 -0.11503801
0002c0 1f 64 ed ba b6 39 31 b9 8f 75 fc b8 c1 f2 43 38
       -0.0018111503 -0.00016901534 -0.000120381934 4.6717705e-05
0002d0 ec 08 86 37 fe fb 39 3e 40 03 07 b9 8e a5 25 3b
       1.59782e-05 0.18162534 -0.00012875814 0.002527568
0002e0 c3 09 ea be 5e 5d 51 3d 8e 22 63 3e 32 e0 99 be
       -0.45710573 0.051114433 0.2218115 -0.3005386
0002f0 da 8c b9 3d 89 94 d7 bc 2b 79 cf be 3e 42 8e b9
       0.090600684 -0.026315944 -0.4052213 -0.00027133705
000300 e5 ce 18 bd 4c 1e e3 bd 1c 65 5e b7 b8 eb 23 39
       -0.037306685 -0.11089763 -1.32557725e-05 0.00015632703
000310 59 55 ee 39 52 e8 1b 3e 1f 84 0c 39 d3 97 ae 3b
       0.00045458486 0.15225342 0.0001340066 0.0053281575
000320 0c 1b 5d bc b6 ca 7c b8 06 13 94 3e 34 97 29 3e
       -0.013495218 -6.027027e-05 0.28920764 0.16561586
000330 66 2c 95 39 b8 2b 22 3e 89 7e 00 3a c7 09 35 b9
       0.00028452574 0.1583699 0.00049016677 -0.00017265147
000340 da 24 4e 3e ac 09 02 39 12 9f 04 be cd bd 19 39
       0.20131245 0.00012401369 -0.12951306 0.00014661923
000350 92 c4 12 3e 3c b8 0b b8 30 cd b8 be b6 fa 43 39
       0.14332798 -3.3311764e-05 -0.36094046 0.00018690046
000360 c4 23 dc bd 35 2b cc 39 b6 e8 d6 38 fc 3a 4d 3e
       -0.10749009 0.00038942104 0.00010247661 0.20042032
000370 19 93 cd 3e 01 44 c2 be 3b 25 59 3d bb 47 98 3c
       0.4015129 -0.37942508 0.05301402 0.018588891
000380 99 98 63 b9 22 7c a1 3d 3e 8e b5 b8 d6 86 1c be
       -0.00021705254 0.078850046 -8.657247e-05 -0.15285811
000390 9f bf 8b 3c f8 af 3d 3c f8 60 92 bd 56 2d da 3e
       0.017059145 0.011577599 -0.071474016 0.42612714
0003a0 ae c0 c6 bd e4 17 06 ba c0 5d b3 bc a8 1f 25 b9
       -0.097047195 -0.00051152543 -0.02189529 -0.00015747419
0003b0 47 87 17 b9 50 50 6e 3d dd 8e 0e 39 ae a8 2b bd
       -0.00014450877 0.05818206 0.00013595396 -0.041908912
0003c0 20 58 22 be 12 88 30 3e 6e e6 ad b9 5c 7e 50 b9
       -0.1585393 0.17239407 -0.00033168815 -0.00019883498
0003d0 f8 d4 6d 3e 26 c4 32 3e 26 4a 52 b8 7e 97 40 b8
       0.23225772 0.17457637 -5.0136958e-05 -4.5917455e-05
0003e0 2c b8 50 37 f1 f9 43 3d f8 4d 87 b9 f8 f5 e1 bd
       1.2440647e-05 0.047845785 -0.00025807298 -0.11033243
0003f0 cc 1c 81 b9 38 27 9e 38 51 29 23 3d 54 68 e0 bd
       -0.00024626253 7.541332e-05 0.039834324 -0.10957399

autoencoders.0.encoder.cells.0.lstm.bias_ih f4 [32]
000000 00 00 00 00 00 00 00 00 00 00 00 00 00 00 00 00
       0.0 0.0 0.0 0.0
000010 00 00 00 00 00 00 00 00 00 00 00 00 00 00 00 00
       0.0 0.0 0.0 0.0
000020 00 00 00 00 00 00 00 00 00 00 00 00 00 00 00 00
       0.0 0.0 0.0 0.0
000030 00 00 00 00 00 00 00 00 00 00 00 00 00 00 00 00
       0.0 0.0 0.0 0.0
000040 00 00 00 00 00 00 00 00 00 00 00 00 00 00 00 00
       0.0 0.0 0.0 0.0
000050 00 00 00 00 00 00 00 00 00 00 00 00 00 00 00 00
       0.0 0.0 0.0 0.0
000060 00 00 00 00 00 00 00 00 00 00 00 00 00 00 00 00
       0.0 0.0 0.0 0.0
000070 00 00 00 00 00 00 00 00 00 00 00 00 00 00 00 00
       0.0 0.0 0.0 0.0

autoencoders.0.encoder.cells.0.lstm.bias_hh f4 [32]
000000 00 00 00 00 00 00 00 00 00 00 00 00 00 00 00 00
       0.0 0.0 0.0 0.0
000010 00 00 00 00 00 00 00 00 00 00 00 00 00 00 00 00
       0.0 0.0 0.0 0.0
000020 00 00 00 00 00 00 00 00 00 00 00 00 00 00 00 00
       0.0 0.0 0.0 0.0
000030 00 00 00 00 00 00 00 00 00 00 00 00 00 00 00 00
       0.0 0.0 0.0 0.0
000040 00 00 00 00 00 00 00 00 00 00 00 00 00 00 00 00
       0.0 0.0 0.0 0.0
000050 00 00 00 00 00 00 00 00 00 00 00 00 00 00 00 00
       0.0 0.0 0.0 0.0
000060 00 00 00 00 00 00 00 00 00 00 00 00 00 00 00 00
       0.0 0.0 0.0 0.0
000070 00 00 00 00 00 00 00 00 00 00 00 00 00 00 00 00
       0.0 0.0 0.0 0.0

autoencoders.0.decoder.cells.0.weight_h_2 f4 [8, 8]
000000 44 af d2 bc 55 74 21 3e b4 d5 0b 3f d5 52 af b8
       -0.025718339 0.15767033 0.5462296 -8.360079e-05
000010 fa 6f d1 37 cc 42 7e bd 3c ee 00 bc d7 11 fa be
       2.4966885e-05 -0.06207542 -0.0078692995 -0.48841736
000020 2f ea 82 3d 70 3e 92 bd 0d 1d a9 3e 62 81 6c 3e
       0.06392323 -0.07140815 0.33029976 0.2309623
000030 65 19 9f 3e 81 b6 ec 3e 8c 30 7d 3e ad 18 0b 3c
       0.31074062 0.4623299 0.2472555 0.00848977
000040 72 bb b6 3b c0 f0 e3 3e 73 ef ea 3e 55 52 0f 3f
       0.0055765444 0.44519615 0.4588581 0.55985004
000050 9e cb 7c be 76 b0 a6 bd 1b e9 9a 3d d3 2d 96 be
       -0.24687049 -0.08139126 0.075639926 -0.29331836
000060 66 42 f0 b7 68 e6 7f be 98 97 58 be 47 dc 09 be
       -2.8641149e-05 -0.24990237 -0.21151578 -0.13462935
000070 78 b4 5d b9 bb ab ee 3e 6d 1e 67 bd 65 84 d0 be
       -0.00021143432 0.46615395 -0.0564255 -0.4072601
000080 9a 92 20 3e 62 2c 3d bd 95 23 8f 3e 11 90 c5 3e
       0.15680924 -0.046184905 0.27956834 0.38586476
000090 32 4e bc 3d ab ed 54 3e 9a 56 ad be 58 e8 55 3e
       0.09194602 0.20793788 -0.33855134 0.20889413
0000a0 0f 5d f9 be 22 b0 8c 3e 82 dd 96 bd 7e 4d 2f 3e
       -0.4870381 0.2747813 -0.07366468 0.17119405
0000b0 db 53 52 be 45 70 df 3e 65 a0 23 3e 9c 31 61 be
       -0.20539801 0.43640342 0.15979154 -0.2199158
0000c0 c6 d3 28 3f 67 2b 6a be 2e fd db be 13 17 8d bd
       0.6594814 -0.22868119 -0.42966598 -0.06889167
0000d0 ce a8 2d bf a2 39 83 be ca 71 96 3e 51 e9 d3 3d
       -0.678357 -0.25629908 0.2938369 0.10347236
0000e0 e3 d1 fb be 24 69 26 3d a6 07 30 bd ec 11 3b b9
       -0.49183568 0.040627614 -0.042976044 -0.00017840386
0000f0 ee c3 31 be 41 6a b4 3e 04 6d 89 be 2f e7 12 3b
       -0.17359897 0.35237315 -0.26840985 0.0022415628

autoencoders.0.decoder.cells.0.bias_h_2 f4 [8]
000000 c3 64 9e bc 0e 32 35 3d 3f f6 2e 3b 19 2c 9e 3c
       -0.019335156 0.04423719 0.0026697067 0.019308137
000010 18 4e 0e b7 38 24 02 3d ca 2c 33 3d a8 29 00 3d
       -8.482042e-06 0.031772822 0.043743886 0.031289726

autoencoders.0.decoder.cells.0.lstm.weight_ih f4 [32, 1]
000000 0e 44 b1 bb 3b 13 8c 3e a4 a9 ea bd 00 a4 bf b8
       -0.005409724 0.27358422 -0.11458138 -9.138137e-05
000010 38 b9 19 be d5 1f a0 bc 44 77 c2 3d f1 39 c4 3e
       -0.15012062 -0.019546429 0.09495404 0.38325456
000020 4f 90 96 3c 9d b0 0c be 4d eb 9c be b2 29 2d 3a
       0.018379359 -0.13739248 -0.3064827 0.00066056394
000030 ad d0 ce bc e6 d9 b9 bc 42 72 7a bc bf 37 eb 3c
       -0.025245989 -0.02268691 -0.01528603 0.028713105
000040 6e cc 38 be 6d 11 90 3e dc 92 90 be 08 36 1d bd
       -0.18046734 0.28138295 -0.28237045 -0.038381606
000050 04 b7 f3 bd b5 7e dc 3e ed 71 b6 bc 00 14 e4 3c
       -0.11900142 0.4306542 -0.02227112 0.027841568
000060 d1 aa ec 3e 3a 30 d9 3e 35 48 81 be c7 63 86 3a
       0.46224073 0.42419606 -0.25250402 0.0010253125
000070 cb 72 07 b9 73 46 0c 3e d8 75 2c 3e 3a 6d 4c 3e
       -0.00012917367 0.13698749 0.16841829 0.19963542

autoencoders.0.decoder.cells.0.lstm.weight_hh f4 [32, 8]
000000 11 0b 75 bb 94 88 57 3b dd 16 34 3b e3 3b 1f 39
       -0.003739063 0.0032887803 0.0027479448 0.00015185731
000010 ba 0a 28 ba e6 13 ce 3d 53 32 92 bd 30 59 70 bd
       -0.000641029 0.10062389 -0.07138505 -0.058678806
000020 e1 76 db 3e a1 84 bc 3d 57 ee af 3e 65 6c 65 be
       0.42864135 0.092049845 0.34361526 -0.2240463
000030 3f b5 b6 38 11 69 ab 3c c7 b8 9b 3d 08 8e 59 3e
       8.712196e-05 0.020924123 0.07603603 0.21245587
000040 1e ed f9 3e 64 1f 96 38 9e 90 8f bc 9a 25 29 3e
       0.4881372 7.158404e-05 -0.017525014 0.1651825
000050 77 55 98 bd c3 a8 e5 b8 b2 ed cc bd a0 cc 50 38
       -0.07438176 -0.00010951005 -0.10006274 4.9781636e-05
000060 2a f6 88 b8 18 a9 12 be ca 15 74 b9 fc a5 31 3e
       -6.530837e-05 -0.14322317 -0.0002327777 0.17348474
000070 0b 6b 4a 3b 1b d0 52 3e 9e ec eb 3d c1 5d cf b8
       0.0030886556 0.20587198 0.115197405 -9.887992e-05
000080 95 03 a6 39 4b 1c 7b 3a 52 5f 8e be 96 e3 1d b9
       0.00031664656 0.0009579106 -0.278071 -0.00015057469
000090 d2 75 84 b9 79 76 7d 39 8f a2 87 b7 3e fb 26 bb
       -0.00025264785 0.00024172095 -1.6168951e-05 -0.0025479342
0000a0 c1 2a 46 be 44 1e 9d 3e 05 58 7e 3e 7a b6 8b be
       -0.19352247 0.30687153 0.24838264 -0.27287656
0000b0 82 4a 31 bd 29 dc 5b 3e 7f a1 52 be f0 ec d9 3e
       -0.043283947 0.21470703 -0.20569418 0.4256358
0000c0 fb f7 48 be b4 a5 9b 3b db f1 26 39 cd 1f 95 be
       -0.19625847 0.004749978 0.00015921092 -0.29125825
0000d0 56 e2 4b b9 e9 8b b6 3d 00 f6 51 3a 79 87 78 3e
       -0.00019443905 0.089134045 0.0008009374 0.24270429
0000e0 a2 1a c2 3c 5f ef 97 bd f3 e1 d1 3c 64 5c 86 bb
       0.02369434 -0.07418703 0.025620436 -0.0041003693
0000f0 d0 72 a0 b8 e8 b0 8c 3d 7a 97 b5 3e b4 1c f8 3e
       -7.65078e-05 0.0686968 0.3546713 0.484594
000100 7b 73 0e be 1c e5 6c 3c 12 12 a5 3e d3 e9 1b 3d
       -0.1391124 0.014458921 0.3224035 0.03806479
000110 75 d7 1d 3c 66 6b 6d 3c ce e0 d2 39 d9 1b 99 39
       0.0096338885 0.014490938 0.00040221814 0.00029203182
000120 e5 7d 06 38 a9 0e a1 3d 14 d5 0c 3e d8 21 07 be
       3.2065338e-05 0.07864124 0.13753158 -0.13196504
000130 dc 5e 0f 3e 55 5d 07 3f ef 13 82 be 42 f5 c9 3d
       0.1400103 0.5287679 -0.25405833 0.09861232
000140 48 7d c8 b9 da 38 51 be 1f 42 10 be ba 64 aa 3d
       -0.00038240314 -0.20431843 -0.14087723 0.08319993
000150 79 e7 75 3e 68 dd 71 39 d2 1b 8f be b0 14 a7 37
       0.24014081 0.00023066031 -0.27950913 1.9917585e-05
000160 84 93 90 b9 06 a6 ce 3c 3d af 08 3a bd 10 78 be
       -0.00027575728 0.02522565 0.0005214101 -0.24225135
000170 6c fe a2 37 07 e2 4a 3a 50 d0 a5 ba c9 c8 a3 3d
       1.943038e-05 0.0007739369 -0.0012650583 0.07997281
000180 72 c1 78 38 27 57 3d 38 c2 ca ed bd 0d ac 9c bd
       5.9307968e-05 4.514228e-05 -0.116109386 -0.076500036
000190 ce 5f 4e 39 fb 72 0a 3d b5 ce 83 b9 a7 e4 46 b9
       0.00019681381 0.03380106 -0.00025140276 -0.00018967931
0001a0 cb 76 d9 3d a5 65 dd 3d cb fb b9 3d 4c 46 aa 3c
       0.10618361 0.10810403 0.09081229 0.020785473
0001b0 34 c7 3c 3d 8e 43 12 3e b2 a3 06 bd 91 e1 53 bd
       0.046088412 0.14283583 -0.032870956 -0.05172879
0001c0 d6 d2 e8 b8 e9 b6 31 3b 1e e6 5b be ef f5 bc bd
       -0.00011101893 0.002711708 -0.21474501 -0.092265956
0001d0 fa c8 af ba 8e 74 93 bd 26 8e da bd 9c 63 11 bb
       -0.0013411336 -0.071999654 -0.10671644 -0.0022184616
0001e0 d3 be d6 bb 9e 8b 2d 3f 65 98 74 3e 90 b9 83 be
       -0.0065535097 0.67791164 0.23886259 -0.2572751
0001f0 54 aa 00 be d1 c7 c9 3c 46 fd 56 3e ab 2b 1e be
       -0.12564975 0.024631413 0.20995054 -0.15446346
000200 90 c1 f5 3d cc ba 80 be 44 63 75 be ae ce cb 3c
       0.1199981 -0.25142515 -0.23963648 0.024878826
000210 41 42 89 bd 49 6d fe 3b f0 98 8f bc 1e 99 9e bc
       -0.0670209 0.0077644926 -0.017528981 -0.019360121
000220 09 de 3a bd c7 a1 93 3e 2b 46 92 bd 67 44 9e bd
       -0.045621905 0.28834364 -0.0714229 -0.077278905
000230 ac bc ab 3e 8e f9 93 3d 87 f0 a0 be d0 dc b0 3e
       0.33542383 0.07225333 -0.31433508 0.34543467
000240 03 06 6d 3b bb bf 03 be be 5a 99 bd 0c af 23 3e
       0.0036166913 -0.12866108 -0.07488011 0.15984744
000250 fc 7e 9c 3e 25 bf 69 bc b2 f9 ab 3b 86 64 a1 bd
       0.3056563 -0.014266764 0.005248272 -0.078805014
000260 4c 10 39 3e b1 6e 03 3d ee ab 29 b9 7b 90 4e 3e
       0.18072623 0.032087985 -0.00016181145 0.20172302
000270 70 03 50 3e 89 f5 1c 3e 76 7c 98 3c 6d 69 db be
       0.20313811 0.15328039 0.018614035 -0.4285387
000280 75 ee dd ba 28 07 5a 3b 79 ad 4d b8 65 69 a8 be
       -0.0016932028 0.0033268426 -4.9037368e-05 -0.3289291
000290 7a 58 9f 39 db 0b 0f bd 35 87 11 3e 63 a5 b2 3a
       0.00030392763 -0.034923416 0.14211734 0.0013629611
0002a0 d0 f5 9a be 3d 95 ee 3d 28 a7 91 be 4e 13 7d be
       -0.30265665 0.11649559 -0.28447843 -0.24714395
0002b0 f9 aa 30 be 7b fc 88 3d 08 2f b5 3d f7 8c 30 3e
       -0.17252721 0.06688782 0.08846861 0.17241274
0002c0 7a 21 93 bd 78 da 89 3e 92 4e 1e b8 7c 6d c3 3d
       -0.071841195 0.2692449 -3.774331e-05 0.09542367
0002d0 91 ad fa 3e 07 03 ec 3c 04 f0 7d 3e 0f e7 70 bd
       0.48960546 0.028810037 0.2479859 -0.058814105
0002e0 df cc f5 3c c7 e1 d8 bd c4 a8 b6 3e 81 bc b6 3e
       0.030004917 -0.105899386 0.35675633 0.35690692
0002f0 22 1c e5 be 48 d8 f2 3e 5a d4 cd 3d 9f c3 18 3e
       -0.44748026 0.47430634 0.100502685 0.14918374
000300 53 41 45 37 4f 56 a2 39 80 0b 43 3d 0f 4e 76 39
       1.17573245e-05 0.00030963353 0.04761839 0.00023489467
000310 87 3b 7a 39 78 41 9a 3d 08 04 4b b9 a0 9d 99 be
       0.00023864034 0.075320184 -0.0001936109 -0.3000307
000320 55 0e f8 3d e8 d9 1d 3e ae d2 7b 3e 58 96 6c 3c
       0.121121086 0.15415156 0.24592087 0.014440142
000330 5d a4 83 3d f4 7a 3a 3e db ca a1 3d f5 20 56 3e
       0.06427834 0.18210965 0.0790002 0.2091101
000340 60 31 03 3e a5 3a 31 3e 2e 63 50 3e 3b da 46 3b
       0.12811804 0.17307527 0.20350334 0.0030342478
000350 ac 08 ee bd 6f 9f 58 be 84 ca bb bc 74 ee 5b be
       -0.11622748 -0.21154569 -0.022923715 -0.21477681
000360 3f a3 7e b9 d7 86 c2 3d fb d1 86 3d ff 9b 40 bd
       -0.00024284142 0.09498375 0.06583019 -0.04702377
000370 c9 d9 8a 38 b3 65 73 3d f1 06 97 39 a5 bd 0c b9
       6.6209184e-05 0.05942316 0.00028806136 -0.00013422089
000380 71 6e 0f be 42 95 3a bb dd f2 40 38 ff 5e 56 3e
       -0.14006974 -0.0028470312 4.600255e-05 0.20934676
000390 e1 30 db 3d 6f 75 1d be d8 3a 9f 39 06 66 a9 bc
       0.10702682 -0.15376829 0.00030370685 -0.020678531
0003a0 0e 32 0e 3c ae c1 b5 3e 87 87 15 be 56 87 37 be
       0.008678926 0.35499328 -0.14602481 -0.1792272
0003b0 17 62 cf 3c 29 7e ee bc 62 c1 2c 3e 70 b5 d1 3e
       0.025315328 -0.029112892 0.16870645 0.40958738
0003c0 d2 29 3f bd 68 ca d5 3b 3c 7e 29 3e 62 0a c6 bd
       -0.046670742 0.006524373 0.16552061 -0.09669949
0003d0 fe 86 85 3d 50 a3 5c 3c 6e 33 23 be 71 6a b4 3b
       0.06519888 0.013466671 -0.15937588 0.005505853
0003e0 e2 46 af bd f1 24 cf 3e 71 68 bf 3d 36 48 78 39
       -0.08558442 0.40457872 0.093460925 0.00023678024
0003f0 4f f9 2b b9 45 ed 0a 3e cb 7d 19 3e d5 6d 04 be
       -0.00016400705 0.13567074 0.14989392 -0.12932523

autoencoders.0.decoder.cells.0.lstm.bias_ih f4 [32]
000000 93 12 af 3c 19 8c 91 3d db 8b bb 39 ca 70 69 b9
       0.021371162 0.071068 0.0003577162 -0.00022262629
000010 ad 5b 89 b8 4d 7d 3a 3e 56 91 45 38 75 e6 16 bc
       -6.549745e-05 0.18211861 4.7103815e-05 -0.009210219
000020 22 7f ba 3c ea 71 bf 3d 91 ae d1 37 3c cc 16 39
       0.0227657 0.09347899 2.499603e-05 0.00014381198
000030 94 84 1b b8 8c a6 55 3e 9e b2 c8 39 a3 02 ce 3c
       -3.7078353e-05 0.20864314 0.00038280053 0.025147742
000040 a8 ee ae bc da 9a 01 bc a0 2f f6 3c e2 7a 47 3d
       -0.021354035 -0.007910455 0.030052006 0.048701175
000050 73 bb 16 ba fe f4 b4 bc 77 da 7d 3d df e8 f7 3c
       -0.0005749978 -0.022089478 0.061975922 0.030262409
000060 40 c1 e5 38 70 42 b3 3d 5e 18 d1 39 b8 5c 50 37
       0.000109555665 0.08752906 0.0003988174 1.2419354e-05
000070 39 60 8e b8 ff 5e 3f 3e 80 69 2f 3a c2 d9 1e 3d
       -6.7890105e-05 0.18688582 0.0006691441 0.03878189

autoencoders.0.decoder.cells.0.lstm.bias_hh f4 [32]
000000 93 12 af 3c 19 8c 91 3d db 8b bb 39 ca 70 69 b9
       0.021371162 0.071068 0.0003577162 -0.00022262629
000010 ad 5b 89 b8 4d 7d 3a 3e 56 91 45 38 75 e6 16 bc
       -6.549745e-05 0.18211861 4.7103815e-05 -0.009210219
000020 22 7f ba 3c ea 71 bf 3d 91 ae d1 37 3c cc 16 39
       0.0227657 0.09347899 2.499603e-05 0.00014381198
000030 94 84 1b b8 8c a6 55 3e 9e b2 c8 39 a3 02 ce 3c
       -3.7078353e-05 0.20864314 0.00038280053 0.025147742
000040 a8 ee ae bc da 9a 01 bc a0 2f f6 3c e2 7a 47 3d
       -0.021354035 -0.007910455 0.030052006 0.048701175
000050 73 bb 16 ba fe f4 b4 bc 77 da 7d 3d df e8 f7 3c
       -0.0005749978 -0.022089478 0.061975922 0.030262409
000060 40 c1 e5 38 70 42 b3 3d 5e 18 d1 39 b8 5c 50 37
       0.000109555665 0.08752906 0.0003988174 1.2419354e-05
000070 39 60 8e b8 ff 5e 3f 3e 80 69 2f 3a c2 d9 1e 3d
       -6.7890105e-05 0.18688582 0.0006691441 0.03878189

autoencoders.0.decoder.output_layer.weight f4 [1, 8]
000000 8c 10 dc bd b2 ab 92 3e f5 72 aa bd 29 15 ed 3d
       -0.107453436 0.28646618 -0.083227076 0.115763016
000010 25 cd b0 bc 69 21 59 3e 0e c0 9c 3e 29 65 49 3e
       -0.021582196 0.21204151 0.30615276 0.19667496

autoencoders.1.encoder.cells.0.weight_h_2 f4 [8, 8]
000000 43 9c bb b8 31 c7 96 be 38 c7 6d 3e f4 8e 31 be
       -8.945961e-05 -0.29448846 0.23220527 -0.17339689
000010 40 2b 66 3d 93 dc 99 b9 68 92 e2 be fd 40 c7 3c
       0.05619359 -0.00029346775 -0.44252324 0.024322981
000020 32 42 02 3f 65 98 65 b8 60 44 ab be a7 3f 42 39
       0.50882256 -5.4739783e-05 -0.33450603 0.00018524994
000030 36 42 d4 b8 ab 52 19 b9 b8 86 fd bd 78 81 48 bf
       -0.000101212805 -0.00014622013 -0.12379211 -0.78322554
000040 b4 3c 7d bd 72 e6 b0 3d 84 69 6f be 20 b6 8d 3d
       -0.06182547 0.08637704 -0.23380095 0.06919503
000050 67 18 c6 b9 ce a2 b6 3e bc af 84 be 8e 12 c4 3e
       -0.00037783684 0.35671085 -0.25915325 0.38295406
000060 56 fb 93 37 6f fb 87 bc 66 43 a5 bc dc fb e2 3d
       1.7640803e-05 -0.016599385 -0.02017374 0.110831946
000070 7e 5c d4 3e 36 95 30 bc e7 1a ad 3e 2a fb bb bd
       0.41476816 -0.010777762 0.33809587 -0.09178765
000080 0b 29 67 b9 ce c6 be 3e ae 07 03 3f d5 48 8e be
       -0.00022045166 0.3726105 0.51183593 -0.2778994
000090 87 ea 58 3b 34 25 f8 3e f7 ec a7 be 39 76 ca 3e
       0.0033098774 0.48465884 -0.32797977 0.39543322
0000a0 86 3c 15 be cd a2 1d 39 78 9b 4f 3e f8 58 ce 3d
       -0.14573869 0.00015033335 0.2027415 0.10075563
0000b0 c5 c3 c9 b7 bb 62 c6 be 78 cf e0 3d 0f 20 83 be
       -2.405223e-05 -0.387472 0.109770715 -0.25610396
0000c0 5c 12 c5 be 04 6f ea 3d 99 72 78 3a d2 39 85 3e
       -0.3849057 0.11446956 0.00094775256 0.26020676
0000d0 da b4 3a 3e 7e ca 7e be 4c 60 3b be 45 72 84 b6
       0.18233052 -0.24881932 -0.18298453 -3.9472093e-06
0000e0 e0 3f 9e 3e 85 a1 0f 38 a8 93 db 3d 9c ab 8b b8
       0.30908108 3.4244284e-05 0.107215226 -6.660001e-05
0000f0 f7 a3 18 3f 83 30 aa be e8 8b 26 b9 20 99 f7 38
       0.5962519 -0.33240137 -0.00015883113 0.000118063996

autoencoders.1.encoder.cells.0.bias_h_2 f4 [8]
000000 00 00 00 00 00 00 00 00 00 00 00 00 00 00 00 00
       0.0 0.0 0.0 0.0
000010 00 00 00 00 00 00 00 00 00 00 00 00 00 00 00 00
       0.0 0.0 0.0 0.0

autoencoders.1.encoder.cells.0.lstm.weight_ih f4 [32, 1]
000000 7a a0 1e 3a f2 5b 19 b9 e2 35 a8 b9 2a 1f b8 b9
       0.00060511346 -0.0001462547 -0.00032083603 -0.00035118434
000010 0b 67 1e b9 a9 c8 f4 39 10 41 ee bd 16 e6 c4 bc
       -0.0001510644 0.0004668881 -0.116335034 -0.024035495
000020 0c 74 46 39 08 5f 44 39 9b 96 ef 3e a8 87 a1 b9
       0.00018925982 0.00018727419 0.4679459 -0.00030809385
000030 ac ef a5 3e a6 c1 d5 3b 41 d4 8f 37 de 9e 83 bd
       0.32409418 0.006523329 1.7145767e-05 -0.06426786
000040 70 83 b9 bd 6e 9f e2 be b0 6b e6 3d 78 b8 96 ba
       -0.09058273 -0.4426226 0.112510085 -0.0011499068
000050 af 55 a5 ba aa 2a 32 39 74 08 a8 bd 6f 17 20 b9
       -0.0012614037 0.00016991296 -0.08204737 -0.00015267519
000060 18 8c 41 3b 90 63 f1 3c 33 23 61 3d 64 11 7a 3e
       0.0029532965 0.02946642 0.05496521 0.24420696
000070 df 7a 8d b9 73 36 c4 b9 f0 9f 5d 38 5c d1 f0 bd
       -0.00026985162 -0.000374246 5.283946e-05 -0.11758682

autoencoders.1.encoder.cells.0.lstm.weight_hh f4 [32, 8]
000000 94 80 f2 b7 f9 53 d5 b9 30 fe f1 bd 20 cf 9c bd
       -2.8908522e-05 -0.0004068909 -0.118160605 -0.076566935
000010 15 3e 1a b9 64 2a 1e b9 48 1c a9 38 c1 62 30 b8
       -0.00014709712 -0.00015083846 8.063816e-05 -4.205364e-05
000020 43 e8 0c bd 82 1d 9f be 91 71 10 3a f4 e2 43 ba
       -0.03440119 -0.310772 0.0005510087 -0.00074724783
000030 f4 21 77 3d 17 da 29 3b 0d 40 2d b9 8e ff 47 3d
       0.060335115 0.0025917345 -0.00016522426 0.0488277
000040 f1 5b d6 37 4a bb 59 b8 fa be b4 38 f2 7a 04 be
       2.5553602e-05 -5.191126e-05 8.618641e-05 -0.12937525
000050 57 06 7e 39 35 47 0a 39 d0 56 26 3e ca dd 54 3e
       0.0002422569 0.00013187232 0.16244054 0.20787731
000060 32 25 31 39 d6 ce 1e ba 9d fa e4 39 6e 7c 12 39
       0.00016893892 -0.00060580426 0.0004367427 0.00013969999
000070 34 d0 a1 39 de 7f 21 3e e3 d5 21 b9 d8 b5 ab 3d
       0.00030863436 0.15771434 -0.00015433836 0.08384293
000080 72 27 88 3d d7 04 3b bb d4 81 10 bd 54 08 43 37
       0.066481486 -0.002853682 -0.035280064 1.1624845e-05
000090 1c 93 bf bc 49 e5 36 bb 56 0a 10 39 44 ac 70 be
       -0.023385577 -0.002790766 0.0001373676 -0.23503214
0000a0 4b 84 60 38 5a b1 48 be 36 13 c8 3d 70 58 f1 bd
       5.352897e-05 -0.19598904 0.09769289 -0.11784446
0000b0 13 ae 0e b8 bb f1 dc 38 be a9 ba bd 04 b9 0c 39
       -3.4017557e-05 0.00010535443 -0.09114407 0.00013420364
0000c0 f7 b3 76 38 f1 eb 15 3d 9a 58 c2 3d 5f 75 88 b9
       5.8818576e-05 0.036601964 0.09489556 -0.0002602739
0000d0 46 a9 ee b8 1c a0 60 3e fd eb 58 b9 7a 67 3c 38
       -0.00011380254 0.21936077 -0.00020687278 4.4919063e-05
0000e0 f8 55 44 bc 1c 93 14 bd fa ba c3 3d bb 4e 92 3e
       -0.011983387 -0.036273107 0.09557147 0.28575692
0000f0 4d 60 15 3b c4 80 1f b9 b8 0e 9a 3d bb 1a b9 ba
       0.0022792995 -0.0001521139 0.07522339 -0.0014122346
000100 12 91 ed 39 c0 98 f1 bd d2 73 6c 39 46 ad ca 37
       0.00045312248 -0.11796713 0.0002254986 2.4160963e-05
000110 8a 86 c5 3a 9e c9 2d b7 4a 4a 46 be 38 17 52 3e
       0.0015070003 -1.0358546e-05 -0.19364277 0.2051667
000120 0a 93 de b8 f8 89 8f ba 6a 85 c2 3a 28 d6 fa bd
       -0.00010613173 -0.0010951152 0.0014840786 -0.12247878
000130 65 3f a2 37 8f 7d 24 3b cb 41 1a b8 75 4c 33 38
       1.9341425e-05 0.0025099253 -3.6777736e-05 4.274813e-05
000140 3a 79 f3 b8 7a 8c fc b9 c7 15 07 38 f0 50 dd bd
       -0.00011609723 -0.0004816985 3.220679e-05 -0.10806453
000150 78 2b 1a 3b 67 8b cd 39 d4 b6 7c 3c 32 5b 55 3e
       0.0023524445 0.0003920451 0.015424449 0.2083557
000160 28 4e 59 b9 cb 91 4b b9 08 f1 df bd a5 de 85 3a
       -0.00020723848 -0.00019413901 -0.10934645 0.0010213448
000170 29 0b f4 bb 6c e0 a8 3d e0 8b 79 be 47 64 8e b8
       -0.0074476195 0.0824593 -0.24369764 -6.789766e-05
000180 25 d1 20 ba 4c 86 74 3d 3d a8 c8 bc c1 cd 95 b7
       -0.00061346806 0.059698388 -0.024494285 -1.7857996e-05
000190 3c ac b5 3e be fa 8d 3c 33 5f 12 38 28 ca d0 bd
       0.35482967 0.017331477 3.4897774e-05 -0.10194808
0001a0 a0 42 1c 36 a1 23 59 37 15 ca 72 38 14 b1 ac bd
       2.3284592e-06 1.2942503e-05 5.78855e-05 -0.084322125
0001b0 d5 d2 9f 38 7e b6 6b 3c 7c 97 f0 3d 6d 26 9d 3e
       7.620981e-05 0.014386771 0.11747643 0.3069338
0001c0 44 29 81 3e 27 bc 96 b9 6a 26 e6 b7 1f a9 f7 3a
       0.25226796 -0.00028750414 -2.7436025e-05 0.0018895007
0001d0 f8 4f 8c ba 72 70 92 38 6a d1 26 39 88 6e df bd
       -0.0010704985 6.982767e-05 0.00015909006 -0.10909754
0001e0 c5 aa 37 39 0f 94 18 39 26 e2 d8 38 8f e7 72 3a
       0.00017515857 0.00014551006 0.00010341806 0.00092660723
0001f0 1e 54 62 3e be b3 4f b9 2e ef 35 39 30 ad f6 bc
       0.221024 -0.00019808018 0.00017350607 -0.03011188
000200 30 61 8c b5 f4 67 65 bd 25 7e 31 39 67 b6 ed 39
       -1.0459098e-06 -0.05600734 0.00016927028 0.00045340063
000210 9a bc 62 37 36 a8 48 b8 44 8c bf 38 5d a4 2e b9
       1.3514562e-05 -4.7840374e-05 9.133716e-05 -0.00016655163
000220 b8 01 54 37 eb b2 19 39 d5 43 08 bb 8e 10 08 3d
       1.2636585e-05 0.00014657869 -0.0020792384 0.033218913
000230 46 66 32 b8 db 63 98 be 60 3d b8 b7 97 4b 3d 3b
       -4.2533757e-05 -0.29763684 -2.196309e-05 0.0028884166
000240 70 26 05 3e 45 22 30 b8 56 3b c4 bd dc 6a 93 3d
       0.13002944 -4.1993586e-05 -0.0958163 0.07198116
000250 07 b5 f3 b9 d5 5d 20 bd dc 61 d9 bd 20 3f 3f 3e
       -0.00046483448 -0.039151985 -0.10614368 0.18676424
000260 7e 0d 1b be 0a 9e 8e bd 66 a6 08 be 67 53 cd b9
       -0.15141866 -0.06963737 -0.13344726 -0.00039162787
000270 fe ff 98 b9 1b fe 41 b9 db eb b8 38 88 9d 31 bb
       -0.00029182428 -0.00018500576 8.817735e-05 -0.0027101953
000280 04 6c 80 3c cd 2a 19 3b d2 96 91 3d 76 dd c3 3c
       0.015676506 0.0023371459 0.07108845 0.023909312
000290 74 3e 46 b8 41 3f cc b8 ee 8d 35 3e 4c 62 35 be
       -4.7265043e-05 -9.73926e-05 0.17729923 -0.17713279
0002a0 46 cc 8c 3d 30 e1 f6 3c f0 d6 19 3e fa 3e 22 3a
       0.068748996 0.030136675 0.15023398 0.0006189194
0002b0 c5 69 8c 3e 64 38 94 bd 98 4e c4 bd f6 f5 36 3e
       0.27424446 -0.07237318 -0.09585303 0.17867264
0002c0 69 5a 42 3d 09 8f 28 39 4e 27 df b7 67 21 98 3a
       0.047449503 0.00016075013 -2.6601974e-05 0.0011606634
0002d0 11 75 07 b9 49 bf ff bc ef ff f0 38 60 d6 9b 3d
       -0.00012918214 -0.031219142 0.00011491763 0.07609248
0002e0 6e 9c c5 3d 4d 08 3c 38 49 f9 a9 39 61 6a f9 be
       0.09648977 4.4830424e-05 0.00032419924 -0.48713973
0002f0 7a 06 31 be 21 75 9c b8 3d 32 a7 37 7f 00 af b8
       -0.17287627 -7.4604766e-05 1.9931345e-05 -8.344743e-05
000300 7e 67 81 bd 6e 7c 46 3e ac 88 e0 bd 90 88 8f 3c
       -0.06318568 0.19383404 -0.10963568 0.017521173
000310 ce d0 20 3b 78 ef 99 ba c8 d7 96 be 87 b2 a9 3c
       0.002453852 -0.0011744341 -0.29461503 0.020715011
000320 88 33 29 bf ff b3 a6 3c cf 86 5b 3d bc 89 12 3e
       -0.66094255 0.0203495 0.05359536 0.14310354
000330 18 a8 b5 bd 2b 3f 0e b9 5c d9 8b b9 31 44 96 b8
       -0.08869952 -0.00013565707 -0.0002667409 -7.165259e-05
000340 59 94 70 38 50 ea d8 3d 08 1a da 3d 4e dd 81 bd
       5.735862e-05 0.105915666 0.10649496 -0.06341039
000350 23 df 62 3d 28 28 5c be 48 ec 02 be d2 a2 50 3d
       0.05538858 -0.21499693 -0.12785447 0.050936528
000360 e4 3f a3 bd a0 69 ae 3e 7e ba 14 bc a9 12 c2 b6
       -0.079711705 0.3406496 -0.009077666 -5.783823e-06
000370 a8 e9 f1 39 5a 2d 5c 3e b4 ac cd 3d 50 62 b4 be
       0.0004614119 0.21501675 0.10042706 -0.35231256
000380 e2 d0 ba 3d dd 42 2d ba d2 f5 69 b9 24 13 56 3e
       0.091218725 -0.00066093897 -0.00022312187 0.20905739
000390 01 3e 3e 3d dd 05 11 39 62 be e0 b8 46 39 86 3d
       0.04644585 0.00013830462 -0.00010716614 0.06553893
0003a0 bf 92 81 be 4e 1a d7 be a4 3e f0 3d 54 e8 21 3e
       -0.2530727 -0.42012256 0.11730698 0.15811282
0003b0 27 3f 5d bb aa e6 00 b9 0a 39 02 b9 7a a9 3f 3e
       -0.0033759566 -0.0001229296 -0.00012419015 0.18716994
0003c0 c0 f6 7a 3e 48 65 39 bb e6 45 31 bc 78 d0 13 3b
       0.2450819 -0.0028289128 -0.010819888 0.0022554677
0003d0 c6 76 de 3e 25 7a 40 bd 09 3d 29 bd ea 04 ba bd
       0.43449992 -0.046991486 -0.041317973 -0.090829685
0003e0 6c 41 78 bd 8a e7 38 b8 85 55 02 39 3e dc a9 bd
       -0.060609266 -4.4084656e-05 0.00012429625 -0.08293961
0003f0 76 77 39 be dc ed c4 3d 8c 38 23 3e f4 52 55 b7
       -0.18111977 0.096156806 0.1593954 -1.2715103e-05

autoencoders.1.encoder.cells.0.lstm.bias_ih f4 [32]
000000 00 00 00 00 00 00 00 00 00 00 00 00 00 00 00 00
       0.0 0.0 0.0 0.0
000010 00 00 00 00 00 00 00 00 00 00 00 00 00 00 00 00
       0.0 0.0 0.0 0.0
000020 00 00 00 00 00 00 00 00 00 00 00 00 00 00 00 00
       0.0 0.0 0.0 0.0
000030 00 00 00 00 00 00 00 00 00 00 00 00 00 00 00 00
       0.0 0.0 0.0 0.0
000040 00 00 00 00 00 00 00 00 00 00 00 00 00 00 00 00
       0.0 0.0 0.0 0.0
000050 00 00 00 00 00 00 00 00 00 00 00 00 00 00 00 00
       0.0 0.0 0.0 0.0
000060 00 00 00 00 00 00 00 00 00 00 00 00 00 00 00 00
       0.0 0.0 0.0 0.0
000070 00 00 00 00 00 00 00 00 00 00 00 00 00 00 00 00
       0.0 0.0 0.0 0.0

autoencoders.1.encoder.cells.0.lstm.bias_hh f4 [32]
000000 00 00 00 00 00 00 00 00 00 00 00 00 00 00 00 00
       0.0 0.0 0.0 0.0
000010 00 00 00 00 00 00 00 00 00 00 00 00 00 00 00 00
       0.0 0.0 0.0 0.0
000020 00 00 00 00 00 00 00 00 00 00 00 00 00 00 00 00
       0.0 0.0 0.0 0.0
000030 00 00 00 00 00 00 00 00 00 00 00 00 00 00 00 00
       0.0 0.0 0.0 0.0
000040 00 00 00 00 00 00 00 00 00 00 00 00 00 00 00 00
       0.0 0.0 0.0 0.0
000050 00 00 00 00 00 00 00 00 00 00 00 00 00 00 00 00
       0.0 0.0 0.0 0.0
000060 00 00 00 00 00 00 00 00 00 00 00 00 00 00 00 00
       0.0 0.0 0.0 0.0
000070 00 00 00 00 00 00 00 00 00 00 00 00 00 00 00 00
       0.0 0.0 0.0 0.0

autoencoders.1.decoder.cells.0.weight_h_2 f4 [8, 8]
000000 df 5a fc 3d f7 1c a2 be d7 c3 3a bf 39 d0 f9 3e
       0.1232202 -0.31662723 -0.7295508 0.48791674
000010 f8 40 f0 bd d6 f9 5e bd a4 d6 22 bf 84 c6 ad 3e
       -0.11731142 -0.05443748 -0.63608766 0.33940518
000020 e8 28 21 be ee 04 02 bf 87 60 06 3e b4 09 a5 be
       -0.15738261 -0.5078877 0.1312276 -0.32233965
000030 00 84 aa 3d ef d4 60 3e d1 5a 1e 3f cc 4b fc 3e
       0.08325958 0.21956228 0.61857325 0.49276578
000040 65 2a a2 3e dc 99 35 3e 24 8a c8 bd 34 d2 41 3e
       0.3167297 0.17734474 -0.09791973 0.18927842
000050 ca 95 9d ba fc 1d c5 be 2a 7f b6 3e ff 3d 21 b9
       -0.001202279 -0.3849944 0.35643893 -0.00015377252
000060 54 53 f6 3e 7d 5f 28 3e b1 b0 6a be b1 66 12 be
       0.4811045 0.16442676 -0.22918965 -0.14296986
000070 63 60 9c 3e e0 c6 e0 be 5b 39 90 ba 2c 9b 0f 3f
       0.30542287 -0.4390173 -0.0011003421 0.5609615
000080 ff 5e 01 bf 32 81 ab 3d c2 ea 02 3e 9a a3 cf be
       -0.5053558 0.083742514 0.12784865 -0.40554506
000090 72 43 0d bf 50 a5 e7 bd 2e 78 86 3d 91 14 f0 3d
       -0.5518104 -0.11310828 0.06565891 0.11722673
0000a0 4c 12 b6 bd a7 dd af bd 63 6c be b8 de ff 02 bc
       -0.088902086 -0.08587199 -9.0800946e-05 -0.007995574
0000b0 9d f2 77 be fd 86 78 bd 4a be 95 bd 2b a2 4d 3e
       -0.24213643 -0.06067561 -0.073116854 0.20081393
0000c0 fe 3e fc bd cf 71 90 bc da 75 bb 3d 92 e5 1e 3f
       -0.12316702 -0.017632393 0.09153338 0.62069046
0000d0 a6 10 2d 3e 58 c9 8c ba e6 a8 a0 be b9 4c a1 3e
       0.16900882 -0.0010741157 -0.3137886 0.31503847
0000e0 00 ed 05 3f da 2a 50 bd df f9 09 3d d1 05 48 3f
       0.5231476 -0.050822116 0.03368556 0.78133875
0000f0 f7 80 32 3e bd e4 64 be f1 79 9c 3e 24 51 91 bd
       0.17432009 -0.22352882 0.30561784 -0.070955545

autoencoders.1.decoder.cells.0.bias_h_2 f4 [8]
000000 4f f2 8a 3d 97 ea 21 3d 5d 72 18 bb d6 bf 3a bd
       0.06784498 0.039530363 -0.0023261525 -0.045593105
000010 a3 7e 55 3b 37 b2 28 3d 93 82 5c bd 06 8e 8c 3c
       0.0032576702 0.041185584 -0.053835463 0.017157566

autoencoders.1.decoder.cells.0.lstm.weight_ih f4 [32, 1]
000000 66 a4 a2 3c 8d cf ca 3d 89 85 25 bd 24 81 fa 39
       0.019853782 0.099028684 -0.040410552 0.00047779933
000010 e1 aa 21 3a b8 50 af bd a2 e3 55 be aa 31 05 bd
       0.00061671255 -0.08560318 -0.20887616 -0.032518066
000020 04 83 b2 bd 5e bf ad 3e 90 15 fc 39 11 a8 ca 3b
       -0.087163955 0.33935064 0.0004808125 0.006184586
000030 f6 d8 05 3c d2 c3 bf 3d c3 2c 17 3f d4 62 5b 3e
       0.008169403 0.09363522 0.59052676 0.21424419
000040 83 82 4c 3e 6c 00 a1 3e 4a 1b f0 bd a5 d9 03 be
       0.19971661 0.31445634 -0.11723955 -0.12875994
000050 92 c4 c5 3e 72 75 01 3e a6 1d 41 be 8f e4 3b 3f
       0.38626534 0.12642458 -0.18858966 0.7339563
000060 32 fc f7 bd b2 54 e8 3e a8 bb 7e 38 3d c0 f9 3e
       -0.12108649 0.45377117 6.0733088e-05 0.4877948
000070 65 06 8b 3b c7 f7 0c 3f 4d d9 ed 3e 6c e6 73 be
       0.0042427056 0.5506558 0.4645485 -0.23818368

autoencoders.1.decoder.cells.0.lstm.weight_hh f4 [32, 8]
000000 a4 4e b7 3e 4f f5 6a 3e f3 53 f5 3a 26 e0 b6 3e
       0.35802186 0.2294514 0.0018717035 0.35717887
000010 99 9c cf be 19 a6 0e 3d 07 a2 ec 3e 95 90 a5 3e
       -0.40549162 0.03482637 0.46217367 0.3233687
000020 d1 3b cc 3d d0 c0 f6 3d ea 18 9b 3e d8 09 60 3e
       0.099723466 0.12048495 0.30292445 0.21878755
000030 3e b0 34 3e 54 1e 5c 3d 71 1a 58 be 16 6d 9b 3c
       0.17645356 0.05373986 -0.21103837 0.018972915
000040 30 8e 9d b6 56 a5 62 3e bf af 91 39 24 6a 2a b9
       -4.6955174e-06 0.22133383 0.00027787496 -0.00016252004
000050 52 c7 ad bd 72 60 00 b8 da 37 a4 b8 8f 77 19 39
       -0.08485283 -3.06074e-05 -7.8305326e-05 0.00014635756
000060 a1 91 c3 3e f1 06 56 be 19 8c 09 be e2 49 9e 3e
       0.38197044 -0.20901085 -0.1343235 0.30915743
000070 f9 23 5c 3a d1 0a cb 3d de ba c9 be d1 5f 49 39
       0.00083976943 0.099141724 -0.3940038 0.00019204548
000080 f6 8e b7 bc 78 c9 4f 3d 55 91 8e be 9f 1d 16 3e
       -0.022407036 0.050729245 -0.27845255 0.14659737
000090 9f 7a a7 39 62 e8 28 be 44 62 37 3a 76 69 56 3e
       0.00031944082 -0.16494897 0.0006995539 0.20938668
0000a0 0d 76 2d 3e 50 3e 50 3d cd 6c 3f 3e db 07 bf 3e
       0.16939564 0.050840676 0.18693848 0.3731068
0000b0 b1 b7 7c 3c e0 ed 44 3e 5d ab 4f 3d 5f c4 30 3c
       0.015424655 0.19231367 0.050700534 0.010789006
0000c0 5e b1 7b 3e a4 22 08 3e 2a 79 78 3c 10 d5 75 3e
       0.24579379 0.13294464 0.0151656065 0.24007058
0000d0 33 f5 53 bd aa ef b0 3e 8a 1a 66 3e 2f a8 65 bd
       -0.051747512 0.3455785 0.22471061 -0.056068595
0000e0 36 97 a8 3d 53 18 26 3e e4 d4 99 3c 0d 3a 6c 3c
       0.08231966 0.16220216 0.018778272 0.014418137
0000f0 0a 6c 42 3e 70 97 88 3e 50 04 ab 37 eb 25 9e 3d
       0.18986526 0.26678038 2.0386797e-05 0.07722076
000100 93 92 47 3e ce 03 53 bd 8b 06 02 39 5c 8e 78 bd
       0.19489507 -0.0515173 0.00012400204 -0.06068264
000110 81 8e eb 3d bf 3b 99 3e 57 5a 2b b9 22 9d 2a bd
       0.1150179 0.29928395 -0.00016341485 -0.04165376
000120 5f aa 0c 3f d2 9b 62 3e e0 24 0e 3e 28 de 00 3c
       0.54947466 0.22129753 0.13881254 0.007865466
000130 da 54 32 3e 45 72 f3 3e 43 3f 68 b8 68 37 b7 3e
       0.17415181 0.47548118 -5.5372027e-05 0.3578446
000140 34 1d 73 37 80 2e 09 bd 87 f0 30 3e 95 71 67 3a
       1.4490728e-05 -0.03349161 0.17279254 0.0008828876
000150 f3 e0 c8 38 ca 17 ef bd e2 43 85 b9 2c a2 54 3e
       9.578643e-05 -0.11674459 -0.00025418313 0.20764989
000160 cc 62 1a bf 63 94 4c b7 62 d4 52 3a 37 cc 75 3e
       -0.60307 -1.21938965e-05 0.0008042512 0.24003683
000170 c4 44 c8 bd b4 5e be be 6d d8 2f 39 1b 54 9a 3c
       -0.09778741 -0.37181628 0.00016769925 0.018838933
000180 bb 87 b7 be a6 0a de b6 ed a3 a0 3e 8b 01 4d 39
       -0.35845742 -6.617355e-06 0.31375065 0.00019550898
000190 03 e7 3d b9 10 ab 15 3a 7f 99 6b b9 35 ac ea 3d
       -0.00018110503 0.0005709389 -0.00022468528 0.11458627
0001a0 32 b7 0e 3f f1 19 73 bd 32 ac 7e 39 20 d4 79 3d
       0.55748284 -0.05935091 0.00024287475 0.060993314
0001b0 ba ff 0b 3f 18 3d ae bd 4c 9a c5 bb 99 f6 a8 bd
       0.5468708 -0.085077465 -0.0060303565 -0.0825016
0001c0 e9 d7 e6 3c f5 23 5d be 55 10 de 3c 61 18 39 bd
       0.028179126 -0.21595748 0.027107397 -0.045189265
0001d0 f5 a3 87 3c d9 27 a3 bd 14 a4 39 bd 68 b8 28 3d
       0.016557673 -0.07966585 -0.045322493 0.04119149
0001e0 49 64 a9 3e 36 20 48 3e 2d 3a 26 be 66 af 77 3e
       0.33084324 0.19543537 -0.1623313 0.24188003
0001f0 cb e4 bf 3d 19 1e 1c 3e 31 bb e7 3b dd 6b 5c 3e
       0.09369811 0.15245856 0.0070718755 0.21525522
000200 5b ba d4 3d fd e6 1f 3f 6d bb c6 3e 4b 9f 36 be
       0.10387107 0.62461835 0.3881487 -0.17834203
000210 5f f5 d3 bd c3 62 08 3d 6a aa 24 3d 24 c4 83 bd
       -0.10349535 0.03329731 0.040201582 -0.06433895
000220 ef c8 c1 be ce 82 03 3e df b2 23 be d7 db 55 3e
       -0.37848613 0.12842867 -0.15986203 0.20884643
000230 3d 69 ed bb bc 1b 51 3e b2 6f 39 3e b6 0b 18 3e
       -0.0072452114 0.20420736 0.18109015 0.14848217
000240 44 00 2a 3e 1d 78 7d 3d 9b 9e fb bc b1 4e 8e be
       0.16601664 0.061882127 -0.030715277 -0.27794412
000250 0c 85 fa 38 04 4f cf bd fd 4c 19 3b 0b 24 f9 bc
       0.00011945711 -0.10122493 0.0023391836 -0.030412694
000260 13 a7 7e bd 17 55 b1 3d 8a 47 27 3e 2d 14 ce 3e
       -0.062171053 0.08658808 0.16335884 0.40249768
000270 d5 9f 11 be be 3f 8b 3d df 6a 62 bd b9 76 4e be
       -0.14221127 0.06799267 -0.0552777 -0.20162477
000280 0f f7 e5 3c 5d 1c fe 3d f9 1e 1f bd b4 3d cb bd
       0.028071908 0.124077536 -0.038847897 -0.09923878
000290 8a 6b 07 3f d9 77 85 39 a8 4b 30 3a 2e 3e 26 3c
       0.52898467 0.0002545703 0.0006725141 0.010146661
0002a0 fe f8 8d 3e f7 51 03 3d 13 a6 23 3e c0 9c 4f 3b
       0.27729028 0.03206059 0.15981321 0.0031679124
0002b0 e9 64 25 3d 96 f3 89 bd ef a9 e4 3d da dd 6b 3e
       0.04037944 -0.067359135 0.11165225 0.23033848
0002c0 d1 f4 b1 be a2 82 85 ba 86 27 8c bd 29 4e a1 3d
       -0.34757093 -0.0010186026 -0.06843476 0.07876236
0002d0 ea f5 ba 3c 79 c8 6a be d2 08 de 3d ae 92 8e be
       0.02282234 -0.22928037 0.10841526 -0.27846283
0002e0 16 d8 cf be 1b 77 82 3d 8b 9a d1 be ff 3f 37 bd
       -0.40594548 0.06370374 -0.4093822 -0.044738766
0002f0 4a 56 f1 ba 58 86 53 3e 1e 1f 4e bd be ee 9c 3c
       -0.0018412557 0.20656717 -0.050322644 0.01915681
000300 1d ff 7d 3e 08 3a bd 3e 1e bd bc 38 04 4b c1 3d
       0.24804349 0.36958337 8.9997644e-05 0.09438136
000310 ec 90 54 bc 0f 0b f8 bd 32 87 a1 bd 30 13 02 3f
       -0.012974005 -0.12111484 -0.078871146 0.5081053
000320 17 e9 54 bd ff 52 56 3e 18 83 8a 3e 7c 59 b3 bd
       -0.051980104 0.20930098 0.27053142 -0.08757302
000330 43 d6 06 3d bf 14 72 3e c9 d7 73 3a 12 22 02 3f
       0.03291918 0.23640727 0.0009301869 0.5083324
000340 31 e5 b6 3a d9 61 62 b9 ce 0e c9 38 13 2f cc b7
       0.0013953802 -0.0002158949 9.5871845e-05 -2.4340616e-05
000350 34 16 b2 bd 2f 2b c3 bd 9e 3d df bd 71 04 04 be
       -0.08695641 -0.09529721 -0.109004244 -0.1289232
000360 ce 31 71 39 c9 b3 9f be 06 08 bf ba b2 31 b8 37
       0.00023002105 -0.31191853 -0.0014574535 2.195765e-05
000370 97 50 89 bd 17 56 8d 3e 7b fb a1 3e d0 5e 42 3e
       -0.067048244 0.27604744 0.31637177 0.1898148
000380 16 60 a0 3e 0e a8 ce 3d 61 76 d4 39 52 ad 4b 3c
       0.31323308 0.10090648 0.0004052399 0.0124314595
000390 54 a6 38 3d 86 47 1c bd 47 ad db 3d f6 b4 8f be
       0.045080498 -0.038154148 0.107264094 -0.2806775
0003a0 cd 06 a7 3c 49 f4 ce 3e 5b 45 70 be 2d 9a 95 bd
       0.020388985 0.4042075 -0.23463957 -0.07304797
0003b0 68 6f 9a bc 07 d0 f0 3c 09 89 7c bc 1c 7d 98 3e
       -0.01885195 0.02939607 -0.015413531 0.2978295
0003c0 0c 2f 93 3e 36 5a 88 bd 34 6b 08 3b 49 c3 08 bd
       0.2874683 -0.06657831 0.0020815851 -0.033389363
0003d0 75 55 05 3f 04 3c a2 bd a3 d9 d4 3c eb 8a 29 bd
       0.5208352 -0.07921603 0.025982684 -0.041392248
0003e0 e4 1a 43 3e e1 c8 d4 3e d0 c6 4c 3e 58 91 84 3e
       0.19053227 0.41559508 0.19997716 0.25892138
0003f0 84 14 db bd 8b f4 9d 3e ec 5b d8 bd ef 98 27 be
       -0.106972724 0.30850634 -0.10564408 -0.16366933

autoencoders.1.decoder.cells.0.lstm.bias_ih f4 [32]
000000 79 9a ce 3d 78 f5 bd 3d 8b 66 de 39 43 17 08 3c
       0.10088057 0.09275335 0.0004241954 0.008306327
000010 89 09 b6 38 2f 81 d5 3d d3 1f 95 3d 92 d5 3b 3e
       8.680212e-05 0.104250304 0.072814606 0.1834319
000020 5e cc f9 3d 6e 67 f5 3d a7 58 c8 b7 2e 18 47 3b
       0.12197183 0.11982618 -2.388314e-05 0.0030379402
000030 1e ec ff 38 ca 79 ec 3d 91 7b c0 3d 5f 82 49 3e
       0.00012203328 0.11546667 0.093985684 0.19678639
000040 73 3f 54 3c e9 38 d7 bc 04 ef a2 3b d0 a1 58 bd
       0.012954581 -0.026272254 0.0049723405 -0.05288869
000050 90 b0 1f bb a0 af 02 3d 8c 5d 9a bc 6b f4 1b bd
       -0.0024366714 0.03190577 -0.018843435 -0.038074892
000060 d6 45 02 3e b6 aa 06 3e 15 82 bf 37 18 fe ca 3b
       0.12721953 0.13151059 2.2829548e-05 0.006194841
000070 94 d3 1c 3b 34 2c 34 3d 18 b1 b3 3d 3a b9 45 3e
       0.0023929821 0.043987468 0.08774012 0.1930894

autoencoders.1.decoder.cells.0.lstm.bias_hh f4 [32]
000000 79 9a ce 3d 78 f5 bd 3d 8b 66 de 39 43 17 08 3c
       0.10088057 0.09275335 0.0004241954 0.008306327
000010 89 09 b6 38 2f 81 d5 3d d3 1f 95 3d 92 d5 3b 3e
       8.680212e-05 0.104250304 0.072814606 0.1834319
000020 5e cc f9 3d 6e 67 f5 3d a7 58 c8 b7 2e 18 47 3b
       0.12197183 0.11982618 -2.388314e-05 0.0030379402
000030 1e ec ff 38 ca 79 ec 3d 91 7b c0 3d 5f 82 49 3e
       0.00012203328 0.11546667 0.093985684 0.19678639
000040 73 3f 54 3c e9 38 d7 bc 04 ef a2 3b d0 a1 58 bd
       0.012954581 -0.026272254 0.0049723405 -0.05288869
000050 90 b0 1f bb a0 af 02 3d 8c 5d 9a bc 6b f4 1b bd
       -0.0024366714 0.03190577 -0.018843435 -0.038074892
000060 d6 45 02 3e b6 aa 06 3e 15 82 bf 37 18 fe ca 3b
       0.12721953 0.13151059 2.2829548e-05 0.006194841
000070 94 d3 1c 3b 34 2c 34 3d 18 b1 b3 3d 3a b9 45 3e
       0.0023929821 0.043987468 0.08774012 0.1930894

autoencoders.1.decoder.output_layer.weight f4 [1, 8]
000000 2f 61 8b 3e ef 13 9f 3e 8b c4 90 bd fd da 4d be
       0.27222583 0.31069896 -0.070687376 -0.20103069
000010 a5 35 42 3c 55 89 8e 3e 9e 07 82 be 48 d4 d9 3d
       0.01185361 0.2783915 -0.25396436 0.106361926

autoencoders.2.encoder.cells.0.weight_h_2 f4 [8, 8]
000000 6f 4b a0 be e4 af d5 bd 7c cb 57 ba 84 f2 9d bd
       -0.3130755 -0.10433939 -0.00082319207 -0.07712272
000010 ea df 8c 3e d3 be 91 3e 21 76 94 b8 42 32 43 be
       0.27514583 0.284659 -7.079193e-05 -0.1906214
000020 5c 58 80 b9 b3 b6 da 3e 0c af 21 bb 94 bb 70 be
       -0.00024479895 0.42717513 -0.0024670986 -0.23509055
000030 c1 68 98 b8 06 eb f1 3e 77 86 8c bc fd ce 6b ba
       -7.267437e-05 0.4724962 -0.017153962 -0.0008995382
000040 df 6f cb 38 74 c2 13 3e ea f4 4b 3d 10 b5 13 3e
       9.700632e-05 0.14429647 0.049794115 0.14424539
000050 78 47 94 3a d2 23 07 be 96 1b a7 bd 7a 46 51 39
       0.0011312803 -0.13197258 -0.081595585 0.00019958048
000060 58 72 47 bf 10 9f e0 be 32 a0 dc 38 cd 44 94 bf
       -0.7790885 -0.43871355 0.00010520256 -1.1583496
000070 6a 35 c3 3a b1 56 4a 3a c8 42 0a ba 07 67 78 b8
       0.0014893238 0.00077186065 -0.00052742334 -5.922376e-05
000080 47 30 51 ba b2 e8 5f 3e 4c a3 d2 bd 8c a8 72 3d
       -0.0007979911 0.2186611 -0.10285053 0.05924277
000090 40 53 d0 39 c6 94 8a 38 fc 0a 39 3e 8f 54 42 38
       0.00039734878 6.608064e-05 0.18070596 4.6331956e-05
0000a0 c8 6a 61 be 53 95 51 b9 8a 1c a4 be cb 5b 00 3b
       -0.2201339 -0.00019987421 -0.32053024 0.0019585963
0000b0 e5 23 c7 bc df 70 ae be 76 c7 82 bd 60 ab cd 3d
       -0.024309108 -0.3407049 -0.063857004 0.10042453
0000c0 37 18 c1 39 af fa b7 37 e0 e9 14 be c5 f2 db 3e
       0.0003682987 2.1932034e-05 -0.14542341 0.42958656
0000d0 80 be c8 3e 4c 4e ac be 0d 71 83 3e 2e 2a d4 b7
       0.3920784 -0.33653486 0.25672188 -2.529201e-05
0000e0 6e bf 8a ba f4 df 2d bf 0c 04 88 be bf 43 8a 3c
       -0.0010585615 -0.6791985 -0.26565588 0.016878007
0000f0 65 5b 1e bf 25 e3 4f ba 0b 10 b5 3e 68 ce ce bd
       -0.61858207 -0.00079302705 0.35363802 -0.100979626

autoencoders.2.encoder.cells.0.bias_h_2 f4 [8]
000000 00 00 00 00 00 00 00 00 00 00 00 00 00 00 00 00
       0.0 0.0 0.0 0.0
000010 00 00 00 00 00 00 00 00 00 00 00 00 00 00 00 00
       0.0 0.0 0.0 0.0

autoencoders.2.encoder.cells.0.lstm.weight_ih f4 [32, 1]
000000 cd 24 e2 be 16 fa 2b 3e 7e 47 80 be 16 75 dc b9
       -0.44168702 0.16794619 -0.25054544 -0.00042048906
000010 52 d7 4e 3d 06 bf 9a 3d 70 cf a1 bd 05 f9 cc b8
       0.050498314 0.07555966 -0.07900894 -9.7738615e-05
000020 f5 9c 9c 38 20 c8 31 3e 48 44 4e be 68 b7 79 bd
       7.467895e-05 0.17361498 -0.20143235 -0.060965925
000030 a4 1e f2 39 90 f2 f1 3c ae be 59 39 c1 27 4a bb
       0.00046180666 0.029534608 0.00020765766 -0.003084645
000040 30 3d 7d bd cb f9 0a b9 10 85 4e 3e 65 20 c8 38
       -0.06182593 -0.0001325376 0.20167947 9.542777e-05
000050 b6 de 30 be ba 42 ae bd 9b bb 34 b9 95 2a 00 39
       -0.17272457 -0.08508821 -0.00017236026 0.00012222894
000060 98 5b 95 3c 8e f8 34 be 38 5b d0 bd fe 5a 9c 39
       0.018232152 -0.17672941 -0.101736486 0.00029822433
000070 ed 35 ea b9 fb 02 e4 3e 70 7e eb 3d 58 1f 48 3c
       -0.00044672136 0.44533524 0.114987254 0.012214504
