Base_Model/ensemble_autoencoder_weights.pth (torch, 183634 bytes, 250 tensors)

autoencoders.0.encoder.cells.0.weight_h_2 f4 [8, 8]
00000000: b47f a7bd 2b94 c1bd da86 95bd 8b7a e7bc
00000010: 00a8 753e 4687 da3d b233 883d c49f 303e
00000020: b733 9f3d ea6a a33b 91d6 763d be2b 1f3e
00000030: a84b 54bd 25f8 843e efb1 0a3e 3308 ccbd
00000040: be11 b7bc 0a19 e63d 962d c4bb 48e4 253d
00000050: 3fd2 bc3d 7856 103e e2a1 ef3c a4cc 4c3d
00000060: fa4b 3a3c 07e6 d2bc 1d75 34be c8a7 4a3d
00000070: 4902 b4bd ac4b a6bd 3c25 f73c 97af 56bd
00000080: 4f3e d73d 737b b73d 01b7 20bc ae27 3c3d
00000090: 2e98 733d b8ba 3c3d 0b93 d63d 3753 8a3d
000000a0: 2a4f 2c3d 283b f5bb d774 d2bd 9a78 903d
000000b0: 5394 443d 4533 233d b969 563d 3e9d a13d
000000c0: c8f5 983d 311b 5d3c 89b7 053e dd59 6b3d
000000d0: e12b c0bd 6466 1f3d 8f63 dabd 6f23 43be
000000e0: eab6 9dbd d6cb 333e 2377 89be d045 eb3d
000000f0: f0a6 a23d bb48 b43d 1551 cb3d e83f 82be
-0.08178654 -0.09452089 -0.073011115 -0.028256675 0.23989868 0.106703326 0.06650485 0.17248446
0.07773536 0.0049871104 0.06026322 0.1554403 -0.051829964 0.2597057 0.13544439 -0.099625014
-0.022347327 0.112352446 -0.0059868796 0.04050091 0.09219789 0.14095485 0.029251996 0.049999848
0.011370653 -0.025744451 -0.176228 0.049476415 -0.08789498 -0.08119902 0.030169122 -0.05241355
0.10509931 0.08959093 -0.0098092565 0.04593628 0.0594713 0.046076506 0.10477265 0.06754153
0.042067684 -0.0074838586 -0.10276192 0.07054253 0.047993015 0.039843816 0.05234692 0.0789132
0.07468754 0.0134952525 0.13058294 0.057458747 -0.09383369 0.038916007 -0.106635205 -0.19056486
-0.07700904 0.17558226 -0.26848707 0.11487925 0.07941997 0.08802935 0.099275745 -0.25439382

autoencoders.0.encoder.cells.0.bias_h_2 f4 [8]
00000000: 0000 0000 0000 0000 0000 0000 0000 0000
00000010: 0000 0000 0000 0000 0000 0000 0000 0000
0.0 0.0 0.0 0.0 0.0 0.0 0.0 0.0

autoencoders.0.encoder.cells.0.lstm.weight_ih f4 [32, 1]
00000000: e25c 97be 8059 cdbb d80b 8cbd a034 a5bd
00000010: ad0d 8a3e f5f8 893e 5a5f 223e 00c1 173b
00000020: 9e3a 6b3e a74a 2bbe a0ac 08be 8443 893d
00000030: ff7d 8dbe dcab af3d 862e 2a3e e355 b13e
00000040: c3c9 963e 6cfe fdbd 3b7f 863e e345 8c3e
00000050: 351a 923e dd7b 4abe f069 91bd 0861 41be
00000060: e1b3 9f3e c350 973e a911 8f3e 7800 3fbd
00000070: 22c4 7bbe d4ae 05be 5ceb b1bd 24e5 a83d
-0.2956305 -0.0062667727 -0.068381965 -0.08066678 0.2696356 0.26947752 0.15856686 0.0023155808
0.2297158 -0.16727696 -0.13347101 0.06702331 -0.2763519 0.085777014 0.1661931 0.3463584
0.29450807 -0.12402043 0.26268944 0.2739707 0.2853562 -0.19773813 -0.07100284 -0.1888467
0.31191924 0.29553804 0.2794316 -0.046631306 -0.24586537 -0.13054973 -0.08687469 0.0824683

autoencoders.0.encoder.cells.0.lstm.weight_hh f4 [32, 8]
00000000: d09b cd3c 85f1 b33e f80b b1bd 0369 a43e
00000010: ba9f 6d3e bc51 d33d 7890 1d3d c4e2 bbbd
00000020: 05d3 9bbe a8b0 a3bd fa08 263e f13f 933e
00000030: fce0 b2be 72ec abbe 380b 12bd 3987 4ebe
00000040: e0a9 9abd a02d 193c dfa4 b43e a037 7dbe
00000050: 183f 03be df3a 923e 9a19 583e 42e4 7f3e
00000060: 2684 9ebe 6402 dd3d bbda b43e 40be f83c
00000070: ca4a 0d3e d4a9 91be c1a4 05be 3e10 6ebe
00000080: 7a1b 2a3e 9fb7 9e3e 3ae8 0d3e 1da0 97be
00000090: 7000 d8bd dc2f 803d 6c23 86bd 183f 2bbe
000000a0: 59be 6fbe b7f3 a5be fa4f debd 25bd a93e
000000b0: 12b9 92be 05df 34be f8b7 10bd a9ff 2bbe
000000c0: 3e3f 303e c85f 98be a6e9 003e e3d6 873e
000000d0: bfaf 8d3e 3e6a a2be 9cf9 e03d 69a4 b33e
000000e0: f902 8e3e 4990 8b3e b22f a0be a630 94be
000000f0: 0646 633e df79 aa3e 81bb b43e cabb 5d3e
00000100: 7b18 8d3e c9b1 8c3e ca24 213e ce31 323e
00000110: 808b 353b 8f91 60be 68aa 79bd 1890 1ebd
00000120: ca61 3a3e a2d1 2a3e 097d 8abe 4ab2 b2be
00000130: e436 99be 58b8 a73d efce 8f3e 3c98 9abd
00000140: f858 0ebe 02af 4d3e b2f5 93be 2030 14be
00000150: bc36 dbbd 0892 d43d f4e3 f73d 3327 a5be
00000160: 7645 6cbe 16bc 5b3e d92e af3e a6e9 2d3e
00000170: e3ea 983e e419 3fbe 9e89 66be b58a ab3e
00000180: 7661 753e bdb4 833e ffe0 0ebe 2c08 0e3e
00000190: ba78 b4be 4330 28be 4017 b73d 495b 863e
000001a0: e2ca 1abe 88c6 063e f540 ad3e 5178 7fbe
000001b0: fcec d93d 6a19 4d3e e0a8 6abe 42a1 633e
000001c0: 6598 abbe 635f a6be 081c 503d d531 34be
000001d0: fa49 97be 242e 82bd d32d 0abe 848e febd
000001e0: 039c b23e 1351 0bbe 0752 49be f2b8 0e3e
000001f0: 704c 94bd 6ed7 7dbe 3818 50bd 4896 6b3d
00000200: 488b b3bd b37a af3e e6a9 103e 01ca 1fbe
00000210: 80f6 e03c b2de 3c3e bc5e e3bd fd4a abbe
00000220: 14b4 dc3d 186a ebbd d7b7 8d3e 907c b93d
00000230: 982d a4bd b3e4 963e aa20 313e 928b 7e3e
00000240: a4a9 f93d d824 d53d 4430 d13d 4eef 36be
00000250: c491 9a3d b19b 90be 3d54 98be bc38 7cbe
00000260: 5f32 8c3e 57e5 9a3e 9277 debd 27b3 8b3e
00000270: 85c8 a93e 1f2f b23e dc43 8fbe f8d0 b1bd
00000280: 1894 df3d 7eaf 663e 124d 793e 22ed 123e
00000290: dbac a5be 486a 783d 6b8e 86be 6085 ef3d
000002a0: 50c6 8d3c 9284 603e c092 64bd a074 953d
000002b0: 8d08 9f3e ce0d 613e 4836 b4be 039b 69be
000002c0: 0acf 283e 7a14 87be b543 28be 359d a03e
000002d0: 9e83 97be d0e7 8f3c addb 6abe a860 25bd
000002e0: f17d 913e b14e 99be 9ce2 c5bd 6c4c c53d
000002f0: 046f 6abe daaf 793e 60c9 4dbe f26e 4d3e
00000300: dc74 97be 612b 813e 7eb5 663e 20ed 173d
00000310: 8808 9abd 2030 f23c f97f aebe c958 20be
00000320: 8c95 93be 1bd7 41be 2491 a7be cb08 a03e
00000330: f0c9 b13d d4e9 f0bd 989f 82be e83d d4bd
00000340: c0d2 89bb 6920 0abe 6edb 173e 44ce 52be
00000350: 3854 42bd 13a3 833e 34f2 2bbe c092 973c
00000360: 4e42 febd 89a9 aa3e 3e2b 5bbe 0f1c 03be
00000370: 43fd a93e 29d4 ab3e e86f 6f3d 28de 623d
00000380: 5cc5 aebd ea0a 5dbe aec5 d7bd 9fc9 68be
00000390: 0d46 0abe 3255 5e3e 0045 9dbd 990d 8d3e
000003a0: 42ba 303e 78cf 603d 3c83 8dbe f541 a43e
000003b0: 4328 a6be 5a60 433e 60cb 45bd 6a40 1d3e
000003c0: 16ab b0be 488d 25bd 0efa 493e 1027 983c
000003d0: 0230 6e3e 9030 35bd 0870 7e3d 25fa aa3e
000003e0: 9460 84bd e0e4 e4bd 90f5 ec3d 512c a53e
000003f0: a425 98be 6edc 613e 8316 903e 58d3 a5be
0.025098711 0.35145202 -0.08644861 0.32111368 0.23205462 0.10318324 0.038467854 -0.091741115
-0.30434433 -0.07992679 0.16214362 0.2875972 -0.34937274 -0.3357883 -0.03565523 -0.20168771
-0.07551932 0.009349257 0.35282037 -0.2472825 -0.12817037 0.2856054 0.21103516 0.24989417
-0.30960196 0.107914716 0.35323128 0.030364156 0.13798061 -0.2844988 -0.1305113 -0.23248383
0.16612044 0.30999467 0.13858119 -0.29614344 -0.105469584 0.062591285 -0.06549725 -0.16723287
-0.23412456 -0.32412502 -0.10855098 0.33152118 -0.28656822 -0.176632 -0.035331696 -0.16796745
0.17211625 -0.29760575 0.1258913 0.26531133 0.27673146 -0.3172168 0.10985109 0.35086372
0.27736643 0.27258518 -0.3128639 -0.28943366 0.2219468 0.33296105 0.35299304 0.21653667
0.2755774 0.2747939 0.1573669 0.17401811 0.0027701557 -0.21930526 -0.060953528 -0.038711637
0.18201366 0.16681531 -0.2704852 -0.3490165 -0.2992469 0.08189458 0.28087565 -0.07548568
-0.13901126 0.20086291 -0.28898388 -0.14471483 -0.10703799 0.10379416 0.121040255 -0.3225647
-0.23073372 0.21458468 0.3421543 0.16983661 0.29866704 -0.1866222 -0.22513434 0.33504263
0.2396296 0.2572383 -0.13953017 0.13870305 -0.35248357 -0.1642466 0.089399815 0.2624152
-0.15116456 0.13161671 0.3383862 -0.24948241 0.10640904 0.20029226 -0.22915983 0.22229484
-0.33514705 -0.3249465 0.050807983 -0.17597134 -0.29548627 -0.06356457 -0.13494043 -0.124295264
0.34884652 -0.13605146 -0.19660197 0.13937739 -0.07241142 -0.24789211 -0.050804347 0.057516366
-0.087668 0.342733 0.14127311 -0.15604402 0.02746129 0.18444327 -0.111020535 -0.3345565
0.10776535 -0.11494845 0.2767932 0.090569615 -0.08016509 0.2947136 0.17297617 0.2485793
0.121905595 0.10407418 0.10214284 -0.17864725 0.07547334 -0.28243783 -0.2975177 -0.24631017
0.2738218 0.30253097 -0.1086265 0.2728512 0.33160797 0.34801576 -0.2798146 -0.08682436
0.109169185 0.22527882 0.24345806 0.14348271 -0.3235844 0.060648233 -0.2628053 0.11695361
0.017306477 0.21925572 -0.055804014 0.07297635 0.3106121 0.21977922 -0.35197663 -0.22813039
0.16485229 -0.2638281 -0.16432078 0.3136994 -0.29592603 0.017566592 -0.22935362 -0.04037538
0.28416398 -0.2994285 -0.09662363 0.09633717 -0.22893912 0.24383488 -0.2009635 0.20061854
-0.29581344 0.25228408 0.22530171 0.037091374 -0.075211585 0.029563963 -0.3408201 -0.15658869
-0.28825033 -0.18929712 -0.3272792 0.31256709 0.08681095 -0.11763349 -0.25512385 -0.1036337
-0.0042060316 -0.13488926 0.148298 -0.20586497 -0.0474436 0.25710353 -0.16791612 0.018502593
-0.1241499 0.3333247 -0.21403214 -0.12803672 0.33201036 0.33560303 0.05845633 0.055387646
-0.08533737 -0.21586195 -0.10535751 -0.22733162 -0.13503285 0.21712187 -0.07679176 0.27549437
0.17258552 0.054885358 -0.27639186 0.3208157 -0.32452592 0.19079724 -0.048289657 0.15356603
-0.34505528 -0.04041794 0.19724295 0.018573314 0.23260501 -0.044235766 0.06211856 0.3339397
-0.06463733 -0.11176467 0.11570275 0.32260373 -0.29716218 0.22056744 0.28142175 -0.32387805

autoencoders.0.encoder.cells.0.lstm.bias_ih f4 [32]
00000000: 868b 1a3e 2846 21bd a04f 8ebc 75dd 9f3e
00000010: 43ef b2be de84 553e 45fc 873e 55f3 9b3e
00000020: 420d ecbd 8eff 6bbe 8e1b 033e 0fbb aa3e
00000030: edbb b03e fe85 03be 74b7 69be e092 d43d
00000040: 3c3c 7dbe 302c 69be fc03 b73d 4c43 35be
00000050: 8664 513e b0ec 4cbd 8070 89bb 4450 2dbe
00000060: 53e8 883e c5e6 9f3e 9f55 36be 81c3 ae3e
00000070: c419 9dbe cacd 1ebe 71a9 913e 0f25 a03e
0.15092286 -0.039373547 -0.017371953 0.31223646 -0.34948167 0.20851466 0.26559654 0.30459085
-0.11525966 -0.23046705 0.1280348 0.3334584 0.34518376 -0.12844083 -0.22823888 0.10379577
-0.24730009 -0.22770762 0.08936307 -0.17701453 0.20448503 -0.05003041 -0.0041943192 -0.1692515
0.2673975 0.3123075 -0.178061 0.34133533 -0.3068372 -0.1550819 0.28449586 0.31278273

autoencoders.0.encoder.cells.0.lstm.bias_hh f4 [32]
00000000: 38c8 99be 8b86 47be 56cd 8dbe 63e6 b43e
00000010: 5635 e0bd 4655 793e 46e0 363e ec58 bdbd
00000020: cee3 673e f29f 75be 16d2 053e ee7d 5fbe
00000030: 0879 9ebe 30b4 95be 001f 7e3b 50de ae3d
00000040: 6e96 5d3e bd53 13be 1275 6cbe 989d 25bd
00000050: 7e3c 793e 919b 8abe 9192 40be a05d 783d
00000060: eb66 a13e 2328 ab3e d68c 533e a81c aabe
00000070: 8915 99be 1814 03be bac5 3bbe b5f1 6cbe
-0.30035567 -0.19484918 -0.2769572 0.3533202 -0.10947673 0.24348935 0.17858991 -0.09245476
0.22645494 -0.23986796 0.13068423 -0.21825382 -0.30951715 -0.29239035 0.0038775802 0.085384965
0.21639416 -0.14387412 -0.23091534 -0.040433496 0.24339482 -0.27071813 -0.1880591 0.060636163
0.31523833 0.3342906 0.20659193 -0.33224988 -0.29899243 -0.12800634 -0.18337145 -0.23139079

autoencoders.0.encoder.cells.1.weight_h_2 f4 [8, 8]
00000000: 5363 1abe 9d42 44be 44c1 16be a39f 3fbd
00000010: f8d3 2c3e 9bad a23d 177d c1bc b0db c73d
00000020: 9abc 8d3c bedc d7bd 2f54 883d 5176 01bc
00000030: 473d a43a f261 f0bd 02eb c63d 6075 ef3c
00000040: 10c3 f0bc 3098 b33d 03ba bbbd a563 afbd
00000050: 69dd 873b 08c1 8c3d 1887 043e 5b2e c43d
00000060: 5750 92bc aa01 26bc 7221 20bd 2b62 a8ba
00000070: 23ef 153d 9605 35bd 2a53 24bd 2974 713d
00000080: 86c1 fe3c e77f 383e 07fc edbd 305e 13bc
00000090: c816 84bd bf75 ba3c 00d9 a23e 12dd 133d
000000a0: f0f4 05bd db5b 4cbd cea6 6fbd 2689 2c3c
000000b0: ef66 38bd 89c5 a2bd fb40 11bc 364e 98bd
000000c0: 0299 a5bd 3cc8 533e 19f4 aebc 47c9 debd
000000d0: 6af3 0f3d 86f2 8f3d d52b d9bc 1f31 98bc
000000e0: f9bb 66bc f612 1d3d 7594 a0bd 67f8 7ebd
000000f0: c5d2 44bd 5621 46bc 45de 8d3d d5e0 603d
-0.15076952 -0.19166036 -0.14722162 -0.0467831 0.16877735 0.07943269 -0.023619218 0.09758699
0.017301846 -0.1054015 0.06656682 -0.007901744 0.0012530469 -0.117374316 0.09712793 0.029230773
-0.029389888 0.08769262 -0.09166338 -0.085639276 0.004146267 0.06872755 0.12942159 0.09579154
-0.017860575 -0.010132233 -0.039094396 -0.0012846639 0.03660501 -0.04419478 -0.040118374 0.05894867
0.031098139 0.18017541 -0.11620336 -0.008994624 -0.06449658 0.022761224 0.31806183 0.0360995
-0.032704294 -0.049892288 -0.058508687 0.010530746 -0.04502004 -0.07947833 -0.00886559 -0.074367926
-0.080858245 0.20681852 -0.02135663 -0.10878234 0.035144247 0.070286795 -0.026510159 -0.01857811
-0.014082902 0.03834816 -0.07840816 -0.062248614 -0.048052568 -0.012092909 0.0692716 0.054901917

autoencoders.0.encoder.cells.1.bias_h_2 f4 [8]
00000000: 0000 0000 0000 0000 0000 0000 0000 0000
00000010: 0000 0000 0000 0000 0000 0000 0000 0000
0.0 0.0 0.0 0.0 0.0 0.0 0.0 0.0

autoencoders.0.encoder.cells.1.lstm.weight_ih f4 [32, 8]
00000000: af01 5ebe 988a 213d da4e 263e 4215 63be
00000010: dcaf e53d 4c58 ed3d f472 b33d 3ced 95be
00000020: 91c6 aebe c643 443e 040d b63d c668 2e3e
00000030: 3cf6 6cbe 9a56 13be d882 9bbe ac01 9fbe
00000040: d0a2 babd 00f2 57bd 7265 5a3e 1728 8d3e
00000050: 1c94 ee3d 45b4 9b3e 8cc3 b7bd 70ee 2ebd
00000060: b046 b53d d413 8fbd 1b8d b23e 4e22 9fbe
00000070: 40aa 283d d43b 9ebd b579 27be 3d37 75be
00000080: a81e 7d3d e661 453e fbab afbe 9730 8f3e
00000090: 4fed a43e a647 8bbe 60cb ddbc a2b4 b1be
000000a0: 46cf b0be 304b 353d 04ce 10be 1bcd 3dbe
000000b0: e88e b9bd f580 853e eae6 9ebe 85bc b2be
000000c0: 4fab 39be a0e5 6c3d 4d46 893e 20e2 0bbc
000000d0: 3438 76be e0c2 efbc 68e5 e93d 0c5b abbd
000000e0: 5491 86bd 8099 dc3b fa2b 753e 29d6 a9be
000000f0: 6d26 2fbe 2c41 aabd 88ef 52bd eeb3 b4be
00000100: 2e01 5e3e 80c1 b13d 256d 18be 731d 73be
00000110: 44aa ab3d 0c90 f93d 6601 7d3e 55fd a83e
00000120: 1adf eabd 243f 77be 88f3 9fbd 082c 89be
00000130: e9b3 a53e 6786 25be 712c a03e d2d3 a7be
00000140: 40a7 bfbd ca2d 3e3e 17fc 923e c9d3 16be
00000150: 11bc 2fbe 0f3a 8ebe ebc9 9a3e 802a d1bd
00000160: 2c3c bdbd f98a 873e 54a3 013e 803f e13c
00000170: b923 913e d8f8 d9bd ec9b 823d 5184 913e
00000180: 01bf b03e 9fb6 853e 0921 953e a0de 893c
00000190: 6b8d 29be 6ca8 103e a690 3e3e 88af 34be
000001a0: f4c4 b63d a442 8d3d c642 8cbe c492 a1bd
000001b0: 7edf 76be 5e78 633e e4e3 d93d 38c9 473d
000001c0: 1a22 3d3e 848d d63d a253 a9be 80d5 1fbb
000001d0: 16c9 04be 9579 a93e c008 84bb 94db a1be
000001e0: 5041 97be f161 18be ff55 b2be 5736 83be
000001f0: ccb0 ae3d 7c80 92be de08 68be e0a2 c33c
00000200: 4aa3 1dbe 0ef6 373e 5019 12bd 0658 723e
00000210: a846 c23d 52cb d5bd 8eaf 90be deed 333e
00000220: 2528 49be d337 94be f817 313d 5f66 853e
00000230: 03da 9d3e 4e57 f0bd 805d c8bb 0f41 873e
00000240: 8f8d ad3e 94d2 9dbd 4e39 353e bdf3 893e
00000250: 9020 2abd e657 393e 81b5 a53e 5ed4 5abe
00000260: a21e 4f3e ff32 68be dc02 3cbe 261a 4e3e
00000270: 5163 2cbe 07dd 983e 8689 223e b06b b33c
00000280: 20eb e1bc 800f 68bb 076b 803e b87e d83d
00000290: 2c38 aabe c2cd 793e 8493 66be 6694 38be
000002a0: c865 a53d 8005 e33b b423 34be 750c 1bbe
000002b0: 5a4b 503e f42f 87be c053 f53d 70c1 9ebe
000002c0: ce6a 7d3e 24ca 84be a090 8b3d 1acf 323e
000002d0: 55b4 ad3e 7b2b a13e 6565 a33e f480 fdbd
000002e0: 5193 903e e2ee 7c3e a016 303d 4e53 5bbe
000002f0: 4659 6dbe 5a6b 1f3e d054 2ebd 70df 74be
00000300: 405d ae3c 8074 b2bb a06f e5bd 506f 953d
00000310: ae5e 30be 0048 e039 d8da 77bd 41f4 ab3e
00000320: 3a49 693e f35e 983e 1432 e63d 407e 22bc
00000330: ddfa a63e 228a 80be 582e 073d 337e a23e
00000340: e4b7 c33d 7adf 3c3e d8d0 99be 80ac b4bb
00000350: 0636 433e 8c0b fb3d 8251 06be 4018 c33c
00000360: f020 dc3c 164e 95be 971b 50be 265b 343e
00000370: ea14 b1be adf0 a6be 03df 4dbe d6ce 0c3e
00000380: 1f13 ad3e a0cc f83c 78e9 a3bd 8eb3 343e
00000390: 8817 6bbd 9d61 823e c41d ecbd bacf 5e3e
000003a0: 4ace 733e 7e1c 423e 6260 55be de61 423e
000003b0: fe30 1a3e 30b3 65bd 7432 30be 20e7 bbbd
000003c0: c6dd 6cbe f0f3 2dbd 16b3 7d3e 821b 86be
000003d0: 8421 b33d 002f 2b3d 2082 22bc 701c 7abd
000003e0: 7e6e f3bd c9f9 48be 8c90 90be ed51 91be
000003f0: d20a 4c3e 7a8c 363e 1fd6 893e 7553 b33e
-0.2168033 0.039438814 0.16241017 -0.22176078 0.11215183 0.11589107 0.0876216 -0.29282558
-0.3413587 0.19166479 0.08889201 0.17032155 -0.23140806 -0.14388505 -0.30373263 -0.31055963
-0.09113085 -0.052721024 0.21327761 0.2756965 0.11649343 0.30410972 -0.089728445 -0.04270786
0.08851373 -0.06986204 0.3487328 -0.3108086 0.041177988 -0.07726255 -0.16355021 -0.23946853
0.061796814 0.19275627 -0.34310898 0.2796676 0.32212302 -0.272031 -0.027074516 -0.34708124
-0.34533137 0.044261158 -0.14141089 -0.18535273 -0.0906046 0.2607495 -0.31035548 -0.34909454
-0.18131755 0.057836175 0.26811448 -0.008537799 -0.24044877 -0.029267728 0.11420709 -0.08366975
-0.06570688 0.006732166 0.23942557 -0.33171204 -0.17104502 -0.08313212 -0.051497966 -0.35293525
0.21680138 0.08679485 -0.14885385 -0.23741703 0.08382085 0.12185678 0.24707565 0.33005777
-0.114683345 -0.2414518 -0.07810122 -0.26791406 0.32363823 -0.16164552 0.31283906 -0.32778794
-0.09358072 0.18572155 0.28707954 -0.14729227 -0.17161585 -0.2777867 0.30232176 -0.10213184
-0.092399925 0.26473215 0.12659961 0.0274961 0.28347567 -0.10643166 0.06377396 0.28421262
0.34520724 0.2611589 0.29126766 0.016829789 -0.16557853 0.14126748 0.18609866 -0.17645085
0.089242846 0.06897476 -0.27394694 -0.078893214 -0.24108693 0.22213885 0.1063917 0.04877588
0.1847004 0.10476211 -0.3307162 -0.002438873 -0.12967333 0.33100572 -0.0040293634 -0.31612837
-0.29542017 -0.14881112 -0.34831235 -0.25627396 0.08529815 -0.2861365 -0.22659633 0.023881376
-0.15394321 0.17964956 -0.03566867 0.23666391 0.09486133 -0.10439171 -0.28258938 0.17571208
-0.1964422 -0.2894884 0.04323575 0.26054665 0.30830392 -0.11735402 -0.0061146617 0.26416823
0.33897063 -0.0770618 0.17697641 0.2694377 -0.04153496 0.18099937 0.3236504 -0.21370074
0.20226529 -0.22675703 -0.18360466 0.20127162 -0.16834761 0.2985613 0.15872774 0.021901935
-0.027577937 -0.003540963 0.25081655 0.10571045 -0.3324598 0.24394897 -0.2251721 -0.1802536
0.08076054 0.006928146 -0.17591745 -0.1514147 0.20341244 -0.26403773 0.11978865 -0.31006956
0.24747774 -0.2593547 0.068146944 0.17461815 0.33926645 0.31478485 0.31913295 -0.123781115
0.28237393 0.24700502 0.042990327 -0.21418497 -0.23178586 0.15568295 -0.042561352 -0.2391336
0.0212847 -0.005446017 -0.112029314 0.07296622 -0.17223617 0.00042778254 -0.06051144 0.33584788
0.2278184 0.2975994 0.112400204 -0.009917796 0.32613268 -0.25105387 0.03300318 0.31736907
0.09556559 0.18444625 -0.30042148 -0.0055137277 0.19063577 0.12258062 -0.1311703 0.023815274
0.026871175 -0.29161137 -0.20323025 0.17612895 -0.3458627 -0.32605496 -0.20104603 0.13750777
0.3380365 0.03037101 -0.08003515 0.1764662 -0.057395488 0.25465098 -0.11529115 0.21758929
0.23809162 0.18956181 -0.20837548 0.18982646 0.15057752 -0.05607909 -0.17206746 -0.09174943
-0.23131475 -0.042468965 0.24775347 -0.26192862 0.08746627 0.04179287 -0.0099187195 -0.061062276
-0.11886309 -0.19626535 -0.2823528 -0.28382817 0.19926003 0.17827025 0.26921174 0.3502461

autoencoders.0.encoder.cells.1.lstm.weight_hh f4 [32, 8]
00000000: f765 933e ac45 2fbe cd32 a93e d89b af3d
00000010: 6a74 743e e906 87be 7060 8b3d a088 553c
00000020: 29b9 9cbe 3cbf d63d 9fb7 9ebe 8c26 35be
00000030: 07bb 963e c881 7cbe bd8c af3e 8eda 523e
00000040: ee7d b4be 40f5 78bd 753d a1be 2a84 633e
00000050: 2907 8a3e f6aa 393e 6093 813d 0000 abbd
00000060: ee72 f7bd 63ab 84be 8149 a43e 7ac9 0b3e
00000070: 64b4 6ebe 93d6 803e 3b75 4dbe c0a5 87bd
00000080: 6d1c 07be a07e bcbc 6e6a 093e 0a63 173e
00000090: 1310 a0be 6446 af3d 0086 4fbd 8e45 02be
000000a0: d2c6 9bbe 7070 2ebd 3439 babd 5019 073d
000000b0: f443 9bbd ff4f 9d3e 154d 85be 32db 2d3e
000000c0: c25d 82be 8967 963e f852 983d 2082 2fbc
000000d0: 45f0 88be 2054 edbc a088 633c 2c9b 34be
000000e0: c066 49bc e6b8 583e 9966 8e3e 1837 763d
000000f0: c45d eabd c84a 233d a4a3 fb3d d3aa 9abe
00000100: e9d1 70be f4b9 8e3d 0b5d ac3e ac86 95be
00000110: e861 01bd b458 a7be e1b7 42be d707 68be
00000120: 18d8 27bd 1827 a1be 3092 283d f0e0 ccbc
00000130: 431e a93e ecdb a4be f8a1 2b3d 462a 80be
00000140: 22db 97be b5f1 1abe 7bfb 73be 5e3e 293e
00000150: 3d29 9ebe 64fe 7fbe 9340 b33e 00b5 493d
00000160: 1453 06be c0d7 373d 6bef 9d3e d6cc 0ebe
00000170: 204e 003e 908c c7bc 4a3f 753e 8f62 21be
00000180: 9aea 8fbe e7e8 aebe f40f 9ebe 6833 16be
00000190: 7250 393e c54b 873e 5fd4 b23e de5f 513e
000001a0: 5041 d8bc 7413 9bbe 6697 013e 6542 ad3e
000001b0: da60 503e 0d5e 3ebe 697f 9c3e 95dc a0be
000001c0: 3064 883d 72cb 4a3e 2669 78be c411 ec3d
000001d0: 206a 1cbd a102 953e 903a 963d 7ec6 3b3e
000001e0: 14c1 a6bd ee96 093e c9b9 86be 843c ba3d
000001f0: cd87 3fbe 3ea0 663e 83e3 843e 846c 10be
00000200: 1026 99bd fc13 86be f2b5 2b3e 00df b0be
00000210: c799 abbe 60fd 553c 84fd f23d f347 98be
00000220: b096 213d 308a d33d a209 2c3e 50c8 1bbe
00000230: 952c 863e 7ae8 89be 3246 4a3e 0976 883e
00000240: 08e2 01bd 607f df3d 4096 78bc 8c44 d73d
00000250: 9853 5b3d 4b1f 52be 6e09 71be b04b 94bc
00000260: 82d6 3bbe 03c6 953e a49c d43d b714 8e3e
00000270: 4c91 95be f36e 933e 708a babd 1bc2 a43e
00000280: 7c5f f03d ba01 443e a8f1 0d3d f079 00bd
00000290: 396f a53e a09c 64bc b3cb a23e d088 bd3d
000002a0: 7348 23be 3492 bc3d 79cc 843e 5a57 293e
000002b0: 5014 36bd 5877 60bd e754 813e f04b d63c
000002c0: fa93 e0bd 80b9 29bb 76cf 78be 88c2 11be
000002d0: b956 87be c49f 863d 05dd 923e 8177 34be
000002e0: bbfd 8a3e 7f81 aabe ca38 383e c058 62bd
000002f0: 406a 6ebe be13 363e 9494 dfbd 7773 29be
00000300: 200e a5bc d007 f53d f780 923e 1eb4 553e
00000310: 6bb0 9fbe e8c6 5e3d aa72 71be 1dc5 993e
00000320: b86c 713d f894 78bd 0068 1bbb 20c4 983d
00000330: 8af7 683e 2ea7 21be 84d6 acbd 0c28 75be
00000340: 3e62 5b3e 281a bb3d 180b 7a3d 10f1 fc3c
00000350: 805a a9bc b08a e33c e077 133e beaa 16be
00000360: 20dc 4fbd e550 b33e 9049 86bc 63bf a63e
00000370: 0e52 1e3e c5a9 813e c41f cb3d 40f3 1c3c
00000380: 7e04 523e 90c7 a2bc 38b6 79be d0b5 62bd
00000390: 86aa 5fbe e02e 123d 5254 503e e3d3 8c3e
000003a0: 447a 0d3e 24be a63d 0413 65be 7f45 af3e
000003b0: 028e 4ebe 2067 0dbd e036 93be 6843 6b3d
000003c0: a346 83be e83e 7fbd 668f 4d3e b342 9dbe
000003d0: 02e1 713e a8ab 403d 96be 68be 20e0 1cbc
000003e0: 526b 1e3e beba 13be 981d 603d 0066 9e3c
000003f0: 1b90 37be ad58 9d3e 9973 a53e 1822 17bd
0.2878873 -0.17116421 0.3304657 0.08574647 0.23872533 -0.2637246 0.06805503 0.013033062
-0.30610016 0.10485694 -0.30999467 -0.17690486 0.29439566 -0.24658883 0.34287062 0.20591184
-0.35252327 -0.060780764 -0.314922 0.22218385 0.26958588 0.18131623 0.06326938 -0.083496094
-0.12082468 -0.25912008 0.3208733 0.13651076 -0.23311001 0.25163707 -0.20064251 -0.06623411
-0.13194437 -0.023009598 0.13419506 0.14783874 -0.31262264 0.08558348 -0.0506649 -0.12721846
-0.30425125 -0.042587698 -0.09092942 0.032983124 -0.075813204 0.30725095 -0.2603537 0.16978148
-0.25462157 0.29375866 0.074377 -0.010712177 -0.2674581 -0.028970778 0.013887554 -0.17637318
-0.012292564 0.21164283 0.2781265 0.060111135 -0.114436656 0.03986624 0.12287071 -0.30208454
-0.23517574 0.069690615 0.33664736 -0.2920431 -0.03158751 -0.32684863 -0.19015457 -0.2265924
-0.040977567 -0.3147514 0.04115504 -0.025009602 0.330309 -0.32199037 0.041902512 -0.25032252
-0.29659373 -0.15131266 -0.23826401 0.16527697 -0.30890837 -0.24999386 0.35010204 0.04924488
-0.1311763 0.04488349 0.30846724 -0.13945326 0.12529802 -0.024359018 0.23949924 -0.15760253
-0.28108674 -0.34162065 -0.30871546 -0.14668047 0.18097094 0.26424995 0.3492765 0.20446727
-0.02639833 -0.3028828 0.1265541 0.33839718 0.20349446 -0.18590565 0.30565956 -0.3141829
0.06659734 0.1980417 -0.24258861 0.11526826 -0.038187146 0.29103568 0.07335389 0.18337438
-0.081422955 0.13436481 -0.26313618 0.09093574 -0.18704148 0.22522065 0.25954828 -0.14103895
-0.07477963 -0.26187122 0.16768625 -0.34545135 -0.3351576 0.013060898 0.118647605 -0.29742393
0.039450347 0.103290915 0.1680055 -0.15213132 0.26205888 -0.26935178 0.1975334 0.26652554
-0.0317097 0.10912967 -0.015172541 0.10511121 0.053546518 -0.2051975 -0.23538753 -0.018102497
-0.18343547 0.29252633 0.10381439 0.2775018 -0.29212415 0.28795585 -0.09108436 0.3217934
0.11736962 0.19141284 0.03465429 -0.03136629 0.3231142 -0.013953358 0.31796035 0.092546105
-0.15945606 0.092075735 0.2593725 0.16537228 -0.044452965 -0.054801315 0.25260088 0.026159257
-0.10965724 -0.002589792 -0.2429789 -0.14234364 -0.26433352 0.065734416 0.2868425 -0.17623712
0.27146706 -0.33301923 0.17990413 -0.05526042 -0.23282719 0.17780969 -0.10917011 -0.16547953
-0.020148337 0.11964381 0.28614017 0.2086949 -0.31189284 0.05438891 -0.23578897 0.30033198
0.058941573 -0.060688943 -0.0023713112 0.07459283 0.22750679 -0.1578643 -0.08439353 -0.23941058
0.21424195 0.09135848 0.061045736 0.030876666 -0.020673037 0.027776092 0.14401197 -0.1471357
-0.050747037 0.35022655 -0.0163925 0.3256789 0.15460989 0.25324836 0.09918168 0.00957948
0.20509526 -0.01987055 -0.24385917 -0.05534917 -0.21842393 0.035689235 0.20344666 0.27505407
0.13816172 0.08141735 -0.22370535 0.3423271 -0.20171359 -0.034522176 -0.28752804 0.05743733
-0.2563983 -0.06231585 0.20074233 -0.3071495 0.2362099 0.047038704 -0.22728953 -0.00957492
0.15470627 -0.14426705 0.054715723 0.019335747 -0.17926066 0.30731717 0.32314757 -0.03689775

autoencoders.0.encoder.cells.1.lstm.bias_ih f4 [32]
00000000: 62f1 71be c695 9ebe 20aa 1e3c 6a09 26be
00000010: d970 a63e c92d 4ebe 9ee3 2bbe 3c9e f1bd
00000020: deb0 f3bd 8a81 333e 341f 97be 3b8f 07be
00000030: 7411 943d c55f 8b3e 3ae4 5f3e 80d6 4b3c
00000040: e28f 643e 1fa0 1dbe 800f edbc 5e26 01be
00000050: 3b48 5cbe cba4 08be 50dc dabd 206a dd3c
00000060: 5a02 6ebe 801d 3a3b 4c41 d33d 3d58 b3be
00000070: 40bd 23bd 440b f9bd 7025 ee3c df27 9cbe
-0.23627236 -0.30973643 0.009684116 -0.16214529 0.3250797 -0.20134653 -0.16786048 -0.11797759
-0.11898969 0.17529884 -0.29515994 -0.13238232 0.072298914 0.27221504 0.21864405 0.0124412775
0.22320512 -0.15393113 -0.028938055 -0.12612292 -0.21511929 -0.13344114 -0.106865525 0.027028143
-0.23243085 0.002839893 0.10315189 -0.35028258 -0.039975405 -0.12160352 0.029070586 -0.3049917

autoencoders.0.encoder.cells.1.lstm.bias_hh f4 [32]
00000000: 271c 2abe 63ca 933e 866e 2a3e 8084 003b
00000010: dfc1 8d3e 108f 93bc 93c1 b43e b02d c3bc
00000020: 4835 083d e12f a2be 2057 b0bc b818 74bd
00000030: 4786 73be c83a 5cbd 8070 f4bb fe6b 5f3e
00000040: 4056 9f3c 48e2 053e a390 33be 7cdb 90bd
00000050: be9b 373e 2b96 4dbe 5a87 6d3e 70cb 043e
00000060: 7117 a13e b27d 353e 08ba fe3d 8585 923e
00000070: 6b67 6fbe 8814 32bd 3c09 c73d 24ab 79be
-0.16612302 0.28865346 0.16643724 0.0019610226 0.27686974 -0.018012553 0.35303935 -0.023825496
0.033253938 -0.31677154 -0.02152592 -0.059593886 -0.23781691 -0.053766996 -0.0074597 0.2181854
0.019450307 0.130746 -0.17535643 -0.07073113 0.17930505 -0.20076816 0.23196164 0.1296823
0.31463197 0.1772373 0.124378264 0.28617492 -0.23379295 -0.04347661 0.09718558 -0.24381691

autoencoders.0.decoder.cells.0.weight_h_2 f4 [8, 8]
00000000: bc41 ed3d fde0 613e 6b70 f93d 94d3 363d
00000010: 8e62 28be 21ed 423e 4db8 273e 3e1d 13be
00000020: 551a 45be 8374 4b3d 2109 6bbe 7d92 f73d
00000030: 05cd 13be f9f7 25bd 9d7d b3bc f4f2 84be
00000040: 4ac1 763e 1b94 2b3e 23a5 1d3e c11c f1bd
00000050: 30dd 3cbe e081 743e b678 163e 1c7a b4be
00000060: 3ed9 b53e 59d2 70be 4972 89bd ba27 a13e
00000070: ce8c 003e cf9e 80be d539 72be 2c55 0a3e
00000080: b252 d03e a894 02be 24cf 833e 501b 6fbc
00000090: 5aa9 323e d1dc d13c a958 a3be a6f1 b03e
000000a0: c3ea 673e c61d 873d 89d7 823e fa1b 583d
000000b0: 0695 34be 82bd 6b3e f089 013e dc8b 36be
000000c0: bab7 963e 8ef2 cabc b35e 293d 3277 6b3e
000000d0: f883 32bc ab3a 1abe e18b 073e 547a 393c
000000e0: 428c ca3e 31b6 a0bd 2351 7e3e ffff 87be
000000f0: 3ad8 d43d eb52 403e b992 21be 758f 6a3e
0.115848035 0.22058482 0.12179645 0.04463537 -0.16443846 0.1903577 0.16378899 -0.14366624
-0.19248326 0.04967166 -0.22952701 0.12088487 -0.14433677 -0.04051969 -0.021910483 -0.2596661
0.24097171 0.16755717 0.15395026 -0.117730625 -0.18443751 0.23877668 0.14694485 -0.35249412
0.35517305 -0.23517741 -0.06711251 0.3147562 0.12553713 -0.2512116 -0.23654874 0.13509053
0.40688092 -0.1275202 0.25743973 -0.014593914 0.17447415 0.025617989 -0.3190358 0.34559363
0.22648148 0.06597476 0.25555065 0.052761056 -0.17634973 0.2302151 0.12650275 -0.1782679
0.29437047 -0.024773862 0.041350078 0.22994688 -0.010895722 -0.15061443 0.13236953 0.011320669
0.39560133 -0.0784725 0.24835639 -0.26562497 0.103928044 0.1878163 -0.15778627 0.22906287

autoencoders.0.decoder.cells.0.bias_h_2 f4 [8]
00000000: 418e 133e e55f edbc a5fd 983d e28c 303e
00000010: 3ed4 0d3d 575d 53bb ed81 c5bd de74 bbbb
0.14409734 -0.02897639 0.07470254 0.17241243 0.034626238 -0.003225168 -0.09643922 -0.0057207188

autoencoders.0.decoder.cells.0.lstm.weight_ih f4 [32, 1]
00000000: 5d36 d6bd 326f 21be b4b0 ae3e e8d7 a5be
00000010: 0971 25be 6fff 6b3e 6adc c8be 59fb c3bd
00000020: 30a1 8c3d d4ce 18bc 0453 853e f3d3 57bb
00000030: 3d8e 3cbe b3e0 ae3e 375a 9cbd 86e9 aa3e
00000040: a7cf 9f3e 9232 a23e cd19 e63e 1014 cdbe
00000050: dcfd a7be ac4b 4b3e db6f cdbd ea67 09bf
00000060: 565a d3bd a474 e1be 7acd 853e 1048 debd
00000070: 485b 70be 4367 203f 642e 80be cca8 cebc
-0.10459588 -0.15765074 0.3411919 -0.32391286 -0.161564 0.23046659 -0.39230663 -0.09569425
0.068666816 -0.009326655 0.26039898 -0.0032932728 -0.18413635 0.34155807 -0.076343946 0.3338129
0.31213114 0.31679207 0.4494156 -0.4005437 -0.32810867 0.19853085 -0.100311 -0.53674185
-0.103199646 -0.44034302 0.2613333 -0.108535886 -0.23472321 0.62657565 -0.25035393 -0.025226973

autoencoders.0.decoder.cells.0.lstm.weight_hh f4 [32, 8]
00000000: 0aa1 1c3f 1b6a 88bd 6fbe fe3e 5aeb dc3e
00000010: b271 f53d 1e2e f63d 4197 283e 28a3 563e
00000020: e6a2 c13d cc53 72bd 03a6 143e ff51 eb3e
00000030: 2234 153f 3c08 143f 107d 873e e392 513e
00000040: be79 253f 3b81 c83e 4f17 123e 582d 133f
00000050: 1eaf 933e f8dd e03e 1195 d53e 6480 8e3d
00000060: e5c5 23bd 4042 043f bf25 523e 4c99 de3c
00000070: 8841 ab3e 66b2 d53d 0121 303e 7454 be3e
00000080: 938f f03e e77f 063e 1369 0c3f a1e9 0b3f
00000090: ccb7 693e 0d0d c8bc 4a4e e53e 889f a63e
000000a0: 9dd7 ac3e 3a1e 2ebe caa7 1b3e 089f c33e
000000b0: d66c b83e 376d e13d 40d5 b13e aaa1 0e3e
000000c0: 3296 593d bdd7 60be 64f5 9dbe 54bb 4b3e
000000d0: 08ee b6be eb3b 87be de49 443e 0f96 a33e
000000e0: 7468 303e fdca f03e 5fe8 b6bc 12ba 873e
000000f0: d6b4 5fbd b0b6 73bd 18e0 683d 2efa 34bc
00000100: b68a 243c 8486 debe 3fa3 ad3e d897 133e
00000110: b521 cf3d be1c 4e3e 3d10 3e3e a6db 81be
00000120: ba88 b2bd cbd6 b03e 8c0f ffbe b1c1 9a3e
00000130: 841d a1be a78e 92be a8e9 153e ca84 6d3e
00000140: 1dfd 87be 482c 1a3e 60a8 e23d aa1e be3e
00000150: 3d4e bb3e 4774 38be 2930 a53e d3ff 043e
00000160: 35ee 0b3e 8156 aa3c a748 12bd 8eea 993e
00000170: 040f 97be d3ca 803e ff6e 603d d5fb 05be
00000180: ae7d d5bd d83d 6abe 78dc d0bd e35c 173e
00000190: 64b1 4ebe 5a4c adbd 7473 383c 9400 af3d
000001a0: 291d 9abd c6b8 be3c 83ca 093e df21 c53d
000001b0: a3b3 823d 343e c23e 2489 563e c8cb ea3e
000001c0: 0b21 e0be 5254 3f3e 0389 cf3d cbb1 8d3e
000001d0: a53a 2dbb db92 2ebe e59c 6c3d 064f 003e
000001e0: abeb 663e 329e 60be 95f0 b5bd 8565 083e
000001f0: 332b 313e ad22 3b3c ebfc dfbd 7a64 4b3e
00000200: 9617 bdbd f746 abbd 6eec f03d a722 2ebe
00000210: 6beb cf3e fa4b 69be 7f72 a83d 25f2 d43e
00000220: 4dd1 b43e 2107 4cbe 7587 5d3e 79a9 143e
00000230: 1987 fabd 040a 89be 24b1 d33d 7d2d 5abd
00000240: 2951 82bd 15ce a7be d67f d0bd b9bf 083d
00000250: 7add b93e d43a 98be 8378 b9be acb8 f83e
00000260: 0aeb 95bd 0d77 523e 87d8 ebbd f80e 02be
00000270: 57ca 87be f718 0b3b 25fc c43e dc28 1a3d
00000280: 3598 52bd 9f95 1fbe d9a0 60be a46d b93e
00000290: c61e 29be f4cd 8dbe ef6d f93d 42d4 d0bd
000002a0: da96 973e f00b 8bbd 3f39 b03e c974 d43d
000002b0: b67e b03e 1d2e 413d 494c 72be fefd 0dbd
000002c0: 1d22 b9be 9ed5 83bd 0f43 3f3e 256e 05bd
000002d0: afb9 2d3e 6557 c13d 8037 5ebe 454a 9fbe
000002e0: b0e8 14bd 6991 803e 86f8 94be f663 69bd
000002f0: 7de0 9c3e 1e1b cbbd 722f 2fbe f707 5bbd
00000300: 6759 423e bd71 51bd 9071 da3e 7d4b 15bd
00000310: 5533 653d 4cac 173e 0742 b3bc 3c7b 0a3f
00000320: b1d1 a83d 8190 c73c 91bd 1dbe 399a d33e
00000330: cbe5 ac3d f0c2 54bd 7d09 1e3f 2559 703e
00000340: a4ac c43e 418d 013f 389d 033f b6ef 813e
00000350: 8a55 a03e ecc3 003f e8ba 0e3e a40a e73e
00000360: bca8 1b3f 1b5e 08bc 5810 16bd f2f4 cd3e
00000370: c801 6c3e ddd7 623e 7d45 9f3e 12e6 7c3e
00000380: f0ce bb3e e2c7 443e f81c bc3e 60ae 153f
00000390: bb83 8e3e 38f8 e63e bc06 65bd 62a2 a73e
000003a0: a539 2c3e d51d b4bd 2d8b db3e 58bf 113e
000003b0: c9b4 90be edb6 8f3e df50 303b b75f 1cbd
000003c0: 097a 3ebe 0e25 42bd f565 9cbb 49c4 58bd
000003d0: c201 06bd ef4d b7be c345 243d 4f82 6b3d
000003e0: d7fb ac3e 0e8a 983d 9873 99bd 1fe5 903e
000003f0: 859d a3bd 8302 5a3e 7caa 1f3e c3a0 c03e
0.61183226 -0.06660863 0.49754664 0.4314831 0.11984576 0.12020515 0.16463949 0.20960677
0.094548985 -0.059161946 0.14516453 0.45960996 0.58282673 0.57825065 0.26462603 0.20466189
0.6463889 0.39161095 0.14266704 0.57491064 0.2884454 0.4391935 0.4171529 0.06958082
-0.03998365 0.5166359 0.20522211 0.027172707 0.33448434 0.104344174 0.1720009 0.37173808
0.46984538 0.13134728 0.5484783 0.54653364 0.22824019 -0.024420286 0.44786292 0.32543588
0.3375825 -0.17003718 0.15200725 0.3820727 0.36020535 0.11007159 0.3473301 0.13928857
0.053121753 -0.21957298 -0.3085128 0.19895679 -0.35728478 -0.264129 0.19168803 0.31950423
0.17227346 0.47029868 -0.0223276 0.26509148 -0.054615818 -0.059500396 0.056854337 -0.011045976
0.010042837 -0.43462002 0.3391361 0.14413393 0.10113851 0.20128152 0.18560882 -0.2536289
-0.08717485 0.34538874 -0.4981655 0.302259 -0.3146783 -0.2862446 0.14639914 0.23195186
-0.26560298 0.15055954 0.11067271 0.3713277 0.3658313 -0.18013106 0.32263306 0.12988214
0.13665088 0.020793201 -0.035713818 0.30061764 -0.29503644 0.25154743 0.054793354 -0.13084348
-0.10424362 -0.22875154 -0.10198301 0.14781527 -0.20184857 -0.084618285 0.011257995 0.08545032
-0.07525093 0.023281466 0.13456158 0.09625601 0.06381919 0.37938082 0.20950752 0.45858598
-0.4377521 0.1868451 0.10133555 0.27674708 -0.002643266 -0.17048208 0.057766814 0.12530145
0.22550838 -0.21935347 -0.08883778 0.13319977 0.17301635 0.011421842 -0.10936912 0.19862548
-0.09233014 -0.08363145 0.117638454 -0.17005406 0.40609297 -0.22782889 0.082249634 0.41590992
0.35315934 -0.19924594 0.21633704 0.14517774 -0.12232799 -0.26765454 0.10336521 -0.053266037
-0.06363136 -0.32774416 -0.10180633 0.033385966 0.36301786 -0.29732382 -0.36224756 0.48578393
-0.07320221 0.20553227 -0.11515909 -0.12701023 -0.2652156 0.0021224597 0.3847362 0.037636623
-0.051414687 -0.1558442 -0.21936359 0.36216462 -0.16515645 -0.27696192 0.12179171 -0.10196735
0.29607278 -0.06789386 0.34418675 0.103738375 0.34471673 0.047163118 -0.23661913 -0.034666054
-0.3615884 -0.064372286 0.18677925 -0.032575745 0.16965364 0.09440497 -0.21700859 -0.3111135
-0.03635472 0.2511094 -0.29095858 -0.056980096 0.3064002 -0.099172816 -0.17107943 -0.053474393
0.18979417 -0.05113386 0.42664766 -0.036448944 0.055957157 0.1481182 -0.02188207 0.5409429
0.082431205 0.024360897 -0.15404345 0.413286 0.08442267 -0.05194372 0.6173323 0.23471506
0.38412964 0.5060616 0.5141177 0.25378197 0.3131526 0.50298953 0.13938487 0.45125306
0.60804343 -0.008323218 -0.03663668 0.4022594 0.23047554 0.22152658 0.31107703 0.2469714
0.36681318 0.19216874 0.3674085 0.584692 0.27834877 0.4511125 -0.055914626 0.32741076
0.16818865 -0.087947525 0.4287962 0.14233148 -0.28262928 0.2806925 0.0026903672 -0.03817722
-0.1860124 -0.04739862 -0.0047728964 -0.052921567 -0.03271652 -0.35801646 0.040105592 0.05749732
0.3378589 0.07448207 -0.07492751 0.28299806 -0.07989029 0.2129002 0.15592378 0.3762265

autoencoders.0.decoder.cells.0.lstm.bias_ih f4 [32]
00000000: b5e4 413d 9068 d03d 06c2 143f 96a1 7d3d
00000010: f46d 9e3e fbc0 5a3e 2654 bdbe 6250 ba3e
00000020: b5f8 afbd 824d 803e 446c 6bbe bad5 e8bd
00000030: 1712 b7bd 3c8b debd 2cdc 89be 65fb 913c
00000040: aeae 92be 591a aa3d c366 053e 0e21 c93e
00000050: 2c1f ebbc 6212 2c3e a0ed e3be 1ce4 883e
00000060: 0100 583e d742 173f 6ff8 173f ca2c 193f
00000070: bc3b 803e 6385 843c 466e 153e 59aa b03e
0.047337253 0.10176194 0.58108556 0.06192168 0.30943263 0.21362679 -0.36978263 0.36389452
-0.08592359 0.25059134 -0.22990519 -0.1136889 -0.08938997 -0.108664006 -0.2692579 0.01782007
-0.28648895 0.08305807 0.13027482 0.3928303 -0.028701387 0.16803887 -0.4451723 0.26736534
0.21093751 0.59086365 0.59363455 0.5983397 0.25045574 0.016176885 0.14592847 0.34504965

autoencoders.0.decoder.cells.0.lstm.bias_hh f4 [32]
00000000: 316d d53e e6f3 843d fc39 8c3e 9548 d43e
00000010: 6e82 933e cc31 7c3e 25d1 dbbd 31b1 783e
00000020: 695f 833e 2731 10be 5ae6 c33e 8c01 8dbe
00000030: 1bdb b03e ba47 59be c2b4 dbbd 453a 853e
00000040: 1faf c03e 8b53 48be e039 093d a793 00be
00000050: 2580 963e f6cd 003e 7231 f5bd 39bf 6fbe
00000060: 7cf9 1a3f 0606 9f3e 32be a23e 6ed2 a63e
00000070: eba0 a63e 4894 963d 52ff 1c3e 6ad1 0d3f
0.4168487 0.064918324 0.2738799 0.41461626 0.28810447 0.24628371 -0.107332505 0.24286343
0.2565873 -0.1408125 0.38261682 -0.27540243 0.34542164 -0.21218768 -0.10727836 0.2602102
0.37633607 -0.19563119 0.03350246 -0.12556325 0.29394642 0.12578568 -0.119723216 -0.2341279
0.6053693 0.31059283 0.31785733 0.3258242 0.32544646 0.07352501 0.15331772 0.55397666

autoencoders.0.decoder.cells.1.weight_h_2 f4 [8, 8]
00000000: f78b 1e3e e8a7 a83e bb15 1c3e f3a1 673e
00000010: 63a9 593e 564f 023e d596 a7be b779 7dbd
00000020: 15a2 003d 83f3 e73d b63f 83bd 8898 373e
00000030: 61a6 81bd ac68 06be 5884 a4be c212 443e
00000040: a81b ae3e dfac 6b3d ecdb 5f3d ddb5 983e
00000050: 28b7 ff3d af15 6f3e 8359 8abe 6153 a23d
00000060: d0bb 493e f79e 9d3c 6bc2 3dbd a493 243e
00000070: 1a50 613d d46b 743d 5f6b 10be 21a3 b73d
00000080: 565b 663e db28 2b3e 81ec d23d e3ef 783e
00000090: cb71 3c3c 606f 14be 0859 e8bd e7d4 00be
000000a0: ff39 863e ec89 573d 58b1 973d 7fc3 9b3e
000000b0: ebda 063e 50bc b8bd d056 5cbd 7485 183e
000000c0: bdcb eabd d148 12be d624 aebe 56cd a3be
000000d0: db57 61be 62ff 283e bcda a43e ad22 353e
000000e0: 887a 0b3e acfc 103e 20d2 dfbd 0cab 913c
000000f0: a2b1 f43b 2712 243e c7d2 9abc 4a5d 9d3d
0.1548308 0.32940602 0.15242665 0.22620372 0.21256022 0.12725577 -0.32732263 -0.061883654
0.031404573 0.11325743 -0.06408636 0.1792928 -0.063305624 -0.13125867 -0.3213222 0.1914778
0.34005475 0.05753791 0.054653093 0.2982625 0.12486106 0.23348115 -0.27021417 0.079260595
0.19700551 0.01924084 -0.04632799 0.16071945 0.05500803 0.059673145 -0.14103459 0.08966661
0.2249578 0.16714804 0.10299016 0.2431026 0.01150174 -0.14495611 -0.11345106 -0.12581216
0.26216123 0.052621767 0.074068725 0.3042259 0.13169448 -0.09020293 -0.05379373 0.14894658
-0.11464641 -0.1428559 -0.3401248 -0.31992596 -0.2200617 0.16503671 0.3219813 0.17689009
0.1362096 0.14158887 -0.1092875 0.017781757 0.0074674645 0.1602255 -0.018899335 0.07683809

autoencoders.0.decoder.cells.1.bias_h_2 f4 [8]
00000000: d50c 27bb b055 b53a d666 78bd 90e2 a53d
00000010: f7f3 bebc d829 5b3c 832b d1bd bd44 083e
-0.0025489826 0.0013834741 -0.060644947 0.08099854 -0.02330969 0.013376676 -0.10213377 0.13307472

autoencoders.0.decoder.cells.1.lstm.weight_ih f4 [32, 8]
00000000: e4b5 1cbe daee 2bbe be01 053e 4a1d 963e
00000010: b0d4 f43e b6e9 fd3e 7bb1 e5bd 6a87 e43d
00000020: 0eac acbd 329f 16be 2151 f5bd 359f fa3d
00000030: 0079 9b3e 95a7 e33c 8fde ce3e a938 c1bd
00000040: 6808 c33e f896 3ebd a459 723e 0f2f c13c
00000050: fe70 1ebe 511d 793d f469 733e a942 333d
00000060: acb6 9f3e b42a 8d3e 57ed c03d 7fa2 c8be
00000070: c738 09bf 7656 b83e f414 5c3e 57c5 c7bd
00000080: a6f5 153f e9b3 65bd 9193 df3e 90b6 9e3e
00000090: 6549 903a 59f7 97bd 5a26 633e 2dfb 613e
000000a0: 30bd e03e 1ac9 4abd 4a7c 4e3e f0da 4e3e
000000b0: c434 9f3e 986d 493e 5f16 b3bb 04d5 b3bd
000000c0: b879 213f 7a5e 983c a386 b23d 7aff eb3e
000000d0: fe7b 2c3c 63d7 813d ccf9 663e 7eed 47be
000000e0: 2b0e a13d 5706 9b3d 0e51 7cbe 34ca 67bd
000000f0: 76cf 26bc fc90 f0bc ff80 6a3e f952 ef3e
00000100: 0060 a1be 9ce5 f03d 0b61 9ebe 7743 903e
00000110: 6d0d 1b3e 0833 0fbe f3a5 a23e 2021 aabb
00000120: 2b93 b1be 4d49 96be cca6 14bf 06f3 893e
00000130: 1e49 9a3d eff2 36be f930 03be c1e6 003f
00000140: fcf1 2fbe 2d0b 16bd 5055 073f 6414 223e
00000150: fa33 f1bd 5ae3 95be dd31 3b3e 517a e33d
00000160: 9672 4a3e 9d81 b93e 3a3a 2d3e 8c02 00bf
00000170: 642a c7be 9636 36bd 5fb7 a3bd c2f1 60be
00000180: 4830 7ebe 32d8 abbe f799 d8bc 4d71 2a3e
00000190: f838 563e 2e9f 8ebe e51b 52bd 0530 86bd
000001a0: daec d23e c2ec cc3e e9ff c33c 2f62 673d
000001b0: f467 bfbe e8cb d1bc 7097 b4be 4fee e93d
000001c0: d6dc eabd a0fc 853e c231 0a3f c24d a93e
000001d0: eb2f a73e 2240 053f 00ce 91be 51cf 2a3e
000001e0: 8434 62be 1341 b33e cfb6 3cbe 5ea5 873e
000001f0: 382c d4bd f5b4 54bd 914f 7d3e 072f 7ebe
00000200: cd1f 21be 13ab e1be e3e9 84be 1945 0a3f
00000210: be07 ae3e 8b45 8ebe b662 4abe 56ee c13e
00000220: 3339 233e a103 a6be 91aa 6ebe 27a0 6cbd
00000230: f46d 023d c640 0a3d c768 763e 8640 15be
00000240: e6d4 c0be 38dc 15bc dbcb 86be 86ff a23d
00000250: f670 353d b467 58be f650 4dbe ecfc 3dbe
00000260: 0ff2 adbe 21b2 22be b4ca 043e 7a1a a93d
00000270: fc35 05bd d321 0bbf f7c4 fe3d 7b6f 813e
00000280: ef07 d0bd b448 e5be f9c2 22be dce0 903e
00000290: a7af 103f 477c e1be 5e17 c1bd 2b11 743e
000002a0: cb30 053e 26a8 7cbe 7e79 49be b7dd 143f
000002b0: fcc7 6b3e 0455 a6be a0cb aebd 649c 19bd
000002c0: 3bdb 913e 023e 963d bf9f 1f3f cb37 a1bd
000002d0: e029 303d 6dd5 0b3f 5f46 23bd 3246 bbbe
000002e0: d273 403e 5184 853e c605 25be 8ef6 f63e
000002f0: 731c 5bbe a26a 573d 3a53 74bc f981 a13e
00000300: 32d1 aa3e 8230 9e3e 85d0 8abe cbcd 3e3d
00000310: 9c2e 0b3f 5947 283e 3738 783d b842 133f
00000320: da31 abbe fafe 20bd c1fa af3d 3234 ed3d
00000330: 1bcc 143b ae00 14be b75b 023e f33e 123f
00000340: 30ef 053f 30ab f63e ba76 233e 7497 e33d
00000350: 3b26 60be 25f6 33bc 2559 593e 74c0 6cbe
00000360: 8ce7 b33e f7bf 023c c3c6 033e 791b 13bf
00000370: e604 f1be 62a4 043e 5a44 a83e 1be1 13bf
00000380: e79f 97bb e75d 9c3c 251f d63e 9e0a c03e
00000390: d5ef 9e3e 3d8d a0bc f751 55be 6406 973c
000003a0: a86f 99bd 3c4b 113e 49f7 29bd 742b 9c3d
000003b0: fdc3 acbd ee49 093f 04dd 9d3e bdc6 b83e
000003c0: fde7 cd3e dcc0 63bc 9cce 3c3d 2082 513e
000003d0: 579b 9d3e 1c71 b73e 0ff4 3e3e 2d0f 8dbd
000003e0: 372d a03e 39f9 013d 136f 243e fc31 6a3e
000003f0: 5b0c 49be 5372 3e3e 7ef9 73be 6ba8 fc3d
-0.15303761 -0.16790333 0.12988946 0.2931922 0.47818518 0.4959237 -0.11215492 0.11158641
-0.08431254 -0.14709166 -0.11978365 0.122373976 0.30365753 0.02778987 0.40404174 -0.09434635
0.3809235 -0.046530694 0.23667008 0.02358201 -0.1547279 0.060818974 0.23770887 0.043764744
0.31194055 0.27571642 0.09420269 -0.39186475 -0.5360226 0.36003464 0.21492368 -0.097544365
0.58577955 -0.05607978 0.43667272 0.3099866 0.0011008201 -0.07420225 0.22182599 0.22068472
0.4389434 -0.04950819 0.201646 0.20200706 0.31094944 0.19670713 -0.0054653133 -0.08780864
0.63076353 0.018599737 0.08717086 0.4609335 0.010527609 0.0633991 0.22556227 -0.1952419
0.078640305 0.075695686 -0.24640295 -0.05658932 -0.0101812985 -0.029366009 0.2290077 0.4674299
-0.31518555 0.117625445 -0.30933413 0.28176472 0.1514184 -0.1398431 0.31767234 -0.005191937
-0.34682593 -0.293528 -0.5806701 0.26943225 0.07533477 -0.1786611 -0.1281165 0.503521
-0.17182153 -0.03663175 0.5286455 0.15828091 -0.11777492 -0.29275018 0.1828074 0.111073144
0.19770274 0.362317 0.16916743 -0.50003886 -0.3889953 -0.04448565 -0.0799396 -0.21967223
-0.24823105 -0.3356338 -0.026440604 0.16644783 0.2092017 -0.2785582 -0.051296134 -0.06552128
0.41196328 0.40024382 0.023925738 0.05649012 -0.37383997 -0.025609925 -0.35271788 0.11422407
-0.11467902 0.261693 0.53982174 0.33067137 0.32653746 0.52050984 -0.28477478 0.16680647
-0.22090346 0.35010585 -0.18429111 0.26493353 -0.103599966 -0.051930387 0.24737383 -0.24822627
-0.15734787 -0.44075832 -0.2595969 0.54011685 0.33990282 -0.27787432 -0.19764218 0.37877148
0.15939789 -0.32424644 -0.23307253 -0.05776992 0.03184314 0.03375318 0.24063407 -0.14575395
-0.3766243 -0.0091467425 -0.26327404 0.079588935 0.04429718 -0.2113331 -0.20050415 -0.18553513
-0.3397374 -0.15888263 0.1296795 0.08257003 -0.032522187 -0.54348487 0.12439912 0.25280365
-0.10157763 -0.4478203 -0.15894689 0.28296554 0.56518024 -0.4404013 -0.09428285 0.23834674
0.13006894 -0.24673519 -0.19675252 0.5815081 0.23025507 -0.32486737 -0.08534932 -0.03750266
0.28487572 0.07336046 0.6235313 -0.0787197 0.043008685 0.54622537 -0.039862033 -0.36576992
0.18794182 0.26077512 -0.16115484 0.4823498 -0.21397571 0.052591927 -0.014912421 0.31544474
0.33362728 0.30896384 -0.27112213 0.04658298 0.54367995 0.16433467 0.060600486 0.5752368
-0.3343647 -0.039305665 0.085927494 0.11582221 0.0022704664 -0.14453384 0.12730299 0.571273
0.52318096 0.4817748 0.1596326 0.11112872 -0.21889584 -0.010983978 0.21225412 -0.2312029
0.35137594 0.007980338 0.1286879 -0.57463795 -0.4707405 0.12953332 0.32864648 -0.5776536
-0.004627216 0.019087745 0.41820636 0.375081 0.31042352 -0.019598598 -0.20832048 0.018435664
-0.07492 0.14188856 -0.041495595 0.076254755 -0.08435819 0.5362843 0.30832684 0.36089125
0.40216056 -0.013900962 0.046095476 0.20459795 0.30782577 0.35828483 0.18647788 -0.0688766
0.31284496 0.031731818 0.16057996 0.2287063 -0.1963362 0.18598299 -0.23825642 0.12336811

autoencoders.0.decoder.cells.1.lstm.weight_hh f4 [32, 8]
00000000: 855d 973e e9a9 e53e ae94 c13c 2e87 f23b
00000010: 0260 f33e 2df1 b6bd f101 b03d 8d85 6a3e
00000020: 83c3 843d a74e 5bbe 8a9c e23e c06d 37bd
00000030: 743a 50be d70a aebc 2bae 163e 170a eb3e
00000040: af49 05be debd c23e e5db e23d ef19 84bd
00000050: 4453 a03c 28da bc3d dac3 9b3d f0f8 ccbd
00000060: d515 bc3d c6eb 53be 4531 8fbe a3c7 22be
00000070: d4c5 e4bd 2cda 73be 9862 cb3e 7ceb 613e
00000080: d5fa d43e d248 c73e b864 f43e 9393 4fbd
00000090: 90ed dabb e057 b63e c1e6 65bd c7ad 673e
000000a0: 1e08 d73e 220c 7dbd 7376 40be 48be de3e
000000b0: 6291 fbbd 2997 de3e 7a58 3c3c 144f 223e
000000c0: a5fa 7a3e 604c b43e 2bea c93e f652 973d
000000d0: 5acd 183f 32f0 d63d 9d42 753c 572b a43e
000000e0: 3b7a bc3d ab3e c23c ac7e 8e3e 4e3f a1bd
000000f0: b2f4 af3d 5a4c 2bbe f9be 29be 4b0a 53bd
00000100: 2323 163e 36f1 283e 6159 e73c 9ad2 5dbe
00000110: ff0f 82bd 5673 f63c 1560 5c3e 48d3 e43d
00000120: 10f6 843e cd8a 0ebe 4a03 b33e 231a 0c3e
00000130: cf91 9f3d aa4c 8fbc 5bfb 96be 0127 28be
00000140: 0f12 d8bc 338a 273e 4447 813e 2c46 303d
00000150: 3401 563e b696 35be 4766 b33d b273 113d
00000160: 3869 6bbe 9a5d 48be 7427 86be 8ef8 a4be
00000170: 757a e0bc 0bf3 59be 7a2c a23e 78d1 2b3e
00000180: eab0 293e ae2d 383e 71c2 83be 5927 c0be
00000190: 8cfc d7bc 35c8 8d3c a6c8 45be 2c68 d1be
000001a0: 65b3 85be b470 0cbd 45e0 193e a6ae a93d
000001b0: 4e1a 7b3d ec3c 0ebe a770 40be 59fd 2dbd
000001c0: cf15 ae3e 9377 e6bd 0395 4e3e f964 5f3b
000001d0: 3ad6 863e cbfc 023e 77c5 cbbd 9a5e b73e
000001e0: f97d 4abd e182 38be 8c38 55bd 5fbb a03d
000001f0: 6df2 f03d 7389 49be cf9e 943e bc1e 3f3b
00000200: 40dd 18be 5cda 253e 9fd3 903e ae22 6ebe
00000210: f707 57be 595c 6b3e b418 733e 6a16 d9bd
00000220: af93 a33e 9710 7abe 578f 433e 0539 cabd
00000230: 1400 333e 0f96 71bd bfee 6abe 4cbf 823e
00000240: 2a1d 1b3e 3bf1 54bd f06c ae3d 1c18 80be
00000250: 4125 1e3e 56c6 af3e 1979 983e 3dc7 013e
00000260: 6317 8cbe 180e c8be ad33 76be 2a48 3bbc
00000270: 15ee ad3d ff88 eebd 6340 4bbe ebcc 2c3e
00000280: 2e37 953e 9dff a93c 669e ad3e 495e 3e3e
00000290: de02 2abd 966c 3f3e 6240 5cbd 8299 973e
000002a0: 6ff8 88be fff7 3abe 8bc7 b63c d8ca d3bd
000002b0: e341 a2bd b863 bc3e 3145 863d 5bb4 da3d
000002c0: 9698 0a3e 7f56 77bc 1a1e b1be 8676 42bc
000002d0: b5a9 fe3d b2d4 c0be 9684 68be 6e08 72be
000002e0: 152c a7bd 891d a53e ccd4 42be 5df1 8abe
000002f0: c16c 4abe e101 973e b4ec f4bd ebd8 58bd
00000300: 58de b83e 57a2 85bd 945e 49bd d433 b43d
00000310: da3a 333e 4368 d33d 9b8d f03e e357 1cbc
00000320: cd65 963e 4e8c dfbd 164a 923d 5a7d 97bd
00000330: 83cf c43d baa6 27be 53de 0f3e 97c9 05be
00000340: c113 61be 9ff1 31be dc9f 76bb 76e7 2ebe
00000350: 5b2c d4bd f156 5d3e 3b24 943e 8527 9f3e
00000360: f33f d1bd 1cb4 a03e c9cc 30be 5c77 a23d
00000370: 1dc4 5fbe 73f6 7cbe 29f1 d83d 6744 993d
00000380: f291 c03e eadf f83e bf33 b03e 2342 6c3e
00000390: e47a f73e 59e5 913e 5465 4b3e 16c2 663e
000003a0: 0bb4 12be 7ce9 543e f31c e33c beb8 973e
000003b0: ce3a 6a3d 82ac de3e ebec 153e 5543 ce3e
000003c0: 9830 093f e907 583d 6ec5 de3d e358 dbbc
000003d0: 04b7 0a3f 1221 c83d 0958 cb3e 6545 123f
000003e0: e888 edbc 498e 193e 1563 97be b1ed 9abe
000003f0: 9f82 9b3e c9ad 323e 2386 49bd b315 92be
0.29563537 0.44856194 0.023630466 0.0074013686 0.47534186 -0.089327194 0.0859412 0.22902508
0.064826034 -0.21416722 0.44260055 -0.0447824 -0.20334798 -0.021245403 0.14714877 0.45906135
-0.1301639 0.38035482 0.11077098 -0.06450259 0.019570954 0.092212975 0.07605715 -0.100084186
0.09183852 -0.20695409 -0.27967277 -0.15896468 -0.11170545 -0.23813695 0.3972366 0.22062486
0.4159762 0.38922745 0.47733092 -0.050677847 -0.0066811517 0.35613918 -0.056128267 0.22624885
0.4199838 -0.06177915 -0.18795185 0.43504548 -0.12283589 0.434747 0.011495704 0.15850478
0.24509676 0.3521452 0.39436468 0.073888704 0.5968834 0.10495032 0.014969495 0.32064316
0.09203001 0.023711523 0.27831018 -0.078734025 0.08591594 -0.16728345 -0.16576757 -0.051523488
0.14661841 0.16498265 0.028240861 -0.2166237 -0.06350707 0.030084293 0.21521027 0.11173111
0.2596898 -0.13920136 0.34963447 0.13681845 0.07791483 -0.017492611 -0.29488644 -0.16421129
-0.026375799 0.16361313 0.25249684 0.04303567 0.20898896 -0.17733273 0.08759742 0.035510726
-0.22989357 -0.19566956 -0.26201975 -0.32220882 -0.027402142 -0.2128412 0.31674558 0.16779125
0.16571394 0.17986175 -0.25734285 -0.3753002 -0.02636554 0.01730738 -0.19314823 -0.4089979
-0.2611343 -0.03428717 0.15026958 0.08285265 0.061304383 -0.13890427 -0.18792973 -0.04247794
0.34001014 -0.11253276 0.20174031 0.0034087284 0.26335317 0.12791745 -0.09949773 0.35814363
-0.049436543 -0.18018676 -0.05205588 0.07848238 0.11764989 -0.19681339 0.2902741 0.0029162606
-0.1492815 0.16196579 0.28286454 -0.23255417 -0.20999132 0.22984447 0.23739892 -0.10599978
0.3194861 -0.24420391 0.19097649 -0.09874157 0.17480499 -0.058980998 -0.22942637 0.25536573
0.15147844 -0.051987868 0.08516872 -0.25018394 0.15443899 0.34331006 0.2977989 0.1267366
-0.27361593 -0.39073253 -0.2404315 -0.0114307795 0.08492676 -0.11647224 -0.1984878 0.16875045
0.2914366 0.020751769 0.3390991 0.18590654 -0.04150664 0.18693766 -0.053772338 0.29609305
-0.2675204 -0.18258666 0.022311946 -0.10341424 -0.07922723 0.3679483 0.06556166 0.10678931
0.1353477 -0.015096306 -0.34593278 -0.0118690785 0.12434713 -0.37662274 -0.22706828 -0.23636028
-0.08162705 0.32249096 -0.19026488 -0.2713727 -0.19768049 0.2949362 -0.1195921 -0.052941244
0.36107135 -0.065251045 -0.049162462 0.08798948 0.17502919 0.10322621 0.46983036 -0.009542438
0.29374543 -0.10915433 0.07143037 -0.07396956 0.09609892 -0.16372195 0.14049654 -0.13065182
-0.21980192 -0.17377327 -0.0037631905 -0.17080483 -0.10360023 0.21615197 0.28933892 0.31084839
-0.102172755 0.31387413 -0.1726562 0.07932922 -0.21852155 -0.24703388 0.10592873 0.0748375
0.37611347 0.48608333 0.3441448 0.23072104 0.48335946 0.2849529 0.19862872 0.22534975
-0.14326493 0.20792192 0.027723765 0.29633135 0.057184987 0.43490988 0.14641158 0.40285745
0.53589773 0.05274192 0.108775005 -0.026775783 0.5418551 0.09771933 0.39715603 0.5713714
-0.028995946 0.14995684 -0.2956778 -0.3025947 0.30373093 0.17449106 -0.04920019 -0.2853218
