results/H6_Attention/art_daily_jumpsup/ensemble_autoencoder_weights.pth (torch, 101734 bytes, 150 tensors)

autoencoders.0.encoder.cells.0.weight_h_2 f4 [8, 8]
0.2529993 0.00053498807 0.0008420393 0.00023828931 -0.0012888145 -0.38148373 0.001265479 4.2758027e-05
-0.60738313 0.00047857725 0.00086351036 -0.30046064 -0.0007494659 0.13754676 0.087052606 9.770219e-05
-0.026120411 0.0005163082 0.25401416 4.9061553e-05 -0.0007603368 0.0005078392 0.092061885 -0.0008866162
0.04130552 0.0004095457 0.111555256 0.00040984704 -0.0011315421 -0.19148996 -0.028763 0.0005314464
0.47140905 0.00041868305 0.5043021 -0.00010243528 0.36377227 -0.00036144664 0.24613315 -0.0007878924
0.0002095655 0.0010141651 0.0010588354 0.13301848 -0.0017913381 0.0002454413 0.00053370814 -0.00018093937
0.00040758261 0.00060534844 0.0006954878 0.00045450614 -0.0015664208 0.29230642 0.00112385 -0.00015963506
0.00062132126 0.0010296452 0.00045104913 -0.368131 0.18127723 -0.25826707 0.14761588 3.5124973e-05
00000000: 2089 813e 713e 0c3a 4dbc 5c3a 4ddd 7939
00000010: 70ed a8ba d651 c3be 6ede a53a 1557 3338
00000020: 767d 1bbf 8de9 fa39 335d 623a fad5 99be
00000030: ce77 44ba 0fd9 0c3e a348 b23d 77e5 cc38
00000040: 79fa d5bc db58 073a 250e 823e 71c7 4d38
00000050: 5751 47ba 8320 053a f18a bc3d ce6b 68ba
00000060: fa2f 293d 4bb8 d639 1577 e43d bde0 d639
00000070: 4150 94ba f215 44be 62a0 ebbc c450 0b3a
00000080: 875c f13e b082 db39 f119 013f 86d2 d6b8
00000090: 5c40 ba3e 8c80 bdb9 540a 7c3e 908a 4eba
000000a0: d0be 5b39 bced 843a 9fc8 8a3a ff35 083e
000000b0: 55cb eaba 93ae 8039 8ce8 0b3a 8bba 3db9
000000c0: d0b0 d539 3fb0 1e3a 6551 363a c84a ee39
000000d0: 5c50 cdba 30a9 953e 264e 933a b663 27b9
000000e0: 2ae0 223a 29f5 863a ca7a ec39 ab7b bcbe
000000f0: bda0 393e 953b 84be 9e28 173e 2753 1338

autoencoders.0.encoder.cells.0.bias_h_2 f4 [8]
0.00059517554 0.00041388438 0.00022996805 0.00046812752 -0.00016800927 0.00022215345 0.0009289185 -0.00086598954
00000000: 8e05 1c3a 9ffe d839 9423 7139 036f f539
00000010: a52b 30b9 ddf1 6839 aa82 733a 9303 63ba

autoencoders.0.encoder.cells.0.lstm.weight_ih f4 [32, 1]
0.02892349 0.00023436508 -0.00011430035 -0.00061886763 0.00017782241 0.39208752 0.35299563 -0.00012722402
0.00015831583 0.0002075113 -0.00014055413 0.00070606207 0.31729552 0.00905197 0.14230514 7.6603155e-06
-0.46412528 -0.23810695 0.0003259148 -0.43395716 0.16628194 -0.042907834 -0.53568 -0.0007886585
-0.00024204089 0.00034900953 0.00010219046 0.00031481517 0.000118257536 0.5493361 0.093733504 -8.962984e-05
00000000: f4f0 ec3c e6bf 7539 88b4 efb8 813b 22ba
00000010: d775 3a39 b2bf c83e d8bb b43e 7067 05b9
00000020: 9501 2639 6497 5939 b661 13b9 0617 393a
00000030: 8f74 a23e b74e 143c 70b8 113e ce84 0037
00000040: d4a1 edbe 4fd2 73be 8bdf aa39 a22f debe
00000050: d045 2a3e 20c0 2fbd 5322 09bf fabd 4eba
00000060: 5bcc 7db9 44fb b639 164f d638 c70d a539
00000070: 0801 f838 4aa1 0c3f 5af7 bf3d a7f7 bbb8

autoencoders.0.encoder.cells.0.lstm.weight_hh f4 [32, 8]
-0.00047240633 -0.0003382643 -0.00095971767 -0.00031737378 -0.00058424036 -6.491887e-05 -0.00066603266 -0.0007435071
0.00014233532 8.040653e-05 -3.729645e-05 0.00023785823 -0.00019511173 0.00027444566 2.7302709e-05 -1.0972175e-05
-0.00026070097 -3.6012585e-05 3.3354612e-05 -7.926854e-05 -0.0002404841 -0.00010307854 -0.00020820218 -2.1783562e-05
0.00091011554 0.0006440734 0.00016543019 0.00032586398 -0.000121880985 0.00038499656 0.0002771445 -0.0004566115
-1.630378e-05 0.0003121289 0.00013912642 3.6794715e-06 -0.00054436957 4.8990125e-05 -5.130283e-05 0.000116382726
-0.00055573403 -0.00051900675 -0.00058681396 -0.00051518646 -0.00058990245 -0.0010160817 -0.0007308526 -0.0007073967
0.000123843 0.0007021486 0.2970448 0.036900897 -0.00012823696 0.0010672129 0.0002899868 -0.0002835364
-1.7481108e-05 -0.000134618 0.00017238285 0.00013436323 0.00019212686 0.00016929483 -9.972593e-05 5.1535477e-05
0.0006693487 -0.0005278865 -0.00089964306 0.00026751534 -0.0006161915 0.00013539713 -0.000554418 -0.00058982597
-0.00014457076 -0.000206458 9.0607115e-05 -0.00019020496 0.00012625821 -0.00015293933 -9.136273e-05 0.0001790212
6.1004584e-06 -3.1088617e-05 7.319597e-05 3.6237587e-05 -0.00031724953 -0.00013310171 -0.00024884692 1.9655015e-05
0.0003938504 2.47195e-05 0.00036297916 0.0007304661 0.2114609 -6.2187784e-05 -2.6314196e-05 0.0003491192
-3.708186e-05 0.00034485 -0.0005273834 8.208434e-05 -0.00037872203 -0.00017163032 7.750683e-05 5.544162e-06
-0.0008487945 -0.00048540707 -0.0007124765 -0.0006527636 -0.0007063548 -0.00084987626 -0.0005715545 -0.00060996064
-0.00014705572 0.21539862 3.88544e-05 -0.00031978477 0.40040278 9.7239e-05 -0.00023597949 0.2191069
5.2478852e-05 0.00014560953 -6.498304e-05 -0.000114612434 0.00010186314 -0.00022287914 7.7827855e-05 -0.00020630097
-0.30609927 -0.19446969 0.30081168 -0.017690405 -5.0779367e-05 0.01334029 -0.0068663177 -0.061754555
-0.011544201 0.00087097904 0.10083993 0.00083013444 0.0005405729 0.00055203756 0.0007883889 0.00087886374
0.16798283 0.0004648417 0.00070208864 0.118817925 -0.026130825 0.17403108 0.111210175 0.0006637769
0.09538562 0.2591118 -0.024597276 0.20642635 -0.19375888 0.17264389 0.279005 -0.0006069465
-0.00067920616 0.038784422 -0.00062063284 -0.0008514167 0.23396423 -0.0013547875 -0.0012045604 0.070309475
0.00090616604 0.01996782 -0.12963825 -0.20325978 -0.18292834 0.00037591896 0.0009364201 -0.24149378
0.122368135 0.13256107 -0.0010464366 0.1621413 -0.04713132 0.25521904 0.042506643 -0.07593461
-0.0005226652 -0.0010609819 0.1359375 -0.00053884205 0.02367084 2.1795362e-05 -0.06211533 -0.0009953358
-0.00057900936 -0.000501028 -0.00062038633 -0.0005123566 -0.000632648 7.112834e-05 -0.0007881728 -0.0008782151
7.6011784e-05 0.00024190955 -8.508364e-05 -1.1448423e-05 6.260384e-05 0.00057797856 -0.0001831304 -8.271735e-05
-0.00010913887 7.962511e-05 -0.00040662533 -0.0002287928 -0.0004663227 6.12053e-05 4.7611725e-06 -0.00058545097
0.0003348691 0.00028426727 0.0006113961 0.00056566665 0.45514733 -0.00016314373 0.0003320679 0.00021591128
3.4968878e-05 0.00035387493 4.546088e-05 -0.0002338197 -0.00011000956 -0.00011749174 -3.150279e-05 0.00060363836
-0.0007003547 -0.00072508166 -0.00043624456 -0.0006514846 -0.0006519815 -0.0010431762 -0.0009515186 -0.000594251
-0.00019803924 7.1245886e-05 0.11934397 0.00027474842 0.5994298 -5.7966943e-05 9.587932e-05 0.00054013805
-5.6812692e-05 3.6727913e-06 4.611882e-05 -8.511363e-05 -0.00010493413 9.1268215e-05 0.00017751062 -2.172855e-05
00000000: 4ead f7b9 1159 b1b9 9095 7bba 3065 a6b9
00000010: b527 19ba 0e25 88b8 b298 2eba ebe7 42ba
00000020: d93f 1539 ed9f a838 c26e 1cb8 9569 7939
00000030: e896 4cb9 79e3 8f39 1f08 e537 2215 38b7
00000040: b1ae 88b9 380c 17b8 3ee6 0b38 f93c a6b8
00000050: 762a 7cb9 df2b d8b8 d950 5ab9 d8bb b6b7
00000060: d294 6e3a 09d7 283a 5477 2d39 b9d8 aa39
00000070: 5b9a ffb8 5dd9 c939 b54d 9139 5c65 efb9
00000080: 1ac4 88b7 3ba5 a339 77e2 1139 d7ec 7636
00000090: 06b4 0eba bf7a 4d38 ff2d 57b8 8012 f438
000000a0: aeae 11ba f40d 08ba 6bd4 19ba 940d 07ba
000000b0: afa3 1aba 0b2e 85ba b096 3fba 9770 39ba
000000c0: dadb 0139 6510 383a 4216 983e 6525 173d
000000d0: 5977 06b9 b9e1 8b3a 5f09 9839 9da7 94b9
000000e0: 65a4 92b7 3f28 0db9 abc1 3439 dbe3 0c39
000000f0: a975 4939 bc84 3139 f323 d1b8 cc27 5838
00000100: 3b77 2f3a dd61 0aba 06d6 6bba 4d41 8c39
00000110: e987 21ba 64f9 0d39 5d56 11ba 8d9e 1aba
00000120: eb97 17b9 a67c 58b9 5304 be38 c171 47b9
00000130: 2e64 0439 575e 20b9 fe99 bfb8 a3b7 3b39
00000140: 8ab2 cc36 2665 02b8 ca80 9938 d0fd 1738
00000150: 8354 a6b9 3891 0bb9 ab77 82b9 d3e0 a437
00000160: b57d ce39 b95c cf37 3d4e be39 c07c 3f3a
00000170: 3589 583e d06a 82b8 4ebd dcb7 fc09 b739
00000180: 5888 1bb8 fccc b439 1a40 0aba b224 ac38
00000190: 368f c6b9 aaf7 33b9 2a8b a238 fd07 ba36
000001a0: a281 5eba 3c7e feb9 7dc5 3aba 391e 2bba
000001b0: ab2a 39ba 3bca 5eba 60d4 15ba c4e5 1fba
000001c0: f832 1ab9 7591 5c3e 98f7 2238 c9a8 a7b9
000001d0: 9801 cd3e caec cb38 4371 77b9 8f5d 603e
000001e0: bd1c 5c38 c3ae 1839 8147 88b8 155c f0b8
000001f0: 5b9f d538 aab4 69b9 8337 a338 7f52 58b9
00000200: 0bb9 9cbe 1023 47be fd03 9a3e 78eb 90bc
00000210: eefb 54b8 3b91 5a3c d9fe e0bb 58f2 7cbd
00000220: e323 3dbc 6a52 643a 2a85 ce3d 619d 593a
00000230: 3cb5 0d3a 9db6 103a e2ab 4e3a 8c63 663a
00000240: b103 2c3e ffb5 f339 5f0c 383a d056 f33d
00000250: 5010 d6bc 3435 323e 29c2 e33d 5001 2e3a
00000260: 8959 c33d 4daa 843e 3a80 c9bc 6e61 533e
00000270: ba68 46be 8fc9 303e bed9 8e3e 7d1b 1fba
00000280: c10c 32ba 6adc 1e3d f7b1 22ba 9c31 5fba
00000290: 5294 6f3e 2093 b1ba 57e2 9dba 6afe 8f3d
000002a0: c68b 6d3a 8e93 a33c e4bf 04be 5523 50be
000002b0: 9151 3bbe fd16 c539 177a 753a 254a 77be
000002c0: 259c fa3d 17be 073e 9628 89ba 5e08 263e
000002d0: c50c 41bd 12ac 823e 721b 2e3d 9b83 9bbd
000002e0: 7803 09ba a510 8bba 3333 0b3e 1441 0dba
000002f0: 59e9 c13c 2fd5 b637 a56c 7ebd ed75 82ba
00000300: a9c8 17ba 6b57 03ba 6ca1 22ba ab4f 06ba
00000310: 4ad8 25ba bd2a 9538 629d 4eba 0538 66ba
00000320: 8468 9f38 1aa9 7d39 ee6e b2b8 9a12 40b7
00000330: 2e4a 8338 7c83 173a b106 40b9 8a78 adb8
00000340: 7ce1 e4b8 68fc a638 5430 d5b9 19e8 6fb9
00000350: c67c f4b9 585b 8038 29c2 9f36 f378 19ba
00000360: 5f91 af39 b509 9539 1946 203a 3f49 143a
00000370: 1209 e93e 9011 2bb9 6619 ae39 3e66 6239
00000380: 8cab 1238 4a88 b939 40ad 3e38 7f2d 75b9
00000390: efb4 e6b8 e665 f6b8 dd21 04b8 7c3d 1e3a
000003a0: 0298 37ba 6813 3eba c1b7 e4b9 64c8 2aba
000003b0: bde9 2aba 2fbb 88ba 556f 79ba 82c7 1bba
000003c0: c1a8 4fb9 d869 9538 9d6a f43d 1c0c 9039
000003d0: 3b74 193f 8821 73b8 d112 c938 0d98 0d3a
000003e0: 2a4a 6eb8 137a 7636 b56f 4138 087f b2b8
000003f0: 1510 dcb8 4067 bf38 2522 3a39 b545 b6b7

autoencoders.0.encoder.cells.0.lstm.bias_ih f4 [32]
-0.00022254766 8.034765e-05 0.00069717114 0.11516327 -0.0006912227 -0.0006024884 0.16732384 0.00042678442
0.005425281 -0.00012378633 0.00052581046 0.20672439 -0.00044021968 -0.00037313884 0.3323224 -7.053206e-05
0.00023297413 0.00072524825 0.0011681471 -0.022313606 0.03340868 -0.061894152 0.0047030617 -0.00042846642
-0.0001245528 4.142021e-06 0.00029068402 0.12887634 -0.00048240187 -0.00048495858 0.33805418 -0.00037076394
00000000: af5b 69b9 5180 a838 5dc2 363a b8da eb3d
00000010: 2c33 35ba 50f0 1dba f156 2b3e 09c2 df39
00000020: 8ec6 b13b a4cc 01b9 8bd6 093a 8faf 533e
00000030: 49cd e6b9 d9a1 c3b9 2926 aa3e 9dea 93b8
00000040: 844a 7439 961e 3e3a 831c 993a 06cb b6bc
00000050: 8ad7 083d b984 7dbd 241c 9a3b caa3 e0b9
00000060: 639a 02b9 b1fb 8a36 f366 9839 29f8 033e
00000070: e2ea fcb9 0a42 feb9 7015 ad3e 1863 c2b9

autoencoders.0.encoder.cells.0.lstm.bias_hh f4 [32]
-0.00022254766 8.034765e-05 0.00069717114 0.11516327 -0.0006912227 -0.0006024884 0.16732384 0.00042678442
0.005425281 -0.00012378633 0.00052581046 0.20672439 -0.00044021968 -0.00037313884 0.3323224 -7.053206e-05
0.00023297413 0.00072524825 0.0011681471 -0.022313606 0.03340868 -0.061894152 0.0047030617 -0.00042846642
-0.0001245528 4.142021e-06 0.00029068402 0.12887634 -0.00048240187 -0.00048495858 0.33805418 -0.00037076394
00000000: af5b 69b9 5180 a838 5dc2 363a b8da eb3d
00000010: 2c33 35ba 50f0 1dba f156 2b3e 09c2 df39
00000020: 8ec6 b13b a4cc 01b9 8bd6 093a 8faf 533e
00000030: 49cd e6b9 d9a1 c3b9 2926 aa3e 9dea 93b8
00000040: 844a 7439 961e 3e3a 831c 993a 06cb b6bc
00000050: 8ad7 083d b984 7dbd 241c 9a3b caa3 e0b9
00000060: 639a 02b9 b1fb 8a36 f366 9839 29f8 033e
00000070: e2ea fcb9 0a42 feb9 7015 ad3e 1863 c2b9

autoencoders.0.decoder.cells.0.weight_h_2 f4 [8, 8]
0.00036961373 -0.0017338946 0.15151353 0.000440016 -2.4376805e-05 -0.07011373 -0.0006198979 -0.30577263
-0.000510368 -0.062033672 -0.0034206654 0.0011357226 -0.0007207919 0.076034725 -0.0015942269 -0.00086251675
-0.00036956795 0.14514454 0.19287297 0.00044208468 -0.0608159 -0.22852172 -0.00124519 -0.23758769
8.282456e-05 -0.27855068 -0.10201583 -0.00023270093 0.00015088465 0.08780772 3.6420563e-05 -0.28198022
0.00015143899 -0.1021617 0.00042824424 -0.00019748393 0.00017877707 -0.014250593 -0.12763613 -0.00088431087
-0.28122303 0.017853547 0.0001244922 0.00012847887 -0.0041827317 0.071094126 -0.0008144327 -0.07659654
0.4282062 -0.27199376 -0.37745553 -0.0003666706 -0.51657313 -0.3134323 -0.0012867777 -0.0006618365
-0.30751354 -0.0019144737 -0.0005605827 0.0009201385 0.00052185834 -0.0014918508 -0.040837254 -0.00089937454
00000000: b7c8 c139 d943 e3ba 5d26 1b3e f3b1 e639
00000010: ca7c ccb7 ca97 8fbd a580 22ba 3b8e 9cbe
00000020: 37ca 05ba 0517 7ebd 3e2d 60bb 87dc 943a
00000030: 87f3 3cba 18b8 9b3d 61f5 d0ba 851a 62ba
00000040: 92c2 c1b9 c5a0 143e 7e80 453e 9ac7 e739
00000050: 181a 79bd 9901 6abe a535 a3ba 304a 73be
00000060: 19b2 ad38 329e 8ebe aded d0bd 2e01 74b9
00000070: ca36 1e39 89d4 b33d 48c2 1838 b65f 90be
00000080: 98cb 1e39 273a d1bd f885 e039 b013 4fb9
00000090: 1b76 3b39 527b 69bc 0cb3 02be 19d1 67ba
000000a0: 77fc 8fbe 9a41 923c 1f8a 0239 49b8 0639
000000b0: 4c0f 89bb cc99 913d a77f 55ba a6de 9cbd
000000c0: d83d db3e c442 8bbe da41 c1be b23d c0b9
000000d0: 233e 04bf 337a a0be 18a9 a8ba 187f 2dba
000000e0: 6a72 9dbe 14ef faba 11f4 12ba 7335 713a
000000f0: 52cd 083a 358a c3ba f744 27bd 01c4 6bba

autoencoders.0.decoder.cells.0.bias_h_2 f4 [8]
-0.0008200648 -0.07148298 -0.056992166 0.0008574247 -0.009605749 -0.12356591 -0.0032417849 -0.0013936496
00000000: 9ef9 56ba ab65 92bd 9e70 69bd ccc4 603a
00000010: 6e61 1dbc 2010 fdbd 2074 54bb 1fab b6ba

autoencoders.0.decoder.cells.0.lstm.weight_ih f4 [32, 1]
-4.281847e-05 0.27775475 0.00081534893 -0.00018352819 0.0005405756 0.0004800526 0.00011455926 0.24840419
0.0005869701 0.0014253614 -0.0009229502 0.00022704391 -0.0008218747 -0.0013951757 0.00017693524 0.00021282342
-0.4363729 0.57372344 -0.8874325 0.00036765798 -0.94289964 0.7671225 0.13692187 0.23861094
0.14146197 0.50088555 0.0006345388 0.00019454568 0.0011628973 0.0011493136 0.017976712 0.24742289
00000000: fb97 33b8 df35 8e3e 24bd 553a 7971 40b9
00000010: 6ab5 0d3a 92af fb39 893f f038 ab5d 7e3e
00000020: e6de 193a 31d3 ba3a 24f2 71ba a312 6e39
00000030: 1473 57ba 54de b6ba b187 3939 5a29 5f39
00000040: 456c dfbe 8adf 123f c72e 63bf 38c2 c039
00000050: df61 71bf 2462 443f 3f35 0c3e 6d56 743e
00000060: 68db 103e 093a 003f 2e57 263a f5fe 4b39
00000070: 5c6c 983a 91a4 963a e643 933c 6d5c 7d3e

autoencoders.0.decoder.cells.0.lstm.weight_hh f4 [32, 8]
0.00013506951 0.0005998217 0.00023893751 0.00014097986 1.9112051e-06 0.00014467163 -4.032713e-05 0.00016748007
3.7095906e-05 0.0013268017 0.03913845 0.00015336355 9.3885676e-05 -0.00029029604 0.00012519112 0.00078254304
0.023907376 -0.0001056799 0.001752274 6.830953e-05 0.00082076417 0.00025237622 0.00014111277 0.00046075913
-8.757883e-05 -8.706712e-05 1.0357405e-05 1.8849498e-05 0.000423156 0.00030324646 5.1167128e-05 2.1868773e-05
0.00036860825 -0.00026282555 0.00019166006 -0.0004686605 -0.00043310042 0.0011903185 -3.970644e-05 0.00031280896
0.0008889642 0.11638189 0.20393753 -7.805427e-05 -0.0002468688 0.00030327582 0.00039237074 0.2201653
0.0007444146 -9.644218e-05 -2.4614154e-05 -8.2342114e-05 0.00011519872 0.000539783 0.0006933418 0.000534127
-0.0003983215 -0.00041775938 -0.0003860046 -0.00031454896 -0.00023604489 -0.00069727603 -0.00074587396 0.041020043
-3.5633402e-05 -6.490235e-05 -0.00014478149 0.00044248826 -7.491471e-05 -1.8072413e-05 3.2819353e-06 0.00010523763
-0.0005285737 -0.0001886198 -0.00031619065 -0.0006603638 -9.1442365e-05 0.3395205 -0.0007712743 -0.00082458026
0.0004096622 2.0836374e-05 -0.00048573717 -4.3317633e-07 -0.00015452028 2.0309233e-05 -0.00022421376 5.987834e-05
-0.0001411549 0.00026122693 -2.7681055e-05 6.044502e-05 0.000120631405 -0.00014965449 -0.0001586409 4.661009e-06
-3.868962e-05 -9.05079e-05 -0.00018136355 -0.00021919693 0.00044913337 -0.0004335999 -0.00040686026 -0.0004115401
-0.000264256 -0.0005041418 -0.0001823626 -7.9463265e-05 0.00011693161 -0.0013689891 -0.00044061392 -3.2923905e-05
0.00042062945 0.00012479648 0.00043854216 -9.7152406e-05 0.0006839878 4.8440976e-05 0.00036496777 0.0007170816
-0.0005665016 0.23774101 -0.0007211396 -0.00061736116 -0.0011434094 -0.00090292457 -0.0008220742 -0.0007523782
0.14911245 -0.16503601 -0.027240058 0.033660304 0.002116916 0.00074307737 0.0012984297 0.00086727587
-0.042368796 0.25622723 -0.12965575 -0.07187235 0.20016941 0.062346525 -0.3008771 0.2648506
0.0020259523 -0.08446072 0.000960639 0.16760398 0.4058112 -0.004642643 0.009014328 0.0035153616
0.00082075235 0.001711546 0.00073248777 0.0007934744 0.00093501183 0.0014543661 0.0010982123 -0.026750106
0.017234083 0.004668164 0.07297287 -0.07386894 0.036381274 0.0050522173 0.15571114 0.015770813
-0.21663311 0.115061104 -0.275581 -0.15743385 -0.16411923 0.03464096 0.07448223 0.1330765
-0.00053365564 0.25043464 -0.00071736355 -0.00019806142 0.098945044 0.079968244 0.105744116 -5.9755894e-05
-0.0009333767 -0.00045135448 0.21361324 0.25735465 -0.39790264 0.42439052 0.019949626 0.044367943
0.00016089114 8.111399e-05 0.00030125355 -8.231414e-05 9.2717704e-07 -0.0002248734 6.503872e-05 7.5241864e-05
0.0002927503 0.046418846 0.00044379669 0.0004176636 -0.00047240604 0.045133047 0.0002702904 -0.0015758282
0.002133782 0.15603039 0.16392243 4.0245668e-05 0.0013814839 0.00075547816 0.0010906748 0.0014668839
0.00011138591 -0.00013003375 7.789181e-05 -0.00014330506 0.00015448018 -0.00019533356 5.874916e-05 0.0002050735
0.00063630455 -6.7749395e-05 -0.00047943642 0.00067107944 -0.00021933367 0.0010998844 5.6522982e-05 0.0009657089
0.00033102196 0.27070054 -0.00044159385 -8.675597e-06 0.00036473476 -9.868492e-05 0.09388132 0.30629715
8.3740284e-05 -7.1334754e-05 7.5034695e-05 0.00054932776 0.00010607371 -5.365825e-06 0.00030772516 0.0006553417
-0.00068535504 0.052220453 -7.2936855e-05 -0.0003478247 -0.0002365786 -0.0004507918 -0.0007183999 -0.00064673624
00000000: 72a1 0d39 5a3d 1d3a 4d8b 7a39 fed3 1339
00000010: 4142 0036 ffb2 1739 ed24 29b8 979d 2f39
00000020: 6d97 1b38 14e8 ad3a a44f 203d 37d0 2039
00000030: 7de4 c438 e032 98b9 bc45 0339 9323 4d3a
00000040: 67d9 c33c 77a0 ddb8 8fac e53a 6641 8f38
00000050: 8d28 573a 5d51 8439 acf7 1339 0b92 f139
00000060: 87aa b7b8 ce97 b6b8 b7c4 2d37 fd1e 9e37
00000070: 09db dd39 0dfd 9e39 499c 5638 d572 b737
00000080: c341 c139 d9cb 89b9 5bf8 4839 8cb6 f5b9
00000090: c111 e3b9 7604 9c3a 778a 26b8 8200 a439
000000a0: 6109 693a a159 ee3d 00d5 503e 11b1 a3b8
000000b0: 2b6e 81b9 fe00 9f39 1cb7 cd39 0373 613e
000000c0: d124 433a 0041 cab8 7e7a ceb7 16af acb8
000000d0: d896 f138 3980 0d3a 61c1 353a a804 0c3a
000000e0: cfd5 d0b9 b706 dbb9 a960 cab9 0cea a4b9
000000f0: d182 77b9 67c9 36ba c186 43ba a204 283d
00000100: 1375 15b8 2f1c 88b8 7cd0 17b9 c5fd e739
00000110: 871b 9db8 369a 97b7 383f 5c36 06b3 dc38
00000120: fb8f 0aba 3ec8 45b9 64c6 a5b9 441c 2dba
00000130: bfc4 bfb8 a2d5 ad3e 582f 4aba a528 58ba
00000140: eec7 d639 c6c9 ae37 8aaa feb9 4d8f e8b4
00000150: b906 22b9 bf5d aa37 ec1a 6bb9 e125 7b38
00000160: fb02 14b9 49f5 8839 9d34 e8b7 5986 7d38
00000170: 7efb fc38 92ec 1cb9 d858 26b9 c365 9c36
00000180: aa46 22b8 0fcf bdb8 682c 3eb9 3ad8 65b9
00000190: a979 eb39 cb54 e3b9 dc4f d5b9 fac3 d7b9
000001a0: d78b 8ab9 6228 04ba 9638 3fb9 84a5 a6b8
000001b0: 2e39 f538 a76f b3ba 3302 e7b9 c617 0ab8
000001c0: ee87 dc39 cddb 0239 22ec e539 4dbe cbb8
000001d0: a54d 333a 1a2d 4b38 2559 bf39 88fa 3b3a
000001e0: 4781 14ba 6172 733e dc0a 3dba 68d6 21ba
000001f0: 74de 95ba 3eb2 6cba 7780 57ba 3f3b 45ba
00000200: efb0 183e 33ff 28be 8b26 dfbc 63df 093d
00000210: f5bb 0a3b 14cb 423a 1230 aa3a e659 633a
00000220: e78a 2dbd 3730 833e 7ac4 04be d031 93bd
00000230: 36f9 4c3e 125f 7f3d 900c 9abe 7f9a 873e
00000240: d7c5 043b bef9 acbd 64d3 7b3a 61a0 2b3e
00000250: 7cc6 cf3e 5021 98bb d5b0 133c fb61 663b
00000260: c227 573a f455 e03a 6c04 403a 2a01 503a
00000270: 951b 753a 6ea0 be3a e4f1 8f3a 0a23 dbbc
00000280: 7e2e 8d3c 66f7 983b cd72 953d 9948 97bd
00000290: 8804 153d 128d a53b be72 1f3e cb31 813c
000002a0: 12d5 5dbe 28a5 eb3d f418 8dbe 5736 21be
000002b0: df0e 28be aee3 0d3d 248a 983d 3545 083e
000002c0: 06e5 0bba f838 803e 740d 3cba b5ae 4fb9
000002d0: b3a3 ca3d 64c6 a33d 5f90 d83d 67a2 7ab8
000002e0: daad 74ba c6a3 ecb9 6ebd 5a3e fdc3 833e
000002f0: e5b9 cbbe b749 d93e 666d a33c 29bb 353d
00000300: e3b4 2839 be1b aa38 91f1 9d39 11a0 acb8
00000310: 1fe3 7835 fecb 6bb9 6665 8838 2bcb 9d38
00000320: 487c 9939 b021 3e3d 62ad e839 dcf9 da39
00000330: 44ad f7b9 6edd 383d c3b5 8d39 058c ceba
00000340: ecd6 0b3b 6ec6 1f3e 48db 273e 75cd 2838
00000350: e812 b53a 480b 463a f9f4 8e3a 7544 c03a
00000360: db97 e938 ab59 08b9 d959 a338 2944 16b9
00000370: f5fb 2139 74d2 4cb9 6e69 7638 0009 5739
00000380: adcd 263a ae14 8eb8 de5c fbb9 61eb 2f3a
00000390: effc 65b9 ff29 903a 1713 6d38 a127 7d3a
000003a0: 048d ad39 4399 8a3e b985 e7b9 688d 11b7
000003b0: df39 bf39 10f5 ceb8 d944 c03d fbd2 9c3e
000003c0: b99d af38 8e99 95b8 f25b 9d38 c300 103a
000003d0: e473 de38 160c b4b6 2c56 a139 3dcb 2b3a
000003e0: 66a9 33ba 1de5 553d adf5 98b8 3e5c b6b9
000003f0: 1612 78b9 4058 ecb9 0053 3cba bc89 29ba

autoencoders.0.decoder.cells.0.lstm.bias_ih f4 [32]
0.0005468365 0.2394544 0.4523874 -6.845705e-06 0.45876396 0.35609004 -0.00035479528 -0.00011935349
-0.0002449176 0.057568125 0.17359732 -0.00012481574 0.007564708 0.09709106 -0.0008632008 -0.00025424705
0.029335529 -0.030852456 0.07344792 0.0011037051 0.08467623 -0.0012456853 0.023213508 2.9771953e-05
-0.000581093 0.2714756 0.47390833 -0.00019533839 0.47379568 0.38917208 -0.00024154592 -0.00022299693
00000000: 9459 0f3a 8933 753e 529f e73e 28b4 e5b6
00000010: 1ce3 ea3e 6f51 b63e d103 bab9 6b4d fab8
00000020: 4968 80b9 8ecc 6b3d 7fc3 313e f8e0 02b9
00000030: 5fe1 f73b add7 c63d 6d48 62ba 764c 85b9
00000040: 1051 f03c 4abe fcbc dd6b 963d 33aa 903a
00000050: bb6a ad3d 4346 a3ba 412a be3c c8be f937
00000060: 7e54 18ba dafe 8a3e 1da4 f23e c0d3 4cb9
00000070: 5995 f23e 9041 c73e 7d47 7db9 48d4 69b9

autoencoders.0.decoder.cells.0.lstm.bias_hh f4 [32]
0.0005468365 0.2394544 0.4523874 -6.845705e-06 0.45876396 0.35609004 -0.00035479528 -0.00011935349
-0.0002449176 0.057568125 0.17359732 -0.00012481574 0.007564708 0.09709106 -0.0008632008 -0.00025424705
0.029335529 -0.030852456 0.07344792 0.0011037051 0.08467623 -0.0012456853 0.023213508 2.9771953e-05
-0.000581093 0.2714756 0.47390833 -0.00019533839 0.47379568 0.38917208 -0.00024154592 -0.00022299693
00000000: 9459 0f3a 8933 753e 529f e73e 28b4 e5b6
00000010: 1ce3 ea3e 6f51 b63e d103 bab9 6b4d fab8
00000020: 4968 80b9 8ecc 6b3d 7fc3 313e f8e0 02b9
00000030: 5fe1 f73b add7 c63d 6d48 62ba 764c 85b9
00000040: 1051 f03c 4abe fcbc dd6b 963d 33aa 903a
00000050: bb6a ad3d 4346 a3ba 412a be3c c8be f937
00000060: 7e54 18ba dafe 8a3e 1da4 f23e c0d3 4cb9
00000070: 5995 f23e 9041 c73e 7d47 7db9 48d4 69b9

autoencoders.0.decoder.output_layer.weight f4 [1, 16]
-0.107545525 0.26253018 -0.23099911 0.017568087 -0.20382898 0.2638736 0.15372345 0.14926484
-0.20984904 -0.027159372 -0.11003048 -0.2512078 0.019073334 -0.08455773 -0.33906594 -0.027014079
00000000: d440 dcbd 5b6a 863e 088b 6cbe f3ea 8f3c
00000010: 8bb8 50be 711a 873e ae69 1d3e e2d8 183e
00000020: abe2 56be 557d debc a957 e1bd 4f9e 80be
00000030: ae3f 9c3c 9a2c adbd 0d9a adbe a14c ddbc

autoencoders.0.decoder.attention.weight f4 [8, 16]
8.4980784e-05 4.68132e-05 0.00018141033 -2.712839e-05 -0.00026169975 0.000101581274 -6.1242165e-05 0.00017585575
-0.029894842 0.0014612811 0.006208964 -0.14615266 0.0026206013 0.00026654036 -0.28254035 5.552965e-06
-0.00014329527 6.7913614e-05 0.00020846007 0.00016056937 4.786178e-07 4.6998688e-05 -6.971889e-05 0.000116875424
-0.094642766 0.0017741978 -8.071616e-05 -0.01361366 0.003078117 0.00043827711 -0.093945235 7.237382e-05
-5.1707724e-05 -4.4317123e-05 0.000310007 0.0002901579 0.000342681 0.00014193502 -0.00016515929 1.4807958e-05
-0.046302937 0.0019289637 -0.027029237 -0.0816785 0.002468749 0.0005030772 -0.12251206 -0.0003283447
0.00013330081 -2.5819349e-05 8.955833e-05 -5.1851162e-05 -3.5037672e-05 0.00016495581 -0.000104860075 -4.721683e-05
-0.00027145006 0.0014266116 -0.00015611244 0.0007223207 0.00249661 0.0009470845 -0.39294243 -0.00012231039
-0.00015630391 -0.00016976269 0.0003089395 -7.073766e-05 7.174884e-06 0.00020648933 0.00021506399 5.119883e-05
-0.00043016096 0.0014861986 -0.0001296679 -0.20655549 0.002811063 0.0006502655 -0.058253422 -5.5140383e-05
-7.5075404e-05 4.6056248e-05 -0.00020498587 -0.00018152842 0.00019265743 -9.300373e-05 -0.0001542062 2.4679088e-05
-0.10639274 0.0018779115 -0.0002032392 0.0007163593 0.0027884191 0.00040833777 -0.27264068 -0.00019140504
0.00010942881 8.069761e-05 -9.2053735e-05 0.0001395616 0.00022018714 0.0002809465 8.904555e-05 -4.559665e-05
-0.0004882141 0.0019756823 0.00026626364 -0.02908023 0.002836707 0.00064380676 -0.0089044925 -0.00013612355
6.559499e-05 -0.00021849292 -9.8322605e-05 -4.3232118e-05 -0.00020552755 -1.0395841e-05 -0.00014287932 -0.00025823046
-0.00038506152 0.0018808591 -0.00015331837 -0.065754525 0.0028612576 0.00016954768 -0.011266261 -0.000586875
00000000: b637 b238 4a59 4438 f738 3e39 c691 e3b7
00000010: bf34 89b9 0808 d538 236f 80b8 eb65 3839
00000020: 07e6 f4bc 7588 bf3a 9174 cb3b 0ba9 15be
00000030: 65be 2b3b 71be 8b39 21a9 90be 9b53 ba36
00000040: 8841 16b9 d86c 8e38 1396 5a39 835e 2839
00000050: 5d7a 0035 7520 4538 0b36 92b8 041b f538
00000060: 11d4 c1bd 338c e83a 2946 a9b8 d40b 5fbc
00000070: 3cba 493b 8fc8 e539 5c66 c0bd 66c7 9738
00000080: bfe0 58b8 26e1 39b8 6f88 a239 5620 9839
00000090: dea9 b339 64d4 1439 9c2e 2db9 b26f 7837
000000a0: 26a8 3dbd 48d5 fc3a 6b6c ddbc 0f47 a7bd
000000b0: bcca 213b f0e0 033a 9ae7 fabd ae25 acb9
000000c0: aac6 0b39 a196 d8b7 43d1 bb38 c37a 59b8
000000d0: 6af5 12b8 fdf7 2c39 53e8 dbb8 af0a 46b8
000000e0: 6951 8eb9 24fd ba3a 1db2 23b9 1f5a 3d3a
000000f0: 2a9e 233b c445 783a c02f c9be 7240 00b9
00000100: 83e5 23b9 5302 32b9 28f9 a139 fe58 94b8
00000110: c9bf f036 0f85 5839 cd82 6139 53be 5638
00000120: 3a87 e1b9 8dcc c23a 76f7 07b9 4883 53be
00000130: d039 383b 9476 2a3a 249b 6ebd 8946 67b8
00000140: cd71 9db8 852c 4138 7af1 56b9 aa58 3eb9
00000150: 1604 4a39 ff0a c3b8 69b2 21b9 f005 cf37
00000160: 70e4 d9bd 4124 f63a 9b1c 55b9 0fca 3b3a
00000170: e9bd 363b 2b16 d639 8f97 8bbe e6b3 48b9
00000180: 257d e538 333c a938 f90c c1b8 4857 1239
00000190: 09e2 6639 004c 9339 f7bd ba38 083f 3fb8
000001a0: fdf6 ffb9 737a 013b 4d99 8b39 aa39 eebc
000001b0: 0ce8 393b 24c5 283a 26e4 11bc 63bc 0eb9
000001c0: 0b90 8938 3f1b 65b9 8c32 ceb8 2254 35b8
000001d0: e282 57b9 cc69 2eb7 e0d1 15b9 1b63 87b9
000001e0: 15e2 c9b9 2987 f63a 16c4 20b9 4faa 86bd
000001f0: f083 3b3b 9cc8 3139 2096 38bc 84d8 19ba

autoencoders.0.decoder.attention.bias f4 [8]
-0.0011468477 0.0001362181 -0.00016989534 -0.00061062543 1.7321303e-05 -3.3148535e-05 0.00014493022 7.609865e-05
00000000: d351 96ba c5d5 0e39 ef25 32b9 6112 20ba
00000010: 374d 9137 f808 0bb8 69f8 1739 2797 9f38

autoencoders.1.encoder.cells.0.weight_h_2 f4 [8, 8]
0.0053643 0.001156885 -0.0010310352 0.000853783 0.00029136866 0.0010860057 0.015250244 -0.11772836
-0.0008221823 0.00014214069 -0.00083515316 0.0006858211 0.00025900404 0.0007928117 0.37103137 0.05466417
-0.0011557223 0.00053700333 -0.17898647 0.09656789 -0.00019687445 0.0008536268 -0.19548877 -0.0008338231
-0.0010246575 -0.00048599913 -0.0005104236 0.00021945703 -0.00010573965 0.7422046 -0.50634027 -0.054313734
-0.0010580233 -0.00047900184 0.1268971 0.0007512904 1.1852677e-05 -0.38972616 0.0004129261 -0.00033074027
-0.0011426432 -0.0001130853 -0.11768159 0.0009200051 -0.00011749384 0.00022900909 -0.48652548 -0.31218696
-0.0014272375 -0.0006964721 -0.0005071594 0.0008778113 -3.0459682e-05 0.00029914465 -0.31003925 -0.0006840828
-0.0006018989 0.000118153715 0.32501474 -0.00049533206 -5.8877948e-05 0.00051966484 0.00045894462 -0.000782511
00000000: 03c7 af3b 9ea2 973a cd23 87ba 68d0 5f3a
00000010: d7c2 9839 4e58 8e3a 29dc 793c 911b f1bd
00000020: b887 57ba 9a0b 1539 2eee 5aba adc8 333a
00000030: efca 8739 b1d4 4f3a d3f7 bd3e 89e7 5f3d
00000040: 9b7b 97ba afc5 0c3a 3b48 37be 63c5 c53d
00000050: 1570 4eb9 edc5 5f3a 352e 48be ec94 5aba
00000060: cd4d 86ba b3cd feb9 f3cd 05ba 0c1e 6639
00000070: 8bc0 ddb8 1f01 3e3f 849f 01bf 1478 5ebd
00000080: 5fad 8aba 8a22 fbb9 50f1 013e 3ff2 443a
00000090: dcda 4637 308a c7be 017e d839 3567 adb9
000000a0: bec4 95ba 3528 edb8 0c03 f1bd 7f2c 713a
000000b0: 0667 f6b8 2922 7039 de19 f9be f8d6 9fbe
000000c0: 2512 bbba 7493 36ba e4f2 04ba eb1c 663a
000000d0: ab83 ffb7 84d6 9c39 77bd 9ebe 0554 33ba
000000e0: c0c8 1dba 4bc9 f738 5568 a63e 2cd9 01ba
000000f0: b7f3 76b8 1e3a 083a 819e f039 6d21 4dba

autoencoders.1.encoder.cells.0.bias_h_2 f4 [8]
-0.00090042007 0.00093043724 -0.0005601799 0.00038522153 0.00043808296 0.00023008774 -8.264258e-06 -0.0006033339
00000000: 2b0a 6cba 96e8 733a 09d9 12ba 8ff7 c939
00000010: 80ae e539 b543 7139 b8a6 0ab7 0d29 1eba

autoencoders.1.encoder.cells.0.lstm.weight_ih f4 [32, 1]
0.00033511495 0.00012345126 -5.2398595e-05 1.5343487e-05 0.000159488 -8.393796e-05 0.0004948189 -0.029535532
0.00014724184 -5.2807303e-07 -4.8293834e-05 -3.5079618e-05 6.5028515e-05 -0.00036002084 0.00011662989 -0.0006351407
0.10055831 -0.00012699346 0.13451017 -0.1357999 2.1858514e-05 -0.25521415 -0.14921172 0.029112583
6.7215035e-05 0.00011680578 0.10503341 -0.00021358926 4.3623964e-05 -9.994637e-05 0.00015269386 2.9810499e-05
00000000: 5eb2 af39 b272 0139 90c6 5bb8 e3b5 8037
00000010: 3c3c 2739 d907 b0b8 bcb6 013a 80f4 f1bc
00000020: ee64 1a39 e7c0 0db5 1c8f 4ab8 7422 13b8
00000030: eb5f 8838 2ec1 bcb9 3297 f438 927f 26ba
00000040: 84f1 cd3d 8c29 05b9 09bd 093e 210f 0bbe
00000050: cd5c b737 6eab 82be f5ca 18be 837d ee3c
00000060: ccf5 8c38 a0f5 f438 c21b d73d eef6 5fb9
00000070: e0f8 3638 4c9a d1b8 721c 2039 8f11 fa37

autoencoders.1.encoder.cells.0.lstm.weight_hh f4 [32, 8]
0.00012345209 -9.620701e-06 3.3320255e-05 4.8335314e-05 0.00014860983 -8.882873e-06 -0.0001895975 -0.00019146087
6.4956446e-05 -0.00017738517 0.00029569087 -0.00030118544 -0.0001634322 1.680728e-05 -2.1252783e-05 -3.8694878e-05
-0.0005240397 -0.00068649446 -0.0007998144 -0.00045536508 -0.00069920585 -0.00031983285 7.065617e-05 -0.0008489111
-0.00015278367 -9.147998e-05 4.4911347e-05 -9.561742e-05 0.00033538992 -4.7728834e-05 -0.00011804894 -7.051728e-05
-9.750164e-05 0.00017517741 -0.00014157697 -0.00013105477 -7.3565985e-05 7.19458e-05 0.00014559797 -1.8324301e-05
-0.00015202031 -0.00017006256 1.9638232e-05 0.00011625117 0.00013787532 3.9541337e-05 3.5855e-05 -2.9229743e-05
0.00019658661 0.00049447874 -0.00045808722 -0.0014405416 0.00032815026 0.00044435944 -0.00030185908 -0.00085871096
-0.16688809 0.00081709283 0.00044280096 9.767524e-05 0.00027248584 0.00046928631 0.00030028142 0.00016086988
-5.1740702e-05 0.00018260219 0.00036529033 0.00034428577 6.936994e-05 -0.00014679077 -0.00012364506 5.4230186e-05
2.3220424e-05 -8.0326485e-05 -0.00015575354 -0.00010843748 -2.5091484e-05 0.00011576776 -9.877401e-05 -0.0001118788
-0.00037890152 -0.00071478606 -0.0010347397 -0.0003461184 -0.0009569545 -0.0009093363 0.0003862333 -0.0008637875
6.0058977e-05 -6.9325455e-05 -3.44748e-05 -0.00037854374 0.00030335732 0.00016188293 6.4669504e-05 -0.00016214431
7.646431e-05 8.735804e-05 9.1178765e-05 -1.2216541e-05 3.0380956e-05 -7.072333e-05 0.00011701668 -0.00015768842
-2.5744392e-05 -0.00022051769 -0.0003818584 -9.863981e-05 1.5394435e-06 -0.00012274836 -9.580259e-05 4.7160353e-05
0.0002930316 0.00022379155 -0.000740662 0.00039290392 0.00027498318 0.00029765538 -0.000103574996 -5.2201132e-05
4.1289808e-05 -0.0003546475 0.00023179775 0.00012784747 0.0005427862 -1.2641821e-05 0.00018739722 -1.0524509e-05
-0.0005884201 -0.0007436977 -0.0005954335 -0.0008862879 -0.00072996516 -0.0005126061 -0.00068536086 -0.0006847366
0.0006255881 0.00074947526 0.0007219779 0.00151971 0.0010225828 0.00073896174 -5.3017928e-05 0.0010627052
-0.0013713829 0.0878648 0.31936836 -0.081720516 -0.0012607534 0.23519097 -0.027390676 0.07942682
0.00051539193 0.0006120911 0.00033384215 0.0005756335 0.00021829172 -0.008421396 0.0002752543 0.00039194967
-6.0788785e-05 9.291119e-05 -1.0775372e-05 7.451362e-05 -0.00015417249 -0.0002562032 0.0005183275 -3.5360865e-06
0.117210574 0.0009942838 0.004528345 0.0011358578 0.26574448 -0.14214106 0.00057407113 0.0009494023
0.0012750656 0.24320611 -0.0018466637 -0.35274264 0.0007911338 0.16881634 0.0008197078 -0.41258982
-0.0012995726 -0.0014187874 -0.25745657 -0.06333975 -0.17698325 -0.0009251431 -0.28658736 -0.001105665
8.052374e-05 -1.4476329e-05 -0.00016066819 -2.8898128e-05 -0.00025658798 -0.00012801672 9.910525e-08 -0.00013660043
-3.3460026e-05 0.0001360934 0.00013173386 -5.3491738e-05 -5.5914347e-06 -5.789673e-05 0.00011540927 -0.00038632078
-0.00032742295 -0.0012101838 -0.0010111779 -0.0007918051 0.0342575 -0.00028141902 -6.430097e-05 -0.0005842242
2.9323322e-05 0.00017859996 -8.566138e-05 -0.0001808521 -4.90605e-05 7.419091e-05 -4.912362e-06 -6.578198e-05
0.00018476548 0.00031042463 0.0003110548 5.42847e-05 -0.00012094123 4.942545e-06 -0.00020605646 -9.164658e-05
-0.00015344088 -0.0003202445 -0.00010956997 0.00013863108 -0.0001889253 -0.0001429503 -4.5535206e-05 -0.00041878418
0.00024148653 0.0004176113 -0.00103196 -0.0013097068 0.00027709518 0.00020901555 0.00023519482 -0.00085555995
0.0008125449 0.00038275283 0.0005658315 0.00018193477 0.00034682793 0.00041817353 -0.00019917313 -0.0003938801
00000000: eb72 0139 9968 21b7 5ac1 0b38 a6bb 4a38
00000010: 26d4 1b39 a607 15b7 b1ce 46b9 e3c2 48b9
00000020: 3a39 8838 7800 3ab9 f506 9b39 6de8 9db9
00000030: ff5e 2bb9 5cfd 8c37 0148 b2b7 4f4c 22b8
00000040: b55f 09ba ddf5 33ba a3aa 51ba 11be eeb9
00000050: e94a 37ba 3daf a7b9 3e2d 9438 7689 5eba
00000060: 8e34 20b9 f1d8 bfb8 315f 3c38 3686 c8b8
00000070: 46d7 af39 7230 48b8 0b91 f7b8 ade2 93b8
00000080: cb79 ccb8 d4af 3739 4774 14b9 bf6b 09b9
00000090: 7047 9ab8 9be1 9638 a8ab 1839 23b7 99b7
000000a0: a467 1fb9 d252 32b9 c8bc a437 dfcb f338
000000b0: a092 1039 30d9 2538 0363 1638 6532 f5b7
000000c0: d122 4e39 e89f 013a 6d2b f0b9 8ed0 bcba
000000d0: 950b ac39 eaf8 e839 d742 9eb9 1e1b 61ba
000000e0: b6e4 2abe 2c32 563a bd27 e839 ffd6 cc38
000000f0: 6edc 8e39 8b0a f639 176f 9d39 2eaf 2839
00000100: 2804 59b8 e778 3f39 7084 bf39 4181 b439
00000110: b47a 9138 d9eb 19b9 b8a6 01b9 3875 6338
00000120: 7bc9 c237 f474 a8b8 c651 23b9 ee68 e3b8
00000130: 8d7b d2b7 58c8 f238 e524 cfb8 79a0 eab8
00000140: 4da7 c6b9 7b60 3bba 1aa0 87ba 3a77 b5b9
00000150: 21dc 7aba 8760 6eba 5b7f ca39 cc6f 62ba
00000160: d6e7 7b38 d262 91b8 0999 10b8 4877 c6b9
00000170: ee0b 9f39 1ebf 2939 2d9f 8738 4805 2ab9
00000180: 775b a038 fe33 b738 3a37 bf38 a5f5 4cb7
00000190: 9bda fe37 4c51 94b8 da66 f538 2a59 25b9
000001a0: a9f5 d7b7 c43a 67b9 2b34 c8b9 d8dc ceb8
000001b0: e09e ce35 03b6 00b9 a0e9 c8b8 0bce 4538
000001c0: 09a2 9939 96a9 6a39 fc28 42ba acfe cd39
000001d0: 9e2b 9039 a10e 9c39 6736 d9b8 8af2 5ab8
000001e0: 982e 2d38 fbef b9b9 bc0e 7339 cb0e 0639
000001f0: c449 0e3a 3518 54b7 0f80 4439 6c92 30b7
00000200: 3440 1aba b5f4 42ba de16 1cba c655 68ba
00000210: 225b 3fba 6a60 06ba caa9 33ba e57f 33ba
00000220: 82fe 233a 6f78 443a 1e43 3d3a 0131 c73a
00000230: 2f08 863a e2b6 413a 915f 5eb8 784a 8b3a
00000240: f9bf b3ba 76f2 b33d 4084 a33e 165d a7bd
00000250: dd3f a5ba e7d5 703e 6962 e0bc 87aa a23d
00000260: 5e1b 073a bd74 203a 8907 af39 1ce6 163a
00000270: 3de5 6439 e5f9 09bc 0250 9039 987e cd39
00000280: 76f7 7eb8 51d9 c238 dfc7 34b7 3244 9c38
00000290: 5da9 21b9 0353 86b9 5fe0 073a 814d 6db6
000002a0: 190c f03d a152 823a 8362 943b 10e1 943a
000002b0: a90f 883e 6d8d 11be 437d 163a 4fe1 783a
000002c0: 1a20 a73a 060b 793e c00b f2ba af9a b4be
000002d0: 1764 4f3a 31de 2c3e a9e1 563a f93e d3be
000002e0: 6c56 aaba 9bf6 b9ba 59d1 83be 45b8 81bd
000002f0: 193b 35be 4d85 72ba 94bb 92be f6eb 90ba
00000300: dbde a838 5cdf 72b7 0a79 28b9 426a f2b7
00000310: a886 86b9 3a3c 06b9 b0d3 d433 663c 0fb9
00000320: 6e57 0cb8 4bb4 0e39 0a22 0a39 515c 60b8
00000330: 0f9e bbb6 24d6 72b8 e107 f238 198b cab9
00000340: f7a9 abb9 089f 9eba 8089 84ba 2491 4fba
00000350: 9851 0c3d 6c8b 93b9 52d9 86b8 9f26 19ba
00000360: 5bfb f537 9046 3b39 1aa5 b3b8 1ea3 3db9
00000370: 50c6 4db8 f196 9b38 ded4 a4b6 6ef4 89b8
00000380: 9bbd 4139 7dc0 a239 1215 a339 c1af 6338
00000390: d4a1 fdb8 23d8 a536 dc10 58b9 6232 c0b8
000003a0: f9e4 20b9 7de6 a7b9 eec8 e5b8 7f5d 1139
000003b0: 401a 46b9 eee4 15b9 0efd 3eb8 4390 dbb9
000003c0: 8c37 7d39 d7f2 da39 d542 87ba 78aa abba
000003d0: 1647 9139 2f2b 5b39 a19e 7639 a847 60ba
000003e0: f700 553a 37ac c839 4f54 143a bec5 3e39
000003f0: 75d6 b539 4d3e db39 21d9 50b9 b181 ceb9

autoencoders.1.encoder.cells.0.lstm.bias_ih f4 [32]
0.000109679764 9.980068e-05 -0.0007619591 -5.196681e-05 -7.215035e-05 -0.00010556175 -0.0012800919 0.00041604147
-0.0002301612 -7.173186e-05 -0.00086513266 1.32445675e-05 0.00022276602 -7.712583e-05 -0.0014788866 0.0007011971
-0.00033422883 0.0007010519 -0.0010718177 -4.7777965e-05 -0.0011558761 0.0008604542 -0.0143027855 -0.0008124909
-0.00019314144 0.00012960803 -0.0007262605 2.513059e-05 0.0001312078 -0.00014796149 -0.0010768494 0.00062115607
00000000: e003 e638 154c d138 36be 47ba f0f6 59b8
00000010: 6d4f 97b8 0861 ddb8 c2c8 a7ba 2420 da39
00000020: 6d57 71b9 c06e 96b8 12ca 62ba fc34 5e37
00000030: 4c96 6939 9dbe a1b8 33d7 c1ba 8ad0 373a
00000040: 6f3b afb9 ccc6 373a 3c7c 8cba 3365 48b8
00000050: c480 97ba 1b90 613a 3b56 6abc 57fd 54ba
00000060: 0386 4ab9 64e7 0739 8462 3eba 88cf d237
00000070: d394 0939 1c26 1bb9 1225 8dba 14d5 223a

autoencoders.1.encoder.cells.0.lstm.bias_hh f4 [32]
0.000109679764 9.980068e-05 -0.0007619591 -5.196681e-05 -7.215035e-05 -0.00010556175 -0.0012800919 0.00041604147
-0.0002301612 -7.173186e-05 -0.00086513266 1.32445675e-05 0.00022276602 -7.712583e-05 -0.0014788866 0.0007011971
-0.00033422883 0.0007010519 -0.0010718177 -4.7777965e-05 -0.0011558761 0.0008604542 -0.0143027855 -0.0008124909
-0.00019314144 0.00012960803 -0.0007262605 2.513059e-05 0.0001312078 -0.00014796149 -0.0010768494 0.00062115607
00000000: e003 e638 154c d138 36be 47ba f0f6 59b8
00000010: 6d4f 97b8 0861 ddb8 c2c8 a7ba 2420 da39
00000020: 6d57 71b9 c06e 96b8 12ca 62ba fc34 5e37
00000030: 4c96 6939 9dbe a1b8 33d7 c1ba 8ad0 373a
00000040: 6f3b afb9 ccc6 373a 3c7c 8cba 3365 48b8
00000050: c480 97ba 1b90 613a 3b56 6abc 57fd 54ba
00000060: 0386 4ab9 64e7 0739 8462 3eba 88cf d237
00000070: d394 0939 1c26 1bb9 1225 8dba 14d5 223a

autoencoders.1.decoder.cells.0.weight_h_2 f4 [8, 8]
-0.0070937467 -0.068737395 0.0005095116 0.0021817698 -0.11090259 0.0011877214 -0.005663033 -0.03311019
-0.2954245 -0.28477877 -9.5165924e-05 -0.4025742 0.024710963 0.22992727 -0.0004887302 -0.0011591739
0.0046241386 -0.34415954 0.032681346 0.00120766 -5.363726e-05 -0.4952408 -4.096947e-05 -0.0008749436
-0.0014958659 -0.012321492 -0.14645316 0.0011706151 0.052543167 -0.00058560556 -0.0013999847 -0.14768745
-0.0028316802 0.041445795 0.00020682925 0.052783802 -0.0011324821 -0.48752075 -0.0007934689 -0.13071248
-0.44547814 -0.1413257 0.00015799602 0.0013356444 -0.001011435 -0.0006925685 -0.10414515 -0.0012152501
0.5959934 -0.084091134 0.0005548407 0.0021239715 0.00068382546 -0.13137852 -0.0051651634 -0.09256579
-0.13712601 0.059229545 0.00015156221 0.0022437463 -0.0014084599 0.00047543313 -0.02349648 -0.0016876298
00000000: a972 e8bb 31c6 8cbd bf90 053a 06fc 0e3b
00000010: e620 e3bd 51ad 9b3a f790 b9bb 8d9e 07bd
00000020: e141 97be 86ce 91be d193 c7b8 351e cebe
00000030: a56e ca3c 0e72 6b3e 211e 00ba 6cef 97ba
00000040: 1686 973b ae35 b0be e0dc 053d 584a 9e3a
00000050: 92f8 60b8 3490 fdbe a2d6 2bb8 795c 65ba
00000060: ee10 c4ba 15e0 49bc d1f7 15be 536f 993a
00000070: 8137 573d 5383 19ba b17f b7ba 613b 17be
00000080: b693 39bb 11c3 293d 4ee0 5839 d433 583d
00000090: cb6f 94ba 529c f9be cc00 50ba 7ed9 05be
000000a0: b615 e4be afb7 10be bcab 2539 ca10 af3a
000000b0: 2092 84ba 7c8d 35ba 0d4a d5bd 0749 9fba
000000c0: 0693 183f f937 acbd bb72 113a 5432 0b3b
000000d0: c042 333a 1788 06be 8840 a9bb 2293 bdbd
000000e0: c36a 0cbe ae9a 723d acec 1e39 d10b 133b
000000f0: 129c b8ba 8e43 f939 b17b c0bc 7633 ddba

autoencoders.1.decoder.cells.0.bias_h_2 f4 [8]
-0.06021988 -0.14220527 0.00041400193 0.0014901719 -0.023110298 -0.00039574422 -0.10079308 -0.020411953
00000000: 1fa9 76bd 429e 11be 660e d939 df51 c33a
00000010: cf51 bdbc e47b cfb9 9a6c cebd f836 a7bc

autoencoders.1.decoder.cells.0.lstm.weight_ih f4 [32, 1]
0.033653073 0.0014102559 2.6803107e-05 7.5431366e-05 -0.0005085309 8.7947104e-05 0.00363267 0.12566751
0.39444995 3.3300785e-05 -1.995814e-05 0.00021311417 -0.0012148571 -0.00045231965 0.03341513 0.25653508
0.5154893 1.1412773 0.2355323 -0.14202172 -0.82948333 -0.30039313 0.5148334 0.106299885
0.022592148 0.24439497 -0.00022156158 8.532297e-05 0.001431883 0.000112962254 0.5341678 0.3818698
00000000: ced7 093d 56d8 b83a 3cd7 e037 e830 9e38
00000010: ee4e 05ba 3e70 b838 1712 6e3b fcae 003e
00000020: 58f5 c93e 72ac 0b38 c76b a7b7 6677 5f39
00000030: d73b 9fba 5125 edb9 4ede 083d 9158 833e
00000040: 1bf7 033f 6015 923f 612f 713e 246e 11be
00000050: 0559 54bf 21cd 99be 1fcc 033f c1b3 d93d
00000060: 2b13 b93c ad42 7a3e fc52 68b9 6cef b238
00000070: 05ae bb3a 26e6 ec38 39bf 083f 7084 c33e

autoencoders.1.decoder.cells.0.lstm.weight_hh f4 [32, 8]
0.05920957 0.052479222 -0.00055235426 0.00031560505 0.00024561136 0.0002857527 -8.357439e-05 0.00046285853
0.12798959 0.16096592 0.12670858 0.29052192 0.00078691135 0.17926809 0.035894077 0.017776087
-0.00013816856 5.0406506e-05 5.0799496e-05 0.0001265809 0.06033634 -2.8265953e-05 8.513394e-05 -0.00026393964
8.065261e-05 0.00029836435 -0.00010141777 -0.00011255874 -5.8100166e-05 0.00023642468 9.633897e-05 -0.0004757415
0.0009180291 0.0002811271 0.00013691312 0.00084688124 0.00032177096 -0.00025513882 0.00047336967 0.00072524446
0.00070335914 -0.00021341458 0.0010085253 0.0014213596 0.0007108619 0.00077114854 0.0006442024 0.0008532874
1.26548775e-05 0.13305908 0.00017091003 0.00085965684 -8.2503146e-05 -0.0004117496 -0.00020003396 0.17733498
-0.00025925197 0.002194205 -0.00029332875 -0.0003602859 -0.00052880455 -0.00065567583 0.0001287875 0.13523713
-0.0009324108 -5.1970906e-05 -0.0007616565 -0.0012677687 -4.3816304e-05 -0.0011683103 -0.0005290041 -0.0008460015
-0.0016327145 0.0008068764 -0.0013287668 -0.0002283439 0.00044118182 0.16366836 0.28272462 0.1296454
1.6617654e-05 -1.4754464e-05 0.00025764725 7.549175e-05 0.00014002631 9.757314e-05 -0.00014547128 0.00015211414
9.55043e-05 -7.0875576e-05 3.8964456e-05 5.3222717e-05 0.00019432946 -5.9598937e-05 -1.8074123e-05 0.00020709993
-0.00024904928 -0.00047536916 0.00044774488 0.00066726666 0.0014654377 -0.00027974183 -0.0009687691 0.00047455306
0.00027524473 0.000115313356 0.0006258811 0.0010990261 0.0009873819 0.0009521504 -0.00031529574 0.0004962169
-0.00096041564 -0.00060235546 -0.00050327857 -0.0011568574 -7.594431e-05 -0.0013640661 -0.00093853386 0.060985766
-0.00032995525 -0.0005201358 -0.0009387337 -0.0012165629 -0.0010237391 -0.0010333613 0.28924567 0.028268531
0.101452276 0.22845279 0.0012161472 0.028621063 -0.008973406 -0.2925203 0.21406524 -0.0005651736
0.07550687 0.014089501 -0.11956742 -0.08864111 0.11198128 -0.36469918 -0.06825672 0.18943387
-0.28674388 0.00035760977 0.00050627213 0.0010454652 -0.230142 0.00046115406 0.00054347626 0.00069024786
0.0017360515 0.0015925795 0.00082149066 0.0012770281 0.0003224098 0.00089863944 0.0013435903 0.1256928
0.00023702426 -0.16519919 0.0014846474 0.3010178 0.19131997 0.0069785505 -0.11819968 0.21031615
0.12863348 -0.16415562 0.00043902514 0.45777395 0.14027114 -0.036710158 0.117589936 -0.009697486
-0.0015517434 0.2859022 0.09052535 -0.13021056 -0.29543996 0.21599427 -0.0007626342 0.13761249
0.39905897 0.5062004 0.0006061883 0.0009104836 -0.00024259007 0.00053624035 0.0005389072 0.06713935
0.05980595 0.0065289875 0.00071201916 0.00020029346 2.9899671e-05 -0.0003625858 0.0016751833 0.18524246
0.24968144 0.11968183 0.00025174094 -0.00043003116 0.18507884 0.26554042 0.0527292 0.33454084
0.0001653497 -9.293386e-05 -8.73084e-06 5.0645005e-05 -9.941059e-06 -8.866377e-05 -1.9658535e-05 2.4567624e-05
0.00031789418 8.781559e-05 0.00016151188 -0.00027048343 -0.0006554023 0.000102625876 0.00015188992 0.00011382739
-0.00014534284 0.0022058082 0.0002827336 0.00048069772 0.001409795 0.0013827577 -0.0003316115 0.0010605871
0.0010804966 -0.00021197174 0.0006765032 0.0016380573 0.0014818135 0.0005977753 0.00091250223 0.0014388663
0.045436487 -3.58141e-05 -0.0008545176 -0.0003329302 -8.559883e-05 -0.0007092592 0.00020048417 0.00013904442
0.08715722 0.10895966 -0.00025938716 -0.00050872547 -0.00053111237 -0.00052799145 0.020891588 -0.0001769209
00000000: bc85 723d 74f4 563d decb 10ba cb77 a539
00000010: 66c5 8039 14d1 9539 a944 afb8 d2ab f239
00000020: b40f 033e 40d4 243e e5bf 013e 4abf 943e
00000030: ba48 4e3a 0e92 373e ab05 133d 289f 913c
00000040: 57e1 10b9 936b 5338 8b11 5538 cdba 0439
00000050: 3d23 773d ac1c edb7 f089 b238 6161 8ab9
00000060: 0a24 a938 c96d 9c39 40b0 d4b8 830d ecb8
00000070: 94b0 73b8 c4e8 7739 9709 ca38 f16c f9b9
00000080: e4a7 703a 3e64 9339 5690 0f39 3d01 5e3a
00000090: 5eb3 a839 27c4 85b9 9a2e f839 551e 3e3a
000000a0: a261 383a 0ac8 5fb9 7e30 843a ea4c ba3a
000000b0: 2259 3a3a e726 4a3a b1df 283a 26af 5f3a
000000c0: 4950 5437 a440 083e 5036 3339 985a 613a
000000d0: 8a05 adb8 19e0 d7b9 35c0 51b9 4d97 353e
000000e0: 36ec 87b9 a7cc 0f3b ebc9 99b9 c1e4 bcb9
000000f0: 799f 0aba a9e1 2bba 220b 0739 9a7b 0a3e
00000100: 086d 74ba 56fb 59b8 e7a9 47ba 422b a6ba
00000110: 66c7 37b8 fd21 99ba ddac 0aba 33c6 5dba
00000120: cf00 d6ba 8f84 533a 042a aeba 996f 6fb9
00000130: 6c4e e739 ae98 273e 48c1 903e c4c1 043e
00000140: 2466 8b37 f189 77b7 d414 8739 5351 9e38
00000150: 07d4 1239 2ea0 cc38 a689 18b9 d480 1f39
00000160: 7b49 c838 09a3 94b8 c46d 2338 753b 5f38
00000170: ebc4 4b39 dff9 79b8 e29d 97b7 f728 5939
00000180: d492 82b9 f83a f9b9 4dbf ea39 82eb 2e3a
00000190: ee13 c03a 50aa 92b9 fef4 7dba 6fcd f839
000001a0: b94e 9039 63d4 f138 2b12 243a 320d 903a
000001b0: 0a6b 813a bb99 793a 474e a5b9 8d14 023a
000001c0: 67c4 7bba 64e7 1dba 74ee 03ba b1a1 97ba
000001d0: 4a44 9fb8 77ca b2ba f107 76ba 36cc 793d
000001e0: d8fd acb9 b959 08ba 5a15 76ba 1475 9fba
000001f0: fc2e 86ba da71 87ba 0218 943e 6893 e73c
00000200: 36c6 cf3d 87ef 693e 2167 9f3a b876 ea3c
00000210: 3105 13bc 39c5 95be eb33 5b3e 2928 14ba
00000220: 59a3 9a3d a7d7 663c c3df f4bd 7889 b5bd
00000230: 7156 e53d dab9 babe 2eca 8bbd f4fa 413e
00000240: 18d0 92be 927d bb39 59b7 043a fe07 893a
00000250: 58aa 6bbe 0dc7 f139 1378 0e3a c0f1 343a
00000260: 398c e33a 1abe d03a 4e59 573a f461 a73a
00000270: 1c09 a939 ac92 6b3a 691b b03a 9db5 003e
00000280: b789 7839 fa29 29be 8098 c23a 011f 9a3e
00000290: 62e9 433e 53ac e43b ac12 f2bd 1e5d 573e
000002a0: 7fb8 033e 6918 28be f52c e639 5961 ea3e
000002b0: 3da3 0f3e 645d 16bd fed2 f03d 34e2 1ebc
000002c0: de63 cbba c661 923e 5b65 b93d eb55 05be
000002d0: e843 97be 9a2d 5d3e 84eb 47ba 4aea 0c3e
000002e0: 7551 cc3e 5996 013f 9ce8 1e3a 85ad 6e3a
000002f0: c75f 7eb9 7b92 0c3a 7345 0d3a 5b80 893d
00000300: 15f7 743d 1ef1 d53b cca6 3a3a de05 5239
00000310: 0ed1 fa37 7119 beb9 d391 db3a 33b0 3d3e
00000320: 7eac 7f3e bf1b f53d 19fc 8339 ce75 e1b9
00000330: 4f85 3d3e eaf4 873e 93fa 573d f048 ab3e
00000340: b961 2d39 7ce5 c2b8 ac7a 12b7 a96b 5438
00000350: 86c8 26b7 00f1 b9b8 62e8 a4b7 9216 ce37
00000360: 09ab a639 a329 b838 845b 2939 accf 8db9
00000370: 4ecf 2bba d938 d738 a444 1f39 9db6 ee38
00000380: 2c67 18b9 528f 103b dd3b 9439 2806 fc39
00000390: dfc8 b83a a63d b53a 24dc adb9 6603 8b3a
000003a0: 739f 8d3a bb44 5eb9 5c57 313a 15b4 d63a
000003b0: 6939 c23a 05b4 1c3a fd34 6f3a 5798 bc3a
000003c0: 9c1b 3a3d 1937 16b8 b501 60ba 238d aeb9
000003d0: 8683 b3b8 94ed 39ba 0f39 5239 74cc 1139
000003e0: 7c7f b23d 3e26 df3d 5bfe 87b9 fd5b 05ba
000003f0: 593a 0bba e868 0aba d624 ab3c d883 39b9

autoencoders.1.decoder.cells.0.lstm.bias_ih f4 [32]
0.231525 0.41751987 2.0197704e-05 0.00019614595 0.4978988 0.0009834766 0.23400624 -0.00034833408
0.041113723 0.040881302 -0.00013486997 -0.00038211612 0.18267693 0.0011211435 0.04655134 -0.00057429005
-0.029429862 -0.10025883 0.00045669507 0.02926305 0.041370057 0.0007704693 -0.032000903 0.028521374
0.31540275 0.42644623 -5.217312e-05 -0.0004435611 0.57009256 0.0015030522 0.2450459 0.0041932156
00000000: e414 6d3e 2ac5 d53e 3d6e a937 87ac 4d39
00000010: 97ec fe3e 00e8 803a 559f 6f3e 9ca0 b6b9
00000020: dd66 283d 2773 273d e26b 0db9 c256 c8b9
00000030: a90f 3b3e 55f3 923a 9eac 3e3d f48b 16ba
00000040: e516 f1bc 8054 cdbd 9370 ef39 10b9 ef3c
00000050: a673 293d 52f9 493a 6113 03bd a8a5 e93c
00000060: 787c a13e 2957 da3e 76d4 5ab8 c38d e8b9
00000070: 96f1 113f 1002 c53a 50ed 7a3e 3e67 893b

autoencoders.1.decoder.cells.0.lstm.bias_hh f4 [32]
0.231525 0.41751987 2.0197704e-05 0.00019614595 0.4978988 0.0009834766 0.23400624 -0.00034833408
0.041113723 0.040881302 -0.00013486997 -0.00038211612 0.18267693 0.0011211435 0.04655134 -0.00057429005
-0.029429862 -0.10025883 0.00045669507 0.02926305 0.041370057 0.0007704693 -0.032000903 0.028521374
0.31540275 0.42644623 -5.217312e-05 -0.0004435611 0.57009256 0.0015030522 0.2450459 0.0041932156
00000000: e414 6d3e 2ac5 d53e 3d6e a937 87ac 4d39
00000010: 97ec fe3e 00e8 803a 559f 6f3e 9ca0 b6b9
00000020: dd66 283d 2773 273d e26b 0db9 c256 c8b9
00000030: a90f 3b3e 55f3 923a 9eac 3e3d f48b 16ba
00000040: e516 f1bc 8054 cdbd 9370 ef39 10b9 ef3c
00000050: a673 293d 52f9 493a 6113 03bd a8a5 e93c
00000060: 787c a13e 2957 da3e 76d4 5ab8 c38d e8b9
00000070: 96f1 113f 1002 c53a 50ed 7a3e 3e67 893b

autoencoders.1.decoder.output_layer.weight f4 [1, 16]
0.2387938 0.27921918 -0.010362963 -0.006600781 -0.20429571 -0.12724665 0.26427037 0.24340123
0.06645527 -0.01593079 0.19278353 -0.056494966 0.032141328 -0.1709182 -0.1931996 0.123398244
00000000: 5d86 743e d1f5 8e3e 6bc9 29bc 5d4b d8bb
00000010: e532 51be f24c 02be 724e 873e 2c3e 793e
00000020: b319 883d 4a81 82bc 0c69 453e 4467 67bd
00000030: a0a6 033d 2e05 2fbe 1ed6 45be 38b8 fc3d
