results/H2_Residual/ec2_cpu_utilization_825cc2/ensemble_autoencoder_weights.pth (torch, 104226 bytes, 170 tensors)

autoencoders.0.encoder.cells.0.weight_h_2 f4 [8, 8]
00000000: 6cf5 c737 1dda 4b38 7eea 7438 1ae9 1e39
00000010: 0b5f 1e39 46c3 57b9 f19a ef38 69d0 3eb9
00000020: a158 79b8 21cf 2db9 4517 5439 948c 1439
00000030: 84f0 4939 f2ed 1f39 e221 8038 3b25 dfb8
00000040: 2f90 2a38 7295 e037 6283 3e39 c1c7 1336
00000050: 524f 17b9 f185 5239 5c79 ac38 b267 ddb8
00000060: 87a0 98b8 63b2 e439 396d aa39 0676 9b38
00000070: f82d 5339 aa1c 0cb8 6c91 8a38 5e28 09b8
00000080: 5316 0fb9 1fd5 bcb8 7179 8639 896b 1b39
00000090: 727d 5039 739f 9a38 b03a 9139 bae0 fab8
000000a0: 5818 5938 8451 b9b8 a9a0 5639 42a2 0639
000000b0: c931 e339 c2af f0b8 3f65 62b5 a64b d4b8
000000c0: 5a9e 98b7 d13a a1b6 ae26 17b8 4b9e 30b9
000000d0: fcd6 c138 65d3 9ab9 6658 3c38 37e7 95b9
000000e0: c9f3 76b8 99a8 5b39 2e73 9638 8c82 15b9
000000f0: 3e74 74b9 df0f bbb9 7ef7 3cb9 c045 de38
2.3836932e-05 4.8602105e-05 5.839252e-05 0.00015154891 0.0001510346 -0.00020576743 0.00011425268 -0.00018197451
-5.944877e-05 -0.00016575727 0.00020226564 0.0001416675 0.00019258453 0.00015252063 6.109827e-05 -0.00010640403
4.066544e-05 2.6772472e-05 0.00018168756 2.202098e-06 -0.00014430031 0.00020077058 8.224204e-05 -0.00010557416
-7.277825e-05 0.00043620457 0.00032506304 7.4129595e-05 0.00020139653 -3.3405297e-05 6.60744e-05 -3.270094e-05
-0.00013645859 -9.0042355e-05 0.00025648953 0.00014822012 0.00019883158 7.372992e-05 0.0002770028 -0.000119627875
5.1759504e-05 -8.836671e-05 0.00020468481 0.00012839682 0.00043333907 -0.00011476829 -8.4338893e-07 -0.000101230384
-1.819355e-05 -4.805021e-06 -3.603723e-05 -0.00016843637 9.243001e-05 -0.0002953067 4.490502e-05 -0.00028591763
-5.8878013e-05 0.00020948275 7.174011e-05 -0.0001425838 -0.00023312957 -0.00035679244 -0.00018021275 0.00010598777

autoencoders.0.encoder.cells.0.bias_h_2 f4 [8]
00000000: 0000 0000 0000 0000 0000 0000 0000 0000
00000010: 0000 0000 0000 0000 0000 0000 0000 0000
0.0 0.0 0.0 0.0 0.0 0.0 0.0 0.0

autoencoders.0.encoder.cells.0.lstm.weight_ih f4 [32, 1]
00000000: a075 9e38 4eea 8f37 2dc9 04b9 8bd7 41b9
00000010: b52f 01b8 e324 d5b8 c5a7 e436 19b0 6739
00000020: 3c02 b5b8 cee1 e338 1ae2 23b9 e6be bd38
00000030: e5a9 8a37 0566 96b9 a17d 1fb9 42ba b3b8
00000040: 9c5c 75b9 3dcb d238 b4cb 49b8 20d3 63b7
00000050: 9973 05b9 5be4 9539 010a be38 d663 89b8
00000060: 8ba6 f338 95ef 8bb9 0710 ba36 05f9 b5b7
00000070: ea24 4839 67d9 61b7 d731 04b9 0fef 4939
7.5559365e-05 1.7156035e-05 -0.00012663445 -0.0001848621 -3.0800427e-05 -0.00010163502 6.8144604e-06 0.00022095478
-8.631169e-05 0.00010866263 -0.00015629121 9.04778e-05 1.6529995e-05 -0.0002868624 -0.00015210222 -8.570078e-05
-0.0002339952 0.000100514364 -4.8111848e-05 -1.3579411e-05 -0.00012726932 0.00028589633 9.0617694e-05 -6.551265e-05
0.00011618164 -0.00026690649 5.545098e-06 -2.169284e-05 0.00019087238 -1.3461663e-05 -0.00012607068 0.0001925791

autoencoders.0.encoder.cells.0.lstm.weight_hh f4 [32, 8]
00000000: e9bc 69b9 46e8 a739 087f a9b9 8baa 8438
00000010: da5e fbb7 2f09 b939 2230 16b9 1a2b 40b9
00000020: 09aa d439 2c83 8e39 2ffa 5db9 7aa2 1938
00000030: 32c8 fab8 3a50 b5b9 d52c d8b7 acd7 9439
00000040: fa31 cc38 4613 3638 d1c8 8937 4211 d237
00000050: f1ec 7838 614b 0b39 7525 4eb8 5417 1e39
00000060: e911 9539 a8dc e738 e677 aeb9 ba29 f2b7
00000070: 9b8e ecb8 76fb beb7 3efd 66b9 67d4 35b9
00000080: 8282 3937 d773 5139 64a7 cc38 82a1 f136
00000090: 1b64 2cb9 ed20 c6b2 69ae 0db7 9228 bd36
000000a0: ed6f bbb8 b7c0 5239 6e3d 6438 a97e c138
000000b0: e40d 1338 7858 2837 be8c ecb8 5a0c b238
000000c0: 19f3 95b8 93e3 8939 90da 1ab9 d4b9 d938
000000d0: a5b4 02b5 57d3 cf38 f642 7f39 9a1a 36b9
000000e0: 3e14 42b8 a70b 39b8 c735 6db9 4d66 80b8
000000f0: 0d8b 8239 027d ea36 9a90 c7b8 d795 ac39
00000100: ee05 0539 d0cf 26b8 a209 8039 e6bf 1eb7
00000110: a768 0ab9 f242 1c39 441a 43b9 bb9d 0739
00000120: 6b63 e838 9260 a7b9 8f8c 7f38 8fb5 9ab9
00000130: b49c a339 678e 3bb9 30ec 4439 b928 edb9
00000140: 3f0a 35b7 d3cf 3c38 2f9b 9338 3143 a5b8
00000150: 3d08 f4b8 c37a 99b8 d8f3 bf39 9481 04b9
00000160: 15b4 39b7 b389 90b7 c63f b2b7 4d95 3f36
00000170: 6a37 eab8 4809 4b39 762d f3b8 b180 ebb9
00000180: 90ec bc39 de35 1b39 843e 2fb6 42ea 7c38
00000190: 5e63 3fb8 48bf 0438 adab 7db9 3dcb 5439
000001a0: d6fb 23b8 642e 9839 9c5e 8fb9 169a a838
000001b0: c1ba 4537 ca5b 2cb8 c3b5 f839 9447 6f36
000001c0: 37aa 1ab8 76fb 5e39 6654 bb37 90cb 5bb8
000001d0: dd74 85b9 d44b 1238 81bd 8137 2824 7eb8
000001e0: 1f3e 0739 4f38 2139 74bd dab8 93d8 1039
000001f0: 08dc 2539 a20d 8738 ee13 c839 a8f1 5539
00000200: 128c 2038 0b61 d939 405a 14b8 0e16 85b7
00000210: a90f f838 2298 1439 946c 9f37 85d6 1a39
00000220: 03da 0eb9 047f 45b9 c12c 36b9 6e8b d8b8
00000230: 9fc0 9238 c2a5 4037 6663 8db8 b7dc 0639
00000240: e005 8939 31fe 36b9 ed4d 0938 ef74 ae39
00000250: 266b 7a37 b82a 4139 0b24 3a37 05b9 e2b8
00000260: 6ae4 6b39 52b8 6936 da99 c138 5fe9 acb8
00000270: 57ef 2639 f1f5 5fb9 c88c 2e39 7473 55b9
00000280: 9a82 0db9 fcc7 d8b8 f2b6 94b9 ee23 1db9
00000290: 1441 f938 158d db39 c1c4 0239 98cf b0b7
000002a0: 64b6 02b9 177f 2b39 0351 e437 9d7a 4839
000002b0: 0302 9f38 0dda 51b9 3a7a 3838 91b6 b3b8
000002c0: 740e bcb8 ade5 0838 6a42 10b9 7004 27b9
000002d0: c6e3 2f39 8001 06b9 f50a 0ab8 c62d 2938
000002e0: 53bc 64b7 9d5f b538 b23c 97b9 1859 4038
000002f0: 9c27 28b9 aca2 4539 29f0 d637 aa0d 5bb8
00000300: 32d0 f338 bebf 40b9 afb2 2139 4f84 7438
00000310: 9470 e9b7 7b5e 4239 c144 50b4 ae7a 04b9
00000320: 9f46 ae39 90cc 76b8 828e 54b8 4c45 8ab8
00000330: 13ac 9739 3be3 14b9 0e29 3fb8 d02f 6cb6
00000340: aef6 0b38 628f a438 21ff 40b9 db78 2eb9
00000350: 250b a1b8 a97c 08b9 f6ba 8d38 cb21 0739
00000360: 8519 a3b9 f1e8 c5b8 ff28 2c38 a3d6 ae38
00000370: 339a 7fb9 15ee 79b6 f56a dcb9 c739 9638
00000380: c5ff b638 cbd9 7e38 59a8 ebb8 5ec8 77b8
00000390: 82fa c4b9 2443 d1b7 cd0c 0639 d17e b937
000003a0: b4df cd37 e11d afb7 015a 1237 1ad7 9139
000003b0: c2d6 39b8 38eb 8839 3424 3bb9 6574 2fb7
000003c0: e881 b3b9 c1d3 5f38 cbe5 aeb9 a451 8ab9
000003d0: 655a dd38 2406 0b39 75c0 88b7 047f 4d39
000003e0: 09b3 9338 a43d a638 63bf 01b9 e7c9 afb9
000003f0: ba67 2039 f80e 6738 f0d0 6138 dfc4 49b9
-0.00022290986 0.0003202578 -0.00032328838 6.3260166e-05 -2.99657e-05 0.00035292792 -0.00014323046 -0.00018326603
0.00040562477 0.0002718208 -0.00021169403 3.662936e-05 -0.00011958218 -0.00034582784 -2.5770083e-05 0.00028389448
9.736787e-05 4.341013e-05 1.6425185e-05 2.5041987e-05 5.9348476e-05 0.00013284154 -4.9149112e-05 0.00015076745
0.0002843284 0.00011056039 -0.00033277198 -2.8868079e-05 -0.00011279919 -2.276686e-05 -0.0002202885 -0.00017340631
1.10572455e-05 0.00019974947 9.758657e-05 7.2011617e-06 -0.0001644049 -2.3065207e-08 -8.444863e-06 5.637362e-06
-8.937703e-05 0.00020098953 5.4416647e-05 9.2265494e-05 3.5060468e-05 1.0034179e-05 -0.00011279572 8.490002e-05
-7.150154e-05 0.00026300232 -0.00014768005 0.000103819795 -4.8691646e-07 9.909894e-05 0.0002434364 -0.00017366782
-4.6272056e-05 -4.411829e-05 -0.00022622115 -6.1225706e-05 0.00024899133 6.9882963e-06 -9.5159936e-05 0.00032918036
0.00012686077 -3.9771025e-05 0.0002442124 -9.462214e-06 -0.00013199692 0.00014902258 -0.00018606434 0.00012933362
0.0001108114 -0.00031924673 6.0927643e-05 -0.0002950844 0.00031206536 -0.00017886759 0.00018780003 -0.00045234503
-1.0790826e-05 4.5016244e-05 7.0384114e-05 -7.8803285e-05 -0.00011636361 -7.318475e-05 0.00036612037 -0.00012636773
-1.1068788e-05 -1.7230259e-05 -2.124895e-05 2.8548122e-06 -0.00011168311 0.00019363046 -0.00011595611 -0.00044918575
0.00036034407 0.00014802019 -2.611342e-06 6.029965e-05 -4.563049e-05 3.1649397e-05 -0.00024191914 0.00020293608
-3.909677e-05 0.00029026263 -0.00027345575 8.039565e-05 1.1785597e-05 -4.109348e-05 0.0004743767 3.565544e-06
-3.6874986e-05 0.00021265246 2.2331438e-05 -5.240325e-05 -0.00025454807 3.4879733e-05 1.5466243e-05 -6.0591992e-05
0.00012897745 0.00015375133 -0.000104303384 0.0001381359 0.00015817594 6.439841e-05 0.0003816182 0.00020403287
3.8277423e-05 0.00041461768 -3.537e-05 -1.5865106e-05 0.000118284785 0.00014171054 1.9004838e-05 0.00014766499
-0.00013623391 -0.00018834701 -0.00017373545 -0.000103256534 6.997701e-05 1.1482685e-05 -6.741918e-05 0.00012861459
0.00026135053 -0.00017451566 3.273592e-05 0.00033274989 1.4926109e-05 0.00018421828 1.1094856e-05 -0.00010810982
0.00022496437 3.4826994e-06 9.231614e-05 -8.245068e-05 0.00015920155 -0.00021358558 0.00016646378 -0.00020356273
-0.00013495461 -0.000103369326 -0.00028365065 -0.00014986072 0.00011885367 0.0004187605 0.00012471063 -2.1077503e-05
-0.00012465712 0.00016355175 2.7217442e-05 0.00019119163 7.5820855e-05 -0.00020013023 4.398285e-05 -8.569391e-05
-8.967231e-05 3.263883e-05 -0.00013757651 -0.00015928014 0.00016774153 -0.00012779795 -3.291197e-05 4.033537e-05
-1.3633707e-05 8.648562e-05 -0.00028846186 4.5859342e-05 -0.00016036484 0.00018847984 2.5622621e-05 -5.2226394e-05
0.00011625922 -0.00018381976 0.00015420721 5.8297355e-05 -2.7828188e-05 0.00018536478 -1.9396522e-07 -0.00012634203
0.00033240483 -5.8841484e-05 -5.067746e-05 -6.59326e-05 0.0002892917 -0.0001419903 -4.5576184e-05 -3.519457e-06
3.336992e-05 7.8468365e-05 -0.0001840559 -0.00016638955 -7.679154e-05 -0.0001301641 6.758228e-05 0.00012887192
-0.00031108796 -9.437081e-05 4.1046176e-05 8.336946e-05 -0.00024376139 -3.7242473e-06 -0.0004204136 7.163319e-05
8.726077e-05 6.0761155e-05 -0.000112370304 -5.9075996e-05 -0.00037570676 -2.4946006e-05 0.00012784005 2.2112772e-05
2.4542074e-05 -2.087554e-05 8.723234e-06 0.00027816818 -4.4307446e-05 0.00026115193 -0.00017847196 -1.0457913e-05
-0.00034238328 5.3364554e-05 -0.00033359075 -0.00026382238 0.000105549385 0.0001325836 -1.6302083e-05 0.0001959764
7.042854e-05 7.926978e-05 -0.00012373696 -0.0003352903 0.0001529743 5.5088633e-05 5.383877e-05 -0.00019242194

autoencoders.0.encoder.cells.0.lstm.bias_ih f4 [32]
00000000: 0000 0000 0000 0000 0000 0000 0000 0000
00000010: 0000 0000 0000 0000 0000 0000 0000 0000
00000020: 0000 0000 0000 0000 0000 0000 0000 0000
00000030: 0000 0000 0000 0000 0000 0000 0000 0000
00000040: 0000 0000 0000 0000 0000 0000 0000 0000
00000050: 0000 0000 0000 0000 0000 0000 0000 0000
00000060: 0000 0000 0000 0000 0000 0000 0000 0000
00000070: 0000 0000 0000 0000 0000 0000 0000 0000
0.0 0.0 0.0 0.0 0.0 0.0 0.0 0.0
0.0 0.0 0.0 0.0 0.0 0.0 0.0 0.0
0.0 0.0 0.0 0.0 0.0 0.0 0.0 0.0
0.0 0.0 0.0 0.0 0.0 0.0 0.0 0.0

autoencoders.0.encoder.cells.0.lstm.bias_hh f4 [32]
00000000: 0000 0000 0000 0000 0000 0000 0000 0000
00000010: 0000 0000 0000 0000 0000 0000 0000 0000
00000020: 0000 0000 0000 0000 0000 0000 0000 0000
00000030: 0000 0000 0000 0000 0000 0000 0000 0000
00000040: 0000 0000 0000 0000 0000 0000 0000 0000
00000050: 0000 0000 0000 0000 0000 0000 0000 0000
00000060: 0000 0000 0000 0000 0000 0000 0000 0000
00000070: 0000 0000 0000 0000 0000 0000 0000 0000
0.0 0.0 0.0 0.0 0.0 0.0 0.0 0.0
0.0 0.0 0.0 0.0 0.0 0.0 0.0 0.0
0.0 0.0 0.0 0.0 0.0 0.0 0.0 0.0
0.0 0.0 0.0 0.0 0.0 0.0 0.0 0.0

autoencoders.0.encoder.cells.0.cell_residual_transform.weight f4 [8, 1]
00000000: d4e1 83b8 47ba 01b9 f8bc 4d39 4243 9838
00000010: 75cc 0bb7 ce6e 1bb9 da8b 0339 ea9c a5b8
-6.2886305e-05 -0.00012371792 0.0001962072 7.2604525e-05 -8.3326495e-06 -0.0001482323 0.00012545232 -7.8970406e-05

autoencoders.0.encoder.cells.0.cell_residual_transform.bias f4 [8]
00000000: 8bad 1fb9 f896 d1b7 0f74 3b39 5816 2738
00000010: fc0b 4d39 3ef5 f539 3dbb 5c38 4615 2bb8
-0.00015228071 -2.4985042e-05 0.00017876945 3.9836712e-05 0.00019554788 0.0004691276 5.2626467e-05 -4.078939e-05

autoencoders.0.decoder.cells.0.weight_h_2 f4 [8, 8]
00000000: 2556 6f38 b59d 13b9 db75 353e 2747 613e
00000010: 9533 5738 be68 2638 33eb 4a37 6bc3 ae38
00000020: ea02 8338 d830 1839 c21f 2639 c64e abb8
00000030: 3557 2438 77da 93b8 2a0b 0239 24bc 5339
00000040: cf5f 3ab8 2b26 1b38 7835 8fb8 5775 27b9
00000050: 01da 9039 c772 1cb9 cdca ff38 b8ce 0238
00000060: c839 b9bd ad0f 8e39 b06d 1a39 ed33 32b6
00000070: 930b e2b8 c68f 2ab8 c40a c737 52cf c1b6
00000080: 743d 80b9 6ad2 6039 6655 3e38 b17f b938
00000090: da74 76b9 59b7 b3b8 fe17 ddb8 86dc ee38
000000a0: 7b4d 3839 b334 0739 bdbe 1d39 e3c7 3739
000000b0: 2b9a ee37 a2ae 5838 bb38 09b9 20e8 2239
000000c0: ecdd 6cb8 464d a6b8 c596 71b9 c23e 2539
000000d0: 481d 39b9 7cbe 24b8 c6ca 9b38 e7e2 2638
000000e0: 87f8 99b9 fbd2 fc37 8fcb eb38 995c 4cb8
000000f0: 228b d238 022e 3e39 d091 88b8 6a64 e7b8
5.706227e-05 -0.00014077763 0.1772074 0.21999799 5.1308034e-05 3.9675033e-05 1.20949e-05 8.333366e-05
6.2471096e-05 0.00014514045 0.00015842824 -8.168588e-05 3.9181865e-05 -7.0501985e-05 0.00012401925 0.00020192616
-4.4435084e-05 3.6990426e-05 -6.828731e-05 -0.00015970074 0.00027628246 -0.00014920077 0.00012197122 3.1186937e-05
-0.09044224 0.0002709603 0.00014727446 -2.6554292e-06 -0.00010778676 -4.0665058e-05 2.3727662e-05 -5.7759835e-06
-0.0002445985 0.0002144069 4.5379064e-05 8.845272e-05 -0.00023503919 -8.569536e-05 -0.0001054257 0.000113898
0.00017576471 0.00012894235 0.00015043742 0.00017526704 2.8443601e-05 5.1661053e-05 -0.00013086472 0.00015535997
-5.6473466e-05 -7.92989e-05 -0.00023039717 0.00015759005 -0.00017653883 -3.927805e-05 7.4287454e-05 3.9788803e-05
-0.000293676 3.0138986e-05 0.00011243589 -4.872363e-05 0.00010039496 0.00018136951 -6.512145e-05 -0.00011033642

autoencoders.0.decoder.cells.0.bias_h_2 f4 [8]
00000000: bb23 8db7 9bf4 2f39 9656 2639 07ba 1137
00000010: cc70 edb8 5f79 8f39 ef97 8838 056f f938
-1.6825148e-05 0.00016780423 0.0001586325 8.685986e-06 -0.00011322051 0.00027365514 6.513285e-05 0.00011893924

autoencoders.0.decoder.cells.0.lstm.weight_ih f4 [32, 1]
00000000: 1519 2cb7 fc2e 1b39 b928 1638 6afb 1238
00000010: 5623 ab37 e4ca bc37 8787 24b9 5df0 8e38
00000020: 2124 3636 080d 9537 7501 13b9 1fde 5bb8
00000030: 3979 05b9 95e6 e7b8 52a5 a7b8 28b4 adb8
00000040: 40eb 4337 6301 49b9 5f89 16b9 9a19 05b8
00000050: 6606 22b8 69e9 a037 d8e0 42b8 5526 c0b6
00000060: 93cf ccba fb13 d637 d9a2 3e39 c735 ecb9
00000070: 1ac1 6038 9b30 5b38 d4aa 9e38 04ee 8b39
-1.0257839e-05 0.00014799455 3.5800713e-05 3.504326e-05 2.0401243e-05 2.2505825e-05 -0.00015690747 6.815859e-05
2.7141143e-06 1.7768252e-05 -0.00014019555 -5.2420535e-05 -0.00012729027 -0.000110578876 -7.993974e-05 -8.2828396e-05
1.1677679e-05 -0.0001916937 -0.0001435629 -3.1733514e-05 -3.862977e-05 1.9182176e-05 -4.6462606e-05 -5.7265083e-06
-0.0015625827 2.5520092e-05 0.00018180477 -0.00045053495 5.35856e-05 5.2258936e-05 7.565846e-05 0.00026689481

autoencoders.0.decoder.cells.0.lstm.weight_hh f4 [32, 8]
00000000: d88a 02b8 d391 1cb9 c8f9 4e39 dca2 1839
00000010: 45ff abb8 0052 ef37 f710 d9b7 efd6 85b8
00000020: af93 b538 5a52 c7b8 14af fb38 75ee 0539
00000030: 9350 24b9 8ca7 a938 86ae 0538 ba6a f838
00000040: 7bcc 8139 50f5 1e39 680e 26b7 b119 d1b7
00000050: 2848 4439 256e 89b8 ee73 b6b8 3d78 ad37
00000060: 0db1 83b8 32d8 d538 587b b5b8 5a68 b238
00000070: 61f4 0ab9 cd30 17b9 dcf8 fcb8 1027 91b8
00000080: d5e1 e5b7 5395 1938 fe12 2fb9 392a a538
00000090: c100 eab8 cfc0 b6b8 98c1 bcb8 8602 2f39
000000a0: 9834 c638 82d4 1ab9 e946 69b8 e146 9b38
000000b0: 0e42 0eb9 3f25 d237 b44d 1138 e6bf 8f39
000000c0: 8340 69b9 196b 78b9 01ca 82b5 7409 ba37
000000d0: 3294 aab7 b1d0 ba37 83bb 3a38 c803 e038
000000e0: d26e 94b9 704a 31b9 7efd 4b39 dffe bb38
000000f0: 5932 1eb8 57f3 8236 0ee3 06b8 e2ea 8138
00000100: 2abe e938 d4f7 aab9 6c0d 9b38 c69c 4cb8
00000110: 2880 a9b8 7b91 09b9 841d 5539 e25c a737
00000120: 8ce3 9839 e54f 8c38 d168 9439 c4bb 16b9
00000130: 6ced e638 2ad3 12b9 fb0a 13b9 786c 42b9
00000140: 476e 01b9 fcec 1737 d503 21b8 55be a3b8
00000150: 0d22 b7b8 5373 1fb8 fa78 3238 2d74 3fb8
00000160: f2b8 53b8 48f0 d2b8 89a8 6d39 d4bb acb8
00000170: 7651 b437 27d8 2ab8 5495 bb38 2700 96b9
00000180: ff0e 22b9 c566 d837 e89a 2a38 9e6d 6db9
00000190: aaff d8b8 ca75 1c38 8d85 11b9 0efb 2a39
000001a0: d80d d738 a391 fe36 60c9 3039 1e91 52b9
000001b0: f954 b1b5 8a13 1239 5721 d639 8315 9839
000001c0: 903f 3c39 7cb6 bdb8 2591 6d39 100a e738
000001d0: 0128 72b8 1371 0ab9 1efa 8f38 6e98 2db7
000001e0: bcb8 6539 de1d af38 0688 8f39 f2c3 a1b8
000001f0: b36f 6e37 2e29 40b9 b085 d1b6 65f1 0438
00000200: 205a b437 e882 8339 22d5 9c38 811f 6d39
00000210: 88e0 b0b9 2e34 1c39 ab9d ad38 4a99 a2b8
00000220: a2de 38b9 1e74 96b6 b9b4 1539 cde6 0239
00000230: 5dda 3eb9 1c1f 9ab8 7732 c037 52d4 fbb7
00000240: 9724 8d38 9045 7338 3347 a637 3158 59bd
00000250: bae8 1239 a725 d138 45d9 e8b8 849b 25b9
00000260: b8c6 b237 2ebf a638 62da 2239 cb33 eb38
00000270: 7ebb b737 1e8f af38 664f 2fb9 a706 d0b9
00000280: 0b68 d038 aa33 25b9 e975 f237 9f3f 9db6
00000290: 5159 9d38 f16d 54b9 f1fb 9eb8 856f b7b9
000002a0: e2d6 4639 31a7 c137 f31b 9337 ea86 9438
000002b0: 27ae d738 4590 fab8 e2ce 7d39 e276 ed38
000002c0: adff 9333 33c1 2038 2d80 05b8 affb 49b8
000002d0: f955 62b8 7527 1639 24c2 8839 a7b3 6b39
000002e0: ffe4 9eba 1b76 e4b7 ba67 c0b7 ba44 7837
000002f0: f807 b7b9 f910 04b9 b8d4 bab9 9889 2237
00000300: 5eec 403c e0dd a5b8 c5ab dab7 b820 88b6
00000310: 308a 8738 6781 d739 efa6 1538 b9f8 2bb9
00000320: d937 d9b9 0f13 e539 2841 12b7 ad1d 22b9
00000330: 7894 9937 e15d 14b9 c15d 1cb8 734b a538
00000340: 3fee bab8 ea48 c938 64bb ed38 1fb4 6ab5
00000350: 17ad ac38 f746 0039 6896 2c39 3901 0939
00000360: a2b9 e538 e102 8db9 cd98 0339 5009 feb8
00000370: bea5 2739 4ca7 0cb9 17df 6d39 f576 5d37
00000380: 85fd a7b8 1c61 6c35 01b1 6837 49d4 2739
00000390: 21f8 8238 7930 3cb8 f22f f3b8 317f 2937
000003a0: 73dc dbb7 2286 e537 7ec8 f738 c544 e3b7
000003b0: e030 63b7 9dbb 2b39 194a 5639 3db8 beb6
000003c0: 92aa 03b9 7cd4 2c39 f95c b7b8 974a 72b7
000003d0: 4650 6c38 40b8 1b38 3046 61b9 a1ee 3a38
000003e0: b4d8 6538 5cc2 adb8 fd5d e538 6a0b 9d38
000003f0: 181a 04b9 f612 69b6 8cc8 db38 e7bf 4c39
-3.1123724e-05 -0.00014931643 0.00019738742 0.0001455652 -8.201463e-05 2.8529204e-05 -2.5876316e-05 -6.381969e-05
8.658261e-05 -9.5043986e-05 0.000120012235 0.000127727 -0.00015670275 8.089756e-05 3.187221e-05 0.00011845441
0.00024757147 0.0001515944 -9.897725e-06 -2.4926705e-05 0.00018718897 -6.553185e-05 -8.70003e-05 2.0679197e-05
-6.279545e-05 0.00010196901 -8.653727e-05 8.5071384e-05 -0.00013251744 -0.00014418662 -0.0001206265 -6.921415e-05
-2.7404089e-05 3.661711e-05 -0.00016696376 7.875678e-05 -0.0001115813 -8.71435e-05 -9.000598e-05 0.0001669024
9.451172e-05 -0.0001476575 -5.561757e-05 7.404178e-05 -0.00013566783 2.5051295e-05 3.464306e-05 0.0002741806
-0.00022244644 -0.0002369102 -9.744546e-07 2.217733e-05 -2.0334588e-05 2.2270107e-05 4.452049e-05 0.00010681857
-0.00028311327 -0.00016907766 0.00019454022 8.964328e-05 -3.7717025e-05 3.9026304e-06 -3.215955e-05 6.19495e-05
0.000111457266 -0.00032609573 7.393476e-05 -4.8783397e-05 -8.082419e-05 -0.00013119534 0.00020324258 1.9951203e-05
0.00029161235 6.690602e-05 0.00028306854 -0.00014375063 0.00011011478 -0.0001400231 -0.00014023103 -0.0001854169
-0.0001234348 9.055479e-06 -3.838896e-05 -7.807898e-05 -8.7324624e-05 -3.8015958e-05 4.2551175e-05 -4.5646146e-05
-5.0478564e-05 -0.00010058336 0.00022664866 -8.236585e-05 2.1495605e-05 -4.0732466e-05 8.9446694e-05 -0.00028610343
-0.0001545511 2.5797062e-05 4.0675426e-05 -0.00022642917 -0.00010347304 3.7302998e-05 -0.00013878029 0.00016305989
0.000102545775 7.5867442e-06 0.00016859686 -0.00020081221 -1.3212258e-06 0.00013930924 0.000408421 0.00029007727
0.00017952756 -9.046213e-05 0.00022656152 0.00011016813 -5.7734553e-05 -0.00013202829 6.865359e-05 -1.0347094e-05
0.00021907961 8.3502135e-05 0.0002737643 -7.713576e-05 1.42119125e-05 -0.00018325888 -6.2442487e-06 3.169607e-05
2.149964e-05 0.000250838 7.478359e-05 0.00022613817 -0.00033736625 0.00014896758 8.278651e-05 -7.753314e-05
-0.00017630545 -4.483866e-06 0.00014277072 0.00012483746 -0.00018201159 -7.349087e-05 2.2911683e-05 -3.0020401e-05
6.730219e-05 5.80005e-05 1.9821897e-05 -0.05306262 0.00014010342 9.97291e-05 -0.00011103092 -0.0001579356
2.131179e-05 7.951107e-05 0.00015530878 0.000112153204 2.1902608e-05 8.371308e-05 -0.00016718879 -0.00039677808
9.9375924e-05 -0.00015754873 2.8903554e-05 -4.686371e-06 7.50298e-05 -0.00020258852 -7.580955e-05 -0.00034987569
0.00018962802 2.3085247e-05 1.753678e-05 7.08232e-05 0.00010284437 -0.00011947801 0.0002420503 0.00011323184
6.891728e-08 3.8326903e-05 -3.1829044e-05 -4.8156533e-05 -5.3962667e-05 0.00014319814 0.00026084587 0.00022478272
-0.001212269 -2.7234715e-05 -2.2936485e-05 1.4797954e-05 -0.00034910417 -0.00012594824 -0.00035635172 9.6879885e-06
0.011775104 -7.9091405e-05 -2.6067612e-05 -4.056925e-06 6.463041e-05 0.00041104408 3.5679837e-05 -0.00016400487
-0.00041431075 0.00043692483 -8.7174485e-06 -0.00015460579 1.8308157e-05 -0.00014149353 -3.7280613e-05 7.8818666e-05
-8.913548e-05 9.598008e-05 0.00011335945 -8.7433904e-07 8.2338396e-05 0.00012233468 0.00016459229 0.00013065794
0.00010954148 -0.0002689576 0.00012550056 -0.000121133984 0.00015988105 -0.00013413763 0.00022685189 1.3200323e-05
-8.010402e-05 8.8058164e-07 1.38694895e-05 0.00016005443 6.245101e-05 -4.4867837e-05 -0.000115960735 1.0102799e-05
-2.6209489e-05 2.7361388e-05 0.000118152224 -2.7092532e-05 -1.3541634e-05 0.00016377722 0.00020436234 -5.6838894e-06
-0.00012556676 0.00016482355 -8.7434375e-05 -1.4441691e-05 5.6341545e-05 3.7126476e-05 -0.00021483819 4.4568096e-05
5.4799675e-05 -8.285485e-05 0.000109370776 7.4884694e-05 -0.00012598222 -3.4730742e-06 0.000104800885 0.00019526445

autoencoders.0.decoder.cells.0.lstm.bias_ih f4 [32]
00000000: c26a 2f38 597b 9c38 6d66 5a38 ca0a 1439
00000010: 856c 5fb6 40b2 6638 e76e e938 f013 3eb9
00000020: eaf3 9637 5295 dbb8 c38f ff37 bfe7 ce36
00000030: 245f 8339 20f0 15b7 5202 3cb9 0744 ff37
00000040: 52ab 1db9 75b6 f638 7ca4 0e39 dd5f a4b8
00000050: 0a3d 34b9 4909 0839 efd7 42b9 f05f ecb7
00000060: e16a 1638 29f2 6bb9 838e 5738 17e5 0b39
00000070: 95bd ab36 8887 0cb9 42a1 3239 fd5d 77b8
4.1822677e-05 7.461635e-05 5.207064e-05 0.00014118399 -3.3292756e-06 5.500228e-05 0.00011130963 -0.0001812724
1.7994975e-05 -0.00010470547 3.0465313e-05 6.166257e-06 0.00025057152 -8.9370005e-06 -0.00017929942 3.0430047e-05
-0.00015036509 0.00011764179 0.0001360345 -7.837985e-05 -0.00017188877 0.0001297343 -0.00018581723 -2.8178067e-05
3.5862326e-05 -0.00022501558 5.139272e-05 0.00013341416 5.1182674e-06 -0.0001340193 0.00017035476 -5.8976922e-05

autoencoders.0.decoder.cells.0.lstm.bias_hh f4 [32]
00000000: c26a 2f38 597b 9c38 6d66 5a38 ca0a 1439
00000010: 856c 5fb6 40b2 6638 e76e e938 f013 3eb9
00000020: eaf3 9637 5295 dbb8 c38f ff37 bfe7 ce36
00000030: 245f 8339 20f0 15b7 5202 3cb9 0744 ff37
00000040: 52ab 1db9 75b6 f638 7ca4 0e39 dd5f a4b8
00000050: 0a3d 34b9 4909 0839 efd7 42b9 f05f ecb7
00000060: e16a 1638 29f2 6bb9 838e 5738 17e5 0b39
00000070: 95bd ab36 8887 0cb9 42a1 3239 fd5d 77b8
4.1822677e-05 7.461635e-05 5.207064e-05 0.00014118399 -3.3292756e-06 5.500228e-05 0.00011130963 -0.0001812724
1.7994975e-05 -0.00010470547 3.0465313e-05 6.166257e-06 0.00025057152 -8.9370005e-06 -0.00017929942 3.0430047e-05
-0.00015036509 0.00011764179 0.0001360345 -7.837985e-05 -0.00017188877 0.0001297343 -0.00018581723 -2.8178067e-05
3.5862326e-05 -0.00022501558 5.139272e-05 0.00013341416 5.1182674e-06 -0.0001340193 0.00017035476 -5.8976922e-05

autoencoders.0.decoder.cells.0.cell_residual_transform.weight f4 [8, 1]
00000000: b5d7 863e 19de f2b8 13f4 80be deb0 e93d
00000010: 497b 1e3e f5f3 b738 c9a2 29bf ccc7 8abe
0.26336446 -0.00011580828 -0.25186214 0.11410688 0.15476717 8.7715605e-05 -0.66264015 -0.27105558

autoencoders.0.decoder.cells.0.cell_residual_transform.bias f4 [8]
00000000: bbb8 813f 41d9 00b9 a5c4 17bf c16d 1b3f
00000010: 3b90 4eb9 563f ebbe 7e3e eebd b256 a1be
1.01345 -0.00012287965 -0.5928443 0.60714346 -0.00019699421 -0.4594676 -0.11633013 -0.31511456

autoencoders.0.decoder.output_layer.weight f4 [1, 8]
00000000: d7b9 da3e ccf7 9338 655d b43d 8f89 e0bd
00000010: 86d3 203e a6fe 283c e06f b1be 1aee 203e
0.4271991 7.055662e-05 0.08806876 -0.10963737 0.1570569 0.010314619 -0.34655666 0.15715829

autoencoders.1.encoder.cells.0.weight_h_2 f4 [8, 8]
00000000: 8831 9939 a9cd 8d33 5eb7 6937 c1f6 9539
00000010: 9766 8b38 7d47 c837 12a2 de38 f079 08b9
00000020: 5b79 5d39 46fa 44b8 91d5 d239 3a8c d739
00000030: 13d0 1338 22da d738 6871 0eb7 c28d 24b9
00000040: d224 b938 08af d137 7af8 e537 65f0 63b9
00000050: 9e42 af39 ce4d a7b8 da41 dbb8 602b 1639
00000060: 4015 7ab8 031f adb9 f9db 8d39 0233 98b8
00000070: 61d3 e338 122a 83b8 7f09 3839 f13a 2d39
00000080: 4d03 20b8 b0df 97b9 4b74 9c36 cd3a 9639
00000090: d85b 5ab8 a65e 9838 fcef 3738 7acf d238
000000a0: 01d1 38b9 6ce5 27b7 79cb b638 1632 4cb9
000000b0: a1c0 a937 3323 dc38 2d9e c3b8 9017 d4b7
000000c0: bd4d 11b8 02ea fc36 d268 8fb5 992c 00b3
000000d0: bfdf 5e39 bf9e fa38 3f64 bdb8 5c72 0439
000000e0: e488 2ab7 5fdf 0239 78f9 4039 060a 5539
000000f0: bb0f 3338 75b3 6939 0993 e338 c3a7 3eb9
0.00029219338 6.6032335e-08 1.3930576e-05 0.0002860334 6.647145e-05 2.3875147e-05 0.00010615973 -0.00013015396
0.00021121411 -4.6963127e-05 0.0004021344 0.00041112473 3.5241315e-05 0.00010292629 -8.490264e-06 -0.00015693068
8.828346e-05 2.4996247e-05 2.7414633e-05 -0.00021737961 0.00033428235 -7.977673e-05 -0.000104549996 0.00014321273
-5.9624435e-05 -0.00033020237 0.00027057508 -7.257426e-05 0.00010863576 -6.254403e-05 0.00017551145 0.00016520523
-3.8150047e-05 -0.00028967625 4.6627006e-06 0.0002865404 -5.2060786e-05 7.2655544e-05 4.3854103e-05 0.00010052226
-0.00017625467 -1.0007392e-05 8.716336e-05 -0.00019473615 2.023607e-05 0.00010496974 -9.327787e-05 -2.5283342e-05
-3.4643093e-05 7.5374273e-06 -1.0684837e-06 -2.9842884e-08 0.00021254922 0.00011950498 -9.0308946e-05 0.00012631103
-1.0164662e-05 0.00012480978 0.00018403481 0.00020316997 4.2691576e-05 0.00022287465 0.00010851591 -0.00018182308

autoencoders.1.encoder.cells.0.bias_h_2 f4 [8]
00000000: 0000 0000 0000 0000 0000 0000 0000 0000
00000010: 0000 0000 0000 0000 0000 0000 0000 0000
0.0 0.0 0.0 0.0 0.0 0.0 0.0 0.0

autoencoders.1.encoder.cells.0.lstm.weight_ih f4 [32, 1]
00000000: af7f 0939 e3a4 89b9 390a 9837 cd7c fb36
00000010: 9488 3f38 0c03 7039 86bd 8bb8 dada 3eb9
00000020: fd96 da39 8ab3 ce39 3508 f539 a492 58b9
00000030: 81c6 26b7 c1da 1a39 56bb 4639 2e62 4db9
00000040: aebb 5739 86b2 a138 481a 88b8 e174 00b9
00000050: c3ab 53b8 63b9 0f39 5a55 80b9 c8a2 a4b8
00000060: 6eac db37 6e42 96b9 c245 8838 7644 9f39
00000070: f7ff d236 3ee5 3eb9 c89d bbb9 2ba4 1db9
0.00013112904 -0.00026253526 1.8124572e-05 7.4949116e-06 4.5665147e-05 0.00022889319 -6.663338e-05 -0.0001820134
0.00041692695 0.0003942515 0.00046736156 -0.00020653993 -9.940589e-06 0.00014768077 0.0001895254 -0.00019586898
0.00020573914 7.710331e-05 -6.4898806e-05 -0.00012250572 -5.0466286e-05 0.00013706605 -0.00024477654 -7.85045e-05
2.6187128e-05 -0.00028659723 6.497979e-05 0.0003037785 6.288286e-06 -0.00018205211 -0.00035784976 -0.00015033844

autoencoders.1.encoder.cells.0.lstm.weight_hh f4 [32, 8]
00000000: a945 6539 110c 3bb9 7355 c035 b151 c8b8
00000010: 47e6 1339 7882 fab8 bf51 a7b7 f184 aab8
00000020: a6cf 5db9 ca7b ce38 41f6 7c38 b37b 8e38
00000030: 80c4 2339 1ee8 d438 2f87 bbb8 3249 4d39
00000040: 8e02 6538 ef23 2c37 1a82 3e38 ffd3 9839
00000050: 613f 1fb9 c09f fbb7 cb67 f738 e9e9 1239
00000060: ec2a 44b8 4878 f8b8 741d fcb7 689f 06b7
00000070: c667 a0b9 729c 3c39 f6d8 c538 bf5b fe37
00000080: d28d e939 43a5 35b9 9008 12b7 2165 5db9
00000090: 4d3c 86b9 857c 13b9 228f 53b8 a1a1 c238
000000a0: e4a9 2f39 f153 40b8 6c67 1139 1bea bf39
000000b0: ba35 b8b7 42e7 9438 5a4b 3db8 d419 d3b8
000000c0: 3ea5 9ab8 38b2 74b9 6bf6 27b8 ffb4 9cb9
000000d0: 424d 9c36 e070 cab7 6f77 7938 9431 87b8
000000e0: 865e 95b8 21d9 0937 a0c6 c7b7 53be ebb8
000000f0: 73dc 87b8 c363 40b9 f94b 8cb8 5e18 94b8
00000100: e57d f538 47fb dfb8 0a4a 5339 377a 1fb9
00000110: 01a8 51b8 ee16 24b9 425e a3b5 8fb7 a1b7
00000120: e663 e3b8 e740 6a37 ba29 3039 96dd 4239
00000130: 42be 6537 98a3 a738 ba01 9c39 b0a9 6738
00000140: f83c a839 62d1 9cb8 e80a b6b7 c125 9237
00000150: 3abe 98b9 17fe 5139 870f 6739 9932 0938
00000160: c62f 4d39 a883 ff38 7226 80b9 967f 2339
00000170: 0a14 d6b9 e6d6 ddb9 3bac 4139 dd15 63b8
00000180: 86ad a2b6 0053 95b8 dbe2 8db9 99b3 82b6
00000190: fe2c b4b8 f417 8cb7 10ec 4cb7 d97e 2f39
000001a0: c918 9ab8 0c90 bf38 98e5 a638 75cc a4b8
000001b0: 6145 dbb8 0eb8 3fb8 5146 abb9 68ca a3b8
000001c0: 885b 023a 7991 b2b8 e471 a436 9a3b e2b8
000001d0: 703c 97b9 1db1 3139 9c61 2339 879f dc39
000001e0: ac0e 2039 faf5 4cb9 f560 8ab8 f528 3b39
000001f0: d225 8239 df9f dc37 de4e 9a38 7f5b 1d38
00000200: cafe 3338 ce13 82b9 86ae 8e39 b44f b4b8
00000210: 7a56 9ab8 1df2 9db8 72b7 ffb8 09f2 e9b8
00000220: 55bb 32b8 db34 cd37 768f 22b8 42a1 dc38
00000230: d153 d7b6 102f f9b8 6275 c637 1878 d738
00000240: 3e13 20b9 c147 2fb9 90db 68b8 55a3 09b9
00000250: d9c0 07b9 18be 89b8 06a5 3c39 fb50 57b8
00000260: 035e 6e39 623f 56b6 eb69 3a39 d394 5138
00000270: 85eb 57b8 a8ca dcb8 520f 86b8 dd32 c1b8
00000280: ca1d 3439 bd8e 0bb8 0667 6e38 8dcf b239
00000290: c734 4fb9 85fb d5b8 0512 7937 7deb 0839
000002a0: 9f0f a2b8 885a 8f38 a781 27b8 4bbc 8037
000002b0: 1fc0 0c36 6694 24b9 b835 5eb8 baaf abb8
000002c0: 503f d2b8 c7a7 38b7 1bf2 7339 a29d b538
000002d0: 033d b737 87e5 1739 b4a6 c537 c815 6638
000002e0: 942d 0239 af5f 98b8 84c2 8b38 ef12 d438
000002f0: 701d eb39 9e49 e039 bcdb 2d38 8ccc 1e38
00000300: cc74 8a38 b288 30b9 f440 1eb9 6aa7 c4b9
00000310: 52fa 4eb9 43b4 a3b8 c126 8d38 760b d438
00000320: ecc9 7d36 f518 af37 6626 f938 f73b 4db7
00000330: ea84 fab9 e59e 32b8 b47a 9538 be21 c838
00000340: e088 79b8 d9c0 9db7 d3f8 bbb5 88cc 7ab8
00000350: ee7f 45b9 b1d1 1f39 1c56 19b9 8801 8b39
00000360: d8d8 aab8 0e14 8838 7a2f 78b6 1c7f 96b8
00000370: df71 bfb6 030a 8cb8 a7e4 65b7 43c0 ae38
00000380: a2ee 60b9 d432 1439 e9a8 63b9 1332 2339
00000390: 7eab 8938 02d3 a1b6 606e 0939 684d 2e37
000003a0: 97b6 42b8 b67c 89b9 fad7 2a39 70b6 3139
000003b0: b3c4 1b38 aaa8 f8b8 b0b6 04b8 6ed2 1936
000003c0: be1c f038 7b37 3539 5a77 d5b9 b9c7 1f39
000003d0: f268 80b9 a6bf e2b8 a079 4039 c2eb 8839
000003e0: da51 2239 aac4 91b8 4c77 1cb9 62b6 b838
000003f0: 53b7 25b9 0547 d3b9 0edb a7b9 0f2c ac38
0.00021865092 -0.00017838205 1.4329984e-06 -9.5519594e-05 0.00014104797 -0.00011945231 -1.9946017e-05 -8.130994e-05
-0.00021153557 9.845903e-05 6.0310824e-05 6.7941284e-05 0.00015618093 0.00010152183 -8.942035e-05 0.00019577591
5.4600234e-05 1.0260365e-05 4.5420697e-05 0.0002914965 -0.00015187032 -2.9995921e-05 0.00011797211 0.00014010783
-4.6770016e-05 -0.00011847966 -3.0054456e-05 -8.024137e-06 -0.00030594895 0.00017987358 9.434104e-05 3.0321882e-05
0.00044546888 -0.0001732307 -8.704272e-06 -0.00021113876 -0.000256034 -0.000140654 -5.0439623e-05 9.2807466e-05
0.0001675259 -4.5854544e-05 0.00013866805 0.0003660478 -2.1959528e-05 7.100265e-05 -4.5131288e-05 -0.00010066075
-7.374071e-05 -0.00023336045 -4.0045397e-05 -0.0002988949 4.6581563e-06 -2.4132838e-05 5.9477457e-05 -6.446536e-05
-7.12248e-05 8.216391e-06 -2.381514e-05 -0.00011241124 -6.4783635e-05 -0.00018347711 -6.689871e-05 -7.061729e-05
0.0001170596 -0.00010680273 0.0002015011 -0.0001520895 -4.998595e-05 -0.00015648801 -1.2171879e-06 -1.9278172e-05
-0.00010842811 1.3962598e-05 0.00016800212 0.00018583829 1.36937615e-05 7.993652e-05 0.00029755925 5.5232726e-05
0.00032088882 -7.47766e-05 -2.170117e-05 1.7422137e-05 -0.0002913343 0.00020026449 0.00022035661 3.2710468e-05
0.0001956812 0.000121838704 -0.00024442706 0.00015592421 -0.0004083219 -0.00042312517 0.00018470075 -5.414138e-05
-4.848177e-06 -7.1203336e-05 -0.00027062636 -3.89521e-06 -8.591449e-05 -1.6700455e-05 -1.221431e-05 0.00016736555
-7.347909e-05 9.1344205e-05 7.958262e-05 -7.8582125e-05 -0.000104556566 -4.5709363e-05 -0.0003266805 -7.810147e-05
0.00049727457 -8.514798e-05 4.9008395e-06 -0.000107876214 -0.00028845994 0.00016946015 0.00015581254 0.00042080527
0.00015264255 -0.0001954659 -6.5984124e-05 0.00017848967 0.0002482371 2.630049e-05 7.3579824e-05 3.751693e-05
4.2914216e-05 -0.00024810288 0.0002721438 -8.597915e-05 -7.3594e-05 -7.5314405e-05 -0.00012193517 -0.00011155388
-4.2612974e-05 2.4462517e-05 -3.875742e-05 0.00010520454 -6.417257e-06 -0.00011882011 2.36581e-05 0.00010274368
-0.00015265957 -0.00016716031 -5.5517594e-05 -0.00013126184 -0.00012946445 -6.568077e-05 0.00017990553 -5.1335413e-05
0.00022732471 -3.1925379e-06 0.000177778 4.9968086e-05 -5.147934e-05 -0.00010528165 -6.3924716e-05 -9.212431e-05
0.00017177235 -3.3273118e-05 5.683957e-05 0.00034105443 -0.0001976072 -0.000102034806 1.4845752e-05 0.00013057697
-7.7276716e-05 6.835634e-05 -3.993665e-05 1.534647e-05 2.0973455e-06 -0.00015695542 -5.2978954e-05 -8.186647e-05
-0.00010025373 -1.1006318e-05 0.00023264477 8.660114e-05 2.184371e-05 0.00014485988 2.3561857e-05 5.485656e-05
0.00012414745 -7.265747e-05 6.664268e-05 0.000101124744 0.00044844626 0.00042779458 4.1451058e-05 3.7860635e-05
6.602108e-05 -0.00016835591 -0.00015092251 -0.00037508766 -0.00019738943 -7.806022e-05 6.7306224e-05 0.000101110825
3.7817472e-06 2.0873247e-05 0.000118803975 -1.2232914e-05 -0.00047782745 -4.258649e-05 7.127729e-05 9.543028e-05
-5.94937e-05 -1.880566e-05 -1.4005003e-06 -5.979513e-05 -0.00018835042 0.00015241538 -0.00014623295 0.00026513287
-8.146622e-05 6.488721e-05 -3.6982515e-06 -7.176233e-05 -5.7055e-06 -6.677585e-05 -1.3702701e-05 8.332778e-05
-0.00021451202 0.00014133315 -0.00021711331 0.00015563545 6.564612e-05 -4.8227384e-06 0.00013106456 1.0389231e-05
-4.6423254e-05 -0.00026223593 0.00016292921 0.00016947999 3.713807e-05 -0.00011856978 -3.1641393e-05 2.2921263e-06
0.000114494454 0.00017282173 -0.0004071545 0.00015237824 -0.00024492253 -0.00010812217 0.00018355856 0.00026115595
0.00015480016 -6.95077e-05 -0.00014921761 8.807775e-05 -0.0001580392 -0.0004029797 -0.0003201593 8.209806e-05

autoencoders.1.encoder.cells.0.lstm.bias_ih f4 [32]
00000000: 0000 0000 0000 0000 0000 0000 0000 0000
00000010: 0000 0000 0000 0000 0000 0000 0000 0000
00000020: 0000 0000 0000 0000 0000 0000 0000 0000
00000030: 0000 0000 0000 0000 0000 0000 0000 0000
00000040: 0000 0000 0000 0000 0000 0000 0000 0000
00000050: 0000 0000 0000 0000 0000 0000 0000 0000
00000060: 0000 0000 0000 0000 0000 0000 0000 0000
00000070: 0000 0000 0000 0000 0000 0000 0000 0000
0.0 0.0 0.0 0.0 0.0 0.0 0.0 0.0
0.0 0.0 0.0 0.0 0.0 0.0 0.0 0.0
0.0 0.0 0.0 0.0 0.0 0.0 0.0 0.0
0.0 0.0 0.0 0.0 0.0 0.0 0.0 0.0

autoencoders.1.encoder.cells.0.lstm.bias_hh f4 [32]
00000000: 0000 0000 0000 0000 0000 0000 0000 0000
00000010: 0000 0000 0000 0000 0000 0000 0000 0000
00000020: 0000 0000 0000 0000 0000 0000 0000 0000
00000030: 0000 0000 0000 0000 0000 0000 0000 0000
00000040: 0000 0000 0000 0000 0000 0000 0000 0000
00000050: 0000 0000 0000 0000 0000 0000 0000 0000
00000060: 0000 0000 0000 0000 0000 0000 0000 0000
00000070: 0000 0000 0000 0000 0000 0000 0000 0000
0.0 0.0 0.0 0.0 0.0 0.0 0.0 0.0
0.0 0.0 0.0 0.0 0.0 0.0 0.0 0.0
0.0 0.0 0.0 0.0 0.0 0.0 0.0 0.0
0.0 0.0 0.0 0.0 0.0 0.0 0.0 0.0

autoencoders.1.encoder.cells.0.cell_residual_transform.weight f4 [8, 1]
00000000: f5f6 0ab9 a9b5 6b38 0093 72b9 a8c1 85b6
00000010: ccc8 da38 343d 9db9 f987 0e39 466f 6037
-0.00013252704 5.619755e-05 -0.0002313368 -3.9862534e-06 0.000104324514 -0.00029990973 0.00013592829 1.3377348e-05

autoencoders.1.encoder.cells.0.cell_residual_transform.bias f4 [8]
00000000: 8af4 5338 4d4a ecb9 a90d 5ab8 ed4a 1bb8
00000010: 5bc7 6139 770d 0ab9 10db b638 d6a4 3a38
5.0534065e-05 -0.00045068786 -5.1987972e-05 -3.702466e-05 0.00021531938 -0.00013165722 8.71924e-05 4.449937e-05

autoencoders.1.decoder.cells.0.weight_h_2 f4 [8, 8]
00000000: 3da1 bdb7 c77d a235 2426 2236 1de7 883c
00000010: fa14 a4b5 9ad7 ceb7 833f ddb8 52d1 15b9
00000020: 29df 11b8 9481 2a39 3075 0e39 7ad7 013e
00000030: d785 a039 8dc4 c9b8 3836 2fb7 1173 f838
00000040: 9873 20b7 f74c 4039 da4f 4638 69bd 5eb9
00000050: 6ab4 c838 f559 a3b7 6b1e 6338 d1c8 88b6
00000060: 1be1 5e38 5415 f9b7 94bd 7e39 89fe 49b9
00000070: 6989 2739 3272 8738 c407 e439 75e0 a538
00000080: 5e15 1539 957b 74b8 d963 d4b7 1e81 cbb9
00000090: 3e04 b1b8 3549 53b9 fdea 6c37 6a20 6bb9
000000a0: 0287 04b9 d312 bf38 f5fb 29b8 defe 4538
000000b0: 2900 1e39 af0f 04b9 e7e5 2bb7 ba14 94b8
000000c0: a409 92b8 fe5d 5039 4514 72b8 8045 2238
000000d0: d06f 0837 1044 2fb8 11ac 01b9 79d6 f4b8
000000e0: a4bb 1ab8 ad8b b2b8 b2ab b338 30a2 6538
000000f0: b6c9 3439 8bbe 28b9 4312 5037 fc30 3438
-2.2605638e-05 1.2106547e-06 2.4162082e-06 0.016711766 -1.2225057e-06 -2.4657511e-05 -0.00010549931 -0.00014287725
-3.4778528e-05 0.00016260735 0.00013585831 0.12679854 0.00030617297 -9.621037e-05 -1.0443437e-05 0.00011846994
-9.563657e-06 0.00018339219 4.7281246e-05 -0.0002124213 9.570348e-05 -1.9473004e-05 5.4149346e-05 -4.076494e-06
5.313857e-05 -2.9693045e-05 0.00024293951 -0.00019263675 0.0001597755 6.458572e-05 0.00043493335 7.9096215e-05
0.00014217707 -5.8289228e-05 -2.5318865e-05 -0.00038815377 -8.440808e-05 -0.000201498 1.4121409e-05 -0.00022423422
-0.00012638795 9.111096e-05 -4.0527393e-05 4.7205824e-05 0.00015068114 -0.00012594344 -1.0245923e-05 -7.0610506e-05
-6.963618e-05 0.0001987144 -5.7716174e-05 3.8688537e-05 8.132265e-06 -4.178664e-05 -0.00012366498 -0.00011674775
-3.6891215e-05 -8.513718e-05 8.567366e-05 5.4748903e-05 0.00017241281 -0.00016092711 1.2402018e-05 4.2960964e-05

autoencoders.1.decoder.cells.0.bias_h_2 f4 [8]
00000000: 1eeb 5339 6307 0939 69b6 e1b8 ae57 8bb9
00000010: 60be e738 5544 77b9 a355 24b9 c811 8838
0.00020210116 0.0001306809 -0.000107628126 -0.00026577472 0.000110503985 -0.00023581211 -0.00015672161 6.4882974e-05

autoencoders.1.decoder.cells.0.lstm.weight_ih f4 [32, 1]
00000000: ffa9 d4b8 19ca a638 a45f 1d39 625f ce36
00000010: fd08 6fb7 d6fa 0538 3069 9ab8 5d3b 29b9
00000020: fd02 fd38 00dc 0638 0cc5 a4b7 16f5 6939
00000030: 9cbf b9b8 738f 67b8 1232 4837 2f9b edb8
00000040: bc02 44b8 73e7 0938 0498 f9b8 1983 91b8
00000050: 58c9 2ab9 5c0a b038 5acc 1eb8 c8c2 1439
00000060: 086b bab8 1966 4bb9 d8eb 0339 c6cf 1a39
00000070: fadf 6d38 7fc1 fcb7 f552 8b38 9c66 a537
-0.00010140612 7.9531404e-05 0.00015008316 6.1503824e-06 -1.4247603e-05 3.194328e-05 -7.362885e-05 -0.0001613921
0.00012064537 3.215298e-05 -1.964208e-05 0.00022311913 -8.8571775e-05 -5.520829e-05 1.1932587e-05 -0.00011329946
-4.6732588e-05 3.28789e-05 -0.0001190156 -6.9385576e-05 -0.0001628747 8.3942636e-05 -3.7860453e-05 0.00014186942
-8.889107e-05 -0.00019397623 0.00012580992 0.00014763986 5.6713798e-05 -3.0130845e-05 6.6434885e-05 1.9717314e-05

autoencoders.1.decoder.cells.0.lstm.weight_hh f4 [32, 8]
00000000: 5690 2fb7 8fc7 d737 9d26 a1b6 61b1 df38
00000010: 6721 5bb7 a9ef 0eb6 d99c bfb8 64ee d3b9
00000020: 51b4 4db8 667f e8b8 92a3 5d38 88d2 43b8
00000030: cf09 2e39 8d6b 08b9 8474 0d37 c84d 3d38
00000040: 6240 3739 d885 0838 513a ba38 f093 2939
00000050: 3a30 2837 547a 9438 d066 3b39 d8ec fe39
00000060: b77d 80b6 35fc e0b8 6822 fcb5 5d04 68b8
00000070: 066f aab8 c639 5c39 7e3a 2f38 b72e 68b9
00000080: 2847 b638 ea5e 69b6 d478 d1b9 6c79 fcb7
00000090: 2aca 5839 b9a6 8438 ee2e 19b8 50b5 d537
000000a0: 40c8 84b8 37da 0ab9 c210 7bb7 e169 7639
000000b0: 3841 0e39 e5ac dbb9 fcbf 05b9 fc08 b6b8
000000c0: 242f 6a39 03db 7938 d085 3cb9 65ff 8437
000000d0: 28e5 9635 ff91 ca38 4cf9 9cb8 36d6 84b8
000000e0: d914 2db7 7442 a3b9 be80 be37 b5b2 78b8
000000f0: be06 11b8 f533 efb7 a861 4eb6 2638 91b9
00000100: e9ce 32b9 7ff1 0039 c448 edb6 b2b9 0e38
00000110: 1e9e b938 fc6c 58b8 6f50 fe38 f1c0 5639
00000120: 7fe2 52b9 278d 0639 ee7a 92b9 1156 7c38
00000130: 5412 1539 47ee 99b8 1237 5236 6c79 0db9
00000140: 62b1 2ab9 9821 82b9 d309 1fb9 9596 c6b8
00000150: b39b 36b8 c64e bdb7 e720 9438 e04d a4b5
00000160: e5db 9138 0e81 8836 4beb 1836 d453 1f39
00000170: 6f1e f938 4db1 83b8 6ac9 efb8 4673 0ab8
00000180: 97aa 2239 e67c 3939 6ba5 1339 2c23 cfb8
00000190: 348b e338 989b 11b8 5ace fc38 00d5 e938
000001a0: aabf d539 1dd8 7a37 9142 e039 1a3a 8d38
000001b0: 6d15 3db9 5a72 3039 d0af d538 30c0 4939
000001c0: 0206 3739 8d37 87b9 9f70 8138 41de b438
000001d0: 17eb f7b8 7f0c 4838 9b19 a239 cf06 c5b8
000001e0: 063d 1db9 eb80 c838 6ef8 18b9 873e 1839
000001f0: ded2 1d39 7671 73b8 5672 08b7 aec6 b7b8
00000200: 98ce a538 a9d0 abb8 cc8f 1a39 2488 b4b8
00000210: 7345 1bb9 6a84 eeb8 72df 2b38 ad5b 2eb8
00000220: 491f 71bd 4aae 2eb8 0c16 f538 04c9 4037
00000230: aad1 7db8 265a d536 16a5 c6b8 f0fb 5d39
00000240: cd36 f034 fc12 51b9 8877 c8b8 ce5d 07b8
00000250: 7787 3238 6123 ee38 d871 ce38 5ddc 29b9
00000260: 523c 15b8 00c4 3039 08db db37 4dc9 8838
00000270: ceef f538 727b 72b9 8aed 2438 ff50 9639
00000280: 87d9 0b39 c98f 0e39 3367 9e38 b83a 2539
00000290: 20ac 41b9 a49d 49b8 179c 66b7 be69 c1b8
000002a0: 5a0a c1b8 cc0a ba38 0317 0c39 e3fd 8d37
000002b0: 4bcb 0c39 d90f f638 bf04 fbb7 f861 8bb8
000002c0: 29cf 2a3d b3d1 75b8 bc4e 7238 306f 1639
000002d0: 18d4 3d38 71ec 02b9 1ed9 6a39 57a5 6239
000002e0: a38d 8f38 6955 ceb8 e0c2 06b9 8978 3337
000002f0: b802 8638 7152 7ab8 228c bcb6 d6ba 7338
00000300: 8207 9138 6143 ba38 a8ff 07b8 e2cd 1739
00000310: ecf3 1d36 9b81 f438 897f 8939 7c52 93b9
00000320: d7e6 99b7 482c 8ab8 dc5a 98b7 62fb 0eb9
00000330: aab1 f3b8 f709 d438 95d6 04b9 0dc7 d2b7
00000340: afd6 a837 100c 8737 ccdd 7038 df4b 95b9
00000350: d62e 96b9 b18b 82b7 3d22 9539 59a0 0638
00000360: 7186 3cb9 0ae6 fd37 01fe b036 e393 3638
00000370: 5ad4 efb8 8b47 b9b8 dd9b 26b9 c45c 7238
00000380: 8278 8fb9 b50a 7a39 01a1 cbb9 0723 d738
00000390: 97ca d6b8 3e55 df38 096b 19b9 86a0 51b9
000003a0: 3348 8cb9 0574 5738 7d36 0039 ddc1 e336
000003b0: b9bf d338 ecfc 1039 eff3 6538 4fc9 95b8
000003c0: ee5c cbb8 ac26 d838 65b1 6138 ea1a 1db9
000003d0: 88dd 76b7 3bf1 2238 cb2c 3139 3ccc 19b9
000003e0: d9c8 acb8 ae29 f338 d16f 3b38 761f 2238
000003f0: ff66 e838 40a9 b138 13d8 b8b8 5d72 9b38
-1.0464419e-05 2.5722924e-05 -4.802669e-06 0.00010666508 -1.3061194e-05 -2.129915e-06 -9.136805e-05 -0.0004042267
-4.904374e-05 -0.00011086352 5.2842843e-05 -4.6687695e-05 0.00016597587 -0.00013010036 8.431383e-06 4.513355e-05
0.00017476224 3.254958e-05 8.8800334e-05 0.00016172207 1.0024809e-05 7.079975e-05 0.0001787201 0.00048623118
-3.8293324e-06 -0.000107281296 -1.8785477e-06 -5.5317174e-05 -8.1269114e-05 0.00021002357 4.1777726e-05 -0.00022142647
8.69169e-05 -3.4774953e-06 -0.0003995361 -3.0097282e-05 0.00020674677 6.325305e-05 -3.652175e-05 2.5476009e-05
-6.33155e-05 -0.00013241997 -1.4964668e-05 0.00023499831 0.00013566471 -0.00041899752 -0.00012755388 -8.68011e-05
0.0002233354 5.9570197e-05 -0.00017978926 1.5854554e-05 1.1242564e-06 9.6593045e-05 -7.485095e-05 -6.3341504e-05
-1.03164575e-05 -0.00031139294 2.2709715e-05 -5.929424e-05 -3.4576973e-05 -2.8515215e-05 -3.0753235e-06 -0.0002769839
-0.00017052483 0.00012296996 -7.0716214e-06 3.402838e-05 8.850939e-05 -5.1599913e-05 0.00012126646 0.00020480507
-0.00020111537 0.00012831819 -0.0002793888 6.0161638e-05 0.00014216575 -7.339991e-05 3.1324494e-06 -0.00013492041
-0.00016278544 -0.00024820562 -0.00015167081 -9.469424e-05 -4.3537188e-05 -2.2567237e-05 7.0633185e-05 -1.2241617e-06
6.955097e-05 4.06814e-06 2.2786724e-06 0.0001519465 0.00011878914 -6.2795916e-05 -0.000114339244 -3.300912e-05
0.00015513074 0.00017689503 0.00014080635 -9.8770804e-05 0.00010850132 -3.4715602e-05 0.00012054732 0.0001114998
0.00040769327 1.4951479e-05 0.00042774205 6.734226e-05 -0.00018032426 0.00016827267 0.00010189379 0.00019240449
0.00017454478 -0.00025790595 6.172177e-05 8.624467e-05 -0.00011821667 4.7695354e-05 0.00030918125 -9.39496e-05
-0.0001499542 9.560756e-05 -0.00014588397 0.00014519143 0.00015051241 -5.8041383e-05 -8.132853e-06 -8.763127e-05
7.906294e-05 -8.1927814e-05 0.00014740153 -8.608427e-05 -0.00014807824 -0.000113733884 4.0977677e-05 -4.1570212e-05
-0.058867726 -4.1647152e-05 0.00011686617 1.1490894e-05 -6.0515165e-05 6.3583893e-06 -9.4721254e-05 0.00021170056
4.4743356e-07 -0.00019938865 -9.5590076e-05 -3.227387e-05 4.256467e-05 0.00011355314 9.8440505e-05 -0.00016199188
-3.5580546e-05 0.00016857684 2.6208829e-05 6.5224805e-05 0.000117271775 -0.00023124905 3.9321872e-05 0.00028670576
0.00013337108 0.0001359574 7.5532495e-05 0.000157575 -0.00018470036 -4.806895e-05 -1.3745411e-05 -9.222653e-05
-9.204885e-05 8.871182e-05 0.00013360013 1.6926735e-05 0.00013427173 0.00011733146 -2.9923742e-05 -6.6462846e-05
0.04170147 -5.860785e-05 5.7770623e-05 0.00014346535 4.525864e-05 -0.00012485847 0.00022396861 0.00021614633
6.845153e-05 -9.838754e-05 -0.00012851832 1.0697296e-05 6.390124e-05 -5.9681424e-05 -5.61915e-06 5.810972e-05
6.915537e-05 8.8817214e-05 -3.2424607e-05 0.0001447718 2.3536804e-06 0.000116589676 0.00026225697 -0.0002809948
-1.8346514e-05 -6.588601e-05 -1.8162122e-05 -0.00013635823 -0.000116202355 0.00010110804 -0.00012668439 -2.5126641e-05
2.012713e-05 1.6098871e-05 5.7427023e-05 -0.00028476023 -0.00028645125 -1.5562257e-05 0.00028445004 3.2097425e-05
-0.0001797916 3.026707e-05 5.2747787e-06 4.352991e-05 -0.00011435962 -8.834813e-05 -0.00015889057 5.778369e-05
-0.0002736487 0.00023845847 -0.00038839135 0.00010258523 -0.000102420505 0.00010649346 -0.00014631091 -0.00019991593
-0.00026756673 5.1368046e-05 0.0001222733 6.787696e-06 0.00010096975 0.00013827131 5.4825035e-05 -7.14237e-05
-9.697104e-05 0.00010306886 5.3809392e-05 -0.00014982713 -1.4714322e-05 3.8848473e-05 0.00016896722 -0.000146673
-8.23901e-05 0.000115949064 4.468841e-05 3.865311e-05 0.000110818066 8.471543e-05 -8.814051e-05 7.412278e-05

autoencoders.1.decoder.cells.0.lstm.bias_ih f4 [32]
00000000: 5ebc 3b38 7a4d 8038 eb54 1f39 c649 3cb9
00000010: ac2c ca38 09ce 6039 f2ab a6b8 c26e 0d39
00000020: a94d 37b8 855a 9f39 9d6a 7738 e90b 8137
00000030: 99bb 4639 ca01 a936 b038 3739 5c38 f238
00000040: 3dbc c2b8 e342 02b6 1fdf 4037 64cd 83b8
00000050: 680c ddb8 47f4 aeb8 c3ff e436 2732 93b7
00000060: b21f 9cb8 d499 54b8 b1ac 2fb9 a0d6 40b8
00000070: 3e92 e4b7 6690 03b8 8099 2cb9 120d 7b37
4.4759705e-05 6.117947e-05 0.00015195056 -0.0001795656 9.6404314e-05 0.00021439059 -7.947524e-05 0.00013488068
-4.3702927e-05 0.00030394286 5.898868e-05 1.5383544e-05 0.00018952637 5.0368008e-06 0.00017473358 0.00011549957
-9.285703e-05 -1.9410443e-06 1.1496041e-05 -6.284824e-05 -0.00010540412 -8.342467e-05 6.824704e-06 -1.754712e-05
-7.4445634e-05 -5.0688002e-05 -0.00016753633 -4.5976252e-05 -2.7247817e-05 -3.1367315e-05 -0.00016460381 1.4963809e-05

autoencoders.1.decoder.cells.0.lstm.bias_hh f4 [32]
00000000: 5ebc 3b38 7a4d 8038 eb54 1f39 c649 3cb9
00000010: ac2c ca38 09ce 6039 f2ab a6b8 c26e 0d39
00000020: a94d 37b8 855a 9f39 9d6a 7738 e90b 8137
00000030: 99bb 4639 ca01 a936 b038 3739 5c38 f238
00000040: 3dbc c2b8 e342 02b6 1fdf 4037 64cd 83b8
00000050: 680c ddb8 47f4 aeb8 c3ff e436 2732 93b7
00000060: b21f 9cb8 d499 54b8 b1ac 2fb9 a0d6 40b8
00000070: 3e92 e4b7 6690 03b8 8099 2cb9 120d 7b37
4.4759705e-05 6.117947e-05 0.00015195056 -0.0001795656 9.6404314e-05 0.00021439059 -7.947524e-05 0.00013488068
-4.3702927e-05 0.00030394286 5.898868e-05 1.5383544e-05 0.00018952637 5.0368008e-06 0.00017473358 0.00011549957
-9.285703e-05 -1.9410443e-06 1.1496041e-05 -6.284824e-05 -0.00010540412 -8.342467e-05 6.824704e-06 -1.754712e-05
-7.4445634e-05 -5.0688002e-05 -0.00016753633 -4.5976252e-05 -2.7247817e-05 -3.1367315e-05 -0.00016460381 1.4963809e-05

autoencoders.1.decoder.cells.0.cell_residual_transform.weight f4 [8, 1]
00000000: 850a 30bf 626a 08bf 7c7f 7a37 9c6d 86bf
00000010: eb52 103f 3e1c 87be e536 a3be 039b a6b8
-0.6876605 -0.5328733 1.49308435e-05 -1.05022 0.5637652 -0.26388735 -0.3187782 -7.94437e-05

autoencoders.1.decoder.cells.0.cell_residual_transform.bias f4 [8]
00000000: 1604 80be fc6d 1bbf e8e0 85b8 7c51 c03d
00000010: 72e7 29b8 fee8 9db6 b0a5 76bf b43a 7ebe
-0.25003117 -0.607147 -6.383826e-05 0.09390542 -4.050829e-05 -4.7060885e-06 -0.9634657 -0.24827081

autoencoders.1.decoder.output_layer.weight f4 [1, 8]
00000000: cffb 83be 9ace d6be ac8a c0b6 cc24 f7be
00000010: 6154 223d 91d1 f5b7 3c78 cabe b802 c4b6
-0.25778052 -0.419545 -5.7381894e-06 -0.4827026 0.03963125 -2.9303863e-05 -0.39544857 -5.8415717e-06

autoencoders.2.encoder.cells.0.weight_h_2 f4 [8, 8]
00000000: 5571 c5b8 f8ab 2c39 f9e2 4839 c675 e5b8
00000010: d5d0 63b9 eb4f 7038 1bc6 d2b8 0a75 e438
00000020: 8dba 0538 0d7d 0138 704f 1537 07a1 a039
00000030: ca1a ea38 1088 1035 a4ed 20b7 430e 89b9
00000040: 2cf9 f2b9 0247 4439 f1b0 9bb8 e6f8 3139
00000050: aedb 95b8 711f 2bb8 a1a4 bf38 e1c2 6539
00000060: b164 04b8 d5cb 02b9 5bef 7eb9 a65f 1eb9
00000070: 9488 3738 05fd ceb9 125c 8bb8 3055 0439
00000080: 83d7 74b9 b1cd 2e39 c749 8eb7 0b30 f9b8
00000090: 0350 2039 2b36 0639 5d4b d2b9 7a95 64b9
000000a0: a769 5db9 0623 37b8 ba57 0a39 eeda 3bb9
000000b0: b437 0439 b118 b2b8 698c a3b9 53f4 a939
000000c0: e248 f039 5a34 5a39 e077 5d38 c85f 2fb7
000000d0: 5167 03b8 6f11 3f39 e50c 1538 bfcc 1139
000000e0: 979e 3839 46b2 ccb9 7367 0db7 b647 16b9
000000f0: 1b39 09b9 36a9 68b8 0aba c439 c250 9339
-9.414802e-05 0.00016467262 0.0001915804 -0.00010941508 -0.00021726203 5.729489e-05 -0.0001005048 0.000108936874
3.188341e-05 3.087246e-05 8.899588e-06 0.00030637553 0.00011162979 5.384218e-07 -9.592073e-06 -0.00026141302
-0.00046343484 0.00018718469 -7.423934e-05 0.00016972757 -7.145792e-05 -4.079886e-05 9.138254e-05 0.0002191174
-3.156503e-05 -0.000124737 -0.00024312494 -0.00015103686 4.37578e-05 -0.00039479896 -6.645186e-05 0.00012620236
-0.00023349938 0.00016670559 -1.6962074e-05 -0.00011882194 0.00015288596 0.00012799415 -0.0004011047 -0.00021799459
-0.00021115561 -4.3663218e-05 0.00013193386 -0.00017915267 0.00012609252 -8.4923005e-05 -0.00031194396 0.00032416228
0.0004583067 0.00020809603 5.280215e-05 -1.0453114e-05 -3.1329055e-05 0.00018221674 3.5536377e-05 0.00013904551
0.00017606687 -0.00039042736 -8.428341e-06 -0.00014331829 -0.00013086612 -5.54707e-05 0.00037522643 0.00028098194

autoencoders.2.encoder.cells.0.bias_h_2 f4 [8]
00000000: 0000 0000 0000 0000 0000 0000 0000 0000
00000010: 0000 0000 0000 0000 0000 0000 0000 0000
0.0 0.0 0.0 0.0 0.0 0.0 0.0 0.0

autoencoders.2.encoder.cells.0.lstm.weight_ih f4 [32, 1]
00000000: 263d 8435 2d2a 14b8 a474 32b9 9f70 9f38
00000010: 5814 eab7 32d7 6fb8 6911 08b9 4834 e539
00000020: 68ad 8eb9 ae0a a3b9 a643 2038 edbe 43b6
00000030: cea5 7038 1d00 0cb6 a09b 1539 4981 afb8
00000040: 70ef d3b8 4d77 c838 d8a8 4637 7f3e 12b8
00000050: d790 5739 f6bd 72b8 91b7 4239 bb01 c238
00000060: 16a2 2939 a321 a0b7 f265 48b9 b6ad 27b9
00000070: 7806 0bb9 24e3 23b8 14e9 a4b8 492a 9bb8
9.852563e-07 -3.532523e-05 -0.00017018855 7.602688e-05 -2.7904447e-05 -5.7182457e-05 -0.00012976456 0.00043717236
-0.00027213548 -0.0003109774 3.8209975e-05 -2.9168398e-06 5.7374877e-05 -2.0861692e-06 0.00014267722 -8.3687315e-05
-0.00010105863 9.558965e-05 1.1841032e-05 -3.4867317e-05 0.00020557955 -5.787421e-05 0.00018569666 9.250963e-05
0.00016177478 -1.908915e-05 -0.00019111464 -0.00015991073 -0.00013258483 -3.907377e-05 -7.8635436e-05 -7.398852e-05
