pth/H1_ensemble_autoencoder_weights.pth (torch, 9500 bytes, 13 tensors)

autoencoders.0.encoder.cells.0.weight_h_2 f4 [8, 8]
-7.1566035e-05 0.00016120313 4.497211e-05 7.245745e-05 -0.0018248181 0.00012434677 0.0002615904 -0.00034872402
-1.736609e-05 3.135044e-05 0.00021483084 -0.00014850083 0.00011105213 0.009706086 -0.00012254193 -0.00019614339
-8.76822e-05 0.00022873668 -9.326851e-05 0.00012745737 -0.000103770624 0.00015144437 -6.865609e-05 -1.45889135e-05
-6.28039e-05 -0.00032976034 -0.00011015779 0.00020068164 4.797083e-05 -0.00026441843 -9.484887e-05 0.00018657002
-9.689899e-05 2.816355e-05 -4.612421e-05 -0.00021947712 0.00016856972 -0.00015260003 -8.094888e-05 0.0001782832
0.0002621688 2.2504264e-05 9.006679e-05 -8.322689e-05 9.864768e-05 -0.00011514861 4.8809256e-05 -4.981061e-05
0.00012114115 -0.000121029334 0.00012885082 0.00030967922 6.6160195e-05 9.613199e-05 7.681531e-05 8.425808e-05
0.00041031025 -0.00013539993 -0.018487567 -0.00020421614 8.453207e-06 -0.0004492763 0.00011576725 -0.00439414
00000000: b915 96b8 a308 2939 6fa0 3c38 4cf4 9738
00000010: bc2e efba 1563 0239 1226 8939 f2d4 b6b9
00000020: 65ad 91b7 477e 0338 3744 6139 e3b6 1bb9
00000030: a9e4 e838 4606 1f3c 997e 00b9 d7ab 4db9
00000040: 06e2 b7b8 09d9 6f39 2699 c3b8 14a6 0539
00000050: 6e9f d9b8 0acd 1e39 75fb 8fb8 e8c2 74b7
00000060: 96b5 83b8 afe3 acb9 8304 e7b8 116e 5239
00000070: 4934 4938 a4a1 8ab9 99e9 c6b8 02a2 4339
00000080: 4036 cbb8 c340 ec37 7e75 41b8 7123 66b9
00000090: 17c2 3039 4203 20b9 19c3 a9b8 88f1 3a39
000000a0: b373 8939 8ac7 bc37 3de2 bc38 198a aeb8
000000b0: 12e1 ce38 f07b f1b8 8ab8 4c38 bceb 50b8
000000c0: 290d fe38 21d1 fdb8 211c 0739 715c a239
000000d0: 7cbf 8a38 789a c938 e817 a138 b6b3 b038
000000e0: e91e d739 24fa 0db9 3d73 97bc da22 56b9
000000f0: 3fd2 0d37 d88c ebb9 12c8 f238 b8fc 8fbb

autoencoders.0.encoder.cells.0.bias_h_2 f4 [8]
0.0 0.0 0.0 0.0 0.0 0.0 0.0 0.0
00000000: 0000 0000 0000 0000 0000 0000 0000 0000
00000010: 0000 0000 0000 0000 0000 0000 0000 0000

autoencoders.0.encoder.cells.0.lstm.weight_ih f4 [32, 1]
-0.045631275 2.277687e-05 0.00018949328 -0.00011597374 0.019636106 0.01947803 0.00015586973 -0.00020407226
0.0012756493 0.000108891814 0.0003430265 8.933042e-05 -0.026352504 -6.575616e-05 7.578141e-05 0.09635953
0.044508822 0.00045868382 0.012689871 0.023971263 0.03535688 0.00021849964 -0.00042884907 -0.00020451508
0.06192012 0.045538798 0.029432248 -0.00012935682 0.0023245434 8.028791e-05 9.934845e-05 -0.00036322244
00000000: dce7 3abd f510 bf37 b7b2 4639 ed36 f3b8
00000010: e6db a03c 6490 9f3c f670 2339 3bfc 55b9
00000020: b033 a73a d95c e438 3dd8 b339 e756 bb38
00000030: 35e1 d7bc 92e6 89b8 d6ec 9e38 2558 c53d
00000040: e24e 363d 807b f039 2de9 4f3c 625f c43c
00000050: 60d2 103d 0d1d 6539 26d7 e0b9 1973 56b9
00000060: f49f 7d3d e486 3a3d e61b f13c f5a3 07b9
00000070: 5e57 183b 3e60 a838 4b59 d038 e46e beb9

autoencoders.0.encoder.cells.0.lstm.weight_hh f4 [32, 8]
-8.866093e-06 0.1014532 -3.9038958e-05 0.07111463 0.0008568003 -3.9397284e-05 1.3936151e-05 0.00020927918
-0.054345153 -1.3707088e-05 -0.00012874062 0.03759791 -0.09937391 -0.08578937 -8.323618e-05 -0.0003039133
-9.691422e-05 -0.00020926626 0.10282155 0.0021372198 0.00023945983 0.035606086 4.619827e-05 -0.00010555024
-0.059602827 -4.608862e-05 0.10323247 -0.00023134735 0.00019903362 -0.03449949 6.3008796e-05 -0.00090601307
-0.00016226337 0.059995532 7.748104e-05 -0.04614421 -4.477186e-05 -6.176558e-06 -7.9775964e-05 -2.0684503e-05
0.00016911699 -0.074126 -0.00011879512 0.08152221 -0.036568917 -0.000113411705 -8.887618e-05 0.000108939355
-8.235348e-05 -0.047606528 3.6164827e-05 0.015311793 0.026732067 -0.06721774 -0.000112718895 0.100864895
0.027367044 0.02258574 -0.06286477 -0.039434373 0.0001372411 0.08296209 0.102994226 0.00024305795
0.025577992 0.024794476 0.00015153635 -0.0002289884 4.2647654e-05 7.152102e-05 -0.00016261131 9.310363e-05
-0.00027684163 1.0596117e-05 -0.02048572 -0.09901765 -0.049247697 1.0589497e-05 0.0308763 -6.32636e-05
-7.124638e-05 4.4619825e-05 -0.03898459 5.7478468e-05 -0.00046015432 7.802035e-05 -1.8899867e-05 -0.07256565
-0.0013557486 0.00054333895 0.092155404 1.7027356e-05 0.048667826 0.00025525747 -0.0008220233 0.08504368
-0.0020939033 0.0072386605 -0.00021330231 -0.000119350276 -0.102484755 -0.00010535663 -7.3917863e-06 0.012415627
2.8699003e-05 0.0001943678 0.08838729 0.00051731826 0.00013038734 0.0001204824 -0.0015387023 -0.00061990233
-0.08514811 -0.07494747 -0.00016208843 0.0001051863 -0.04548703 1.4297702e-06 -4.7083686e-05 0.00041753033
0.09884768 0.00042769083 0.00035896848 -8.834799e-05 -0.00013614327 0.00152761 5.5605688e-06 0.00036729843
-4.8601207e-05 0.092734106 0.00017965083 -0.0002905571 2.6432554e-06 -0.00018216025 0.0004106369 -0.08455754
-0.00017761806 0.00018220636 0.026793817 0.0001273639 4.9467748e-05 0.04471434 -0.00021895644 -0.0012204286
-8.8671084e-05 0.00029260168 -6.568822e-05 -0.00013040929 5.0925442e-05 -0.032438494 -0.047518462 0.0025675502
0.02382237 0.052531786 0.00015786581 0.022851756 0.081608996 0.09801691 -0.029815238 0.0001654098
-0.00019970139 0.000966503 -0.0029757195 -0.00033135884 -0.073585376 -0.0001519996 -0.012805742 0.00015022802
-7.325292e-05 -0.0009767844 1.3018091e-05 0.00017629868 0.060612984 -0.00053467066 -0.10197781 -0.0014713922
-0.00011433348 -0.01382854 -1.4822339e-05 0.06370029 -0.045926794 0.0001742824 -0.0009134731 9.197396e-05
0.03416466 -0.049429283 4.9812978e-05 -4.183068e-05 -0.00029960772 -0.0025988955 0.00023549616 0.00017314249
-0.0458142 0.0022843769 -0.00023576344 9.2957096e-05 -9.7865646e-05 3.131241e-05 -0.0908212 0.00010452192
-0.038251035 -3.1752978e-05 -0.07728021 0.06256797 -0.00017882089 -2.7323675e-05 -0.0051241894 -0.00020478005
-0.00013593254 0.00021772659 0.000101521204 -2.7087219e-05 -0.00032788707 0.0071038944 -8.126443e-05 -1.2443014e-05
6.105193e-05 0.08332574 -0.000445004 -0.0003255924 0.082011394 0.08560409 0.00028692817 1.6035778e-05
-2.7889546e-05 -0.00032487328 -5.554952e-06 -0.00049515656 0.0003983447 -0.00096641236 -0.00019574186 0.02549496
0.00012399607 -0.00025287416 -0.02639247 0.07081666 -0.0745269 2.433893e-05 4.3701843e-05 -1.3837987e-06
-0.095056415 4.9416303e-05 -0.00013421779 0.0001868748 0.001027193 -0.00032173868 0.00016895075 0.083940744
-0.00031142228 -4.4619923e-05 -4.7487778e-05 0.07260469 -0.04716295 -0.00089247274 0.031422406 -0.07387902
00000000: 94bf 14b7 b2c6 cf3d c3bd 23b8 8ca4 913d
00000010: e59a 603a 833e 25b8 50cf 6937 f471 5b39
00000020: 0699 5ebd 7ff7 65b7 8cfe 06b9 4400 1a3d
00000030: 8c84 cbbd 56b2 afbd 158f aeb8 8d56 9fb9
00000040: 6d3e cbb8 7c6e 5bb9 1b94 d23d 9910 0c3b
00000050: 8217 7b39 b0d7 113d 04c5 4138 db5a ddb8
00000060: 1822 74bd 474f 41b8 8c6b d33d d595 72b9
00000070: aeb3 5039 564f 0dbd 9723 8438 8281 6dba
00000080: 3e25 2ab9 e0bd 753d 517d a238 b601 3dbd
00000090: 6bc9 3bb8 3b40 cfb6 654d a7b8 a283 adb7
000000a0: ff54 3139 5fcf 97bd a521 f9b8 1ef5 a63d
000000b0: 4ac9 15bd 72d7 edb8 0963 bab8 5f76 e438
000000c0: 30b5 acb8 10ff 42bd b0af 1738 51de 7a3c
000000d0: 35fd da3c 74a9 89bd 7f63 ecb8 4192 ce3d
000000e0: da30 e03c bb05 b93c 3fbf 80bd f085 21bd
000000f0: 61e8 0f39 07e8 a93d a3ee d23d 5fdd 7e39
00000100: f088 d13c c91d cb3c bbe5 1e39 9b1c 70b9
00000110: 92e0 3238 8efd 9538 a482 2ab9 a140 c338
00000120: 0e25 91b9 fac5 3137 abd1 a7bc c4c9 cabd
00000130: f4b7 49bd 8ba9 3137 4bf0 fc3c 63ac 84b8
00000140: 1c6a 95b8 2c26 3b38 4eae 1fbd 0915 7138
00000150: de40 f1b9 db9e a338 288b 9eb7 4d9d 94bd
00000160: 60b3 b1ba dc6e 0e3a f9bb bc3d f8d5 8e37
00000170: ea57 473d 14d4 8539 0d7d 57ba 622b ae3d
00000180: de39 09bb 4932 ed3b e7a9 5fb9 b14b fab8
00000190: 87e3 d1bd e9f2 dcb8 f606 f8b6 ea6a 4b3c
000001a0: a4be f037 36cf 4b39 6504 b53d a49c 073a
000001b0: 96b8 0839 7fab fc38 48ae c9ba f180 22ba
000001c0: 2262 aebd 0f7e 99bd 48f6 29b9 7797 dc38
000001d0: 9c50 3abd 88e6 bf35 b97b 45b8 f9e7 da39
000001e0: a770 ca3d b13b e039 ef33 bc39 7747 b9b8
000001f0: aec1 0eb9 163a c83a ec94 ba36 f691 c039
00000200: 26d9 4bb8 61eb bd3d a760 3c39 ea55 98b9
00000210: c862 3136 4502 3fb9 c04a d739 812c adbd
00000220: fc3e 3ab9 a60e 3f39 b57e db3c fd8c 0539
00000230: 977b 4f38 6226 373d ac97 65b9 caf6 9fba
00000240: edf4 b9b8 5568 9939 18c2 89b8 7abe 08b9
00000250: c798 5538 3ade 04bd b8a2 42bd 5844 283b
00000260: 2227 c33c 922b 573d c888 2539 9b33 bb3c
00000270: 9e22 a73d 17bd c83d 163f f4bc db71 2d39
00000280: ef66 51b9 eb5c 7d3a 4a04 43bb 3bba adb9
00000290: eeb3 96bd 1562 1fb9 2dcf 51bc 8786 1d39
000002a0: 5d9f 99b8 7207 80ba 4668 5a37 d1dc 3839
000002b0: 5245 783d 2429 0cba bed9 d0bd bbdb c0ba
000002c0: 52c6 efb8 1a91 62bc 76ad 78b7 4c75 823d
000002d0: bc1d 3cbd 93bf 3639 2476 6fba 25e2 c038
000002e0: 3ef0 0b3d 5c76 4abd 47ee 5038 5a73 2fb8
000002f0: ab14 9db9 3b52 2abb 85ef 7639 958d 3539
00000300: aca7 3bbd 7cb5 153b 4437 77b9 f6f1 c238
00000310: 383d cdb8 7255 0338 7700 babd c732 db38
00000320: 1ead 1cbd 802e 05b8 1645 9ebd a323 803d
00000330: de81 3bb9 2535 e5b7 d1e8 a7bb 3aba 56b9
00000340: 1d89 0eb9 894d 6439 c8e7 d438 5c39 e3b7
00000350: 42e8 abb9 c9c7 e83b 826c aab8 57c2 50b7
00000360: 0109 8038 b0a6 aa3d 6d4f e9b9 46b4 aab9
00000370: 97f5 a73d 3251 af3d d96e 9639 9284 8637
00000380: 58f4 e9b7 c153 aab9 ad64 bab6 65cd 01ba
00000390: ecd8 d039 d656 7dba 0e40 4db9 ceda d03c
000003a0: f104 0239 3294 84b9 0535 d8bc 5308 913d
000003b0: 8fa1 98bd 742b cc37 7f4c 3738 f6ba b9b5
000003c0: f0ac c2bd 5a44 4f38 d0bc 0cb9 d2f3 4339
000003d0: e1a2 863a 09af a8b9 5f28 3139 20e9 ab3d
000003e0: 6446 a3b9 4726 3bb8 9d2d 47b8 c5b1 943d
000003f0: f02d 41bd d5f4 69ba c8b4 003d e24d 97bd

autoencoders.0.encoder.cells.0.lstm.bias_ih f4 [32]
-0.00020478008 -0.00017565086 4.7668796e-05 0.062237345 -0.099482834 0.00031060318 0.015597005 0.054591678
0.000101951955 -0.0010890737 0.00032367016 0.08345944 0.09518489 -3.0638395e-05 -0.0015798876 4.99435e-05
0.0021196364 -0.0008711609 9.889896e-06 -0.00044501442 -0.00020978173 8.252448e-06 -9.3617855e-06 0.00013118943
0.017397981 0.062308393 -0.00053928077 0.09133643 -0.056838043 0.00011756768 0.03449654 0.06278362
00000000: 3cba 56b9 eb2e 38b9 fbef 4738 96ec 7e3d
00000010: a8bd cbbd 74d8 a239 958a 7f3c 869b 5f3d
00000020: 0acf d538 40bf 8eba 46b2 a939 c8ec aa3d
00000030: 4cf0 c23d ba81 00b8 3b14 cfba 6d7a 5138
00000040: 99e9 0a3b 9e5e 64ba c8ec 2537 d350 e9b9
00000050: dbf8 5bb9 ff73 0a37 9010 1db7 e58f 0939
00000060: 3686 8e3c 1637 7f3d 855e 0dba 980e bb3d
00000070: 02cf 68bd ab8e f638 3e4c 0d3d b394 803d

autoencoders.0.encoder.cells.0.lstm.bias_hh f4 [32]
-0.05035647 -2.2002785e-05 -0.02695782 0.1033214 -0.00015989273 -0.0029444268 -7.563598e-05 -4.4829158e-05
0.0003021554 0.0018555443 -0.00012861026 0.0009554062 -0.05951801 -0.042391084 4.0442468e-05 5.5355737e-05
0.00010053968 0.000116343275 -0.0007183469 3.385949e-05 -0.00303896 -0.020718658 -0.0003434506 6.7365104e-06
0.065239236 0.084291644 -0.0006084069 -0.082250915 -0.048993208 -0.00029520917 -7.273002e-05 -0.0009707804
00000000: 9642 4ebd 9f92 b8b7 a5d6 dcbc 2c9a d33d
00000010: e1a8 27b9 49f7 40bb c29e 9eb8 f106 3cb8
00000020: 9c6a 9e39 bc35 f33a 8edb 06b9 3a74 7a3a
00000030: 28c9 73bd 46a2 2dbd c5a0 2938 c52d 6838
00000040: d4d8 d238 52fd f338 724f 3cba 5a04 0e38
00000050: 4a29 47bb 2dba a9bc 2911 b4b9 2f0a e236
00000060: 269c 853d 19a1 ac3d 7f7d 1fba 2b73 a8bd
00000070: 1aad 48bd 4ec6 9ab9 a286 98b8 f87b 7eba

autoencoders.0.decoder.cells.0.weight_h_2 f4 [8, 8]
2.3047514e-05 4.014068e-05 -0.00018503181 6.856944e-05 -0.00018219656 6.661038e-05 0.02421519 2.8680104e-05
0.00012910477 -0.00011778896 -2.2938055e-05 -0.00012187351 3.906232e-05 5.4510703e-05 -4.8520767e-05 -0.00014174549
-0.00013392336 -9.645354e-05 -8.937201e-05 8.0233876e-05 2.6116442e-05 0.00014379453 -0.00010879404 7.526397e-05
7.165762e-05 0.00025680178 3.4203207e-05 -0.00021806282 -0.00016471901 -5.6113848e-05 0.00015744814 0.00038796378
-9.811009e-05 -2.8683593e-05 0.00013792161 -0.0015617933 0.00010507719 -6.8037974e-05 2.528908e-05 0.00013443465
-5.346144e-05 -9.8149256e-05 1.8389692e-05 -1.3415128e-05 0.000102139966 0.000106354164 -1.504201e-05 0.00013633144
-3.570329e-05 6.576454e-05 0.00010583847 -0.00010341761 3.60459e-05 -4.3566157e-05 8.837267e-05 -9.611822e-05
-0.00033625728 -0.00025652355 0.0001622729 2.7645627e-05 -1.7760736e-05 0.00013544965 1.3250025e-05 0.00012549592
00000000: 2956 c137 ba5c 2838 1905 42b9 f0cc 8f38
00000010: 040c 3fb9 2db1 8b38 ef5e c63c 0e96 f037
00000020: 4c60 0739 7705 f7b8 196b c0b7 5896 ffb8
00000030: d9d6 2338 6ca2 6438 c782 4bb8 84a1 14b9
00000040: c76d 0cb9 1a47 cab8 3c6d bbb8 3c43 a838
00000050: a214 db37 8dc7 1639 5b28 e4b8 09d7 9d38
00000060: e446 9638 5aa3 8639 6a75 0f38 cba7 64b9
00000070: 6cb8 2cb9 c95b 6bb8 aa18 2539 9e67 cb39
00000080: 74c0 cdb8 8c9d f0b7 0d9f 1039 16b5 ccba
00000090: e35c dc38 9caf 8eb8 e323 d437 07f7 0c39
000000a0: c93b 60b8 7bd5 cdb8 9043 9a37 8911 61b7
000000b0: fa33 d638 750a df38 f15c 7cb7 31f4 0e39
000000c0: 1ec0 15b8 12eb 8938 99f5 dd38 e8e1 d8b8
000000d0: fe2f 1738 ceba 36b8 b754 b938 1493 c9b8
000000e0: b04b b0b9 027e 86b9 cd27 2a39 88e8 e737
000000f0: e4fc 94b7 7d07 0e39 6d4c 5e37 8e97 0339

autoencoders.0.decoder.cells.0.bias_h_2 f4 [8]
-3.6076108e-05 -6.568396e-05 -0.00014370296 0.00012469533 -0.0002933561 5.4981905e-05 -0.00028546335 -6.787789e-05
00000000: 6d50 17b8 cfbf 89b8 f8ae 16b9 a6c0 0239
00000010: 97cd 99b9 5f9c 6638 3eaa 95b9 aa59 8eb8

autoencoders.0.decoder.cells.0.lstm.weight_ih f4 [32, 1]
-0.00024111704 2.3365763e-05 -0.00013302748 0.00074805267 0.00022911579 2.7186168e-05 -5.3555716e-05 -0.042838894
-0.09138333 -9.564552e-05 4.7922025e-05 0.00012320146 -0.0010161828 0.00010366689 -0.053555824 -0.060575355
4.867918e-05 -0.00014881905 0.0003726818 0.025623942 -3.756868e-06 0.05407283 0.00037322726 -0.00011410744
0.00026561585 0.0001498644 0.09872531 -0.060806137 -0.00015839135 -0.00017894038 0.00011897429 0.0022541045
00000000: 5dd4 7cb9 9801 c437 4b7d 0bb9 f718 443a
00000010: cd3e 7039 da0d e437 03a1 60b8 d677 2fbd
00000020: 2f27 bbbd 4c95 c8b8 e2ff 4838 a42f 0139
00000030: 7031 85ba bd67 d938 5a5d 5bbd dd1d 78bd
00000040: df2c 4c38 4f0c 1cb9 8164 c339 4de9 d13c
00000050: 801e 7cb6 797b 5d3d b7ad c339 f74c efb8
00000060: 5b42 8b39 eb24 1d39 7f30 ca3d db0f 79bd
00000070: db15 26b9 f1a1 3bb9 d681 f938 99b9 133b

autoencoders.0.decoder.cells.0.lstm.weight_hh f4 [32, 8]
2.0546842e-05 -0.00011455454 -0.097331144 0.025185654 0.06964043 -0.025705187 0.00010972844 -0.10009694
-0.0953134 -8.767631e-05 6.918607e-05 -0.000289164 -0.00014910252 0.009397862 -0.060862966 -0.10064939
0.00026956113 -0.00018560966 0.017924357 7.899347e-05 0.0024061615 -3.832504e-05 -0.00027616083 -0.0002302837
-1.3415698e-05 -0.00036350888 -0.001542776 -0.08222487 5.695968e-05 -2.739012e-05 -0.0001502722 -0.10315061
-0.00022123042 -0.00013154282 -1.7351078e-05 0.0025742925 -0.00024880245 0.00022222493 -0.002176684 0.0764937
-0.00037064106 0.0027488999 -0.00010914555 -0.017815724 0.0734326 0.00024637062 0.06295734 -0.07791593
7.29501e-05 -0.00026126063 0.048155356 -0.00011881773 -2.863281e-05 -0.016520053 0.0667949 2.3366832e-05
3.0328758e-05 0.012894437 1.0076842e-05 0.0001800706 0.03230041 4.9096427e-05 4.9363043e-05 0.033073317
0.09324615 0.0080966605 0.037552733 4.9435148e-05 1.0262247e-06 0.00016529193 -0.00022343776 -0.00029822788
-0.00040068946 -4.987801e-05 -0.024417672 -8.203266e-05 0.0030165417 -0.00073776423 -2.1241098e-05 -8.816954e-05
-7.069272e-05 -8.16135e-05 -0.08097056 3.3140506e-05 0.00021042024 0.08081059 8.662437e-05 -0.06626854
-0.045648254 6.0337006e-05 -0.09874371 -0.006740271 0.0002808016 -0.036521323 -0.0013012965 -2.0865413e-05
0.00012423571 -4.8444377e-05 3.5820936e-05 0.0012749695 -0.00024265067 -4.2501728e-05 -0.043014996 -7.3743377e-06
3.6610352e-05 -0.03941942 0.00014504138 0.010634274 0.058350876 -0.00014720777 0.00055624923 0.014221221
0.095493704 9.784035e-05 -6.6648354e-05 0.03168904 -3.5608682e-05 -0.00030694332 0.08835517 -1.9194758e-06
0.00017585809 -0.0007508542 -8.2184364e-05 -4.2172915e-06 1.0415957e-05 0.046838928 -0.00015273613 -5.206536e-06
-0.00014031958 -0.00010313148 0.013212873 0.0001367498 -0.07782307 0.0049206233 -0.0005428372 1.3632269e-05
0.00014011878 -5.216511e-05 4.9795133e-05 0.0002916697 0.00010103724 0.0031048963 0.00014991734 -0.042232253
-0.002552531 -0.012155239 6.731088e-05 5.2995256e-05 0.08798809 0.0621916 0.0656013 0.00011740426
0.029064978 -0.0027231204 0.00012203258 0.00027385048 -0.00022278015 -0.00027305703 -3.7152622e-05 0.0031105308
-2.9413404e-05 -0.00012911006 -9.700017e-05 0.00038645658 -7.225248e-05 0.0004794691 0.00010386076 0.11667608
-0.00018267652 0.043456946 0.00016683563 0.000118417796 0.07376338 -0.005392352 0.00018099329 0.06425521
2.8494273e-05 -0.0015889687 -0.069559135 0.00022363102 -0.0002348356 3.840152e-05 0.00013921132 0.00014646698
4.0880903e-05 -0.034661733 9.512369e-05 -7.062015e-05 -0.092533454 -0.06900875 0.00017105787 6.020085e-05
0.08592704 0.00019254936 3.740279e-05 0.0001437875 8.7434986e-05 0.0012263848 3.0368288e-05 -0.00031726703
-0.0022617066 3.822378e-05 0.0001952611 -0.00027988432 -0.00016413588 8.574609e-05 6.311503e-05 -0.0001485328
-0.0010439786 -4.098263e-05 -0.0018639952 -0.012116566 0.00034519253 6.27302e-05 -0.00015153375 -0.00024928935
5.003701e-05 0.00020186309 -0.032943886 -0.034373526 -0.00022085101 4.2033986e-05 0.01852458 0.09999606
0.03484783 -8.347356e-05 0.07523276 -0.00014428669 -0.0004982594 -0.021277934 3.4455774e-05 -0.00018450078
-0.05611703 0.00012090484 -0.05991045 8.1909166e-05 0.044346638 0.0024141106 0.09298577 0.00020464983
-0.09652417 0.0004060952 -0.05543991 0.00091679115 0.025019083 -0.0001462598 -0.00014677989 -0.00012747182
-2.425246e-05 -0.0113822445 0.06823969 -0.00025251723 -0.00010900325 -0.00079579646 -7.032487e-05 -7.575652e-06
00000000: 025c ac37 003d f0b8 8d55 c7bd 2552 ce3c
00000010: a49f 8e3d af93 d2bc 021e e638 a0ff ccbd
00000020: ac33 c3bd dcde b7b8 fd17 9138 ef9a 97b9
00000030: 6758 1cb9 7df9 193c 724b 79bd 4421 cebd
00000040: e253 8d39 37a0 42b9 1ad6 923c 4ca9 a538
00000050: b1b0 1d3b 33bf 20b8 aec9 90b9 4f78 71b9
00000060: fc13 61b7 5695 beb9 f936 caba 8365 a8bd
00000070: fee7 6e38 d6c3 e5b7 6392 1db9 a140 d3bd
00000080: 17fa 67b9 c2ee 09b9 288d 91b7 76b5 283b
00000090: b371 82b9 0d05 6939 b3a6 0ebb bba8 9c3d
000000a0: 9a52 c2b9 e326 343b 12e5 e4b8 48f2 91bc
000000b0: d563 963d 4e2b 8139 c7ef 803d 6392 9fbd
000000c0: c9fc 9838 cff9 88b9 8d3e 453d c82d f9b8
000000d0: 7e30 f0b7 1055 87bc c4cb 883d e403 c437
000000e0: 836a fe37 3043 533c b50f 2937 55d1 3c39
000000f0: 6f4d 043d e3ec 4d38 2a0b 4f38 e377 073d
00000100: d6f7 be3d dba7 043c e5d0 193d 9658 4f38
00000110: d0bc 8935 3752 2d39 9e4a 6ab9 785b 9cb9
00000120: a113 d2b9 1b34 51b8 9207 c8bc f308 acb8
00000130: 2cb1 453b 8566 41ba e92e b2b7 a9e7 b8b8
00000140: dd40 94b8 ea27 abb8 e5d3 a5bd 5900 0b38
00000150: 41a4 5c39 0680 a53d 1baa b538 cdb7 87bd
00000160: aaf9 3abd 5e12 7d38 243a cabd 7edd dcbb
00000170: 8e38 9339 6297 15bd 4490 aaba 2208 afb7
00000180: 4545 0239 c130 4bb8 703e 1638 e11c a73a
00000190: 0b70 7eb9 e243 32b8 7e30 30bd 1471 f7b6
000001a0: 118e 1938 4276 21bd 4016 1839 613b 2e3c
000001b0: 5401 6f3d c95b 1ab9 41d1 113a 2000 693c
000001c0: 3492 c33d a32f cd38 90c5 8bb8 5ecc 013d
000001d0: 885a 15b8 3ced a0b9 8ef3 b43d 58d0 00b6
000001e0: 8c66 3839 f9d4 44ba 655a acb8 4282 8db6
000001f0: 32c0 2e37 2dda 3f3d cb27 20b9 ceb3 aeb6
00000200: c022 13b9 4b48 d8b8 ce7a 583c 7f64 0f39
00000210: b461 9fbd 2e3d a13b 304d 0eba 26b6 6437
00000220: d9ec 1239 dccb 5ab8 1edb 5038 3feb 9839
00000230: f5e3 d338 847b 4b3b 2133 1d39 bafb 2cbd
00000240: 5d48 27bb c426 47bc 4129 8d38 3947 5e38
00000250: 1a33 b43d 9fbc 7e3d f959 863d ef36 f638
00000260: ad19 ee3c 6176 32bb beeb ff38 9793 8f39
00000270: 179a 69b9 1829 8fb9 53d4 1bb8 0cda 4b3b
00000280: cebc f6b7 b861 07b9 926c cbb8 539d ca39
00000290: 4186 97b8 4161 fb39 d2cf d938 def3 ee3d
000002a0: db8c 3fb9 e9ff 313d 99f0 2e39 1257 f838
000002b0: 4111 973d 54b2 b0bb 04c9 3d39 3c98 833d
000002c0: fc06 ef37 f144 d0ba 0575 8ebd 7f7e 6a39
000002d0: 343e 76b9 5111 2138 41f9 1139 ee94 1939
000002e0: 8977 2b38 76f9 0dbd 247d c738 e819 94b8
000002f0: 2e82 bdbd 7654 8dbd ff5d 3339 2c80 7c38
00000300: 84fa af3d 13e7 4939 f1e0 1c38 aac5 1639
00000310: 4d5d b738 a5be a03a 67bf fe37 dc56 a6b9
00000320: 2439 14bb 7952 2038 01bf 4c39 70bd 92b9
00000330: e41b 2cb9 95d2 b338 a05c 8438 78bf 1bb9
00000340: 1cd6 88ba c4e4 2bb8 4d51 f4ba 9084 46bc
00000350: f5fa b439 058e 8338 08e5 1eb9 0db3 82b9
00000360: d5de 5138 36ab 5339 2bf0 06bd 41cb 0cbd
00000370: 3e94 67b9 a64d 3038 dcc0 973c bcca cc3d
00000380: 99bc 0e3d 870e afb8 a213 9a3d aa4b 17b9
00000390: 9f9d 02ba 104f aebc 9b84 1038 8d76 41b9
000003a0: f9da 65bd 4b8e fd38 a964 75bd a6c6 ab38
000003b0: d2a4 353d 0e36 1e3b 536f be3d 4597 5639
000003c0: 77ae c5bd 2de9 d439 f614 63bd d054 703a
000003d0: d2f4 cc3c 515d 19b9 ede8 19b9 f5a9 05b9
000003e0: c371 cbb7 987c 3abc 40c1 8b3d 4a64 84b9
000003f0: ad98 e4b8 ff9c 50ba 617b 93b8 5b32 feb6

autoencoders.0.decoder.cells.0.lstm.bias_ih f4 [32]
-4.8977683e-05 -0.0001232121 -0.00021501817 4.5727593e-06 -0.08866391 -0.0001333805 -0.0002854067 -0.00035746858
-0.06407216 1.9726655e-05 0.00013960717 2.406132e-05 -0.0003602081 0.057471164 0.0032157958 -1.6909919e-06
0.0007476116 0.12853245 -1.9174035e-05 6.8987097e-06 -0.040334675 0.00013913972 -3.4209857e-05 9.271563e-05
0.00010569479 3.4335248e-05 0.027658606 -7.530081e-05 7.161922e-05 -1.4296963e-06 -0.0001642128 -0.059036255
00000000: 636d 4db8 7f32 01b9 8076 61b9 b46f 9936
00000010: 6d95 b5bd 0edc 0bb9 a4a2 95b9 9f6a bbb9
00000020: 4438 83bd ab7a a537 8463 1239 4bd7 c937
00000030: 50da bcb9 e266 6b3d 1ac0 523b 0af6 e2b5
00000040: 5dfb 433a 039e 033e edd7 a0b7 777b e736
00000050: f935 25bd 09e6 1139 8e7c 0fb8 5370 c238
00000060: 75a8 dd38 3103 1038 4d94 e23c d1ea 9db8
00000070: 4732 9638 fee3 bfb5 8a30 2cb9 00d0 71bd

autoencoders.0.decoder.cells.0.lstm.bias_hh f4 [32]
0.0018499645 -1.8902758e-05 0.08618418 -0.043677896 9.559625e-05 -0.07657573 0.00017069506 -0.0014521147
-0.00013172568 -0.06611371 -6.0333783e-05 0.00017463851 0.071017765 -0.07177145 0.00016390826 -0.0056334245
-0.028430812 -0.0002312072 0.0020739238 -3.7226113e-05 -0.08178487 -0.0131168505 0.24608837 0.00046204226
0.00015774301 -1.880098e-05 0.057999343 4.0107134e-05 7.018115e-05 7.344617e-05 0.016867245 -9.931356e-06
00000000: 827a f23a 5d91 9eb7 5581 b03d 98e7 32bd
00000010: d97a c838 bdd3 9cbd 9bfc 3239 e254 beba
00000020: d81f 0ab9 a066 87bd e80e 7db8 2b1f 3739
00000030: c371 913d e9fc 92bd cade 2b39 9798 b8bb
00000040: bce7 e8bc 3670 72b9 abea 073b 3c23 1cb8
00000050: d37e a7bd 0fe8 56bc 97fe 7b3e 433e f239
00000060: d167 2539 ccb6 9db7 b890 6d3d b538 2838
00000070: 382e 9338 1d07 9a38 2d2d 8a3c d99e 26b7

autoencoders.0.decoder.output_layer.weight f4 [1, 8]
0.015360476 0.079760134 1.4060556e-06 0.0032429092 0.15842508 0.0015350542 0.19524889 0.007607482
00000000: 82aa 7b3c 4859 a33d b4b7 bc35 fd86 543b
00000010: 2f3a 223e df33 c93a 53ef 473e 2f48 f93b
