results/H2_1/ensemble_autoencoder_weights.pth (torch, 104226 bytes, 170 tensors)

autoencoders.0.encoder.cells.0.weight_h_2 f4 [8, 8]
0.44648814 -0.0028018446 0.03695599 0.008128582 -0.02503805 -0.55604166 8.305771e-06 -0.380282
-0.7757314 -0.37963432 0.27603978 -0.52444285 -0.29846868 0.27521718 0.26029068 0.40739495
-0.047272943 0.005656309 0.4958153 0.091702804 0.03815763 -0.00040478454 0.23866013 0.30522028
0.12967563 0.3150596 0.34754664 0.04821891 -0.42453507 -0.3924982 -0.21792236 -0.0002750361
0.6433585 -0.10294476 0.796558 -0.00011304863 0.5231692 0.04719325 0.4140845 0.049478583
0.25553274 -0.15926027 0.2891795 0.43273464 -0.27832296 0.09001973 0.0006585465 -0.35322347
-0.00016853183 0.18429273 0.05361179 -0.16723445 0.29033226 0.30680802 0.039361067 -0.22852752
6.473611e-05 0.21204779 0.0006264563 -0.5476663 0.5803717 -0.40757772 0.40127522 0.13259591
00000000: 189a e43e 279f 37bb 2a5f 173d be2d 053c
00000010: 991c cdbc bf58 0ebf 0459 0b37 53b4 c2be
00000020: 5596 46bf 6e5f c2be 1655 8d3e e341 06bf
00000030: e3d0 98be 44e9 8c3e d244 853e 1296 d03e
00000040: 46a1 41bd 8f58 b93b 81db fd3e aece bb3d
00000050: 2d4b 1c3d 4339 d4b9 5263 743e d545 9c3e
00000060: b0c9 043e 7e4f a13e a2f1 b13e 3181 453d
00000070: a95c d9be 86f5 c8be 0a27 5fbe b832 90b9
00000080: 25b3 243f b4d4 d2bd 3aeb 4b3f 8514 edb8
00000090: 6bee 053f b64d 413d e202 d43e 0eaa 4a3d
000000a0: 30d5 823e 2015 23be 560f 943e 658f dd3e
000000b0: 5980 8ebe 445c b83d 4fa2 2c3a b5d9 b4be
000000c0: ebb7 30b9 3cb7 3c3e 0998 5b3d 823f 2bbe
000000d0: 6ea6 943e f115 9d3e 1239 213d 1e03 6abe
000000e0: efc2 8738 0e23 593e c538 243a dc33 0cbf
000000f0: 3d93 143f 07ae d0be f273 cd3e 39c7 073e

autoencoders.0.encoder.cells.0.bias_h_2 f4 [8]
0.0 0.0 0.0 0.0 0.0 0.0 0.0 0.0
00000000: 0000 0000 0000 0000 0000 0000 0000 0000
00000010: 0000 0000 0000 0000 0000 0000 0000 0000

autoencoders.0.encoder.cells.0.lstm.weight_ih f4 [32, 1]
0.00010158006 -0.09026721 -0.00031014957 0.16715062 -0.18546109 0.42540434 0.28766447 0.2732933
-0.10432407 -0.00010309664 -0.11729595 -0.030044422 0.6623747 -0.0003325175 -0.15396655 0.46198884
-0.18341222 -0.33899543 0.21163002 -0.0734898 0.10912655 0.083282426 -0.19013539 -0.056933224
-0.0111996 0.23600703 0.007991387 -0.27470875 0.36484388 0.47545382 -0.17066342 0.2990516
00000000: 6107 d538 04de b8bd 929b a2b9 8829 2b3e
00000010: 83e9 3dbe 99ce d93e c248 933e 19ed 8b3e
00000020: dca7 d5bd 9635 d8b8 dc38 f0bd b81f f6bc
00000030: 6391 293f be55 aeb9 68a9 1dbe cd89 ec3e
00000040: 6ad0 3bbe cf90 adbe 8ab5 583e d281 96bd
00000050: be7d df3d fa8f aa3d dab2 42be d032 69bd
00000060: 877e 37bc d4ab 713e 4eee 023c a0a6 8cbe
00000070: d1cc ba3e af6e f33e 64c2 2ebe 4b1d 993e

autoencoders.0.encoder.cells.0.lstm.weight_hh f4 [32, 8]
-0.1678121 -0.34354883 0.08354922 0.00012813194 -0.08387166 -0.1294176 -0.07612483 0.02127577
-0.3143759 0.016578825 0.14304167 -0.2756082 -0.26876512 -0.21811357 -0.35594296 -0.3035857
0.010674029 0.21535724 0.4242311 0.19085619 -0.0008170734 0.06079793 0.006382815 -0.0027756207
0.31827092 -0.009932462 -0.00028677617 -0.19186905 -0.0747236 -0.24140903 -0.045171455 -8.212167e-05
0.08580136 0.0009066802 -0.19466236 -0.0001783247 0.09302457 -0.035199016 0.22263423 0.027989086
0.00029897157 -0.22242576 -0.1969516 -0.083443016 0.23001453 0.2562585 0.074021965 -8.709293e-06
-0.092175454 -0.13154402 0.3418813 0.37629756 -0.24876156 -0.3389919 -0.00034040128 0.067288965
-0.09251483 0.076987 -0.00023367844 0.11420776 -0.058339354 0.2669969 0.1546653 0.14432319
0.23679957 -0.29552028 0.00021474795 0.00021290955 -0.32676473 0.0151908165 0.17081916 -0.00083698303
-2.8633147e-05 -0.08754422 0.00071792933 0.4139343 0.34230357 -0.021330405 0.033258922 4.057321e-05
-0.07946159 -0.23479053 0.18296102 0.1939084 -0.00016085789 -0.12320574 -0.23532817 0.15931384
0.032161776 -6.722342e-05 -0.33036348 -0.0017560374 0.07191081 0.10684991 0.08546817 4.373249e-05
-0.1525297 0.1097762 -0.08216977 0.037059225 0.23959965 -0.0005796599 0.34700885 0.50830626
0.28525218 0.20212868 0.05830453 0.032432508 -0.021613225 0.27107403 -0.09406303 0.07247883
-0.08594948 0.20718855 -0.14974733 -0.120254815 0.080159366 -0.0023553455 -0.3723066 0.11112811
0.09673941 -0.20925143 -0.37877205 -0.0005272414 -0.040649183 0.026390577 -0.21509632 -0.06119427
-0.40760502 -0.30907205 0.31469765 -0.14820874 0.03513602 0.07612331 -0.1622553 -0.09415345
-0.41475946 -0.19956204 0.26035875 0.115746826 0.087920845 -0.25913888 -0.24775445 -0.011367752
0.26912072 -0.019549113 -0.0021244406 0.11010192 -0.081762314 0.42483655 0.05191345 -0.012147995
0.12696667 0.25332993 -5.0887338e-05 0.13934083 -0.07418646 0.27103814 0.17600521 -0.00047790032
0.00014407608 0.25551975 -0.1665908 0.22749558 0.23187408 -0.04507137 -0.042747118 0.20042872
0.119410306 0.14193338 -0.03163979 -0.25211093 -0.06415148 0.1201037 4.6726676e-05 -0.20508245
0.079958096 0.035745975 6.285399e-05 0.039697427 -5.3446343e-05 0.27166978 -0.029874876 -0.085707426
-0.54715514 0.14115888 0.31185594 -0.39058304 0.18064512 -0.11636044 -0.49526903 -0.0003327253
-0.12735115 -0.20094207 0.000118877295 -0.012412967 -0.0003977177 0.24229786 -0.00871227 0.09537274
-0.103539765 -6.4439715e-05 0.37925208 0.2556603 0.0028723637 0.24841434 -0.063842654 0.003247165
0.2913569 0.009925406 -0.2195575 0.06102307 0.23337242 -0.040467832 -0.4509855 0.044363964
-0.19753453 -0.037093297 -0.052344177 0.29046476 0.49156037 -0.46947125 0.14305846 0.108633414
0.060471732 0.16889448 -0.050723486 -0.24290255 0.107103676 0.10162215 -0.16151845 0.5161756
-0.18709163 -0.064240165 -0.1119398 0.0005164823 -0.0012274989 0.1482265 -0.006932723 -0.13195337
-0.24858373 0.2624385 -0.00021500309 0.00012765067 0.32230216 0.2646208 0.0012829982 -0.03449295
-0.015159226 0.13789023 0.026010886 -0.20037687 0.00025118567 0.020981522 0.12987879 -0.19961843
00000000: efd6 2bbe a2e5 afbe da1b ab3d 285b 0639
00000010: e8c4 abbd 0c86 04be 56e7 9bbd 864a ae3c
00000020: e1f5 a0be 51d0 873c 8479 123e 851c 8dbe
00000030: 959b 89be 2a59 5fbe 283e b6be 966f 9bbe
00000040: 1fe2 2e3c 9c86 5c3e d234 d93e ce6f 433e
00000050: de30 56ba 4007 793d ef26 d13b 30e7 35bb
00000060: 68f4 a23e c4bb 22bc 725a 96b9 5279 44be
00000070: b008 99bd ee33 77be b405 39bd bc38 acb8
00000080: a0b8 af3d 47ae 6d3a 9255 47be acfc 3ab9
00000090: aa83 be3d d82c 10bd 3afa 633e 5e49 e53c
000000a0: 49bf 9c39 94c3 63be aead 49be 2ce4 aabd
000000b0: ee88 6b3e 5034 833e d498 973d 211e 12b7
000000c0: 7cc6 bcbd 7ab3 06be 110b af3e 13aa c03e
000000d0: 5abb 7ebe 5990 adbe e377 b2b9 ccce 893d
000000e0: 6a78 bdbd 5cab 9d3d 9407 75b9 c2e5 e93d
000000f0: 3ff5 6ebd d1b3 883e 9560 1e3e 75c9 133e
00000100: 967b 723e 6f4e 97be f72d 6139 7940 5f39
00000110: b54d a7be e7e2 783c 38eb 2e3e fb68 5bba
00000120: 3731 f0b7 624a b3bd 6c33 3c3a 32ef d33e
00000130: 6a42 af3e 1abd aebc 823a 083d 272d 2a38
00000140: c2bc a2bd ee6c 70be 225a 3b3e ec8f 463e
00000150: f6ab 28b9 4a53 fcbd def9 70be 2b23 233e
00000160: 11bc 033d 4cfa 8cb8 6725 a9be d62a e6ba
00000170: fa45 933d 20d4 da3d f009 af3d 676d 3738
00000180: bf30 1cbe 58d2 e03d a048 a8bd 6acb 173d
00000190: 9c59 753e 51f4 17ba 25ab b13e 5c20 023f
000001a0: 930c 923e d2fa 4e3e bbd0 6e3d f3d7 043d
000001b0: 380e b1bc 37ca 8a3e 1ea4 c0bd c86f 943d
000001c0: 4806 b0bd 3c29 543e 5d57 19be 2848 f6bd
000001d0: 982a a43d 245c 1abb f89e bebe 2297 e33d
000001e0: 501f c63d 0246 56be 69ee c1be 9236 0aba
000001f0: c27f 26bd 0d31 d83c 3642 5cbe d8a6 7abd
00000200: 9bb1 d0be b13e 9ebe 0d20 a13e 08c4 17be
00000210: caea 0f3d 8ae6 9b3d 4126 26be 86d3 c0bd
00000220: 5a5b d4be fe59 4cbe be4d 853e ac0c ed3d
00000230: d80f b43d daad 84be 58b3 7dbe cf3f 3abc
00000240: 31ca 893e 7625 a0bc 333a 0bbb 1e7d e13d
00000250: 0073 a7bd 2d84 d93e 33a3 543d 6208 47bc
00000260: 8d03 023e 76b4 813e dd6f 55b8 5daf 0e3e
00000270: 12ef 97bd 83c5 8a3e b63a 343e b28e fab9
00000280: 2113 1739 7cd3 823e c796 2abe 9af4 683e
00000290: 6670 6d3e c29c 38bd 9a17 2fbd 303d 4d3e
000002a0: 648d f43d fc56 113e b998 01bd af14 81be
000002b0: da61 83bd eef8 f53d 63fc 4338 2201 52be
000002c0: 12c1 a33d 5f6a 123d 7bd0 8338 c599 223d
000002d0: 932b 60b8 4d18 8b3e 28bc f4bc 6087 afbd
000002e0: 5c12 0cbf f48b 103e 95ab 9f3e 80fa c7be
000002f0: 09fb 383e 624e eebd e793 fdbe a271 aeb9
00000300: 5768 02be c2c3 4dbe c34d f938 c25f 4bbc
00000310: c484 d0b9 ee1c 783e e9bd 0ebc c852 c33d
00000320: a80c d4bd cf23 87b8 542d c23e e8e5 823e
00000330: 443e 3c3b 5460 7e3e f0bf 82bd 63ce 543b
00000340: bb2c 953e 2c9e 223c aed3 60be 54f3 793d
00000350: 2ef9 6e3e 99c1 25bd 92e7 e6be fdb6 353d
00000360: 7e46 4abe 24ef 17bd d966 56bd ccb7 943e
00000370: cdad fb3e 895e f0be eb7d 123e 327b de3d
00000380: 35b1 773d adf2 2c3e 6ec3 4fbd 72bb 78be
00000390: 2c59 db3d 461f d03d 1865 25be 1624 043f
000003a0: f394 3fbe 5990 83bd b240 e5bd 8a64 073a
000003b0: 07e4 a0ba b0c8 173e e52b e3bb c91e 07be
000003c0: bc8c 7ebe 575e 863e 7472 61b9 f7d9 0539
000003d0: ca04 a53e 617c 873e 472a a83a 7b48 0dbd
000003e0: 675e 78bc 1933 0d3e c814 d53c 982f 4dbe
000003f0: 92b1 8339 71e1 ab3c f2fe 043e c668 4cbe

autoencoders.0.encoder.cells.0.lstm.bias_ih f4 [32]
0.0 0.0 0.0 0.0 0.0 0.0 0.0 0.0
0.0 0.0 0.0 0.0 0.0 0.0 0.0 0.0
0.0 0.0 0.0 0.0 0.0 0.0 0.0 0.0
0.0 0.0 0.0 0.0 0.0 0.0 0.0 0.0
00000000: 0000 0000 0000 0000 0000 0000 0000 0000
00000010: 0000 0000 0000 0000 0000 0000 0000 0000
00000020: 0000 0000 0000 0000 0000 0000 0000 0000
00000030: 0000 0000 0000 0000 0000 0000 0000 0000
00000040: 0000 0000 0000 0000 0000 0000 0000 0000
00000050: 0000 0000 0000 0000 0000 0000 0000 0000
00000060: 0000 0000 0000 0000 0000 0000 0000 0000
00000070: 0000 0000 0000 0000 0000 0000 0000 0000

autoencoders.0.encoder.cells.0.lstm.bias_hh f4 [32]
0.0 0.0 0.0 0.0 0.0 0.0 0.0 0.0
0.0 0.0 0.0 0.0 0.0 0.0 0.0 0.0
0.0 0.0 0.0 0.0 0.0 0.0 0.0 0.0
0.0 0.0 0.0 0.0 0.0 0.0 0.0 0.0
00000000: 0000 0000 0000 0000 0000 0000 0000 0000
00000010: 0000 0000 0000 0000 0000 0000 0000 0000
00000020: 0000 0000 0000 0000 0000 0000 0000 0000
00000030: 0000 0000 0000 0000 0000 0000 0000 0000
00000040: 0000 0000 0000 0000 0000 0000 0000 0000
00000050: 0000 0000 0000 0000 0000 0000 0000 0000
00000060: 0000 0000 0000 0000 0000 0000 0000 0000
00000070: 0000 0000 0000 0000 0000 0000 0000 0000

autoencoders.0.encoder.cells.0.cell_residual_transform.weight f4 [8, 1]
-0.31325483 -0.00514097 0.31962073 0.35821092 -0.82429194 0.1821264 -0.083361745 -0.2998879
00000000: f062 a0be 9575 a8bb 54a5 a33e 6c67 b73e
00000010: cc04 53bf 587f 3a3e 90b9 aabd e88a 99be

autoencoders.0.encoder.cells.0.cell_residual_transform.bias f4 [8]
-0.8006141 -0.060516007 -0.19724703 0.03335022 -0.1544919 0.8090985 -0.6764531 0.42027426
00000000: 0cf5 4cbf a2df 77bd 20fb 49be 3e9a 083d
00000010: 2033 1ebe 1421 4f3f 082c 2dbf 302e d73e

autoencoders.0.decoder.cells.0.weight_h_2 f4 [8, 8]
0.0057304767 0.38881972 0.5935794 0.6070479 -0.3346313 -0.104856364 0.029189626 -0.306678
0.0054423376 -0.2462782 -0.33813775 -0.17438847 0.053851508 0.43346557 -0.06528432 -0.5241706
0.20145364 -0.051307138 0.3455825 0.55262923 0.174437 0.23585844 -0.36081284 0.22796847
-0.40510967 0.12807791 -0.06112142 0.104030624 -0.28677684 0.4019627 0.0340352 -0.28341755
0.79888767 -0.34801522 -0.4468796 -0.2197906 -0.7565448 -0.279228 0.20131229 0.15823238
-0.535825 0.042932995 -0.14454427 -0.025759792 -0.3829818 0.2832987 -0.30735645 -0.08044811
0.21794432 -0.5569924 0.073485516 0.23637263 -0.37854847 -0.33195198 0.5826166 -0.4037172
0.11077079 -0.03656962 0.25194734 0.48359367 0.13402678 0.40943074 0.5038654 0.35865542
00000000: b9c6 bb3b 6113 c73e d2f4 173f 7e67 1b3f
00000010: cb54 abbe efbe d6bd 151f ef3c e604 9dbe
00000020: a355 b23b 5a30 7cbe 6420 adbe e492 32be
00000030: 6693 5c3d 33ef dd3e c9b3 85bd 0b30 06bf
00000040: dd49 4e3e 6f27 52bd 30f0 b03e 1c79 0d3f
00000050: 9d9f 323e e084 713e 76bc b8be 9170 693e
00000060: 896a cfbe db26 033e 745a 7abd 020e d53d
00000070: 6ad4 92be 0ece cd3e 7e68 0b3d 1b1c 91be
00000080: e783 4c3f 0d2f b2be 67cd e4be c910 61be
00000090: ecac 41bf f9f6 8ebe cf24 4e3e ab07 223e
000000a0: d42b 09bf 82da 2f3d 6a03 14be 3306 d3bc
000000b0: 3116 c4be 870c 913e d35d 9dbe fbc1 a4bd
000000c0: cc2c 5f3e 0e97 0ebf 937f 963d ab0b 723e
000000d0: 1bd1 c1be 9cf5 a9be 5d26 153f 05b4 cebe
000000e0: ccdb e23d 07ca 15bd 3eff 803e 9799 f73e
000000f0: 513e 093e e8a0 d13e 53fd 003f afa1 b73e

autoencoders.0.decoder.cells.0.bias_h_2 f4 [8]
0.045983713 -0.059769455 0.041885447 -0.043038726 0.0634788 0.039211504 -0.047236167 0.046053365
00000000: 6b59 3c3d d1d0 74bd 1390 2b3d 6049 30bd
00000010: 2c01 823d 3e9c 203d b67a 41bd 74a2 3c3d

autoencoders.0.decoder.cells.0.lstm.weight_ih f4 [32, 1]
-0.044070892 0.09352762 -0.27496094 -0.11588658 -0.18128343 0.29587293 -0.092470296 -0.090135425
0.3430811 0.21364915 -0.40686035 -0.08794374 0.10613198 0.02195417 0.06408092 0.029068833
0.21304327 -0.018165188 -0.0869343 -0.09992615 0.22876664 0.19053037 -0.27348748 -0.17103793
0.6085357 -0.054247346 0.37743497 -0.3164805 -0.00973347 -0.06372749 0.07881211 0.14461413
00000000: ae83 34bd 698b bf3d aec7 8cbe f155 edbd
00000010: 5da2 39be a87c 973e 1161 bdbd ec98 b8bd
00000020: 53a8 af3e d8c6 5a3e 0050 d0be d91b b4bd
00000030: b95b d93d 3bd9 b33c db3c 833d c321 ee3c
00000040: 0428 5a3e 29cf 94bc 9c0a b2bd 15a6 ccbd
00000050: cd41 6a3e 651a 433e 8d06 8cbe 9124 2fbe
00000060: ffc8 1b3f 7732 5ebd 283f c13e bb09 a2be
00000070: 2279 1fbc 8f83 82bd 3e68 a13d ba15 143e

autoencoders.0.decoder.cells.0.lstm.weight_hh f4 [32, 8]
0.68221647 0.09529477 -0.18302661 0.35716382 -0.17187978 -0.0027567747 -0.27026156 -0.11346665
0.007962351 -0.2459435 0.16460052 0.26356345 -0.13625963 0.40196496 0.30449396 -0.05445675
-0.1457413 0.17106466 -0.3904503 0.0024308476 -0.16133548 -0.032882202 0.10032677 -0.110711314
-0.30607224 0.07384603 0.17734759 -0.40242672 -0.14729354 -0.007070542 -0.4368274 0.20610626
-0.25184435 0.04740226 0.035593297 -0.35109523 0.09614024 0.094183594 -0.14314383 0.3117862
0.240443 -0.23108919 0.13592349 -0.03306941 0.034040205 0.07734798 0.4301727 0.54581887
-0.2078345 3.986485e-05 0.44839123 0.25773093 0.24624902 -0.043988824 -0.14891009 -0.021529568
-0.048628032 -0.02372624 0.15308657 -0.2579564 0.20389055 0.3943182 -0.38743603 -0.0009403284
-0.011152071 -0.37871575 -0.31372303 0.27462578 0.4387743 0.0214809 -0.45980772 -0.07468083
-0.112992294 0.12857118 0.17805189 -0.4516303 -0.006871337 -0.061740447 -0.0715925 0.273096
-0.07956809 -0.01897723 -0.23195861 -0.25534263 -0.07694444 0.21994996 0.10579404 0.07219764
0.24021536 -0.11970723 0.01588386 -0.1138699 0.121393494 -0.08041997 -0.28503266 -0.29550022
0.1181361 -0.04801438 -0.410203 -0.15857121 -0.04696216 -0.29440948 -0.29263115 -0.21253148
-0.03624206 0.5596351 0.29815996 -0.30136472 -0.16382596 -0.1123075 0.18647662 -0.29548034
0.22145385 -0.28265 -0.3239365 0.13051966 -0.039566476 0.027790954 -0.08194348 -0.059350424
-0.015987793 0.26726514 -0.053263 -0.0704576 0.39636344 0.04213678 -0.32025647 0.36522713
-0.028662674 -0.24815421 -0.22731999 0.23489009 0.42112687 -0.123462215 -0.023459256 -0.21654074
0.16575085 0.028635457 0.026761867 0.12247576 0.17662479 0.1339986 0.057462726 -0.46363103
0.17723183 -0.16779412 0.012644358 -0.40600434 0.09958031 -0.2120663 0.231126 0.0849219
-0.32948464 0.15455237 -0.23437797 -0.281782 -0.22485207 0.053194325 0.19289798 0.2406676
-0.050419766 0.113996685 -0.1118254 0.11486845 0.52160245 -0.13435346 0.117468394 -0.21853864
0.09733497 -0.21872789 0.33071014 0.39288434 -0.43837354 0.37052688 0.03246722 0.07724858
0.0015885504 0.073671885 0.27317622 -0.07149153 -0.034522925 0.22051282 0.13674422 -0.39329404
0.24429043 -0.01061037 0.21764457 0.009741062 0.17607522 0.011260874 -0.05328566 0.061283417
0.33826444 0.29037833 0.32920098 -0.07978225 -0.2016241 -0.38504067 -0.2112275 -0.39058757
-0.15657519 0.27912658 0.26427844 -0.25574636 0.031203123 0.25194559 -0.04969943 0.1315898
-0.32443294 0.18154368 -0.045479294 0.32661775 0.21049555 -0.26073965 -0.032400757 -0.13035424
0.14754486 0.12088686 -0.36717176 -0.30757552 0.122776695 -0.25620937 -0.0452246 0.18983586
-0.096515894 -0.06669097 0.26159835 -0.15568464 0.25625467 -0.20727946 -0.336138 -0.16420679
-0.12143493 0.2623432 0.14787136 0.00093956356 0.07615721 -0.01002669 0.11997952 -0.2841475
-0.0040712026 0.056534097 0.34681052 0.039197527 0.10446117 -0.1318746 -0.058649182 -0.39707088
0.094445184 -0.09875158 0.27581593 0.1330365 0.2803773 0.26524618 0.105033524 -0.027558649
00000000: bda5 2e3f e829 c33d 546b 3bbe 2dde b63e
00000010: 4101 30be 01ab 34bb b95f 8abe 3461 e8bd
00000020: 8574 023c 9dd8 7bbe 0a8d 283e caf1 863e
00000030: a587 0bbe 5ace cd3e a2e6 9b3e 0b0e 5fbd
00000040: 353d 15be 932b 2f3e 1ae9 c7be db4e 1f3b
00000050: 2135 25be 7daf 06bd 1f78 cd3d 9dbc e2bd
00000060: 80b5 9cbe 963c 973d 9b9a 353e e00a cebe
00000070: 1ed4 16be 01b0 e7bb d7a7 dfbe 850d 533e
00000080: bef1 80be df28 423d 47ca 113d c1c2 b3be
00000090: 2de5 c43d 54e3 c03d 4c94 12be 71a2 9f3e
000000a0: b136 763e a5a2 6cbe 872f 0b3e ca73 07bd
000000b0: be6d 0b3d 9e68 9e3d 993f dc3e c9ba 0b3f
000000c0: 91d2 54be 8f34 2738 8993 e53e 4ff5 833e
000000d0: b428 7c3e a02d 34bd e37b 18be c75e b0bc
000000e0: 302e 47bd 885d c2bc bac2 1c3e dc12 84be
000000f0: afc8 503e 13e4 c93e 045e c6be 5f80 76ba
00000100: 2db7 36bc 08e7 c1be 4ea0 a0be c09b 8c3e
00000110: 06a7 e03e b6f8 af3c eb6b ebbe 43f2 98bd
00000120: 8168 e7bd 2aa8 033e 3c53 363e 163c e7be
00000130: f428 e1bb 8de3 7cbd 179f 92bd 3dd3 8b3e
00000140: 98f4 a2bd 2376 9bbc 8f86 6dbe 45bc 82be
00000150: 0c95 9dbd 903a 613e 8caa d83d 5bdc 933d
00000160: 04fb 753e 1029 f5bd de1e 823c 9f34 e9bd
00000170: 279d f83d 3ab3 a4bd cdef 91be ce4b 97be
00000180: 57f1 f13d baaa 44bd 2106 d2be 7e60 22be
00000190: 655b 40bd d7bc 96be c0d3 95be daa1 59be
000001a0: 8e72 14bd 3f44 0f3f 6ca8 983e 7a4c 9abe
000001b0: fec1 27be 7901 e6bd baf3 3e3e 3349 97be
000001c0: ccc4 623e 80b7 90be 01db a5be f2a6 053e
000001d0: 7510 22bd dba9 e33c fcd1 a7bd 6e19 73bd
000001e0: d5f8 82bc fad6 883e 4e2a 5abd 134c 90bd
000001f0: 26f0 ca3e 9e97 2c3d a8f8 a3be 0dff ba3e
00000200: fccd eabc 231c 7ebe 92c6 68be 0787 703e
00000210: f19d d73e c2d9 fcbd a02d c0bc dbbc 5dbe
00000220: 97ba 293e e894 ea3c b43b db3c 92d4 fa3d
00000230: 21dd 343e ee36 093e 095e 6b3d 0c61 edbe
00000240: 437c 353e 39d2 2bbe 482a 4f3c cddf cfbe
00000250: c3f0 cb3d e827 59be 4bac 6c3e 88eb ad3d
00000260: 36b2 a8be fa42 1e3e c700 70be bb45 90be
00000270: 9f3f 66be 4be2 593d 0c87 453e 9171 763e
00000280: f584 4ebd 1877 e93d b704 e5bd 2640 eb3d
00000290: bd87 053f f493 09be 4593 f03d 98c8 5fbe
000002a0: 8f57 c73d 34fa 5fbe d752 a93e 2328 c93e
000002b0: 7f72 e0be b3b5 bd3e 59fc 043d 8134 9e3d
000002c0: e836 d03a 49e1 963d c1dd 8b3e 276a 92bd
000002d0: e967 0dbd 1dce 613e ad06 0c3e d65d c9be
000002e0: 4527 7a3e 1ed7 2dbc 38de 5e3e fa98 1f3c
000002f0: 104d 343e 877f 383c 1042 5abd 5204 7b3d
00000300: ff30 ad3e 78ac 943e 088d a83e e064 a3bd
00000310: 8c76 4ebe 0d24 c5be 064c 58be 18fb c7be
00000320: 3f55 20be aee9 8e3e 814f 873e 30f1 82be
00000330: b19d ff3c 03ff 803e a191 4bbd 7abf 063e
00000340: 131c a6be 96e6 393e 7f48 3abd 713a a73e
00000350: 258c 573e ab7f 85be a8b6 04bd 957b 05be
00000360: 0016 173e 8893 f73d f0fd bbbe 8a7a 9dbe
00000370: 5972 fb3d e02d 83be 6e3d 39bd 5564 423e
00000380: 20aa c5bd 4695 88bd 38f0 853e cb6b 1fbe
00000390: d033 833e 1141 54be 481a acbe d325 28be
000003a0: e0b2 f8bd d951 863e 976b 173e 0b4d 763a
000003b0: 50f8 9b3d fc46 24bc d3b7 f53d c87b 91be
000003c0: b967 85bb 4c90 673d 2691 b13e 968d 203d
000003d0: bdef d53d 230a 07be 203a 70bd e04c cbbe
000003e0: 7a6c c13d 453e cabd bf37 8d3e b83a 083e
000003f0: 9d8d 8f3e 59ce 873e d11b d73d adc2 e1bc

autoencoders.0.decoder.cells.0.lstm.bias_ih f4 [32]
0.029877461 -0.057725504 -0.0361645 0.050251167 0.0725487 0.040184133 0.057120204 -0.0039661825
0.03252742 -0.05354662 -0.03255359 0.05302647 0.07150787 0.04603395 0.05954874 -0.0009965012
0.031029167 -0.06386529 0.042016752 -0.042867817 0.066788346 0.040442955 -0.047562666 0.044475876
0.043783184 -0.05526243 -0.0351838 0.051495023 0.071346834 0.043947674 0.06064776 -0.002748097
00000000: 94c1 f43c 9471 6cbd 3a21 14bd 2bd4 4d3d
00000010: 6a94 943d 1e98 243d e0f6 693d c0f6 81bb
00000020: 793b 053d b353 5bbd ea56 05bd 4932 593d
00000030: b872 923d 188e 3c3d 61e9 733d 089d 82ba
00000040: e130 fe3c cecb 82bd c219 2c3d 2a96 2fbd
00000050: 54c8 883d 83a7 253d 12d1 42bd 562c 363d
00000060: ff55 333d dc5a 62bd e31c 10bd 72ec 523d
00000070: 4a1e 923d 7a02 343d c969 783d 6b19 34bb

autoencoders.0.decoder.cells.0.lstm.bias_hh f4 [32]
0.029877461 -0.057725504 -0.0361645 0.050251167 0.0725487 0.040184133 0.057120204 -0.0039661825
0.03252742 -0.05354662 -0.03255359 0.05302647 0.07150787 0.04603395 0.05954874 -0.0009965012
0.031029167 -0.06386529 0.042016752 -0.042867817 0.066788346 0.040442955 -0.047562666 0.044475876
0.043783184 -0.05526243 -0.0351838 0.051495023 0.071346834 0.043947674 0.06064776 -0.002748097
00000000: 94c1 f43c 9471 6cbd 3a21 14bd 2bd4 4d3d
00000010: 6a94 943d 1e98 243d e0f6 693d c0f6 81bb
00000020: 793b 053d b353 5bbd ea56 05bd 4932 593d
00000030: b872 923d 188e 3c3d 61e9 733d 089d 82ba
00000040: e130 fe3c cecb 82bd c219 2c3d 2a96 2fbd
00000050: 54c8 883d 83a7 253d 12d1 42bd 562c 363d
00000060: ff55 333d dc5a 62bd e31c 10bd 72ec 523d
00000070: 4a1e 923d 7a02 343d c969 783d 6b19 34bb

autoencoders.0.decoder.cells.0.cell_residual_transform.weight f4 [8, 1]
0.21680221 -0.6799378 -0.43920362 0.30692196 0.7426594 -0.16215307 -0.6397931 -0.45054367
00000000: 6601 5e3e 6710 2ebf 4cdf e0be e024 9d3e
00000010: ed1e 3e3f 740b 26be 7bc9 23bf a9ad e6be

autoencoders.0.decoder.cells.0.cell_residual_transform.bias f4 [8]
1.0326622 -0.3468832 -0.74100333 0.75678575 -0.58788633 -0.78208756 -0.17181695 -0.4446336
00000000: 462e 843f ad9a b1be 65b2 3dbf b6bc 413f
00000010: b87f 16bf e436 48bf c8f0 2fbe 04a7 e3be

autoencoders.0.decoder.output_layer.weight f4 [1, 8]
0.3922222 -0.04945761 0.18207106 -0.1881748 0.065774426 0.08858995 -0.27991036 0.25702664
00000000: 59d1 c83e 1094 4abd d670 3a3e e5b0 40be
00000010: beb4 863d a66e b53d 6950 8fbe ff98 833e

autoencoders.1.encoder.cells.0.weight_h_2 f4 [8, 8]
-0.00013495845 0.46265626 0.60188663 -0.36794385 0.09335446 0.57470906 -0.4180242 0.48548034
-0.23578313 0.0287537 0.29278594 0.19080007 0.0022081141 -0.47751865 0.19981515 -0.3461484
-0.47495216 0.204514 -0.060247336 0.3502512 0.27237496 -0.33886376 -0.27302897 -0.059428744
0.39912552 -0.0007639021 0.19725966 0.010556862 0.6863026 -0.4224458 -0.029013837 -0.00025306322
0.038799956 0.48598263 3.8807048e-05 -0.6608275 0.001061811 0.37439507 0.22202343 -0.74052614
0.23456246 -0.00097161735 -0.55295074 -0.24762014 -0.5018267 0.24236831 -0.8553729 0.28671944
-0.23083562 -0.2319394 -0.010323878 -0.0727642 0.24970597 -0.2734584 -0.28570324 -0.3774618
0.00021507712 -0.17312814 0.10484034 -0.684933 -0.36862335 -0.0004966095 0.12271857 -0.29286778
00000000: a283 0db9 48e1 ec3e 3e15 1a3f 2363 bcbe
00000010: a030 bf3d 2220 133f 4507 d6be e190 f83e
00000020: 2271 71be e18c eb3c 0ae8 953e 1861 433e
00000030: 02b6 103b 537d f4be 589c 4c3e 5d3a b1be
00000040: ee2c f3be 1e6c 513e e9c5 76bd 2054 b33e
00000050: bb74 8b3e 8d7f adbe 74ca 8bbe 8e6b 73bd
00000060: 2e5a cc3e 9a40 48ba 70fe 493e b0f6 2c3c
00000070: 87b1 2f3f d14a d8be 6dae edbc 92ad 84b9
00000080: b4ec 1e3d b7d2 f83e c0c4 2238 fe2b 29bf
00000090: 772c 8b3a b6b0 bf3e 1c5a 633e 1f93 3dbf
000000a0: 2431 703e 23b4 7eba 2e8e 0dbf 2290 7dbe
000000b0: b777 00bf 662f 783e b8f9 5abf e4cc 923e
000000c0: 2c60 6cbe 8681 6dbe 7c25 29bc 6605 95bd
000000d0: ecb2 7f3e bd02 8cbe b247 92be ac42 c1be
000000e0: 5386 6139 8148 31be 88b6 d63d c557 2fbf
000000f0: 33bc bcbe e62e 02ba e053 fb3d c4f2 95be

autoencoders.1.encoder.cells.0.bias_h_2 f4 [8]
0.0 0.0 0.0 0.0 0.0 0.0 0.0 0.0
00000000: 0000 0000 0000 0000 0000 0000 0000 0000
00000010: 0000 0000 0000 0000 0000 0000 0000 0000

autoencoders.1.encoder.cells.0.lstm.weight_ih f4 [32, 1]
-0.00010507607 0.07601361 -0.23527801 -0.18948488 -8.7907385e-05 0.00029228735 -0.044459637 -0.049752038
-0.14306195 -0.44733635 0.06510395 -0.08714676 0.17161423 -0.09944031 -0.0508174 0.158945
0.03292425 0.028299307 0.029725388 -0.24762493 -0.07088561 -0.05943489 0.2840286 0.33405283
-0.02215521 0.068060115 0.00034890426 -0.028811323 -0.049449973 0.27882522 0.055338927 0.19749549
00000000: 495c dcb8 06ad 9b3d b8ec 70be 5308 42be
00000010: eb5a b8b8 253e 9939 4f1b 36bd cbc8 4bbd
00000020: d57e 12be 4509 e5be 3855 853d 007a b2bd
00000030: a4bb 2f3e 5ca7 cbbd e825 50bd 7ac2 223e
00000040: 94db 063d f3d3 e73c a882 f33c 6491 7dbe
00000050: 7a2c 91bd 0072 73bd 326c 913e f908 ab3e
00000060: d87e b5bc 1a63 8b3d 23ed b639 b905 ecbc
00000070: 0e8c 4abd 2ec2 8e3e 12ab 623d 423c 4a3e

autoencoders.1.encoder.cells.0.lstm.weight_hh f4 [32, 8]
0.15652592 0.084562376 -0.12532453 -8.6173925e-05 -0.11343008 0.08150603 8.8933135e-05 -0.32507658
0.02841693 -0.28603348 0.18773733 -0.2078889 0.001242244 -0.001685295 -0.18118851 0.00038268842
-0.0020333934 0.12664643 0.18494 -0.0022318454 0.029495824 0.3094052 -0.02529661 0.0007097466
-0.10202794 -0.12631758 0.18561591 0.37580135 -0.07811771 -0.045009755 0.16526783 -0.07133719
-0.0004009468 -0.20801157 0.024134692 0.034752734 0.09155159 3.670743e-05 -0.2836872 0.29521114
0.0011995521 -0.06615628 0.067324504 -0.21252322 -0.019389935 -0.08056183 -0.026513929 3.8680217e-05
-0.0021685055 0.04870358 -0.00095608004 -0.19810897 -0.08194435 -0.04573753 0.10546899 0.29840013
-0.0017525965 0.0018187097 -0.19939089 0.06790507 -0.09749219 0.17250374 -0.33374208 -0.0001235224
-0.07332441 0.14974283 -0.11453879 0.017412994 0.44487435 0.10737601 -0.0029323231 -0.19199252
0.00023333012 0.049968284 -0.048379023 -0.17436656 8.310022e-05 0.104431316 0.20752087 0.39697823
0.3423124 -0.0014588545 0.0027691163 -0.079879746 -0.06613167 -0.00021124847 0.06331965 -0.19914198
0.0037916207 0.04064071 0.008219561 0.069413856 0.31106845 0.0016639695 0.051047035 -0.12015636
0.032993004 -0.14605178 -7.959418e-05 -0.030194506 -8.579593e-05 -0.016359655 -0.0018539393 -0.037022233
0.015478873 -0.029433068 0.07831778 0.12326339 0.0031537653 -0.38768128 -0.006315864 -0.08018334
0.22007388 -0.0004801716 -0.18586074 0.1620256 -0.054100554 -0.12919645 -0.19618812 0.27680868
-0.2414631 -0.15968181 -0.2234917 -0.05324933 -0.020097662 0.0011649318 0.0006060305 0.083768845
0.10572104 -0.07805987 0.16113289 0.113953814 -0.0001167882 -0.05113519 0.26734367 -0.26717722
0.15879343 0.12018116 0.24027842 -0.062885426 0.3642889 -0.16241762 -0.18589747 0.26871708
0.13749395 0.00011449801 -0.055539224 0.06964791 -0.0003490153 -0.12126362 -0.0002115681 0.16613692
0.18653421 0.03274461 -0.00013401553 -0.57719004 -0.2629207 0.0022859033 -0.0001701594 0.014901004
-0.15323012 0.28387848 -0.19968012 0.1075657 -0.08578114 -0.0662356 -0.38465947 0.11075953
-0.75099325 0.110394016 0.1436398 0.23314798 -0.17874396 0.0027803872 0.0022747132 0.0024618178
-0.055455267 0.1959601 0.1965394 -0.15345483 0.14543302 -0.30504137 -0.2178989 0.14098097
-0.16975614 0.43069404 -0.099122226 0.012710449 0.02908502 0.3050612 0.1904715 -0.44235712
0.18126316 0.043274656 -0.024132315 0.29910183 0.1364903 -0.00063211133 -0.04062166 0.15558337
-0.34311715 -0.5101709 0.20735142 0.24815726 0.082059786 0.049872283 0.00017732946 0.27721438
0.33512634 0.08365013 -0.10086444 -0.08204132 0.52454865 -0.13703594 -0.13136244 -0.18087412
-0.1506537 -0.033831265 0.04784989 -0.17298405 -0.2711642 0.18620124 0.24943984 -0.011645744
-0.00040186432 -0.22116926 0.18177792 -0.14458424 0.07045835 0.000539746 -0.31479642 0.050301697
0.35672888 0.00014193928 -0.24647862 -0.00031585954 -0.00054716173 -0.002439134 -0.11321142 -0.5302783
-0.07402027 0.08954804 -0.18278712 0.078681186 0.0069053867 0.26052228 -0.1988213 0.27712044
-0.0006453954 -0.045416906 -0.047677506 0.10501468 0.29724205 -0.041735012 0.24874902 -0.09297001
00000000: 5548 203e 0a2f ad3d 1355 00be 46b8 b4b8
00000010: 084e e8bd a2ec a63d 9d81 ba38 7070 a6be
00000020: 9fca e83c fb72 92be 373e 403e d4e0 54be
00000030: cbd2 a23a 1ee5 dcba 7b89 39be 92a3 c839
00000040: ae42 05bb 9aaf 013e e960 3d3e 2744 12bb
00000050: 3aa1 f13c 5c6a 9e3e d63a cfbc 4a0e 3a3a
00000060: 06f4 d0bd 6559 01be 1912 3e3e 0969 c03e
00000070: 2efc 9fbd 265c 38bd f83b 293e 3c19 92bd
00000080: 2b36 d2b9 fc00 55be 1eb6 c53c e258 0e3d
00000090: 667f bb3d 4ef6 1938 733f 91be ea25 973e
000000a0: 4a3a 9d3a f27c 87bd 6ee1 893d b09f 59be
000000b0: a4d7 9ebc 9afd a4bd bd33 d9bc 913c 2238
000000c0: 7c1d 0ebb 687d 473d 72a1 7aba 14dd 4abe
000000d0: 70d2 a7bd 4757 3bbd 2000 d83d e7c7 983e
000000e0: 61b7 e5ba c561 ee3a 202d 4cbe d011 8b3d
000000f0: fca9 c7bd d2a4 303e 3ee0 aabe cb85 01b9
00000100: 1c2b 96bd 2f56 193e 5093 eabd b2a5 8e3c
00000110: 92c6 e33e f4e7 db3d 382c 40bb b099 44be
00000120: 14aa 7439 8bab 4c3d 1529 46bd 268d 32be
00000130: 1746 ae38 16e0 d53d 5a80 543e bb40 cb3e
00000140: 9243 af3e 0937 bfba 107a 353b fe97 a3bd
00000150: 0a70 87bd 9482 5db9 bcad 813d e0eb 4bbe
00000160: d77c 783b e076 263d 56ab 063c da28 8e3d
00000170: 5d44 9f3e 8d19 da3a b216 513d 8a14 f6bd
00000180: ac23 073d 998e 15be cdeb a6b8 785a f7bc
00000190: 57ed b3b8 af04 86bc e1ff f2ba a0a4 17bd
000001a0: 199b 7d3c 9e1d f1bc 1265 a03d 8471 fc3d
000001b0: 67af 4e3b 297e c6be 4ff5 cebb 2a37 a4bd
000001c0: 0c5b 613e 8bbf fbb9 4752 3ebe 0aea 253e
000001d0: 8b98 5dbd 134c 04be 8ae5 48be deb9 8d3e
000001e0: 1a42 77be a183 23be 02db 64be f81b 5abd
000001f0: daa3 a4bc a0b0 983a 05de 1e3a 008f ab3d
00000200: 4684 d83d dadd 9fbd 0500 253e 9e60 e93d
00000210: 30ec f4b8 2273 51bd 45e1 883e 74cb 88be
00000220: bf9a 223e 8a21 f63d 8c0b 763e 13ca 80bd
00000230: 1384 ba3e ce50 26be e85b 3ebe 4995 893e
00000240: 37cb 0c3e a71e f038 197d 63bd 90a3 8e3d
00000250: 0afc b6b9 1059 f8bd 61d8 5db9 cc1f 2a3e
00000260: d302 3f3e 361f 063d 8586 0cb9 bac2 13bf
00000270: 8b9d 86be 18cf 153b d16c 32b9 5723 743c
00000280: 5be8 1cbe 8558 913e f278 4cbe 684b dc3d
00000290: 06ae afbd 88a6 87bd 16f2 c4be e4d5 e23d
000002a0: 1841 40bf 4216 e23d 5016 133e 58be 6e3e
000002b0: a808 37be 2837 363b 5b13 153b 7356 213b
000002c0: 1025 63bd c4a9 483e a041 493e 4323 1dbe
000002d0: 65ec 143e 622e 9cbe e420 5fbe 515d 103e
000002e0: 8ed4 2dbe ee83 dc3e 9800 cbbd 7d3f 503c
000002f0: b543 ee3c fb30 9c3e f60a 433e a27c e2be
00000300: 0d9d 393e c440 313d 22b1 c5bc e023 993e
00000310: 1dc4 0b3e 46b4 25ba e662 26bd 3f51 1f3e
00000320: 0dad afbe 8f9a 02bf ee53 543e f01c 7e3e
00000330: f60e a83d e146 4c3d 84f1 3939 0bef 8d3e
00000340: ae95 ab3e c250 ab3d 0492 cebd 4805 a8bd
00000350: d248 063f 2653 0cbe e083 06be 1137 39be
00000360: f744 1abe a792 0abd 3ffe 433d bb22 31be
00000370: 09d6 8abe 8aab 3e3e 286d 7f3e cacd 3ebc
00000380: 51b1 d2b9 327a 62be fe23 3a3e e40d 14be
00000390: 784c 903d be7d 0d3a ff2c a1be 2709 4e3d
000003a0: 2ba5 b63e 89d5 1439 e464 7cbe f399 a5b9
000003b0: 676f 0fba e1d9 1fbb 64db e7bd 52c0 07bf
000003c0: f097 97bd f664 b73d 8c2c 3bbe 9a23 a13d
000003d0: 9546 e23b 2d63 853e d097 4bbe bbe2 8d3e
000003e0: c12f 29ba 1407 3abd 7d49 43bd f011 d73d
000003f0: 1c30 983e 55f2 2abd 10b8 7e3e 1067 bebd

autoencoders.1.encoder.cells.0.lstm.bias_ih f4 [32]
0.0 0.0 0.0 0.0 0.0 0.0 0.0 0.0
0.0 0.0 0.0 0.0 0.0 0.0 0.0 0.0
0.0 0.0 0.0 0.0 0.0 0.0 0.0 0.0
0.0 0.0 0.0 0.0 0.0 0.0 0.0 0.0
00000000: 0000 0000 0000 0000 0000 0000 0000 0000
00000010: 0000 0000 0000 0000 0000 0000 0000 0000
00000020: 0000 0000 0000 0000 0000 0000 0000 0000
00000030: 0000 0000 0000 0000 0000 0000 0000 0000
00000040: 0000 0000 0000 0000 0000 0000 0000 0000
00000050: 0000 0000 0000 0000 0000 0000 0000 0000
00000060: 0000 0000 0000 0000 0000 0000 0000 0000
00000070: 0000 0000 0000 0000 0000 0000 0000 0000

autoencoders.1.encoder.cells.0.lstm.bias_hh f4 [32]
0.0 0.0 0.0 0.0 0.0 0.0 0.0 0.0
0.0 0.0 0.0 0.0 0.0 0.0 0.0 0.0
0.0 0.0 0.0 0.0 0.0 0.0 0.0 0.0
0.0 0.0 0.0 0.0 0.0 0.0 0.0 0.0
00000000: 0000 0000 0000 0000 0000 0000 0000 0000
00000010: 0000 0000 0000 0000 0000 0000 0000 0000
00000020: 0000 0000 0000 0000 0000 0000 0000 0000
00000030: 0000 0000 0000 0000 0000 0000 0000 0000
00000040: 0000 0000 0000 0000 0000 0000 0000 0000
00000050: 0000 0000 0000 0000 0000 0000 0000 0000
00000060: 0000 0000 0000 0000 0000 0000 0000 0000
00000070: 0000 0000 0000 0000 0000 0000 0000 0000

autoencoders.1.encoder.cells.0.cell_residual_transform.weight f4 [8, 1]
-0.90147007 0.0001297871 0.7389277 0.73742473 0.91196394 -0.6075201 0.4626755 -0.04164191
00000000: bec6 66bf 7617 0839 5e2a 3d3f dec7 3c3f
00000010: 7876 693f 7086 1bbf cee3 ec3e b590 2abd

autoencoders.1.encoder.cells.0.cell_residual_transform.bias f4 [8]
-0.80029905 -0.001366347 0.21413565 -4.2384585e-05 0.8741243 7.081815e-05 0.3547485 -0.3715992
00000000: 66e0 4cbf ff16 b3ba 6046 5b3e 1ac6 31b8
00000010: 9cc6 5f3f 3484 9438 98a1 b53e 4042 bebe

autoencoders.1.decoder.cells.0.weight_h_2 f4 [8, 8]
-0.12576634 0.04158431 0.19177942 0.71947104 0.31561434 -0.0034642431 -0.28069928 0.5468249
0.46042982 -0.12251824 0.15460637 0.9253183 0.27349836 -0.386933 0.46086347 -0.1794061
-0.11745672 0.18424721 0.19581999 -0.234938 -0.39981344 0.64507544 -0.17319885 0.35629427
0.66820157 0.647545 -0.20365825 0.09984491 0.026145538 0.03772309 -0.06241153 0.18891068
-0.13477646 -0.30635715 -0.09172451 -0.09135794 -0.35244086 -0.46805346 -0.2858426 0.09789207
0.03889725 -0.012949374 -0.17260453 -0.1722727 0.24264655 0.23517835 -0.23418766 0.19510625
0.04440852 0.16722108 0.022915822 -0.17948419 -0.070767924 -0.16531157 -0.20028865 0.20003764
0.08514556 0.12199172 -0.32402572 -0.25077975 0.15102859 -0.07071175 -0.28275567 0.23416562
00000000: e4c8 00be 4f54 2a3d d361 443e 412f 383f
00000010: 3498 a13e 5b08 63bb d1b7 8fbe b7fc 0b3f
00000020: 75bd eb3e d8ea fabd 2251 1e3e a9e1 6c3f
00000030: fa07 8c3e 151c c6be 4cf6 eb3e 3cb6 37be
00000040: 268d f0bd 4dab 3c3e 0985 483e 9693 70be
00000050: 59b4 ccbe aa23 253f 0a5b 31be 346c b63e
00000060: 420f 2b3f 82c5 253f ca8b 50be 7d7b cc3d
00000070: 2b2f d63c 8783 1a3d 3ca3 7fbd cd71 413e
00000080: d702 0abe d8da 9cbe 0fda bbbd df19 bbbd
00000090: 2173 b4be b4a4 efbe f659 92be a37b c83d
000000a0: b952 1f3d 9c29 54bc 3ebf 30be 4168 30be
000000b0: 5678 783e 98d2 703e e4ce 6fbe efc9 473e
000000c0: b5e5 353d 013c 2b3e f6b9 bb3c b4ca 37be
000000d0: c6ee 90bd 7047 29be 7818 4dbe abd6 4c3e
000000e0: cc60 ae3d cbd6 f93d b3e6 a5be 3466 80be
000000f0: 3da7 1a3e 52d1 90bd 5ac5 90be 1dc9 6f3e

autoencoders.1.decoder.cells.0.bias_h_2 f4 [8]
-0.046784196 -0.044820372 -0.021884127 -0.044447754 -0.03466565 0.040718228 -0.04606374 -0.0429935
00000000: c9a0 3fbd 9195 37bd 5746 b3bc d90e 36bd
00000010: 92fd 0dbd 28c8 263d 55ad 3cbd f419 30bd

autoencoders.1.decoder.cells.0.lstm.weight_ih f4 [32, 1]
0.070774466 0.36949134 0.011638617 0.122245766 -0.27401882 -0.014073999 0.11233285 -0.011858594
0.5552171 -0.37504578 -0.23862186 0.3797274 -0.064665765 0.1555335 -0.5092576 0.104548305
-0.25720835 0.121562086 -0.52294606 0.23495959 -0.086817555 -0.3498844 0.06568198 0.29127413
0.106538154 -0.13232334 0.289155 0.33875135 -0.13889167 0.001297734 0.20727566 -0.102686144
00000000: 34f2 903d f82d bd3e e6af 3e3c fd5b fa3d
00000010: 324c 8cbe a196 66bc c40e e63d 8c4a 42bc
00000020: b522 0e3f 0006 c0be 4a59 74be a16b c23e
00000030: 7c6f 84bd 2c44 1f3e b55e 02bf 6c1d d63d
00000040: d0b0 83be 8bf5 f83d cbdf 05bf 3f99 703e
00000050: 67cd b1bd 0c24 b3be 4684 863d e221 953e
00000060: ad30 da3d c57f 07be 200c 943e d170 ad3e
00000070: 9e39 0ebe ba18 aa3a 1240 543e 1d4d d2bd

autoencoders.1.decoder.cells.0.lstm.weight_hh f4 [32, 8]
0.11201454 -0.03074114 0.13764091 0.16155764 -0.10838856 0.22901763 0.2784948 -0.15934573
-0.038617972 0.09723592 -0.1644628 -0.10696324 0.057640396 0.17328282 0.07933184 -0.030832175
0.016910752 -0.2405492 0.09684277 -0.20412678 0.01829049 0.110892005 4.610739e-05 -0.16749199
0.443896 0.10679708 0.025413437 -0.060632747 0.01312953 0.3503684 -0.013194701 0.1725094
0.119769365 -0.14157943 0.29742494 -0.09362042 -0.025022805 -0.22744709 0.10992096 0.3182062
-0.67489386 0.013473088 -0.11889606 0.36030972 -0.2260517 -0.46810082 0.0070871515 0.08091752
-0.5796983 -0.059300847 0.48003572 0.037548084 -0.06734811 -0.1599267 -0.1612713 0.22283037
0.3429529 -0.28178114 0.037164286 -0.04222561 0.4600139 -0.289754 0.065135635 -0.2631186
-0.1401715 -0.4244947 0.13708185 -0.22530343 -0.011110384 -0.2795428 -0.20779055 -0.09105524
0.24602692 0.11055803 -0.39143717 0.18525867 -0.12842509 0.07178679 -0.06299285 0.06224654
0.057788488 0.52864003 0.42133954 -0.2165361 -0.13686691 -0.005741475 0.05457454 -0.11462173
-0.3356148 0.12186951 -0.18300809 0.28567725 -0.047360517 0.26218402 0.29713354 0.056913648
0.25318787 0.17093511 -0.11077399 -0.26582748 -0.0029389083 -0.11046927 0.062114593 0.0004532098
0.041327853 0.2178282 0.1938941 0.5042472 -0.120046586 0.18663579 -0.017235864 -0.12935449
0.069634035 0.15211321 -0.09488991 -0.1949644 0.6629164 -0.039428383 -0.1252643 -0.031317033
0.17428935 -0.11217004 0.1946916 -0.08001545 0.03986938 -0.1828388 0.08689249 0.104871295
-0.28032404 0.10250081 -0.114958905 0.17082676 0.022368686 -0.17335212 0.1932139 -0.2125559
-0.46253884 -0.012608262 -0.5267479 0.008805003 -0.047132425 0.2810106 0.12398395 -0.14784834
0.112676665 0.22573556 -0.06517837 0.032146756 -0.18106139 -0.25750726 -0.15575454 0.30489063
-0.16236234 0.0951021 0.14389345 -0.15788302 -0.13950755 0.10601401 0.068520814 0.34674633
-0.09304955 -0.056799196 0.049726665 0.005671915 -0.2558412 -0.20806457 -0.21497202 -0.28350666
-0.025660304 -0.46139166 0.13439526 -0.056232575 -0.12338782 0.3236187 0.38098055 0.277826
0.4504336 0.2327843 -0.08947618 0.15993929 0.10424033 -0.18865514 0.27326584 -0.42139354
-0.058329295 0.29168585 -0.38964793 -0.12096817 -0.19392832 0.0101572145 0.14104095 0.12640642
0.12105874 -0.27642 0.124221645 -0.21524282 0.5107085 -0.2806413 0.0843026 -0.1806296
0.10776735 0.33000994 0.16306849 0.2027399 -0.3451718 0.21972467 -0.2169651 -0.33064765
0.0009387511 -0.27499363 -0.45712295 0.3304644 -0.11045108 -0.10608468 -0.3825524 0.19759041
-0.13669595 -0.3533807 0.11109642 -0.11473689 0.06212738 0.10644047 0.4962658 0.21201825
0.21195161 0.13887879 -0.13728139 0.19168258 0.031673927 -0.25707933 0.3065414 0.025648829
0.31655842 0.1301411 -0.20044933 -0.027104957 0.20881194 -0.28123754 0.07633001 0.39400262
-0.43362188 -0.032513402 0.17783926 -0.2844265 -0.35107997 -0.16747066 0.043746214 0.08652062
-0.18653749 -0.16904864 0.05654006 -0.022209441 -0.17793348 -0.14366606 -0.056256615 0.124428496
00000000: e167 e53d d8d4 fbbc bdf1 0c3e 5e6f 253e
00000010: d2fa ddbd 9983 6a3e df96 8e3e 872b 23be
00000020: e12d 1ebd a023 c73d f068 28be 8b0f dbbd
00000030: 5618 6c3d 0d71 313e bb78 a23d c293 fcbc
00000040: 6b88 8a3c 8852 76be 8155 c63d 9c06 51be
00000050: f0d5 953c 591b e33d 6f63 4138 0583 2bbe
00000060: 5646 e33e 6db8 da3d d72f d03c 0b5a 78bd
00000070: 3d1d 573c 7d63 b33e 962e 58bc 4ea6 303e
00000080: a449 f53d 33fa 10be 1548 983e 10bc bfbd
00000090: a0fc ccbc e4e7 68be 3e1e e13d eceb a23e
000000a0: d8c5 2cbf 3abe 5c3c c77f f3bd 847a b83e
000000b0: 197a 67be e9aa efbe 563b e83b 16b8 a53d
000000c0: 1c67 14bf 72e5 72bd 3ec7 f53e 05cc 193d
000000d0: ceed 89bd d3c3 23be 4e24 25be a52d 643e
000000e0: 8697 af3e 9e45 90be 9439 183d c3f4 2cbd
000000f0: f186 eb3e a35a 94be d565 853d 7bb7 86be
00000100: 1e89 0fbe 5f57 d9be 2f5f 0c3e f1b5 66be
00000110: 5408 36bc 3c20 8fbe 0cc7 54be 2b7b babd
00000120: 7bee 7b3e 406c e23d 746a c8be 73b4 3d3e
00000130: de81 03be f404 933d 6502 81bd 3af6 7e3d
00000140: 9fb3 6c3d f454 073f d1b9 d73e a4bb 5dbe
00000150: d726 0cbe fc22 bcbb 8e89 5f3d ccbe eabd
00000160: b4d5 abbe b996 f93d 7966 3bbe 4a44 923e
00000170: 1afd 41bd fc3c 863e e321 983e 491e 693d
00000180: d7a1 813e 9d09 2f3e 79dd e2bd 8a1a 88be
00000190: b39a 40bb b63d e2bd df6b 7e3d ca9c ed39
000001a0: 6547 293d 5b0e 5f3e 2d8c 463e 5816 013f
000001b0: fcda f5bd 741d 3f3e 3a32 8dbc 8175 04be
000001c0: 4a9c 8e3d 91c3 1b3e a455 c2bd bfa4 47be
000001d0: e4b4 293f a87f 21bd 4945 00be 4a46 00bd
000001e0: e878 323e 68b9 e5bd 3c5d 473e 24df a3bd
000001f0: 134e 233d 183a 3bbe b1f4 b13d c3c6 d63d
00000200: a286 8fbe f2eb d13d 936f ebbd 36ed 2e3e
00000210: 893e b73c 3883 31be ddd9 453e 41a8 59be
00000220: e4d1 ecbe e292 4ebc f3d8 06bf dc42 103c
00000230: ee0d 41bd 9fe0 8f3e 4ceb fd3d 8e65 17be
00000240: 06c3 e63d 3927 673e 3d7c 85bd 51ac 033d
00000250: 2868 39be fed7 83be 1e7e 1fbe a01a 9c3e
00000260: 5042 26be e4c4 c23d ce58 133e 16ac 21be
00000270: 11db 0ebe e01d d93d a454 8c3d bc88 b13e
00000280: c390 bebd 46a6 68bd 30ae 4b3d 79db b93b
00000290: 9efd 82be e10e 55be a021 5cbe c927 91be
000002a0: 8f35 d2bc 873b ecbe e99e 093e 2154 66bd
000002b0: c1b2 fcbd 5ab1 a53e e20f c33e 363f 8e3e
000002c0: 3c9f e63e 025f 6e3e 4a3f b7bd 20c7 233e
000002d0: f47b d53d d02e 41be 80e9 8b3e e5c0 d7be
000002e0: b3ea 6ebd d957 953e ef7f c7be 29be f7bd
000002f0: 2595 46be 726a 263c 0a6d 103e af70 013e
00000300: a5ed f73d ec86 8dbe eb67 fe3d 9d68 5cbe
00000310: cbbd 023f 37b0 8fbe d7a6 ac3d f7f6 38be
00000320: 21b5 dc3d 10f7 a83e 6dfb 263e 0c9b 4f3e
00000330: 5cba b0be 81ff 603e 192c 5ebe a64a a9be
00000340: 8516 763a f7cb 8cbe 050c eabe a132 a93e
00000350: 2d34 e2bd ed42 d9bd e8dd c3be 2455 4a3e
00000360: 06fa 0bbe 51ee b4be 8586 e33d 2dfb eabd
00000370: 4879 7e3d 76fd d93d 8d16 fe3e 501b 593e
00000380: d809 593e 3e36 0e3e 7e93 0cbe 7048 443e
00000390: 85bc 013d e79f 83be fff2 9c3e 7e1d d23c
000003a0: f213 a23e b543 053e 9742 4dbe 370b debc
000003b0: ccd2 553e 5efe 8fbe e952 9c3d b6ba c93e
000003c0: b003 debe c62c 05bd 7f1b 363e 5aa0 91be
000003d0: c1c0 b3be 6e7d 2bbe 3b2f 333d b931 b13d
000003e0: af03 3fbe 161b 2dbe 8d96 673d 93f0 b5bc
000003f0: 3234 36be 321d 13be 566d 66bd 5ed4 fe3d

autoencoders.1.decoder.cells.0.lstm.bias_ih f4 [32]
0.06081548 -0.0473809 0.021566954 -0.037129406 -0.027479118 -0.037869256 0.045343895 0.051873405
0.062706195 -0.044322472 0.020810476 -0.034795314 -0.025243858 -0.035795253 0.048061706 0.05327315
-0.049398962 -0.042822424 -0.022856643 -0.044774957 -0.032061823 0.041409884 -0.038921632 -0.04370493
0.061972726 -0.04723657 0.021303821 -0.03608189 -0.027667416 -0.037242975 0.04952383 0.05171799
00000000: a719 793d 7912 42bd 2ead b03c 0115 18bd
00000010: e31b e1bc cb1c 1bbd 85ba 393d 3579 543d
00000020: 1b6c 803d 7b8b 35bd bb7a aa3c 8885 0ebd
00000030: 35cc cebc 0b9e 12bd 5adc 443d f234 5a3d
00000040: 9156 4abd 9166 2fbd db3d bbbc f265 37bd
00000050: 4253 03bd 699d 293d 4a6c 1fbd f103 33bd
00000060: 1dd7 7d3d 227b 41bd 5a85 ae3c 9bca 13bd
00000070: c7a6 e2bc 178c 18bd 80d9 4a3d 3ed6 533d

autoencoders.1.decoder.cells.0.lstm.bias_hh f4 [32]
0.06081548 -0.0473809 0.021566954 -0.037129406 -0.027479118 -0.037869256 0.045343895 0.051873405
0.062706195 -0.044322472 0.020810476 -0.034795314 -0.025243858 -0.035795253 0.048061706 0.05327315
-0.049398962 -0.042822424 -0.022856643 -0.044774957 -0.032061823 0.041409884 -0.038921632 -0.04370493
0.061972726 -0.04723657 0.021303821 -0.03608189 -0.027667416 -0.037242975 0.04952383 0.05171799
00000000: a719 793d 7912 42bd 2ead b03c 0115 18bd
00000010: e31b e1bc cb1c 1bbd 85ba 393d 3579 543d
00000020: 1b6c 803d 7b8b 35bd bb7a aa3c 8885 0ebd
00000030: 35cc cebc 0b9e 12bd 5adc 443d f234 5a3d
00000040: 9156 4abd 9166 2fbd db3d bbbc f265 37bd
00000050: 4253 03bd 699d 293d 4a6c 1fbd f103 33bd
00000060: 1dd7 7d3d 227b 41bd 5a85 ae3c 9bca 13bd
00000070: c7a6 e2bc 178c 18bd 80d9 4a3d 3ed6 533d

autoencoders.1.decoder.cells.0.cell_residual_transform.weight f4 [8, 1]
-0.7435666 -0.49033526 0.10605731 -0.9989314 0.9528387 -0.46024382 -0.279381 0.19900028
00000000: 615a 3ebf 390d fbbe 9334 d93d f8b9 7fbf
00000010: 3ded 733f 14a5 ebbe 070b 8fbe bbc6 4b3e

autoencoders.1.decoder.cells.0.cell_residual_transform.bias f4 [8]
-0.40604472 -0.6309173 0.14492817 0.24535787 -0.24420571 -0.014427268 -0.99244404 -0.4116519
00000000: 18e5 cfbe cc83 21bf 0d68 143e 183f 7b3e
00000010: 1011 7abe 5960 6cbc d010 7ebf 0ac4 d2be

autoencoders.1.decoder.output_layer.weight f4 [1, 8]
-0.19781537 -0.37157026 -0.06160751 -0.33464634 -0.034634605 0.17032789 -0.36206436 -0.1824423
00000000: 1d90 4abe 753e bebe 2858 7cbd c456 abbe
00000010: 04dd 0dbd 6f6a 2e3e 8060 b9be 27d2 3abe

autoencoders.2.encoder.cells.0.weight_h_2 f4 [8, 8]
0.063441426 0.30418018 -0.35446897 -0.075592846 0.048087616 0.52538395 -0.11014335 0.5855877
-5.7760553e-05 -0.21188176 -0.00065010827 0.15854888 -0.31401995 0.5284874 -0.021366771 0.23154432
0.046074647 0.32484066 -0.037073165 -0.022518473 -0.4055507 -0.10522778 0.22068325 0.48652375
0.000516685 -0.39835533 0.17100985 0.00080302457 -0.17374496 0.2730923 -0.44204345 0.84473705
-0.08654179 -0.6057877 0.02419589 0.77541167 -0.08458787 0.35141584 -0.05079201 0.10452244
0.00036778353 -0.18251097 -0.0005426778 -0.27395767 0.0007875912 0.13699074 -0.002834363 0.7523286
-0.082079306 -0.005175399 -0.68057424 -0.0009026671 -0.09980957 0.40001827 0.35083503 -0.21963471
-0.11982538 0.40708524 -0.053295046 -0.00021924917 -0.12439574 -0.0027882995 -0.16710334 0.0012719238
00000000: 94ed 813d 81bd 9b3e f57c b5be 6cd0 9abd
00000010: 85f7 443d 907f 063f d692 e1bd 13e9 153f
00000020: ec43 72b8 88f7 58be 076c 2aba a35a 223e
00000030: 39c7 a0be f34a 073f 5e09 afbc f419 6d3e
00000040: c5b8 3c3d 8451 a63e 08da 17bd a978 b8bc
00000050: 57a4 cfbe aa81 d7bd cafa 613e a419 f93e
00000060: 2572 073a 3bf5 cbbe 351d 2f3e 1182 523a
00000070: 33ea 31be c1d2 8b3e 8553 e2be b040 583f
00000080: d23c b1bd e714 1bbf 7636 c63c 6181 463f
00000090: 683c adbd c7ec b33e 480b 50bd dc0f d63d
000000a0: 12d3 c039 28e4 3abe 7e42 0eba 2e44 8cbe
000000b0: 5a76 4e3a 4d47 0c3e b8c0 39bb 9b98 403f
000000c0: 3219 a8bd 6596 a9bb 1d3a 2ebf f7a0 6cba
000000d0: f668 ccbd 32cf cc3e a6a0 b33e ece7 60be
000000e0: 0267 f5bd 7a6d d03e e84b 5abd 40e6 65b9
000000f0: 32c3 febd e7bb 36bb 231d 2bbe aeb6 a63a

autoencoders.2.encoder.cells.0.bias_h_2 f4 [8]
0.0 0.0 0.0 0.0 0.0 0.0 0.0 0.0
00000000: 0000 0000 0000 0000 0000 0000 0000 0000
00000010: 0000 0000 0000 0000 0000 0000 0000 0000

autoencoders.2.encoder.cells.0.lstm.weight_ih f4 [32, 1]
-0.00012575166 -0.13787621 -0.5816392 0.23640668 0.13559674 0.00024315722 -0.002937925 0.0017143415
0.006938311 0.0001799501 -0.329713 -0.042663738 0.14019729 0.1148517 0.044611864 0.046605267
0.09080933 0.300136 0.047725227 0.3976432 -0.48630273 0.13011764 0.22882006 -0.049332082
-0.00024405775 -0.09143105 0.4124932 -0.051433608 -0.04475627 -0.1160011 -0.11292794 0.026894605
00000000: 34dc 03b9 6c2f 0dbe 4ee6 14bf 9814 723e
00000010: dfd9 0a3e 05f8 7e39 348a 40bb c1b3 e03a
00000020: c55a e33b fdb0 3c39 24d0 a8be 2cc0 2ebd
00000030: e18f 0f3e 5e37 eb3d eeba 363d 2ae5 3e3d
00000040: 3efa b93d 6dab 993e 877b 433d e497 cb3e
00000050: acfc f8be 8f3d 053e ce4f 6a3e 7010 4abd
00000060: c1e9 7fb9 3440 bbbd 4f32 d33e 0cac 52bd
00000070: 5a52 37bd fc91 edbd c446 e7bd 1352 dc3c
