results/H1_BaseModel/machine_temperature_system_failure/ensemble_autoencoder_weights-Copy1.pth (torch, 87914 bytes, 130 tensors)

autoencoders.0.encoder.cells.0.weight_h_2 f4 [8, 8]
2.383387e-05 0.00018511817 0.00012419095 -6.660456e-05 0.00013202641 6.8239846e-05 -7.124193e-05 -3.1346578e-06
-0.0002634824 0.00027497072 -0.0002120322 0.00016380163 -0.00018810091 6.657375e-05 0.00013973587 -0.00011757735
-8.0612925e-05 -6.2294646e-05 -0.00018157299 -7.5909906e-05 0.0002850994 0.00020652985 -0.00013210149 9.956686e-05
3.760705e-05 8.644788e-05 -5.0396575e-05 8.708868e-05 -8.971284e-05 -0.000111036956 -7.0628405e-05 -8.436094e-06
-0.0002829875 1.1930205e-05 0.00024863126 0.00014864311 3.3819648e-05 0.0002884814 -0.00018482773 0.00021066637
-5.604187e-05 -0.00016499925 0.00015073495 -5.6589535e-05 6.6148496e-05 -7.0518116e-05 -9.350723e-05 -3.5361638e-05
-2.7177352e-05 -0.00020575376 -6.643897e-05 -6.827321e-05 0.00014075603 -0.00010689644 -0.00012162882 -0.0001385857
-6.0506714e-05 -3.8843027e-05 2.7507298e-05 6.877398e-05 -0.00017732118 0.0002332905 0.0004017712 0.00011477315
00000000: d9ee c737 481c 4239 4139 0239 0dae 8bb8
00000010: 9270 0a39 fd1b 8f38 b867 95b8 035d 52b6
00000020: 0224 8ab9 f229 9039 f654 5eb9 2ac2 2b39
00000030: f43c 45b9 839d 8b38 1086 1239 dc93 f6b8
00000040: bc0e a9b8 2fa4 82b8 a164 3eb9 d231 9fb8
00000050: 6579 9539 ef8f 5839 b984 0ab9 8dce d038
00000060: 43bc 1d38 5a4b b538 e960 53b8 61a3 b638
00000070: 3724 bcb8 83dc e8b8 561e 94b8 bf88 0db7
00000080: f05d 94b9 d727 4837 b95a 8239 15dd 1b39
00000090: 92d9 0d38 513f 9739 51ce 41b9 53e6 5c39
000000a0: 800e 6bb8 a603 2db9 9b0e 1e39 8d5a 6db8
000000b0: 34b9 8a38 20e3 93b8 5019 c4b8 4551 14b8
000000c0: ebfa e3b7 9bbf 57b9 2755 8bb8 e72d 8fb8
000000d0: e997 1339 972d e0b8 fa12 ffb8 5151 11b9
000000e0: 97c8 7db8 62eb 22b8 79bf e637 c03a 9038
000000f0: 4bef 39b9 719f 7439 d1a4 d239 5eb2 f038

autoencoders.0.encoder.cells.0.bias_h_2 f4 [8]
0.0 0.0 0.0 0.0 0.0 0.0 0.0 0.0
00000000: 0000 0000 0000 0000 0000 0000 0000 0000
00000010: 0000 0000 0000 0000 0000 0000 0000 0000

autoencoders.0.encoder.cells.0.lstm.weight_ih f4 [32, 1]
0.00029036598 0.00015872953 -0.00036139862 7.7856326e-05 7.395295e-05 4.5161214e-05 0.00016942105 -1.2906485e-06
-0.0001359687 8.988304e-05 -0.00016180928 0.0001428294 0.0004719719 -9.765927e-05 5.9905815e-05 1.7209199e-05
-3.1652587e-05 -0.00014690807 5.674325e-05 -0.00019351691 0.00031167458 -0.00015705585 -0.0002093819 0.00014074123
-7.43799e-05 9.857595e-06 -0.0002122876 -0.00017896613 -3.213145e-05 -0.00014811772 7.6546676e-05 5.3427728e-05
00000000: 433c 9839 a270 2639 1a7a bdb9 cc46 a338
00000010: 3017 9b38 7c6b 3d38 9ea6 3139 583a adb5
00000020: d292 0eb9 977f bc38 59ab 29b9 7ac4 1539
00000030: ff72 f739 6cce ccb8 6143 7b38 795c 9037
00000040: b5c2 04b8 560b 1ab9 9aff 6d38 cdea 4ab9
00000050: 4168 a339 5caf 24b9 878d 5bb9 f093 1339
00000060: 68fc 9bb8 0c62 2537 8599 5eb9 dba8 3bb9
00000070: e2c4 06b8 0c50 1bb9 af87 a038 9617 6038

autoencoders.0.encoder.cells.0.lstm.weight_hh f4 [32, 8]
0.00023804828 9.042577e-05 -0.00012804153 0.00013537107 0.00026221445 2.0458248e-05 -3.405489e-05 3.1263844e-05
-0.00012037045 -0.00010109202 -8.607053e-05 0.00015868421 -0.0004546884 -6.324435e-05 -3.9033246e-05 -0.00013443342
-1.4537606e-07 -5.0490486e-05 -6.9822716e-05 -0.00037456895 -0.00012437094 -0.000108943415 -2.6002173e-05 0.00040101897
8.1961814e-05 0.00012908649 -0.00032151156 -3.5440607e-05 -4.6983336e-05 -0.00015227743 -0.00010004219 -0.00017914115
2.439723e-05 -0.00018428816 0.00015283638 -0.00016965823 -4.4683464e-05 -6.3934995e-06 -0.00015307381 0.000496821
-0.00015614592 7.2831266e-05 -0.00015783342 0.00028773575 0.00030798686 0.0002637502 -9.0918154e-05 0.00011973893
0.00018619515 0.00013073812 -0.0002232592 0.00032662883 0.00042126604 -0.00014339075 5.018739e-05 -9.5338844e-05
-0.00013735911 0.00025989657 -0.00024301645 -0.00011487763 -2.9890447e-05 -5.129788e-06 1.4492321e-05 -0.00021516085
-0.00039521788 2.3777904e-05 0.00017847939 -0.00014819553 0.00012733131 0.00017339684 0.00018576026 -6.292016e-05
0.00013216896 -2.507245e-05 -1.050613e-05 -6.195214e-05 -0.0002329783 -7.3813986e-05 4.0615676e-05 -0.00045069712
-0.00017128554 3.4614663e-05 0.00024136453 -1.1639837e-05 4.7787133e-05 0.00011227946 -0.00019333202 0.00015554224
0.00028584155 -2.9727405e-05 -8.631524e-05 -9.163157e-05 -0.00023501659 -0.00023925466 0.00018384878 -0.00044753784
7.3081274e-06 0.00025400004 0.0002155474 -6.9409e-05 -1.7493023e-05 0.00026720238 5.8253077e-05 0.00018302571
0.00011154553 2.7821954e-05 0.00025127202 -0.00036727265 4.9709734e-06 -2.3799454e-05 -2.3291483e-05 0.00011857666
-0.00032352348 3.746048e-05 -8.947231e-05 0.0001427489 6.552218e-05 -0.00012901328 0.00021754527 0.0002221237
-1.4060224e-06 0.00012886318 -9.512129e-06 -8.707507e-05 -0.00011066188 -5.427308e-05 0.00013617825 -0.00031203628
0.00023433755 1.7178349e-05 0.00044291382 -4.6435664e-05 -9.9142984e-05 5.4456337e-05 5.470533e-05 0.00020620605
4.9705257e-05 -0.00026636096 0.00013797899 -0.000129059 0.000487804 8.040275e-05 0.00028635614 -3.2761325e-06
-8.358908e-06 -0.00017883306 1.0435963e-05 -1.4451432e-05 -8.1960314e-07 0.0003170154 -0.00025229363 -8.851501e-05
-0.000100969235 -0.0001346244 9.4882154e-05 0.0001626032 -1.5703856e-05 3.7361984e-05 -3.5331774e-05 -0.00012192177
-0.00024779726 -6.903583e-05 0.00019105668 -2.941009e-05 -8.814524e-06 0.00013774066 0.00017466795 9.484008e-05
0.00021214814 -0.00014267219 5.9994265e-05 5.9417554e-05 -1.0716868e-05 -3.751113e-05 0.00011783658 0.00013476839
-0.00025014096 -6.1829895e-05 -1.1455141e-05 -1.772468e-05 -6.544654e-05 2.3206172e-05 -9.6130325e-06 -5.430816e-05
1.5144498e-05 -0.00013483975 -6.512747e-05 -0.00016883622 -0.00025680233 -0.00022620558 -0.00023165088 -0.00027320662
-0.00031109346 -8.024418e-05 -0.0001575982 -4.69654e-07 -1.5045828e-05 0.00012897803 2.7520573e-06 4.2752414e-05
0.0001347941 -7.46745e-05 0.0002009623 3.533142e-06 -0.00019568714 3.9334127e-06 -1.0721368e-05 1.6010932e-05
0.00014648802 -0.00010050038 0.00017850411 -3.4080167e-05 -2.7671871e-05 6.6184926e-05 -6.587555e-05 0.00014033237
-0.00019553727 0.00012793188 0.00018041405 2.3213563e-05 -0.0001952227 6.4484586e-05 -2.4004055e-05 -1.405242e-05
-4.2450374e-05 9.235647e-05 -5.875248e-05 0.00020076838 -4.430671e-05 -9.786294e-05 0.00011266303 0.00012658333
0.00014139974 -6.139138e-05 -0.00053070433 -0.00012971053 6.8245434e-05 1.2356472e-05 -0.00014249407 4.6138764e-05
7.851255e-05 -4.1874657e-05 -0.0003128901 -0.0002650287 0.00014659321 8.517468e-06 -0.00010235736 0.00015478341
-4.775592e-05 0.00027408724 0.00032586255 7.0725284e-05 0.00011172974 -0.00042721658 -0.0004705191 0.00027373093
00000000: 999c 7939 f7a2 bd38 e342 06b9 65f2 0d39
00000010: d479 8939 c19d ab37 29d6 0eb8 4c21 0338
00000020: 656f fcb8 5d01 d4b8 c480 b4b8 7864 2639
00000030: 3e63 eeb9 0da2 84b8 a1b7 23b8 b2f6 0cb9
00000040: ab18 1cb4 bfc5 53b8 c96d 92b8 cb61 c4b9
00000050: 9269 02b9 8d78 e4b8 3e1f dab7 db3f d239
00000060: eae2 ab38 645b 0739 8d90 a8b9 10a6 14b8
00000070: f90f 45b8 a9ac 1fb9 becd d1b8 d6d7 3bb9
00000080: a7a8 cc37 7a3d 41b9 b442 2039 49e6 31b9
00000090: 816a 3bb8 be87 d6b6 7082 20b9 183d 023a
000000a0: 1abb 23b9 fdbc 9838 1680 25b9 3ddb 9639
000000b0: 4c79 a139 f447 8a39 50ab beb8 591c fb38
000000c0: 613d 4339 bf16 0939 af1a 6ab9 613f ab39
000000d0: 5fdd dc39 295b 16b9 4d80 5238 a7f0 c7b8
000000e0: 0e08 10b9 ba42 8839 3bd2 7eb9 75ea f0b8
000000f0: 3fbd fab7 8b20 acb6 0b24 7337 cd9c 61b9
00000100: 3f35 cfb9 a976 c737 3226 3b39 ef64 1bb9
00000110: 3d84 0539 dcd1 3539 a4c8 4239 01f4 83b8
00000120: d696 0a39 ad52 d2b7 7c43 30b7 4dec 81b8
00000130: a34b 74b9 95cc 9ab8 c05a 2a38 8b4b ecb9
00000140: 1d9b 33b9 362f 1138 cc16 7d39 b848 43b7
00000150: 0b6f 4838 9377 eb38 2bb9 4ab9 0d19 2339
00000160: 01dd 9539 1e5f f9b7 2404 b5b8 532a c0b8
00000170: c96e 76b9 6fe0 7ab9 88c7 4039 83a3 eab9
00000180: 5638 f536 4f2b 8539 9104 6239 ac8f 91b8
00000190: fbbd 92b7 4c17 8c39 c454 7438 97ea 3f39
000001a0: 8ded e938 3163 e937 29bd 8339 808e c0b9
000001b0: 56cc a636 f0a4 c7b7 1462 c3b7 5cac f838
000001c0: 969e a9b9 e21e 1d38 15a3 bbb8 deae 1539
000001d0: f468 8938 bd47 07b9 dd1c 6439 e0e9 6839
000001e0: 90b6 bcb5 721f 0739 4896 1fb7 129c b6b8
000001f0: 2513 e8b8 47a3 63b8 12cb 0e39 cd98 a3b9
00000200: 82b8 7539 391a 9037 e336 e839 eac3 42b8
00000210: fcea cfb8 0c68 6438 6773 6538 0439 5839
00000220: 9d7a 5038 5da6 8bb9 74ae 1039 0354 07b9
00000230: f2bf ff39 e69d a838 1222 9639 87db 5bb6
00000240: 3d3d 0cb7 2285 3bb9 1f16 2f37 6e74 72b7
00000250: b302 5cb5 1635 a639 4746 84b9 22a1 b9b8
00000260: 72bf d3b8 f629 0db9 78fb c638 7780 2a39
00000270: c6bb 83b7 20b5 1c38 3431 14b8 40b0 ffb8
00000280: c9ea 81b9 54c7 90b8 6356 4839 b0b5 f6b7
00000290: 18e2 13b7 7a6e 1039 1227 3739 e1e4 c638
000002a0: 1574 5e39 469a 15b9 5aa2 7b38 1d37 7938
000002b0: 99cc 33b7 4555 1db8 081f f738 9d50 0d39
000002c0: 5a25 83b9 acaa 81b8 752f 40b7 76af 94b7
000002d0: 5840 89b8 e0aa c237 a947 21b7 f1c8 63b8
000002e0: 2015 7e37 c563 0db9 0b95 88b8 a109 31b9
000002f0: 6da3 86b9 9931 6db9 4fe7 72b9 2c3d 8fb9
00000300: 421a a3b9 c448 a8b8 f240 25b9 c124 fcb4
00000310: 576d 7cb7 473e 0739 fcaf 3836 0e51 3338
00000320: 8457 0d39 919a 9cb8 68b9 5239 eb1a 6d36
00000330: 5e31 4db9 c2fb 8336 eddf 33b7 374f 8637
00000340: 949a 1939 bbc3 d2b8 d52c 3b39 4df1 0eb8
00000350: e420 e8b7 c3cc 8a38 ab26 8ab8 2f26 1339
00000360: 2309 4db9 7425 0639 872d 3d39 bfba c237
00000370: b2b4 4cb9 e63b 8738 515c c9b7 afc2 6bb7
00000380: be0c 32b8 81af c138 ff6c 76b8 5a85 5239
00000390: f8d5 39b8 c43b cdb8 8145 ec38 74bb 0439
000003a0: b444 1439 3fbf 80b8 f71e 0bba e802 08b9
000003b0: fd1e 8f38 a54e 4f37 766a 15b9 1f85 4138
000003c0: 1ba7 a438 92a2 2fb8 660b a4b9 8df3 8ab9
000003d0: d1b6 1939 3fe6 0e37 b0a8 d6b8 5b4d 2239
000003e0: 874d 48b8 5eb3 8f39 88d8 aa39 5952 9438
000003f0: 7350 ea38 0afc dfb9 01b0 f6b9 8b83 8f39

autoencoders.0.encoder.cells.0.lstm.bias_ih f4 [32]
0.0 0.0 0.0 0.0 0.0 0.0 0.0 0.0
0.0 0.0 0.0 0.0 0.0 0.0 0.0 0.0
0.0 0.0 0.0 0.0 0.0 0.0 0.0 0.0
0.0 0.0 0.0 0.0 0.0 0.0 0.0 0.0
00000000: 0000 0000 0000 0000 0000 0000 0000 0000
00000010: 0000 0000 0000 0000 0000 0000 0000 0000
00000020: 0000 0000 0000 0000 0000 0000 0000 0000
00000030: 0000 0000 0000 0000 0000 0000 0000 0000
00000040: 0000 0000 0000 0000 0000 0000 0000 0000
00000050: 0000 0000 0000 0000 0000 0000 0000 0000
00000060: 0000 0000 0000 0000 0000 0000 0000 0000
00000070: 0000 0000 0000 0000 0000 0000 0000 0000

autoencoders.0.encoder.cells.0.lstm.bias_hh f4 [32]
0.0 0.0 0.0 0.0 0.0 0.0 0.0 0.0
0.0 0.0 0.0 0.0 0.0 0.0 0.0 0.0
0.0 0.0 0.0 0.0 0.0 0.0 0.0 0.0
0.0 0.0 0.0 0.0 0.0 0.0 0.0 0.0
00000000: 0000 0000 0000 0000 0000 0000 0000 0000
00000010: 0000 0000 0000 0000 0000 0000 0000 0000
00000020: 0000 0000 0000 0000 0000 0000 0000 0000
00000030: 0000 0000 0000 0000 0000 0000 0000 0000
00000040: 0000 0000 0000 0000 0000 0000 0000 0000
00000050: 0000 0000 0000 0000 0000 0000 0000 0000
00000060: 0000 0000 0000 0000 0000 0000 0000 0000
00000070: 0000 0000 0000 0000 0000 0000 0000 0000

autoencoders.0.decoder.cells.0.weight_h_2 f4 [8, 8]
-0.092052005 0.22359426 0.4821494 0.00031840836 -0.0010044896 -0.0026083116 0.048952814 -0.42056406
0.028826132 -0.06190184 0.2536559 0.3173444 0.4188978 0.47669676 0.25922936 0.034813292
-0.05415324 0.526322 0.41577023 0.69348377 -0.15442261 -0.01735049 0.15336576 -0.2170256
-0.0048696045 -0.215711 -0.34916994 -0.04725693 0.06428753 0.53296775 -0.025856622 -0.35059872
0.089216 -0.0007086732 0.16159528 0.564376 0.12900735 0.3244896 -0.28445885 0.34056675
-0.51732075 0.26753265 -0.16458867 0.24825667 -0.25957975 0.42708 0.15678294 -0.2084993
0.60056674 -0.19959648 -0.55768245 0.001518575 -0.733043 -0.23214795 0.33384264 0.18605937
-0.56004035 0.06634608 -0.16821037 0.03138819 -0.22974485 0.38390425 -0.2565748 0.052700095
00000000: c385 bcbd e5f5 643e 49dc f63e 0cf0 a639
00000010: 14a9 83ba 35f0 2abb bf82 483d 2c54 d7be
00000020: c824 ec3c c98c 7dbd 30df 813e f77a a23e
00000030: c679 d63e 9911 f43e b6b9 843e 6298 0e3d
00000040: cacf 5dbd 0abd 063f d6df d43e 2788 313f
00000050: f620 1ebe 9d22 8ebc ea0b 1d3e f53b 5ebe
00000060: 3491 9fbb 58e3 5cbe 67c6 b2be 7c90 41bd
00000070: 2ea9 833d 9370 083f 44d1 d3bc ad81 b3be
00000080: e1b6 b63d 41c6 39ba 3c79 253e f27a 103f
00000090: 811a 043e 8023 a63e 97a4 91be c45e ae3e
000000a0: 226f 04bf 0afa 883e ef89 28be ff36 7e3e
000000b0: a3e7 84be 3baa da3e b58b 203e d780 55be
000000c0: bebe 193f 0563 4cbe 47c4 0ebf ec0a c73a
000000d0: b5a8 3bbf 31b8 6dbe 6ced aa3e 5986 3e3e
000000e0: ce5e 0fbf 74e0 873d 573f 2cbe e790 003d
000000f0: 3c42 6bbe 198f c43e c65d 83be 0edc 573d

autoencoders.0.decoder.cells.0.bias_h_2 f4 [8]
-0.07019549 0.084612586 -0.064450465 0.108489 0.005396316 0.07639971 0.08151315 0.09598384
00000000: a7c2 8fbd 5d49 ad3d 9bfe 83bd 7b2f de3d
00000010: 94d3 b03b 7377 9c3d 5ef0 a63d 2d93 c43d

autoencoders.0.decoder.cells.0.lstm.weight_ih f4 [32, 1]
6.1262814e-05 0.30411088 -0.090886004 0.36553243 -0.19612241 0.08273546 0.20966093 0.36429328
-1.6412825e-05 -0.12286128 -0.18256 0.20633973 0.0001653779 0.043040838 0.06842681 0.0015978769
-0.14734018 0.27352005 -0.23836279 0.0702874 0.013732591 0.42218706 0.020088239 0.034424644
0.3723209 0.4616607 -0.2637733 0.32080457 -0.00256046 0.2520164 0.3371557 0.22855014
00000000: 397a 8038 6cb4 9b3e 7122 babd 1127 bb3e
00000010: 50d4 48be 3571 a93d 5bb1 563e a684 ba3e
00000020: 46ae 89b7 b29e fbbd 02f1 3abe b94a 533e
00000030: 4b69 2d39 974b 303d 5b23 8c3d da6f d13a
00000040: 58e0 16be d20a 8c3e 6015 74be d7f2 8f3d
00000050: a9fe 603c e728 d83e 1790 a43c db00 0d3d
00000060: d8a0 be3e cb5e ec3e 4b0d 87be 7f40 a43e
00000070: 64cd 27bb 4b08 813e ac9f ac3e 0c09 6a3e

autoencoders.0.decoder.cells.0.lstm.weight_hh f4 [32, 8]
8.733366e-05 0.044852626 6.189819e-05 6.682032e-05 0.026997577 0.1382299 0.00056987704 0.00037640988
0.54530525 0.050292734 0.4532672 -0.2438362 0.0002626087 -0.018797368 0.049942836 0.17064176
0.23006281 0.022010231 -5.5665114e-05 0.13723157 0.00012905289 0.0007794613 0.00039919553 0.0007743093
0.0005594209 0.00062997104 1.4845351e-05 0.14660527 0.0004917556 0.18124358 0.039177008 -0.00018040516
-0.00040459333 0.00065273914 -0.0001758455 0.00026779916 0.000122037694 -0.00010643267 0.00070890895 0.0005770502
0.00028515936 0.21135443 0.29417312 -0.26252913 0.00014302797 0.12225946 -0.21639287 0.31967264
0.00014284419 0.19785169 0.21494521 -0.2339852 0.14234577 0.23431921 0.00026153363 0.42829865
0.17486612 -0.04622707 0.1923817 5.4014108e-05 0.017550562 0.13278392 0.47656703 0.58097845
-0.0026033456 0.057871144 0.39206937 0.16484512 0.028173814 0.010233533 4.927752e-05 0.019889751
-0.0006751303 -0.0022600552 0.15012863 -0.2148452 0.1521886 0.4047954 -0.34362113 -0.0010184511
0.00010816339 0.0005842065 1.22709735e-05 0.033301093 -0.00022442028 0.0010902622 0.0008746334 0.00082287804
0.0002648729 -0.0015773901 0.00019991971 -0.11380541 -0.0010446991 -0.004045551 -0.00037554896 -0.008469027
-0.00029559174 8.053144e-05 0.00019332173 -2.7506016e-05 -0.00019888494 0.0012852943 0.001305892 0.00072067155
0.0060030306 -0.0004419669 0.01470365 -0.059622925 -0.00070294074 -0.00081897166 -0.121197835 -0.14363699
-9.0464724e-05 0.025740491 -0.11581012 -0.13645378 -0.00081934594 -0.13498975 -0.1568812 -0.06421253
-0.00069737155 0.62552595 0.3069137 -0.30991024 -0.13610013 -0.041411348 0.21639208 -0.21461412
0.07290685 -0.27080706 -0.30304486 9.2415e-05 -0.14238219 0.0031533623 -0.0669383 -0.0535437
0.05547323 0.3197127 0.02334171 -0.023213018 0.45642668 0.07634995 -0.26415855 0.3912557
-0.008373079 -0.29118788 -0.1509784 -0.003604982 0.15402906 -0.1866214 -0.07662788 -0.28083748
0.28372332 0.08432215 0.07893251 0.30090436 0.35848454 0.18641853 0.10546333 -0.3732408
-0.0011731624 -0.11004335 0.033302736 -0.46285185 0.00010002332 -0.17492488 0.16659358 0.016956965
-0.14445369 0.11263998 -0.13857856 -0.22698857 -0.07108934 0.010277869 0.12332501 0.18470411
0.004313194 0.28398818 0.06843906 0.15200755 0.5925808 0.033422608 0.29038435 -0.039313987
0.13840441 -0.08008029 0.46074387 0.4278966 -0.3636143 0.4835661 0.1592925 0.18691799
0.00010405113 0.014128179 0.12739927 1.36848e-05 0.0001070694 0.17103156 0.05137503 -0.23663752
0.2138017 0.08526952 0.32470345 -5.1974148e-05 0.14241987 0.0940988 0.025292464 0.13372809
-0.00016365609 0.286311 0.0707311 -0.00016339398 2.8803614e-05 0.0016151844 -9.803738e-05 0.00060654234
-0.00028884265 0.15493952 0.0053498526 0.0019655065 5.0387964e-05 0.1447027 0.0002524385 0.00035065724
4.012403e-05 0.0005401832 -0.0004414487 -0.0006285792 8.418285e-05 -0.04591633 -0.0007436789 -0.0005099519
0.022375872 0.28034675 -0.039743576 -0.15797217 0.1017659 -0.033717036 0.103855014 0.32997385
0.0018533571 0.017247142 0.42975128 -0.10438536 0.2813534 -0.030741554 -0.18067141 -0.027010754
-0.005096711 0.33740503 0.2289087 -0.025013061 0.059203353 0.042748652 0.16846289 -0.20001212
00000000: e726 b738 63b7 373d 56cf 8138 e321 8c38
00000010: 062a dd3c 248c 0d3e cd63 153a e158 c539
00000020: 2099 0b3f c1ff 4d3d a312 e83e 32b0 79be
00000030: beae 8939 f0fc 99bc dc90 4c3d b7bc 2e3e
00000040: 9695 6b3e cd4e b43c f679 69b8 6f86 0c3e
00000050: 5f52 0739 c354 4c3a 1e4b d139 04fb 4a3a
00000060: 1aa6 123a a424 253a 4c10 7937 b11f 163e
00000070: 29e9 003a eb97 393e 1278 203d 242b 3db9
00000080: 991f d4b9 951c 2b3a 2b63 38b9 6567 8c39
00000090: 7dee ff38 9b34 dfb8 13d6 393a 2f45 173a
000000a0: 7181 9539 4c6d 583e dc9d 963e 386a 86be
000000b0: c7f9 1539 2b63 fa3d 1896 5dbe 22ac a33e
000000c0: 72c8 1539 a299 4a3e 991a 5c3e d199 6fbe
000000d0: 17c3 113e 60f1 6f3e 731e 8939 f649 db3e
000000e0: 1b10 333e 9958 3dbd b5ff 443e 358d 6238
000000f0: 32c6 8f3c 82f8 073e 9800 f43e 01bb 143f
00000100: e49c 2abb 4b0a 6d3d 51bd c83e 29cd 283e
00000110: c5cc e63c 8caa 273c 56af 4e38 d5ef a23c
00000120: 3afb 30ba 6f1d 14bb 52bb 193e 6100 5cbe
00000130: 54d7 1b3e 5841 cf3e 1cef afbe 8c7d 85ba
00000140: c7d5 e238 6f25 193a 6edf 4d37 ba66 083d
00000150: 5c52 6bb9 21e7 8e3a a747 653a 69b6 573a
00000160: a4de 8a39 6ec0 ceba 8aa1 5139 d012 e9bd
00000170: 49ee 88ba 8b90 84bb 54e5 c4b9 acc1 0abc
00000180: a7f9 9ab9 fde2 a838 68b6 4a39 b8bc e6b7
00000190: c58b 50b9 5277 a83a 772a ab3a 73eb 3c3a
000001a0: 12b5 c43b cbb7 e7b9 94e7 703c 2b37 74bd
000001b0: 8e45 38ba 42b0 56ba 9236 f8bd 9315 13be
000001c0: e1b7 bdb8 b9dd d23c db2d edbd 8aba 0bbe
000001d0: 60c9 56ba c13a 0abe 77a5 20be dc81 83bd
000001e0: d0cf 36ba 7822 203f cb23 9d3e 8eac 9ebe
000001f0: d55d 0bbe f29e 29bd e395 5d3e cec3 5bbe
00000200: 3050 953d 39a7 8abe b228 9bbe edce c138
00000210: a3cc 11be a4a8 4e3b f316 89bd a450 5bbd
00000220: e637 633d 62b1 a33e 1d37 bf3c 3a29 bebc
00000230: c2b0 e93e 5d5d 9c3d ca3f 87be ab52 c83e
00000240: 3d2f 09bc 9416 95be 159a 1abe 9041 6cbb
00000250: cbb9 1d3e ae19 3fbe 14ef 9cbd eec9 8fbe
00000260: 2f44 913e 17b1 ac3d 5ea7 a13d 2310 9a3e
00000270: 498b b73e 80e4 3e3e 29fd d73d 6b19 bfbe
00000280: ccc4 99ba 685e e1bd 7368 083d ebfa ecbe
00000290: 9cc3 d138 821f 33be 8297 2a3e 55e9 8a3c
000002a0: abeb 13be caaf e63d 8ae7 0dbe b16f 68be
000002b0: 4a97 91bd 8264 283c d391 fc3d 1323 3d3e
000002c0: b255 8d3b e666 913e c729 8c3d dea7 1b3e
000002d0: 60b3 173f 25e6 083d 42ad 943e b407 21bd
000002e0: e3b9 0d3e 2301 a4bd 9fe6 eb3e 4315 db3e
000002f0: a72b babe fa95 f73e 931d 233e 6e67 3f3e
00000300: 0636 da38 e179 673c f474 023e c597 6537
00000310: 728a e038 e622 2f3e a06e 523d 1b51 72be
00000320: d5ee 5a3e c9a1 ae3d 883f a63e d1fe 59b8
00000330: 84d6 113e dfb6 c03d 2432 cf3c 04f0 083e
00000340: 199b 2bb9 5b97 923e 78db 903d bd54 2bb9
00000350: 4a9f f137 98b4 d33a 6b99 cdb8 5e00 1f3a
00000360: ce6f 97b9 77a8 1e3e d14d af3b bacf 003b
00000370: aa57 5338 f22c 143e b959 8439 6bd8 b739
00000380: d94a 2838 159b 0d3a 3e72 e7b9 3cc7 24ba
00000390: 538b b038 c312 3cbd 72f3 42ba 4bae 05ba
000003a0: 9b4d b73c 9c89 8f3e 29ca 22bd 75c3 21be
000003b0: a46a d03d e01a 0abd f0b1 d43d 55f2 a83e
000003c0: 58ec f23a e149 8d3c 5c08 dc3e fec7 d5bd
000003d0: 8e0d 903e b6d5 fbbc ed01 39be a845 ddbc
000003e0: 5002 a7bb 5ac0 ac3e 0b67 6a3e 31e8 ccbc
000003f0: 377f 723d 3619 2f3d 8981 2c3e facf 4cbe

autoencoders.0.decoder.cells.0.lstm.bias_ih f4 [32]
0.046274174 0.07334258 0.00020143608 0.026698556 0.0028318933 0.11278286 0.12863311 0.06568143
0.031525575 0.024400234 0.006743779 -0.012527988 0.011079077 0.035562802 0.02921569 0.009615002
-0.059552334 0.061556272 -0.078249626 0.12622009 -0.027276855 0.04194742 0.11157171 0.08923221
0.0386793 0.06274652 0.023724778 0.085011065 0.00619908 0.12095875 0.08842973 0.039747108
00000000: fd89 3d3d a234 963d 9638 5339 eeb6 da3c
00000010: 4997 393b b3fa e63d 66b8 033e fc83 863d
00000020: f620 013d 00e3 c73c ebfa dc3b 3142 4dbc
00000030: 0485 353c 4daa 113d be55 ef3c 3e88 1d3c
00000040: 26ed 73bd 6e22 7c3d 5741 a0bd d73f 013e
00000050: b673 dfbc 0fd1 2b3d b57f e43d 60bf b63d
00000060: 306e 1e3d 3f81 803d 775a c23c 481a ae3d
00000070: a721 cb3b 39b9 f73d a51a b53d ddcd 223d

autoencoders.0.decoder.cells.0.lstm.bias_hh f4 [32]
0.046274174 0.07334258 0.00020143608 0.026698556 0.0028318933 0.11278286 0.12863311 0.06568143
0.031525575 0.024400234 0.006743779 -0.012527988 0.011079077 0.035562802 0.02921569 0.009615002
-0.059552334 0.061556272 -0.078249626 0.12622009 -0.027276855 0.04194742 0.11157171 0.08923221
0.0386793 0.06274652 0.023724778 0.085011065 0.00619908 0.12095875 0.08842973 0.039747108
00000000: fd89 3d3d a234 963d 9638 5339 eeb6 da3c
00000010: 4997 393b b3fa e63d 66b8 033e fc83 863d
00000020: f620 013d 00e3 c73c ebfa dc3b 3142 4dbc
00000030: 0485 353c 4daa 113d be55 ef3c 3e88 1d3c
00000040: 26ed 73bd 6e22 7c3d 5741 a0bd d73f 013e
00000050: b673 dfbc 0fd1 2b3d b57f e43d 60bf b63d
00000060: 306e 1e3d 3f81 803d 775a c23c 481a ae3d
00000070: a721 cb3b 39b9 f73d a51a b53d ddcd 223d

autoencoders.0.decoder.output_layer.weight f4 [1, 8]
-0.04182064 0.3120279 -0.015253689 0.17939809 0.05846641 0.22647156 0.34840196 0.2264712
00000000: 1f4c 2bbd 1fc2 9f3e 9cea 79bc 22b4 373e
00000010: 797a 6f3d 29e8 673e be61 b23e 11e8 673e

autoencoders.1.encoder.cells.0.weight_h_2 f4 [8, 8]
0.00015650656 9.655958e-05 -0.00016488733 -6.94901e-05 7.508516e-05 9.289067e-05 -8.8779976e-05 -0.00020075408
0.00015674993 -7.817845e-05 -0.000105120715 -0.00029588782 -6.88495e-05 -0.000120625766 0.00042905787 -3.391189e-05
0.0002665578 8.241478e-05 0.00013205715 6.74115e-05 -0.00017399341 -2.3918607e-05 -0.00017644126 -0.000341679
-0.00018165311 -4.3703087e-05 0.00016853641 -0.00012292652 -0.00033324625 -5.6140245e-05 0.00015313995 -0.00030181924
1.0036554e-05 0.00020163537 -0.00034202926 3.4062155e-05 -0.000119491684 -0.00013685427 0.0001888655 4.135136e-05
0.00026963628 -0.00010018244 -1.3349159e-05 -0.00020538071 -0.000215608 8.130221e-05 -0.0002734809 -0.00024333868
-6.13248e-05 -5.4714776e-05 0.00018398528 0.00013423458 4.432781e-06 -1.8834611e-05 0.00013322424 -0.00017078068
0.00020634833 -0.00017915058 -0.00013258861 -0.0001648968 -0.00020262675 -3.165314e-05 -0.00046473398 -0.00020589468
00000000: e91b 2439 0880 ca38 9be5 2cb9 37bb 91b8
00000010: 0a77 9d38 4cce c238 632f bab8 8381 52b9
00000020: 3d5d 2439 bcf3 a3b8 4174 dcb8 6421 9bb9
00000030: 4b63 90b8 77f8 fcb8 2cf3 e039 9d3c 0eb8
00000040: c8c0 8b39 19d6 ac38 d278 0a39 465f 8d38
00000050: 0072 36b9 d1a4 c8b7 1703 39b9 6123 b3b9
00000060: 237a 3eb9 d54d 37b8 26b9 3039 d6e5 00b9
00000070: 8eb7 aeb9 2178 6bb8 3194 2039 7e3d 9eb9
00000080: ac62 2837 156e 5339 6452 b3b9 f6dd 0e38
00000090: 9c97 fab8 8a80 0fb9 320a 4639 af70 2d38
000000a0: f85d 8d39 0a19 d2b8 34f6 5fb7 775b 57b9
000000b0: d514 62b9 cb80 aa38 fc61 8fb9 bb28 7fb9
000000c0: 809b 80b8 8b7d 65b8 2cec 4039 52c1 0c39
000000d0: 4dbd 9436 05ff 9db7 1cb2 0b39 9713 33b9
000000e0: 355f 5839 5eda 3bb9 7c07 0bb9 26e8 2cb9
000000f0: 3478 54b9 4dc3 04b8 8aa7 f3b9 6fe5 57b9

autoencoders.1.encoder.cells.0.bias_h_2 f4 [8]
0.0 0.0 0.0 0.0 0.0 0.0 0.0 0.0
00000000: 0000 0000 0000 0000 0000 0000 0000 0000
00000010: 0000 0000 0000 0000 0000 0000 0000 0000

autoencoders.1.encoder.cells.0.lstm.weight_ih f4 [32, 1]
-0.00015819688 -7.276919e-05 -0.0002806959 -3.2522843e-05 0.00013007162 -4.582588e-05 3.945844e-05 2.2330247e-05
-0.00015021276 5.905663e-05 0.000121780104 -0.00016892413 0.00011915495 -6.31454e-05 -0.00026814762 0.00021608618
0.00027475873 -0.00010041501 -0.00029116104 0.00020049079 8.984938e-06 5.2182102e-05 -0.00021462612 4.605967e-05
-5.1118415e-05 -0.00013045373 -3.4442564e-05 7.4632895e-05 5.41878e-05 6.041094e-05 0.00010536472 0.0001356134
00000000: a7e1 25b9 a99b 98b8 5e2a 93b9 2369 08b8
00000010: d663 0839 2a35 40b8 2d80 2538 d751 bb37
00000020: 6e82 1db9 93b3 7738 3264 ff38 3a21 31b9
00000030: d4e2 f938 ee6c 84b8 2a96 8cb9 3195 6239
00000040: 7e0d 9039 e695 d2b8 f9a6 98b9 d63a 5239
00000050: 04be 1637 1bde 5a38 430d 61b9 3230 4138
00000060: fb67 56b8 68ca 08b9 6c76 10b8 3b84 9c38
00000070: b547 6338 c161 7d38 41f7 dc38 7233 0e39

autoencoders.1.encoder.cells.0.lstm.weight_hh f4 [32, 8]
-2.056706e-05 5.1429943e-05 2.4514078e-05 -0.00016205905 -0.00035399277 -3.4991357e-05 0.00011956071 2.2388773e-05
0.00011661923 0.00018478274 -6.460458e-05 -0.00043572017 -4.493264e-05 -0.00022457703 6.672644e-08 -4.865662e-05
9.756723e-07 -2.3313364e-06 -0.00022392134 -0.00013952686 0.0002487362 -0.00035033902 -0.00022181301 0.00028720344
-0.00010005387 -4.080179e-05 0.00020800185 -0.0001293771 0.000109242814 -0.00028203474 -0.00011995596 -6.278708e-06
0.00012952447 0.00035700767 0.00013946556 8.473003e-05 4.587224e-05 -7.168132e-05 -0.0001845063 0.00012123365
-0.00018422402 -0.00020312554 -0.00015161061 0.00013225288 -4.0777573e-05 0.00013082431 -1.539576e-05 -1.1651359e-05
-0.00016161834 0.00015966367 3.2386765e-07 -0.0001494591 0.00020844322 -4.14823e-05 0.00033069248 0.00028416354
0.00011786729 -1.115545e-05 -3.3246204e-05 3.2717355e-05 0.000106443134 0.00037632536 -0.00013435406 1.20204095e-05
0.00042091816 6.407546e-05 2.5987592e-06 -7.162694e-05 3.9987052e-07 -0.00014993003 0.00024736035 8.046354e-05
-3.411925e-05 -9.281767e-05 0.0001595291 0.00017547025 -3.607318e-05 7.115689e-05 -0.00013049474 3.530343e-05
-0.0001554793 -9.998743e-05 -0.00024044284 -0.00013012756 0.00045281998 -0.0002291586 2.1271308e-05 0.00011655026
-5.7570874e-06 -1.3836326e-05 -0.00017436311 -0.0002447437 0.00013115216 0.00015094141 0.00014266459 -4.0703213e-05
-1.635334e-05 8.497213e-05 -0.00011196782 -0.0001547113 -0.00015663933 0.0003160146 -0.00035765657 -0.00010888117
-0.00017422879 0.00030647416 -2.1942495e-05 -0.000107975255 -5.221971e-05 -0.00014690224 -0.0003189848 2.0334855e-05
-2.2083582e-06 5.2671367e-05 0.000111018475 -0.00017740937 6.4218104e-05 -9.597373e-05 -9.411379e-05 -3.0164223e-05
-3.34937e-05 -0.00013162577 5.945252e-05 0.00016585393 8.324183e-05 -2.51731e-06 0.00012917313 -0.0002145877
-0.00040478885 5.4367152e-05 -0.00028233207 -2.0282978e-05 -8.6228254e-05 6.098911e-05 -7.4075804e-05 -0.00011900461
7.169313e-05 0.00012613068 -0.00013403044 -9.0578884e-05 0.00022468118 8.390791e-06 5.0424675e-05 -0.00016452024
0.00012882617 0.0002709563 -0.00029241975 -2.8895143e-05 5.9337715e-05 -0.0002307044 -1.6488453e-05 5.7614234e-06
0.000109106055 0.0001345308 -5.8390313e-05 0.00013209348 -0.00023843753 0.00041361584 0.00015917017 6.1558276e-05
0.00012736424 -0.00012946218 -2.2810006e-07 -3.2852447e-05 5.591355e-05 -5.7055866e-05 8.22048e-06 0.00012332709
0.00014807105 4.0242558e-05 -5.6384328e-05 -0.00014439126 -0.00015454573 -0.00013571883 4.9120667e-06 0.000116293064
-0.00012946871 -0.0001599362 -1.0000266e-05 -3.794286e-05 7.1332324e-05 -8.815357e-05 0.00018111103 -6.587323e-05
0.00015053575 -1.8420898e-05 -0.00040237381 7.441236e-05 -0.00011532676 -8.551506e-05 -2.5852374e-05 -4.6243567e-05
-2.5220064e-05 -5.4463264e-05 -0.00012522066 -0.00013298455 -0.00024435183 -5.881866e-05 -0.00010284526 0.00012879231
-7.624964e-05 -7.0329064e-05 4.450721e-05 2.2797984e-05 -0.00012740595 1.8944173e-05 5.3812175e-05 -2.2092716e-05
-8.543381e-05 -5.414497e-05 -0.00022318415 2.4981382e-05 -7.9124075e-05 0.000105475294 0.00012925325 0.00014313811
-4.997314e-05 -0.0002171767 -0.00018596154 0.000113208065 -8.842267e-06 -9.8519806e-05 -2.764175e-05 -3.686488e-05
7.4526855e-05 -5.618729e-05 7.2346076e-05 -0.00012188882 -1.9289475e-05 -0.00031720928 -0.00010359362 -8.111029e-05
-8.9925525e-05 -2.2015349e-05 -8.918428e-06 -0.00017525717 -2.574707e-05 4.7824054e-05 0.00023660176 0.00032378247
-0.00012841355 -0.00032907838 0.00016568502 7.494903e-05 -0.00012303103 -0.00010500852 0.0002557739 -0.00011424238
-5.2603235e-05 -0.00024294885 -4.997847e-05 5.625339e-05 -6.524652e-05 7.81601e-05 6.835174e-05 -6.5908903e-06
00000000: 6d87 acb7 7bb6 5738 95a3 cd37 65ee 29b9
00000010: 1b98 b9b9 afc3 12b8 abbc fa38 86cf bb37
00000020: 7991 f438 3dc2 4139 527c 87b8 5f71 e4b9
00000030: 0e76 3cb8 707c 6bb9 404b 8f33 a614 4cb8
00000040: d8f3 8235 0e74 1cb6 6dcc 6ab9 f54d 12b9
00000050: cf68 8239 b5ad b7b9 7a96 68b9 cb93 9639
00000060: 03d4 d1b8 9722 2bb8 121b 5a39 67a9 07b9
00000070: 4a19 e538 10de 93b9 de90 fbb8 b1ad d2b6
00000080: f6d0 0739 c22c bb39 803d 1239 17b1 b138
00000090: f166 4038 9e53 96b8 0878 41b9 d23e fe38
000000a0: 422c 41b9 19fe 54b9 aaf9 1eb9 5dad 0a39
000000b0: 9608 2bb8 e22d 0939 2526 81b7 357a 43b7
000000c0: 1878 29b9 646b 2739 08e0 ad34 1fb8 1cb9
000000d0: 8d91 5a39 48fd 2db8 cb60 ad39 c9fb 9439
000000e0: 852f f738 4b28 3bb7 d771 0bb8 fe39 0938
000000f0: 393a df38 894d c539 65e1 0cb9 44ab 4937
00000100: aeae dc39 4060 8638 5866 2e36 6c36 96b8
00000110: c9ad d634 8936 1db9 25b0 8139 89be a838
00000120: 441b 0fb8 1ba7 c2b8 4447 2739 70fe 3739
00000130: 484d 17b8 103a 9538 6ad5 08b9 c512 1438
00000140: 2808 23b9 58b0 d1b8 621f 7cb9 da72 08b9
00000150: 7868 ed39 4b4a 70b9 c96f b237 726c f438
00000160: 012d c1b6 9122 68b7 3ed5 36b9 f150 80b9
00000170: e485 0939 0746 1e39 3c98 1539 beb8 2ab8
00000180: 882e 89b7 1133 b238 44d0 eab8 003a 22b9
00000190: 8d3f 24b9 c3ae a539 da83 bbb9 2257 e4b8
000001a0: 2fb1 36b9 44ae a039 2611 b8b7 c670 e2b8
000001b0: 7d06 5bb8 c509 1ab9 6a3d a7b9 c594 aa37
000001c0: 4e33 14b6 73eb 5c38 97d2 e838 f706 3ab9
000001d0: d5ac 8638 8145 c9b8 f55e c5b8 2d09 fdb7
000001e0: 967b 0cb8 0605 0ab9 a85c 7938 13e9 2d39
000001f0: 1e92 ae38 0eef 28b6 a672 0739 f202 61b9
00000200: d739 d4b9 4908 6438 f805 94b9 5d25 aab7
00000210: 71d5 b4b8 8fce 7f38 2559 9bb8 1d92 f9b8
00000220: f559 9638 f241 0439 868a 0cb9 2bf5 bdb8
00000230: 6598 6b39 2cc6 0c37 157f 5338 1183 2cb9
00000240: 8315 0739 240f 8e39 ea4f 99b9 d963 f2b7
00000250: 63e1 7838 3ee9 71b9 af50 8ab7 4052 c136
00000260: decf e438 d610 0d39 1fe8 74b8 9382 0a39
00000270: 1605 7ab9 94da d839 ebe6 2639 d918 8138
00000280: 148d 0539 3dc0 07b9 abeb 74b4 0ccb 09b8
00000290: b884 6a38 454f 6fb8 b1ea 0937 5d51 0139
000002a0: 8543 1b39 1eca 2838 367e 6cb8 bc67 17b9
000002b0: 8e0d 22b9 bf4f 0eb9 55d2 a436 5de2 f338
000002c0: fec1 07b9 8cb4 27b9 d1c6 27b7 d624 1fb8
000002d0: 4098 9538 16df b8b8 9fe8 3d39 6c25 8ab8
000002e0: 22d9 1d39 9486 9ab7 b3f5 d2b9 d50d 9c38
000002f0: 95db f1b8 8c56 b3b8 8ddd d8b7 a7f5 41b8
00000300: ad8f d3b7 7c6f 64b8 aa4d 03b9 c571 0bb9
00000310: 591c 80b9 0eb4 76b8 a1ae d7b8 6c0c 0739
00000320: 37e8 9fb8 a17d 93b8 41ad 3a38 4c3e bf37
00000330: 4698 05b9 4dea 9e37 62b4 6138 bf53 b9b7
00000340: ed2a b3b8 b819 63b8 8a06 6ab9 1c8f d137
00000350: 6aef a5b8 9e32 dd38 2888 0739 5817 1639
00000360: 409a 51b8 edb9 63b9 acfe 42b9 1e6a ed38
00000370: 3f59 14b7 6b9c ceb8 35e0 e7b7 5d9f 1ab8
00000380: 4d4b 9c38 a5aa 6bb8 81b8 9738 909e ffb8
00000390: d5cf a1b7 1c4f a6b9 6740 d9b8 c119 aab8
000003a0: 6696 bcb8 9aad b8b7 5ba0 15b7 3dc5 37b9
000003b0: 69fb d7b7 b096 4838 4d18 7839 59c1 a939
000003c0: c0a6 06b9 2788 acb9 bcbb 2d39 f42d 9d38
000003d0: e401 01b9 0538 dcb8 6419 8639 6995 efb8
000003e0: 4ba2 5cb8 16c0 7eb9 f99f 51b8 9ef1 6b38
000003f0: f5d4 88b8 e2e9 a338 1058 8f38 5127 ddb6

autoencoders.1.encoder.cells.0.lstm.bias_ih f4 [32]
0.0 0.0 0.0 0.0 0.0 0.0 0.0 0.0
0.0 0.0 0.0 0.0 0.0 0.0 0.0 0.0
0.0 0.0 0.0 0.0 0.0 0.0 0.0 0.0
0.0 0.0 0.0 0.0 0.0 0.0 0.0 0.0
00000000: 0000 0000 0000 0000 0000 0000 0000 0000
00000010: 0000 0000 0000 0000 0000 0000 0000 0000
00000020: 0000 0000 0000 0000 0000 0000 0000 0000
00000030: 0000 0000 0000 0000 0000 0000 0000 0000
00000040: 0000 0000 0000 0000 0000 0000 0000 0000
00000050: 0000 0000 0000 0000 0000 0000 0000 0000
00000060: 0000 0000 0000 0000 0000 0000 0000 0000
00000070: 0000 0000 0000 0000 0000 0000 0000 0000

autoencoders.1.encoder.cells.0.lstm.bias_hh f4 [32]
0.0 0.0 0.0 0.0 0.0 0.0 0.0 0.0
0.0 0.0 0.0 0.0 0.0 0.0 0.0 0.0
0.0 0.0 0.0 0.0 0.0 0.0 0.0 0.0
0.0 0.0 0.0 0.0 0.0 0.0 0.0 0.0
00000000: 0000 0000 0000 0000 0000 0000 0000 0000
00000010: 0000 0000 0000 0000 0000 0000 0000 0000
00000020: 0000 0000 0000 0000 0000 0000 0000 0000
00000030: 0000 0000 0000 0000 0000 0000 0000 0000
00000040: 0000 0000 0000 0000 0000 0000 0000 0000
00000050: 0000 0000 0000 0000 0000 0000 0000 0000
00000060: 0000 0000 0000 0000 0000 0000 0000 0000
00000070: 0000 0000 0000 0000 0000 0000 0000 0000

autoencoders.1.decoder.cells.0.weight_h_2 f4 [8, 8]
0.16458534 -0.24210986 -0.7838416 0.41366896 -0.12365971 0.009527193 -0.76243997 0.38035026
-0.107642524 -0.43895853 0.11362059 -0.37790605 0.122516826 0.278496 0.51668304 0.48289126
0.356799 0.2394163 -0.13125949 0.14908272 -0.0004160878 -0.35252917 0.27973336 -0.022194184
0.508138 0.2174797 -0.25527617 -0.18078566 0.27001378 -0.40606892 -0.033178642 0.5807203
-0.4567075 0.15631203 0.11690625 -0.4527349 -0.5366596 -0.050250355 -0.004378214 0.1976679
-0.027446168 -0.0074753165 -0.0005802095 -0.07359617 -0.24117453 0.0043395367 -0.20227136 0.279826
-0.099721126 0.0062331595 0.09813753 0.6126975 0.09444781 0.035276175 -0.34291708 0.35441747
0.6191375 0.10668472 -0.07212519 0.6743636 0.39942747 -0.03684675 0.18163684 0.19235961
00000000: 0f89 283e a6eb 77be d8a9 48bf 6bcc d33e
00000010: 4d41 fdbd f217 1c3c 442f 43bf 45bd c23e
00000020: af73 dcbd 2cbf e0be e9b1 e83d e77c c1be
00000030: 1aea fa3d 0797 8e3e 5745 043f 863d f73e
00000040: 5cae b63e 8c29 753e e368 06be 24a9 183e
00000050: 5c26 dab9 b47e b4be 3639 8f3e 94d0 b5bc
00000060: 5515 023f 00b3 5e3e 8fb3 82be e01f 39be
00000070: 3f3f 8a3e 44e8 cfbe 54e6 07bd 16aa 143f
00000080: 91d5 e9be 4310 203e 8b6c ef3d decc e7be
00000090: 8662 09bf 51d3 4dbd 1f77 8fbb 7469 4a3e
000000a0: c9d6 e0bc 80f3 f4bb 3319 18ba 97b9 96bd
000000b0: 75f6 76be ac32 8e3b 3920 4fbe 5a45 8f3e
000000c0: 973a ccbd 883f cc3b 54fc c83d bed9 1c3f
000000d0: da6d c13d c07d 103d d492 afbe 3576 b53e
000000e0: cc7f 1e3f 857d da3d 5fb6 93bd 18a3 2c3f
000000f0: c281 cc3e 9eec 16bd 02ff 393e ebf9 443e

autoencoders.1.decoder.cells.0.bias_h_2 f4 [8]
0.11453035 0.10454517 0.0027273241 -0.09588582 -0.0016670498 0.09427225 -0.13996907 -0.0006756429
00000000: e38e ea3d c71b d63d e8bc 323b c95f c4bd
00000010: e980 daba cf11 c13d 0d54 0fbe a11d 31ba

autoencoders.1.decoder.cells.0.lstm.weight_ih f4 [32, 1]
0.051545348 0.14693564 -3.4403947e-05 0.049472872 0.0774533 0.009402017 -0.17814355 0.20186216
-0.05007271 0.31768742 0.00018144342 0.0004349044 0.04959444 0.11600027 0.54540765 0.5367521
0.19839016 0.29253095 -0.097057454 -0.13284831 0.4692242 0.121661976 -0.18038465 0.8706492
-0.0406267 0.50078446 -0.00047756013 0.5454329 0.07738869 0.6080915 0.45771843 0.056069557
00000000: 3721 533d 4c76 163e f54c 10b8 11a4 4a3d
00000010: d69f 9e3d eb0a 1a3c 436b 36be f4b4 4e3e
00000020: 0b19 4dbd eda7 a23e d941 3e39 e103 e439
00000030: 8a23 4b3d 8d91 ed3d d69f 0b3f 9668 093f
00000040: ca26 4b3e 9ec6 953e 0fc6 c6bd 6309 08be
00000050: 283e f03e ea29 f93d c1b6 38be dee2 5e3f
00000060: 2f68 26bd 6933 003f 0961 fab9 7ea1 0b3f
00000070: f67d 9e3d e2ab 1b3f 125a ea3e 31a9 653d

autoencoders.1.decoder.cells.0.lstm.weight_hh f4 [32, 8]
0.3273321 0.19695334 0.12039118 0.42527947 -0.34273013 0.06368501 0.6158304 0.35434946
0.10961642 0.1016258 0.37479886 0.2475136 0.19203953 0.06883478 -0.16422437 0.044237908
-0.00048287332 0.019485855 0.0014074543 -1.32097675e-05 0.0008155952 0.0013705574 0.00044081706 -0.0026151226
0.42342535 -0.18082838 -0.12874058 0.30332989 0.00022539061 0.13136543 -0.3756425 0.039419293
0.040526725 0.071967445 -0.053114355 0.09515414 0.0015129113 0.0119930925 -4.8076123e-05 0.3140885
0.14430301 0.047333166 0.29411447 0.41300413 0.014654679 0.14668378 0.1640863 0.076967485
0.2549058 0.10713205 0.09878929 0.27487198 -0.009088346 0.35296306 0.31752595 -0.009012274
0.37795654 0.40667433 0.25212052 0.14658076 0.42162567 0.5606637 -0.000782327 0.19959228
0.112583704 -0.052551944 0.0214028 -0.077204145 0.0825637 0.23112853 -9.984505e-05 0.03168069
0.4569974 0.13644227 0.047147617 -0.036631975 0.10933514 0.36623928 -0.016235292 0.37750253
0.00068006065 0.00092067855 0.0024506364 0.0017594321 0.001429016 0.001755518 -0.00013223485 0.11851897
-0.54569423 7.938755e-05 0.00029668963 0.22135602 -0.077875905 -0.28469682 -5.87001e-05 0.058877375
-0.09602321 0.025816184 0.11815296 -0.0001873134 0.003589959 0.028255448 -2.7332296e-06 0.23535661
0.44852516 -0.09232185 -0.008135985 0.03120866 0.4779456 -0.14399128 0.0332496 0.024593143
0.000786345 -0.21373485 0.05477528 -0.035932947 0.00046045636 -0.06707174 -0.0051033604 0.028814495
0.7417745 0.51970303 0.15786463 0.48194966 0.3223102 0.55737585 0.0006736079 0.39632732
0.17013185 0.65250874 0.4719895 -0.113656856 -0.052703306 0.10896938 0.1579316 -0.013895234
-0.4106419 0.09837636 -0.1419553 0.23688531 0.022673465 0.188339 0.32425326 0.26943907
0.22814555 0.13946402 -0.022169601 -0.27169934 0.02769844 -0.042642236 0.008321309 -0.08546697
-0.07168568 0.082583964 0.15210678 0.3846672 -0.15282626 0.05841533 -0.096571006 -0.24402288
-0.03712227 0.051001415 -0.15191044 -0.17576876 0.4835875 -0.09045946 0.0022920494 0.17712907
0.22685815 -0.007707995 0.15662268 0.015443396 0.04033072 -0.115383305 0.22214767 0.3071578
-0.39165616 -0.01036271 -0.120656714 0.040877417 -0.0009633588 -0.2797118 0.05725642 -0.30303466
-0.52313745 -0.088276625 -0.45088187 -0.06826221 -0.012044218 0.10355054 0.031699877 0.13158344
0.19637106 0.34662265 0.0010829661 0.09156654 0.004498929 -0.09934981 -0.006047684 0.5816579
-0.031155815 0.18532923 0.25447538 -0.080938764 0.03623917 0.2079518 2.3427045e-05 0.5460058
-0.00039433918 -0.0014167957 0.002200179 0.0010499172 0.00057235674 0.0016013975 -0.000276007 -0.0014065545
0.0018545842 -0.2797064 9.29113e-05 -7.741535e-06 -0.04832003 0.2944014 0.21522515 0.24452426
0.41751102 0.16228896 0.00039859622 -9.964267e-05 0.058314193 0.043918643 0.0001868146 -0.061868593
0.0012552565 0.3442329 -0.20669924 -0.059849773 0.003987272 0.04126193 0.064775206 0.38940436
0.2863969 -0.029579975 0.0811066 0.00012476032 0.52333045 -0.024423765 0.10325016 0.0027513355
0.6065691 0.71913505 0.67696166 0.48715195 0.17413908 0.70277053 -0.00031235887 0.04941203
00000000: 1398 a73e 23ae 493e a78f f63d 3bbe d93e
00000010: 537a afbe 496d 823d 10a7 1d3f 4b6d b53e
00000020: 937e e03d 3021 d03d a3e5 bf3e 3574 7d3e
00000030: 03a6 443e 40f9 8c3d 6f2a 28be cf32 353d
00000040: 292a fdb9 cda0 9f3c 547a b83a 859f 5db7
00000050: abcd 553a 46a4 b33a 771d e739 7a62 2bbb
00000060: 35cb d83e 132b 39be 92d4 03be 0e4e 9b3e
00000070: d556 6c39 a984 063e 3754 c0be 2076 213d
00000080: 5aff 253d ab63 933d 708e 59bd 2ce0 c23d
00000090: e14c c63a ad7e 443c 58a5 49b8 35d0 a03e
000000a0: 2bc4 133e 6ce0 413d 2c96 963e 4775 d33e
000000b0: 2e1a 703c 4634 163e 3d06 283e 21a1 9d3d
000000c0: 0383 823e 0c68 db3d 0a52 ca3d 05bc 8c3e
000000d0: 49e7 14bc 93b7 b43e c392 a23e 38a8 13bc
000000e0: 8583 c13e 9e37 d03e f115 813e 4419 163e
000000f0: 52df d73e a887 0f3f 1415 4dba eb61 4c3e
00000100: 4992 e63d b540 57bd ed54 af3c 351d 9ebd
00000110: 2817 a93d f5ac 6c3e e763 d1b8 9cc3 013d
00000120: 90fb e93e 86b7 0b3e dc1d 413d 690b 16bd
00000130: 1aeb df3d b783 bb3e e0ff 84bc 0348 c13e
00000140: 1946 323a b159 713a db9a 203b bf9c e63a
00000150: d24d bb3a 6919 e63a 86a8 0ab9 13ba f23d
00000160: 9eb2 0bbf de7c a638 028d 9b39 27ab 623e
00000170: 677d 9fbd c8c3 91be c134 76b8 6729 713d
00000180: d1a7 c4bd 767c d33c 2efa f13d 8f69 44b9
00000190: 8445 6b3b f877 e73c 876c 37b6 5301 713e
000001a0: 17a5 e53e 3d13 bdbd cb4c 05bc 4ea9 ff3c
000001b0: 49b5 f43e 7372 13be bc30 083d 8f77 c93c
000001c0: b822 4e3a 4fdd 5abe 0b5c 603d 6d2e 13bd
000001d0: 6869 f139 e95c 89bd 173a a7bb 600c ec3c
000001e0: efe4 3d3f 420b 053f 44a7 213e 1bc2 f63e
000001f0: d805 a53e 2fb0 0e3f 1095 303a 6aeb ca3e
00000200: 0b37 2e3e d00a 273f 9ca8 f13e edc4 e8bd
00000210: 6cdf 57bd 572b df3d d2b8 213e d6a8 63bc
00000220: a83f d2be 8c79 c93d bb5c 11be 1092 723e
00000230: b4bd b93c f0db 403e 8604 a63e ebf3 893e
00000240: fd9e 693e a8cf 0e3e 069d b5bc 2d1c 8bbe
00000250: d7e7 e23c a0a9 2ebd 1a56 083c 4f09 afbd
00000260: f1cf 92bd c821 a93d e1c1 1b3e 19f3 c43e
00000270: 7d7e 1cbe ea44 6f3d 05c7 c5bd 22e1 79be
00000280: 850d 18bd dce6 503d 698e 1bbe bafc 33be
00000290: c898 f73e cf42 b9bd 3536 163b 5361 353e
000002a0: 814d 683e 5993 fcbb b261 203e 4c06 7d3c
000002b0: d331 253d 154e ecbd ae7a 633e ca43 9d3e
000002c0: 2887 c8be 5bc8 29bc de1a f7bd 146f 273d
000002d0: ea89 7cba 6336 8fbe b585 6a3d 5c27 9bbe
000002e0: 56ec 05bf 60ca b4bd fdd9 e6be 0fcd 8bbd
000002f0: 1d55 45bc 4e12 d43d bbd7 013d cfbd 063e
00000300: 7f15 493e 8678 b13e 50f2 8d3a 3d87 bb3d
00000310: c06b 933b ea77 cbbd a62b c6bb 88e7 143f
00000320: 7b3a ffbc f2c6 3d3e 994a 823e 39c3 a5bd
00000330: 866f 143d 51f1 543e 3285 c437 09c7 0b3f
00000340: 4fbf ceb9 c6b3 b9ba e130 103b 609d 893a
00000350: 360a 163a fce5 d13a 08b5 90b9 235c b8ba
00000360: 8515 f33a ad35 8fbe 60d9 c238 a4e1 01b7
00000370: 39eb 45bd c8bb 963e fb63 5c3e 9164 7a3e
00000380: 01c4 d53e 142f 263e aefa d039 40f7 d0b8
00000390: ddda 6e3d 09e4 333d aae3 4339 ec69 7dbd
000003a0: 6b87 a43a 4b3f b03e f7a8 53be 0925 75bd
000003b0: a9a7 823b 4502 293d dda8 843d 0260 c73e
000003c0: 9da2 923e b451 f2bc 381b a63d 18d2 0239
000003d0: fcf8 053f 5914 c8bc d274 d33d c04f 343b
000003e0: 1d48 1b3f 3c19 383f 5c4d 2d3f fb6b f93e
000003f0: 8451 323e c5e8 333f 19c4 a3b9 4564 4a3d

autoencoders.1.decoder.cells.0.lstm.bias_ih f4 [32]
0.123432554 0.118278705 0.0013933614 0.010033783 0.0354289 0.11296349 0.09383991 0.43505904
0.07676198 0.047277812 0.0016619136 0.00041577575 0.032602236 0.037595253 0.06721806 0.51175207
0.09611481 -0.0070933662 0.050940596 -0.06840014 -0.11334412 0.025595922 -0.06680744 -0.09638591
0.12680805 0.12651262 0.0011536892 0.006181986 0.052513972 0.06686347 0.10564996 0.5100141
00000000: 35ca fc3d 1b3c f23d 73a1 b63a bc64 243c
00000010: e51d 113d 6759 e73d 242f c03d 0fc0 de3e
00000020: 6335 9d3d 61a6 413d 91d4 d93a 7afc d939
00000030: ec89 053d 7bfd 193d 9fa9 893d 2f02 033f
00000040: d7d7 c43d 786f e8bb 16a7 503d 5f15 8cbd
00000050: f620 e8bd 8aae d13c 57d2 88bd fa65 c5bd
00000060: f8d9 013e 868c 013e 6337 973a 4292 ca3b
00000070: e418 573d b7ef 883d 025f d83d 4990 023f

autoencoders.1.decoder.cells.0.lstm.bias_hh f4 [32]
0.123432554 0.118278705 0.0013933614 0.010033783 0.0354289 0.11296349 0.09383991 0.43505904
0.07676198 0.047277812 0.0016619136 0.00041577575 0.032602236 0.037595253 0.06721806 0.51175207
0.09611481 -0.0070933662 0.050940596 -0.06840014 -0.11334412 0.025595922 -0.06680744 -0.09638591
0.12680805 0.12651262 0.0011536892 0.006181986 0.052513972 0.06686347 0.10564996 0.5100141
00000000: 35ca fc3d 1b3c f23d 73a1 b63a bc64 243c
00000010: e51d 113d 6759 e73d 242f c03d 0fc0 de3e
00000020: 6335 9d3d 61a6 413d 91d4 d93a 7afc d939
00000030: ec89 053d 7bfd 193d 9fa9 893d 2f02 033f
00000040: d7d7 c43d 786f e8bb 16a7 503d 5f15 8cbd
00000050: f620 e8bd 8aae d13c 57d2 88bd fa65 c5bd
00000060: f8d9 013e 868c 013e 6337 973a 4292 ca3b
00000070: e418 573d b7ef 883d 025f d83d 4990 023f

autoencoders.1.decoder.output_layer.weight f4 [1, 8]
0.31780297 0.34340942 -0.03471746 -0.1402443 0.062178858 0.32446936 -0.14546876 0.23551147
00000000: 12b7 a23e 5cd3 af3e e533 0ebd 349c 0fbe
00000010: 42af 7e3d d920 a63e c3f5 14be eb29 713e

autoencoders.2.encoder.cells.0.weight_h_2 f4 [8, 8]
0.00029192385 6.1634084e-05 -0.00012847278 0.000113164024 -3.4595116e-05 -0.00019116544 -0.00012829674 -7.7013916e-05
-9.289932e-05 0.00016616251 0.00013127747 -8.98345e-05 -3.1681375e-05 9.947154e-05 0.000112954614 0.00011472971
-4.9386467e-06 -6.458165e-05 0.00019604233 -0.00015884383 -0.00019509638 0.00018200706 0.000113197995 0.00026512195
-0.00026209664 -0.00014279743 4.0121642e-05 -0.30935922 3.9142782e-05 8.09346e-05 3.7530157e-05 8.1130434e-05
5.6536624e-06 -0.00041750926 0.000118012234 -0.00015287576 0.00040064706 -6.1897095e-05 -3.887686e-05 0.0001977886
8.672113e-05 8.992807e-05 -0.00018039989 6.633541e-06 0.00021462706 9.1455266e-05 0.0004239531 -3.0174948e-05
-0.00019448623 -0.00033812714 -3.4391916e-05 -5.547944e-05 4.2050865e-06 5.4552533e-05 0.00013374438 -0.00012340455
-0.00013513047 -0.0003133086 0.00023288914 -0.00039193078 0.00011228256 0.00031391383 2.4572344e-05 -7.4274954e-05
00000000: 5b0d 9939 8c41 8138 a6b6 06b9 7952 ed38
00000010: 391a 11b8 9573 48b9 6587 06b9 8882 a1b8
00000020: f1d2 c2b8 e93b 2e39 87a7 0939 8865 bcb8
00000030: 9ee1 04b8 609b d038 0ce2 ec38 0b9b f038
00000040: a7b6 a5b6 0270 87b8 b690 4d39 518f 26b9
00000050: c992 4cb9 26d9 3e39 b664 ed38 1100 8b39
00000060: 046a 89b9 e5bb 15b9 4948 2838 5564 9ebe
00000070: 3e2d 2438 6fbb a938 b369 1d38 9224 aa38
00000080: 97b4 bd36 25e5 dab9 567d f738 464d 20b9
00000090: f00d d239 c0ce 81b8 b60f 23b8 7965 4f39
000000a0: 0dde b538 c497 bc38 ba29 3db9 af95 de36
000000b0: 830d 6139 accb bf38 0646 de39 3520 fdb7
000000c0: 00ef 4bb9 a846 b1b9 0a40 10b8 98b2 68b8
000000d0: 6b19 8d36 56cf 6438 bc3d 0c39 2866 01b9
000000e0: cfb1 0db9 9243 a4b9 b433 7439 0f7c cdb9
000000f0: 3e79 eb38 cd94 a439 b520 ce37 10c4 9bb8

autoencoders.2.encoder.cells.0.bias_h_2 f4 [8]
0.0 0.0 0.0 0.0 0.0 0.0 0.0 0.0
00000000: 0000 0000 0000 0000 0000 0000 0000 0000
00000010: 0000 0000 0000 0000 0000 0000 0000 0000

autoencoders.2.encoder.cells.0.lstm.weight_ih f4 [32, 1]
-0.00012588035 0.0003110135 -2.0303933e-05 0.00016253671 -6.204292e-06 5.6929082e-05 -1.8419094e-05 3.404811e-05
-7.121237e-07 0.00015032105 0.00018609015 0.00020792178 8.720705e-05 -1.5179776e-05 9.034317e-06 -7.1304265e-07
0.00026609586 2.0428435e-05 0.00049416075 6.4156566e-06 0.00039000643 0.00011266412 -0.0001532106 1.1138612e-05
0.00012680178 -0.0004712857 -0.00019022012 0.00013994025 0.00012195311 2.5036574e-05 -0.00011999059 0.0002496429
00000000: c0fe 03b9 860f a339 5d52 aab7 9e6e 2a39
00000010: 762e d0b6 23c7 6e38 b482 9ab7 e1ce 0e38
00000020: c528 3fb5 809f 1d39 3221 4339 9405 5a39
00000030: eee2 b638 a4ac 7eb7 1992 1737 eb67 3fb5
00000040: c882 8b39 bb5d ab37 918a 013a 1246 d736
00000050: c779 cc39 1746 ec38 28a7 20b9 f9df 3a37
00000060: 18f6 0439 e516 f7b9 d375 47b9 edbc 1239
00000070: 14c1 ff38 a205 d237 75a3 fbb8 81e2 8239
