results/H5_Bi-directional/art_daily_jumpsup/ensemble_autoencoder_weights.pth (torch, 174366 bytes, 190 tensors)

autoencoders.0.encoder.encoder.forward_cells.0.weight_h_2 f4 [8, 8]
2.383387e-05 0.00018511817 0.00012419095 -6.660456e-05 0.00013202641 6.8239846e-05 -7.124193e-05 -3.1346578e-06
-0.0002634824 0.00027497072 -0.0002120322 0.00016380163 -0.00018810091 6.657375e-05 0.00013973587 -0.00011757735
-8.0612925e-05 -6.2294646e-05 -0.00018157299 -7.5909906e-05 0.0002850994 0.00020652985 -0.00013210149 9.956686e-05
3.760705e-05 8.644788e-05 -5.0396575e-05 8.708868e-05 -8.971284e-05 -0.000111036956 -7.0628405e-05 -8.436094e-06
-0.0002829875 1.1930205e-05 0.00024863126 0.00014864311 3.3819648e-05 0.0002884814 -0.00018482773 0.00021066637
-5.604187e-05 -0.00016499925 0.00015073495 -5.6589535e-05 6.6148496e-05 -7.0518116e-05 -9.350723e-05 -3.5361638e-05
-2.7177352e-05 -0.00020575376 -6.643897e-05 -6.827321e-05 0.00014075603 -0.00010689644 -0.00012162882 -0.0001385857
-6.0506714e-05 -3.8843027e-05 2.7507298e-05 6.877398e-05 -0.00017732118 0.0002332905 0.0004017712 0.00011477315
00000000: d9ee c737 481c 4239 4139 0239 0dae 8bb8
00000010: 9270 0a39 fd1b 8f38 b867 95b8 035d 52b6
00000020: 0224 8ab9 f229 9039 f654 5eb9 2ac2 2b39
00000030: f43c 45b9 839d 8b38 1086 1239 dc93 f6b8
00000040: bc0e a9b8 2fa4 82b8 a164 3eb9 d231 9fb8
00000050: 6579 9539 ef8f 5839 b984 0ab9 8dce d038
00000060: 43bc 1d38 5a4b b538 e960 53b8 61a3 b638
00000070: 3724 bcb8 83dc e8b8 561e 94b8 bf88 0db7
00000080: f05d 94b9 d727 4837 b95a 8239 15dd 1b39
00000090: 92d9 0d38 513f 9739 51ce 41b9 53e6 5c39
000000a0: 800e 6bb8 a603 2db9 9b0e 1e39 8d5a 6db8
000000b0: 34b9 8a38 20e3 93b8 5019 c4b8 4551 14b8
000000c0: ebfa e3b7 9bbf 57b9 2755 8bb8 e72d 8fb8
000000d0: e997 1339 972d e0b8 fa12 ffb8 5151 11b9
000000e0: 97c8 7db8 62eb 22b8 79bf e637 c03a 9038
000000f0: 4bef 39b9 719f 7439 d1a4 d239 5eb2 f038

autoencoders.0.encoder.encoder.forward_cells.0.bias_h_2 f4 [8]
0.0 0.0 0.0 0.0 0.0 0.0 0.0 0.0
00000000: 0000 0000 0000 0000 0000 0000 0000 0000
00000010: 0000 0000 0000 0000 0000 0000 0000 0000

autoencoders.0.encoder.encoder.forward_cells.0.lstm.weight_ih f4 [32, 1]
0.00029036598 0.00015872953 -0.00036139862 7.7856326e-05 7.395295e-05 4.5161214e-05 0.00016942105 -1.2906485e-06
-0.0001359687 8.988304e-05 -0.00016180928 0.0001428294 0.0004719719 -9.765927e-05 5.9905815e-05 1.7209199e-05
-3.1652587e-05 -0.00014690807 5.674325e-05 -0.00019351691 0.00031167458 -0.00015705585 -0.0002093819 0.00014074123
-7.43799e-05 9.857595e-06 -0.0002122876 -0.00017896613 -3.213145e-05 -0.00014811772 7.6546676e-05 5.3427728e-05
00000000: 433c 9839 a270 2639 1a7a bdb9 cc46 a338
00000010: 3017 9b38 7c6b 3d38 9ea6 3139 583a adb5
00000020: d292 0eb9 977f bc38 59ab 29b9 7ac4 1539
00000030: ff72 f739 6cce ccb8 6143 7b38 795c 9037
00000040: b5c2 04b8 560b 1ab9 9aff 6d38 cdea 4ab9
00000050: 4168 a339 5caf 24b9 878d 5bb9 f093 1339
00000060: 68fc 9bb8 0c62 2537 8599 5eb9 dba8 3bb9
00000070: e2c4 06b8 0c50 1bb9 af87 a038 9617 6038

autoencoders.0.encoder.encoder.forward_cells.0.lstm.weight_hh f4 [32, 8]
0.00023804828 9.042577e-05 -0.00012804153 0.00013537107 0.00026221445 2.0458248e-05 -3.405489e-05 3.1263844e-05
-0.00012037045 -0.00010109202 -8.607053e-05 0.00015868421 -0.0004546884 -6.324435e-05 -3.9033246e-05 -0.00013443342
-1.4537606e-07 -5.0490486e-05 -6.9822716e-05 -0.00037456895 -0.00012437094 -0.000108943415 -2.6002173e-05 0.00040101897
8.1961814e-05 0.00012908649 -0.00032151156 -3.5440607e-05 -4.6983336e-05 -0.00015227743 -0.00010004219 -0.00017914115
2.439723e-05 -0.00018428816 0.00015283638 -0.00016965823 -4.4683464e-05 -6.3934995e-06 -0.00015307381 0.000496821
-0.00015614592 7.2831266e-05 -0.00015783342 0.00028773575 0.00030798686 0.0002637502 -9.0918154e-05 0.00011973893
0.00018619515 0.00013073812 -0.0002232592 0.00032662883 0.00042126604 -0.00014339075 5.018739e-05 -9.5338844e-05
-0.00013735911 0.00025989657 -0.00024301645 -0.00011487763 -2.9890447e-05 -5.129788e-06 1.4492321e-05 -0.00021516085
-0.00039521788 2.3777904e-05 0.00017847939 -0.00014819553 0.00012733131 0.00017339684 0.00018576026 -6.292016e-05
0.00013216896 -2.507245e-05 -1.050613e-05 -6.195214e-05 -0.0002329783 -7.3813986e-05 4.0615676e-05 -0.00045069712
-0.00017128554 3.4614663e-05 0.00024136453 -1.1639837e-05 4.7787133e-05 0.00011227946 -0.00019333202 0.00015554224
0.00028584155 -2.9727405e-05 -8.631524e-05 -9.163157e-05 -0.00023501659 -0.00023925466 0.00018384878 -0.00044753784
7.3081274e-06 0.00025400004 0.0002155474 -6.9409e-05 -1.7493023e-05 0.00026720238 5.8253077e-05 0.00018302571
0.00011154553 2.7821954e-05 0.00025127202 -0.00036727265 4.9709734e-06 -2.3799454e-05 -2.3291483e-05 0.00011857666
-0.00032352348 3.746048e-05 -8.947231e-05 0.0001427489 6.552218e-05 -0.00012901328 0.00021754527 0.0002221237
-1.4060224e-06 0.00012886318 -9.512129e-06 -8.707507e-05 -0.00011066188 -5.427308e-05 0.00013617825 -0.00031203628
0.00023433755 1.7178349e-05 0.00044291382 -4.6435664e-05 -9.9142984e-05 5.4456337e-05 5.470533e-05 0.00020620605
4.9705257e-05 -0.00026636096 0.00013797899 -0.000129059 0.000487804 8.040275e-05 0.00028635614 -3.2761325e-06
-8.358908e-06 -0.00017883306 1.0435963e-05 -1.4451432e-05 -8.1960314e-07 0.0003170154 -0.00025229363 -8.851501e-05
-0.000100969235 -0.0001346244 9.4882154e-05 0.0001626032 -1.5703856e-05 3.7361984e-05 -3.5331774e-05 -0.00012192177
-0.00024779726 -6.903583e-05 0.00019105668 -2.941009e-05 -8.814524e-06 0.00013774066 0.00017466795 9.484008e-05
0.00021214814 -0.00014267219 5.9994265e-05 5.9417554e-05 -1.0716868e-05 -3.751113e-05 0.00011783658 0.00013476839
-0.00025014096 -6.1829895e-05 -1.1455141e-05 -1.772468e-05 -6.544654e-05 2.3206172e-05 -9.6130325e-06 -5.430816e-05
1.5144498e-05 -0.00013483975 -6.512747e-05 -0.00016883622 -0.00025680233 -0.00022620558 -0.00023165088 -0.00027320662
-0.00031109346 -8.024418e-05 -0.0001575982 -4.69654e-07 -1.5045828e-05 0.00012897803 2.7520573e-06 4.2752414e-05
0.0001347941 -7.46745e-05 0.0002009623 3.533142e-06 -0.00019568714 3.9334127e-06 -1.0721368e-05 1.6010932e-05
0.00014648802 -0.00010050038 0.00017850411 -3.4080167e-05 -2.7671871e-05 6.6184926e-05 -6.587555e-05 0.00014033237
-0.00019553727 0.00012793188 0.00018041405 2.3213563e-05 -0.0001952227 6.4484586e-05 -2.4004055e-05 -1.405242e-05
-4.2450374e-05 9.235647e-05 -5.875248e-05 0.00020076838 -4.430671e-05 -9.786294e-05 0.00011266303 0.00012658333
0.00014139974 -6.139138e-05 -0.00053070433 -0.00012971053 6.8245434e-05 1.2356472e-05 -0.00014249407 4.6138764e-05
7.851255e-05 -4.1874657e-05 -0.0003128901 -0.0002650287 0.00014659321 8.517468e-06 -0.00010235736 0.00015478341
-4.775592e-05 0.00027408724 0.00032586255 7.0725284e-05 0.00011172974 -0.00042721658 -0.0004705191 0.00027373093
00000000: 999c 7939 f7a2 bd38 e342 06b9 65f2 0d39
00000010: d479 8939 c19d ab37 29d6 0eb8 4c21 0338
00000020: 656f fcb8 5d01 d4b8 c480 b4b8 7864 2639
00000030: 3e63 eeb9 0da2 84b8 a1b7 23b8 b2f6 0cb9
00000040: ab18 1cb4 bfc5 53b8 c96d 92b8 cb61 c4b9
00000050: 9269 02b9 8d78 e4b8 3e1f dab7 db3f d239
00000060: eae2 ab38 645b 0739 8d90 a8b9 10a6 14b8
00000070: f90f 45b8 a9ac 1fb9 becd d1b8 d6d7 3bb9
00000080: a7a8 cc37 7a3d 41b9 b442 2039 49e6 31b9
00000090: 816a 3bb8 be87 d6b6 7082 20b9 183d 023a
000000a0: 1abb 23b9 fdbc 9838 1680 25b9 3ddb 9639
000000b0: 4c79 a139 f447 8a39 50ab beb8 591c fb38
000000c0: 613d 4339 bf16 0939 af1a 6ab9 613f ab39
000000d0: 5fdd dc39 295b 16b9 4d80 5238 a7f0 c7b8
000000e0: 0e08 10b9 ba42 8839 3bd2 7eb9 75ea f0b8
000000f0: 3fbd fab7 8b20 acb6 0b24 7337 cd9c 61b9
00000100: 3f35 cfb9 a976 c737 3226 3b39 ef64 1bb9
00000110: 3d84 0539 dcd1 3539 a4c8 4239 01f4 83b8
00000120: d696 0a39 ad52 d2b7 7c43 30b7 4dec 81b8
00000130: a34b 74b9 95cc 9ab8 c05a 2a38 8b4b ecb9
00000140: 1d9b 33b9 362f 1138 cc16 7d39 b848 43b7
00000150: 0b6f 4838 9377 eb38 2bb9 4ab9 0d19 2339
00000160: 01dd 9539 1e5f f9b7 2404 b5b8 532a c0b8
00000170: c96e 76b9 6fe0 7ab9 88c7 4039 83a3 eab9
00000180: 5638 f536 4f2b 8539 9104 6239 ac8f 91b8
00000190: fbbd 92b7 4c17 8c39 c454 7438 97ea 3f39
000001a0: 8ded e938 3163 e937 29bd 8339 808e c0b9
000001b0: 56cc a636 f0a4 c7b7 1462 c3b7 5cac f838
000001c0: 969e a9b9 e21e 1d38 15a3 bbb8 deae 1539
000001d0: f468 8938 bd47 07b9 dd1c 6439 e0e9 6839
000001e0: 90b6 bcb5 721f 0739 4896 1fb7 129c b6b8
000001f0: 2513 e8b8 47a3 63b8 12cb 0e39 cd98 a3b9
00000200: 82b8 7539 391a 9037 e336 e839 eac3 42b8
00000210: fcea cfb8 0c68 6438 6773 6538 0439 5839
00000220: 9d7a 5038 5da6 8bb9 74ae 1039 0354 07b9
00000230: f2bf ff39 e69d a838 1222 9639 87db 5bb6
00000240: 3d3d 0cb7 2285 3bb9 1f16 2f37 6e74 72b7
00000250: b302 5cb5 1635 a639 4746 84b9 22a1 b9b8
00000260: 72bf d3b8 f629 0db9 78fb c638 7780 2a39
00000270: c6bb 83b7 20b5 1c38 3431 14b8 40b0 ffb8
00000280: c9ea 81b9 54c7 90b8 6356 4839 b0b5 f6b7
00000290: 18e2 13b7 7a6e 1039 1227 3739 e1e4 c638
000002a0: 1574 5e39 469a 15b9 5aa2 7b38 1d37 7938
000002b0: 99cc 33b7 4555 1db8 081f f738 9d50 0d39
000002c0: 5a25 83b9 acaa 81b8 752f 40b7 76af 94b7
000002d0: 5840 89b8 e0aa c237 a947 21b7 f1c8 63b8
000002e0: 2015 7e37 c563 0db9 0b95 88b8 a109 31b9
000002f0: 6da3 86b9 9931 6db9 4fe7 72b9 2c3d 8fb9
00000300: 421a a3b9 c448 a8b8 f240 25b9 c124 fcb4
00000310: 576d 7cb7 473e 0739 fcaf 3836 0e51 3338
00000320: 8457 0d39 919a 9cb8 68b9 5239 eb1a 6d36
00000330: 5e31 4db9 c2fb 8336 eddf 33b7 374f 8637
00000340: 949a 1939 bbc3 d2b8 d52c 3b39 4df1 0eb8
00000350: e420 e8b7 c3cc 8a38 ab26 8ab8 2f26 1339
00000360: 2309 4db9 7425 0639 872d 3d39 bfba c237
00000370: b2b4 4cb9 e63b 8738 515c c9b7 afc2 6bb7
00000380: be0c 32b8 81af c138 ff6c 76b8 5a85 5239
00000390: f8d5 39b8 c43b cdb8 8145 ec38 74bb 0439
000003a0: b444 1439 3fbf 80b8 f71e 0bba e802 08b9
000003b0: fd1e 8f38 a54e 4f37 766a 15b9 1f85 4138
000003c0: 1ba7 a438 92a2 2fb8 660b a4b9 8df3 8ab9
000003d0: d1b6 1939 3fe6 0e37 b0a8 d6b8 5b4d 2239
000003e0: 874d 48b8 5eb3 8f39 88d8 aa39 5952 9438
000003f0: 7350 ea38 0afc dfb9 01b0 f6b9 8b83 8f39

autoencoders.0.encoder.encoder.forward_cells.0.lstm.bias_ih f4 [32]
0.0 0.0 0.0 0.0 0.0 0.0 0.0 0.0
0.0 0.0 0.0 0.0 0.0 0.0 0.0 0.0
0.0 0.0 0.0 0.0 0.0 0.0 0.0 0.0
0.0 0.0 0.0 0.0 0.0 0.0 0.0 0.0
00000000: 0000 0000 0000 0000 0000 0000 0000 0000
00000010: 0000 0000 0000 0000 0000 0000 0000 0000
00000020: 0000 0000 0000 0000 0000 0000 0000 0000
00000030: 0000 0000 0000 0000 0000 0000 0000 0000
00000040: 0000 0000 0000 0000 0000 0000 0000 0000
00000050: 0000 0000 0000 0000 0000 0000 0000 0000
00000060: 0000 0000 0000 0000 0000 0000 0000 0000
00000070: 0000 0000 0000 0000 0000 0000 0000 0000

autoencoders.0.encoder.encoder.forward_cells.0.lstm.bias_hh f4 [32]
0.0 0.0 0.0 0.0 0.0 0.0 0.0 0.0
0.0 0.0 0.0 0.0 0.0 0.0 0.0 0.0
0.0 0.0 0.0 0.0 0.0 0.0 0.0 0.0
0.0 0.0 0.0 0.0 0.0 0.0 0.0 0.0
00000000: 0000 0000 0000 0000 0000 0000 0000 0000
00000010: 0000 0000 0000 0000 0000 0000 0000 0000
00000020: 0000 0000 0000 0000 0000 0000 0000 0000
00000030: 0000 0000 0000 0000 0000 0000 0000 0000
00000040: 0000 0000 0000 0000 0000 0000 0000 0000
00000050: 0000 0000 0000 0000 0000 0000 0000 0000
00000060: 0000 0000 0000 0000 0000 0000 0000 0000
00000070: 0000 0000 0000 0000 0000 0000 0000 0000

autoencoders.0.encoder.encoder.backward_cells.0.weight_h_2 f4 [8, 8]
-6.784929e-05 -0.00012287 0.00012590374 5.769441e-07 6.1892324e-06 0.00022929706 4.116195e-05 0.00020894634
3.3088054e-05 0.00020230131 7.668019e-05 1.6140606e-05 -0.0001357125 -5.5078373e-05 -0.0001569273 -0.00028309145
0.00015228993 -9.067491e-05 -0.00014908588 -6.972724e-05 0.00012390531 0.00036249103 -0.00013444104 5.5260924e-05
-6.898833e-05 0.0004539779 -7.589449e-05 -4.4565317e-07 -0.00016304293 0.000121450095 -0.00019039786 3.518997e-05
8.3030944e-05 0.00033564548 4.7173256e-05 -6.6651696e-06 -4.599519e-06 -0.00029684507 -2.4848856e-05 -4.2827854e-05
9.6018026e-05 -4.307098e-05 0.00023520815 0.0002599602 -0.00018320313 0.00017854209 -0.00024839048 1.990802e-05
0.00017303562 -9.7606935e-05 0.00023988583 -1.3762589e-05 -0.00013735337 0.00015215288 0.00015459626 0.00014751097
7.336186e-05 -0.00013952158 -2.4108364e-05 0.000221011 3.6165247e-06 8.874129e-05 1.7624452e-05 -5.1926705e-05
00000000: 4f4a 8eb8 aad6 00b9 0705 0439 4cdf 1a35
00000010: 1aad cf36 766f 7039 4fa5 2c38 9b18 5b39
00000020: 07c8 0a38 d820 5439 5dcf a038 b065 8737
00000030: 0c4e 0eb9 f403 67b8 da8c 24b9 e46b 94b9
00000040: 04b0 1f39 b928 beb8 f053 1cb9 873a 92b8
00000050: 94ec 0139 b90c be39 bef8 0cb9 f7c7 6738
00000060: d4ad 90b8 e203 ee39 8b29 9fb8 1b42 efb4
00000070: 81f6 2ab9 06b3 fe38 89a5 47b9 f198 1338
00000080: e620 ae38 93f9 af39 e6db 4538 5fa5 dfb6
00000090: 9155 9ab6 dfa1 9bb9 8372 d0b7 0fa2 33b8
000000a0: 495d c938 1da7 34b8 35a2 7639 444b 8839
000000b0: 371a 40b9 0737 3b39 683a 82b9 2600 a737
000000c0: e570 3539 53b2 ccb8 dd89 7b39 dfe5 66b7
000000d0: 8406 10b9 3a8b 1f39 1e1b 2239 2dad 1a39
000000e0: d9d9 9938 8a4c 12b9 513c cab7 30bf 6739
000000f0: 6cb3 7236 9e1a ba38 39d8 9337 e0cb 59b8

autoencoders.0.encoder.encoder.backward_cells.0.bias_h_2 f4 [8]
0.0 0.0 0.0 0.0 0.0 0.0 0.0 0.0
00000000: 0000 0000 0000 0000 0000 0000 0000 0000
00000010: 0000 0000 0000 0000 0000 0000 0000 0000

autoencoders.0.encoder.encoder.backward_cells.0.lstm.weight_ih f4 [32, 1]
8.3617524e-05 0.0001268095 0.00021633838 -0.00023581443 -9.795575e-05 7.228618e-06 0.00019840481 -3.7245813e-05
-0.00033279 2.2447566e-06 3.8097813e-05 -1.9870307e-05 0.000149247 -0.00032946712 -0.0002759611 7.287187e-07
-0.00010800515 -0.0003327953 0.00023867057 -0.00013359143 -0.00028552822 -0.00018419509 9.897489e-05 -4.8106438e-05
1.8958564e-05 0.00016467176 0.00034905036 0.00022597508 0.0002022376 9.4951945e-05 0.0002211733 0.00016093071
00000000: d15b af38 2af8 0439 e4d8 6239 f444 77b9
00000010: 986d cdb8 5b8d f236 e30a 5039 6338 1cb8
00000020: 517a aeb9 a0a4 1636 37cb 1f38 29af a6b7
00000030: 307f 1c39 54bc acb9 dfae 90b9 2b9d 4335
00000040: d380 e2b8 077b aeb9 a543 7a39 ad14 0cb9
00000050: f3b2 95b9 7e24 41b9 bd90 cf38 e5c5 49b8
00000060: 3509 9f37 bdab 2c39 bf00 b739 b9f3 6c39
00000070: be0f 5439 f020 c738 c1ea 6739 82bf 2839

autoencoders.0.encoder.encoder.backward_cells.0.lstm.weight_hh f4 [32, 8]
7.149747e-05 -0.00010101652 -0.00030685807 0.00021497789 7.813334e-05 8.5793996e-05 -0.00031310387 -0.0001698738
0.00021861611 -0.00019532476 -1.1392062e-05 0.00023962084 -0.00013534466 0.000100248384 -1.5738585e-06 6.9423263e-06
7.809035e-05 0.0002693594 -0.00013570173 0.0004289405 -2.7496228e-05 -1.8045237e-05 -6.144733e-05 0.00014115978
-0.00024911025 0.00020122174 -0.00011067554 -0.00022773429 0.00014189616 4.484635e-05 -0.0002706361 4.0962503e-05
0.000106718835 2.5154406e-05 -3.9634695e-05 -0.00023917451 -0.00010915654 7.853332e-05 -0.00026777745 -1.5345142e-05
-0.00015745655 -0.00015132064 -0.00012536063 0.00028414943 -0.0002758599 -0.00012254817 8.090747e-05 -3.391489e-05
9.651587e-05 -0.00019020622 -0.00020610601 -0.00010756751 -2.3126793e-05 -6.257639e-06 0.00015668714 9.473665e-05
0.00012565589 0.00023166394 3.7607006e-05 -6.7595116e-05 0.00010452114 -3.7873964e-05 0.00011325395 -2.4834468e-05
-7.1958757e-06 0.00014932507 -5.7947866e-05 -8.823168e-05 -4.7744743e-05 -7.975545e-05 0.00032326364 7.46123e-05
-0.00023991532 2.1857368e-05 -2.149971e-05 0.00034807614 5.160688e-05 -0.00018552876 0.00014820263 -0.0002629253
0.00018867878 1.2828191e-05 0.0002985143 -4.1278607e-05 0.00014550862 8.4245796e-05 7.58605e-05 -9.050577e-05
0.00040219238 -3.438225e-05 0.00021711671 -0.000118359494 -5.029571e-05 0.00046448456 -0.00030830968 -0.00023889414
6.120271e-05 8.2926475e-05 6.599514e-05 0.0003217008 -0.00017502804 0.00012608476 -0.00010197153 6.629459e-05
3.070584e-05 -0.00012998922 -0.00014325566 -7.307935e-05 0.00015606597 1.6829787e-05 -4.5938737e-05 0.00015674953
0.00030538908 3.9524657e-05 -3.8172308e-05 -0.00019977234 0.0001688705 -4.9993134e-05 -3.5857098e-05 -7.626488e-05
7.8178455e-05 -0.00022084478 -1.5701971e-06 -0.00020179711 1.37536235e-05 -0.00025567462 0.0002527807 -0.0002675928
8.840028e-05 -2.739976e-05 3.522733e-05 -0.0002188867 4.3456123e-05 8.15898e-05 4.787684e-05 0.00040134118
-2.4544903e-05 -0.00012691811 1.8410052e-06 8.062645e-06 2.7581968e-06 0.00018330106 0.00012812609 -0.00024372485
3.3822365e-05 -9.2913415e-06 0.0001568914 9.043157e-06 -0.00018450752 1.3694088e-05 -2.533606e-05 -3.6311358e-05
-3.33772e-05 -9.951101e-05 -0.000104673316 -1.9911035e-05 -9.978241e-05 2.437319e-05 -8.7103836e-05 8.605977e-05
-6.5900526e-06 -0.00011636496 -0.00033255966 -0.00017908639 -0.0002749525 -7.515497e-05 6.0863433e-05 -6.41648e-05
-3.5628327e-05 -0.0004333788 -3.163977e-05 -2.460536e-05 -0.00029616978 9.6945e-05 -0.00032214183 -0.0004212544
-7.7725024e-05 0.00019182077 0.00017719019 0.0002057921 -0.00036715274 -5.5623408e-05 0.00010152904 -5.172315e-05
0.00022343507 0.00014699093 3.2333726e-05 3.4065783e-05 0.00011841454 -4.71164e-05 -4.7235484e-05 -0.00032642813
-5.8793154e-05 -0.00012642815 -0.00010411813 3.8333877e-05 3.997673e-05 0.00017140768 -6.8970796e-05 -0.00041639755
-0.00012925323 1.39048325e-05 -0.00016980236 -0.0001823722 -0.00014184506 0.0002911506 5.4683507e-05 -0.0002402148
-0.00010480444 1.4216293e-06 0.00014893612 -0.00010328995 -2.1522103e-05 0.00014846347 8.133144e-05 7.914516e-05
3.0743337e-05 8.350014e-05 2.0002888e-05 -6.215273e-05 1.6398455e-05 -5.0459545e-05 -0.00010784147 2.7349795e-05
-6.878004e-05 -5.940253e-05 -0.00018735572 -8.3547275e-05 0.00012236867 -0.00018993244 -0.00051714736 -3.5643174e-05
0.00026313443 5.159316e-05 -1.57056e-05 0.00013310842 -0.00018077152 -4.098215e-05 -5.2178304e-05 -0.00012203984
-0.00020677772 -3.5941954e-05 -0.00037462547 -0.00017504337 0.00034377837 -0.00033241586 -0.00011777922 8.745577e-05
-5.448667e-05 1.3419495e-06 -0.00015389992 -5.49541e-05 6.126504e-05 4.4942146e-05 -0.00015020951 4.477643e-05
00000000: e9f0 9538 d5d8 d3b8 cbe1 a0b9 b06b 6139
00000010: 84db a338 4dec b338 1728 a4b9 2720 32b9
00000020: 513c 6539 17d0 4cb9 8920 3fb7 bb42 7b39
00000030: 4eeb 0db9 713c d238 5e3d d3b5 21f2 e836
00000040: 70c4 a338 cf38 8d39 284b 0eb9 6be3 e039
00000050: b3a7 e6b7 da5f 97b7 49dd 80b8 4a04 1439
00000060: 039b 82b9 0dff 5239 7a1a e8b8 f5cb 6eb9
00000070: f6c9 1439 6719 3c38 2ae4 8db9 27cf 2b38
00000080: 3dce df38 ad02 d337 6e3d 26b8 ebca 7ab9
00000090: f9ea e4b8 41b2 a438 7b64 8cb9 71b9 80b7
000000a0: ec1a 25b9 d3ab 1eb9 3d73 03b9 e4f9 9439
000000b0: 4aa1 90b9 4680 00b9 deac a938 d63f 0eb8
000000c0: 9068 ca38 1872 47b9 291e 58b9 de95 e1b8
000000d0: 6900 c2b7 b6f8 d1b6 624c 2439 5aad c638
000000e0: 7fc2 0339 d1ea 7239 37bc 1d38 dac1 8db8
000000f0: 5c32 db38 dcda 1eb8 c082 ed38 9d53 d0b7
00000100: 1a74 f1b6 2594 1c39 0c0d 73b8 0609 b9b8
00000110: 8741 48b8 6242 a7b8 b67b a939 2c79 9c38
00000120: c791 7bb9 575a b737 475a b4b7 fd7d b639
00000130: 7774 5838 7f8a 42b9 d766 1b39 3dd9 89b9
00000140: 13d8 4539 a938 5737 e981 9c39 9122 2db8
00000150: ac93 1839 1ead b038 4c17 9f38 eacd bdb8
00000160: 59dd d239 a935 10b8 d3a9 6339 c537 f8b8
00000170: 9bf4 52b8 1086 f339 a0a4 a1b9 a87f 7ab9
00000180: f459 8038 d0e8 ad38 df66 8a38 f3a9 a839
00000190: bb87 37b9 9f35 0439 8cd9 d5b8 a307 8b38
000001a0: 25ca 0038 b74d 08b9 e636 16b9 2d42 99b8
000001b0: a4a5 2339 b12d 8d37 58ae 40b8 225d 2439
000001c0: a11c a039 47c7 2538 341b 20b8 fb79 51b9
000001d0: d412 3139 b8af 51b8 4465 16b8 65f0 9fb8
000001e0: bdf3 a338 9292 67b9 90bf d2b5 8099 53b9
000001f0: 5dbf 6637 110c 86b9 a787 8439 b34b 8cb9
00000200: 8a63 b938 89d8 e5b7 0fc1 1338 f384 65b9
00000210: a844 3638 311b ab38 5ecf 4838 1a6b d239
00000220: c7e5 cdb7 5215 05b9 7518 f735 cc44 0737
00000230: 7619 3936 8134 4039 9659 0639 6490 7fb9
00000240: 7ddc 0d38 02e2 1bb7 3783 2439 10b8 1737
00000250: 5c78 41b9 a9bf 6537 c688 d4b7 064d 18b8
00000260: 7ffe 0bb8 91b0 d0b8 0f84 dbb8 9f06 a7b7
00000270: 4642 d1b8 0775 cc37 84ab b6b8 fd7a b438
00000280: 1f20 ddb6 f608 f4b8 675b aeb9 23c9 3bb9
00000290: 8027 90b9 849c 9db8 9d47 7f38 3790 86b8
000002a0: a06f 15b8 1e37 e3b9 f2b4 04b8 9c67 ceb7
000002b0: 3c47 9bb9 f34e cb38 25e5 a8b9 cfdb dcb9
000002c0: 4e00 a3b8 7f23 4939 21cc 3939 e5c9 5739
000002d0: 687e c0b9 2e4d 69b8 fdeb d438 4ff1 58b8
000002e0: e549 6a39 9421 1a39 139e 0738 dbe1 0e38
000002f0: 5255 f838 d99e 45b8 b71e 46b8 7124 abb9
00000300: ab98 76b8 cc91 04b9 ff59 dab8 b0c8 2038
00000310: b0ac 2738 e6bb 3339 6aa4 90b8 ef4f dab9
00000320: 2688 07b9 cd48 6937 f90c 32b9 2a3b 3fb9
00000330: 3ebc 14b9 92a5 9839 f85b 6538 2be2 7bb9
00000340: 75ca dbb8 d0ce be35 bc2b 1c39 5f9d d8b8
00000350: 5d8a b4b7 dcac 1b39 7c90 aa38 bcfa a538
00000360: 68f2 0038 cc1c af38 e0cb a737 fe57 82b8
00000370: 6a8f 8937 86a4 53b8 f328 e2b8 3d6d e537
00000380: 013e 90b8 fb26 79b8 eb74 44b9 1a36 afb8
00000390: 1750 0039 9a28 47b9 2c91 07ba 917f 15b8
000003a0: 4ef5 8939 bc65 5838 85bf 83b7 0593 0b39
000003b0: 7c8d 3db9 40e4 2bb8 07da 5ab8 a4ef ffb8
000003c0: 79d2 58b9 61c0 16b8 6169 c4b9 d98b 37b9
000003d0: 273d b439 1a48 aeb9 3d00 f7b8 7668 b738
000003e0: 9e88 64b8 091d b435 3260 21b9 847e 66b8
000003f0: 6b7b 8038 4380 3c38 8f81 1db9 53ce 3b38

autoencoders.0.encoder.encoder.backward_cells.0.lstm.bias_ih f4 [32]
0.0 0.0 0.0 0.0 0.0 0.0 0.0 0.0
0.0 0.0 0.0 0.0 0.0 0.0 0.0 0.0
0.0 0.0 0.0 0.0 0.0 0.0 0.0 0.0
0.0 0.0 0.0 0.0 0.0 0.0 0.0 0.0
00000000: 0000 0000 0000 0000 0000 0000 0000 0000
00000010: 0000 0000 0000 0000 0000 0000 0000 0000
00000020: 0000 0000 0000 0000 0000 0000 0000 0000
00000030: 0000 0000 0000 0000 0000 0000 0000 0000
00000040: 0000 0000 0000 0000 0000 0000 0000 0000
00000050: 0000 0000 0000 0000 0000 0000 0000 0000
00000060: 0000 0000 0000 0000 0000 0000 0000 0000
00000070: 0000 0000 0000 0000 0000 0000 0000 0000

autoencoders.0.encoder.encoder.backward_cells.0.lstm.bias_hh f4 [32]
0.0 0.0 0.0 0.0 0.0 0.0 0.0 0.0
0.0 0.0 0.0 0.0 0.0 0.0 0.0 0.0
0.0 0.0 0.0 0.0 0.0 0.0 0.0 0.0
0.0 0.0 0.0 0.0 0.0 0.0 0.0 0.0
00000000: 0000 0000 0000 0000 0000 0000 0000 0000
00000010: 0000 0000 0000 0000 0000 0000 0000 0000
00000020: 0000 0000 0000 0000 0000 0000 0000 0000
00000030: 0000 0000 0000 0000 0000 0000 0000 0000
00000040: 0000 0000 0000 0000 0000 0000 0000 0000
00000050: 0000 0000 0000 0000 0000 0000 0000 0000
00000060: 0000 0000 0000 0000 0000 0000 0000 0000
00000070: 0000 0000 0000 0000 0000 0000 0000 0000

autoencoders.0.decoder.cells.0.weight_h_2 f4 [16, 16]
0.0003140361 -0.13399336 -0.00037711163 -0.1833811 0.12744628 0.08647062 0.00049150904 -0.27728686
0.0009026345 0.107965566 0.26058093 0.0004954248 -0.25896764 -0.0002969642 -0.2494486 0.3037319
-0.0005127562 0.0003895096 -0.0012342366 -0.06460249 -0.17346899 0.1319068 0.0004039696 -0.37666065
8.782734e-05 -0.3394115 -0.0069333054 0.0004225742 7.586586e-05 0.07369525 -0.0004560576 0.20615824
0.00042642085 -0.0010576912 -0.0005745529 -0.0028501602 7.693448e-05 0.00026373187 0.12730294 0.31731108
0.0008638746 0.0004943498 0.1476127 0.00040680965 3.1143816e-05 0.13235112 -0.07350406 0.038682543
-0.00075892743 -0.0012902741 0.0005449432 -0.0023898182 0.00048431146 0.00019214021 5.690684e-05 0.0003454975
0.00029376085 -0.00041067565 -0.3900082 0.00043048925 -0.00044356272 -0.048614208 0.00011891887 -0.42859793
0.00073007826 0.056086365 0.0068802247 -0.0014781351 0.007976638 -6.296198e-05 0.00035620632 -0.499644
-8.506761e-05 0.11902455 -0.00015574494 0.00028556262 -0.0002144879 -0.16945773 -0.008264801 0.06877649
0.00026707078 -0.15193015 -0.0007498352 -0.0016744459 0.0003332266 0.00022425264 0.00043547814 0.32542133
0.00050418684 0.16981228 -0.06606015 -0.029539173 -0.010117838 0.15323943 0.029100398 -0.024658265
0.000855975 0.1775473 0.0827124 -0.15915048 -0.00028605587 0.00031775894 0.15786569 -0.175061
0.0005115943 0.0020194373 -0.2773298 0.00037117812 -5.7881123e-05 0.15827069 -0.0005055408 -0.011850677
-0.0012239157 -0.044338465 -0.001545754 -0.0012226676 -0.30598626 0.00057562004 0.00073329464 0.00059572293
-0.00016107135 -0.0009535843 -0.0019237704 0.00060905964 -0.00019931013 -2.4565793e-06 8.425637e-05 -0.09275273
0.0010992103 0.005843741 -0.0005374576 -0.12189064 -0.14684302 0.0003199387 -0.27714646 0.060424566
0.00015289836 -0.05045505 0.0005975894 -0.11399659 -0.00057167275 -0.0002932631 0.25837222 -0.0961079
-0.13268322 -0.31875822 -0.16129965 -0.59488446 6.793102e-05 -0.04352111 -0.09874719 -0.00033165206
0.0007582115 0.00010037228 0.06276 -0.0014365325 -0.0426582 0.12737107 -0.0002193782 -0.2227156
0.0005341812 -0.050360765 -0.17601143 -0.02189263 -0.02963135 0.0004610059 0.0003480988 -0.018080942
0.00027453568 -0.077054836 0.34543142 -0.07422169 -9.9454366e-05 -0.26336753 -3.8715192e-05 -0.006163395
-5.794801e-05 -0.061813183 -0.0008787162 -0.16854577 -0.016650653 0.00075558684 -0.026202368 0.0002479247
-0.00014226462 -0.00017371263 -0.0001288442 0.00030039233 -5.6224617e-05 -0.0008189384 -0.0004623212 0.008081001
0.0016530701 -0.001376653 -0.0006200706 -0.0031869446 0.06632291 0.14254145 -0.3110535 -0.00059399
-9.878812e-05 -0.17385061 -0.016591918 -0.00023580327 -0.11735536 -0.000703165 -0.0002188964 -0.013127198
0.00047925132 -0.07376457 -0.0010507965 -0.61771894 -0.31137094 0.00012106111 0.00036780784 -0.00021009613
0.00015414249 0.00083922176 -0.17511228 -0.03960837 -0.00025673455 0.15462193 -0.31454137 -0.007994068
-0.0009732038 -0.090768315 -0.00043162628 -0.0011857781 -0.00060076476 -0.1785344 0.22937784 0.0005138658
0.00035086233 -0.00057613803 -0.08829176 0.0006529625 -9.428131e-05 -0.279774 0.0047508567 -0.12728067
0.18269691 -0.42780393 -0.09459221 -0.4041743 -0.0016955398 0.026203258 -0.13961731 -0.019459818
7.138826e-06 0.0006740515 0.0012093716 0.022456517 -0.0018921687 -0.2277702 -0.6507515 0.32237902
00000000: 36a5 a439 8e35 09be 11b7 c5b9 41c8 3bbe
00000010: 4781 023e 8217 b13d 9dd8 003a 8bf8 8dbe
00000020: c79e 6c3a 0d1d dd3d dd6a 853e 65df 013a
00000030: 6897 84be dcb1 9bb9 746f 7fbe bf82 9b3e
00000040: 7c6a 06ba 1837 cc39 1cc6 a1ba 4f4e 84bd
00000050: dba1 31be 9412 073e e2cb d339 aad9 c0be
00000060: f22f b838 58c7 adbe c830 e3bb f38c dd39
00000070: 2c1a 9f38 89ed 963d 041b efb9 251b 533e
00000080: 3d91 df39 3aa2 8aba 989d 16ba c1c9 3abb
00000090: e257 a138 7e45 8a39 b45b 023e 9976 a23e
000000a0: a575 623a 4197 013a c927 173e 1149 d539
000000b0: 6ba0 0238 0d87 073e 4c89 96bd 9671 1e3d
000000c0: c2f2 46ba 6a1e a9ba 85da 0e3a 7f9e 1cbb
000000d0: 2feb fd39 3f79 4939 41af 6e38 e423 b539
000000e0: ea03 9a39 f44f d7b9 28af c7be 4ab3 e139
000000f0: fb8d e8b9 b11f 47bd 1564 f938 3071 dbbe
00000100: b962 3f3a d1ba 653d 8273 e13b fcbd c1ba
00000110: 72b0 023c 750a 84b8 34c1 ba39 57d1 ffbe
00000120: 5366 b2b8 25c3 f33d 774f 23b9 91b7 9539
00000130: 28e8 60b9 5486 2dbe 1769 07bc b0da 8c3d
00000140: a205 8c39 9493 1bbe 9790 44ba 1579 dbba
00000150: ebb4 ae39 5c25 6b39 e350 e439 a09d a63e
00000160: 682b 043a 45e3 2d3e 8b4a 87bd 23fc f1bc
00000170: 4ac5 25bc ccea 1c3e f563 ee3c 2100 cabc
00000180: 8363 603a f6ce 353e 1e65 a93d 58f8 22be
00000190: c5f9 95b9 e298 a639 8ba7 213e 3143 33be
000001a0: 831c 063a 8958 043b 2cfe 8dbe af9a c239
000001b0: 62c5 72b8 b611 223e 4586 04ba 5829 42bc
000001c0: cc6b a0ba 409c 35bd e69a caba eb41 a0ba
000001d0: 3baa 9cbe 35e5 163a 923a 403a 4a2a 1c3a
000001e0: 43e5 28b9 f6f9 79ba 0627 fcba 4da9 1f3a
000001f0: e8fd 50b9 b6db 24b6 cbb2 b038 25f5 bdbd
00000200: 6113 903a da7c bf3b 2be4 0cba cda1 f9bd
00000210: 045e 16be 72bd a739 24e6 8dbe c07f 773d
00000220: 5753 2039 f4a9 4ebd 8ca7 1c3a 0b77 e9bd
00000230: 4fdc 15ba 1bc1 99b9 5d49 843e 38d4 c4bd
00000240: 1cde 07be 4734 a3be bc2b 25be 594a 18bf
00000250: 3076 8e38 3143 32bd f73b cabd 96e1 adb9
00000260: b6c2 463a f57e d238 5188 803d 084a bcba
00000270: 5dba 2ebd 906d 023e e308 66b9 8f0f 64be
00000280: 4b08 0c3a 1747 4ebd 573c 34be 2c58 b3bc
00000290: 72bd f2bc 2ab3 f139 0881 b639 7c1e 94bc
000002a0: 8eef 8f39 edce 9dbd 63dc b03e 8b01 98bd
000002b0: 2892 d0b8 1cd8 86be 1f62 22b8 4ef6 c9bb
000002c0: 340d 73b8 d22f 7dbd a559 66ba 4397 2cbe
000002d0: f366 88bc 9312 463a 59a6 d6bc e4fb 8139
000002e0: de2c 15b9 a126 36b9 5a1a 07b9 fa7d 9d39
000002f0: b9d2 6bb8 07ae 56ba b363 f2b9 2d66 043c
00000300: d4ab d83a cf70 b4ba 3c8c 22ba 0fdc 50bb
00000310: 4ed4 873d 63f6 113e 6842 9fbe feb5 1bba
00000320: 782c cfb8 e505 32be c6eb 87bc f541 77b9
00000330: 0258 f0bd 9b54 38ba 8e87 65b9 7613 57bc
00000340: 0644 fb39 e111 97bd e1ba 89ba d422 1ebf
00000350: 036c 9fbe 30e2 fd38 55d6 c039 404d 5cb9
00000360: 4fa1 2139 38ff 5b3a a250 33be 633c 22bd
00000370: 549a 86b9 3655 1e3e 910b a1be 8df9 02bc
00000380: 9a1e 7fba bde4 b9bd e64b e2b9 1c6c 9bba
00000390: a47c 1dba b9d1 36be 06e2 6a3e f3b4 063a
000003a0: f2f3 b739 f807 17ba 4fd2 b4bd 922b 2b3a
000003b0: e5b8 c5b8 8a3e 8fbe 13ad 9b3b dd55 02be
000003c0: e614 3b3e 1e09 dbbe 90b9 c1bd efef cebe
000003d0: e03c deba 37a8 d63c d7f7 0ebe 326a 9fbc
000003e0: 0c8a ef36 d5b2 303a c783 9e3a bbf6 b73c
000003f0: a502 f8ba 973c 69be a697 26bf dd0e a53e

autoencoders.0.decoder.cells.0.bias_h_2 f4 [16]
0.00064736896 -0.006970168 -0.00095056003 -0.059991293 -0.07636173 0.00029335628 0.00038857633 -0.00039916608
0.0009090572 -0.00014976098 -0.060669743 -0.00030434955 -0.00039980325 -0.017857727 0.00015131831 -0.09174316
00000000: 32b4 293a 0266 e4bb 012f 79ba 6eb9 75bd
00000010: 8a63 9cbd 9dcd 9939 d5b9 cb39 2a47 d1b9
00000020: cc4d 6e3a 2809 1db9 d680 78bd 1b91 9fb9
00000030: af9c d1b9 5e4a 92bc 33ab 1e39 d6e3 bbbd

autoencoders.0.decoder.cells.0.lstm.weight_ih f4 [64, 1]
4.290396e-05 0.00014213537 0.00036493642 0.29821396 0.00035743992 4.4496035e-05 8.156588e-07 0.000111790745
-0.00016941312 0.050938383 0.06502561 0.00012411567 -9.643995e-05 0.42200753 0.0001323223 0.09649943
-0.00012462544 2.3668332e-05 -9.040997e-05 0.00018716654 -7.059391e-05 1.2988162e-05 -8.098178e-05 0.15458883
0.00012911686 0.32352534 0.09204391 0.00011225356 6.3069754e-05 0.25067142 0.00033344192 0.18113953
0.33268735 -0.30499956 -0.36632746 -0.54776555 -0.19566847 0.034073774 -0.13433185 -0.13123092
0.0004185283 0.38615784 0.43475854 -0.035449814 -0.0146569135 0.26218393 -0.104263626 0.72621167
-5.7988018e-05 8.485187e-05 0.23106958 0.3910806 4.838344e-06 0.13185205 -8.6476255e-05 0.08628462
4.2969325e-05 0.20190345 0.27661586 4.7333986e-05 8.282831e-05 0.45709935 8.3954066e-05 0.33507076
00000000: c7f3 3338 2c0a 1539 f054 bf39 80af 983e
00000010: c666 bb39 41a1 3a38 a5f3 5a35 3371 ea38
00000020: 7da4 31b9 c4a4 503d 262c 853d 0c25 0239
00000030: ce3f cab8 5f11 d83e ffbf 0a39 7ea1 c53d
00000040: e3ad 02b9 5b8b c637 7c9a bdb8 2342 4439
00000050: d10b 94b8 bbe7 5937 c3d4 a9b8 894c 1e3e
00000060: 8b63 0739 1da5 a53e 8481 bc3d ac69 eb38
00000070: 5144 8438 0158 803e d1d1 ae39 a47c 393e
00000080: ff55 aa3e e728 9cbe 468f bbbe 5d3a 0cbf
00000090: 515d 48be f190 0b3d 4a8e 09be 6661 06be
000000a0: eb6d db39 7bb6 c53e ac98 de3e d333 11bd
000000b0: 8d23 70bc f93c 863e 2b88 d5bd 02e9 393f
000000c0: 2938 73b8 80f2 b138 819d 6c3e b73b c83e
000000d0: 0f59 a236 3904 073e 965a b5b8 feb5 b03d
000000e0: f639 3438 c7bf 4e3e 98a0 8d3e 7b88 4638
000000f0: 1cb4 ad38 ed08 ea3e 7f10 b038 658e ab3e

autoencoders.0.decoder.cells.0.lstm.weight_hh f4 [64, 16]
0.00010294924 3.2233744e-05 0.00015225587 -0.00021949258 3.118476e-05 -6.392951e-05 -1.5504622e-06 0.0002054253
0.00021544291 -0.00011439857 0.00019417223 -7.8900244e-05 0.00023024343 0.000116408904 0.00014957979 1.7038303e-05
0.00057459326 0.00036731453 -0.00014080385 0.00012938907 0.000245383 -1.2992392e-05 0.00015918436 0.0001167415
-0.00022624414 -2.9557557e-05 -0.00014279076 0.00010815694 0.00016835693 0.0004896805 0.00022526385 0.00013080114
-0.0005796769 4.273271e-05 -0.00065352634 0.00015534965 -3.121653e-05 3.173483e-05 7.281177e-05 -9.068836e-05
-9.322005e-05 -0.00038315463 0.00017138191 -0.00038843427 0.00023059896 0.00010841983 -0.0001262861 -0.00057143957
0.00024825585 0.00086245406 0.0010904334 0.0013425213 -6.4835e-05 0.02459489 0.0017439747 -1.493023e-05
0.0021589822 0.2618703 0.0010653288 0.00047282723 0.0007458672 0.00073463935 0.001133171 0.01993445
7.375207e-05 0.00022612678 0.00011670395 -0.00024911616 0.00028459815 0.000119871984 0.00012783414 -3.5767378e-05
0.00016374726 3.4942983e-05 0.00010507989 -1.6647686e-05 -0.00010831268 -0.00016759333 0.000112160975 -6.321437e-05
0.0002455468 0.00030059135 -2.7804968e-05 -9.735018e-05 -0.000121804616 2.528301e-05 -3.347213e-05 -0.00013296821
-9.984158e-05 -6.391446e-05 3.0827247e-05 -4.935591e-05 6.4677166e-05 3.7048903e-05 -0.00012352476 -3.8024484e-06
2.159877e-06 -0.00011277337 1.7502114e-05 -0.00031042442 2.6400521e-06 -0.00019543388 -0.0003870648 0.00016585532
7.527538e-05 -2.0334553e-05 -2.874122e-06 3.100451e-05 0.00014893498 0.00023684558 -7.5379234e-05 4.5708948e-05
6.0946084e-05 -3.2914052e-06 6.453434e-05 0.00013753505 -0.00019518568 -1.775787e-05 1.7353701e-05 1.0188576e-05
-1.397153e-05 5.5967732e-05 -0.00014849678 -1.0951878e-05 -5.3194344e-05 0.00011886105 5.228473e-06 -0.09877236
-0.00013738545 -0.000102972415 4.252757e-05 -1.1115404e-05 4.9840444e-05 -7.171288e-05 2.2820832e-06 1.7509608e-05
0.00021866002 7.318405e-05 -7.9717756e-05 -5.5011074e-05 -2.6173786e-05 -0.0004244656 0.00026306498 -0.00018896247
-0.0005715839 -0.00039864617 -0.0006993149 -0.0008425755 -0.00044872935 -6.352064e-05 -0.00088163425 -0.0008974415
-0.00024084841 -0.00037357543 -0.0005477116 -0.000997454 -0.0004567629 -0.00024442415 4.8323862e-05 0.008439983
7.217161e-05 -0.000105533196 4.228718e-05 0.00010084438 -0.00012384893 -5.0489057e-06 6.767138e-05 -0.000119044016
0.00014610527 2.8926519e-05 0.023717554 0.0001590939 -0.00033430767 0.073765494 8.4321146e-05 0.08890013
-7.293694e-05 -4.229906e-05 -0.00047257537 2.5645835e-05 -0.00014614603 -0.00010295954 0.00013603615 0.00017498952
-5.7218504e-06 -1.9660762e-05 0.00020217545 0.00017450767 -6.3605585e-05 0.00015762725 -7.1239815e-06 0.00018089199
-0.00016150376 0.00014314799 6.433935e-05 4.6793357e-05 -0.0004988017 4.18939e-05 -5.5266668e-05 0.0004093413
9.072123e-05 -5.9957685e-05 -0.0001374828 -0.00034957982 -6.508764e-05 -2.0141286e-05 2.392519e-06 2.9064513e-05
-0.00060507766 -0.00037161572 -0.00018528821 -0.000822793 -0.0007795457 -0.0010182855 0.00024785558 -0.00033229415
-0.00011782217 0.00010591737 0.00086617825 -0.000615654 -0.0007896209 -6.6543207e-06 -3.2014734e-05 0.05381574
0.00016817797 -6.699531e-05 0.000112465525 0.00016341169 -9.817523e-05 -4.823681e-05 -3.851613e-05 0.000118518416
0.00012989249 0.00011551976 -0.0001557969 -6.3648105e-05 -0.00016694628 0.00011931958 -0.0001608484 -0.00019558279
0.21957943 -6.3090915e-06 0.00020815886 -0.00013630014 -0.00023565303 0.22188835 0.00054598664 -0.00019405983
2.9891899e-05 0.09648513 0.13226086 0.17812109 0.0004476678 0.24935661 8.200612e-05 0.24080199
00000000: 74e6 d738 b832 0738 e0a6 1f39 9727 66b9
00000010: 62cc 0238 e511 86b8 7a19 d0b5 6f67 5739
00000020: 84e8 6139 44e9 efb8 b69a 4b39 3f77 a5b8
00000030: 806d 7139 8e20 f438 85d8 1c39 7aed 8e37
00000040: 4da0 163a 1f94 c039 bfa4 13b9 9dac 0739
00000050: c0a6 8039 e6f9 59b7 baea 2639 1ed3 f438
00000060: f33b 6db9 5ff2 f7b7 1aba 15b9 51d2 e238
00000070: f888 3039 e75d 003a ce34 6c39 aa27 0939
00000080: 75f5 17ba e63b 3338 6951 2bba 5be5 2239
00000090: 7eee 02b8 041b 0538 85b2 9838 f12f beb8
000000a0: 227f c3b8 25e2 c8b9 fbb4 3339 c4a6 cbb9
000000b0: f0cc 7139 745f e338 ab6b 04b9 a9cc 15ba
000000c0: 5628 8239 5016 623a e0ec 8e3a 8af7 af3a
000000d0: 07f8 87b8 397b c93c 1596 e43a d97c 7ab7
000000e0: b67d 0d3b dd13 863e 81a2 8b3a cce5 f739
000000f0: 4d86 433a d094 403a e986 943a 924d a33c
00000100: 57ab 9a38 721c 6d39 f5be f438 ce9b 82b9
00000110: 1e36 9539 c863 fb38 370b 0639 ee04 16b8
00000120: 92b3 2b39 be8f 1238 565e dc38 a2a6 8bb7
00000130: ed25 e3b8 febb 2fb9 f737 eb38 f591 84b8
00000140: bcbc 8039 b098 9d39 b73e e9b7 7b28 ccb8
00000150: 5b71 ffb8 da16 d437 6d64 0cb8 626d 0bb9
00000160: 0a62 d1b8 d009 86b8 814c 0138 8103 4fb8
00000170: 4aa3 8738 f564 1b38 6d86 01b9 912d 7fb6
00000180: 68f2 1036 be80 ecb8 81d1 9237 76c0 a2b9
00000190: c02b 3136 62ed 4cb9 f5ee cab9 73e9 2d39
000001a0: 29dd 9d38 1f94 aab7 0ae1 40b6 d70a 0238
000001b0: 6e2b 1c39 c059 7839 eb14 9eb8 9cb7 3f38
000001c0: 5ca0 7f38 e9e1 5cb6 9c56 8738 4937 1039
000001d0: c2aa 4cb9 bcf6 94b7 ca92 9137 9aef 2a37
000001e0: 4467 6ab7 e5be 6a38 cdb5 1bb9 f5bd 37b7
000001f0: fe1c 5fb8 0a45 f938 3e70 af36 2a49 cabd
00000200: 200f 10b9 e5f2 d7b8 a15f 3238 4c7c 3ab7
00000210: c50b 5138 8f64 96b8 e425 1936 99e1 9237
00000220: 1a48 6539 637a 9938 252e a7b8 b1bb 66b8
00000230: c78f dbb7 cf8a deb9 fceb 8939 3a24 46b9
00000240: 59d6 15ba 6201 d1b9 3b52 37ba 49e0 5cba
00000250: 6f43 ebb9 6236 85b8 791d 67ba 4842 6bba
00000260: 418c 7cb9 72dc c3b9 4e94 0fba 01bd 82ba
00000270: ae79 efb9 0e26 80b9 5aaf 4a38 db47 0a3c
00000280: d75a 9738 b451 ddb8 845d 3138 6a7c d338
00000290: 72dd 01b9 c569 a9b6 ccea 8d38 45a7 f9b8
000002a0: d633 1939 3aa7 f237 514b c23c 72d2 2639
000002b0: 0446 afb9 5d12 973d 92d5 b038 4511 b63d
000002c0: b9f5 98b8 456a 31b8 fec3 f7b9 0322 d737
000002d0: c73e 19b9 fbeb d7b8 eda4 0e39 647d 3739
000002e0: 52fe bfb6 2aed a4b7 0fff 5339 0cfc 3639
000002f0: fd63 85b8 be48 2539 890a efb6 d3ad 3d39
00000300: 5659 29b9 ff19 1639 eded 8638 fc43 4438
00000310: 04c2 02ba 3cb7 2f38 22ce 67b8 dc9c d639
00000320: 9741 be38 137b 7bb8 4229 10b9 cf47 b7b9
00000330: a97f 88b8 15f5 a8b7 2a8f 2036 91cf f337
00000340: 139e 1eba 6bd5 c2b9 ed49 42b9 b4b0 57ba
00000350: 6d5a 4cba fe77 85ba 9df2 8139 c437 aeb9
00000360: 4c17 f7b8 f41f de38 3d10 633a d763 21ba
00000370: 90fe 4eba 2e48 dfb6 8f47 06b8 e56d 5c3d
00000380: ee58 3039 d57f 8cb8 78db eb38 7e59 2b39
00000390: 6de3 cdb8 e151 4ab8 618c 21b8 178d f838
000003a0: c033 0839 3343 f238 695d 23b9 d17a 85b8
000003b0: 4d0e 2fb9 363b fa38 6aa9 28b9 5b15 4db9
000003c0: 6ed9 603e afb2 d3b6 3845 5a39 caeb 0eb9
000003d0: a119 77b9 b336 633e 8b20 0f3a 8a7c 4bb9
000003e0: 5dc0 fa37 ff99 c53d 646f 073e 6065 363e
000003f0: f4b4 ea39 5757 7f3e b3fa ab38 cc94 763e

autoencoders.0.decoder.cells.0.lstm.bias_ih f4 [64]
-0.0008537424 0.001211856 -6.30663e-05 0.3311082 8.936987e-05 0.00012443324 6.908642e-05 -8.448251e-05
0.00017089643 0.0010441246 0.10994198 -0.00018041678 7.8215824e-05 0.015218542 8.496073e-05 0.3207065
-0.0007669957 0.0006280482 -0.00045045346 0.13727081 -2.2074162e-05 0.00037981602 -8.821448e-05 -0.00024981695
-0.00014218739 0.00051833934 0.046681687 -0.0001478048 7.8332625e-05 0.00035426338 -8.066934e-06 0.129298
0.0011790165 0.0050062384 0.0015388917 0.030162742 -0.0006091936 0.00033312902 0.0061980197 0.00016698305
0.00048312923 0.0005663545 0.035282165 0.0003533642 -0.0005013562 0.016507106 8.067867e-05 -0.012328989
0.0006539934 0.0012105334 -0.00044786735 0.36894482 7.497167e-05 0.0003450879 9.412444e-05 -0.00024811365
5.0776925e-05 0.003596872 0.12005236 -0.00048423608 -7.280193e-05 0.102217965 -0.000102560574 0.33442104
00000000: afcd 5fba 24d7 9e3a 7642 84b8 0487 a93e
00000010: 156c bb38 4b7a 0239 7de2 9038 342c b1b8
00000020: a932 3339 02db 883a 4329 e13d 432e 3db9
00000030: cd07 a438 3157 793c f22c b238 a433 a43e
00000040: 3610 49ba 9aa3 243a d72a ecb9 b890 0c3e
00000050: e72b b9b7 0b22 c739 caff b8b8 ddf9 82b9
00000060: 2318 15b9 2ae1 073a 4c35 3f3d 0dfc 1ab9
00000070: 8246 a438 6dbc b939 3857 07b7 b266 043e
00000080: 3b89 9a3a 5f0b a43b a3b4 c93a db17 f73c
00000090: 4ab2 1fba d2a7 ae39 c218 cb3b 2c18 2f39
000000a0: 824c fd39 6877 143a 0884 103d bd43 b939
000000b0: 726d 03ba e939 873c 0832 a938 87ff 49bc
000000c0: c170 2b3a c3aa 9e3a bdcf eab9 56e6 bc3e
000000d0: 1c3a 9d38 eaec b439 ad64 c538 4015 82b9
000000e0: 4ff9 5438 80b9 6b3b 03de f53d 11e1 fdb9
000000f0: 3dad 98b8 a757 d13d ca15 d7b8 3c39 ab3e

autoencoders.0.decoder.cells.0.lstm.bias_hh f4 [64]
-0.0008537424 0.001211856 -6.30663e-05 0.3311082 8.936987e-05 0.00012443324 6.908642e-05 -8.448251e-05
0.00017089643 0.0010441246 0.10994198 -0.00018041678 7.8215824e-05 0.015218542 8.496073e-05 0.3207065
-0.0007669957 0.0006280482 -0.00045045346 0.13727081 -2.2074162e-05 0.00037981602 -8.821448e-05 -0.00024981695
-0.00014218739 0.00051833934 0.046681687 -0.0001478048 7.8332625e-05 0.00035426338 -8.066934e-06 0.129298
0.0011790165 0.0050062384 0.0015388917 0.030162742 -0.0006091936 0.00033312902 0.0061980197 0.00016698305
0.00048312923 0.0005663545 0.035282165 0.0003533642 -0.0005013562 0.016507106 8.067867e-05 -0.012328989
0.0006539934 0.0012105334 -0.00044786735 0.36894482 7.497167e-05 0.0003450879 9.412444e-05 -0.00024811365
5.0776925e-05 0.003596872 0.12005236 -0.00048423608 -7.280193e-05 0.102217965 -0.000102560574 0.33442104
00000000: afcd 5fba 24d7 9e3a 7642 84b8 0487 a93e
00000010: 156c bb38 4b7a 0239 7de2 9038 342c b1b8
00000020: a932 3339 02db 883a 4329 e13d 432e 3db9
00000030: cd07 a438 3157 793c f22c b238 a433 a43e
00000040: 3610 49ba 9aa3 243a d72a ecb9 b890 0c3e
00000050: e72b b9b7 0b22 c739 caff b8b8 ddf9 82b9
00000060: 2318 15b9 2ae1 073a 4c35 3f3d 0dfc 1ab9
00000070: 8246 a438 6dbc b939 3857 07b7 b266 043e
00000080: 3b89 9a3a 5f0b a43b a3b4 c93a db17 f73c
00000090: 4ab2 1fba d2a7 ae39 c218 cb3b 2c18 2f39
000000a0: 824c fd39 6877 143a 0884 103d bd43 b939
000000b0: 726d 03ba e939 873c 0832 a938 87ff 49bc
000000c0: c170 2b3a c3aa 9e3a bdcf eab9 56e6 bc3e
000000d0: 1c3a 9d38 eaec b439 ad64 c538 4015 82b9
000000e0: 4ff9 5438 80b9 6b3b 03de f53d 11e1 fdb9
000000f0: 3dad 98b8 a757 d13d ca15 d7b8 3c39 ab3e

autoencoders.0.decoder.output_layer.weight f4 [1, 16]
0.09540546 -0.15255871 -0.075806685 -0.32373175 -0.14508504 -0.022069372 -0.067391254 -0.05923886
-0.0019404552 0.15363722 0.22587857 -0.041952766 -0.046719 0.19359264 -0.07994396 0.2502864
00000000: f063 c33d 5a38 1cbe 8940 9bbd 2bc0 a5be
00000010: 2c91 14be d4ca b4bc 6d04 8abd 72a4 72bd
00000020: df56 feba 1353 1d3e b64c 673e aad6 2bbd
00000030: 6c5c 3fbd 263d 463e a9b9 a3bd 8a25 803e

autoencoders.1.encoder.encoder.forward_cells.0.weight_h_2 f4 [8, 8]
-0.00037164634 8.8874156e-05 -0.00030596773 -0.0001450448 -4.637428e-05 4.188387e-05 -3.887691e-05 -0.00031895057
-0.00018761422 0.00018470065 9.682836e-05 -4.5455425e-05 -7.321057e-05 -0.00031345786 0.00013842924 -0.00035314358
0.00021130995 -8.418277e-05 -0.00012499632 6.5353735e-05 -3.5265846e-05 -5.7163918e-05 -3.5483477e-05 -0.09377073
0.0002411776 -0.0001361515 8.18091e-05 6.428134e-05 3.0037503e-05 0.00032207087 -8.9681425e-06 -0.00018587912
-1.1229493e-05 -0.00044806657 5.8259834e-06 6.536461e-05 5.51309e-06 -0.00030319762 -3.490381e-05 -0.0003194765
-8.589691e-05 -0.000101760685 1.5796053e-05 -0.00031689712 -3.0621424e-05 -2.1151236e-05 0.000207421 2.2275635e-05
0.00025994307 0.0003761255 -0.00017606528 -3.2695876e-05 4.2386182e-05 -7.285899e-05 5.517911e-08 -1.7051923e-05
-0.00041140386 0.00013987461 -0.00032752755 -0.00020612027 0.00013609102 -5.056688e-05 -0.0001497113 -0.00018164364
00000000: 87d9 c2b9 f361 ba38 4b6a a0b9 2b17 18b9
00000010: 0182 42b8 77ac 2f38 c40f 23b8 d238 a7b9
00000020: 4fba 44b9 34ac 4139 5410 cb38 64a7 3eb8
00000030: a088 99b8 9a57 a4b9 5127 1139 2126 b9b9
00000040: 1593 5d39 488b b0b8 7211 03b9 850e 8938
00000050: 6aea 13b8 4ac3 6fb8 18d4 14b8 de0a c0bd
00000060: 9ee4 7c39 e4c3 0eb9 ed90 ab38 c8ce 8638
00000070: 0cf9 fb37 9fdb a839 e175 16b7 8ce8 42b9
00000080: 4e66 3cb7 7aea eab9 d17c c336 5c14 8938
00000090: 15fd b836 7ff6 9eb9 ae65 12b8 697f a7b9
000000a0: 8d23 b4b8 5a68 d5b8 c481 8437 3625 a6b9
000000b0: 816f 00b8 ef6d b1b7 277f 5939 90dc ba37
000000c0: f848 8839 b632 c539 2a9e 38b9 ee22 09b8
000000d0: d1c7 3138 dfcb 98b8 13fe 6c33 ba0a 8fb7
000000e0: b1b1 d7b9 4eab 1239 01b8 abb9 fd21 58b9
000000f0: a8b3 0e39 c617 54b8 d2fb 1cb9 9877 3eb9

autoencoders.1.encoder.encoder.forward_cells.0.bias_h_2 f4 [8]
0.0 0.0 0.0 0.0 0.0 0.0 0.0 0.0
00000000: 0000 0000 0000 0000 0000 0000 0000 0000
00000010: 0000 0000 0000 0000 0000 0000 0000 0000

autoencoders.1.encoder.encoder.forward_cells.0.lstm.weight_ih f4 [32, 1]
-7.4374357e-06 0.0003191187 0.00010916806 -9.7726435e-05 0.0001005701 -0.00016570887 -0.00016853187 -0.00020520773
-0.00010966829 -9.258565e-05 3.1192347e-05 0.00012039425 -0.00017425939 -9.148288e-05 -8.360151e-05 -0.0003084669
-9.315278e-05 5.9906174e-06 -0.0001572152 4.4015346e-06 -5.3780244e-05 1.856705e-05 -3.7167672e-05 0.00047122926
-0.00021459167 -0.00019939964 5.4489843e-05 0.000124815 0.0002018775 -0.00025409408 -5.7501005e-05 -0.00041569365
00000000: 168f f9b6 634f a739 28f1 e438 7bf2 ccb8
00000010: 29e9 d238 23c2 2db9 eeb7 30b9 082d 57b9
00000020: b7fd e5b8 8b2a c2b8 87d4 0238 2c7c fc38
00000030: 66b9 36b9 7fda bfb8 3853 afb8 bab9 a1b9
00000040: 055b c3b8 0303 c936 22da 24b9 e5b0 9336
00000050: 1992 61b8 70c0 9b37 7ce4 1bb8 520f f739
00000060: 0304 61b9 ef15 51b9 068c 6438 c5e0 0239
00000070: 14af 5339 ee37 85b9 3c2d 71b8 75f1 d9b9

autoencoders.1.encoder.encoder.forward_cells.0.lstm.weight_hh f4 [32, 8]
0.000110010755 1.0241312e-05 0.00016600687 0.00017269503 -2.7067947e-05 9.843477e-06 -0.00012728534 -0.00012049445
-1.4802288e-05 0.00028382384 0.0001137854 -0.00014917781 0.00018870132 -0.00026705436 -0.00019303206 0.00012776646
5.2567786e-05 -0.0002382322 -0.00029767415 -0.00021578836 2.1331582e-05 -0.00027202157 0.00015073783 -2.134457e-05
0.00011321785 -0.00017233253 -0.0002552812 -0.00018888936 7.646724e-05 0.00013663928 -0.00014272211 8.185327e-05
-0.00012244127 0.00015545545 0.0001555534 -0.0004090184 -0.0003310531 0.0001421459 5.4097094e-05 -2.0321766e-05
-9.998036e-06 2.4793295e-05 -0.00011604732 -0.00011474568 0.000103759325 -0.00019199184 1.13681535e-05 -0.00012829751
1.911392e-05 -9.865217e-05 2.3986186e-05 -1.19072e-05 -0.00013397004 -0.00018771176 -9.075031e-05 0.00012616567
0.0004591066 -1.4361926e-05 -0.0001352708 0.00011937888 0.00017456357 -0.00018940527 0.00018127967 -7.290605e-05
-2.2995953e-05 -0.00012266295 9.156219e-05 0.00017904896 2.6957723e-05 -0.00028471905 -3.0839874e-05 -3.0707208e-05
3.1527266e-05 -5.470582e-06 -0.0003397896 -0.00012864101 2.4198745e-05 -0.00023262047 1.6250337e-05 -4.073033e-05
0.00026055262 0.00015386577 7.800797e-05 0.00011164633 0.00011902717 -6.4986802e-06 0.0002205646 -3.3485245e-05
-8.29562e-05 0.00012915708 0.000108070744 0.00027305415 0.00020726127 -0.00013069322 -8.3178886e-05 -0.000133293
-0.00010162851 -2.311466e-05 6.1878665e-05 6.817609e-05 5.6421704e-05 0.00017899403 5.0726107e-05 1.5658476e-05
1.4803323e-05 7.2935e-05 1.7043581e-05 -0.00011869108 -5.1690302e-05 4.2114327e-05 -8.872069e-06 3.3669e-05
0.0001919004 0.00045413565 0.00022845103 1.5544352e-05 -8.009723e-05 -0.00034714327 -3.31496e-05 -0.00033537764
2.9286917e-05 0.00010035775 -2.5828407e-05 -2.9239844e-05 -0.00027154374 -6.5173335e-05 -0.00015981037 1.143373e-05
8.009408e-05 -0.00012241173 -0.0003734651 -0.00018428436 0.00015443694 -1.4139938e-05 -0.00011744207 -0.00019038822
5.412858e-05 -8.533466e-05 -0.00012288085 9.446928e-05 0.00018761904 6.0046408e-05 0.00023752691 0.0002701315
-2.2134822e-05 3.6638983e-05 -0.00010712918 9.9129895e-05 0.0003810486 3.3465058e-05 8.723758e-05 0.00025362722
-9.018433e-05 -9.22062e-05 6.408231e-05 -0.0001828684 7.2425864e-06 -1.5588283e-05 0.00028711127 -0.00032791428
-0.00021262 -0.00014630129 -0.00046109984 3.5110327e-06 -3.955155e-05 5.4212862e-05 -0.000130823 1.968314e-05
-8.7497705e-05 0.0001895966 0.00013658349 -0.00028415123 3.8963713e-05 -0.00016969237 0.00031523203 -0.0001515468
6.108974e-05 0.00013536836 -0.00016260624 -6.08086e-06 2.5865763e-06 0.00022642211 -0.000117947486 6.7791785e-05
-6.900069e-05 2.3449635e-05 -1.2367277e-05 0.00030067045 4.2368583e-06 -0.00020351361 0.00010700238 0.00016317426
-0.00013922603 0.000287622 -0.0003032185 -0.00023953017 -0.00024829974 2.6458798e-05 -1.5831243e-05 -9.368853e-05
-7.2537056e-05 0.00016628677 -0.00016271672 0.000104361294 3.993691e-05 -3.6732574e-05 0.00014622227 -3.9011535e-05
0.00014124285 -5.91515e-05 6.0795566e-05 0.00016201907 6.594535e-05 0.00043302134 -0.00026780393 0.0001299879
7.2970644e-05 -7.654942e-05 4.793848e-05 -3.795908e-05 0.00022813953 -3.235991e-05 -4.385733e-05 -9.613772e-05
0.00013589641 -0.00022210677 -6.43827e-06 -8.977907e-05 8.270017e-05 0.00040871833 6.49266e-05 -4.687663e-05
0.00016387261 -0.00016006306 6.358223e-05 -0.00023103521 -0.00013059488 0.00020107537 0.00023930946 8.4115445e-06
7.701784e-06 -5.4975317e-05 -6.878579e-05 -0.00014157919 -4.9726816e-05 0.0001526178 8.853379e-06 -0.0001454615
-0.00017213989 0.00026014922 0.00014219232 -9.8167955e-05 0.0002894237 0.0005046689 -0.00012205729 -0.0003139401
00000000: 93b5 e638 1ad2 2b37 2112 2e39 7815 3539
00000010: f90f e3b7 6925 2537 e677 05b9 f7b1 fcb8
00000020: 5857 78b7 31ce 9439 12a0 ee38 9d6c 1cb9
00000030: 20de 4539 6e03 8cb9 a668 4ab9 0cf9 0539
00000040: 3b7c 5c38 f8cd 79b9 2611 9cb9 3f45 62b9
00000050: 39f1 b237 1e9e 8eb9 610f 1e39 1d0d b3b7
00000060: 5f6f ed38 29b4 34b9 43d7 85b9 9a10 46b9
00000070: 095d a038 d446 0f39 ada7 15b9 a4a8 ab38
00000080: 9463 00b9 c101 2339 0c1c 2339 8571 d6b9
00000090: 3291 adb9 000d 1539 50e6 6238 a978 aab7
000000a0: 3dbd 27b7 32fb cf37 6e5e f3b8 9ea3 f0b8
000000b0: 5d99 d938 6b51 49b9 d9b9 3e37 9a87 06b9
000000c0: d556 a037 7be3 ceb8 f135 c937 09c5 47b7
000000d0: 4f7a 0cb9 7ed4 44b9 3451 beb8 574b 0439
000000e0: 3fb4 f039 01f4 70b7 7bd7 0db9 0c5b fa38
000000f0: 0d0b 3739 179b 46b9 e415 3e39 23e5 98b8
00000100: 6fe7 c0b7 169f 00b9 1405 c038 17bf 3b39
00000110: 4523 e237 5846 95b9 105a 01b8 9dcb 00b8
00000120: 253c 0438 f18f b7b6 ca25 b2b9 cfe3 06b9
00000130: 69fe ca37 95eb 73b9 5551 8837 dcd5 2ab8
00000140: c89a 8839 0757 2139 3698 a338 ab23 ea38
00000150: 3a9e f938 3d0f dab6 5c47 6739 8272 0cb8
00000160: c5f8 adb8 576e 0739 0aa4 e238 b528 8f39
00000170: 4654 5939 b20a 09b9 5370 aeb8 91c4 0bb9
00000180: 6421 d5b8 5be6 c1b7 dbc4 8138 c2f9 8e38
00000190: 58a6 6c38 58b0 3b39 bec2 5438 525a 8337
000001a0: ca5b 7837 aef4 9838 d0f8 8e37 cae9 f8b8
000001b0: 0ace 58b8 eaa3 3038 3fd9 14b7 d037 0d38
000001c0: df38 4939 0e19 ee39 5b8c 6f39 3e65 8237
000001d0: dff9 a7b8 c800 b6b9 1d0a 0bb8 a0d5 afb9
000001e0: 2dad f537 2877 d238 15aa d8b7 1648 f5b7
000001f0: fc5d 8eb9 abad 88b8 c592 27b9 7fd3 3f37
00000200: 2ff8 a738 a65b 00b9 a3cd c3b9 753c 41b9
00000210: 5af0 2139 923a 6db7 3b4b f6b8 f3a2 47b9
00000220: 1f08 6338 b2f5 b2b8 94d9 00b9 cf1d c638
00000230: 9abb 4439 57da 7b38 a510 7939 70a0 8d39
00000240: 2bae b9b7 cfac 1938 8aaa e0b8 f5e3 cf38
00000250: 7ac7 c739 d55c 0c38 52f3 b638 45f9 8439
00000260: 5821 bdb8 d45e c1b8 ee63 8638 5dc0 3fb9
00000270: 5805 f336 95c3 82b7 6c87 9639 e9eb abb9
00000280: bff2 5eb9 7468 19b9 c6bf f1b9 159f 6b36
00000290: 27e4 25b8 9e62 6338 882d 09b9 391d a537
000002a0: f97e b7b8 73ce 4639 da37 0f39 22fa 94b9
000002b0: f86c 2338 73ef 31b9 ba45 a539 89e8 1eb9
000002c0: 4e1d 8038 abf1 0d39 4881 2ab9 310a ccb6
000002d0: 0b95 2d36 b96b 6d39 935a f7b8 702b 8e38
000002e0: 77b4 90b8 b5b5 c437 0d7d 4fb7 4ea3 9d39
000002f0: 562a 8e36 4566 55b9 7766 e038 c219 2b39
00000300: 34fd 11b9 f9cb 9639 4cf9 9eb9 642a 7bb9
00000310: 3a2e 82b9 d6f3 dd37 56cd 84b7 a67a c4b8
00000320: 091f 98b8 445d 2e39 f09e 2ab9 8bdc da38
00000330: ee81 2738 4d11 1ab8 3e53 1939 51a0 23b8
00000340: 971a 1439 7119 78b8 befe 7e38 aae3 2939
00000350: 244c 8a38 2407 e339 0968 8cb9 5c4d 0839
00000360: d107 9938 2889 a0b8 8d11 4938 4036 1fb8
00000370: bd38 6f39 30ba 07b8 73f3 37b8 8c9d c9b8
00000380: 6a7f 0e39 55e5 68b9 5108 d8b6 c547 bcb8
00000390: 516f ad38 3f49 d639 3429 8838 669d 44b8
000003a0: 38d5 2b39 9ad6 27b9 7357 8538 0b42 72b9
000003b0: 4cf0 08b9 c2d7 5239 25ef 7a39 4f1f 0d37
000003c0: e936 0137 4c95 66b8 1741 90b8 e074 14b9
000003d0: c391 50b8 0708 2039 f988 1437 0687 18b9
000003e0: 7380 34b9 a364 8839 7619 1539 85df cdb8
000003f0: cbbd 9739 c24b 043a 02f9 ffb8 5498 a4b9
