results/H3_Concatenation/art_daily_jumpsup/ensemble_autoencoder_weights.pth (torch, 98154 bytes, 130 tensors)

autoencoders.0.encoder.cells.0.weight_h_2 f4 [8, 8]
0.06154152 -0.001062084 0.0012646706 -0.00038046532 0.00016530241 0.0013138289 -0.00049970456 -0.0056982427
-0.14448795 -0.0010882278 0.001061542 -0.090322934 -0.0013256319 -0.00011187627 0.017003424 -0.000726855
-0.0007863206 -0.000676233 0.33506048 0.17566179 -2.9159411e-05 0.00030443084 0.10949206 0.11203759
-4.046545e-05 -0.0006275771 0.14239027 0.116177484 -0.20723936 0.00012025619 -0.00073681166 -0.0009408672
0.39579093 -0.00078177516 0.5545634 -7.951635e-05 0.4150906 -7.1153416e-05 0.24177958 -0.00020736307
0.00069060235 0.00017308685 0.0012811855 0.11528903 -8.759911e-05 -0.00023972246 -0.000624819 2.5984562e-05
-0.0008971993 -0.00017103976 0.0016851344 -0.00033706776 0.085305706 9.0791787e-07 -0.0009211115 -0.000107077736
0.00026032518 0.00033082385 0.000552743 -0.099170834 0.263648 -0.00017282882 0.09909924 -8.2262224e-05
00000000: f612 7c3d a035 8bba 4ec3 a53a 3179 c7b9
00000010: 0755 2d39 c834 ac3a 9bfe 02ba 53b8 babb
00000020: a6f4 13be dea2 8eba 7023 8b3a 3bfb b8bd
00000030: d3c0 adba 1d9f eab8 c44a 8b3c 6a8a 3eba
00000040: 1521 4eba 3a45 31ba 0c8d ab3e afe0 333e
00000050: 5c9b f4b7 049c 9f39 603d e03d f773 e53d
00000060: 72b9 29b8 fc83 24ba c1ce 113e 76ee ed3d
00000070: 8e36 54be 0d32 fc38 9826 41ba 87a4 76ba
00000080: 1ca5 ca3e 0bf0 4cba def7 0d3f 04c2 a6b8
00000090: c186 d43e 3338 95b8 1195 773e 9a6f 59b9
000000a0: 8a09 353a a67e 3539 74ed a73a a81c ec3d
000000b0: 6ab5 b7b8 025e 7bb9 e5ca 23ba 6cf9 d937
000000c0: 0732 6bba 2359 33b9 badf dc3a 78b8 b0b9
000000d0: c2b4 ae3d a4b7 7335 bf76 71ba ec8e e0b8
000000e0: 417c 8839 6d72 ad39 f4e5 103a 141a cbbd
000000f0: dffc 863e 6239 35b9 8bf4 ca3d 3284 acb8

autoencoders.0.encoder.cells.0.bias_h_2 f4 [8]
0.00050592114 -0.00017426226 0.0008769973 0.12599158 -3.016698e-05 0.0012681603 -0.00032360826 -0.00066224224
00000000: cb9f 043a 2bba 36b9 4be6 653a f003 013e
00000010: 190f fdb7 6638 a63a f7a9 a9b9 539a 2dba

autoencoders.0.encoder.cells.0.lstm.weight_ih f4 [32, 1]
-0.00012796557 -0.0002541238 3.1224063e-05 0.00022394734 -5.566677e-07 -0.00018273927 -0.00011139756 0.0002225845
0.00013835699 -0.0003002028 5.6164903e-05 -7.158455e-05 0.63082963 -0.00014043531 -0.00030264663 -0.000219783
-3.7127087e-05 0.00027920195 0.3411999 -0.0006685781 0.3160683 0.27914846 -0.39192006 0.03378319
0.000260242 -2.3394477e-06 0.00026128188 -1.401126e-05 0.39393723 -0.00034345358 -3.5955116e-05 1.1821076e-05
00000000: 7f2e 06b9 eb3b 85b9 95f6 0238 68d3 6a39
00000010: ea6d 15b5 b39d 3fb9 1c9e e9b8 9265 6939
00000020: ec13 1139 8a64 9db9 9b92 6b38 aa1f 96b8
00000030: 0d7e 213f d141 13b9 8bac 9eb9 8d75 66b9
00000040: e8b8 1bb8 da61 9239 c1b1 ae3e 8443 2fba
00000050: b4d3 a13e 8cec 8e3e bfa9 c8be 3e60 0a3d
00000060: 1771 8839 68ff 1cb6 a9fc 8839 e711 6bb7
00000070: 24b2 c93e 8f11 b4b9 83ce 16b8 2353 4637

autoencoders.0.encoder.cells.0.lstm.weight_hh f4 [32, 8]
0.0001400796 2.303986e-05 0.0002089436 0.0001582257 -0.00013025699 8.184574e-05 0.00027465573 -0.00024818367
-0.00017400917 0.0001782166 -3.581091e-05 -0.00013852358 -0.00012098725 0.0003481995 -0.00010395131 -1.9630275e-05
-4.647434e-05 -6.35531e-05 0.027030362 -0.0002185949 -1.3508408e-05 -9.736223e-05 -1.4326731e-05 -0.00017296233
-0.00028463794 5.7904686e-05 -0.00030988644 -0.0005507704 0.00024098565 -0.00016179985 0.00013972083 0.00017954428
-9.922119e-05 6.111487e-05 0.00014502296 -0.00012293718 -1.3513509e-05 3.3285407e-05 -0.000112658934 4.8387233e-06
-0.00028761887 -0.00026191276 8.732128e-05 0.000111265756 -0.00018365834 0.00011321542 7.128306e-05 0.00011608947
8.600842e-05 0.00011748532 -1.2684637e-05 0.00010450319 0.00018874902 0.0003841732 -7.757721e-05 -1.2722075e-05
0.00020642483 0.00029056516 0.00020719122 5.937427e-05 5.275821e-05 8.2055834e-05 -0.000109497494 -0.0001304994
-9.462972e-05 -0.00019871508 7.0232534e-05 0.00037229288 6.540386e-05 6.270123e-05 -8.234404e-05 0.00017442033
-8.666636e-05 -1.4557529e-05 -6.05141e-05 2.1981856e-05 0.00017523102 -7.227943e-05 0.00016291557 5.0344457e-05
0.00035067883 -3.043529e-05 -0.000106233245 -0.00010715214 -1.2776397e-05 -0.00011365207 -0.00024849776 0.00012369022
-0.00064511417 0.00021428001 -0.0006072918 -0.00063211896 -0.0004786101 0.00023622991 3.5704245e-05 0.00012262928
-1.5478696e-05 4.264326e-05 -5.867743e-05 -2.5902444e-05 0.013987384 -8.020836e-05 0.00012852263 -0.0002305333
0.0002543093 -9.445163e-05 -0.00026834823 0.00013380338 -0.00010783905 -0.00025739448 -7.982861e-05 -8.675657e-05
0.00014977163 0.00021567378 2.1001046e-07 -6.672544e-05 7.3865103e-06 4.4749908e-05 6.431836e-05 0.00012713719
-3.986447e-05 0.00015010784 7.951266e-05 0.00010003431 -0.000133675 -7.308055e-05 -1.5249276e-05 0.00028520855
-1.09333205e-05 -0.0005654203 0.30671862 0.00038077636 0.022100238 0.00032348777 -0.0008490614 -0.0009872529
-0.13428858 -0.00146157 0.16776043 -0.00072030514 -0.00065739156 -0.0005222242 -0.0030830665 -0.0012598721
0.12782265 0.00047869276 -0.00026619088 0.07128773 -0.00021431985 0.120396085 0.0012103713 0.000414018
0.091224894 0.18042974 0.027897937 0.21455026 0.0004127719 0.00048391806 0.12151637 -0.0006937365
0.00010850308 0.11352314 -0.13523696 0.14226317 0.20035551 -7.527233e-05 -0.0087418435 0.057773896
0.0010433763 0.00087088713 0.0011044191 -0.10550829 0.0009587138 0.0012070647 0.0010196284 0.0006717238
0.040285956 0.027654128 0.00056090974 0.047378056 0.001137493 0.103875205 0.00011603939 -0.0004155566
-0.32217425 -0.0010475967 0.27849132 -0.2260354 0.1402655 -0.000417692 -0.31834304 0.00029802634
0.00016156347 0.00046993562 0.00014456712 -0.00020368698 0.0002664928 -0.00037075023 0.00019780084 0.00022534821
-0.00010017289 -8.542427e-05 -0.00028143454 -7.656412e-05 0.0001563724 4.136829e-05 -0.00011944732 -5.4142452e-05
-7.852319e-06 -9.925628e-05 1.15245e-05 -5.8524816e-05 0.03905727 1.5077599e-06 -2.6853751e-05 0.000121911864
-0.0007196317 0.00022014596 -0.0005255881 0.11821898 0.27226 -0.00081812113 -0.0006602222 0.00015552812
-0.00019874044 0.00017058861 -0.00010183236 0.0001573785 1.6672182e-06 0.00022538341 -1.1817894e-05 0.00012088191
6.0619164e-05 0.00010150754 -1.4386781e-05 -0.000106081054 9.1916256e-05 8.2479e-05 -8.3442545e-05 0.00011354779
1.6526052e-05 -4.2895517e-05 0.00029250348 4.824555e-05 -1.2799938e-05 0.00012274407 -0.00010373398 1.0606737e-05
0.000114743 1.7530157e-05 1.1558412e-05 0.00027219774 0.0001557117 0.00030229602 -4.166424e-05 -0.00021454932
00000000: 55e2 1239 b945 c137 df17 5b39 63e9 2539
00000010: 9895 08b9 99a4 ab38 abff 8f39 a61e 82b9
00000020: 3b76 36b9 a7df 3a39 ac33 16b8 a440 11b9
00000030: 89ba fdb8 8c8e b639 6f00 dab8 b2ab a4b7
00000040: 71ed 42b8 d047 85b8 c76e dd3c 9f36 65b9
00000050: 2ca2 62b7 f32e ccb8 d75c 70b7 395d 35b9
00000060: 753b 95b9 afde 7238 4178 a2b9 9361 10ba
00000070: 18b1 7c39 d1a8 29b9 0682 1239 0d44 3c39
00000080: f914 d0b8 cc2a 8038 4e11 1839 b3e8 00b9
00000090: 14b8 62b7 ef9b 0b38 4e43 ecb8 515c a236
000000a0: 8dcb 96b9 5651 89b9 4120 b738 5957 e938
000000b0: 6994 40b9 116e ed38 cd7d 9538 0f75 f338
000000c0: 6b5f b438 7362 f638 1ad0 54b7 b928 db38
000000d0: eeea 4539 db6a c939 f3b0 a2b8 e570 55b7
000000e0: be73 5839 ff56 9839 7841 5939 a308 7938
000000f0: b248 5d38 6415 ac38 05a2 e5b8 aad6 08b9
00000100: f273 c6b8 2c5e 50b9 ce49 9338 4e30 c339
00000110: 6e29 8938 777e 8338 1fb0 acb8 9ae4 3639
00000120: a6c0 b5b8 1c3c 74b7 85d0 7db8 ad65 b837
00000130: 38be 3739 b994 97b8 51d4 2a39 f328 5338
00000140: 51db b739 4a4f ffb7 8ac9 deb8 deb6 e0b8
00000150: 355a 56b7 7e58 eeb8 ce48 82b9 d7b2 0139
00000160: e11c 29ba 5ab0 6039 aa32 1fba c9b4 25ba
00000170: f6ed fab9 7cb4 7739 24c1 1538 0c96 0039
00000180: 3fd8 81b7 dadb 3238 691c 76b8 1349 d9b7
00000190: 572b 653c 8935 a8b8 08c4 0639 50bb 71b9
000001a0: d154 8539 5514 c6b8 17b1 8cb9 924d 0c39
000001b0: a627 e2b8 e7f2 86b9 a969 a7b8 14f1 b5b8
000001c0: 040c 1d39 7d26 6239 3c7f 6134 f3ee 8bb8
000001d0: a4d9 f736 d9b1 3b38 a8e2 8638 2150 0539
000001e0: 2634 27b8 4466 1d39 09c0 a638 83c9 d138
000001f0: 1c2b 0cb9 d242 99b8 24d7 7fb7 0b88 9539
00000200: 416e 37b7 b738 14ba 390a 9d3e f0a2 c739
00000210: 8f0b b53c cb99 a939 8c93 5eba b666 81ba
00000220: f282 09be 2792 bfba 64c9 2b3e dcd2 3cba
00000230: cd54 2cba dfe5 08ba 460d 4abb 4b22 a5ba
00000240: f1e3 023e 0ef9 fa39 898f 8bb9 4dff 913d
00000250: 0cbb 60b9 3992 f63d 52a5 9e3a 8e10 d939
00000260: 1ed4 ba3d 93c2 383e 378a e43c 10b3 5b3e
00000270: 4e69 d839 62b6 fd39 93dd f83d dedb 35ba
00000280: 268c e338 d27e e83d 8f7b 0abe 70ad 113e
00000290: ff29 4d3e 86db 9db8 f339 0fbc 52a4 6c3d
000002a0: e6c1 883a 3f4c 643a 28c2 903a bb14 d8bd
000002b0: 3252 7b3a 5f36 9e3a 0da5 853a 9f16 303a
000002c0: e302 253d e98a e23c 040a 133a 7e0f 423d
000002d0: ee17 953a 86bc d43d 2c5a f338 10df d9b9
000002e0: 06f4 a4be 834f 89ba 6a96 8e3e d375 67be
000002f0: c2a1 0f3e acfd dab9 dcfd a2be 6b40 9c39
00000300: 5d69 2939 b161 f639 f196 1739 cf94 55b9
00000310: 0fb8 8b39 4161 c2b9 c268 4f39 734b 6c39
00000320: e913 d2b8 ce25 b3b8 818d 93b9 0d91 a0b8
00000330: e6f7 2339 dd82 2d38 cb7f fab8 0417 63b8
00000340: 74bd 03b7 cf27 d0b8 5a59 4137 8b78 75b8
00000350: 84fa 1f3d 3c5e ca35 fe43 e1b7 efaa ff38
00000360: aaa5 3cba fbd6 6639 9fc7 09ba cb1c f23d
00000370: aa65 8b3e 2e77 56ba c312 2dba 4315 2339
00000380: fb64 50b9 08e0 3239 d58e d5b8 f805 2539
00000390: 2ec5 df35 e654 6c39 7845 46b7 fb81 fd38
000003a0: 5541 7e38 72e0 d438 c15e 71b7 d577 deb8
000003b0: 2ac3 c038 93f8 ac38 e0fd aeb8 8120 ee38
000003c0: 6da1 8a37 b6ea 33b8 275b 9939 445b 4a38
000003d0: 51bf 56b7 dcb4 0039 c28b d9b8 97f3 3137
000003e0: 2ea2 f038 ba0d 9337 00eb 4137 c3b5 8e39
000003f0: 8b46 2339 7c7d 9e39 a3c0 2eb8 a5f8 60b9

autoencoders.0.encoder.cells.0.lstm.bias_ih f4 [32]
5.48702e-05 -7.561362e-05 0.000987306 0.041824225 -3.585015e-05 -0.0002644003 1.01008445e-05 0.00018748926
0.00020871844 -7.002675e-05 -0.0001497691 -0.00030691535 -0.0001395603 2.9060262e-05 0.00020727004 -0.00011585332
0.04960773 -0.0002657765 0.023998141 0.17472161 2.9535991e-05 6.0593386e-05 0.04898877 -5.354172e-05
0.00021171101 -0.0002264641 -1.6255834e-06 0.056744613 -5.755415e-05 -0.00024223431 7.088658e-06 8.3008665e-05
00000000: 6e24 6638 c192 9eb8 7e68 813a e14f 2b3d
00000010: ce5d 16b8 359f 8ab9 cc76 2937 c498 4439
00000020: 6edb 5a39 53db 92b8 560b 1db9 7be9 a0b9
00000030: ef56 12b9 70c6 f337 a156 5939 47f6 f2b8
00000040: 7a31 4b3d eb57 8bb9 c097 c43c 39ea 323e
00000050: 0fc4 f737 a725 7e38 73a8 483d fc91 60b8
00000060: befe 5d39 fe76 6db9 9f2e dab5 0a6d 683d
00000070: 4c66 71b8 4700 7eb9 1cdb ed36 f014 ae38

autoencoders.0.encoder.cells.0.lstm.bias_hh f4 [32]
5.48702e-05 -7.561362e-05 0.000987306 0.041824225 -3.585015e-05 -0.0002644003 1.01008445e-05 0.00018748926
0.00020871844 -7.002675e-05 -0.0001497691 -0.00030691535 -0.0001395603 2.9060262e-05 0.00020727004 -0.00011585332
0.04960773 -0.0002657765 0.023998141 0.17472161 2.9535991e-05 6.0593386e-05 0.04898877 -5.354172e-05
0.00021171101 -0.0002264641 -1.6255834e-06 0.056744613 -5.755415e-05 -0.00024223431 7.088658e-06 8.3008665e-05
00000000: 6e24 6638 c192 9eb8 7e68 813a e14f 2b3d
00000010: ce5d 16b8 359f 8ab9 cc76 2937 c498 4439
00000020: 6edb 5a39 53db 92b8 560b 1db9 7be9 a0b9
00000030: ef56 12b9 70c6 f337 a156 5939 47f6 f2b8
00000040: 7a31 4b3d eb57 8bb9 c097 c43c 39ea 323e
00000050: 0fc4 f737 a725 7e38 73a8 483d fc91 60b8
00000060: befe 5d39 fe76 6db9 9f2e dab5 0a6d 683d
00000070: 4c66 71b8 4700 7eb9 1cdb ed36 f014 ae38

autoencoders.0.decoder.cells.0.weight_h_2 f4 [8, 8]
0.042766824 0.3656736 -0.82134885 -2.3143257e-05 -0.21283731 -0.29719996 0.4143264 -0.15987454
-0.19890153 -0.0004111075 -0.39622924 6.563782e-05 -0.000655191 0.34493545 0.6464826 -0.24569234
-0.03219213 0.24481498 0.24881096 2.7085223e-05 -0.0603464 -0.20833807 -0.69308347 0.16356042
-0.018964583 -0.0004661587 0.08953349 5.794779e-05 0.00120168 0.26565152 0.00018955096 -0.25877625
0.20416562 0.01877975 -0.68443376 -0.097789206 -0.06939742 0.16501501 -0.22185367 -0.5680165
-0.2912557 0.25566453 0.2694555 0.28207532 0.0019179481 -0.022245297 -0.04170564 -0.00042373172
-0.26192093 -0.00083559356 -0.08522488 0.06592097 -0.0037949746 -0.13880967 0.053256452 -0.00042308445
0.17870113 -0.15969187 -0.00094808755 6.402706e-06 -0.0003194673 -0.0012123628 0.00062811264 4.6309822e-05
00000000: 442c 2f3d 9239 bb3e eb43 52bf c423 c2b7
00000010: 06f2 59be 982a 98be 9722 d43e 27b6 23be
00000020: d8ac 4bbe ea89 d7b9 8fde cabe 09a7 8938
00000030: 20c1 2bba 619b b03e e27f 253f c696 7bbe
00000040: e5db 03bd c7b0 7a3e 4dc8 7e3e 1335 e337
00000050: c92d 77bd 9356 55be eb6d 31bf 627c 273e
00000060: 9d5b 9bbc c366 f4b9 565d b73d f70c 7338
00000070: b181 9d3a 7a03 883e 33c2 4639 527e 84be
00000080: cb10 513e fed7 993c 0d37 2fbf b545 c8bd
00000090: 3c20 8ebd b2f9 283e 9c2d 63be 8869 11bf
000000a0: 781f 95be 76e6 823e 12f6 893e 2d6c 903e
000000b0: a963 fb3a c53b b6bc 88d3 2abd 4f28 deb9
000000c0: 801a 86be bc0b 5bba 628a aebd 9301 873d
000000d0: 1cb5 78bb 1f24 0ebe 7023 5a3d 6fd1 ddb9
000000e0: 6efd 363e 4486 23be 1489 78ba d3d6 d636
000000f0: 2d7e a7b9 25e8 9eba eda7 243a cb3c 4238

autoencoders.0.decoder.cells.0.bias_h_2 f4 [8]
-0.10404763 -0.08801166 -0.12594427 5.2427324e-05 -0.009114825 -0.1731572 -0.008571829 -0.033196304
00000000: ed16 d5bd 753f b4bd 89f7 00be 69e5 5b38
00000010: 5956 15bc 1f50 31be db70 0cbc d9f8 07bd

autoencoders.0.decoder.cells.0.lstm.weight_ih f4 [32, 9]
0.00042734167 0.21652797 0.00021837345 0.512732 0.4379656 0.00036810586 0.00022021052 0.0004845549
0.11520756 0.09628094 -1.8082439e-05 0.000100586454 0.00027280595 0.00029959902 0.00015259418 -0.00012917664
2.5770237e-06 6.7912406e-05 0.5027723 0.051339466 0.19121851 0.06391456 0.068453774 0.13417313
0.00021538389 0.3770214 0.12709066 -0.00025613318 -9.6541844e-05 -7.645999e-05 0.00023458978 -6.7191715e-05
-0.00016829268 5.5966346e-05 1.5973122e-06 3.2498551e-06 -8.388035e-06 -0.00012318704 -0.0001611335 -2.5312373e-05
0.00019169941 -4.668312e-06 3.8028586e-05 0.000366344 -2.3405513e-05 0.2158229 0.1330225 0.00034378894
0.07978875 0.3818534 0.37564784 0.00065537577 0.0008142616 0.00042151113 0.0001476276 5.8456033e-05
9.81611e-07 -0.031346604 0.0002016012 0.00010013662 8.110374e-05 -7.797897e-05 0.00022824266 -1.3795454e-05
-0.00015058252 -9.0806876e-05 0.1690314 0.105769515 0.03569569 2.6776e-05 0.00023655448 5.2137693e-05
0.027321327 0.026321016 -0.0011299562 0.092974536 -0.029296968 0.2378442 -0.00080767396 -0.0008417566
0.36693728 4.3772638e-05 -0.00012056012 -8.442966e-05 -0.00014508393 0.00017941312 0.00048139755 -0.000115719995
0.00031560127 0.0003260586 -0.00089858344 -0.0034777215 -0.002746603 0.112355664 -0.0022816742 -0.0025468094
-0.003045045 -0.1306186 -0.0013545553 0.00038391672 -4.6470504e-05 -0.00016155366 6.350339e-05 4.149189e-05
-2.372241e-05 4.745409e-05 0.00017103212 0.00017049859 0.00018755323 0.00016636378 -0.00018935886 -8.070013e-05
-0.00012028849 6.253403e-05 0.00030119508 -2.1478976e-05 -5.137668e-05 0.20280676 -0.0017189159 -0.0024441236
-0.001513394 -0.0023077084 0.024977565 -0.00085986545 0.17610383 0.00027311593 8.003395e-06 -0.0001589658
-0.0001172146 -1.057958e-05 -1.7727441e-05 1.2801806e-05 -6.193088e-05 -5.846145e-05 -8.7984874e-05 3.7576465e-05
-0.3068527 -9.2534494e-05 0.00016304068 5.0986277e-05 -4.429231e-05 7.347876e-06 0.0001136347 -6.889694e-06
0.9647773 -0.17672388 -0.3030623 0.3512189 -0.1102578 0.013420027 0.0033671702 -0.33533457
-0.2095289 -0.03997963 0.03470005 -0.00029885475 0.1274277 0.002158149 -0.5111439 -0.17555875
0.026610048 0.00025605745 -0.749063 0.055660434 -0.16252324 -0.0643374 0.12051739 0.18800645
-0.022994313 0.06753565 -0.17081536 0.008019721 -0.17635338 -0.3384598 -0.0065242113 -0.00031469134
-0.0979702 -0.08133738 -1.686341e-05 -0.04654025 -0.0012012594 -0.0011034777 0.107878044 -0.033181164
-0.33940563 -0.02428485 -0.0013351941 0.079395905 -0.00042522626 -0.6671379 0.039363608 -0.16297613
0.15372507 0.117263764 -0.29878554 -0.20495613 0.15950187 -0.0014357849 0.09572109 0.00013062179
-0.42320213 0.20241773 0.107874036 -0.08589678 0.018091952 -0.00031434366 0.18784246 0.023736328
-0.528445 -0.024669657 -0.098579854 -0.0005995956 -0.09373715 -0.07044312 -0.00030209593 0.00013739383
0.048846953 0.15501066 0.3248344 0.6323033 0.34041086 0.31943193 0.00018861347 0.15354145
0.17003426 -6.129484e-05 2.938376e-05 0.0002991171 0.00015160632 9.835927e-06 9.004504e-05 0.00013518381
-2.9058621e-05 9.0481684e-05 0.1694102 0.17980689 0.22977543 0.15133929 0.67364055 0.19838549
0.00043651438 0.068514876 0.00019051977 0.10961757 3.1567735e-05 -0.000106903964 4.2779848e-05 0.0001913957
0.00012998874 -6.0735707e-05 -5.9394282e-05 -0.00013456462 9.299258e-06 -0.00046977377 -8.6348664e-05 -7.213865e-05
00000000: d40c e039 82b9 5d3e 2dfb 6439 6842 033f
00000010: 073d e03e 55fe c039 50e8 6639 dc0b fe39
00000020: f1f1 eb3d f12e c53d beaf 97b7 f1f1 d238
00000030: 6507 8f39 8013 9d39 b001 2039 9773 07b9
00000040: eef0 2c36 326c 8e38 afb5 003f 5549 523d
00000050: c9ce 433e a3e5 823d 7e31 8c3d ae64 093e
00000060: acd8 6139 f308 c13e 0e24 023e 9d49 86b9
00000070: 8276 cab8 2559 a0b8 37fc 7539 47e9 8cb8
00000080: b977 30b9 68bd 6a38 3b63 d635 1618 5a36
00000090: 56ba 0cb7 c52b 01b9 f2f5 28b9 e855 d4b7
000000a0: eb02 4939 7fa4 9cb6 e280 1f38 dc11 c039
000000b0: f556 c4b7 ae00 5d3e 0d37 083e 923e b439
000000c0: 4968 a33d 4a82 c33e ea54 c03e 86cd 2b3a
000000d0: 2c74 553a 44fe dc39 7bcc 1a39 b02e 7538
000000e0: e6bf 8335 4c65 00bd e964 5339 7000 d238
000000f0: 3d16 aa38 a488 a3b8 6c54 6f39 0673 67b7
00000100: b0e5 1db9 926f beb8 9116 2d3e b09d d83d
00000110: a535 123d 069d e037 9c0b 7839 6cae 5a38
00000120: fad0 df3c 2c9f d73c 0a1b 94ba 6f69 be3d
00000130: 3200 f0bc 6e8d 733e 15ba 53ba 54a9 5cba
00000140: 34df bb3e 8398 3738 39d5 fcb8 d40f b1b8
00000150: ac21 18b9 d820 3c39 1664 fc39 b3ae f2b8
00000160: 4977 a539 d8f2 aa39 ea8e 6bba 7cea 63bb
00000170: 5a00 34bb ba1a e63d 2488 15bb 5fe8 26bb
00000180: 618f 47bb e2c0 05be 558b b1ba 6e48 c939
00000190: 53e9 42b8 bb66 29b9 1f2d 8538 9407 2e38
000001a0: 7dff c6b7 7109 4738 1657 3339 dec7 3239
000001b0: f0a9 4439 f071 2e39 a28e 46b9 8d3d a9b8
000001c0: 6443 fcb8 b424 8338 b8e9 9d39 c02d b4b7
000001d0: 4a7d 57b8 93ac 4f3e 3f4d e1ba 972d 20bb
000001e0: 135d c6ba ec3c 17bb c09d cc3c 9868 61ba
000001f0: 9054 343e 0031 8f39 5246 0637 0fb0 26b9
00000200: 1cd1 f5b8 f37e 31b7 64b5 94b7 57c7 5637
00000210: e3e0 81b8 8134 75b8 8584 b8b8 6c9b 1d38
00000220: cc1b 9dbe 140f c2b8 e6f5 2a39 19da 5538
00000230: 81c6 39b8 c68d f636 2a4f ee38 052e e7b6
00000240: a5fb 763f 1bf7 34be fb2a 9bbe f7d2 b33e
00000250: d7ce e1bd acdf 5b3c beab 5c3b f9b0 abbe
00000260: be8e 56be aec1 23bd a421 0e3d 9baf 9cb9
00000270: 687c 023e bb6f 0d3b 54da 02bf acc5 33be
00000280: 51fd d93c 733f 8639 98c2 3fbf 32fc 633d
00000290: 7e6c 26be 54c3 83bd d2d1 f63d c384 403e
000002a0: 925e bcbc 2250 8a3d 39ea 2ebe 2665 033c
000002b0: fb95 34be 9a4a adbe 0dc9 d5bb 28fd a4b9
000002c0: 9aa4 c8bd 3694 a6bd e675 8db7 fda0 3ebd
000002d0: 9473 9dba 91a2 90ba 2aef dc3d f9e8 07bd
000002e0: 93c6 adbe 06f1 c6bc ae01 afba 529a a23d
000002f0: e7f0 deb9 8dc9 2abf bc3b 213d 37e3 26be
00000300: 1b6a 1d3e fc27 f03d 6bfa 98be 05e0 51be
00000310: 7554 233e f230 bcba 6b09 c43d 85f7 0839
00000320: f3ad d8be 9846 4f3e 10ed dc3d a7ea afbd
00000330: 9335 943c 7ece a4b9 c659 403e b072 c23c
00000340: 2c48 07bf 0518 cabc 3ce4 c9bd 2e2e 1dba
00000350: 43f9 bfbd 7c44 90bd a162 9eb9 6011 1039
00000360: be13 483d 1dbb 1e3e b250 a63e a1de 213f
00000370: 554a ae3e 958c a33e 8bc6 4539 f839 1d3e
00000380: 761d 2e3e 6b8b 80b8 257d f637 d1d2 9c39
00000390: 83f8 1e39 fc04 2537 90d6 bc38 21c0 0d39
000003a0: eac2 f3b7 fcc0 bd38 de79 2d3e 4c1f 383e
000003b0: 404a 6b3e b0f8 1a3e b573 2c3f 9125 4b3e
000003c0: f8db e439 8751 8c3d 43c6 4739 2d7f e03d
000003d0: 9967 0438 a131 e0b8 836e 3338 64b1 4839
000003e0: 964d 0839 78be 7eb8 201e 79b8 ea19 0db9
000003f0: 0204 1c37 f84b f6b9 1616 b5b8 2549 97b8

autoencoders.0.decoder.cells.0.lstm.weight_hh f4 [32, 8]
0.36050728 0.0004891073 0.00022876919 0.27151465 -2.9158424e-05 0.00021362954 0.032038808 -3.5604097e-07
-6.239683e-05 0.00021296315 4.878583e-05 0.00014641418 3.4464497e-06 0.00043824158 0.00011831149 -2.9007932e-05
0.20226711 -3.8262526e-05 0.12874573 -0.00053963147 0.10759482 0.057650257 0.066115856 0.00011562957
-4.849669e-06 0.00014949834 -0.000122876 -0.00010611331 -5.6450044e-05 7.960583e-05 -0.00013687467 -0.0003132285
6.767574e-05 0.00012695338 -5.1990344e-05 -0.00017716204 -5.8041558e-05 -5.633227e-06 2.5079973e-05 2.7727156e-05
0.0010873154 0.068964094 0.0004669813 0.00021327428 0.00060638145 -0.00056658103 0.059373632 -0.00014438665
0.0019893262 3.439664e-05 -7.538341e-05 -6.376239e-05 0.051012237 -0.00014838362 -9.6685486e-05 -0.00034670145
-1.0216106e-05 -1.0235444e-05 -0.0002188084 -0.000103758335 -0.00028303542 -0.00019385597 -0.00013878729 -0.00019644869
0.442605 0.25869045 -0.0011357113 -0.00024915833 0.10059756 -0.07163527 -0.00076641113 6.8422625e-05
-2.396101e-05 0.00020166721 0.000100145684 -0.0002916988 -7.0379894e-05 4.643952e-05 7.019809e-05 0.00027506347
-0.0018817891 0.14779714 -0.0045262193 0.07881599 -0.0029938603 -0.0031939275 0.19346237 0.000255594
6.028597e-05 -8.557047e-05 -6.376188e-05 0.00013534854 7.223189e-05 -3.4844616e-05 4.2618965e-05 -0.00018178496
0.00017181075 -0.00018521457 -0.00013083762 0.0001795703 0.00025552476 -0.0001437404 -0.0001310267 9.96903e-05
0.0042054513 -0.0020445245 -0.0020206012 -0.002202913 0.11747879 -0.002331138 -0.0013479608 2.2779315e-05
3.7993548e-05 2.0080934e-06 -0.00015006594 -2.8899174e-05 -0.0001103413 -0.0003654372 -0.00021093231 0.00026470007
-8.782985e-05 -0.00017403529 6.965752e-05 6.847183e-06 -0.00017722568 -0.092413746 -6.439482e-05 0.00024000512
-0.15879296 0.24652547 0.11175389 0.0070578093 0.33534595 0.014323335 0.0017928012 0.06484385
0.03671442 0.14421214 0.09842302 0.1208952 0.00395333 0.20248908 -0.10661894 0.00018728904
-0.015223696 0.014300519 0.13787483 -0.079656556 -0.13361584 0.06821475 0.051430985 0.07202135
-0.07407703 0.32685015 0.15920287 -2.3657367e-05 -3.255536e-05 0.15170695 -0.18258776 -7.501165e-05
-0.0026160248 -0.0009271731 0.51161397 -0.0005774309 -0.0006089421 0.23475644 -0.00068296876 -0.00023400768
-0.33968443 0.31776315 0.28467903 -0.0032790636 0.10060851 -0.1363471 0.13083723 -0.0019086504
0.046307243 -0.08615971 0.033736005 0.0013408103 0.0006397774 -0.000735432 0.061170015 0.00097192323
-0.27013272 -0.000492462 -0.0001999189 -0.00067508913 -0.5772071 0.12071222 -0.00066032936 5.320015e-05
0.16693692 0.06715955 0.017926676 0.00018744374 0.00021275746 0.0001327563 0.29388064 0.00012182155
5.7720794e-05 0.00019415439 0.00017621926 -0.00010581957 -3.9270184e-05 0.00041875622 -0.00012288275 -4.3992455e-05
0.13305295 0.3485157 -0.00018294236 0.13051416 0.00017761515 -0.00034556558 0.013889454 0.0002699938
-0.00026082253 -7.577666e-05 -0.00032009414 6.854319e-05 -0.00022164441 6.5185166e-05 -5.125463e-06 -0.0002817639
-0.00011104717 2.7372138e-05 -0.00011027849 -0.00012565682 2.0201996e-05 -0.00013440245 4.3828473e-05 -0.00015324801
0.3528504 0.16243647 -0.00059964444 0.00044756633 0.0006519212 -0.00020877535 0.121609345 9.387234e-05
-0.27831388 5.5823693e-05 -0.000117357355 -5.5797896e-05 -0.00010511008 -0.00036440406 8.440396e-05 2.0980215e-05
0.072510995 -3.7788857e-05 0.00070475705 -0.00025792964 -0.12401955 -3.281659e-05 5.0628878e-05 9.121939e-05
00000000: 6994 b83e 6f37 003a c3e1 6f39 f803 8b3e
00000010: 3d99 f4b7 be01 6039 203b 033d e625 bfb4
00000020: 0bdb 82b8 dc4e 5f39 639f 4c38 c286 1939
00000030: 8e49 6736 cac3 e539 ff1d f838 0f56 f3b7
00000040: 1c1f 4f3e 137c 20b8 ecd5 033e 0e76 0dba
00000050: ac5a dc3d ad22 6c3d c067 873d 277e f238
00000060: 57ba a2b6 a8c2 1c39 46d8 00b9 2689 deb8
00000070: c6c4 6cb8 0ef2 a638 0486 0fb9 d138 a4b9
00000080: 23ed 8d38 ca1e 0539 3510 5ab8 93c4 39b9
00000090: a671 73b8 0d05 bdb6 d562 d237 9d97 e837
000000a0: 4084 8e3a 0c3d 8d3d 2bd5 f439 61a2 5f39
000000b0: 92f5 1e3a 9c86 14ba c431 733d 7f66 17b9
000000c0: 5b5f 023b 1c45 1038 2917 9eb8 2cb8 85b8
000000d0: 35f2 503d 6d97 1bb9 a0c3 cab8 7bc5 b5b9
000000e0: d765 2bb7 e6b8 2bb7 ef6f 65b9 d598 d9b8
000000f0: 5f64 94b9 d145 4bb9 6e87 11b9 cbfd 4db9
00000100: 1f9d e23e 1373 843e 26dc 94ba 77a1 82b9
00000110: 1806 ce3d 83b5 92bd fbe8 48ba 1e7e 8f38
00000120: e1ff c8b7 a176 5339 4e05 d238 26ef 98b9
00000130: eb98 93b8 0ec8 4238 5037 9338 6536 9039
00000140: 5da6 f6ba 2258 173e ae50 94bb 476a a13d
00000150: a434 44bb 3651 51bb 001b 463e 3f01 8639
00000160: 91db 7c38 4c74 b3b8 e6b7 85b8 59ec 0d39
00000170: 337b 9738 1f26 12b8 c4c1 3238 879d 3eb9
00000180: 1928 3439 2836 42b9 7531 09b9 094b 3c39
00000190: f4f7 8539 05b9 16b9 3664 09b9 d310 d138
000001a0: e2cd 893b 6efd 05bb 106c 04bb bf5e 10bb
000001b0: b898 f03d 01c6 18bb 0fae b0ba 3516 bf37
000001c0: 435b 1f38 c8c2 0636 055b 1db9 816c f2b7
000001d0: 0967 e7b8 2798 bfb9 b62d 5db9 71c7 8a39
000001e0: 4b31 b8b8 3e7d 36b9 1915 9238 dbc0 e536
000001f0: a8d5 39b9 6b43 bdbd b50b 87b8 e2a9 7b39
00000200: 9f9a 22be 2c71 7c3e 39df e43d 3245 e73b
00000210: 77b2 ab3e 6cac 6a3c 6dfc ea3a dacc 843d
00000220: dc61 163d 59ac 133e 0292 c93d e797 f73d
00000230: f08a 813b 4c59 4f3e 085b dabd 0563 4439
00000240: cf6c 79bc b94c 6a3c 0f2f 0d3e fa22 a3bd
00000250: 97d2 08be 2db4 8b3d 4ca9 523d ee7f 933d
00000260: b3b5 97bd e758 a73e 1406 233e cf73 c6b7
00000270: 0d8c 08b8 1159 1b3e 49f8 3abe 934f 9db8
00000280: 9d71 2bbb 890d 73ba 22f9 023f bb5e 17ba
00000290: 6aa1 1fba fe63 703e 4209 33ba f55f 75b9
000002a0: 1eeb adbe dab1 a23e 73c1 913e 8fe5 56bb
000002b0: d60b ce3d 939e 0bbe 32fa 053e ae2b faba
000002c0: aaac 3d3d 8174 b0bd c42e 0a3d 21be af3a
000002d0: bcb6 273a 02ca 40ba 698d 7a3d aac8 7e3a
000002e0: d64e 8abe 9118 01ba 52a1 51b9 77f8 30ba
000002f0: d8c3 13bf f837 f73d f419 2dba 3a23 5f38
00000300: 83f1 2a3e f28a 893d f7da 923c 8c8c 4439
00000310: a517 5f39 7f34 0b39 8677 963e 727a ff38
00000320: 3b19 7238 ec95 4b39 7fc7 3839 73eb ddb8
00000330: 0ab6 24b8 828c db39 16da 00b9 8a84 38b8
00000340: 083f 083e a670 b23e 37d4 3fb9 81a5 053e
00000350: 343e 3a39 072d b5b9 9890 633c f48d 8d39
00000360: 02bf 88b9 49ea 9eb8 4fd2 a7b9 d8be 8f38
00000370: 3869 68b9 05b4 8838 64fb abb6 b6b9 93b9
00000380: ffe1 e8b8 389d e537 5045 e7b8 bfc2 03b9
00000390: 7577 a937 62ee 0cb9 77d4 3738 33b1 20b9
000003a0: cfa8 b43e bf55 263e 7531 1dba 56a7 ea39
000003b0: b1e5 2a3a b5ea 5ab9 520e f93d 54dd c438
000003c0: 287f 8ebe 3c24 6a38 c01d f6b8 8908 6ab8
000003d0: 8b6e dcb8 7c0d bfb9 0802 b138 abfe af37
000003e0: a580 943d 7a7f 1eb8 72bf 383a bb3a 87b9
000003f0: f6fd fdbd 8ca4 09b8 585a 5438 094d bf38

autoencoders.0.decoder.cells.0.lstm.bias_ih f4 [32]
0.29773563 0.0004400126 0.35455006 9.036237e-05 -7.8558995e-05 0.25431272 -0.00012527007 -8.683148e-05
0.030019168 0.00024343598 0.003069137 1.9933015e-05 0.00025473503 -0.0026324661 9.402267e-06 4.1874824e-05
-0.054847583 0.023287952 0.07059177 -0.00020115497 -0.0026280058 0.0760671 0.027577434 -0.0004783315
0.33525985 0.00014218557 0.37396717 0.00011465255 0.00030634954 0.2683094 -0.00012344198 0.0003444399
00000000: ce70 983e 7eb1 e639 9687 b53e ee80 bd38
00000010: 0ac0 a4b8 4735 823e ee5a 03b9 4c19 b6b8
00000020: c2ea f53c d942 7f39 9323 493b d335 a737
00000030: f58d 8539 7485 2cbb 6ebe 1d37 c0a2 2f38
00000040: dca7 60bd 60c6 be3c 6b92 903d 20ed 52b9
00000050: 9f3a 2cbb 11c9 9b3d 12ea e13c 91c8 fab9
00000060: 2ea7 ab3e a617 1539 a078 bf3e 9e71 f038
00000070: 8a9d a039 da5f 893e 3470 01b9 f195 b439

autoencoders.0.decoder.cells.0.lstm.bias_hh f4 [32]
0.29773563 0.0004400126 0.35455006 9.036237e-05 -7.8558995e-05 0.25431272 -0.00012527007 -8.683148e-05
0.030019168 0.00024343598 0.003069137 1.9933015e-05 0.00025473503 -0.0026324661 9.402267e-06 4.1874824e-05
-0.054847583 0.023287952 0.07059177 -0.00020115497 -0.0026280058 0.0760671 0.027577434 -0.0004783315
0.33525985 0.00014218557 0.37396717 0.00011465255 0.00030634954 0.2683094 -0.00012344198 0.0003444399
00000000: ce70 983e 7eb1 e639 9687 b53e ee80 bd38
00000010: 0ac0 a4b8 4735 823e ee5a 03b9 4c19 b6b8
00000020: c2ea f53c d942 7f39 9323 493b d335 a737
00000030: f58d 8539 7485 2cbb 6ebe 1d37 c0a2 2f38
00000040: dca7 60bd 60c6 be3c 6b92 903d 20ed 52b9
00000050: 9f3a 2cbb 11c9 9b3d 12ea e13c 91c8 fab9
00000060: 2ea7 ab3e a617 1539 a078 bf3e 9e71 f038
00000070: 8a9d a039 da5f 893e 3470 01b9 f195 b439

autoencoders.0.decoder.output_layer.weight f4 [1, 8]
0.32266435 -0.14494003 -0.41575012 -0.021833949 -0.032353852 -0.28030214 0.19084607 -0.08357934
00000000: 4334 a53e 296b 14be 33dd d4be 1cdd b2bc
00000010: 7985 04bd c383 8fbe 276d 433e a52b abbd

autoencoders.1.encoder.cells.0.weight_h_2 f4 [8, 8]
0.00010924658 -5.88866e-05 0.08632041 -2.7304428e-05 0.0007186083 0.1393861 0.02390257 -0.10279271
0.39792413 4.40844e-05 0.07786511 -0.00037159264 0.00043715973 0.34018126 -0.00026516736 0.02969159
-0.01651478 -0.11235976 0.51163226 -0.019756109 0.0006438778 -0.08991201 0.17276357 0.34883434
-1.0216528 3.2696542e-05 -0.0012036009 0.025819292 -0.0001305917 -0.33256614 -0.0005739547 0.00029195732
-0.6709138 0.00070482056 0.3823948 0.00031151556 0.00051600026 0.00011029006 -0.00060449983 8.022865e-05
0.36062187 -0.09275434 -0.00040173318 -0.0006945339 0.29629064 0.0004214108 0.2129812 -0.19002238
-0.16844413 -0.3748309 0.13690968 -0.060433425 0.00060508674 -0.028781319 -0.0526821 8.540791e-05
0.076382756 8.215613e-05 -0.31343362 -0.00041800924 0.00040559578 0.000100707104 -5.370871e-05 0.00015942704
00000000: 501b e538 01fd 76b8 c1c8 b03d d00b e5b7
00000010: fd60 3c3a 3bbb 0e3e 53cf c33c fc84 d2bd
00000020: b6bc cb3e 44e7 3838 be77 9f3d 52d2 c2b9
00000030: 9632 e539 3d2c ae3e 2906 8bb9 c73b f33c
00000040: 014a 87bc e01c e6bd 55fa 023f 90d7 a1bc
00000050: e8c9 283a ca23 b8bd efe8 303e 6a9a b23e
00000060: 85c5 82bf a523 0938 25c2 9dba fb82 d33c
00000070: 71ef 08b9 1c46 aabe 7375 16ba d911 9939
00000080: 02c1 2bbf b5c3 383a 40c9 c33e e952 a339
00000090: 3144 073a 864b e738 4c77 1eba 6e40 a838
000000a0: 6ea3 b83e fdf5 bdbd b79f d2b9 6211 36ba
000000b0: 68b3 973e cdf0 dc39 be17 5a3e 3a95 42be
000000c0: 9e7c 2cbe d6e9 bfbe 0d32 0c3e 0a89 77bd
000000d0: af9e 1e3a cdc6 ebbc 30c9 57bd 061d b338
000000e0: 906e 9c3d 3d4b ac38 5f7a a0be 4028 dbb9
000000f0: 25a6 d439 b732 d338 4a45 61b8 df2b 2739

autoencoders.1.encoder.cells.0.bias_h_2 f4 [8]
-0.09544131 0.00026364188 0.0637694 -0.0006284712 0.0005584565 0.00023701419 0.07729073 -0.00030971068
00000000: bc76 c3bd 6a39 8a39 8899 823d fdbf 24ba
00000010: 6265 123a 0387 7839 9a4a 9e3d aa60 a2b9

autoencoders.1.encoder.cells.0.lstm.weight_ih f4 [32, 1]
0.051492665 0.00030170896 9.4244955e-05 0.00012116394 -0.00036842687 9.97442e-05 8.52757e-05 -0.00023388317
0.23375283 -1.21662215e-05 -2.4524888e-05 2.8884822e-05 0.00031358917 -0.00020261067 -0.22113736 -0.00021219863
0.5806299 -0.0005025729 -0.39562848 4.9143095e-05 0.14239508 0.00023293615 -0.38550487 0.022314496
0.32931843 -8.009023e-05 0.00012325327 0.00016891955 -2.5227837e-05 -9.1251815e-05 -0.018626947 -9.078037e-05
00000000: f9e9 523d b12e 9e39 60a5 c538 6519 fe38
00000010: 6b29 c1b9 c22d d138 0bd6 b238 893e 75b9
00000020: e75c 6f3e 861d 4cb7 ccba cdb7 af4d f237
00000030: 3a69 a439 e373 54b9 d571 62be a381 5eb9
00000040: 29a4 143f 19bf 03ba d18f cabe ff1e 4e38
00000050: 04d0 113e 5240 7439 e560 c5be e4cc b63c
00000060: 6d9c a83e 1df6 a7b8 8c3d 0139 ff1f 3139
00000070: 5ea0 d3b7 725e bfb8 8a97 98bc 5761 beb8

autoencoders.1.encoder.cells.0.lstm.weight_hh f4 [32, 8]
0.000531358 0.006821428 0.00031632322 0.0003987505 0.00021540541 0.0003183643 5.8788297e-05 1.9383919e-05
0.00015678316 -5.416955e-05 -3.375114e-05 0.0001345662 -0.00014796326 0.00011751201 -7.724105e-05 -0.00014398784
0.04608075 0.07698043 -0.19359128 5.659336e-07 -0.00027591732 0.00011161974 -0.0006574047 0.00014286302
6.797326e-05 -1.6034528e-05 -8.845195e-05 5.6509856e-05 0.00016880056 0.0001355342 -0.00013340396 -0.00010205459
5.639112e-05 -2.3016955e-07 -6.583929e-05 -0.00022497245 3.177364e-05 -0.0001642814 0.00014871586 0.0001701145
-6.423873e-05 -0.0001268304 -0.00022150722 -3.6290206e-05 -0.00010233208 1.6400505e-05 0.00024552463 -0.00019837751
-0.07886876 0.054193806 -0.23464297 -0.0006279074 -0.0011162325 0.0062202136 -0.13693576 0.01606344
0.000114030074 0.0001252966 -0.0001339167 -1.5754875e-05 8.9658446e-05 1.7586499e-05 -1.1684488e-05 3.1247233e-05
0.00023812651 0.074942194 0.44683382 0.12880106 0.00056808064 -3.4200588e-05 0.00025484004 0.522302
4.236928e-05 -0.00020234905 8.8373265e-05 6.9852795e-05 -0.00015439944 0.00026073266 0.000102177204 6.226687e-05
-2.5480398e-05 7.592129e-05 -0.00037005276 0.00012621043 -0.0006210397 -4.118473e-05 5.8944897e-05 -9.64642e-05
-9.304912e-05 7.727006e-06 0.0002117236 -8.430655e-05 0.00015162278 0.00011737147 8.268931e-05 -9.214457e-05
1.3022454e-05 -8.098469e-05 4.024297e-05 -8.560989e-05 0.00022031768 0.00015577779 -0.0003472158 -0.00028806136
-9.222858e-06 -1.496442e-05 -3.981082e-05 -0.00020734887 -7.89172e-05 -4.7234993e-05 -0.00011344577 6.9530456e-06
-0.00021528239 0.16861369 0.045793522 -0.00071306434 -0.001167111 -0.00044159745 -0.0005221527 0.12639445
-1.29456e-05 -0.00019154532 0.00016951075 -0.000107327505 -8.997786e-06 -1.3261025e-05 9.289076e-05 -8.8578236e-05
-0.2556381 0.3023616 0.045566015 -0.11445623 0.008866715 -0.09843915 -0.33683503 0.14282311
0.00045185658 -0.001172804 0.004495627 0.08881707 -0.00048221473 0.15909457 -0.001195408 -0.0010237171
-0.00025086547 0.021069257 0.12387144 -0.1103606 -0.0013291453 0.20452523 0.094819665 0.023223288
0.02885143 -0.0008188409 -0.00078777934 -0.0012112142 -0.0013113049 -0.19709377 -0.0009308933 -0.0007534155
8.94362e-05 0.0007493664 0.00091785775 0.0010884762 0.0010537944 0.0011483928 -0.07960454 0.00051527465
6.6007335e-05 0.07020965 -6.758503e-05 0.00012442883 0.00040991802 -4.221164e-05 0.31550348 0.0003378137
0.07906932 0.16418272 -0.002641758 -0.00093706517 0.24679707 -0.0007210796 -0.024237812 0.47206882
-0.12855388 0.08969983 -0.00021296783 0.24488951 0.0003364359 0.16871636 0.1625954 -0.25470993
0.11254273 -2.4826852e-05 0.05189083 0.0011256083 0.00091249397 1.0243447e-05 0.5007052 0.00042272976
-7.992726e-05 -3.1138592e-05 0.023379851 -3.3932738e-05 4.2669693e-05 -1.4362414e-05 0.00014024824 3.0461308e-05
2.8669778e-05 0.19477269 -0.0005242196 3.537132e-05 0.0001667056 -0.00024863862 -4.6788064e-05 9.766121e-05
-0.00023670004 -0.00016467262 2.68682e-05 -0.0001619187 6.425394e-05 -0.00018858649 9.788789e-05 7.4661686e-05
-9.267447e-05 -0.00015994672 -0.0007507082 -7.587732e-05 -9.5728705e-05 0.00021103384 5.556318e-05 -0.000108325046
0.00012998104 -0.00019051996 0.00010572625 8.0525555e-05 -4.4658816e-05 -0.00010819435 4.5631583e-05 4.5492983e-05
0.022989135 -0.0005525118 0.011981595 0.03860406 -0.0009826537 0.14825664 0.27989218 -0.00055031205
-0.0002665585 3.3153647e-05 3.0747357e-05 9.8426935e-05 3.9607734e-05 0.00014307776 0.00020860934 3.251022e-05
00000000: d54a 0b3a 4986 df3b 2fd8 a539 630f d139
00000010: 73de 6139 22ea a639 7493 7638 a69a a237
00000020: 2966 2439 1d34 63b8 0390 0db8 571a 0d39
00000030: 9626 1bb9 c870 f638 79fc a1b8 71fb 16b9
00000040: 2bbf 3c3d eaa7 9d3d cb3c 46be a9ea 1735
00000050: ffa8 90b9 6415 ea38 af55 2cba 80cd 1539
00000060: de8c 8e38 e381 86b7 477f b9b8 ff04 6d38
00000070: 0e00 3139 2f1e 0e39 5ae2 0bb9 2406 d6b8
00000080: 8185 6c38 8624 77b4 3313 8ab8 95e6 6bb9
00000090: b044 0538 f442 2cb9 9cf0 1b39 c360 3239
000000a0: e8b7 86b8 c7fd 04b9 6444 68b9 5036 18b8
000000b0: 1e9b d6b8 d193 8937 c2b9 8039 8f03 50b9
000000c0: f285 a1bd 53fa 5d3d 3f46 70be 279a 24ba
000000d0: 8c4e 92ba efd2 cb3b e338 0cbe 7a97 833c
000000e0: 6e23 ef38 0d62 0339 fe6b 0cb9 5629 84b7
000000f0: 0307 bc38 b886 9337 7e08 44b7 760f 0338
00000100: 99b1 7939 4b7b 993d 67c7 e43e 6de4 033e
00000110: 3feb 143a 9a72 0fb8 0d9c 8539 95b5 053f
00000120: abb5 3138 a92d 54b9 0955 b938 ef7d 9238
00000130: 49e6 21b9 f2b2 8839 f847 d638 4595 8238
00000140: bdbe d5b7 ef37 9f38 a403 c2b9 5b57 0439
00000150: 45cd 22ba c4bd 2cb8 9a3b 7738 d34c cab8
00000160: 5e23 c3b8 3da3 0137 1f02 5e39 bccd b0b8
00000170: eefc 1e39 5425 f638 7c69 ad38 bd3d c1b8
00000180: 047b 5a37 53d6 a9b8 8fca 2838 7689 b3b8
00000190: 1405 6739 4858 2339 840a b6b9 f106 97b9
000001a0: e0bb 1ab7 b20f 7bb7 8bfa 26b8 ca6b 59b9
000001b0: 5980 a5b8 301e 46b8 bce9 edb8 354e e936
000001c0: 6dbd 61b9 11a9 2c3e fd91 3b3d f0ec 3aba
000001d0: bff9 98ba 3586 e7b9 13e1 08ba 8c6d 013e
000001e0: ee30 59b7 8ed9 48b9 b2be 3139 0415 e1b8
000001f0: 32f5 16b7 ab7b 5eb7 59ce c238 14c3 b9b8
00000200: ffe2 82be 24cf 9a3e 6ea3 3a3d 0768 eabd
00000210: b345 113c 779a c9bd a475 acbe 3940 123e
00000220: 2ae7 ec39 c6b8 99ba 0d50 933b b9e5 b53d
00000230: c4d1 fcb9 b0e9 223e 3daf 9cba 3f2e 86ba
00000240: 9886 83b9 6f99 ac3c 4fb0 fd3d bd04 e2bd
00000250: b736 aeba 106f 513e d030 c23d c43e be3c
00000260: d659 ec3c 7ca7 56ba fa82 4eba 9bc1 9eba
00000270: 17e0 abba f3d2 49be 3107 74ba dc80 45ba
00000280: b28f bb38 2171 443a 649c 703a 33ab 8e3a
00000290: 791f 8a3a ab85 963a b407 a3bd 7f13 073a
000002a0: 6b6d 8a38 14ca 8f3d 70bc 8db8 1c79 0239
000002b0: 44ea d639 670c 31b8 ac89 a13e 961c b139
000002c0: 18ef a13d 841f 283e 5821 2dbb 61a5 75ba
000002d0: 5fb8 7c3e d506 3dba 608e c6bc 01b3 f13e
000002e0: a1a3 03be 8bb4 b73d 1e50 5fb9 51c4 7a3e
000002f0: aa63 b039 fbc3 2c3e 697f 263e 5769 82be
00000300: ce7c e63d 4243 d0b7 7b8b 543d 2689 933a
00000310: 6f34 6f3a 45db 2b37 372e 003f d4a1 dd39
00000320: 9f9e a7b8 cf9a 02b8 1a87 bf3c 0053 0eb8
00000330: 3cf8 3238 19f6 70b7 9a0f 1339 2987 ff37
00000340: e17f f037 7e72 473e c86b 09ba aa5b 1438
00000350: b2cd 2e39 b65b 82b9 4d3e 44b8 76cf cc38
00000360: af32 78b9 f8ab 2cb9 0563 e137 b8c8 29b9
00000370: 12c0 8638 4dbf 45b9 2949 cd38 b093 9c38
00000380: 3a5a c2b8 5fb7 27b9 2dcb 44ba 5320 9fb8
00000390: f5c1 c8b8 f748 5d39 830c 6938 912c e3b8
000003a0: 854b 0839 50c6 47b9 59b9 dd38 d4df a838
000003b0: 0a50 3bb8 66e6 e2b8 8a64 3f38 b8cf 3e38
000003c0: b653 bc3c 70d6 10ba 744e 443c 4a1f 1e3d
000003d0: 63cc 80ba 97d0 173e 074e 8f3e d142 10ba
000003e0: e0c0 8bb9 750e 0b38 b9f6 0038 8f6a ce38
000003f0: 7b20 2638 2507 1639 25be 5a39 955b 0838

autoencoders.1.encoder.cells.0.lstm.bias_ih f4 [32]
0.21327633 -6.124403e-06 -0.00084956386 -0.000119030694 0.0002170465 6.373759e-05 0.06254127 0.00013153761
0.00029128417 7.173119e-05 -0.00075216126 -0.00012260512 0.000121358615 8.884546e-05 0.00563709 0.00017078259
0.0679278 0.018747238 0.09619146 -0.0005403389 0.00041810368 0.050927952 0.06770215 -0.00021693036
0.19089985 1.8003047e-05 -0.00064416305 4.8431906e-05 0.00012486613 -4.1034044e-05 0.06341827 1.8302533e-05
00000000: 1c65 5a3e 3980 cdb6 44b5 5eba 1ea0 f9b8
00000010: fa96 6339 dcaa 8538 a315 803d 5ced 0939
00000020: 80b7 9839 646e 9638 b02c 45ba 908f 00b9
00000030: e981 fe38 8b52 ba38 57b7 b83b 1a14 3339
00000040: bb1d 8b3d cf93 993c 0700 c53d 88a5 0dba
00000050: ed34 db39 d499 503d 6da7 8a3d cd77 63b9
00000060: 407b 433e 4005 9737 0ddd 28ba 5d23 4b38
00000070: 7fee 0239 f81b 2cb8 70e1 813d 6488 9937

autoencoders.1.encoder.cells.0.lstm.bias_hh f4 [32]
0.21327633 -6.124403e-06 -0.00084956386 -0.000119030694 0.0002170465 6.373759e-05 0.06254127 0.00013153761
0.00029128417 7.173119e-05 -0.00075216126 -0.00012260512 0.000121358615 8.884546e-05 0.00563709 0.00017078259
0.0679278 0.018747238 0.09619146 -0.0005403389 0.00041810368 0.050927952 0.06770215 -0.00021693036
0.19089985 1.8003047e-05 -0.00064416305 4.8431906e-05 0.00012486613 -4.1034044e-05 0.06341827 1.8302533e-05
00000000: 1c65 5a3e 3980 cdb6 44b5 5eba 1ea0 f9b8
00000010: fa96 6339 dcaa 8538 a315 803d 5ced 0939
00000020: 80b7 9839 646e 9638 b02c 45ba 908f 00b9
00000030: e981 fe38 8b52 ba38 57b7 b83b 1a14 3339
00000040: bb1d 8b3d cf93 993c 0700 c53d 88a5 0dba
00000050: ed34 db39 d499 503d 6da7 8a3d cd77 63b9
00000060: 407b 433e 4005 9737 0ddd 28ba 5d23 4b38
00000070: 7fee 0239 f81b 2cb8 70e1 813d 6488 9937

autoencoders.1.decoder.cells.0.weight_h_2 f4 [8, 8]
0.00078414625 0.06676445 0.43669775 0.0010416001 -0.67353976 -0.00036367448 0.29656819 0.03801938
-0.00041251833 0.11121764 0.6826034 0.73121256 -0.06818472 0.2658202 -0.080167845 0.19914222
-0.006604509 0.33370584 -0.2480959 -0.28671226 -0.090263955 -0.0002058194 0.00057685917 -0.11325139
-0.22100657 -0.19637683 0.0011785998 0.050646704 -0.42202097 -0.22667557 0.00032908205 -0.06058093
-0.2524736 -0.058993176 -0.00010292357 0.0011942164 -0.00030517968 0.11786683 -0.4447084 0.054265827
-0.23321567 -0.81902075 0.15034282 -0.032503147 0.045289565 0.7176653 0.15885285 0.098961905
-0.16690238 -0.09593841 0.029004069 0.0007583345 -0.15663575 0.29632655 -0.5021946 0.030245787
-0.2309752 -0.124217734 0.00021570348 0.0028771192 -0.0025361392 -0.06610284 0.025974667 -0.097191125
00000000: 2a8f 4d3a cdbb 883d d996 df3e 4d86 883a
00000010: 1a6d 2cbf 90ab beb9 c9d7 973e 36ba 1b3d
00000020: 4647 d8b9 13c6 e33d 19bf 2e3f bf30 3b3f
00000030: 6ea4 8bbd 9619 883e 0a2f a4bd f0eb 4b3e
00000040: a36a d8bb 7edb aa3e da0c 7ebe f3cb 92be
00000050: 4fdc b8bd 39d1 57b9 5d38 173a 58f0 e7bd
00000060: 8c4f 62be 0217 49be 3f7b 9a3a eb72 4f3d
00000070: 2213 d8be a41d 68be a588 ac39 b623 78bd
00000080: 3844 81be d4a2 71bd acd8 d7b8 4187 9c3a
00000090: 8600 a0b9 2a64 f13d d2b0 e3be d845 5e3d
000000a0: 17d0 6ebe 58ab 51bf 78f3 193e 0522 05bd
000000b0: 8d81 393d eab8 373f 52aa 223e 8aac ca3d
000000c0: 75e8 2abe 5b7b c4bd f199 ed3c f8ca 463a
000000d0: 1f65 20be 1db8 973e d38f 00bf 03c6 f73c
000000e0: c384 6cbe de65 febd 762e 6239 0d8e 3c3b
000000f0: 5b35 26bb ed60 87bd d3c8 d43c 240c c7bd

autoencoders.1.decoder.cells.0.bias_h_2 f4 [8]
-0.14236322 -0.16689253 -0.0071645724 -0.03083066 -0.07972426 -0.0009412603 -0.07341356 -0.070496105
00000000: aac7 11be e0e5 2abe cac4 eabb 9590 fcbc
00000010: 7946 a3bd e9be 76ba d959 96bd 4360 90bd

autoencoders.1.decoder.cells.0.lstm.weight_ih f4 [32, 9]
0.47602475 0.14601909 8.0639824e-05 0.00984507 0.0011050943 0.00092041166 6.429935e-05 0.059725396
0.00016991976 0.22706501 0.3957066 0.087621935 0.14101686 0.075184695 0.29339856 0.22739671
0.09063542 0.16330746 0.10386722 3.5481255e-05 -0.00017522603 7.944258e-05 7.8617755e-05 0.00025614578
-6.8092064e-05 1.2662698e-05 0.00031097137 0.15677324 7.652004e-05 -0.00013101118 0.0009495924 9.053156e-05
-2.074737e-05 -2.6642187e-05 0.00031404317 -4.5065775e-05 0.0018524826 0.0004902754 0.0005291139 0.06841651
-1.1420796e-05 0.0006540042 0.000801635 0.00066033145 0.030663678 -2.2910226e-05 0.00012682044 0.00015071183
4.868814e-05 1.1178076e-05 3.9841405e-05 3.678717e-05 0.00015761044 0.00011869196 0.18458775 4.2666565e-05
0.00016284095 0.08670174 0.054250903 0.0006530266 0.21110769 0.25233576 0.023766708 0.13947001
0.00093965227 0.27624154 0.0011841811 0.0013824198 0.0015867937 0.0011652448 0.06102191 -0.00016143567
0.13851175 -0.00018322954 0.028938552 -0.0012444828 0.13927384 -0.0018627371 -0.0011108154 -0.092302196
-0.010020688 0.45074573 -0.00024440608 0.27061012 0.30608737 0.19894478 -0.25159976 0.031755682
0.11171549 -0.17707297 0.13953942 0.17699394 -3.1757874e-05 -0.00012005078 0.0007324778 0.00055655173
0.00015606005 0.00034980994 0.00017413893 0.24877277 6.363846e-05 -0.000119107266 0.0003970453 -0.000103843784
0.0006893253 0.0008748681 0.000669061 -0.00018398471 0.16301893 0.24494223 0.00023288197 0.2191848
-6.884198e-05 -4.806228e-05 0.00017487792 0.107650965 0.00022063436 -2.6973832e-05 0.03593653 -0.00011813888
8.754323e-05 1.9633155e-05 0.00015334017 0.22138458 9.354466e-05 4.81542e-06 -0.064982675 0.15803726
0.022594826 0.27683333 -0.0010936664 -0.15317838 -0.09066687 -0.042911213 0.09895987 0.36715835
-0.13060907 0.00047709394 -0.06598057 0.0009788707 0.00072817295 0.10319971 0.0006594493 0.0003426826
0.492899 0.14385298 0.11993995 -0.25582507 0.30109084 0.41371882 -0.079745784 -0.09573422
-0.0031955426 0.61604387 0.29072967 -0.38666445 -0.09037319 -0.19998078 0.009942622 0.021762267
-0.07083416 -0.08163629 0.6433045 -6.8511385e-05 0.07689003 0.09958003 0.009002451 0.002668508
0.056428753 -0.0683252 -0.026716087 0.38010645 0.27358738 -0.2597649 -0.15475592 -0.00024188805
0.0076772436 0.00040239914 -0.06922303 -0.07767237 -0.33601215 -0.38554585 -0.064416364 0.1182139
0.11841805 -0.020532371 -0.0008900198 -0.085319914 0.31120634 -0.3640035 -0.062489353 -0.025600681
0.009598879 0.17592834 -0.09250537 -0.1284332 -0.15341382 0.33969274 0.5666494 -0.039453454
0.24344581 -0.17526028 0.10848854 -0.012111681 0.0033743754 -0.4328098 0.33048064 0.29701784
0.07126616 -0.024870733 0.14258508 -0.024853721 0.0053374036 0.2641933 0.26002026 -0.19508922
0.07584335 0.02677718 5.043842e-06 0.11548679 0.00046539752 -0.0032041857 0.29278848 0.15555061
-2.24712e-05 0.08547797 0.48307887 0.39804402 0.10863384 0.0002297386 0.18809257 0.32030645
0.11552096 0.020736001 -0.05205746 0.29010472 -0.00013132788 -0.000243398 0.00014061997 0.00047045384
0.00023785412 0.049633328 -4.301375e-05 0.4415858 0.0011460553 -0.00011607441 0.00020762469 2.6384192e-05
0.00049049745 7.843033e-05 -4.578807e-05 -0.00023952685 0.23322384 0.06331677 0.00017729156 0.21891055
00000000: 84b9 f33e 0786 153e 2d1d a938 374d 213c
00000010: d0d8 903a c847 713a 73d8 8638 9ea2 743d
00000020: 7d2c 3239 bb83 683e 0e9a ca3e 2173 b33d
00000030: b966 103e 6ffa 993d 5638 963e afda 683e
00000040: 109f b93d 123a 273e 56b8 d43d b5d1 1438
00000050: e1bc 37b9 699a a638 96df a438 4e4b 8639
00000060: a6cc 8eb8 e071 5437 df09 a339 2a89 203e
00000070: 6279 a038 0c60 09b9 11ee 783a c3db bd38
00000080: a30a aeb7 a97d dfb7 29a6 a439 0205 3db8
00000090: 00cf f23a d385 003a 3cb4 0a3a f51d 8c3d
000000a0: f29b 3fb7 7b71 2b3a d024 523a 181a 2d3a
000000b0: 6532 fb3c 562f c0b7 1afb 0439 6608 1e39
000000c0: 7e36 4c38 7989 3b37 621b 2738 ec4b 1a38
000000d0: 3b44 2539 43ea f838 9204 3d3e e0f4 3238
000000e0: 49c0 2a39 af90 b13d 3236 5e3d e02f 2b3a
000000f0: 9d2c 583e 2732 813e 66b2 c23c 3ad1 0e3e
00000100: ff52 763a 886f 8d3e 8636 9b3a 5032 b53a
00000110: f6fb cf3a 21bb 983a 1cf2 793d 0f47 29b9
00000120: 06d6 0d3e 4e21 40b9 8b10 ed3c ea1d a3ba
00000130: cd9d 0e3e 1627 f4ba c898 91ba ef08 bdbd
00000140: d02d 24bc 25c8 e63e a123 80b9 698d 8a3e
00000150: 7cb7 9c3e 2eb8 4b3e afd1 80be 3f12 023d
00000160: 17cb e43d 9e52 35be 6ce3 0e3e e63d 353e
00000170: c233 05b8 c6c3 fbb8 c103 403a 8ee5 113a
00000180: 0da4 2339 b266 b739 1099 3639 4abe 7e3e
00000190: a375 8538 3ac9 f9b8 852a d039 b5c6 d9b8
000001a0: d6b3 343a 6857 653a ec63 2f3a 05ec 40b9
000001b0: 6fee 263e 23d2 7a3e c731 7439 fb71 603e
000001c0: 425f 90b8 7b96 49b8 6f5f 3739 1c78 dc3d
000001d0: 165a 6739 dd45 e2b7 2f32 133d 54c1 f7b8
000001e0: 6a97 b738 e1b1 a437 f0c9 2039 a4b2 623e
000001f0: 682d c438 2594 a136 a315 85bd 85d4 213e
00000200: c918 b93c 19bd 8d3e 5b59 8fba cbda 1cbe
00000210: 8daf b9bd abc3 2fbd 79ab ca3d 2efc bb3e
00000220: 62be 05be 7722 fa39 d220 87bd 734d 803a
00000230: dce2 3e3a 5f5a d33d e5de 2c3a 14aa b339
00000240: 425d fc3e 324e 133e 14a3 f53d 81fb 82be
00000250: 9428 9a3e f4d2 d33e c251 a3bd 4e10 c4bd
00000260: 4f6c 51bb 0db5 1d3f 85da 943e e2f8 c5be
00000270: 9415 b9bd c3c7 4cbe 61e6 223c c846 b23c
00000280: 8011 91bd ed30 a7bd 9baf 243f c5ad 8fb8
00000290: 8578 9d3d 9df0 cb3d 047f 133c 23e2 2e3b
000002a0: d621 673d 15ee 8bbd b2db dabc 509d c23e
000002b0: a513 8c3e e8ff 84be 5678 1ebe 54a3 7db9
000002c0: 6391 fb3b 19f9 d239 cec4 8dbd b112 9fbd
000002d0: c909 acbe 4466 c5be baec 83bd 211a f23d
000002e0: 2a85 f23d 8133 a8bc 3850 69ba 35bc aebd
000002f0: 7056 9f3e ab5e babe d6f4 7fbd 85b8 d1bc
00000300: 9e44 1d3c 8f26 343e 7573 bdbd fe83 03be
00000310: 8318 1dbe 35ec ad3e ef0f 113f f299 21bd
00000320: dc49 793e 6e77 33be 3d2f de3d 1270 46bc
00000330: a024 5d3b 3f99 ddbe c234 a93e b912 983e
00000340: fef3 913d b5bd cbbc d301 123e 089a cbbc
00000350: 63e5 ae3b 5844 873e 6021 853e 78c5 47be
00000360: c253 9b3d d15b db3c 463e a936 5784 ec3d
00000370: 9900 f439 51fd 51bb 5fe8 953e a948 1f3e
00000380: 8980 bcb7 130f af3d 1d56 f73e 6dcc cb3e
00000390: 6b7b de3d fce5 7039 579b 403e 35ff a33e
000003a0: 4196 ec3d 8cde a93c 343a 55bd 9b88 943e
000003b0: 0fb5 09b9 a738 7fb9 6373 1339 3fa7 f639
000003c0: 7b68 7939 514c 4b3d aa69 34b8 8917 e23e
000003d0: 3c37 963a f96c f3b8 d4b5 5939 9f53 dd37
000003e0: ba94 003a f67a a438 910c 40b8 8029 7bb9
000003f0: 3bd2 6e3e 39ac 813d 57e7 3939 162a 603e
