results/H2_Residual/machine_temperature_system_failure/ensemble_autoencoder_weights.pth (torch, 104226 bytes, 170 tensors)

autoencoders.0.encoder.cells.0.weight_h_2 f4 [8, 8]
0	0x3bd2d7ce	0.0064344173
1	0x38f55eaa	0.00011700143
2	0xb8693430	-5.5600132e-05
3	0xb5d520bf	-1.5879267e-06
4	0xb8e91a91	-0.00011115254
5	0xbded8a58	-0.115986526
6	0xb55e176f	-8.2735545e-07
7	0x39c1ef65	0.0003699019
8	0xbeabddc2	-0.33567625
9	0x36929d8b	4.3694795e-06
10	0xb9750a01	-0.00023368747
11	0xbdacd378	-0.08438772
12	0x365458cf	3.1642155e-06
13	0xb880d240	-6.142678e-05
14	0xb6c5b755	-5.8924e-06
15	0x3a04881d	0.0005055683
16	0x382a8b21	4.0660732e-05
17	0x37e09479	2.6772019e-05
18	0x3d6464e9	0.055760298
19	0xb981bf63	-0.00024747392
20	0xb986364b	-0.00025598923
21	0xb8fc94f1	-0.00012044039
22	0x38ac7917	8.224154e-05
23	0xb7f7e2c9	-2.95503e-05
24	0xb898a0bf	-7.277866e-05
25	0xb9dab2ca	-0.00041713408
26	0x39aa60ae	0.0003249696
27	0x38878c29	6.4634085e-05
28	0xb944780e	-0.0001873674
29	0x39222397	0.00015462782
30	0x375da7a8	1.3211662e-05
31	0xb809290a	-3.2701566e-05
32	0x3e502ec4	0.2033034
33	0xb8e31a35	-0.00010829085
34	0x3eb6878c	0.3565029
35	0xb8eef9d7	-0.00011395261
36	0x3daa37b8	0.08311409
37	0xb9364a54	-0.00017384562
38	0x39b71edc	0.00034927472
39	0x388e2dbd	6.779607e-05
40	0x385910e1	5.175255e-05
41	0xb88a50c8	-6.5953995e-05
42	0xb908c85a	-0.00013044607
43	0xbb319415	-0.002709632
44	0xb930de88	-0.00016867567
45	0x3820de42	3.8353966e-05
46	0xb901c631	-0.00012376231
47	0x394e0295	0.00019646653
48	0xb8b59939	-8.6592925e-05
49	0x3956ca2a	0.00020483942
50	0x3940a8d7	0.00018373445
51	0x383ee3f7	4.551184e-05
52	0x38cecdb8	9.8611636e-05
53	0x3841a7e5	4.617115e-05
54	0x3901a9c8	0.00012365647
55	0xb995e63f	-0.0002859104
56	0xb865a3d3	-5.4750428e-05
57	0xb96d78a6	-0.00022647026
58	0x379c21fa	1.861247e-05
59	0xbddc6340	-0.10761118
60	0x3e0faf24	0.14031655
61	0xb9a1aa74	-0.0003083531
62	0x3a5dae7b	0.00084564806
63	0x39062cae	0.0001279588

autoencoders.0.encoder.cells.0.bias_h_2 f4 [8]
0	0x00000000	0.0
1	0x00000000	0.0
2	0x00000000	0.0
3	0x00000000	0.0
4	0x00000000	0.0
5	0x00000000	0.0
6	0x00000000	0.0
7	0x00000000	0.0

autoencoders.0.encoder.cells.0.lstm.weight_ih f4 [32, 1]
0	0x389e780f	7.55639e-05
1	0x378fe021	1.7151297e-05
2	0xb7f6b5cc	-2.9410141e-05
3	0x390645b1	0.00012805198
4	0x3922e97e	0.00015536507
5	0xba0b5849	-0.0005315585
6	0x36e4f733	6.8237073e-06
7	0x3721b496	9.638394e-06
8	0xb7b3c4ab	-2.1430043e-05
9	0xb83a897a	-4.447389e-05
10	0x39132e69	0.00014036302
11	0xb88367a5	-6.265872e-05
12	0x3e63a7bc	0.22231954
13	0x391c58ff	0.00014910473
14	0x399941f7	0.00029231582
15	0x3cb3b06e	0.021934714
16	0xb8763c0f	-5.8706904e-05
17	0xb6d6e420	-6.4042542e-06
18	0x394f216e	0.00019753512
19	0x390b5108	0.0001328626
20	0x398afb7d	0.00026508785
21	0x3995e4f8	0.0002859009
22	0x3949ef4c	0.00019257999
23	0xb78ecd9e	-1.7023467e-05
24	0x38370258	4.3632783e-05
25	0x3931421f	0.00016904667
26	0x3875d3c8	5.860979e-05
27	0x3895193d	7.109575e-05
28	0x39485f5d	0.00019109012
29	0x3d10fee4	0.035399333
30	0xb90431ba	-0.00012607026
31	0xb9517b4e	-0.00019977728

autoencoders.0.encoder.cells.0.lstm.weight_hh f4 [32, 8]
0	0xb9616d89	-0.00021498477
1	0x39a7f0c1	0.00032032098
2	0xb9a97ff4	-0.00032329524
3	0xb90d1182	-0.0001345333
4	0x37d563b6	2.543801e-05
5	0x38de7c85	0.000106089785
6	0x37263208	9.90602e-06
7	0xb94029cb	-0.00018326116
8	0xb9572fb2	-0.00020521766
9	0x398e8221	0.00027181304
10	0x393d742f	0.00018067726
11	0xb94009e0	-0.00018314226
12	0xb8facb03	-0.00011958743
13	0x39dd5743	0.0004221742
14	0x3972bf39	0.00023150154
15	0x3994d8b6	0.00028390222
16	0x38cc31b3	9.736735e-05
17	0x39001882	0.00012216161
18	0xb8f47ef7	-0.00011658476
19	0x3935b210	0.00017327839
20	0xb85addb8	-5.2181742e-05
21	0xb9662c2d	-0.00021950966
22	0x3882d29a	6.238111e-05
23	0x38808b5a	6.129472e-05
24	0x39951c38	0.0002844052
25	0x38f8585c	0.0001184202
26	0xb9ae76e0	-0.00033276435
27	0x37de98d6	2.6535632e-05
28	0x37c8f4e3	2.3955892e-05
29	0xb920ee7d	-0.00015347633
30	0x384e2841	4.9151717e-05
31	0x3934b1e1	0.00017232403
32	0xb959e6c1	-0.00020780695
33	0x39e1f357	0.00043096647
34	0x38cca78b	9.758685e-05
35	0xb84e866d	-4.923942e-05
36	0x38cd08b7	9.776785e-05
37	0x384147b8	4.608158e-05
38	0xb8ee5e3c	-0.00011366277
39	0xb823e21a	-3.9072802e-05
40	0xb8bb6fa9	-8.937653e-05
41	0x37c74c30	2.3758126e-05
42	0x38644046	5.4419295e-05
43	0x38c17e63	9.2264985e-05
44	0xb8f79f9d	-0.00011807608
45	0xb5382880	-6.8604277e-07
46	0x3829244a	4.0326537e-05
47	0x38b20858	8.4892556e-05
48	0x38a97ea7	8.082139e-05
49	0x3989e47c	0.0002630091
50	0xb7f8b895	-2.9649857e-05
51	0xb7bdb21c	-2.2613494e-05
52	0x3917816f	0.000144487
53	0x38286183	4.0145136e-05
54	0xb923b151	-0.00015610947
55	0xb87f0059	-6.079706e-05
56	0x3935ed68	0.00017349946
57	0xb893e39a	-7.0519e-05
58	0xb96d33d8	-0.00022621395
59	0x3910feca	0.00013827826
60	0x391bbc29	0.00014852047
61	0xb8a46491	-7.838861e-05
62	0xb8c790bf	-9.5160205e-05
63	0xb984eca7	-0.00025353322
64	0x374c069d	1.2160887e-05
65	0xb826c85d	-3.9764087e-05
66	0x3916b951	0.0001437415
67	0x38755607	5.849267e-05
68	0xb90b8ef1	-0.00013309323
69	0xb901b59b	-0.00012370052
70	0x375f0f50	1.3295401e-05
71	0x39079d9f	0.00012933322
72	0xb8e488ca	-0.00010897366
73	0xb9a75f99	-0.00031923948
74	0xb7f02c93	-2.8630986e-05
75	0xb9d46cb4	-0.0004051678
76	0xb98ddef2	-0.00027059723
77	0x3819078d	3.6485075e-05
78	0x39044b3e	0.00012616531
79	0x39d23bd5	0.000400989
80	0x3912cdd9	0.00014000329
81	0x39109f54	0.00013792265
82	0x38d31ae8	0.00010066276
83	0x38a4563e	7.836193e-05
84	0xb88389a3	-6.2722036e-05
85	0xb8f38286	-0.00011611455
86	0xb84e0833	-4.9121863e-05
87	0xb743c0fd	-1.1667839e-05
88	0xb739a9ac	-1.1066364e-05
89	0xb790840a	-1.7227623e-05
90	0x394007b0	0.0001831341
91	0x386a8f09	5.592316e-05
92	0x397889ce	0.0002370246
93	0x394b07f9	0.00019362559
94	0xb91f842c	-0.0001521266
95	0x39d3e3dd	0.00040414828
96	0x39bced7a	0.00036035088
97	0xb81b222c	-3.6986705e-05
98	0x39335402	0.00017102066
99	0xb9e1eb2b	-0.00043090558
100	0x393699a0	0.00017414102
101	0x38a45cce	7.8374156e-05
102	0x391db735	0.00015040937
103	0x3d8bc740	0.06825113
104	0x3991588a	0.00027722522
105	0xb918c844	-0.00014570454
106	0xb9685775	-0.00022157824
107	0x3864f635	5.4588734e-05
108	0x380da4a1	3.3770342e-05
109	0x39ebf902	0.00045008218
110	0xb983dea6	-0.00025152153
111	0xb822c678	-3.880865e-05
112	0xb81aa75e	-3.6872334e-05
113	0xb806afa8	-3.2111682e-05
114	0xb9440361	-0.00018693275
115	0x37d93a53	2.5895575e-05
116	0xb8bc2a9a	-8.972474e-05
117	0x39329413	0.00017030565
118	0xb9568b33	-0.00020460486
119	0x39535f79	0.00020158094
120	0xb7027bd2	-7.777433e-06
121	0x36c019ec	5.7250636e-06
122	0xb92cc720	-0.00016477378
123	0xb90213c5	-0.00012405131
124	0xb8a87986	-8.0335e-05
125	0x37f9c009	2.9772536e-05
126	0x37a39b7d	1.9503519e-05
127	0x389624be	7.159401e-05
128	0x396a42a8	0.0002234081
129	0xb9e5ff58	-0.0004386853
130	0x38c5ebad	9.43759e-05
131	0xb88e25ec	-6.778151e-05
132	0xb8eca2a9	-0.00011283655
133	0xb73fb208	-1.1425938e-05
134	0xb8f690e5	-0.00011757183
135	0x371209a1	8.70452e-06
136	0x3991f4ef	0.00027839045
137	0xb9457d01	-0.00018833952
138	0xb889cd97	-6.570963e-05
139	0x394370e8	0.0001863871
140	0xb8ea3244	-0.00011167352
141	0xb6857d4c	-3.9782954e-06
142	0xb9473cd8	-0.00019000785
143	0xb828b1df	-4.0219977e-05
144	0xb9096386	-0.00013102414
145	0xb936fc4c	-0.0001745086
146	0xb8e34f29	-0.00010838948
147	0xb9e43297	-0.0004352524
148	0x387fc92f	6.0984104e-05
149	0x3a002653	0.0004888523
150	0xb8812e57	-6.159831e-05
151	0x3987664b	0.0002582542
152	0xb95a9f13	-0.0002084936
153	0x3962301a	0.00021570959
154	0xb921798b	-0.00015399435
155	0x3901178b	0.00012311169
156	0xb99da071	-0.00030064912
157	0x393b786d	0.00017878572
158	0xb98d4c24	-0.00026950345
159	0x3875e383	5.862444e-05
160	0x37988544	1.8181869e-05
161	0xb9036dc8	-0.0001253403
162	0xb994b5e7	-0.00028364288
163	0x3892a462	6.992441e-05
164	0x38105344	3.4409823e-05
165	0xb9e3d391	-0.00043454443
166	0xb90e9288	-0.00013596762
167	0x390bacae	0.00013320401
168	0x37bc3eb2	2.2440541e-05
169	0xb8fc1a8c	-0.00012021241
170	0xb7d2865c	-2.5096517e-05
171	0x39749cf2	0.0002332812
172	0x381a005e	3.6716803e-05
173	0xb97dfc62	-0.0002422198
174	0xb95c8521	-0.0002103043
175	0x39d49ac6	0.00040551106
176	0x37cc376e	2.4344507e-05
177	0xb8dc5828	-0.00010506838
178	0xb8ffd4ff	-0.00012199021
179	0x395cad6b	0.00021045438
180	0xb9301c05	-0.00016795106
181	0xb9060189	-0.00012779808
182	0x37bcaca6	2.2491742e-05
183	0xb8bff17b	-9.152569e-05
184	0xbddb5740	-0.10710001
185	0x3865ac51	5.4758337e-05
186	0xb9284c6b	-0.00016050196
187	0x386240b7	5.394287e-05
188	0x38a3e25c	7.8146084e-05
189	0xb9048179	-0.00012636733
190	0xbd622818	-0.055214018
191	0xb8aa8979	-8.131838e-05
192	0x38f3d218	0.00011626276
193	0xb912e544	-0.00014009053
194	0x390667b8	0.00012817874
195	0xb889badd	-6.567475e-05
196	0x39f2ed76	0.0004633476
197	0x38a3a4a7	7.8031146e-05
198	0xb8d15413	-9.981557e-05
199	0x38323a03	4.2492535e-05
200	0x39ae478b	0.0003324117
201	0xb876c519	-5.8834532e-05
202	0xb9b24d50	-0.00034008408
203	0xb88a4550	-6.593263e-05
204	0x3997ad11	0.0002892991
205	0x38f4af14	0.000116674375
206	0xb83f2446	-4.557173e-05
207	0x38c9f625	9.630275e-05
208	0xb8f59655	-0.00011710512
209	0xb8fadb38	-0.000119617616
210	0xb940fd32	-0.0001840487
211	0x38c8df37	9.57832e-05
212	0xb9265e13	-0.00015866039
213	0x390d6608	0.00013484817
214	0xbc331ab5	-0.01093166
215	0x37a0de83	1.9177101e-05
216	0xb9a3188c	-0.00031108072
217	0x39d00e2e	0.00039683416
218	0x382c2cf4	4.104986e-05
219	0x38901756	6.870802e-05
220	0x3d52f765	0.051505465
221	0xbcf0fbbc	-0.029416911
222	0xb874864f	-5.8299218e-05
223	0xb8b6fd44	-8.725611e-05
224	0x38984068	7.2599214e-05
225	0xb80aafc9	-3.3065477e-05
226	0x37cc8deb	2.438478e-05
227	0xb94d2b37	-0.00019566422
228	0xb7640b7b	-1.3592532e-05
229	0x394c4a0b	0.00019482539
230	0xb8c0d29c	-9.1945025e-05
231	0x3d9be510	0.076120496
232	0xb9f4a684	-0.0004666337
233	0x38541eb5	5.0573337e-05
234	0xb92ceb58	-0.0001649087
235	0x39972a64	0.00028832548
236	0xb950b3d2	-0.00019903414
237	0xb909c84e	-0.00013139957
238	0xb90d49b4	-0.00013474264
239	0xb72f69fc	-1.0455489e-05
240	0xb9b380e2	-0.00034237566
241	0x385fd40c	5.3364827e-05
242	0xb9aee4c5	-0.00033358313
243	0x3906cb0a	0.00012854874
244	0xb958c0e8	-0.00020671228
245	0x39220fe8	0.0001545545
246	0x36b47750	5.378308e-06
247	0xb5f5c1ce	-1.8310327e-06
248	0xb963f169	-0.0002173834
249	0x3763ae25	1.3570801e-05
250	0x37f68034	2.9385184e-05
251	0x3972049b	0.00023080634
252	0xb800f5f6	-3.0746647e-05
253	0xb95924bb	-0.00020708416
254	0xb9204ed5	-0.00015288156
255	0x36b4b514	5.3854983e-06

autoencoders.0.encoder.cells.0.lstm.bias_ih f4 [32]
0	0x00000000	0.0
1	0x00000000	0.0
2	0x00000000	0.0
3	0x00000000	0.0
4	0x00000000	0.0
5	0x00000000	0.0
6	0x00000000	0.0
7	0x00000000	0.0
8	0x00000000	0.0
9	0x00000000	0.0
10	0x00000000	0.0
11	0x00000000	0.0
12	0x00000000	0.0
13	0x00000000	0.0
14	0x00000000	0.0
15	0x00000000	0.0
16	0x00000000	0.0
17	0x00000000	0.0
18	0x00000000	0.0
19	0x00000000	0.0
20	0x00000000	0.0
21	0x00000000	0.0
22	0x00000000	0.0
23	0x00000000	0.0
24	0x00000000	0.0
25	0x00000000	0.0
26	0x00000000	0.0
27	0x00000000	0.0
28	0x00000000	0.0
29	0x00000000	0.0
30	0x00000000	0.0
31	0x00000000	0.0

autoencoders.0.encoder.cells.0.lstm.bias_hh f4 [32]
0	0x00000000	0.0
1	0x00000000	0.0
2	0x00000000	0.0
3	0x00000000	0.0
4	0x00000000	0.0
5	0x00000000	0.0
6	0x00000000	0.0
7	0x00000000	0.0
8	0x00000000	0.0
9	0x00000000	0.0
10	0x00000000	0.0
11	0x00000000	0.0
12	0x00000000	0.0
13	0x00000000	0.0
14	0x00000000	0.0
15	0x00000000	0.0
16	0x00000000	0.0
17	0x00000000	0.0
18	0x00000000	0.0
19	0x00000000	0.0
20	0x00000000	0.0
21	0x00000000	0.0
22	0x00000000	0.0
23	0x00000000	0.0
24	0x00000000	0.0
25	0x00000000	0.0
26	0x00000000	0.0
27	0x00000000	0.0
28	0x00000000	0.0
29	0x00000000	0.0
30	0x00000000	0.0
31	0x00000000	0.0

autoencoders.0.encoder.cells.0.cell_residual_transform.weight f4 [8, 1]
0	0x3817a455	3.615425e-05
1	0x38dc9221	0.00010517636
2	0xb5dabcd3	-1.6297221e-06
3	0x38b83343	8.783352e-05
4	0xbec4bab0	-0.3842368
5	0x3996d93e	0.00028772088
6	0x37eccb34	2.8228016e-05
7	0xb75ea78e	-1.3271243e-05

autoencoders.0.encoder.cells.0.cell_residual_transform.bias f4 [8]
0	0xbeb89b30	-0.360559
1	0xb8450167	-4.6969766e-05
2	0xb98f3436	-0.00027313986
3	0x38271293	3.98332e-05
4	0xb617a2e7	-2.2595575e-06
5	0x3ebcf340	0.36904335
6	0xbe721250	-0.23639798
7	0x3ac889fc	0.0015299912

autoencoders.0.decoder.cells.0.weight_h_2 f4 [8, 8]
0	0x3792f328	1.7517785e-05
1	0x3a9bf9b0	0.0011899974
2	0x3eddc728	0.43316007
3	0x3ee28b44	0.44246876
4	0x397e1e0b	0.0002423452
5	0x38f8de1f	0.00011866935
6	0xb92be9b5	-0.00016394893
7	0xbe05204b	-0.130006
8	0x39340dd7	0.00017171293
9	0x38bfde3d	9.148985e-05
10	0x38cd58b3	9.791683e-05
11	0x38a1ed31	7.7212586e-05
12	0x3970d40b	0.00022967176
13	0xb9e410df	-0.0004350012
14	0xb87a2024	-5.9634578e-05
15	0x38e729c8	0.00011022721
16	0x3c58a251	0.013222293
17	0x38bdaca4	9.044379e-05
18	0x3dce439a	0.10071488
19	0x3e6b8fd9	0.23004092
20	0xb92928cc	-0.00016132294
21	0x36bdc50b	5.6555778e-06
22	0xbdfa0041	-0.1220708
23	0xb89a435d	-7.3558396e-05
24	0xbe87afbe	-0.26501268
25	0x38a124e4	7.68395e-05
26	0x37f95d94	2.9726689e-05
27	0x37835f1b	1.5660704e-05
28	0xb841db69	-4.6219127e-05
29	0x39d778e0	0.00041098054
30	0xb8b2be99	-8.523203e-05
31	0xbda94a31	-0.08266104
32	0x3e3fb0f0	0.1871984
33	0xb8b4f12d	-8.627991e-05
34	0xbcdc7107	-0.026909364
35	0x39215efc	0.00015389541
36	0xbea660c3	-0.32495698
37	0xb89ba80a	-7.422276e-05
38	0xb8aa3ec9	-8.117926e-05
39	0x3971c0b9	0.00023055346
40	0xbe86bda4	-0.2631656
41	0xb90e67bc	-0.0001358082
42	0x38a6a408	7.94605e-05
43	0xb85c7e98	-5.2569987e-05
44	0x37830c76	1.562222e-05
45	0xb9a07072	-0.00030601356
46	0xbd26f28a	-0.040758647
47	0x3926fd34	0.00015925319
48	0xb8e5f896	-0.00010965874
49	0xbe0425eb	-0.1290509
50	0x390f2025	0.00013649517
51	0x3792ff42	1.752342e-05
52	0xb6277a13	-2.4955996e-06
53	0xb87b1402	-5.9861697e-05
54	0x3d875334	0.066076666
55	0x3884fc42	6.341237e-05
56	0xb8b9a026	-8.8513174e-05
57	0x38e60aeb	0.00010969288
58	0x38c7ebd5	9.5329866e-05
59	0x3dd62e06	0.10457997
60	0x39442677	0.00018706346
61	0x3d060e81	0.032728676
62	0x3e344c18	0.17607152
63	0x3d9192e6	0.07108097

autoencoders.0.decoder.cells.0.bias_h_2 f4 [8]
0	0xb91f1d7b	-0.00015174404
1	0x393a830c	0.00017787161
2	0x386e7ed6	5.6861747e-05
3	0xb91c0b76	-0.00014881589
4	0xb8d0073f	-9.9195626e-05
5	0x37bfc4b1	2.2860566e-05
6	0x38a63187	7.924722e-05
7	0x38c476ae	9.368114e-05

autoencoders.0.decoder.cells.0.lstm.weight_ih f4 [32, 1]
0	0xb8d38c79	-0.00010087429
1	0x395191ac	0.0001998606
2	0xb93d9374	-0.00018079375
3	0x3884117d	6.297508e-05
4	0x38809d5c	6.132826e-05
5	0x39100734	0.00013735594
6	0xb8704103	-5.7281006e-05
7	0x3834780a	4.302714e-05
8	0x372978d4	1.01013175e-05
9	0xb906cd15	-0.00012855635
10	0xb8255d80	-3.9426144e-05
11	0xb8ff8b0a	-0.000121852456
12	0x37f46be4	2.9137307e-05
13	0x389978ea	7.3181305e-05
14	0x39b63086	0.00034749898
15	0xb8d2e1cf	-0.000100556405
16	0x38b90d41	8.823956e-05
17	0x3864ab37	5.4518892e-05
18	0x39009c5e	0.00012265283
19	0x373d6e32	1.1290935e-05
20	0x39dcaec2	0.00042091875
21	0x37a5717b	1.9722376e-05
22	0xbdc3a8ba	-0.095536664
23	0x38d4ce74	0.00010147403
24	0x3eab0a4f	0.33406302
25	0x369d20eb	4.6827968e-06
26	0xbb2c296a	-0.0026269802
27	0x3937edf9	0.00017540892
28	0x38b40951	8.584804e-05
29	0xb7d6a466	-2.5587342e-05
30	0xb8971cb9	-7.205591e-05
31	0x3975070a	0.00023367643

autoencoders.0.decoder.cells.0.lstm.weight_hh f4 [32, 8]
0	0x3e0babc7	0.13639747
1	0x397fbc19	0.00024388767
2	0x39909b25	0.00027581412
3	0x37f5e324	2.9312047e-05
4	0x3918dd2c	0.00014578243
5	0x390bc11a	0.00013328009
6	0x3675fc31	3.665464e-06
7	0x381a5e7b	3.6804453e-05
8	0xb88d21bf	-6.7296896e-05
9	0x382a2fb9	4.0575604e-05
10	0xb941b4b6	-0.00018473234
11	0x38dcccbd	0.00010528553
12	0xb96abdf8	-0.00022386748
13	0xb9281065	-0.00016027836
14	0x388a3085	6.58939e-05
15	0x38ddb78b	0.00010572289
16	0x39373b28	0.00017474277
17	0xb86b42ba	-5.609051e-05
18	0xbd22d811	-0.03975684
19	0x368575c1	3.9774172e-06
20	0x39550ef2	0.0002031883
21	0x38f5610a	0.00011700585
22	0xb88900b9	-6.532804e-05
23	0xb8bc944e	-8.9921625e-05
24	0xbd30b62e	-0.04314249
25	0xb884c579	-6.331033e-05
26	0xb8866485	-6.408341e-05
27	0xbdd507c4	-0.10401872
28	0x3939e3c6	0.00017727827
29	0x383d79f2	4.5174682e-05
30	0xb7174d18	-9.018251e-06
31	0x38a9da99	8.099265e-05
32	0xb7c37259	-2.3299059e-05
33	0x38d179ee	9.988608e-05
34	0xb92bf2ab	-0.00016398232
35	0x37bccb20	2.2505934e-05
36	0x384dcb14	4.906494e-05
37	0x37421313	1.1567742e-05
38	0xb847787d	-4.755751e-05
39	0xb98ad6a2	-0.00026481325
40	0x3886c124	6.425593e-05
41	0xb8280dcb	-4.0067167e-05
42	0xb8d67aef	-0.00010227213
43	0xb9dcf359	-0.00042142978
44	0x3850e3cb	4.9803213e-05
45	0xb8f45322	-0.00011650311
46	0x39c6bb5c	0.00037905097
47	0x3db6339d	0.08896563
48	0xb94acb86	-0.0001934004
49	0x378db734	1.689382e-05
50	0x3dc64e4d	0.096829034
51	0x399f27dd	0.00030356544
52	0xb88f07cf	-6.820226e-05
53	0x37dfc44d	2.6675081e-05
54	0x3749d3f2	1.2029881e-05
55	0x38809737	6.1316816e-05
56	0x38627428	5.3990778e-05
57	0xb88902d3	-6.533195e-05
58	0x39d8e95c	0.00041372597
59	0xb9f63d4a	-0.0004696644
60	0xb70c9042	-8.378238e-06
61	0x39829842	0.00024908973
62	0x39081669	0.00012978319
63	0xb8691bce	-5.5577424e-05
64	0x3907b104	0.00012940547
65	0x386da538	5.6659075e-05
66	0xb7faee87	-2.9913395e-05
67	0x38e56f92	0.000109403525
68	0x38ae6b46	8.316948e-05
69	0x37b75b42	2.1857795e-05
70	0x39288a1f	0.00016073183
71	0xb82226c7	-3.8659924e-05
72	0x387fbf30	6.0974795e-05
73	0xb722d7ba	-9.70618e-06
74	0xb7cb096b	-2.4203871e-05
75	0x38bce016	9.006278e-05
76	0x390e6968	0.00013581442
77	0x374e5827	1.2299081e-05
78	0xb937a9be	-0.00017515474
79	0x387595c1	5.855202e-05
80	0x380f7e6e	3.4211604e-05
81	0x388d4fd4	6.738273e-05
82	0xb76359b2	-1.3551138e-05
83	0x394ff082	0.00019830654
84	0xb7035254	-7.827377e-06
85	0x35d7f0aa	1.6088791e-06
86	0xb95c0818	-0.0002098385
87	0x37b7a913	2.1894031e-05
88	0x39e588a5	0.00043780092
89	0x38f2d967	0.000115799536
90	0x38011b92	3.0781674e-05
91	0xb8d76de7	-0.0001027247
92	0xb7bf25bb	-2.2786544e-05
93	0x35220065	6.0350277e-07
94	0x3847ceda	4.7637943e-05
95	0xb9060b59	-0.00012783463
96	0xb5d5d3a1	-1.5931329e-06
97	0xb7086ff3	-8.132297e-06
98	0xb733b1ee	-1.0710659e-05
99	0xb8050615	-3.1715335e-05
100	0x38a3c225	7.808608e-05
101	0xb8d7fcda	-0.00010299096
102	0xb8cc91d9	-9.754644e-05
103	0x392e9278	0.00016648497
104	0x38a7a4f1	7.993903e-05
105	0x3dfee1ad	0.12445388
106	0x38d98165	0.00010371468
107	0xb8a26669	-7.743837e-05
108	0xb8824ffe	-6.213783e-05
109	0x38ffba51	0.00012194052
110	0x36ae416e	5.193221e-06
111	0x386576e0	5.4708566e-05
112	0x38aedda1	8.338248e-05
113	0x39038be3	0.00012545245
114	0xb624434f	-2.4477083e-06
115	0xb8f5e81a	-0.00011725743
116	0x38994ce3	7.30993e-05
117	0xb93d39c7	-0.00018045968
118	0x38b5d042	8.6695436e-05
119	0x36cfb76a	6.190433e-06
120	0x39a2f685	0.0003108272
121	0x396c4ac6	0.00022534569
122	0x382c802d	4.112737e-05
123	0x367fdcc5	3.8126466e-06
124	0xb98f677f	-0.00027352196
125	0x38def75c	0.00010631859
126	0xb934b31f	-0.00017232866
127	0x39d2945c	0.00040164858
128	0x39d25fca	0.0004012569
129	0xb83d22f4	-4.5093664e-05
130	0xb9ccb036	-0.000390412
131	0x3d501a0c	0.05080609
132	0x3a21cdb1	0.0006172313
133	0xb84502e2	-4.6971145e-05
134	0xb995d579	-0.00028578544
135	0xb88d843f	-6.748037e-05
136	0x38aeb0ee	8.329922e-05
137	0x38b8ce69	8.8122506e-05
138	0x39abec3b	0.00032791667
139	0xb945bec7	-0.00018858454
140	0xb89c9334	-7.4660784e-05
141	0x37851f98	1.5869547e-05
142	0xb978f31f	-0.00023741693
143	0xbce7b968	-0.02828665
144	0x3dcfdfd7	0.10150116
145	0xb9868335	-0.00025656229
146	0xb624bc72	-2.4547594e-06
147	0xbe834bca	-0.2564376
148	0x3893956f	7.0373404e-05
149	0xb8f910dd	-0.00011876386
150	0x394ba952	0.00019422665
151	0x3922f5ad	0.00015541045
152	0x39c5a1bc	0.0003769527
153	0x392be8d0	0.0001639456
154	0xb916daaa	-0.00014386573
155	0xb93a3b0c	-0.00017760339
156	0x3973691b	0.0002321344
157	0x385b31c5	5.226002e-05
158	0x3929db91	0.00016198891
159	0x39056b8f	0.00012723937
160	0x39763565	0.00023480279
161	0xb64d5967	-3.059942e-06
162	0xb8cc7c2f	-9.750609e-05
163	0x35937893	1.0987445e-06
164	0xbb2c3ab1	-0.00262801
165	0xb98f964d	-0.00027387068
166	0xb92da176	-0.00016558715
167	0x3891f0bb	6.958978e-05
168	0x3905e546	0.0001276928
169	0x391f22cf	0.00015176389
170	0xb8fec8b4	-0.00012149048
171	0xb926f1df	-0.00015921098
172	0xbb080473	-0.0020754605
173	0x39e4e60f	0.00043658956
174	0xb918fd61	-0.0001459024
175	0xb6c8c02b	-5.982836e-06
176	0x38c07438	9.176921e-05
177	0x387a46e4	5.9670667e-05
178	0x3d10a0dc	0.035309657
179	0x37fee324	3.038493e-05
180	0xb8d29c00	-0.000100426376
181	0x397d2007	0.00024139891
182	0xb92a3a01	-0.00016234072
183	0xbe37eb68	-0.17960894
184	0x3e2bfd4e	0.16795847
185	0xb8701798	-5.7242432e-05
186	0x3c53de59	0.01293143
187	0xb8c179de	-9.225657e-05
188	0xb8ec7214	-0.00011274606
189	0xb8696cc0	-5.565281e-05
190	0x38c9bdff	9.6198164e-05
191	0xb876154d	-5.867081e-05
192	0x3e666559	0.22499599
193	0xb7af4546	-2.0893884e-05
194	0x3dfc6f80	0.123259544
195	0x38d4d35c	0.000101483165
196	0xb8dd663b	-0.00010557143
197	0xbd4acff3	-0.049514722
198	0xb9038ad2	-0.00012544848
199	0xbda16692	-0.07880892
200	0xb6f29e4b	-7.2305897e-06
201	0xb6ee9811	-7.1106556e-06
202	0x388b95a7	6.6559114e-05
203	0x37c4c58f	2.3457016e-05
204	0xb8a9065b	-8.059732e-05
205	0x3861b1ee	5.380989e-05
206	0xb824db60	-3.9304956e-05
207	0x38f82094	0.0001183163
208	0xb6f2c1dc	-7.23473e-06
209	0xb983024b	-0.00024987975
210	0xb9442710	-0.00018706569
211	0x3a3bb862	0.0007160959
212	0x39165541	0.00014336874
213	0x3992a333	0.00027968883
214	0xb926c308	-0.00015903648
215	0x39150d9e	0.0001421482
216	0xb83b89f2	-4.4712746e-05
217	0xb8631904	-5.4144315e-05
218	0xb865989a	-5.4739976e-05
219	0xb8f1ce0b	-0.00011530154
220	0xb81179e8	-3.4684228e-05
221	0x39449731	0.0001874834
222	0x390e5020	0.00013572024
223	0x37ee2a08	2.8391383e-05
224	0xb930b9f2	-0.00016853938
225	0xb8186dac	-3.6341764e-05
226	0xb968703e	-0.00022167058
227	0x3926b532	0.00015898494
228	0xb72f60c7	-1.0453346e-05
229	0x390426c0	0.00012602936
230	0xb6db64b6	-6.538433e-06
231	0xb891c8d6	-6.9515474e-05
232	0xb890290a	-6.874099e-05
233	0x3998bf89	0.00029134404
234	0xb7b00b8b	-2.098621e-05
235	0xb9012e14	-0.00012319564
236	0xb94f305b	-0.00019759072
237	0xb883508a	-6.261568e-05
238	0x37f8ee35	2.9674828e-05
239	0x39e05544	0.00042788137
240	0xb8c971a8	-9.605597e-05
241	0xb6e67eb0	-6.8692825e-06
242	0xbad37f1a	-0.0016135902
243	0xb947f32c	-0.00019068707
244	0x387b6b1f	5.9942828e-05
245	0x398b92fe	0.00026621664
246	0xb809bf9c	-3.2841795e-05
247	0x39af58f7	0.00033444885
248	0x38d75550	0.000102678896
249	0xb7fc8d02	-3.0106403e-05
250	0xb83b5ffd	-4.467367e-05
251	0x38c0481e	9.168706e-05
252	0xb99aba09	-0.00029511776
253	0x37ee5d3f	2.8415232e-05
254	0xb8f0f673	-0.000114899965
255	0xb8f54f2c	-0.00011697257

autoencoders.0.decoder.cells.0.lstm.bias_ih f4 [32]
0	0x369e57f3	4.7190056e-06
1	0x3809d110	3.285805e-05
2	0x38bddd63	9.053459e-05
3	0xb6073774	-2.0148846e-06
4	0xb92b4372	-0.00016332956
5	0x39030bdd	0.00012497553
6	0xb8ce33e6	-9.832512e-05
7	0xb79428d5	-1.7661989e-05
8	0x38c98f96	9.611172e-05
9	0xb8d21919	-0.00010018255
10	0xb76f0a15	-1.42478575e-05
11	0x35c86dc4	1.4933107e-06
12	0x38f80daa	0.00011828107
13	0xb8de2d68	-0.000105942425
14	0xb8b56c80	-8.650962e-05
15	0xb9037695	-0.00012537309
16	0x39930431	0.00028041148
17	0x39c46cb8	0.00037465035
18	0x385169b2	4.992792e-05
19	0xb85acd8e	-5.2166688e-05
20	0x393021d2	0.00016797267
21	0x385e3077	5.297406e-05
22	0xb828d058	-4.0248357e-05
23	0x38e13c8d	0.000107401145
24	0xb87aa85d	-5.9761445e-05
25	0xb91255a6	-0.00013955552
26	0x39309b4b	0.00016842519
27	0xb89c957a	-7.466502e-05
28	0xb80d3f72	-3.3676108e-05
29	0xb7f73cdf	-2.947304e-05
30	0x393eaec3	0.00018184916
31	0x3793bb33	1.7610937e-05

autoencoders.0.decoder.cells.0.lstm.bias_hh f4 [32]
0	0x369e57f3	4.7190056e-06
1	0x3809d110	3.285805e-05
2	0x38bddd63	9.053459e-05
3	0xb6073774	-2.0148846e-06
4	0xb92b4372	-0.00016332956
5	0x39030bdd	0.00012497553
6	0xb8ce33e6	-9.832512e-05
7	0xb79428d5	-1.7661989e-05
8	0x38c98f96	9.611172e-05
9	0xb8d21919	-0.00010018255
10	0xb76f0a15	-1.42478575e-05
11	0x35c86dc4	1.4933107e-06
12	0x38f80daa	0.00011828107
13	0xb8de2d68	-0.000105942425
14	0xb8b56c80	-8.650962e-05
15	0xb9037695	-0.00012537309
16	0x39930431	0.00028041148
17	0x39c46cb8	0.00037465035
18	0x385169b2	4.992792e-05
19	0xb85acd8e	-5.2166688e-05
20	0x393021d2	0.00016797267
21	0x385e3077	5.297406e-05
22	0xb828d058	-4.0248357e-05
23	0x38e13c8d	0.000107401145
24	0xb87aa85d	-5.9761445e-05
25	0xb91255a6	-0.00013955552
26	0x39309b4b	0.00016842519
27	0xb89c957a	-7.466502e-05
28	0xb80d3f72	-3.3676108e-05
29	0xb7f73cdf	-2.947304e-05
30	0x393eaec3	0.00018184916
31	0x3793bb33	1.7610937e-05

autoencoders.0.decoder.cells.0.cell_residual_transform.weight f4 [8, 1]
0	0x3e804d5d	0.25059023
1	0xbe147b86	-0.14500245
2	0xbeb22732	-0.3479553
3	0x3e5d8b5a	0.2163519
4	0x3ef3e441	0.4763508
5	0x39364086	0.0001738091
6	0xbf293540	-0.6609688
7	0xbeb9d64a	-0.36296302

autoencoders.0.decoder.cells.0.cell_residual_transform.bias f4 [8]
0	0x3f85aea0	1.0443916
1	0xb9cd8516	-0.00039199804
2	0xbf2c0790	-0.6719904
3	0x3f302eb8	0.6882129
4	0xbe9ba8d2	-0.30402237
5	0xbf26386e	-0.64929855
6	0xbe2e96fa	-0.1704978
7	0xbec3e170	-0.38257933

autoencoders.0.decoder.output_layer.weight f4 [1, 8]
0	0x3ed86017	0.4226081
1	0xbd1564b0	-0.036472976
2	0x3e062435	0.1309975
3	0xbe117643	-0.1420527
4	0x3e2c4f45	0.16827114
5	0x3d2afb9f	0.04174387
6	0xbea81743	-0.32830247
7	0x3e52c6e0	0.20583677

autoencoders.1.encoder.cells.0.weight_h_2 f4 [8, 8]
0	0x39993227	0.000292198
1	0x3cb92810	0.022602111
2	0x3e25b728	0.1618315
3	0x388c1a0c	6.680572e-05
4	0x381e4a12	3.773912e-05
5	0x3e09e2b8	0.13465393
6	0x36b5f7b5	5.4230572e-06
7	0x3d3a102e	0.045425586
8	0x38b942ad	8.833907e-05
9	0xb903d244	-0.00012571464
10	0xb967dbfa	-0.00022111824
11	0xb815279c	-3.5561257e-05
12	0x38d8aeda	0.00010332251
13	0xbd1973f6	-0.037464105
14	0x382071d6	3.825299e-05
15	0xb8a8b73d	-8.044995e-05
16	0xbd0ef0e4	-0.0348977
17	0x38450d6f	4.698097e-05
18	0xb7eaca16	-2.7989077e-05
19	0xb8745b4f	-5.825917e-05
20	0xb973132e	-0.00023181431
21	0xb680413c	-3.8222915e-06
22	0x39254b74	0.00015763735
23	0xb788b27c	-1.6295577e-05
24	0xb9cc5da3	-0.00038979677
25	0x3984637b	0.0002525112
26	0xb93287ee	-0.0001702604
27	0xb89836ec	-7.258155e-05
28	0x3e7c284c	0.24624747
29	0xba555dde	-0.00081392925
30	0xb8b5bdef	-8.6661305e-05
31	0x38c9db88	9.625318e-05
32	0xb9096c34	-0.00013105647
33	0x3d3c1edf	0.04592788
34	0xb81e346e	-3.7718964e-05
35	0xbe621228	-0.22077239
36	0x38bc8579	8.9894e-05
37	0x370ee1d8	8.516443e-06
38	0xb8e52e91	-0.000109282446
39	0xbe99d756	-0.300471
40	0xb938d302	-0.00017626214
41	0xb89deb1d	-7.530137e-05
42	0xbde735d0	-0.11289561
43	0x364e1c67	3.0712924e-06
44	0xbd7d042f	-0.061771568
45	0xb941a8f1	-0.0001846885
46	0xbed4a488	-0.41531777
47	0xb91c7268	-0.00014919939
48	0xb81148c1	-3.463845e-05
49	0xb92e29aa	-0.00016609454
50	0xb904deae	-0.00012671456
51	0xb30ea914	-3.3215727e-08
52	0xb89ddbb2	-7.527265e-05
53	0x38a76c6c	7.983376e-05
54	0x3833b185	4.2842254e-05
55	0x38b11a71	8.444943e-05
56	0xb7b6d7a9	-2.1796515e-05
57	0xb98c4598	-0.00026754732
58	0x3940f829	0.00018402994
59	0xbe7ac144	-0.24487787
60	0x388c12a1	6.67919e-05
61	0x398aeadf	0.00026496404
62	0xb7ece343	-2.823922e-05
63	0x398d9a51	0.0002700859

autoencoders.1.encoder.cells.0.bias_h_2 f4 [8]
0	0x00000000	0.0
1	0x00000000	0.0
2	0x00000000	0.0
3	0x00000000	0.0
4	0x00000000	0.0
5	0x00000000	0.0
6	0x00000000	0.0
7	0x00000000	0.0

autoencoders.1.encoder.cells.0.lstm.weight_ih f4 [32, 1]
0	0xb90968c9	-0.00013104374
1	0x3935d775	0.00017341769
2	0x37980038	1.8119914e-05
3	0x389cb38c	7.472103e-05
4	0x39383ff4	0.00017571432
5	0xb999be04	-0.00029324007
6	0xb90c512d	-0.00013381681
7	0x38ec8409	0.000112779504
8	0x3865e647	5.4812317e-05
9	0xbbeea2d5	-0.0072825947
10	0x38dca850	0.00010521768
11	0x3926948c	0.00015886332
12	0xb805e791	-3.1925334e-05
13	0x391adaa2	0.00014768032
14	0xb724fe30	-9.834344e-06
15	0x3852fb40	5.0301896e-05
16	0x3899b8ce	7.330031e-05
17	0xb96e9160	-0.00022751605
18	0xb7fdf2a1	-3.0272933e-05
19	0xb51dfd97	-5.885608e-07
20	0x3835ddb9	4.3360258e-05
21	0xb7bc4274	-2.2442291e-05
22	0x39487687	0.00019117641
23	0x389c97b2	7.466915e-05
24	0xb99114ee	-0.0002767215
25	0x39fc6120	0.0004813755
26	0x38218aac	3.851454e-05
27	0xb9dc8c56	-0.00042066228
28	0x36d2fc38	6.28785e-06
29	0xb7b7c8b0	-2.1908752e-05
30	0x3870b8bb	5.7392503e-05
31	0x3891a3e8	6.944669e-05

autoencoders.1.encoder.cells.0.lstm.weight_hh f4 [32, 8]
0	0x396543ba	0.00021864372
1	0xb93b0e08	-0.00017838937
2	0x39044e59	0.00012617688
3	0xb8c848f9	-9.5503354e-05
4	0xb79adb44	-1.8460334e-05
5	0xb9144b0a	-0.00014142334
6	0x372f06de	1.0432412e-05
7	0x39d6e92e	0.00040990993
8	0x384cbf05	4.881529e-05
9	0xb865559e	-5.4677592e-05
10	0xb856d468	-5.1219395e-05
11	0xb8a5566d	-7.883911e-05
12	0x368df145	4.230215e-06
13	0x3926068c	0.00015833433
14	0x38770489	5.8893613e-05
15	0xb94e2155	-0.00019658108
16	0x3864fead	5.459662e-05
17	0x38ad0332	8.249878e-05
18	0x36e8b8da	6.9356583e-06
19	0xb911a9dd	-0.00013891557
20	0x388e6d7c	6.791481e-05
21	0xb9bc78cc	-0.00035948155
22	0xb96880e1	-0.00022173255
23	0xb8f3c862	-0.00011624467
24	0x38df1119	0.00010636653
25	0x394b33a4	0.00019378826
26	0x3946eec1	0.00018971694
27	0xb8c0bcb6	-9.1904236e-05
28	0xb9b674fa	-0.000348009
29	0xb8ac982c	-8.229943e-05
30	0x38c5db69	9.43456e-05
31	0xb9a899e9	-0.0003215813
32	0x38aece9f	8.335453e-05
33	0x3989bfed	0.00026273672
34	0xb832ef36	-4.266129e-05
35	0xb7defc40	-2.6581925e-05
36	0xb9863d36	-0.00025604077
37	0xb9137c60	-0.00014065346
38	0x389c4b50	7.452688e-05
39	0xb86d470b	-5.6571367e-05
40	0x384fdbdc	4.9557406e-05
41	0x39187c04	0.00014542049
42	0xb9154a07	-0.00014237325
43	0x39bfeb05	0.00036605462
44	0xb918f806	-0.00014588246
45	0x3894eb2c	7.100994e-05
46	0x39371fa1	0.00017464023
47	0xb5b703ed	-1.3635705e-06
48	0x38a4cc7f	7.85822e-05
49	0xb873926f	-5.807209e-05
50	0xb8917fe8	-6.937963e-05
51	0xb9b2c22e	-0.0003409548
52	0xb9312e92	-0.00016897384
53	0x38ee2704	0.000113559916
54	0x37935e41	1.7567656e-05
55	0x382210ac	3.8639337e-05
56	0x38abc811	8.191181e-05
57	0x37fd588b	3.0201181e-05
58	0xb91aea21	-0.00014773804
59	0xb91255b6	-0.00013955575
60	0x390b788e	0.00013300983
61	0x37706aca	1.43299785e-05
62	0x383d2d62	4.5103377e-05
63	0xb8941c48	-7.062458e-05
64	0x361e5f53	2.359932e-06
65	0x393fbce7	0.00018285551
66	0x39534beb	0.0002015081
67	0x39b6373c	0.00034754898
68	0x3b9df6cb	0.00482068
69	0x39ade8b2	0.00033170503
70	0x38c5df9c	9.4353425e-05
71	0x38dadabb	0.00010435792
72	0xb808040f	-3.2428707e-05
73	0xb6407c60	-2.8682625e-06
74	0xb904f32a	-0.00012679087
75	0x3890b003	6.89924e-05
76	0x39023cec	0.00012420461
77	0x38630939	5.4129607e-05
78	0x399c00c1	0.000297552
79	0xb8cd1b3f	-9.780237e-05
80	0xb9893eb1	-0.00026177385
81	0xb8c94b00	-9.598397e-05
82	0x390b0544	0.00013258035
83	0xb8629ac5	-5.402674e-05
84	0x3917a898	0.00014463288
85	0x3951fd9a	0.00020026267
86	0x37917112	1.7338e-05
87	0x3719744f	9.146591e-06
88	0xb9a88604	-0.00032143306
89	0xb8898ad3	-6.558527e-05
90	0x39871b26	0.00025769434
91	0xb8d26071	-0.00010031544
92	0xb841d174	-4.6209854e-05
93	0x3820733b	3.825429e-05
94	0xb959be54	-0.00020765635
95	0xb8d721f2	-0.00010258322
96	0x3833fe32	4.2913663e-05
97	0x38abcbd9	8.191885e-05
98	0x39327a2a	0.00017020912
99	0x379d50e2	1.8753522e-05
100	0xb8b4261b	-8.5901665e-05
101	0xb8da8729	-0.000104202256
102	0xb74d325c	-1.2230677e-05
103	0xb8c6d33b	-9.4807205e-05
104	0x38b31e3a	8.541015e-05
105	0x391b5a83	0.0001481567
106	0x3776a476	1.4701034e-05
107	0xb8a4c9fb	-7.857751e-05
108	0x3971c34d	0.00023056306
109	0x39ace6e0	0.00032978412
110	0x39863c30	0.00025603315
111	0x38b5ce27	8.6691514e-05
112	0xb96fc277	-0.0002286526
113	0xb83dc084	-4.5240406e-05
114	0xb8df556f	-0.00010649382
115	0x383dc692	4.5246044e-05
116	0xb9ad49ae	-0.00033052027
117	0xb97ca9b4	-0.00024095812
118	0xb99f674c	-0.00030403805
119	0xb7d91b30	-2.5881076e-05
120	0x3904c3b5	0.00012661408
121	0xb798f640	-1.8234481e-05
122	0x390a364d	0.00013180934
123	0xb98f59c3	-0.00027341963
124	0xba083ee1	-0.0005197358
125	0xb9aab5a8	-0.0003256027
126	0xb9080651	-0.00012972324
127	0x381d5f38	3.7520396e-05
128	0xb88fe5f8	-6.8616064e-05
129	0xb99820ff	-0.00029016283
130	0xb8fc22b6	-0.00012022762
131	0xb8b45133	-8.5981934e-05
132	0xb8bea5d6	-9.090795e-05
133	0xb98ed0ae	-0.0002723983
134	0xb8ffb958	-0.000121938705
135	0x38aaa57c	8.1370556e-05
136	0x38ce9879	9.851246e-05
137	0xb7187e48	-9.089308e-06
138	0xb8228ab2	-3.875298e-05
139	0xb94df195	-0.0001964032
140	0x39553a94	0.00020335085
141	0x38ad9f2b	8.27893e-05
142	0xb8945e3c	-7.0747425e-05
143	0xb88a99df	-6.6090135e-05
144	0x388cc5c2	6.7125555e-05
145	0x38c7491f	9.502679e-05
146	0xb868d419	-5.551064e-05
147	0x390c3f5c	0.00013375044
148	0xb907c1b2	-0.0001294676
149	0xb889c08a	-6.568532e-05
150	0xb95ec961	-0.0002124659
151	0xb7d2ff4d	-2.5152834e-05
152	0x396e5c14	0.0002273175
153	0xb9054a4b	-0.00012711545
154	0xb8f462fc	-0.00011653264
155	0xbe0c6d18	-0.13713491
156	0x38eae45c	0.00011200525
157	0xb92dcc4d	-0.00016574674
158	0xb94392cd	-0.00018651337
159	0x386ffdd0	5.721842e-05
160	0xb92be201	-0.00016392024
161	0xb8d538f8	-0.00010167243
162	0xb94bba43	-0.00019428977
163	0x39b2ce85	0.00034104675
164	0xb7c8604d	-2.3886701e-05
165	0x3974683b	0.00023308482
166	0x3899c06d	7.3314506e-05
167	0xb839e91e	-4.4324544e-05
168	0xbe9f3348	-0.31093812
169	0x380d79e0	3.3730525e-05
170	0xb7d9cf72	-2.5965015e-05
171	0x38769b1c	5.8795427e-05
172	0x39042836	0.0001260348
173	0x38f33aca	0.00011598093
174	0xb85e3890	-5.2981602e-05
175	0xb86b217d	-5.6059554e-05
176	0xb8d23f71	-0.00010025397
177	0x37732ebd	1.4494811e-05
178	0x3973f02c	0.00023263757
179	0x38ffdcad	0.000122004516
180	0x392880d9	0.00016069728
181	0xb8f60e57	-0.00011732865
182	0xb982f296	-0.00024976273
183	0xb9596307	-0.00020731623
184	0x37727925	1.445253e-05
185	0xbb1c5ee2	-0.0023860266
186	0xb94d0747	-0.00019553035
187	0xb7d2793e	-2.5090409e-05
188	0x38b4fd50	8.630252e-05
189	0x3889ad7e	6.5649845e-05
190	0xb948621e	-0.00019110038
191	0xbb16f66e	-0.0023035067
192	0x388a773e	6.6025634e-05
193	0xb9308763	-0.00016835103
194	0x361499df	2.2143283e-06
195	0xb759a978	-1.2973665e-05
196	0x34e06b38	4.1801263e-07
197	0x38fb1983	0.000119733646
198	0xb908d367	-0.00013048724
199	0x38d4076c	0.0001011033
200	0x38a014f3	7.6332966e-05
201	0xbd8f98d8	-0.070115745
202	0x34ba537f	3.470595e-07
203	0xb82b12da	-4.0787134e-05
204	0x39820f78	0.00024807057
205	0xb8e8c116	-0.00011098587
206	0x38c38e56	9.324837e-05
207	0xb8495bf5	-4.8007776e-05
208	0x39533477	0.00020142073
209	0xb81e7668	-3.778041e-05
210	0xb91ee57e	-0.00015153547
211	0x38c3b8a5	9.332717e-05
212	0x3dad0af0	0.08449352
213	0xb8e63545	-0.00010977177
214	0xb84742bd	-4.7507452e-05
215	0xb8b8e46f	-8.816353e-05
216	0x3733629a	1.0692189e-05
217	0xb967b5ad	-0.00022097556
218	0xb6787f7f	-3.7029092e-06
219	0xb8245100	-3.9176084e-05
220	0xb6bfcfdc	-5.7164416e-06
221	0x390b2ce7	0.000132728
222	0xb765e2d8	-1.370228e-05
223	0x389000e6	6.8666224e-05
224	0x3952a9fe	0.00020090488
225	0xb7c859a2	-2.3883596e-05
226	0xb8c5a1c9	-9.423827e-05
227	0x3923341c	0.00015564304
228	0x390b482c	0.00013282959
229	0xb92360d2	-0.0001558096
230	0xb91d4b89	-0.00015000826
231	0xb8187ad6	-3.6354024e-05
232	0x39ad434f	0.0003304728
233	0x38bef7b7	9.1060465e-05
234	0xb6c0c57d	-5.7450366e-06
235	0xb969b7f8	-0.00022289145
236	0xb86dc4d0	-5.66885e-05
237	0x3810ec72	3.4552482e-05
238	0xb8a45882	-7.836615e-05
239	0xbdb8c6f0	-0.09022319
240	0xb822044a	-3.8627804e-05
241	0x39353596	0.00017281467
242	0x393b26af	0.0001784812
243	0xb8441bfd	-4.6756108e-05
244	0x38ee5309	0.00011364191
245	0xb8e2c370	-0.00010812923
246	0xb7848cd8	-1.5801212e-05
247	0xb9099936	-0.00013122414
248	0x3820bea5	3.8324524e-05
249	0xb9b5b1ad	-0.0003465539
250	0xb91c772d	-0.00014921716
251	0xb9369130	-0.00017410959
252	0x393a4b3a	0.00017766366
253	0x3959f82c	0.00020787184
254	0x39cc1e4d	0.00038932488
255	0x38d43306	0.000101184516

autoencoders.1.encoder.cells.0.lstm.bias_ih f4 [32]
0	0x00000000	0.0
1	0x00000000	0.0
2	0x00000000	0.0
3	0x00000000	0.0
4	0x00000000	0.0
5	0x00000000	0.0
6	0x00000000	0.0
7	0x00000000	0.0
8	0x00000000	0.0
9	0x00000000	0.0
10	0x00000000	0.0
11	0x00000000	0.0
12	0x00000000	0.0
13	0x00000000	0.0
14	0x00000000	0.0
15	0x00000000	0.0
16	0x00000000	0.0
17	0x00000000	0.0
18	0x00000000	0.0
19	0x00000000	0.0
20	0x00000000	0.0
21	0x00000000	0.0
22	0x00000000	0.0
23	0x00000000	0.0
24	0x00000000	0.0
25	0x00000000	0.0
26	0x00000000	0.0
27	0x00000000	0.0
28	0x00000000	0.0
29	0x00000000	0.0
30	0x00000000	0.0
31	0x00000000	0.0

autoencoders.1.encoder.cells.0.lstm.bias_hh f4 [32]
0	0x00000000	0.0
1	0x00000000	0.0
2	0x00000000	0.0
3	0x00000000	0.0
4	0x00000000	0.0
5	0x00000000	0.0
6	0x00000000	0.0
7	0x00000000	0.0
8	0x00000000	0.0
9	0x00000000	0.0
10	0x00000000	0.0
11	0x00000000	0.0
12	0x00000000	0.0
13	0x00000000	0.0
14	0x00000000	0.0
15	0x00000000	0.0
16	0x00000000	0.0
17	0x00000000	0.0
18	0x00000000	0.0
19	0x00000000	0.0
20	0x00000000	0.0
21	0x00000000	0.0
22	0x00000000	0.0
23	0x00000000	0.0
24	0x00000000	0.0
25	0x00000000	0.0
26	0x00000000	0.0
27	0x00000000	0.0
28	0x00000000	0.0
29	0x00000000	0.0
30	0x00000000	0.0
31	0x00000000	0.0

autoencoders.1.encoder.cells.0.cell_residual_transform.weight f4 [8, 1]
0	0xbeec3e94	-0.46141493
1	0x38f6f453	0.00011775703
2	0x3e9905d4	0.2988726
3	0x3e9840d4	0.2973696
4	0x3ef19e08	0.4719088
5	0xbe2b7bf0	-0.16746497
6	0x3cb95070	0.022621363
7	0xb85789e9	-5.1388433e-05

autoencoders.1.encoder.cells.0.cell_residual_transform.bias f4 [8]
0	0xbeb871e4	-0.36024392
1	0x391a8453	0.00014735879
2	0xb7d878a5	-2.5805386e-05
3	0xb81b5c85	-3.7041045e-05
4	0x3ede3e50	0.43406916
5	0x390bd53a	0.00013335506
6	0x392eece6	0.00016682185
7	0xb9301965	-0.00016794128

autoencoders.1.decoder.cells.0.weight_h_2 f4 [8, 8]
0	0x3899685c	7.315047e-05
1	0x38f78e21	0.000118043514
2	0xb8e10075	-0.00010728921
3	0x3ec66d30	0.38755178
4	0xb8f7ef8b	-0.00011822496
5	0xb9541c87	-0.00020228523
6	0xbd614b8a	-0.05500368
7	0x3d9e73f6	0.077369615
8	0xb6c77fe9	-5.945553e-06
9	0x38a8c494	8.04748e-05
10	0xb8e0c500	-0.000107178465
11	0x3f098b96	0.53728616
12	0xb75c6a8b	-1.3137828e-05
13	0xb8b264a6	-8.506449e-05
14	0x3e607723	0.21920447
15	0x3708386b	8.1193675e-06
16	0xb8314e46	-4.2272986e-05
17	0xb8d1d80a	-0.00010006137
18	0xb924706c	-0.00015682139
19	0xb86e4c21	-5.6814522e-05
20	0xb84734a7	-4.7494334e-05
21	0x3e1f8e6c	0.15581673
22	0x374dcd5a	1.2266764e-05
23	0x395b5445	0.0002091686
24	0x3d8908be	0.066911206
25	0x3e21fd40	0.15819263
26	0x395a0c1f	0.00020794616
27	0xb8c873f3	-9.5583404e-05
28	0xb80f5331	-3.4171335e-05
29	0xb88e5b93	-6.788145e-05
30	0x396c80a6	0.00022554639
31	0xb90e6cc1	-0.0001358269
32	0xb987780f	-0.00025838657
33	0xbe1df947	-0.15427123
34	0x3812ce7b	3.5001412e-05
35	0x391587c9	0.00014260331
36	0x38844604	6.307292e-05
37	0xbe518cda	-0.20463887
38	0xbe001c7e	-0.12510869
39	0x3714c4a7	8.867274e-06
40	0x37d5eeec	2.5502835e-05
41	0xb99c8e9d	-0.00029860894
42	0x3993f2a0	0.00028218795
43	0x383efc99	4.553478e-05
44	0xb9176bef	-0.0001444069
45	0x394250fa	0.00018531448
46	0x38fbd671	0.000120085555
47	0x3952da8a	0.00020108573
48	0xb8af1de0	-8.350215e-05
49	0x3d0e1bd9	0.034694526
50	0xb9114cdf	-0.00013856914
51	0x393e701b	0.00018161575
52	0xb8c71e50	-9.4947056e-05
53	0x383f1af3	4.5563047e-05
54	0xbb8c0169	-0.004272629
55	0xb9526d98	-0.00020067987
56	0xb839eb71	-4.432671e-05
57	0x3927abfd	0.00015990432
58	0x384652b4	4.7283902e-05
59	0xb8f8ea0e	-0.000118691576
60	0x39845ca3	0.00025246022
61	0xb8a3e78c	-7.815575e-05
62	0x3942b2ee	0.00018567938
63	0xb8aef17a	-8.341945e-05

autoencoders.1.decoder.cells.0.bias_h_2 f4 [8]
0	0xb81acaf2	-3.690547e-05
1	0xb87c2492	-6.011554e-05
2	0xb8aca7f4	-8.232883e-05
3	0x39087bfb	0.00013016157
4	0xb88034ad	-6.113327e-05
5	0xb8087ce4	-3.254124e-05
6	0x3871dba3	5.766343e-05
7	0x38925122	6.976935e-05

autoencoders.1.decoder.cells.0.lstm.weight_ih f4 [32, 1]
0	0x38c3fcca	9.34541e-05
1	0xb97258af	-0.00023111956
2	0x38ba2957	8.876871e-05
3	0xb9460e18	-0.00018888002
4	0xb88abb9f	-6.6153e-05
5	0x37fbd428	3.0020325e-05
6	0xb9653f40	-0.00021862704
7	0xb8ce7eb5	-9.8464465e-05
8	0xb9e5be6f	-0.00043820168
9	0x399c5343	0.00029816673
10	0x3709a889	8.2050765e-06
11	0x3a44241c	0.00074821874
12	0xb95bef19	-0.00020974538
13	0xb8b8c76e	-8.8109504e-05
14	0xbe515d34	-0.2044571
15	0xb9854d48	-0.00025425316
16	0xbcf36de8	-0.029715493
17	0xb8f65690	-0.000117463176
18	0x3b3a2838	0.002840532
19	0x3d5c9cfe	0.053860657
20	0xb92f216c	-0.00016701751
21	0xbdbf3b81	-0.09337521
22	0x38e45cc4	0.00010889166
23	0x3d4144ef	0.04718488
24	0x3889c539	6.569405e-05
25	0x3932d26e	0.00017053794
26	0x398265f9	0.00024871508
27	0xb9830deb	-0.00024996637
28	0x39d3aa89	0.00040372115
29	0x38d6e741	0.000102473896
30	0xb907ebe2	-0.00012962476
31	0x36dc4f51	6.5657446e-06

autoencoders.1.decoder.cells.0.lstm.weight_hh f4 [32, 8]
0	0x38d20141	0.00010013814
1	0xb94c2dc2	-0.00019472002
2	0x395b3161	0.00020903863
3	0xb89acace	-7.3810676e-05
4	0xb6ac6191	-5.1373577e-06
5	0x3922b1a9	0.00015515707
6	0x383d57c7	4.514286e-05
7	0xb93346ae	-0.000170971
8	0xb72b3efd	-1.020706e-05
9	0x39a36eff	0.0003117248
10	0x3918ebe0	0.0001458372
11	0xb6e19df8	-6.7239125e-06
12	0xb9988a32	-0.00029094663
13	0xb8c4f9cd	-9.392537e-05
14	0xb91d3e96	-0.00014996002
15	0xb8a1df6d	-7.7186945e-05
16	0xb93c9544	-0.00017984683
17	0x390e0188	0.00013542746
18	0x394bf3d5	0.00019450423
19	0xb89ee5da	-7.57684e-05
20	0x38b3754c	8.5572334e-05
21	0xb91f8943	-0.00015214556
22	0xb72b699a	-1.02169815e-05
23	0x38a21e8f	7.730454e-05
24	0xb8b1d5b9	-8.479827e-05
25	0xb983fabb	-0.00025173076
26	0xb7e233d6	-2.6965437e-05
27	0xb8b2e392	-8.53009e-05
28	0x394ec77d	0.00019720006
29	0x38954a05	7.118661e-05
30	0xb809790d	-3.2776083e-05
31	0xb7b6fa8a	-2.1812757e-05
32	0x39335e07	0.00017105798
33	0x3833a658	4.2831845e-05
34	0xb7635546	-1.3550109e-05
35	0xb93f8d3b	-0.00018267792
36	0x3884da0a	6.3348634e-05
37	0xb94b2b95	-0.00019375824
38	0x380527c7	3.1746717e-05
39	0x38a82ff2	8.019795e-05
40	0xbe925cec	-0.2858652
41	0xb9055ac9	-0.00012717689
42	0xb9175aa3	-0.00014434247
43	0x391ae0dd	0.00014770353
44	0x38ac1331	8.205174e-05
45	0xbcfce312	-0.030869994
46	0xb885fa37	-6.38854e-05
47	0xb94f0f46	-0.00019746748
48	0xbd152741	-0.03641439
49	0xb8121f64	-3.4838347e-05
50	0xb91ae959	-0.00014773513
51	0x3991a2cd	0.0002777785
52	0xb8ebbe58	-0.000112411275
53	0xb82946c2	-4.035864e-05
54	0xb79a81d9	-1.8418696e-05
55	0x39d8618f	0.00041271417
56	0x38e5d69c	0.00010959545
57	0xb8be1430	-9.063666e-05
58	0xb7cb95b3	-2.4269195e-05
59	0xb7470b0c	-1.1863896e-05
60	0x380fb1bb	3.425938e-05
61	0xb74a7e24	-1.2069508e-05
62	0x393be696	0.0001791961
63	0xb701daee	-7.739973e-06
64	0xb8433eca	-4.65501e-05
65	0x3942f6e2	0.00018593253
66	0xb8a3eea2	-7.8168945e-05
67	0x376615cc	1.3714143e-05
68	0xb909934a	-0.00013120208
69	0xb8024077	-3.1054453e-05
70	0x37a9d0fa	2.0243682e-05
71	0x393ed506	0.0001819917
72	0x36a372b6	4.8711327e-06
73	0x386503da	5.460144e-05
74	0xb98de8e3	-0.0002706713
75	0x3952fccd	0.00020121336
76	0xb8a7ba63	-7.997898e-05
77	0xb9cfe48d	-0.000396524
78	0xb9cda80d	-0.00039225855
79	0x394ab829	0.00019332826
80	0xb8977b8b	-7.223253e-05
81	0x3d7c85ec	0.061651155
82	0xb70878c7	-8.134352e-06
83	0xb85fcac3	-5.335618e-05
84	0x3919d372	0.00014669987
85	0xb8390700	-4.4113956e-05
86	0xb8b2411a	-8.4998275e-05
87	0xb82ee9ad	-4.170246e-05
88	0x3891cdf8	6.9525035e-05
89	0x38929f89	6.991538e-05
90	0xb74653fd	-1.1821275e-05
91	0xb7b49e18	-2.153129e-05
92	0xb6f6bb01	-7.3531414e-06
93	0xb9234dc7	-0.00015573866
94	0xb924a735	-0.00015702548
95	0x37382193	1.0975072e-05
96	0xb903e5f8	-0.00012578804
97	0x3889300f	6.541621e-05
98	0x373b8e42	1.1179191e-05
99	0x37f033ef	2.8634413e-05
100	0x38feec1d	0.00012155643
101	0xb8f1a25e	-0.00011522019
102	0x391d6a12	0.00015012201
103	0xb874e0f3	-5.8383634e-05
104	0x398c439f	0.00026753263
105	0x38dee99a	0.000106292966
106	0x38548152	5.0665178e-05
107	0x3936c8e4	0.0001743171
108	0xb80d23d0	-3.3650373e-05
109	0x378a7a55	1.6507847e-05
110	0xb94d478d	-0.00019576978
111	0x3796d6d3	1.7981429e-05
112	0xb72b84e9	-1.022334e-05
113	0xb87f5676	-6.087726e-05
114	0x3903bcbe	0.00012563445
115	0x39680224	0.00022126042
116	0x3e544092	0.20727757
117	0xb8e6addf	-0.00010999641
118	0xb805683b	-3.1806743e-05
119	0x398597d4	0.00025480858
120	0xb972fa30	-0.0002317212
121	0x39210bfe	0.00015358624
122	0x37fd6207	3.0205598e-05
123	0x396ddd0e	0.0002268443
124	0x39c50424	0.00037577853
125	0x390b4901	0.00013283269
126	0x389df508	7.531984e-05
127	0xb8ff706f	-0.0001218029
128	0xbd4e5dc3	-0.050382387
129	0x399357f1	0.00028103546
130	0xb8675193	-5.5150664e-05
131	0xb90008b0	-0.00012210268
132	0xb8c4d7af	-9.3861825e-05
133	0x3824c25d	3.9281662e-05
134	0x39172620	0.00014414685
135	0x384ec726	4.92997e-05
136	0xbe912160	-0.28345776
137	0x38e025d4	0.000106881984
138	0xbe9bab5e	-0.3040418
139	0x38ef362b	0.00011406498
140	0xb7c6ed73	-2.371401e-05
141	0xb8b2a5b0	-8.518563e-05
142	0x3d4237de	0.04741656
143	0xb95bd133	-0.000209634
144	0x39b5e022	0.00034690002
145	0x36a9e48b	5.0631984e-06
146	0x396af430	0.00022406946
147	0xb855cb19	-5.0972307e-05
148	0x385a64dd	5.2069186e-05
149	0xb6d1c7b3	-6.2519334e-06
150	0xb5e3f82d	-1.6985047e-06
151	0xb91ff501	-0.00015254693
152	0x3943fb6b	0.0001869031
153	0x399c2b4d	0.000297869
154	0x3681b424	3.8654707e-06
155	0xb80cc754	-3.356424e-05
156	0xbd6f7152	-0.05845768
157	0x37c4048d	2.336714e-05
158	0xb9213920	-0.00015375437
159	0xb9561ec6	-0.00020420094
160	0xb798e085	-1.8224362e-05
161	0xb6dbe45d	-6.5532936e-06
162	0x379727ed	1.8019195e-05
163	0xb81ec82c	-3.785656e-05
164	0x3935873c	0.00017311884
165	0xb92ff404	-0.00016780203
166	0xb86f97eb	-5.7123525e-05
167	0xb79b424d	-1.8508314e-05
168	0x3956c12e	0.00020480595
169	0xbd82b3d7	-0.06381958
170	0xb73f1ba4	-1.1390923e-05
171	0xb97d9c02	-0.00024186078
172	0x389d55cf	7.5023265e-05
173	0x3981f597	0.00024787776
174	0x3e0ba95f	0.13638829
175	0x3912ec9d	0.0001401179
176	0x3e8e8e06	0.2784273
177	0x3bebc1ac	0.0071947183
178	0x38a44637	7.833208e-05
179	0xb8f7779d	-0.000118001575
180	0xb7825f08	-1.554146e-05
181	0xb888c1a9	-6.5210574e-05
182	0x3de99531	0.11405409
183	0xb997715a	-0.00028885418
184	0x362133b7	2.4020972e-06
185	0xb814f7d6	-3.5516765e-05
186	0xb93520e2	-0.00017273755
187	0x39b9baf0	0.0003542523
188	0x38c71f45	9.494884e-05
189	0xb7945a17	-1.7684926e-05
190	0xb88bbae8	-6.6628505e-05
191	0x3853b95e	5.0478957e-05
192	0xb917deee	-0.0001448353
193	0x372b4c52	1.0210164e-05
194	0xb95f28ff	-0.0002128221
195	0x374b5661	1.2119855e-05
196	0x38f1c21e	0.00011527933
197	0x393dc7d6	0.00018098889
198	0xb870f83d	-5.745165e-05
199	0x38e7a8b1	0.000110463596
200	0x38aba67e	8.184927e-05
201	0xb936f0a4	-0.00017446518
202	0x39303758	0.00016805285
203	0xb8c8c6e6	-9.573791e-05
204	0x392c87c8	0.0001645378
205	0x379ca331	1.8672641e-05
206	0x396bc02b	0.00022482935
207	0xb90807d1	-0.00012972883
208	0x36dadfe7	6.522972e-06
209	0xb8bf4f90	-9.1224094e-05
210	0x3b0548c5	0.0020337563
211	0xb923489e	-0.00015571943
212	0xb48716e1	-2.5162356e-07
213	0xb8c2ca8e	-9.2883696e-05
214	0xb8f167b5	-0.000115110925
215	0xb97957a4	-0.00023779139
216	0xb7d1b7b2	-2.5000281e-05
217	0xb8c4f2c3	-9.391226e-05
218	0x39bb5f0d	0.00035738238
219	0x38eb34a3	0.000112154776
220	0x38544728	5.061101e-05
221	0xb95ad2ac	-0.00020868581
222	0x3a319772	0.0006774581
223	0xb98a7343	-0.00026407288
224	0xb90df7d9	-0.00013539138
225	0x399613a3	0.0002862486
226	0xb861896b	-5.377216e-05
227	0x39106e1f	0.00013773933
228	0x39393c0b	0.00017665343
229	0x3923f458	0.00015635916
230	0x384ec5e2	4.929852e-05
231	0xb6b6944e	-5.4412876e-06
232	0xb93bc1b2	-0.00017905867
233	0xb8d8617a	-0.00010317839
234	0xb8789162	-5.9263206e-05
235	0x39903809	0.0002750757
236	0xb89e6d66	-7.554404e-05
237	0xb8153944	-3.55777e-05
238	0x38b1a067	8.469895e-05
239	0x39870045	0.00025749407
240	0xbd2aa04c	-0.041656777
241	0x396777f2	0.0002207456
242	0xb90612a8	-0.00012786186
243	0x398ad02b	0.00026476508
244	0xbd972e4c	-0.07381877
245	0x38a53d3f	7.879221e-05
246	0xb7cf5a6a	-2.4718425e-05
247	0xb81d63a1	-3.7524504e-05
248	0x38e31360	0.000108278124
249	0x389e7867	7.556454e-05
250	0x38f9d0ba	0.000119121236
251	0xb8c4dfcf	-9.387696e-05
252	0xb8ac3658	-8.2117214e-05
253	0xb937ad36	-0.00017516766
254	0x3970733b	0.0002293111
255	0x38d144a9	9.9786856e-05

autoencoders.1.decoder.cells.0.lstm.bias_ih f4 [32]
0	0xb8a4b8e4	-7.854568e-05
1	0xb8e212f5	-0.00010780051
2	0x38aa236d	8.11283e-05
3	0x389bfc65	7.437988e-05
4	0xb93e0bea	-0.0001812425
5	0xb94564fa	-0.00018825001
6	0xb7dc82b4	-2.6286907e-05
7	0x386416dc	5.4380725e-05
8	0x39874e9e	0.0002580778
9	0xb9640bb4	-0.00021748134
10	0xb8c7565c	-9.505145e-05
11	0x3884130a	6.297797e-05
12	0x3969d8b0	0.00022301334
13	0x39801546	0.00024429912
14	0xb86ceee0	-5.6489254e-05
15	0x37f9bd72	2.977133e-05
16	0xb910afd6	-0.00013798414
17	0x36d6dbab	6.4032697e-06
18	0xb8345fc7	-4.3004544e-05
19	0x384bed86	4.8620182e-05
20	0x372d15b6	1.03166585e-05
21	0xb8a7f82a	-8.009405e-05
22	0xb6bc9f24	-5.621363e-06
23	0xb809976f	-3.280438e-05
24	0xb7157336	-8.907917e-06
25	0xb94aec35	-0.00019352215
26	0xb918276f	-0.0001451054
27	0xb8a82b14	-8.018888e-05
28	0x364d942e	3.0633632e-06
29	0x39686eb6	0.00022166487
30	0xb8d5d225	-0.00010195774
31	0x390f4119	0.00013661793

autoencoders.1.decoder.cells.0.lstm.bias_hh f4 [32]
0	0xb8a4b8e4	-7.854568e-05
1	0xb8e212f5	-0.00010780051
2	0x38aa236d	8.11283e-05
3	0x389bfc65	7.437988e-05
4	0xb93e0bea	-0.0001812425
5	0xb94564fa	-0.00018825001
6	0xb7dc82b4	-2.6286907e-05
7	0x386416dc	5.4380725e-05
8	0x39874e9e	0.0002580778
9	0xb9640bb4	-0.00021748134
10	0xb8c7565c	-9.505145e-05
11	0x3884130a	6.297797e-05
12	0x3969d8b0	0.00022301334
13	0x39801546	0.00024429912
14	0xb86ceee0	-5.6489254e-05
15	0x37f9bd72	2.977133e-05
16	0xb910afd6	-0.00013798414
17	0x36d6dbab	6.4032697e-06
18	0xb8345fc7	-4.3004544e-05
19	0x384bed86	4.8620182e-05
20	0x372d15b6	1.03166585e-05
21	0xb8a7f82a	-8.009405e-05
22	0xb6bc9f24	-5.621363e-06
23	0xb809976f	-3.280438e-05
24	0xb7157336	-8.907917e-06
25	0xb94aec35	-0.00019352215
26	0xb918276f	-0.0001451054
27	0xb8a82b14	-8.018888e-05
28	0x364d942e	3.0633632e-06
29	0x39686eb6	0.00022166487
30	0xb8d5d225	-0.00010195774
31	0x390f4119	0.00013661793

autoencoders.1.decoder.cells.0.cell_residual_transform.weight f4 [8, 1]
0	0xbf3978a9	-0.7244974
1	0xbf054ed4	-0.5207341
2	0x396f25f6	0.00022806958
3	0xbf83d1f0	-1.0298443
4	0x3f496b98	0.786798
5	0xbeba18ec	-0.3634714
6	0xbe9e605c	-0.3093289
7	0x3d9d9e70	0.07696235

autoencoders.1.decoder.cells.0.cell_residual_transform.bias f4 [8]
0	0xbebb2506	-0.36551684
1	0xbf23c8ad	-0.6397808
2	0xb9753787	-0.00023385706
3	0x3e2f0aed	0.17094012
4	0xbd742417	-0.05960473
5	0x3739ea56	1.108142e-05
6	0xbf7ffa9e	-0.99991786
7	0xbebd97ff	-0.37030026

autoencoders.1.decoder.output_layer.weight f4 [1, 8]
0	0xbe754d86	-0.23955354
1	0xbed1a89d	-0.40948954
2	0xbbbde4c8	-0.005795095
3	0xbedb25a8	-0.42802167
4	0x3c90f983	0.017697101
5	0x3d92b505	0.07163433
6	0xbec866e6	-0.39141005
7	0xbc97e9b3	-0.018544054
