results/H5_Bi-directional/machine_temperature_system_failure/ensemble_autoencoder_weights.pth (torch, 174366 bytes, 190 tensors)

autoencoders.0.encoder.encoder.forward_cells.0.weight_h_2 f4 [8, 8]
2.383387e-05 0.00018511817 0.00012419095 -6.660456e-05 0.00013202641 6.8239846e-05 -7.124193e-05 -3.1346578e-06
-0.0002634824 0.00027497072 -0.0002120322 0.00016380163 -0.00018810091 6.657375e-05 0.00013973587 -0.00011757735
-8.0612925e-05 -6.2294646e-05 -0.00018157299 -7.5909906e-05 0.0002850994 0.00020652985 -0.00013210149 9.956686e-05
3.760705e-05 8.644788e-05 -5.0396575e-05 8.708868e-05 -8.971284e-05 -0.000111036956 -7.0628405e-05 -8.436094e-06
-0.0002829875 1.1930205e-05 0.00024863126 0.00014864311 3.3819648e-05 0.0002884814 -0.00018482773 0.00021066637
-5.604187e-05 -0.00016499925 0.00015073495 -5.6589535e-05 6.6148496e-05 -7.0518116e-05 -9.350723e-05 -3.5361638e-05
-2.7177352e-05 -0.00020575376 -6.643897e-05 -6.827321e-05 0.00014075603 -0.00010689644 -0.00012162882 -0.0001385857
-6.0506714e-05 -3.8843027e-05 2.7507298e-05 6.877398e-05 -0.00017732118 0.0002332905 0.0004017712 0.00011477315
00000000: d9ee c737 481c 4239 4139 0239 0dae 8bb8
00000010: 9270 0a39 fd1b 8f38 b867 95b8 035d 52b6
00000020: 0224 8ab9 f229 9039 f654 5eb9 2ac2 2b39
00000030: f43c 45b9 839d 8b38 1086 1239 dc93 f6b8
00000040: bc0e a9b8 2fa4 82b8 a164 3eb9 d231 9fb8
00000050: 6579 9539 ef8f 5839 b984 0ab9 8dce d038
00000060: 43bc 1d38 5a4b b538 e960 53b8 61a3 b638
00000070: 3724 bcb8 83dc e8b8 561e 94b8 bf88 0db7
00000080: f05d 94b9 d727 4837 b95a 8239 15dd 1b39
00000090: 92d9 0d38 513f 9739 51ce 41b9 53e6 5c39
000000a0: 800e 6bb8 a603 2db9 9b0e 1e39 8d5a 6db8
000000b0: 34b9 8a38 20e3 93b8 5019 c4b8 4551 14b8
000000c0: ebfa e3b7 9bbf 57b9 2755 8bb8 e72d 8fb8
000000d0: e997 1339 972d e0b8 fa12 ffb8 5151 11b9
000000e0: 97c8 7db8 62eb 22b8 79bf e637 c03a 9038
000000f0: 4bef 39b9 719f 7439 d1a4 d239 5eb2 f038

autoencoders.0.encoder.encoder.forward_cells.0.bias_h_2 f4 [8]
0.0 0.0 0.0 0.0 0.0 0.0 0.0 0.0
00000000: 0000 0000 0000 0000 0000 0000 0000 0000
00000010: 0000 0000 0000 0000 0000 0000 0000 0000

autoencoders.0.encoder.encoder.forward_cells.0.lstm.weight_ih f4 [32, 1]
0.00029036598 0.00015872953 -0.00036139862 7.7856326e-05 7.395295e-05 4.5161214e-05 0.00016942105 -1.2906485e-06
-0.0001359687 8.988304e-05 -0.00016180928 0.0001428294 0.0004719719 -9.765927e-05 5.9905815e-05 1.7209199e-05
-3.1652587e-05 -0.00014690807 5.674325e-05 -0.00019351691 0.00031167458 -0.00015705585 -0.0002093819 0.00014074123
-7.43799e-05 9.857595e-06 -0.0002122876 -0.00017896613 -3.213145e-05 -0.00014811772 7.6546676e-05 5.3427728e-05
00000000: 433c 9839 a270 2639 1a7a bdb9 cc46 a338
00000010: 3017 9b38 7c6b 3d38 9ea6 3139 583a adb5
00000020: d292 0eb9 977f bc38 59ab 29b9 7ac4 1539
00000030: ff72 f739 6cce ccb8 6143 7b38 795c 9037
00000040: b5c2 04b8 560b 1ab9 9aff 6d38 cdea 4ab9
00000050: 4168 a339 5caf 24b9 878d 5bb9 f093 1339
00000060: 68fc 9bb8 0c62 2537 8599 5eb9 dba8 3bb9
00000070: e2c4 06b8 0c50 1bb9 af87 a038 9617 6038

autoencoders.0.encoder.encoder.forward_cells.0.lstm.weight_hh f4 [32, 8]
0.00023804828 9.042577e-05 -0.00012804153 0.00013537107 0.00026221445 2.0458248e-05 -3.405489e-05 3.1263844e-05
-0.00012037045 -0.00010109202 -8.607053e-05 0.00015868421 -0.0004546884 -6.324435e-05 -3.9033246e-05 -0.00013443342
-1.4537606e-07 -5.0490486e-05 -6.9822716e-05 -0.00037456895 -0.00012437094 -0.000108943415 -2.6002173e-05 0.00040101897
8.1961814e-05 0.00012908649 -0.00032151156 -3.5440607e-05 -4.6983336e-05 -0.00015227743 -0.00010004219 -0.00017914115
2.439723e-05 -0.00018428816 0.00015283638 -0.00016965823 -4.4683464e-05 -6.3934995e-06 -0.00015307381 0.000496821
-0.00015614592 7.2831266e-05 -0.00015783342 0.00028773575 0.00030798686 0.0002637502 -9.0918154e-05 0.00011973893
0.00018619515 0.00013073812 -0.0002232592 0.00032662883 0.00042126604 -0.00014339075 5.018739e-05 -9.5338844e-05
-0.00013735911 0.00025989657 -0.00024301645 -0.00011487763 -2.9890447e-05 -5.129788e-06 1.4492321e-05 -0.00021516085
-0.00039521788 2.3777904e-05 0.00017847939 -0.00014819553 0.00012733131 0.00017339684 0.00018576026 -6.292016e-05
0.00013216896 -2.507245e-05 -1.050613e-05 -6.195214e-05 -0.0002329783 -7.3813986e-05 4.0615676e-05 -0.00045069712
-0.00017128554 3.4614663e-05 0.00024136453 -1.1639837e-05 4.7787133e-05 0.00011227946 -0.00019333202 0.00015554224
0.00028584155 -2.9727405e-05 -8.631524e-05 -9.163157e-05 -0.00023501659 -0.00023925466 0.00018384878 -0.00044753784
7.3081274e-06 0.00025400004 0.0002155474 -6.9409e-05 -1.7493023e-05 0.00026720238 5.8253077e-05 0.00018302571
0.00011154553 2.7821954e-05 0.00025127202 -0.00036727265 4.9709734e-06 -2.3799454e-05 -2.3291483e-05 0.00011857666
-0.00032352348 3.746048e-05 -8.947231e-05 0.0001427489 6.552218e-05 -0.00012901328 0.00021754527 0.0002221237
-1.4060224e-06 0.00012886318 -9.512129e-06 -8.707507e-05 -0.00011066188 -5.427308e-05 0.00013617825 -0.00031203628
0.00023433755 1.7178349e-05 0.00044291382 -4.6435664e-05 -9.9142984e-05 5.4456337e-05 5.470533e-05 0.00020620605
4.9705257e-05 -0.00026636096 0.00013797899 -0.000129059 0.000487804 8.040275e-05 0.00028635614 -3.2761325e-06
-8.358908e-06 -0.00017883306 1.0435963e-05 -1.4451432e-05 -8.1960314e-07 0.0003170154 -0.00025229363 -8.851501e-05
-0.000100969235 -0.0001346244 9.4882154e-05 0.0001626032 -1.5703856e-05 3.7361984e-05 -3.5331774e-05 -0.00012192177
-0.00024779726 -6.903583e-05 0.00019105668 -2.941009e-05 -8.814524e-06 0.00013774066 0.00017466795 9.484008e-05
0.00021214814 -0.00014267219 5.9994265e-05 5.9417554e-05 -1.0716868e-05 -3.751113e-05 0.00011783658 0.00013476839
-0.00025014096 -6.1829895e-05 -1.1455141e-05 -1.772468e-05 -6.544654e-05 2.3206172e-05 -9.6130325e-06 -5.430816e-05
1.5144498e-05 -0.00013483975 -6.512747e-05 -0.00016883622 -0.00025680233 -0.00022620558 -0.00023165088 -0.00027320662
-0.00031109346 -8.024418e-05 -0.0001575982 -4.69654e-07 -1.5045828e-05 0.00012897803 2.7520573e-06 4.2752414e-05
0.0001347941 -7.46745e-05 0.0002009623 3.533142e-06 -0.00019568714 3.9334127e-06 -1.0721368e-05 1.6010932e-05
0.00014648802 -0.00010050038 0.00017850411 -3.4080167e-05 -2.7671871e-05 6.6184926e-05 -6.587555e-05 0.00014033237
-0.00019553727 0.00012793188 0.00018041405 2.3213563e-05 -0.0001952227 6.4484586e-05 -2.4004055e-05 -1.405242e-05
-4.2450374e-05 9.235647e-05 -5.875248e-05 0.00020076838 -4.430671e-05 -9.786294e-05 0.00011266303 0.00012658333
0.00014139974 -6.139138e-05 -0.00053070433 -0.00012971053 6.8245434e-05 1.2356472e-05 -0.00014249407 4.6138764e-05
7.851255e-05 -4.1874657e-05 -0.0003128901 -0.0002650287 0.00014659321 8.517468e-06 -0.00010235736 0.00015478341
-4.775592e-05 0.00027408724 0.00032586255 7.0725284e-05 0.00011172974 -0.00042721658 -0.0004705191 0.00027373093
00000000: 999c 7939 f7a2 bd38 e342 06b9 65f2 0d39
00000010: d479 8939 c19d ab37 29d6 0eb8 4c21 0338
00000020: 656f fcb8 5d01 d4b8 c480 b4b8 7864 2639
00000030: 3e63 eeb9 0da2 84b8 a1b7 23b8 b2f6 0cb9
00000040: ab18 1cb4 bfc5 53b8 c96d 92b8 cb61 c4b9
00000050: 9269 02b9 8d78 e4b8 3e1f dab7 db3f d239
00000060: eae2 ab38 645b 0739 8d90 a8b9 10a6 14b8
00000070: f90f 45b8 a9ac 1fb9 becd d1b8 d6d7 3bb9
00000080: a7a8 cc37 7a3d 41b9 b442 2039 49e6 31b9
00000090: 816a 3bb8 be87 d6b6 7082 20b9 183d 023a
000000a0: 1abb 23b9 fdbc 9838 1680 25b9 3ddb 9639
000000b0: 4c79 a139 f447 8a39 50ab beb8 591c fb38
000000c0: 613d 4339 bf16 0939 af1a 6ab9 613f ab39
000000d0: 5fdd dc39 295b 16b9 4d80 5238 a7f0 c7b8
000000e0: 0e08 10b9 ba42 8839 3bd2 7eb9 75ea f0b8
000000f0: 3fbd fab7 8b20 acb6 0b24 7337 cd9c 61b9
00000100: 3f35 cfb9 a976 c737 3226 3b39 ef64 1bb9
00000110: 3d84 0539 dcd1 3539 a4c8 4239 01f4 83b8
00000120: d696 0a39 ad52 d2b7 7c43 30b7 4dec 81b8
00000130: a34b 74b9 95cc 9ab8 c05a 2a38 8b4b ecb9
00000140: 1d9b 33b9 362f 1138 cc16 7d39 b848 43b7
00000150: 0b6f 4838 9377 eb38 2bb9 4ab9 0d19 2339
00000160: 01dd 9539 1e5f f9b7 2404 b5b8 532a c0b8
00000170: c96e 76b9 6fe0 7ab9 88c7 4039 83a3 eab9
00000180: 5638 f536 4f2b 8539 9104 6239 ac8f 91b8
00000190: fbbd 92b7 4c17 8c39 c454 7438 97ea 3f39
000001a0: 8ded e938 3163 e937 29bd 8339 808e c0b9
000001b0: 56cc a636 f0a4 c7b7 1462 c3b7 5cac f838
000001c0: 969e a9b9 e21e 1d38 15a3 bbb8 deae 1539
000001d0: f468 8938 bd47 07b9 dd1c 6439 e0e9 6839
000001e0: 90b6 bcb5 721f 0739 4896 1fb7 129c b6b8
000001f0: 2513 e8b8 47a3 63b8 12cb 0e39 cd98 a3b9
00000200: 82b8 7539 391a 9037 e336 e839 eac3 42b8
00000210: fcea cfb8 0c68 6438 6773 6538 0439 5839
00000220: 9d7a 5038 5da6 8bb9 74ae 1039 0354 07b9
00000230: f2bf ff39 e69d a838 1222 9639 87db 5bb6
00000240: 3d3d 0cb7 2285 3bb9 1f16 2f37 6e74 72b7
00000250: b302 5cb5 1635 a639 4746 84b9 22a1 b9b8
00000260: 72bf d3b8 f629 0db9 78fb c638 7780 2a39
00000270: c6bb 83b7 20b5 1c38 3431 14b8 40b0 ffb8
00000280: c9ea 81b9 54c7 90b8 6356 4839 b0b5 f6b7
00000290: 18e2 13b7 7a6e 1039 1227 3739 e1e4 c638
000002a0: 1574 5e39 469a 15b9 5aa2 7b38 1d37 7938
000002b0: 99cc 33b7 4555 1db8 081f f738 9d50 0d39
000002c0: 5a25 83b9 acaa 81b8 752f 40b7 76af 94b7
000002d0: 5840 89b8 e0aa c237 a947 21b7 f1c8 63b8
000002e0: 2015 7e37 c563 0db9 0b95 88b8 a109 31b9
000002f0: 6da3 86b9 9931 6db9 4fe7 72b9 2c3d 8fb9
00000300: 421a a3b9 c448 a8b8 f240 25b9 c124 fcb4
00000310: 576d 7cb7 473e 0739 fcaf 3836 0e51 3338
00000320: 8457 0d39 919a 9cb8 68b9 5239 eb1a 6d36
00000330: 5e31 4db9 c2fb 8336 eddf 33b7 374f 8637
00000340: 949a 1939 bbc3 d2b8 d52c 3b39 4df1 0eb8
00000350: e420 e8b7 c3cc 8a38 ab26 8ab8 2f26 1339
00000360: 2309 4db9 7425 0639 872d 3d39 bfba c237
00000370: b2b4 4cb9 e63b 8738 515c c9b7 afc2 6bb7
00000380: be0c 32b8 81af c138 ff6c 76b8 5a85 5239
00000390: f8d5 39b8 c43b cdb8 8145 ec38 74bb 0439
000003a0: b444 1439 3fbf 80b8 f71e 0bba e802 08b9
000003b0: fd1e 8f38 a54e 4f37 766a 15b9 1f85 4138
000003c0: 1ba7 a438 92a2 2fb8 660b a4b9 8df3 8ab9
000003d0: d1b6 1939 3fe6 0e37 b0a8 d6b8 5b4d 2239
000003e0: 874d 48b8 5eb3 8f39 88d8 aa39 5952 9438
000003f0: 7350 ea38 0afc dfb9 01b0 f6b9 8b83 8f39

autoencoders.0.encoder.encoder.forward_cells.0.lstm.bias_ih f4 [32]
0.0 0.0 0.0 0.0 0.0 0.0 0.0 0.0
0.0 0.0 0.0 0.0 0.0 0.0 0.0 0.0
0.0 0.0 0.0 0.0 0.0 0.0 0.0 0.0
0.0 0.0 0.0 0.0 0.0 0.0 0.0 0.0
00000000: 0000 0000 0000 0000 0000 0000 0000 0000
00000010: 0000 0000 0000 0000 0000 0000 0000 0000
00000020: 0000 0000 0000 0000 0000 0000 0000 0000
00000030: 0000 0000 0000 0000 0000 0000 0000 0000
00000040: 0000 0000 0000 0000 0000 0000 0000 0000
00000050: 0000 0000 0000 0000 0000 0000 0000 0000
00000060: 0000 0000 0000 0000 0000 0000 0000 0000
00000070: 0000 0000 0000 0000 0000 0000 0000 0000

autoencoders.0.encoder.encoder.forward_cells.0.lstm.bias_hh f4 [32]
0.0 0.0 0.0 0.0 0.0 0.0 0.0 0.0
0.0 0.0 0.0 0.0 0.0 0.0 0.0 0.0
0.0 0.0 0.0 0.0 0.0 0.0 0.0 0.0
0.0 0.0 0.0 0.0 0.0 0.0 0.0 0.0
00000000: 0000 0000 0000 0000 0000 0000 0000 0000
00000010: 0000 0000 0000 0000 0000 0000 0000 0000
00000020: 0000 0000 0000 0000 0000 0000 0000 0000
00000030: 0000 0000 0000 0000 0000 0000 0000 0000
00000040: 0000 0000 0000 0000 0000 0000 0000 0000
00000050: 0000 0000 0000 0000 0000 0000 0000 0000
00000060: 0000 0000 0000 0000 0000 0000 0000 0000
00000070: 0000 0000 0000 0000 0000 0000 0000 0000

autoencoders.0.encoder.encoder.backward_cells.0.weight_h_2 f4 [8, 8]
-6.784929e-05 -0.00012287 0.00012590374 5.769441e-07 6.1892324e-06 0.00022929706 4.116195e-05 0.00020894634
3.3088054e-05 0.00020230131 7.668019e-05 1.6140606e-05 -0.0001357125 -5.5078373e-05 -0.0001569273 -0.00028309145
0.00015228993 -9.067491e-05 -0.00014908588 -6.972724e-05 0.00012390531 0.00036249103 -0.00013444104 5.5260924e-05
-6.898833e-05 0.0004539779 -7.589449e-05 -4.4565317e-07 -0.00016304293 0.000121450095 -0.00019039786 3.518997e-05
8.3030944e-05 0.00033564548 4.7173256e-05 -6.6651696e-06 -4.599519e-06 -0.00029684507 -2.4848856e-05 -4.2827854e-05
9.6018026e-05 -4.307098e-05 0.00023520815 0.0002599602 -0.00018320313 0.00017854209 -0.00024839048 1.990802e-05
0.00017303562 -9.7606935e-05 0.00023988583 -1.3762589e-05 -0.00013735337 0.00015215288 0.00015459626 0.00014751097
7.336186e-05 -0.00013952158 -2.4108364e-05 0.000221011 3.6165247e-06 8.874129e-05 1.7624452e-05 -5.1926705e-05
00000000: 4f4a 8eb8 aad6 00b9 0705 0439 4cdf 1a35
00000010: 1aad cf36 766f 7039 4fa5 2c38 9b18 5b39
00000020: 07c8 0a38 d820 5439 5dcf a038 b065 8737
00000030: 0c4e 0eb9 f403 67b8 da8c 24b9 e46b 94b9
00000040: 04b0 1f39 b928 beb8 f053 1cb9 873a 92b8
00000050: 94ec 0139 b90c be39 bef8 0cb9 f7c7 6738
00000060: d4ad 90b8 e203 ee39 8b29 9fb8 1b42 efb4
00000070: 81f6 2ab9 06b3 fe38 89a5 47b9 f198 1338
00000080: e620 ae38 93f9 af39 e6db 4538 5fa5 dfb6
00000090: 9155 9ab6 dfa1 9bb9 8372 d0b7 0fa2 33b8
000000a0: 495d c938 1da7 34b8 35a2 7639 444b 8839
000000b0: 371a 40b9 0737 3b39 683a 82b9 2600 a737
000000c0: e570 3539 53b2 ccb8 dd89 7b39 dfe5 66b7
000000d0: 8406 10b9 3a8b 1f39 1e1b 2239 2dad 1a39
000000e0: d9d9 9938 8a4c 12b9 513c cab7 30bf 6739
000000f0: 6cb3 7236 9e1a ba38 39d8 9337 e0cb 59b8

autoencoders.0.encoder.encoder.backward_cells.0.bias_h_2 f4 [8]
0.0 0.0 0.0 0.0 0.0 0.0 0.0 0.0
00000000: 0000 0000 0000 0000 0000 0000 0000 0000
00000010: 0000 0000 0000 0000 0000 0000 0000 0000

autoencoders.0.encoder.encoder.backward_cells.0.lstm.weight_ih f4 [32, 1]
8.3617524e-05 0.0001268095 0.00021633838 -0.00023581443 -9.795575e-05 7.228618e-06 0.00019840481 -3.7245813e-05
-0.00033279 2.2447566e-06 3.8097813e-05 -1.9870307e-05 0.000149247 -0.00032946712 -0.0002759611 7.287187e-07
-0.00010800515 -0.0003327953 0.00023867057 -0.00013359143 -0.00028552822 -0.00018419509 9.897489e-05 -4.8106438e-05
1.8958564e-05 0.00016467176 0.00034905036 0.00022597508 0.0002022376 9.4951945e-05 0.0002211733 0.00016093071
00000000: d15b af38 2af8 0439 e4d8 6239 f444 77b9
00000010: 986d cdb8 5b8d f236 e30a 5039 6338 1cb8
00000020: 517a aeb9 a0a4 1636 37cb 1f38 29af a6b7
00000030: 307f 1c39 54bc acb9 dfae 90b9 2b9d 4335
00000040: d380 e2b8 077b aeb9 a543 7a39 ad14 0cb9
00000050: f3b2 95b9 7e24 41b9 bd90 cf38 e5c5 49b8
00000060: 3509 9f37 bdab 2c39 bf00 b739 b9f3 6c39
00000070: be0f 5439 f020 c738 c1ea 6739 82bf 2839

autoencoders.0.encoder.encoder.backward_cells.0.lstm.weight_hh f4 [32, 8]
7.149747e-05 -0.00010101652 -0.00030685807 0.00021497789 7.813334e-05 8.5793996e-05 -0.00031310387 -0.0001698738
0.00021861611 -0.00019532476 -1.1392062e-05 0.00023962084 -0.00013534466 0.000100248384 -1.5738585e-06 6.9423263e-06
7.809035e-05 0.0002693594 -0.00013570173 0.0004289405 -2.7496228e-05 -1.8045237e-05 -6.144733e-05 0.00014115978
-0.00024911025 0.00020122174 -0.00011067554 -0.00022773429 0.00014189616 4.484635e-05 -0.0002706361 4.0962503e-05
0.000106718835 2.5154406e-05 -3.9634695e-05 -0.00023917451 -0.00010915654 7.853332e-05 -0.00026777745 -1.5345142e-05
-0.00015745655 -0.00015132064 -0.00012536063 0.00028414943 -0.0002758599 -0.00012254817 8.090747e-05 -3.391489e-05
9.651587e-05 -0.00019020622 -0.00020610601 -0.00010756751 -2.3126793e-05 -6.257639e-06 0.00015668714 9.473665e-05
0.00012565589 0.00023166394 3.7607006e-05 -6.7595116e-05 0.00010452114 -3.7873964e-05 0.00011325395 -2.4834468e-05
-7.1958757e-06 0.00014932507 -5.7947866e-05 -8.823168e-05 -4.7744743e-05 -7.975545e-05 0.00032326364 7.46123e-05
-0.00023991532 2.1857368e-05 -2.149971e-05 0.00034807614 5.160688e-05 -0.00018552876 0.00014820263 -0.0002629253
0.00018867878 1.2828191e-05 0.0002985143 -4.1278607e-05 0.00014550862 8.4245796e-05 7.58605e-05 -9.050577e-05
0.00040219238 -3.438225e-05 0.00021711671 -0.000118359494 -5.029571e-05 0.00046448456 -0.00030830968 -0.00023889414
6.120271e-05 8.2926475e-05 6.599514e-05 0.0003217008 -0.00017502804 0.00012608476 -0.00010197153 6.629459e-05
3.070584e-05 -0.00012998922 -0.00014325566 -7.307935e-05 0.00015606597 1.6829787e-05 -4.5938737e-05 0.00015674953
0.00030538908 3.9524657e-05 -3.8172308e-05 -0.00019977234 0.0001688705 -4.9993134e-05 -3.5857098e-05 -7.626488e-05
7.8178455e-05 -0.00022084478 -1.5701971e-06 -0.00020179711 1.37536235e-05 -0.00025567462 0.0002527807 -0.0002675928
8.840028e-05 -2.739976e-05 3.522733e-05 -0.0002188867 4.3456123e-05 8.15898e-05 4.787684e-05 0.00040134118
-2.4544903e-05 -0.00012691811 1.8410052e-06 8.062645e-06 2.7581968e-06 0.00018330106 0.00012812609 -0.00024372485
3.3822365e-05 -9.2913415e-06 0.0001568914 9.043157e-06 -0.00018450752 1.3694088e-05 -2.533606e-05 -3.6311358e-05
-3.33772e-05 -9.951101e-05 -0.000104673316 -1.9911035e-05 -9.978241e-05 2.437319e-05 -8.7103836e-05 8.605977e-05
-6.5900526e-06 -0.00011636496 -0.00033255966 -0.00017908639 -0.0002749525 -7.515497e-05 6.0863433e-05 -6.41648e-05
-3.5628327e-05 -0.0004333788 -3.163977e-05 -2.460536e-05 -0.00029616978 9.6945e-05 -0.00032214183 -0.0004212544
-7.7725024e-05 0.00019182077 0.00017719019 0.0002057921 -0.00036715274 -5.5623408e-05 0.00010152904 -5.172315e-05
0.00022343507 0.00014699093 3.2333726e-05 3.4065783e-05 0.00011841454 -4.71164e-05 -4.7235484e-05 -0.00032642813
-5.8793154e-05 -0.00012642815 -0.00010411813 3.8333877e-05 3.997673e-05 0.00017140768 -6.8970796e-05 -0.00041639755
-0.00012925323 1.39048325e-05 -0.00016980236 -0.0001823722 -0.00014184506 0.0002911506 5.4683507e-05 -0.0002402148
-0.00010480444 1.4216293e-06 0.00014893612 -0.00010328995 -2.1522103e-05 0.00014846347 8.133144e-05 7.914516e-05
3.0743337e-05 8.350014e-05 2.0002888e-05 -6.215273e-05 1.6398455e-05 -5.0459545e-05 -0.00010784147 2.7349795e-05
-6.878004e-05 -5.940253e-05 -0.00018735572 -8.3547275e-05 0.00012236867 -0.00018993244 -0.00051714736 -3.5643174e-05
0.00026313443 5.159316e-05 -1.57056e-05 0.00013310842 -0.00018077152 -4.098215e-05 -5.2178304e-05 -0.00012203984
-0.00020677772 -3.5941954e-05 -0.00037462547 -0.00017504337 0.00034377837 -0.00033241586 -0.00011777922 8.745577e-05
-5.448667e-05 1.3419495e-06 -0.00015389992 -5.49541e-05 6.126504e-05 4.4942146e-05 -0.00015020951 4.477643e-05
00000000: e9f0 9538 d5d8 d3b8 cbe1 a0b9 b06b 6139
00000010: 84db a338 4dec b338 1728 a4b9 2720 32b9
00000020: 513c 6539 17d0 4cb9 8920 3fb7 bb42 7b39
00000030: 4eeb 0db9 713c d238 5e3d d3b5 21f2 e836
00000040: 70c4 a338 cf38 8d39 284b 0eb9 6be3 e039
00000050: b3a7 e6b7 da5f 97b7 49dd 80b8 4a04 1439
00000060: 039b 82b9 0dff 5239 7a1a e8b8 f5cb 6eb9
00000070: f6c9 1439 6719 3c38 2ae4 8db9 27cf 2b38
00000080: 3dce df38 ad02 d337 6e3d 26b8 ebca 7ab9
00000090: f9ea e4b8 41b2 a438 7b64 8cb9 71b9 80b7
000000a0: ec1a 25b9 d3ab 1eb9 3d73 03b9 e4f9 9439
000000b0: 4aa1 90b9 4680 00b9 deac a938 d63f 0eb8
000000c0: 9068 ca38 1872 47b9 291e 58b9 de95 e1b8
000000d0: 6900 c2b7 b6f8 d1b6 624c 2439 5aad c638
000000e0: 7fc2 0339 d1ea 7239 37bc 1d38 dac1 8db8
000000f0: 5c32 db38 dcda 1eb8 c082 ed38 9d53 d0b7
00000100: 1a74 f1b6 2594 1c39 0c0d 73b8 0609 b9b8
00000110: 8741 48b8 6242 a7b8 b67b a939 2c79 9c38
00000120: c791 7bb9 575a b737 475a b4b7 fd7d b639
00000130: 7774 5838 7f8a 42b9 d766 1b39 3dd9 89b9
00000140: 13d8 4539 a938 5737 e981 9c39 9122 2db8
00000150: ac93 1839 1ead b038 4c17 9f38 eacd bdb8
00000160: 59dd d239 a935 10b8 d3a9 6339 c537 f8b8
00000170: 9bf4 52b8 1086 f339 a0a4 a1b9 a87f 7ab9
00000180: f459 8038 d0e8 ad38 df66 8a38 f3a9 a839
00000190: bb87 37b9 9f35 0439 8cd9 d5b8 a307 8b38
000001a0: 25ca 0038 b74d 08b9 e636 16b9 2d42 99b8
000001b0: a4a5 2339 b12d 8d37 58ae 40b8 225d 2439
000001c0: a11c a039 47c7 2538 341b 20b8 fb79 51b9
000001d0: d412 3139 b8af 51b8 4465 16b8 65f0 9fb8
000001e0: bdf3 a338 9292 67b9 90bf d2b5 8099 53b9
000001f0: 5dbf 6637 110c 86b9 a787 8439 b34b 8cb9
00000200: 8a63 b938 89d8 e5b7 0fc1 1338 f384 65b9
00000210: a844 3638 311b ab38 5ecf 4838 1a6b d239
00000220: c7e5 cdb7 5215 05b9 7518 f735 cc44 0737
00000230: 7619 3936 8134 4039 9659 0639 6490 7fb9
00000240: 7ddc 0d38 02e2 1bb7 3783 2439 10b8 1737
00000250: 5c78 41b9 a9bf 6537 c688 d4b7 064d 18b8
00000260: 7ffe 0bb8 91b0 d0b8 0f84 dbb8 9f06 a7b7
00000270: 4642 d1b8 0775 cc37 84ab b6b8 fd7a b438
00000280: 1f20 ddb6 f608 f4b8 675b aeb9 23c9 3bb9
00000290: 8027 90b9 849c 9db8 9d47 7f38 3790 86b8
000002a0: a06f 15b8 1e37 e3b9 f2b4 04b8 9c67 ceb7
000002b0: 3c47 9bb9 f34e cb38 25e5 a8b9 cfdb dcb9
000002c0: 4e00 a3b8 7f23 4939 21cc 3939 e5c9 5739
000002d0: 687e c0b9 2e4d 69b8 fdeb d438 4ff1 58b8
000002e0: e549 6a39 9421 1a39 139e 0738 dbe1 0e38
000002f0: 5255 f838 d99e 45b8 b71e 46b8 7124 abb9
00000300: ab98 76b8 cc91 04b9 ff59 dab8 b0c8 2038
00000310: b0ac 2738 e6bb 3339 6aa4 90b8 ef4f dab9
00000320: 2688 07b9 cd48 6937 f90c 32b9 2a3b 3fb9
00000330: 3ebc 14b9 92a5 9839 f85b 6538 2be2 7bb9
00000340: 75ca dbb8 d0ce be35 bc2b 1c39 5f9d d8b8
00000350: 5d8a b4b7 dcac 1b39 7c90 aa38 bcfa a538
00000360: 68f2 0038 cc1c af38 e0cb a737 fe57 82b8
00000370: 6a8f 8937 86a4 53b8 f328 e2b8 3d6d e537
00000380: 013e 90b8 fb26 79b8 eb74 44b9 1a36 afb8
00000390: 1750 0039 9a28 47b9 2c91 07ba 917f 15b8
000003a0: 4ef5 8939 bc65 5838 85bf 83b7 0593 0b39
000003b0: 7c8d 3db9 40e4 2bb8 07da 5ab8 a4ef ffb8
000003c0: 79d2 58b9 61c0 16b8 6169 c4b9 d98b 37b9
000003d0: 273d b439 1a48 aeb9 3d00 f7b8 7668 b738
000003e0: 9e88 64b8 091d b435 3260 21b9 847e 66b8
000003f0: 6b7b 8038 4380 3c38 8f81 1db9 53ce 3b38

autoencoders.0.encoder.encoder.backward_cells.0.lstm.bias_ih f4 [32]
0.0 0.0 0.0 0.0 0.0 0.0 0.0 0.0
0.0 0.0 0.0 0.0 0.0 0.0 0.0 0.0
0.0 0.0 0.0 0.0 0.0 0.0 0.0 0.0
0.0 0.0 0.0 0.0 0.0 0.0 0.0 0.0
00000000: 0000 0000 0000 0000 0000 0000 0000 0000
00000010: 0000 0000 0000 0000 0000 0000 0000 0000
00000020: 0000 0000 0000 0000 0000 0000 0000 0000
00000030: 0000 0000 0000 0000 0000 0000 0000 0000
00000040: 0000 0000 0000 0000 0000 0000 0000 0000
00000050: 0000 0000 0000 0000 0000 0000 0000 0000
00000060: 0000 0000 0000 0000 0000 0000 0000 0000
00000070: 0000 0000 0000 0000 0000 0000 0000 0000

autoencoders.0.encoder.encoder.backward_cells.0.lstm.bias_hh f4 [32]
0.0 0.0 0.0 0.0 0.0 0.0 0.0 0.0
0.0 0.0 0.0 0.0 0.0 0.0 0.0 0.0
0.0 0.0 0.0 0.0 0.0 0.0 0.0 0.0
0.0 0.0 0.0 0.0 0.0 0.0 0.0 0.0
00000000: 0000 0000 0000 0000 0000 0000 0000 0000
00000010: 0000 0000 0000 0000 0000 0000 0000 0000
00000020: 0000 0000 0000 0000 0000 0000 0000 0000
00000030: 0000 0000 0000 0000 0000 0000 0000 0000
00000040: 0000 0000 0000 0000 0000 0000 0000 0000
00000050: 0000 0000 0000 0000 0000 0000 0000 0000
00000060: 0000 0000 0000 0000 0000 0000 0000 0000
00000070: 0000 0000 0000 0000 0000 0000 0000 0000

autoencoders.0.decoder.cells.0.weight_h_2 f4 [16, 16]
0.24877696 -0.25067794 -0.00043063526 -0.2445082 0.29246914 0.19870749 -0.07287909 -0.42857316
-0.0002128455 0.29006344 0.49205342 -0.1308601 -0.5197501 0.030329384 -0.37337574 0.55269486
-0.04688429 -0.15219621 2.4265999e-05 -0.17762367 -0.29619503 0.2650353 0.056008216 -0.56677836
-0.00018190334 -0.44583806 0.039592642 4.8237423e-05 0.06604065 0.3098345 0.07970046 0.5262831
0.00011523214 -0.08851817 -3.0273568e-06 6.359847e-05 0.11244336 -0.08868653 0.24867377 0.41476703
9.729477e-05 -0.057051178 0.39871612 0.10123389 -0.021944467 0.3469517 -0.23311442 0.32294837
-0.00043087234 -9.555396e-05 3.2598913e-05 -0.14504571 -5.2242965e-05 0.046414953 -0.14190812 -0.17104426
-7.721843e-06 0.008792663 -0.31523603 -0.022467343 -0.0031852624 -0.04622608 0.05929509 -0.30887106
-0.22421359 0.14629509 0.19856474 -0.00025216836 0.12124278 -1.9030389e-05 -0.052151013 -0.62909657
-2.3796913e-05 0.30611208 0.0849741 -0.033369783 -0.063113 -0.16942237 -0.12714823 0.31513795
0.073264785 -0.22786607 -0.01596388 -0.024899375 -0.03772311 -0.0724468 -0.08011184 0.41416693
0.010047061 0.324015 -0.027014788 -0.15965866 -0.20017844 0.31479096 0.119171746 0.059155162
0.00019449857 0.31337777 0.30278492 -0.24505898 -2.9086483e-05 4.566361e-05 0.32273448 -0.34634867
-5.748035e-05 0.14398529 -0.24693584 0.099027604 0.102344304 0.38856387 -0.039667796 0.1040074
0.04298089 -0.24200387 -0.104164936 0.031604253 -0.46183488 -3.986184e-06 0.00012337771 0.111410506
-0.00015218744 -0.17621763 0.27710453 0.05168497 1.1281607e-05 0.14479525 -0.09288427 -0.055374935
0.000120786055 0.09609163 0.14395167 -0.21011183 -0.24972916 4.954882e-05 -0.48225126 0.15704548
-0.00019315729 -0.13910025 0.011072006 -0.31468523 -0.2332977 0.1723745 0.35557106 -0.035817068
-0.38395476 -0.4030841 -0.27484408 -0.6354699 0.05950504 -0.20622826 -0.2116003 -2.6701564e-05
0.27529535 -0.04215875 0.23827319 -0.13671146 -0.2264024 0.27534184 0.032699227 -0.1661176
-0.055629868 -0.12576786 -0.2763548 0.025062663 -0.03669387 5.203059e-05 -0.014565049 -0.14401671
-0.012850908 -0.21223542 0.54115385 -0.25166717 -0.0018283201 -0.31519648 6.132005e-05 0.07527954
0.00013491874 -0.19842108 0.11326281 -0.25290138 -0.10441322 -0.042513553 -0.21264403 0.008590722
6.5786895e-05 0.13342999 0.16035812 -0.039950825 0.18276645 0.070464514 0.048024308 0.28804895
0.00017144189 -0.035802342 2.0349466e-05 0.0966885 0.22533084 0.2635779 -0.49090004 -0.10773837
-0.059737917 -0.2866505 -4.3960496e-05 -0.07704423 -0.38643637 0.0040004756 -0.11685343 0.10409786
-0.08688474 -0.16584624 -0.09185653 -0.6614416 -0.3456977 -0.10789117 -0.00028776628 -4.0878294e-05
0.038392335 0.00024676116 -0.16600627 -0.20451148 -0.12682647 0.3063285 -0.42011586 0.06264374
0.1689654 -0.22494268 0.119302824 0.034075607 0.15737446 -0.40321293 0.3844254 -0.044227313
6.8787194e-05 0.01992138 -0.057226125 -0.09074138 -3.1026262e-05 -0.29326412 0.118289456 -0.066841654
0.37459487 -0.49413195 -0.20562135 -0.41600075 0.12731926 0.11899509 -0.19519477 -0.08983606
-0.20201004 0.06811792 -0.02401378 0.12346758 0.23185815 -0.2754431 -0.7316043 0.44508123
00000000: 63bf 7e3e dc58 80be e3c6 e1b9 5c60 7abe
00000010: 84be 953e fa79 4b3e a241 95bd f16d dbbe
00000020: 472f 5fb9 3283 943e 6dee fb3e 3100 06be
00000030: 580e 05bf 5475 f83c 1b2b bfbe 697d 0d3f
00000040: be09 40bd 53d9 1bbe d68e cb37 fbe2 35be
00000050: e0a6 97be b5b2 873e df68 653d 6318 11bf
00000060: 4ebd 3eb9 e344 e4be e52b 223d 8a52 4a38
00000070: 5240 873d a1a2 9e3e ff39 a33d 7dba 063f
00000080: c9a8 f138 0449 b5bd 9829 4bb6 2b60 8538
00000090: b448 e63d 49a1 b5bd 56a4 7e3e 585c d43e
000000a0: bb0a cc38 7fae 69bd 8524 cc3e b753 cf3d
000000b0: e2c4 b3bc a7a3 b13e 8cb5 6ebe 7d59 a53e
000000c0: b5e6 e1b9 2464 c8b8 d1ba 0838 dd86 14be
000000d0: 751f 5bb8 9b1d 3e3d 5d50 11be 3a26 2fbe
000000e0: 108d 01b7 1a0f 103c 9e66 a1be 6f0d b8bc
000000f0: d6bf 50bb 8f57 3dbd 69df 723d 5924 9ebe
00000100: 3f98 65be 61ce 153e 8e54 4b3e 7735 84b9
00000110: 224e f83d 73a3 9fb7 4d9c 55bd 790c 21bf
00000120: 7b9f c7b7 b9ba 9c3e e706 ae3d c1ae 08bd
00000130: 6341 81bd 0f7d 2dbe 2533 02be c359 a13e
00000140: d90b 963d b955 69be afc6 82bc c6f9 cbbc
00000150: 8c83 1abd fd5e 94bd ad11 a4bd b00d d43e
00000160: 6e9c 243c 4be5 a53e 1e4e ddbc 8f7d 23be
00000170: 94fb 4cbe 482c a13e 5110 f43d af4c 723d
00000180: 50f2 4b39 0d73 a03e a006 9b3e bef0 7abe
00000190: bffe f3b7 ee86 3f38 743d a53e 9d54 b1be
000001a0: 0e17 71b8 e170 133e c0dc 7cbe fcce ca3d
000001b0: e499 d13d d8f1 c63e b37a 22bd d501 d53d
000001c0: bb0c 303d ddcf 77be 6d54 d5bd 7673 013d
000001d0: 9f75 ecbe 0fc1 85b6 f45e 0139 312b e43d
000001e0: 8194 1fb9 6572 34be a5e0 8d3e 9eb3 533d
000001f0: 2246 3d37 3545 143e 1c3a bebd d4d0 62bd
00000200: 854e fd38 b0cb c43d 1168 133e 8e27 57be
00000210: 00b9 7fbe a4d2 4f38 a3e9 f6be 88d0 203e
00000220: 448a 4ab9 4c70 0ebe 5c67 353c 6c1e a1be
00000230: 98e5 6ebe f182 303e 690d b63e ebb4 12bd
00000240: b895 c4be 0a61 cebe 5db8 8cbe 28ae 22bf
00000250: 8fbb 733d 802d 53be c0ad 58be 2cfd dfb7
00000260: 83f3 8c3e a7ae 2cbd e3fd 733e 17fe 0bbe
00000270: 08d6 67be 9bf9 8c3e a0ef 053d bb1a 2abe
00000280: 25dc 63bd 4ac9 00be 607e 8dbe 3750 cd3c
00000290: 504c 16bd 6c3b 5a38 3ea2 6ebc 1e79 13be
000002a0: 9d8c 52bc 3e54 59be 0f89 0a3f 85da 80be
000002b0: 3ea4 efba 6f61 a1be f398 8038 292c 9a3d
000002c0: f978 0d39 e52e 4bbe 55f6 e73d 4a7c 81be
000002d0: 99d6 d5bd b122 2ebd 5bbf 59be 1ac0 0c3c
000002e0: 12f7 8938 dfa1 083e eb34 243e 7aa3 23bd
000002f0: 2127 3b3e b34f 903d 23b5 443d 277b 933e
00000300: 15c5 3339 7aa5 12bd 25b4 aa37 9f04 c63d
00000310: 21bd 663e aff3 863e 4057 fbbe efa5 dcbd
00000320: bfaf 74bd dbc3 92be 3962 38b8 5ec9 9dbd
00000330: fdda c5be 6c16 833b da50 efbd 4231 d53d
00000340: a0f0 b1bd 99d3 29be 471f bcbd 3d54 29bf
00000350: 4aff b0be 0cf6 dcbd 56df 96b9 bc74 2bb8
00000360: 4841 1d3d b95f 8139 8cfd 29be 756b 51be
00000370: ccde 01be 17d7 9c3e 6d19 d7be 5c4b 803d
00000380: 4405 2d3e 6057 66be 0a55 f43d dd92 0b3d
00000390: c526 213e ed71 cebe 68d3 c43e b327 35bd
000003a0: d841 9038 2932 a33c f165 6abd 9ed6 b9bd
000003b0: 3222 02b8 b726 96be be41 f23d 47e4 88bd
000003c0: e6ca bf3e ddfe fcbe 678e 52be 0dfe d4be
000003d0: fb5f 023e b3b3 f33d 23e1 47be f8fb b7bd
000003e0: b8db 4ebe 6881 8b3d 8cb8 c4bc 92dc fc3d
000003f0: 396c 6d3e e106 8dbe 6b4a 3bbf b0e1 e33e

autoencoders.0.decoder.cells.0.bias_h_2 f4 [16]
0.054697026 -0.04588251 2.70853e-05 -0.056721497 -0.07613537 -0.02166809 -0.058054227 -0.047399428
0.00019867363 0.04951038 0.03340099 -0.033381525 -0.079121456 0.038533315 -0.029634466 0.026087914
00000000: fd09 603d 4cef 3bbd 3d35 e337 cd54 68bd
00000010: dcec 9bbd 4781 b1bc 45ca 6dbd e725 42bd
00000020: 0c53 5039 65cb 4a3d 7acf 083d 11bb 08bd
00000030: 6e0a a2bd 1cd5 1d3d fbc3 f2bc 52b6 d53c

autoencoders.0.decoder.cells.0.lstm.weight_ih f4 [64, 1]
0.030430779 -5.6228637e-05 0.03731449 0.28415188 0.0001196249 -1.3703976e-05 -0.0011732634 -0.115915604
-8.372975e-05 0.013017016 0.0630806 0.00027067948 0.0003855472 0.4058648 0.009486563 0.13433172
-6.2145344e-05 -7.226652e-05 3.986366e-05 -0.17171547 0.07540971 0.1011603 -6.485704e-05 0.15431787
-0.00022294474 0.2365593 0.055995166 0.00012726524 0.0004153596 0.21554302 2.6414387e-05 0.21957237
0.13089094 -0.09581972 -0.09009758 -0.18473706 -0.02601582 0.23245828 0.0035786047 -0.008529723
0.05304011 0.10086096 0.20641406 0.049998518 0.06151933 0.06797126 0.05931741 0.48893428
0.13964218 0.06846507 0.23499304 0.28524998 0.10699561 0.47352314 -0.007826016 0.07374939
-0.0003831946 0.11656079 0.24438548 0.00038219435 0.00039787393 0.37004456 -0.05747377 0.325124
00000000: f849 f93c 0ad7 6bb8 14d7 183d 5b7c 913e
00000010: 21df fa38 21ea 65b7 30c8 99ba 2965 edbd
00000020: 1198 afb8 5345 553c 6730 813d fce9 8d39
00000030: 4523 ca39 83cd cf3e 876d 1b3c 418e 093e
00000040: 0754 82b8 cb8d 97b8 4733 2738 2ed6 2fbe
00000050: 6870 9a3d 222d cf3d dc03 88b8 8105 1e3e
00000060: 46c6 69b9 9a3c 723e 305b 653d 8172 0539
00000070: 9fc4 d939 4fb7 5c3e 7794 dd37 94d7 603e
00000080: 4608 063e 213d c4bd 1485 b8bd b62b 3dbe
00000090: 211f d5bc 8b09 6e3e 0687 6a3b 40c0 0bbc
000000a0: 9640 593d 3190 ce3d 355e 533e 3fcb 4c3d
000000b0: b1fb 7b3d 8434 8b3d d0f6 723d 9855 fa3e
000000c0: 5cfe 0e3e 6a37 8c3d 04a2 703e 490c 923e
000000d0: 8420 db3d a071 f23e b138 00bc ec09 973d
000000e0: 82e7 c8b9 6cb7 ee3d 3040 7a3e 4261 c839
000000f0: bc99 d039 7b76 bd3e 9e69 6bbd a776 a63e

autoencoders.0.decoder.cells.0.lstm.weight_hh f4 [64, 16]
-0.0004891636 0.00011849814 6.787706e-05 8.451705e-05 1.6351229e-05 9.553745e-06 -0.00014114476 -7.1988165e-05
-0.00019442671 -0.00031394 0.053802807 0.00011891544 -0.0001295916 0.26993173 5.1445833e-05 2.0298377e-05
-0.00021825405 0.00013302831 3.0501877e-05 4.948291e-05 0.026147138 1.8717514e-05 -7.1578174e-06 2.2744993e-05
-0.00010510754 0.014745269 -0.00072376383 -6.796856e-05 -8.0562795e-06 -0.00014223027 -0.00011082455 -0.00039592516
-0.00024249291 -2.358798e-05 9.942074e-05 -0.00016246851 7.256349e-05 9.705557e-05 -7.569362e-05 1.7484972e-05
3.0346598e-06 5.1211468e-05 0.00034890036 3.7908492e-05 -0.00010490692 -0.00015904536 4.7957627e-05 -1.7767832e-05
-0.041089386 0.0004314683 0.00025878334 -8.3219575e-06 -0.0015362237 0.21418494 -0.00013148334 0.00019487532
0.00014719076 0.29214805 -0.00027099464 0.025218626 0.12011758 -3.8496717e-05 3.394507e-06 -0.00019318443
8.482068e-05 4.3554966e-05 1.5872867e-05 -8.2492275e-05 -5.4808086e-05 2.8102328e-05 9.1089634e-05 0.001165082
0.00049316563 4.5395722e-05 0.000109494766 -9.918675e-05 -5.7908883e-06 0.1430597 5.198398e-05 -0.00010887355
0.004482428 -0.021306 -3.9613537e-05 0.00012203853 -0.018604355 -0.12973846 4.402441e-05 9.11568e-05
0.011294267 -0.20876136 0.047807317 -3.122069e-05 0.22415617 -3.3492004e-05 -0.046188533 -0.01922924
0.00021798379 0.00019507592 -1.4275405e-05 3.7822287e-05 -0.096753865 0.0056360043 7.706134e-05 -4.1122355e-05
0.15380448 -4.9724953e-05 0.00013524435 0.0075363615 0.027443122 0.00011148767 0.000111660695 -9.9137564e-05
0.037391875 -0.02081813 0.15061167 -1.7893186e-05 0.16190358 -0.07286282 -1.761533e-05 5.462612e-05
0.08131601 6.9565235e-06 0.16028373 -3.802498e-05 1.1457264e-05 0.09531 0.092875205 -0.35963652
-0.00012005028 -5.2703985e-05 6.7579145e-05 -0.00011310599 0.00013604465 -3.8462418e-05 2.052275e-05 0.00011255133
-5.307097e-05 0.00011092193 9.152106e-05 -0.00015696924 -0.0002730141 9.3872935e-05 2.2659338e-05 0.0002465677
0.12414768 0.029444447 -9.36201e-05 0.04597189 0.062428277 -0.051821027 5.042674e-05 -6.6357905e-05
-0.0007521536 -0.00013506369 0.054969847 0.2317824 0.12235799 0.027375247 -0.00014564072 0.124069974
0.00024498426 0.0071733966 -1.48701865e-05 1.5298217e-05 -0.06663507 0.045716215 0.0026910496 -0.014286174
-0.00012649065 -3.8798335e-05 0.06342621 0.10033881 0.07141072 0.07866367 6.687177e-05 0.08837423
5.5982557e-05 0.00018415338 6.755226e-05 2.5549928e-06 4.3129236e-05 0.000104069775 2.8765717e-05 -4.801096e-05
8.341822e-05 -0.00011078985 -0.00044336496 9.242016e-05 6.8577574e-05 0.00010930628 -0.0002121369 8.856388e-07
0.0012852661 0.00012654172 8.7021785e-05 -0.00016288328 -0.00016781475 -0.00013205472 0.00011816443 -3.1636053e-05
-0.0001462387 0.0006191753 0.0011708623 -1.8083982e-05 -3.46718e-05 0.0007522688 8.52475e-05 0.00046126236
-1.1284478e-05 -5.3821335e-05 -0.00030967616 -2.9841025e-05 0.09475828 0.047406383 -0.00021968647 -0.00034268975
9.87923e-05 8.964658e-05 -9.653705e-05 0.10063453 -0.00016522342 -0.2046277 -0.00021012449 0.110346965
-0.00018462483 5.065229e-05 4.004706e-05 0.00016364959 -0.00011355131 0.00012109572 -4.997877e-05 5.1248848e-05
0.00012723831 -4.3517553e-05 2.2807633e-06 -0.05482865 0.0001366957 -0.00017323352 -9.213692e-05 0.040537573
0.18823141 0.0006641749 0.0003465622 0.11851306 0.00013391495 0.19129181 0.009575073 3.8627913e-05
0.031209446 0.040167987 0.12878732 0.27604008 0.0001855404 0.18916436 0.00059896533 0.18566976
00000000: 373b 00ba 3482 f838 3859 8e38 bf3e b138
00000010: ff29 8937 0649 2037 4200 14b9 5af8 96b8
00000020: 06df 4bb9 5098 a4b9 5560 5c3d 3e62 f938
00000030: fbe2 07b9 7e34 8a3e 8bc7 5738 6f46 aa37
00000040: 20db 64b9 847d 0b39 48de ff37 df8b 4f38
00000050: 8632 d63c 8e03 9d37 2f2d f0b6 80cc be37
00000060: 2e6d dcb8 2496 713c f8ba 3dba 588a 8eb8
00000070: 7529 07b7 a623 15b9 7a6a e8b8 2d94 cfb9
00000080: b245 7eb9 cdde c5b7 1a80 d038 4f5c 2ab9
00000090: 3a2d 9838 508a cb38 b4bd 9eb8 b1ac 9237
000000a0: 0fa7 4b36 e5cb 5638 9dec b639 efff 1e38
000000b0: 7901 dcb8 6ac5 26b9 1c26 4938 210c 95b7
000000c0: 584d 28bd b236 e239 50ad 8739 899e 0bb7
000000d0: 1d5b c9ba 4c53 5b3e cade 09b9 7257 4c39
000000e0: 3857 1a39 6e94 953e 4914 8eb9 4b97 ce3c
000000f0: 3500 f63d 8977 21b8 30cd 6336 8d91 4ab9
00000100: c1e1 b138 caae 3638 b926 8537 b4ff acb8
00000110: bce1 65b8 4abd eb37 6007 bf38 aab5 983a
00000120: c947 013a 4967 3e38 8ea0 e538 7b02 d0b8
00000130: 5a4f c2b6 3e7e 123e 6009 5a38 0b53 e4b8
00000140: 55e1 923b ec89 aebc b626 26b8 f0ee ff38
00000150: 2968 98bc 29da 04be daa6 3838 6f2b bf38
00000160: 970b 393c 8ac5 55be 9bd1 433d f6f2 02b8
00000170: 3289 653e c479 0cb8 3030 3dbd a486 9dbc
00000180: 9492 6439 4b8d 4c39 6680 6fb7 5fa3 1e38
00000190: e426 c6bd 3bae b83b fe9b a138 cb7a 2cb8
000001a0: ec7e 1d3e c38f 50b8 61d0 0d39 95f3 f63b
000001b0: 66d0 e03c 7dce e938 612b ea38 13e8 cfb8
000001c0: 3928 193d c88a aabc f239 1a3e 5319 96b7
000001d0: 0dca 253e 1a39 95bd a2c4 93b7 5a1e 6538
000001e0: 0289 a63d 156c e936 6b21 243e 037d 1fb8
000001f0: 9338 4037 e431 c33d 5b35 be3d 4722 b8be
00000200: 81c3 fbb8 790e 5db8 47b9 8d38 5133 edb8
00000210: 35a7 0e39 b552 21b8 4528 ac37 8909 ec38
00000220: 8598 5eb8 c29e e838 ffee bf38 1c98 24b9
00000230: 5523 8fb9 a6dd c438 8f14 be37 c245 8139
00000240: 2441 fe3d 7b35 f13c e955 c4b8 054d 3c3d
00000250: cbb4 7f3d 4942 54bd 4d81 5338 a129 8bb8
00000260: 2c2c 45ba e29f 0db9 1028 613d 5e58 6d3e
00000270: d396 fa3d 0e42 e03c 22b7 18b9 6618 fe3d
00000280: 3b71 8039 d00e eb3b f77a 79b7 ac54 8037
00000290: f877 88bd ed40 3b3d 525c 303b 8f10 6abc
000002a0: 93a2 04b9 65bb 22b8 9ae5 813d 6f7e cd3d
000002b0: c93f 923d 6b1a a13d 823d 8c38 8cfd b43d
000002c0: d0ce 6a38 4c19 4139 d8aa 8d38 7176 2b36
000002d0: aae5 3438 0940 da38 e84d f137 605f 49b8
000002e0: d1f0 ae38 d957 e8b8 7073 e8b9 b2d1 c138
000002f0: 4ed1 8f38 5d3b e538 1171 5eb9 a3bc 6d35
00000300: 6076 a83a 49b0 0439 777f b638 a6cb 2ab9
00000310: 6ef7 2fb9 2b78 0ab9 0ccf f738 f4b0 04b8
00000320: a757 19b9 2750 223a 9f77 993a 0eb3 97b7
00000330: 906c 11b8 e833 453a e7c6 b238 96d5 f139
00000340: 7752 3db7 38be 61b8 085c a2b9 1d53 fab7
00000350: a110 c23d 322d 423d a35b 66b9 0aab b3b9
00000360: b62e cf38 a400 bc38 ef73 cab8 7a19 ce3d
00000370: d33f 2db9 ec89 51be dd54 5cb9 97fd e13d
00000380: da97 41b9 7b73 5438 34f8 2738 5a99 2b39
00000390: 6522 eeb8 c5f4 fd38 4ca0 51b8 08f4 5638
000003a0: 466b 0539 9e86 36b8 370f 1936 0294 60bd
000003b0: f955 0f39 05a6 35b9 a239 c1b8 ba0a 263d
000003c0: bcbf 403e 061c 2e3a cbb2 b539 fab6 f23d
000003d0: 856b 0c39 00e2 433e c4e0 1c3c 6804 2238
000003e0: f4aa ff3c 3087 243d d3e0 033e 2055 8d3e
000003f0: 9f8d 4239 4db4 413e e203 1d3a 3720 3e3e

autoencoders.0.decoder.cells.0.lstm.bias_ih f4 [64]
0.00016350977 -0.00023699418 -0.00016537898 0.011055284 -6.2874137e-06 -0.0065161646 0.003307693 0.025345944
0.000107210915 0.020463318 0.00052144204 -2.1045254e-05 0.00025547235 -0.00010850403 -0.00021430374 0.12804109
-0.00032164232 9.170939e-05 0.00010384598 -0.00012345688 -3.4120337e-06 -0.0018684473 -1.8030156e-05 0.010063236
0.0002290645 -0.0125044435 -6.472655e-05 -0.000114936316 0.00040201456 -0.008400751 -0.00011069045 0.12666214
0.02359846 -0.026207225 -0.009579606 -0.023668455 -0.044925697 -0.024300987 -0.04655922 -0.036747333
-8.986862e-05 0.024250194 0.05950122 -0.027637362 -0.07181594 0.034181856 -0.026346797 -0.023280796
0.0003130802 -0.00025055808 -0.00014051936 0.034652766 1.091162e-05 -0.00090509676 0.021659994 0.016566096
-6.1422594e-05 0.031222688 0.0005188903 -5.7956637e-05 0.00034255744 0.018828422 -5.934983e-05 0.12916423
00000000: d273 2b39 a481 78b9 9569 2db9 3921 353c
00000010: 79f8 d2b6 8d85 d5bb e1c5 583b 4ca2 cf3c
00000020: 6cd6 e038 b0a2 a73c 62b1 083a 578a b0b7
00000030: ebf0 8539 a88c e3b8 b9b6 60b9 341d 033e
00000040: 1aa2 a8b9 1b54 c038 e3c7 d938 3474 01b9
00000050: 4bfa 64b6 b0e6 f4ba 773f 97b7 45e0 243c
00000060: 0931 7039 70df 4cbc cdbd 87b8 f709 f1b8
00000070: 7bc5 d239 4ea3 09bc 7c22 e8b8 b8b3 013e
00000080: 8f51 c13c 89b0 d6bc c8f3 1cbc 59e4 c1bc
00000090: 0204 38bd dd12 c7bc e1b4 3ebd 5f84 16bd
000000a0: d977 bcb8 58a8 c63c 8db7 733d c067 e2bc
000000b0: 3c14 93bd 4602 0c3d 3dd5 d7bc 5eb7 bebc
000000c0: ea24 a439 565d 83b9 6158 13b9 0ff0 0d3d
000000d0: 0d11 3737 0444 6dba 4d70 b13c 9fb5 873c
000000e0: 01d0 80b8 b9c6 ff3c 2306 083a 7716 73b8
000000f0: 4899 b339 103e 9a3c 65ee 78b8 a143 043e

autoencoders.0.decoder.cells.0.lstm.bias_hh f4 [64]
0.00016350977 -0.00023699418 -0.00016537898 0.011055284 -6.2874137e-06 -0.0065161646 0.003307693 0.025345944
0.000107210915 0.020463318 0.00052144204 -2.1045254e-05 0.00025547235 -0.00010850403 -0.00021430374 0.12804109
-0.00032164232 9.170939e-05 0.00010384598 -0.00012345688 -3.4120337e-06 -0.0018684473 -1.8030156e-05 0.010063236
0.0002290645 -0.0125044435 -6.472655e-05 -0.000114936316 0.00040201456 -0.008400751 -0.00011069045 0.12666214
0.02359846 -0.026207225 -0.009579606 -0.023668455 -0.044925697 -0.024300987 -0.04655922 -0.036747333
-8.986862e-05 0.024250194 0.05950122 -0.027637362 -0.07181594 0.034181856 -0.026346797 -0.023280796
0.0003130802 -0.00025055808 -0.00014051936 0.034652766 1.091162e-05 -0.00090509676 0.021659994 0.016566096
-6.1422594e-05 0.031222688 0.0005188903 -5.7956637e-05 0.00034255744 0.018828422 -5.934983e-05 0.12916423
00000000: d273 2b39 a481 78b9 9569 2db9 3921 353c
00000010: 79f8 d2b6 8d85 d5bb e1c5 583b 4ca2 cf3c
00000020: 6cd6 e038 b0a2 a73c 62b1 083a 578a b0b7
00000030: ebf0 8539 a88c e3b8 b9b6 60b9 341d 033e
00000040: 1aa2 a8b9 1b54 c038 e3c7 d938 3474 01b9
00000050: 4bfa 64b6 b0e6 f4ba 773f 97b7 45e0 243c
00000060: 0931 7039 70df 4cbc cdbd 87b8 f709 f1b8
00000070: 7bc5 d239 4ea3 09bc 7c22 e8b8 b8b3 013e
00000080: 8f51 c13c 89b0 d6bc c8f3 1cbc 59e4 c1bc
00000090: 0204 38bd dd12 c7bc e1b4 3ebd 5f84 16bd
000000a0: d977 bcb8 58a8 c63c 8db7 733d c067 e2bc
000000b0: 3c14 93bd 4602 0c3d 3dd5 d7bc 5eb7 bebc
000000c0: ea24 a439 565d 83b9 6158 13b9 0ff0 0d3d
000000d0: 0d11 3737 0444 6dba 4d70 b13c 9fb5 873c
000000e0: 01d0 80b8 b9c6 ff3c 2306 083a 7716 73b8
000000f0: 4899 b339 103e 9a3c 65ee 78b8 a143 043e

autoencoders.0.decoder.output_layer.weight f4 [1, 16]
0.097925074 -0.1257496 0.0011934313 -0.19315878 -0.1379614 -0.022418361 -0.04516692 -0.032743096
0.030205432 0.17648661 0.26714355 -0.057120934 -0.034450367 0.21933168 -0.052354224 0.1987275
00000000: f18c c83d 81c4 00be e96c 9c3a 6acb 45be
00000010: c145 0dbe b6a6 b7bc f300 39bd a01d 06bd
00000020: 6271 f73c e8b8 343e 0ac7 883e a4f7 69bd
00000030: d41b 0dbd 7c98 603e 6271 56bd 397f 4b3e

autoencoders.1.encoder.encoder.forward_cells.0.weight_h_2 f4 [8, 8]
-0.00037164634 8.8874156e-05 -0.00030596773 -0.0001450448 -4.637428e-05 4.188387e-05 -3.887691e-05 -0.00031895057
-0.00018761422 0.00018470065 9.682836e-05 -4.5455425e-05 -7.321057e-05 -0.00031345786 0.00013842924 -0.00035314358
0.00021130995 -8.418277e-05 -0.00012499632 6.5353735e-05 -3.5265846e-05 -5.7163918e-05 -3.5483477e-05 -0.09377073
0.0002411776 -0.0001361515 8.18091e-05 6.428134e-05 3.0037503e-05 0.00032207087 -8.9681425e-06 -0.00018587912
-1.1229493e-05 -0.00044806657 5.8259834e-06 6.536461e-05 5.51309e-06 -0.00030319762 -3.490381e-05 -0.0003194765
-8.589691e-05 -0.000101760685 1.5796053e-05 -0.00031689712 -3.0621424e-05 -2.1151236e-05 0.000207421 2.2275635e-05
0.00025994307 0.0003761255 -0.00017606528 -3.2695876e-05 4.2386182e-05 -7.285899e-05 5.517911e-08 -1.7051923e-05
-0.00041140386 0.00013987461 -0.00032752755 -0.00020612027 0.00013609102 -5.056688e-05 -0.0001497113 -0.00018164364
00000000: 87d9 c2b9 f361 ba38 4b6a a0b9 2b17 18b9
00000010: 0182 42b8 77ac 2f38 c40f 23b8 d238 a7b9
00000020: 4fba 44b9 34ac 4139 5410 cb38 64a7 3eb8
00000030: a088 99b8 9a57 a4b9 5127 1139 2126 b9b9
00000040: 1593 5d39 488b b0b8 7211 03b9 850e 8938
00000050: 6aea 13b8 4ac3 6fb8 18d4 14b8 de0a c0bd
00000060: 9ee4 7c39 e4c3 0eb9 ed90 ab38 c8ce 8638
00000070: 0cf9 fb37 9fdb a839 e175 16b7 8ce8 42b9
00000080: 4e66 3cb7 7aea eab9 d17c c336 5c14 8938
00000090: 15fd b836 7ff6 9eb9 ae65 12b8 697f a7b9
000000a0: 8d23 b4b8 5a68 d5b8 c481 8437 3625 a6b9
000000b0: 816f 00b8 ef6d b1b7 277f 5939 90dc ba37
000000c0: f848 8839 b632 c539 2a9e 38b9 ee22 09b8
000000d0: d1c7 3138 dfcb 98b8 13fe 6c33 ba0a 8fb7
000000e0: b1b1 d7b9 4eab 1239 01b8 abb9 fd21 58b9
000000f0: a8b3 0e39 c617 54b8 d2fb 1cb9 9877 3eb9

autoencoders.1.encoder.encoder.forward_cells.0.bias_h_2 f4 [8]
0.0 0.0 0.0 0.0 0.0 0.0 0.0 0.0
00000000: 0000 0000 0000 0000 0000 0000 0000 0000
00000010: 0000 0000 0000 0000 0000 0000 0000 0000

autoencoders.1.encoder.encoder.forward_cells.0.lstm.weight_ih f4 [32, 1]
-7.4374357e-06 0.0003191187 0.00010916806 -9.7726435e-05 0.0001005701 -0.00016570887 -0.00016853187 -0.00020520773
-0.00010966829 -9.258565e-05 3.1192347e-05 0.00012039425 -0.00017425939 -9.148288e-05 -8.360151e-05 -0.0003084669
-9.315278e-05 5.9906174e-06 -0.0001572152 4.4015346e-06 -5.3780244e-05 1.856705e-05 -3.7167672e-05 0.00047122926
-0.00021459167 -0.00019939964 5.4489843e-05 0.000124815 0.0002018775 -0.00025409408 -5.7501005e-05 -0.00041569365
00000000: 168f f9b6 634f a739 28f1 e438 7bf2 ccb8
00000010: 29e9 d238 23c2 2db9 eeb7 30b9 082d 57b9
00000020: b7fd e5b8 8b2a c2b8 87d4 0238 2c7c fc38
00000030: 66b9 36b9 7fda bfb8 3853 afb8 bab9 a1b9
00000040: 055b c3b8 0303 c936 22da 24b9 e5b0 9336
00000050: 1992 61b8 70c0 9b37 7ce4 1bb8 520f f739
00000060: 0304 61b9 ef15 51b9 068c 6438 c5e0 0239
00000070: 14af 5339 ee37 85b9 3c2d 71b8 75f1 d9b9

autoencoders.1.encoder.encoder.forward_cells.0.lstm.weight_hh f4 [32, 8]
0.000110010755 1.0241312e-05 0.00016600687 0.00017269503 -2.7067947e-05 9.843477e-06 -0.00012728534 -0.00012049445
-1.4802288e-05 0.00028382384 0.0001137854 -0.00014917781 0.00018870132 -0.00026705436 -0.00019303206 0.00012776646
5.2567786e-05 -0.0002382322 -0.00029767415 -0.00021578836 2.1331582e-05 -0.00027202157 0.00015073783 -2.134457e-05
0.00011321785 -0.00017233253 -0.0002552812 -0.00018888936 7.646724e-05 0.00013663928 -0.00014272211 8.185327e-05
-0.00012244127 0.00015545545 0.0001555534 -0.0004090184 -0.0003310531 0.0001421459 5.4097094e-05 -2.0321766e-05
-9.998036e-06 2.4793295e-05 -0.00011604732 -0.00011474568 0.000103759325 -0.00019199184 1.13681535e-05 -0.00012829751
1.911392e-05 -9.865217e-05 2.3986186e-05 -1.19072e-05 -0.00013397004 -0.00018771176 -9.075031e-05 0.00012616567
0.0004591066 -1.4361926e-05 -0.0001352708 0.00011937888 0.00017456357 -0.00018940527 0.00018127967 -7.290605e-05
-2.2995953e-05 -0.00012266295 9.156219e-05 0.00017904896 2.6957723e-05 -0.00028471905 -3.0839874e-05 -3.0707208e-05
3.1527266e-05 -5.470582e-06 -0.0003397896 -0.00012864101 2.4198745e-05 -0.00023262047 1.6250337e-05 -4.073033e-05
0.00026055262 0.00015386577 7.800797e-05 0.00011164633 0.00011902717 -6.4986802e-06 0.0002205646 -3.3485245e-05
-8.29562e-05 0.00012915708 0.000108070744 0.00027305415 0.00020726127 -0.00013069322 -8.3178886e-05 -0.000133293
-0.00010162851 -2.311466e-05 6.1878665e-05 6.817609e-05 5.6421704e-05 0.00017899403 5.0726107e-05 1.5658476e-05
1.4803323e-05 7.2935e-05 1.7043581e-05 -0.00011869108 -5.1690302e-05 4.2114327e-05 -8.872069e-06 3.3669e-05
0.0001919004 0.00045413565 0.00022845103 1.5544352e-05 -8.009723e-05 -0.00034714327 -3.31496e-05 -0.00033537764
2.9286917e-05 0.00010035775 -2.5828407e-05 -2.9239844e-05 -0.00027154374 -6.5173335e-05 -0.00015981037 1.143373e-05
8.009408e-05 -0.00012241173 -0.0003734651 -0.00018428436 0.00015443694 -1.4139938e-05 -0.00011744207 -0.00019038822
5.412858e-05 -8.533466e-05 -0.00012288085 9.446928e-05 0.00018761904 6.0046408e-05 0.00023752691 0.0002701315
-2.2134822e-05 3.6638983e-05 -0.00010712918 9.9129895e-05 0.0003810486 3.3465058e-05 8.723758e-05 0.00025362722
-9.018433e-05 -9.22062e-05 6.408231e-05 -0.0001828684 7.2425864e-06 -1.5588283e-05 0.00028711127 -0.00032791428
-0.00021262 -0.00014630129 -0.00046109984 3.5110327e-06 -3.955155e-05 5.4212862e-05 -0.000130823 1.968314e-05
-8.7497705e-05 0.0001895966 0.00013658349 -0.00028415123 3.8963713e-05 -0.00016969237 0.00031523203 -0.0001515468
6.108974e-05 0.00013536836 -0.00016260624 -6.08086e-06 2.5865763e-06 0.00022642211 -0.000117947486 6.7791785e-05
-6.900069e-05 2.3449635e-05 -1.2367277e-05 0.00030067045 4.2368583e-06 -0.00020351361 0.00010700238 0.00016317426
-0.00013922603 0.000287622 -0.0003032185 -0.00023953017 -0.00024829974 2.6458798e-05 -1.5831243e-05 -9.368853e-05
-7.2537056e-05 0.00016628677 -0.00016271672 0.000104361294 3.993691e-05 -3.6732574e-05 0.00014622227 -3.9011535e-05
0.00014124285 -5.91515e-05 6.0795566e-05 0.00016201907 6.594535e-05 0.00043302134 -0.00026780393 0.0001299879
7.2970644e-05 -7.654942e-05 4.793848e-05 -3.795908e-05 0.00022813953 -3.235991e-05 -4.385733e-05 -9.613772e-05
0.00013589641 -0.00022210677 -6.43827e-06 -8.977907e-05 8.270017e-05 0.00040871833 6.49266e-05 -4.687663e-05
0.00016387261 -0.00016006306 6.358223e-05 -0.00023103521 -0.00013059488 0.00020107537 0.00023930946 8.4115445e-06
7.701784e-06 -5.4975317e-05 -6.878579e-05 -0.00014157919 -4.9726816e-05 0.0001526178 8.853379e-06 -0.0001454615
-0.00017213989 0.00026014922 0.00014219232 -9.8167955e-05 0.0002894237 0.0005046689 -0.00012205729 -0.0003139401
00000000: 93b5 e638 1ad2 2b37 2112 2e39 7815 3539
00000010: f90f e3b7 6925 2537 e677 05b9 f7b1 fcb8
00000020: 5857 78b7 31ce 9439 12a0 ee38 9d6c 1cb9
00000030: 20de 4539 6e03 8cb9 a668 4ab9 0cf9 0539
00000040: 3b7c 5c38 f8cd 79b9 2611 9cb9 3f45 62b9
00000050: 39f1 b237 1e9e 8eb9 610f 1e39 1d0d b3b7
00000060: 5f6f ed38 29b4 34b9 43d7 85b9 9a10 46b9
00000070: 095d a038 d446 0f39 ada7 15b9 a4a8 ab38
00000080: 9463 00b9 c101 2339 0c1c 2339 8571 d6b9
00000090: 3291 adb9 000d 1539 50e6 6238 a978 aab7
000000a0: 3dbd 27b7 32fb cf37 6e5e f3b8 9ea3 f0b8
000000b0: 5d99 d938 6b51 49b9 d9b9 3e37 9a87 06b9
000000c0: d556 a037 7be3 ceb8 f135 c937 09c5 47b7
000000d0: 4f7a 0cb9 7ed4 44b9 3451 beb8 574b 0439
000000e0: 3fb4 f039 01f4 70b7 7bd7 0db9 0c5b fa38
000000f0: 0d0b 3739 179b 46b9 e415 3e39 23e5 98b8
00000100: 6fe7 c0b7 169f 00b9 1405 c038 17bf 3b39
00000110: 4523 e237 5846 95b9 105a 01b8 9dcb 00b8
00000120: 253c 0438 f18f b7b6 ca25 b2b9 cfe3 06b9
00000130: 69fe ca37 95eb 73b9 5551 8837 dcd5 2ab8
00000140: c89a 8839 0757 2139 3698 a338 ab23 ea38
00000150: 3a9e f938 3d0f dab6 5c47 6739 8272 0cb8
00000160: c5f8 adb8 576e 0739 0aa4 e238 b528 8f39
00000170: 4654 5939 b20a 09b9 5370 aeb8 91c4 0bb9
00000180: 6421 d5b8 5be6 c1b7 dbc4 8138 c2f9 8e38
00000190: 58a6 6c38 58b0 3b39 bec2 5438 525a 8337
000001a0: ca5b 7837 aef4 9838 d0f8 8e37 cae9 f8b8
000001b0: 0ace 58b8 eaa3 3038 3fd9 14b7 d037 0d38
000001c0: df38 4939 0e19 ee39 5b8c 6f39 3e65 8237
000001d0: dff9 a7b8 c800 b6b9 1d0a 0bb8 a0d5 afb9
000001e0: 2dad f537 2877 d238 15aa d8b7 1648 f5b7
000001f0: fc5d 8eb9 abad 88b8 c592 27b9 7fd3 3f37
00000200: 2ff8 a738 a65b 00b9 a3cd c3b9 753c 41b9
00000210: 5af0 2139 923a 6db7 3b4b f6b8 f3a2 47b9
00000220: 1f08 6338 b2f5 b2b8 94d9 00b9 cf1d c638
00000230: 9abb 4439 57da 7b38 a510 7939 70a0 8d39
00000240: 2bae b9b7 cfac 1938 8aaa e0b8 f5e3 cf38
00000250: 7ac7 c739 d55c 0c38 52f3 b638 45f9 8439
00000260: 5821 bdb8 d45e c1b8 ee63 8638 5dc0 3fb9
00000270: 5805 f336 95c3 82b7 6c87 9639 e9eb abb9
00000280: bff2 5eb9 7468 19b9 c6bf f1b9 159f 6b36
00000290: 27e4 25b8 9e62 6338 882d 09b9 391d a537
000002a0: f97e b7b8 73ce 4639 da37 0f39 22fa 94b9
000002b0: f86c 2338 73ef 31b9 ba45 a539 89e8 1eb9
000002c0: 4e1d 8038 abf1 0d39 4881 2ab9 310a ccb6
000002d0: 0b95 2d36 b96b 6d39 935a f7b8 702b 8e38
000002e0: 77b4 90b8 b5b5 c437 0d7d 4fb7 4ea3 9d39
000002f0: 562a 8e36 4566 55b9 7766 e038 c219 2b39
00000300: 34fd 11b9 f9cb 9639 4cf9 9eb9 642a 7bb9
00000310: 3a2e 82b9 d6f3 dd37 56cd 84b7 a67a c4b8
00000320: 091f 98b8 445d 2e39 f09e 2ab9 8bdc da38
00000330: ee81 2738 4d11 1ab8 3e53 1939 51a0 23b8
00000340: 971a 1439 7119 78b8 befe 7e38 aae3 2939
00000350: 244c 8a38 2407 e339 0968 8cb9 5c4d 0839
00000360: d107 9938 2889 a0b8 8d11 4938 4036 1fb8
00000370: bd38 6f39 30ba 07b8 73f3 37b8 8c9d c9b8
00000380: 6a7f 0e39 55e5 68b9 5108 d8b6 c547 bcb8
00000390: 516f ad38 3f49 d639 3429 8838 669d 44b8
000003a0: 38d5 2b39 9ad6 27b9 7357 8538 0b42 72b9
000003b0: 4cf0 08b9 c2d7 5239 25ef 7a39 4f1f 0d37
000003c0: e936 0137 4c95 66b8 1741 90b8 e074 14b9
000003d0: c391 50b8 0708 2039 f988 1437 0687 18b9
000003e0: 7380 34b9 a364 8839 7619 1539 85df cdb8
000003f0: cbbd 9739 c24b 043a 02f9 ffb8 5498 a4b9

autoencoders.1.encoder.encoder.forward_cells.0.lstm.bias_ih f4 [32]
0.0 0.0 0.0 0.0 0.0 0.0 0.0 0.0
0.0 0.0 0.0 0.0 0.0 0.0 0.0 0.0
0.0 0.0 0.0 0.0 0.0 0.0 0.0 0.0
0.0 0.0 0.0 0.0 0.0 0.0 0.0 0.0
00000000: 0000 0000 0000 0000 0000 0000 0000 0000
00000010: 0000 0000 0000 0000 0000 0000 0000 0000
00000020: 0000 0000 0000 0000 0000 0000 0000 0000
00000030: 0000 0000 0000 0000 0000 0000 0000 0000
00000040: 0000 0000 0000 0000 0000 0000 0000 0000
00000050: 0000 0000 0000 0000 0000 0000 0000 0000
00000060: 0000 0000 0000 0000 0000 0000 0000 0000
00000070: 0000 0000 0000 0000 0000 0000 0000 0000
