results/H4_VariableSkip/ec2_cpu_utilization_825cc2/ensemble_autoencoder_weights.pth (torch, 87914 bytes, 130 tensors)

autoencoders.0.encoder.cells.0.weight_h_2 f4 [8, 8]
000000 d9 ee c7 37 48 1c 42 39 41 39 02 39 0d ae 8b b8
       2.383387e-05 0.00018511817 0.00012419095 -6.660456e-05
000010 92 70 0a 39 fd 1b 8f 38 b8 67 95 b8 03 5d 52 b6
       0.00013202641 6.8239846e-05 -7.124193e-05 -3.1346578e-06
000020 02 24 8a b9 f2 29 90 39 f6 54 5e b9 2a c2 2b 39
       -0.0002634824 0.00027497072 -0.0002120322 0.00016380163
000030 f4 3c 45 b9 83 9d 8b 38 10 86 12 39 dc 93 f6 b8
       -0.00018810091 6.657375e-05 0.00013973587 -0.00011757735
000040 bc 0e a9 b8 2f a4 82 b8 a1 64 3e b9 d2 31 9f b8
       -8.0612925e-05 -6.2294646e-05 -0.00018157299 -7.5909906e-05
000050 65 79 95 39 ef 8f 58 39 b9 84 0a b9 8d ce d0 38
       0.0002850994 0.00020652985 -0.00013210149 9.956686e-05
000060 43 bc 1d 38 5a 4b b5 38 e9 60 53 b8 61 a3 b6 38
       3.760705e-05 8.644788e-05 -5.0396575e-05 8.708868e-05
000070 37 24 bc b8 83 dc e8 b8 56 1e 94 b8 bf 88 0d b7
       -8.971284e-05 -0.000111036956 -7.0628405e-05 -8.436094e-06
000080 f0 5d 94 b9 d7 27 48 37 b9 5a 82 39 15 dd 1b 39
       -0.0002829875 1.1930205e-05 0.00024863126 0.00014864311
000090 92 d9 0d 38 51 3f 97 39 51 ce 41 b9 53 e6 5c 39
       3.3819648e-05 0.0002884814 -0.00018482773 0.00021066637
0000a0 80 0e 6b b8 a6 03 2d b9 9b 0e 1e 39 8d 5a 6d b8
       -5.604187e-05 -0.00016499925 0.00015073495 -5.6589535e-05
0000b0 34 b9 8a 38 20 e3 93 b8 50 19 c4 b8 45 51 14 b8
       6.6148496e-05 -7.0518116e-05 -9.350723e-05 -3.5361638e-05
0000c0 eb fa e3 b7 9b bf 57 b9 27 55 8b b8 e7 2d 8f b8
       -2.7177352e-05 -0.00020575376 -6.643897e-05 -6.827321e-05
0000d0 e9 97 13 39 97 2d e0 b8 fa 12 ff b8 51 51 11 b9
       0.00014075603 -0.00010689644 -0.00012162882 -0.0001385857
0000e0 97 c8 7d b8 62 eb 22 b8 79 bf e6 37 c0 3a 90 38
       -6.0506714e-05 -3.8843027e-05 2.7507298e-05 6.877398e-05
0000f0 4b ef 39 b9 71 9f 74 39 d1 a4 d2 39 5e b2 f0 38
       -0.00017732118 0.0002332905 0.0004017712 0.00011477315

autoencoders.0.encoder.cells.0.bias_h_2 f4 [8]
000000 00 00 00 00 00 00 00 00 00 00 00 00 00 00 00 00
       0.0 0.0 0.0 0.0
000010 00 00 00 00 00 00 00 00 00 00 00 00 00 00 00 00
       0.0 0.0 0.0 0.0

autoencoders.0.encoder.cells.0.lstm.weight_ih f4 [32, 1]
000000 43 3c 98 39 a2 70 26 39 1a 7a bd b9 cc 46 a3 38
       0.00029036598 0.00015872953 -0.00036139862 7.7856326e-05
000010 30 17 9b 38 7c 6b 3d 38 9e a6 31 39 58 3a ad b5
       7.395295e-05 4.5161214e-05 0.00016942105 -1.2906485e-06
000020 d2 92 0e b9 97 7f bc 38 59 ab 29 b9 7a c4 15 39
       -0.0001359687 8.988304e-05 -0.00016180928 0.0001428294
000030 ff 72 f7 39 6c ce cc b8 61 43 7b 38 79 5c 90 37
       0.0004719719 -9.765927e-05 5.9905815e-05 1.7209199e-05
000040 b5 c2 04 b8 56 0b 1a b9 9a ff 6d 38 cd ea 4a b9
       -3.1652587e-05 -0.00014690807 5.674325e-05 -0.00019351691
000050 41 68 a3 39 5c af 24 b9 87 8d 5b b9 f0 93 13 39
       0.00031167458 -0.00015705585 -0.0002093819 0.00014074123
000060 68 fc 9b b8 0c 62 25 37 85 99 5e b9 db a8 3b b9
       -7.43799e-05 9.857595e-06 -0.0002122876 -0.00017896613
000070 e2 c4 06 b8 0c 50 1b b9 af 87 a0 38 96 17 60 38
       -3.213145e-05 -0.00014811772 7.6546676e-05 5.3427728e-05

autoencoders.0.encoder.cells.0.lstm.weight_hh f4 [32, 8]
000000 99 9c 79 39 f7 a2 bd 38 e3 42 06 b9 65 f2 0d 39
       0.00023804828 9.042577e-05 -0.00012804153 0.00013537107
000010 d4 79 89 39 c1 9d ab 37 29 d6 0e b8 4c 21 03 38
       0.00026221445 2.0458248e-05 -3.405489e-05 3.1263844e-05
000020 65 6f fc b8 5d 01 d4 b8 c4 80 b4 b8 78 64 26 39
       -0.00012037045 -0.00010109202 -8.607053e-05 0.00015868421
000030 3e 63 ee b9 0d a2 84 b8 a1 b7 23 b8 b2 f6 0c b9
       -0.0004546884 -6.324435e-05 -3.9033246e-05 -0.00013443342
000040 ab 18 1c b4 bf c5 53 b8 c9 6d 92 b8 cb 61 c4 b9
       -1.4537606e-07 -5.0490486e-05 -6.9822716e-05 -0.00037456895
000050 92 69 02 b9 8d 78 e4 b8 3e 1f da b7 db 3f d2 39
       -0.00012437094 -0.000108943415 -2.6002173e-05 0.00040101897
000060 ea e2 ab 38 64 5b 07 39 8d 90 a8 b9 10 a6 14 b8
       8.1961814e-05 0.00012908649 -0.00032151156 -3.5440607e-05
000070 f9 0f 45 b8 a9 ac 1f b9 be cd d1 b8 d6 d7 3b b9
       -4.6983336e-05 -0.00015227743 -0.00010004219 -0.00017914115
000080 a7 a8 cc 37 7a 3d 41 b9 b4 42 20 39 49 e6 31 b9
       2.439723e-05 -0.00018428816 0.00015283638 -0.00016965823
000090 81 6a 3b b8 be 87 d6 b6 70 82 20 b9 18 3d 02 3a
       -4.4683464e-05 -6.3934995e-06 -0.00015307381 0.000496821
0000a0 1a bb 23 b9 fd bc 98 38 16 80 25 b9 3d db 96 39
       -0.00015614592 7.2831266e-05 -0.00015783342 0.00028773575
0000b0 4c 79 a1 39 f4 47 8a 39 50 ab be b8 59 1c fb 38
       0.00030798686 0.0002637502 -9.0918154e-05 0.00011973893
0000c0 61 3d 43 39 bf 16 09 39 af 1a 6a b9 61 3f ab 39
       0.00018619515 0.00013073812 -0.0002232592 0.00032662883
0000d0 5f dd dc 39 29 5b 16 b9 4d 80 52 38 a7 f0 c7 b8
       0.00042126604 -0.00014339075 5.018739e-05 -9.5338844e-05
0000e0 0e 08 10 b9 ba 42 88 39 3b d2 7e b9 75 ea f0 b8
       -0.00013735911 0.00025989657 -0.00024301645 -0.00011487763
0000f0 3f bd fa b7 8b 20 ac b6 0b 24 73 37 cd 9c 61 b9
       -2.9890447e-05 -5.129788e-06 1.4492321e-05 -0.00021516085
000100 3f 35 cf b9 a9 76 c7 37 32 26 3b 39 ef 64 1b b9
       -0.00039521788 2.3777904e-05 0.00017847939 -0.00014819553
000110 3d 84 05 39 dc d1 35 39 a4 c8 42 39 01 f4 83 b8
       0.00012733131 0.00017339684 0.00018576026 -6.292016e-05
000120 d6 96 0a 39 ad 52 d2 b7 7c 43 30 b7 4d ec 81 b8
       0.00013216896 -2.507245e-05 -1.050613e-05 -6.195214e-05
000130 a3 4b 74 b9 95 cc 9a b8 c0 5a 2a 38 8b 4b ec b9
       -0.0002329783 -7.3813986e-05 4.0615676e-05 -0.00045069712
000140 1d 9b 33 b9 36 2f 11 38 cc 16 7d 39 b8 48 43 b7
       -0.00017128554 3.4614663e-05 0.00024136453 -1.1639837e-05
000150 0b 6f 48 38 93 77 eb 38 2b b9 4a b9 0d 19 23 39
       4.7787133e-05 0.00011227946 -0.00019333202 0.00015554224
000160 01 dd 95 39 1e 5f f9 b7 24 04 b5 b8 53 2a c0 b8
       0.00028584155 -2.9727405e-05 -8.631524e-05 -9.163157e-05
000170 c9 6e 76 b9 6f e0 7a b9 88 c7 40 39 83 a3 ea b9
       -0.00023501659 -0.00023925466 0.00018384878 -0.00044753784
000180 56 38 f5 36 4f 2b 85 39 91 04 62 39 ac 8f 91 b8
       7.3081274e-06 0.00025400004 0.0002155474 -6.9409e-05
000190 fb bd 92 b7 4c 17 8c 39 c4 54 74 38 97 ea 3f 39
       -1.7493023e-05 0.00026720238 5.8253077e-05 0.00018302571
0001a0 8d ed e9 38 31 63 e9 37 29 bd 83 39 80 8e c0 b9
       0.00011154553 2.7821954e-05 0.00025127202 -0.00036727265
0001b0 56 cc a6 36 f0 a4 c7 b7 14 62 c3 b7 5c ac f8 38
       4.9709734e-06 -2.3799454e-05 -2.3291483e-05 0.00011857666
0001c0 96 9e a9 b9 e2 1e 1d 38 15 a3 bb b8 de ae 15 39
       -0.00032352348 3.746048e-05 -8.947231e-05 0.0001427489
0001d0 f4 68 89 38 bd 47 07 b9 dd 1c 64 39 e0 e9 68 39
       6.552218e-05 -0.00012901328 0.00021754527 0.0002221237
0001e0 90 b6 bc b5 72 1f 07 39 48 96 1f b7 12 9c b6 b8
       -1.4060224e-06 0.00012886318 -9.512129e-06 -8.707507e-05
0001f0 25 13 e8 b8 47 a3 63 b8 12 cb 0e 39 cd 98 a3 b9
       -0.00011066188 -5.427308e-05 0.00013617825 -0.00031203628
000200 82 b8 75 39 39 1a 90 37 e3 36 e8 39 ea c3 42 b8
       0.00023433755 1.7178349e-05 0.00044291382 -4.6435664e-05
000210 fc ea cf b8 0c 68 64 38 67 73 65 38 04 39 58 39
       -9.9142984e-05 5.4456337e-05 5.470533e-05 0.00020620605
000220 9d 7a 50 38 5d a6 8b b9 74 ae 10 39 03 54 07 b9
       4.9705257e-05 -0.00026636096 0.00013797899 -0.000129059
000230 f2 bf ff 39 e6 9d a8 38 12 22 96 39 87 db 5b b6
       0.000487804 8.040275e-05 0.00028635614 -3.2761325e-06
000240 3d 3d 0c b7 22 85 3b b9 1f 16 2f 37 6e 74 72 b7
       -8.358908e-06 -0.00017883306 1.0435963e-05 -1.4451432e-05
000250 b3 02 5c b5 16 35 a6 39 47 46 84 b9 22 a1 b9 b8
       -8.1960314e-07 0.0003170154 -0.00025229363 -8.851501e-05
000260 72 bf d3 b8 f6 29 0d b9 78 fb c6 38 77 80 2a 39
       -0.000100969235 -0.0001346244 9.4882154e-05 0.0001626032
000270 c6 bb 83 b7 20 b5 1c 38 34 31 14 b8 40 b0 ff b8
       -1.5703856e-05 3.7361984e-05 -3.5331774e-05 -0.00012192177
000280 c9 ea 81 b9 54 c7 90 b8 63 56 48 39 b0 b5 f6 b7
       -0.00024779726 -6.903583e-05 0.00019105668 -2.941009e-05
000290 18 e2 13 b7 7a 6e 10 39 12 27 37 39 e1 e4 c6 38
       -8.814524e-06 0.00013774066 0.00017466795 9.484008e-05
0002a0 15 74 5e 39 46 9a 15 b9 5a a2 7b 38 1d 37 79 38
       0.00021214814 -0.00014267219 5.9994265e-05 5.9417554e-05
0002b0 99 cc 33 b7 45 55 1d b8 08 1f f7 38 9d 50 0d 39
       -1.0716868e-05 -3.751113e-05 0.00011783658 0.00013476839
0002c0 5a 25 83 b9 ac aa 81 b8 75 2f 40 b7 76 af 94 b7
       -0.00025014096 -6.1829895e-05 -1.1455141e-05 -1.772468e-05
0002d0 58 40 89 b8 e0 aa c2 37 a9 47 21 b7 f1 c8 63 b8
       -6.544654e-05 2.3206172e-05 -9.6130325e-06 -5.430816e-05
0002e0 20 15 7e 37 c5 63 0d b9 0b 95 88 b8 a1 09 31 b9
       1.5144498e-05 -0.00013483975 -6.512747e-05 -0.00016883622
0002f0 6d a3 86 b9 99 31 6d b9 4f e7 72 b9 2c 3d 8f b9
       -0.00025680233 -0.00022620558 -0.00023165088 -0.00027320662
000300 42 1a a3 b9 c4 48 a8 b8 f2 40 25 b9 c1 24 fc b4
       -0.00031109346 -8.024418e-05 -0.0001575982 -4.69654e-07
000310 57 6d 7c b7 47 3e 07 39 fc af 38 36 0e 51 33 38
       -1.5045828e-05 0.00012897803 2.7520573e-06 4.2752414e-05
000320 84 57 0d 39 91 9a 9c b8 68 b9 52 39 eb 1a 6d 36
       0.0001347941 -7.46745e-05 0.0002009623 3.533142e-06
000330 5e 31 4d b9 c2 fb 83 36 ed df 33 b7 37 4f 86 37
       -0.00019568714 3.9334127e-06 -1.0721368e-05 1.6010932e-05
000340 94 9a 19 39 bb c3 d2 b8 d5 2c 3b 39 4d f1 0e b8
       0.00014648802 -0.00010050038 0.00017850411 -3.4080167e-05
000350 e4 20 e8 b7 c3 cc 8a 38 ab 26 8a b8 2f 26 13 39
       -2.7671871e-05 6.6184926e-05 -6.587555e-05 0.00014033237
000360 23 09 4d b9 74 25 06 39 87 2d 3d 39 bf ba c2 37
       -0.00019553727 0.00012793188 0.00018041405 2.3213563e-05
000370 b2 b4 4c b9 e6 3b 87 38 51 5c c9 b7 af c2 6b b7
       -0.0001952227 6.4484586e-05 -2.4004055e-05 -1.405242e-05
000380 be 0c 32 b8 81 af c1 38 ff 6c 76 b8 5a 85 52 39
       -4.2450374e-05 9.235647e-05 -5.875248e-05 0.00020076838
000390 f8 d5 39 b8 c4 3b cd b8 81 45 ec 38 74 bb 04 39
       -4.430671e-05 -9.786294e-05 0.00011266303 0.00012658333
0003a0 b4 44 14 39 3f bf 80 b8 f7 1e 0b ba e8 02 08 b9
       0.00014139974 -6.139138e-05 -0.00053070433 -0.00012971053
0003b0 fd 1e 8f 38 a5 4e 4f 37 76 6a 15 b9 1f 85 41 38
       6.8245434e-05 1.2356472e-05 -0.00014249407 4.6138764e-05
0003c0 1b a7 a4 38 92 a2 2f b8 66 0b a4 b9 8d f3 8a b9
       7.851255e-05 -4.1874657e-05 -0.0003128901 -0.0002650287
0003d0 d1 b6 19 39 3f e6 0e 37 b0 a8 d6 b8 5b 4d 22 39
       0.00014659321 8.517468e-06 -0.00010235736 0.00015478341
0003e0 87 4d 48 b8 5e b3 8f 39 88 d8 aa 39 59 52 94 38
       -4.775592e-05 0.00027408724 0.00032586255 7.0725284e-05
0003f0 73 50 ea 38 0a fc df b9 01 b0 f6 b9 8b 83 8f 39
       0.00011172974 -0.00042721658 -0.0004705191 0.00027373093

autoencoders.0.encoder.cells.0.lstm.bias_ih f4 [32]
000000 00 00 00 00 00 00 00 00 00 00 00 00 00 00 00 00
       0.0 0.0 0.0 0.0
000010 00 00 00 00 00 00 00 00 00 00 00 00 00 00 00 00
       0.0 0.0 0.0 0.0
000020 00 00 00 00 00 00 00 00 00 00 00 00 00 00 00 00
       0.0 0.0 0.0 0.0
000030 00 00 00 00 00 00 00 00 00 00 00 00 00 00 00 00
       0.0 0.0 0.0 0.0
000040 00 00 00 00 00 00 00 00 00 00 00 00 00 00 00 00
       0.0 0.0 0.0 0.0
000050 00 00 00 00 00 00 00 00 00 00 00 00 00 00 00 00
       0.0 0.0 0.0 0.0
000060 00 00 00 00 00 00 00 00 00 00 00 00 00 00 00 00
       0.0 0.0 0.0 0.0
000070 00 00 00 00 00 00 00 00 00 00 00 00 00 00 00 00
       0.0 0.0 0.0 0.0

autoencoders.0.encoder.cells.0.lstm.bias_hh f4 [32]
000000 00 00 00 00 00 00 00 00 00 00 00 00 00 00 00 00
       0.0 0.0 0.0 0.0
000010 00 00 00 00 00 00 00 00 00 00 00 00 00 00 00 00
       0.0 0.0 0.0 0.0
000020 00 00 00 00 00 00 00 00 00 00 00 00 00 00 00 00
       0.0 0.0 0.0 0.0
000030 00 00 00 00 00 00 00 00 00 00 00 00 00 00 00 00
       0.0 0.0 0.0 0.0
000040 00 00 00 00 00 00 00 00 00 00 00 00 00 00 00 00
       0.0 0.0 0.0 0.0
000050 00 00 00 00 00 00 00 00 00 00 00 00 00 00 00 00
       0.0 0.0 0.0 0.0
000060 00 00 00 00 00 00 00 00 00 00 00 00 00 00 00 00
       0.0 0.0 0.0 0.0
000070 00 00 00 00 00 00 00 00 00 00 00 00 00 00 00 00
       0.0 0.0 0.0 0.0

autoencoders.0.decoder.cells.0.weight_h_2 f4 [8, 8]
000000 2e e0 bc bd b8 84 5a 3e 04 52 fb 3e 00 0f af 39
       -0.092224464 0.2133969 0.4908601 0.00033389777
000010 04 c5 02 ba 2c 86 85 bc 54 98 2d 3d aa c2 e0 be
       -0.0004988464 -0.01629933 0.0423816 -0.43898517
000020 f2 4f f2 3c ec 08 5a bd 83 48 87 3e 6f c7 ab 3e
       0.029579137 -0.053231165 0.2642251 0.33550593
000030 22 47 e8 3e 3f e5 f8 3e fe 8c 8b 3e 3f 6a 39 3d
       0.4536677 0.486124 0.27256006 0.04526734
000040 14 5a 83 bd c4 8d 09 3f cc 53 dc 3e 0d 16 36 3f
       -0.064136654 0.5373194 0.43032682 0.71127397
000050 7f 99 2f be e6 55 72 bc 7a fc 27 3e 30 55 59 be
       -0.17148398 -0.014790988 0.16404906 -0.21223903
000060 e5 d2 3a bc 71 d7 55 be 19 76 b8 be cf c4 28 bd
       -0.01140282 -0.20882966 -0.360276 -0.041203316
000070 08 60 ce 3d 6a 0d 0a 3f f2 a2 97 bc b1 fd b2 be
       0.1007691 0.5392672 -0.018510316 -0.34959176
000080 89 26 bf 3d 8e 03 30 bb 27 d6 29 3e 07 b5 16 3f
       0.09333522 -0.0026857588 0.16585599 0.58869976
000090 2d 69 29 3e bb 1b a9 3e e0 2f 91 be 2d 68 b2 3e
       0.16544028 0.3302897 -0.28356838 0.34845105
0000a0 dd be 06 bf d8 17 93 3e 8f a3 25 be 65 2c 8c 3e
       -0.52634984 0.2872913 -0.16175674 0.2737762
0000b0 eb 44 76 be c6 3b e3 3e 38 50 35 3e ec 12 48 be
       -0.24049728 0.4438154 0.17706382 -0.19538468
0000c0 8d 2b 1a 3f d9 09 44 be 95 ec 10 bf bf 13 25 3a
       0.60222703 -0.19144382 -0.56610996 0.0006297193
0000d0 c4 b9 3a bf ed 6b 6b be fe e2 b1 3e e0 16 48 3e
       -0.72939706 -0.22990389 0.34743494 0.19539976
0000e0 98 66 11 bf e1 63 a1 3d ed a1 34 be 90 8a 56 3d
       -0.5679717 0.078803785 -0.17639895 0.052378237
0000f0 e5 a4 65 be f5 9a c9 3e 65 41 7c be 99 f4 80 3d
       -0.22426184 0.39376035 -0.24634321 0.06296653

autoencoders.0.decoder.cells.0.bias_h_2 f4 [8]
000000 f1 33 96 bd 8d a6 ba 3d b6 14 89 bd 36 17 f4 3d
       -0.07334126 0.09113798 -0.066934034 0.1191849
000010 57 f9 d5 3c c1 17 a5 3d 76 8f b6 3d e7 1d cd 3d
       0.026119871 0.08061171 0.08914082 0.10015469

autoencoders.0.decoder.cells.0.lstm.weight_ih f4 [32, 1]
000000 06 3b c2 b8 aa 94 a0 3e a9 e8 15 be eb 21 c2 3e
       -9.261635e-05 0.31363422 -0.14639534 0.37916502
000010 0e 4a 2d be 2c 6b 9f 3d 89 4e 61 3e d3 9d c6 3e
       -0.16922781 0.07784113 0.22002615 0.38792285
000020 07 88 d5 b8 9f 22 f4 bd 3e 46 84 be 25 25 4d 3e
       -0.000101819685 -0.11920666 -0.2583484 0.20033701
000030 e6 3b 17 3a e3 eb 3c 3d bb 25 84 3d 24 c8 3e 3c
       0.00057691184 0.046123397 0.06452509 0.011644397
000040 6a e7 21 be 47 ba 92 3e 59 ef 5d be ca e5 88 3d
       -0.15810934 0.28657743 -0.21673335 0.06684454
000050 1c 87 8d 3c 69 2c f5 3e 4f a8 a1 3c 1f 01 28 3d
       0.01727634 0.47885445 0.019733576 0.041016694
000060 92 14 d3 3e 17 3a f3 3e 20 9a a1 be 01 d3 a5 3e
       0.4122663 0.47505257 -0.315629 0.32387546
000070 14 18 b1 38 ee 20 77 3e 4f 58 b2 3e f7 22 80 3e
       8.4445026e-05 0.24133655 0.34833 0.25026676

autoencoders.0.decoder.cells.0.lstm.weight_hh f4 [32, 8]
000000 6d 3f 08 3a 43 fa 81 3d f9 35 a9 37 b4 b8 8b b9
       0.00051974395 0.06346562 2.0171503e-05 -0.0002664976
000010 22 0f 83 3d 02 14 25 3e 0b cd 7f bc 86 b0 81 bc
       0.06399371 0.16120914 -0.015612851 -0.015831243
000020 cb 00 0d 3f ec c0 75 3d 2a 5c f0 3e cc 28 7d be
       0.55079335 0.059998438 0.46945316 -0.24722594
000030 13 19 08 b9 a8 dc 54 bc 64 b6 75 3d 72 64 38 3e
       -0.00012979312 -0.012992062 0.059988394 0.18007067
000040 ec b8 8d 3e 51 eb 7c 3d 4b 17 1d 38 d7 40 4f 3e
       0.27680147 0.061747853 3.745341e-05 0.20239578
000050 31 66 49 b7 59 8f ed 3a 25 32 8c 39 e6 1c d5 3a
       -1.2004327e-05 0.0018124386 0.0002674024 0.0016259223
000060 2d cc 49 39 db 6e 12 bd b2 dd ed 39 fc ee 4c 3e
       0.00019244915 -0.03575025 0.00045369338 0.2001304
000070 46 8b ef b9 06 8d 82 3e bc 51 d2 3d 57 b3 5a ba
       -0.000456894 0.25498217 0.10269496 -0.0008342764
000080 58 9d 55 39 f7 78 a1 3a e5 36 c1 b8 1e d3 cd 3a
       0.00020371878 0.0012319376 -9.213182e-05 0.0015703177
000090 ca 02 89 b9 df 06 aa 3a c7 43 f1 3a ab e9 18 3b
       -0.00026132754 0.0012972018 0.001840704 0.0023332636
0000a0 9c 0a 5e 3b 15 57 82 3e 5b a1 b0 3e 5c 36 65 be
       0.0033880835 0.25457063 0.34498104 -0.22384018
0000b0 07 fa cc 3b ad 6b 2e 3e 0f 3c 3d be f8 dd bc 3e
       0.0062553915 0.17033263 -0.18479942 0.368881
0000c0 97 c6 67 38 47 a9 58 3e ba 39 78 3e 25 bd 78 be
       5.5259643e-05 0.21158324 0.24240771 -0.24290903
0000d0 1b d8 21 3e 40 b0 82 3e 7b a5 bf ba 88 7b e1 3e
       0.15805094 0.25525093 -0.001462146 0.4403956
0000e0 07 e1 3b 3e d4 1b 68 bd e7 ab 56 3e 8a 71 9d bb
       0.1834756 -0.056667164 0.20964013 -0.0048047947
0000f0 ca 48 ca 3c 79 14 14 3e 40 02 f5 3e 2d d4 15 3f
       0.024692912 0.14460935 0.4785328 0.5852688
000100 12 62 08 bd 1f 15 96 3d 6b 59 d8 3e b3 bd 35 3e
       -0.033296652 0.07328247 0.4225572 0.17748146
000110 f4 a7 67 3d 71 3b df 3c bb fa b7 b9 c6 12 11 3d
       0.056556657 0.027250024 -0.0003509129 0.035418294
000120 b1 ba f7 b9 db 81 03 3c 83 70 2d 3e 69 95 5d be
       -0.00047250607 0.008026565 0.16937451 -0.21639027
000130 6c e9 21 3e 2d b4 d9 3e 66 42 ae be 0b ca 44 3c
       0.158117 0.42520276 -0.34035033 0.012011061
000140 3d 7b 60 39 12 81 f2 3a 19 6f 6f 39 71 46 30 3e
       0.00021408215 0.0018501601 0.00022834203 0.17214371
000150 37 e5 f0 b7 15 3c ae 3b ae b1 0a 3b 87 c9 b2 3a
       -2.8716966e-05 0.005317221 0.0021163034 0.0013640382
000160 1a 83 76 38 ad 46 03 bb 6c ba f8 38 7e 88 49 be
       5.877307e-05 -0.002003114 0.00011860285 -0.19680974
000170 ff 00 e2 ba 2b 09 06 ba cc 2d f1 bb aa 78 c9 3c
       -0.0017242728 -0.00051130605 -0.0073601957 0.02459367
000180 73 73 91 b8 93 39 b3 3a 29 cb a5 b8 9b 3d 69 3b
       -6.935643e-05 0.0013673775 -7.905655e-05 0.0035589698
000190 58 e2 54 b9 85 88 97 3a 43 3b ae 39 ea 55 1a 3b
       -0.00020302215 0.0011561072 0.0003323202 0.0023549744
0001a0 55 47 8c 3d bf ac b6 3c 3f cf 8e 3d 55 d9 8c bc
       0.06849543 0.022299169 0.06973123 -0.017193476
0001b0 49 9c 44 3d a6 36 67 3d 49 98 a6 bd 1a 1d db bd
       0.048000608 0.0564486 -0.08134515 -0.1069891
0001c0 ed 9c 24 b8 75 62 1e 3d ae c6 f8 bd 7c 59 13 be
       -3.9246795e-05 0.038668115 -0.1214727 -0.14389604
0001d0 f2 d0 c0 bc 75 75 fb bd 70 41 26 be 04 ef 89 bd
       -0.023537133 -0.122782625 -0.162359 -0.06735042
0001e0 2d 39 0d ba da 75 22 3f 8c 6d aa 3e 49 5e a5 be
       -0.0005387243 0.6346108 0.33286703 -0.32298496
0001f0 f3 88 24 be 8a cc 13 bd e9 25 63 3e 15 fc 5f be
       -0.16067867 -0.036083736 0.2218243 -0.21873505
000200 eb 78 9d 3d 23 b0 89 be 6c 2a 9e be 42 1e b5 39
       0.07689079 -0.26892194 -0.3089174 0.00034545554
000210 d5 63 10 be e0 ad fd 3b 22 fb 7d bd 1a a7 4b bd
       -0.14100583 0.007741675 -0.062007077 -0.049719907
000220 a4 76 51 3d e4 1e a2 3e 48 84 e5 3c b1 e3 0e bd
       0.051138535 0.31664193 0.028017178 -0.034885112
000230 7b e0 e2 3e cb 2b a4 3d 0c e6 8b be 03 2f c5 3e
       0.4431189 0.08016165 -0.2732395 0.3851243
000240 0a 01 8b bc 0c c6 a0 be 93 c4 1a be 5a ba 83 bc
       -0.016968269 -0.31401098 -0.1511405 -0.01608007
000250 f7 e6 01 3e 1a 6a 4d be 79 d3 e4 bd db 22 a2 be
       0.12685762 -0.20060006 -0.11173148 -0.31667218
000260 35 64 91 3e cd b9 c0 3d 28 da ba 3d e8 2b 9e 3e
       0.28396764 0.09410439 0.09123641 0.30892873
000270 aa c3 bd 3e 99 2b 4e 3e 5e 60 ed 3d fc c1 bc be
       0.37063342 0.20133819 0.11590646 -0.36866748
000280 67 5c 65 bb 42 06 c4 bd aa 10 96 3d 14 e7 eb be
       -0.0034997703 -0.09571506 0.07327397 -0.46074736
000290 16 4e 46 ba 6e 90 0f be bb 6d 47 3e 67 d6 41 3d
       -0.00075647363 -0.1401994 0.19475453 0.04732361
0002a0 4c 74 26 be 90 b3 8e 3d e6 70 06 be ae a5 99 be
       -0.16255301 0.069678426 -0.13129005 -0.30009216
0002b0 cd 2d 0e be 2d f2 72 bc 51 de 61 3d cb fd fe 3d
       -0.13884659 -0.014828247 0.055143658 0.12450751
0002c0 cf 52 9d 3b bc 2c 95 3e 23 0c 9c 3d 50 67 22 3e
       0.0048011313 0.29135692 0.076195024 0.15859723
0002d0 8f 6e 19 3f b4 9e 35 3d 37 92 98 3e b3 3d 08 bd
       0.59934324 0.044340804 0.29799053 -0.033261966
0002e0 f6 46 0e 3e a0 70 a8 bd f0 c6 ef 3e 7a 4b d9 3e
       0.13894257 -0.082246065 0.46831465 0.42440397
0002f0 03 79 bc be 0e ee f9 3e 5c 4d 21 3e 01 7c 3e 3e
       -0.36811075 0.48814434 0.15752167 0.18601991
000300 6b 87 76 b6 1a ca fc 3c be 76 20 3e ac d6 54 b9
       -3.673568e-06 0.030858088 0.15670297 -0.00020297867
000310 46 17 e4 b8 c4 5b 43 3e 92 ca 8a 3d 4e 29 85 be
       -0.00010876222 0.19077975 0.067769185 -0.26008075
000320 59 ab 5d 3e 91 3f c8 3d 28 62 ae 3e f5 9c 09 ba
       0.21647395 0.09777749 0.34059262 -0.00052495237
000330 c2 3a 17 3e 5e 27 e8 3d bd d0 1a 3d 9e 23 16 3e
       0.14768508 0.11335634 0.037796725 0.14662024
000340 1e 3b fa 3b 14 27 a8 3e 6a 5f d1 3d f4 ed 1e 3a
       0.007636442 0.32842314 0.10223277 0.00060626795
000350 02 e1 11 b9 47 34 dd bc 72 f0 0e 39 0b 5f b6 3a
       -0.000139121 -0.027002467 0.00013631748 0.0013913823
000360 c7 df 83 39 06 c3 51 3e b6 c1 c7 3d cd 6a 44 39
       0.00025152994 0.20484552 0.09753744 0.00018731803
000370 59 4e 02 ba f4 f0 51 3e 9a f5 82 ba 46 05 6f ba
       -0.0004970781 0.20502073 -0.0009991408 -0.0009117912
000380 00 fe b2 b7 93 9d aa 3a 27 48 0c b9 61 d5 fa 3a
       -2.1337532e-05 0.0013016931 -0.00013378319 0.0019137078
000390 c6 d5 03 b9 a6 8e 2e be 18 97 ff 3a ba c5 0f 3b
       -0.0001257277 -0.17046604 0.0019499986 0.0021937923
0003a0 db 8f 8b 3d 34 99 a4 3e 74 48 60 bd ea 0d 02 be
       0.06814548 0.32148135 -0.054756597 -0.1270062
0003b0 19 29 28 3e 1a c1 18 bc a3 21 20 3e 9e 22 c1 3e
       0.16421928 -0.009323383 0.15637831 0.37721723
0003c0 48 cf 26 3a 2d 6f f6 3c fc ca e7 3e 50 9d eb bd
       0.0006363285 0.03008231 0.45272052 -0.11504614
0003d0 33 ee 93 3e b4 55 cf bc 80 37 40 be bf 12 04 bd
       0.2889267 -0.025309421 -0.18771172 -0.03224444
0003e0 c8 ed 9c bc e3 07 b5 3e 79 38 80 3e 21 48 df bc
       -0.019156352 0.3535758 0.25043085 -0.027256073
0003f0 23 f2 86 3d c0 f0 8a 3d d4 85 39 3e 17 86 48 be
       0.06589153 0.06784201 0.18117458 -0.19582401

autoencoders.0.decoder.cells.0.lstm.bias_ih f4 [32]
000000 83 1b 67 3d 8c d6 a1 3d 5c a9 03 3c 9b 57 28 3d
       0.05642272 0.0790225 0.008035984 0.041099172
000010 b8 6d d9 3a 04 24 1b 3e 80 8d 09 3e 9f b9 86 3d
       0.0016588485 0.15150458 0.13432884 0.06578373
000020 c2 fa 14 3d a2 b0 04 3d b4 3c 93 3d 47 16 79 bc
       0.036371954 0.032395013 0.071893126 -0.015203065
000030 f1 25 c4 3b ed 45 b0 3d 24 e7 06 3d 1f cb 47 3c
       0.0059859683 0.08607087 0.032935277 0.012194424
000040 5a 07 6b bd 90 f3 6a 3d 47 a2 c3 bd 6d e9 07 3e
       -0.057380058 0.057361186 -0.09552436 0.13272639
000050 b0 b4 98 bc 68 57 10 3b 5c d1 ef 3d d0 42 b5 3d
       -0.018640846 0.0022024754 0.11709854 0.08850634
000060 a4 8a 36 3d d8 58 8f 3d c6 2e 42 3d b5 25 bc 3d
       0.04456581 0.069993675 0.047407888 0.091868795
000070 5d 58 17 3a d8 e8 20 3e 41 83 b6 3d 15 7a 42 3d
       0.000577336 0.15713823 0.089117534 0.047479708

autoencoders.0.decoder.cells.0.lstm.bias_hh f4 [32]
000000 83 1b 67 3d 8c d6 a1 3d 5c a9 03 3c 9b 57 28 3d
       0.05642272 0.0790225 0.008035984 0.041099172
000010 b8 6d d9 3a 04 24 1b 3e 80 8d 09 3e 9f b9 86 3d
       0.0016588485 0.15150458 0.13432884 0.06578373
000020 c2 fa 14 3d a2 b0 04 3d b4 3c 93 3d 47 16 79 bc
       0.036371954 0.032395013 0.071893126 -0.015203065
000030 f1 25 c4 3b ed 45 b0 3d 24 e7 06 3d 1f cb 47 3c
       0.0059859683 0.08607087 0.032935277 0.012194424
000040 5a 07 6b bd 90 f3 6a 3d 47 a2 c3 bd 6d e9 07 3e
       -0.057380058 0.057361186 -0.09552436 0.13272639
000050 b0 b4 98 bc 68 57 10 3b 5c d1 ef 3d d0 42 b5 3d
       -0.018640846 0.0022024754 0.11709854 0.08850634
000060 a4 8a 36 3d d8 58 8f 3d c6 2e 42 3d b5 25 bc 3d
       0.04456581 0.069993675 0.047407888 0.091868795
000070 5d 58 17 3a d8 e8 20 3e 41 83 b6 3d 15 7a 42 3d
       0.000577336 0.15713823 0.089117534 0.047479708

autoencoders.0.decoder.output_layer.weight f4 [1, 8]
000000 ac 4f 4e bd f7 13 a4 3e ce b2 24 bc 0c b4 3e 3e
       -0.05036895 0.32046482 -0.010052396 0.1862337
000010 2b 1c 80 3d 91 15 76 3e e3 d9 b6 3e 1c 6b 6f 3e
       0.062553726 0.24031664 0.3571311 0.23380703

autoencoders.1.encoder.cells.0.weight_h_2 f4 [8, 8]
000000 e9 1b 24 39 08 80 ca 38 9b e5 2c b9 37 bb 91 b8
       0.00015650656 9.655958e-05 -0.00016488733 -6.94901e-05
000010 0a 77 9d 38 4c ce c2 38 63 2f ba b8 83 81 52 b9
       7.508516e-05 9.289067e-05 -8.8779976e-05 -0.00020075408
000020 3d 5d 24 39 bc f3 a3 b8 41 74 dc b8 64 21 9b b9
       0.00015674993 -7.817845e-05 -0.000105120715 -0.00029588782
000030 4b 63 90 b8 77 f8 fc b8 2c f3 e0 39 9d 3c 0e b8
       -6.88495e-05 -0.000120625766 0.00042905787 -3.391189e-05
000040 c8 c0 8b 39 19 d6 ac 38 d2 78 0a 39 46 5f 8d 38
       0.0002665578 8.241478e-05 0.00013205715 6.74115e-05
000050 00 72 36 b9 d1 a4 c8 b7 17 03 39 b9 61 23 b3 b9
       -0.00017399341 -2.3918607e-05 -0.00017644126 -0.000341679
000060 23 7a 3e b9 d5 4d 37 b8 26 b9 30 39 d6 e5 00 b9
       -0.00018165311 -4.3703087e-05 0.00016853641 -0.00012292652
000070 8e b7 ae b9 21 78 6b b8 31 94 20 39 7e 3d 9e b9
       -0.00033324625 -5.6140245e-05 0.00015313995 -0.00030181924
000080 ac 62 28 37 15 6e 53 39 64 52 b3 b9 f6 dd 0e 38
       1.0036554e-05 0.00020163537 -0.00034202926 3.4062155e-05
000090 9c 97 fa b8 8a 80 0f b9 32 0a 46 39 af 70 2d 38
       -0.000119491684 -0.00013685427 0.0001888655 4.135136e-05
0000a0 f8 5d 8d 39 0a 19 d2 b8 34 f6 5f b7 77 5b 57 b9
       0.00026963628 -0.00010018244 -1.3349159e-05 -0.00020538071
0000b0 d5 14 62 b9 cb 80 aa 38 fc 61 8f b9 bb 28 7f b9
       -0.000215608 8.130221e-05 -0.0002734809 -0.00024333868
0000c0 80 9b 80 b8 8b 7d 65 b8 2c ec 40 39 52 c1 0c 39
       -6.13248e-05 -5.4714776e-05 0.00018398528 0.00013423458
0000d0 4d bd 94 36 05 ff 9d b7 1c b2 0b 39 97 13 33 b9
       4.432781e-06 -1.8834611e-05 0.00013322424 -0.00017078068
0000e0 35 5f 58 39 5e da 3b b9 7c 07 0b b9 26 e8 2c b9
       0.00020634833 -0.00017915058 -0.00013258861 -0.0001648968
0000f0 34 78 54 b9 4d c3 04 b8 8a a7 f3 b9 6f e5 57 b9
       -0.00020262675 -3.165314e-05 -0.00046473398 -0.00020589468

autoencoders.1.encoder.cells.0.bias_h_2 f4 [8]
000000 00 00 00 00 00 00 00 00 00 00 00 00 00 00 00 00
       0.0 0.0 0.0 0.0
000010 00 00 00 00 00 00 00 00 00 00 00 00 00 00 00 00
       0.0 0.0 0.0 0.0

autoencoders.1.encoder.cells.0.lstm.weight_ih f4 [32, 1]
000000 a7 e1 25 b9 a9 9b 98 b8 5e 2a 93 b9 23 69 08 b8
       -0.00015819688 -7.276919e-05 -0.0002806959 -3.2522843e-05
000010 d6 63 08 39 2a 35 40 b8 2d 80 25 38 d7 51 bb 37
       0.00013007162 -4.582588e-05 3.945844e-05 2.2330247e-05
000020 6e 82 1d b9 93 b3 77 38 32 64 ff 38 3a 21 31 b9
       -0.00015021276 5.905663e-05 0.000121780104 -0.00016892413
000030 d4 e2 f9 38 ee 6c 84 b8 2a 96 8c b9 31 95 62 39
       0.00011915495 -6.31454e-05 -0.00026814762 0.00021608618
000040 7e 0d 90 39 e6 95 d2 b8 f9 a6 98 b9 d6 3a 52 39
       0.00027475873 -0.00010041501 -0.00029116104 0.00020049079
000050 04 be 16 37 1b de 5a 38 43 0d 61 b9 32 30 41 38
       8.984938e-06 5.2182102e-05 -0.00021462612 4.605967e-05
000060 fb 67 56 b8 68 ca 08 b9 6c 76 10 b8 3b 84 9c 38
       -5.1118415e-05 -0.00013045373 -3.4442564e-05 7.4632895e-05
000070 b5 47 63 38 c1 61 7d 38 41 f7 dc 38 72 33 0e 39
       5.41878e-05 6.041094e-05 0.00010536472 0.0001356134

autoencoders.1.encoder.cells.0.lstm.weight_hh f4 [32, 8]
000000 6d 87 ac b7 7b b6 57 38 95 a3 cd 37 65 ee 29 b9
       -2.056706e-05 5.1429943e-05 2.4514078e-05 -0.00016205905
000010 1b 98 b9 b9 af c3 12 b8 ab bc fa 38 86 cf bb 37
       -0.00035399277 -3.4991357e-05 0.00011956071 2.2388773e-05
000020 79 91 f4 38 3d c2 41 39 52 7c 87 b8 5f 71 e4 b9
       0.00011661923 0.00018478274 -6.460458e-05 -0.00043572017
000030 0e 76 3c b8 70 7c 6b b9 40 4b 8f 33 a6 14 4c b8
       -4.493264e-05 -0.00022457703 6.672644e-08 -4.865662e-05
000040 d8 f3 82 35 0e 74 1c b6 6d cc 6a b9 f5 4d 12 b9
       9.756723e-07 -2.3313364e-06 -0.00022392134 -0.00013952686
000050 cf 68 82 39 b5 ad b7 b9 7a 96 68 b9 cb 93 96 39
       0.0002487362 -0.00035033902 -0.00022181301 0.00028720344
000060 03 d4 d1 b8 97 22 2b b8 12 1b 5a 39 67 a9 07 b9
       -0.00010005387 -4.080179e-05 0.00020800185 -0.0001293771
000070 4a 19 e5 38 10 de 93 b9 de 90 fb b8 b1 ad d2 b6
       0.000109242814 -0.00028203474 -0.00011995596 -6.278708e-06
000080 f6 d0 07 39 c2 2c bb 39 80 3d 12 39 17 b1 b1 38
       0.00012952447 0.00035700767 0.00013946556 8.473003e-05
000090 f1 66 40 38 9e 53 96 b8 08 78 41 b9 d2 3e fe 38
       4.587224e-05 -7.168132e-05 -0.0001845063 0.00012123365
0000a0 42 2c 41 b9 19 fe 54 b9 aa f9 1e b9 5d ad 0a 39
       -0.00018422402 -0.00020312554 -0.00015161061 0.00013225288
0000b0 96 08 2b b8 e2 2d 09 39 25 26 81 b7 35 7a 43 b7
       -4.0777573e-05 0.00013082431 -1.539576e-05 -1.1651359e-05
0000c0 18 78 29 b9 64 6b 27 39 08 e0 ad 34 1f b8 1c b9
       -0.00016161834 0.00015966367 3.2386765e-07 -0.0001494591
0000d0 8d 91 5a 39 48 fd 2d b8 cb 60 ad 39 c9 fb 94 39
       0.00020844322 -4.14823e-05 0.00033069248 0.00028416354
0000e0 85 2f f7 38 4b 28 3b b7 d7 71 0b b8 fe 39 09 38
       0.00011786729 -1.115545e-05 -3.3246204e-05 3.2717355e-05
0000f0 39 3a df 38 89 4d c5 39 65 e1 0c b9 44 ab 49 37
       0.000106443134 0.00037632536 -0.00013435406 1.20204095e-05
000100 ae ae dc 39 40 60 86 38 58 66 2e 36 6c 36 96 b8
       0.00042091816 6.407546e-05 2.5987592e-06 -7.162694e-05
000110 c9 ad d6 34 89 36 1d b9 25 b0 81 39 89 be a8 38
       3.9987052e-07 -0.00014993003 0.00024736035 8.046354e-05
000120 44 1b 0f b8 1b a7 c2 b8 44 47 27 39 70 fe 37 39
       -3.411925e-05 -9.281767e-05 0.0001595291 0.00017547025
000130 48 4d 17 b8 10 3a 95 38 6a d5 08 b9 c5 12 14 38
       -3.607318e-05 7.115689e-05 -0.00013049474 3.530343e-05
000140 28 08 23 b9 58 b0 d1 b8 62 1f 7c b9 da 72 08 b9
       -0.0001554793 -9.998743e-05 -0.00024044284 -0.00013012756
000150 78 68 ed 39 4b 4a 70 b9 c9 6f b2 37 72 6c f4 38
       0.00045281998 -0.0002291586 2.1271308e-05 0.00011655026
000160 01 2d c1 b6 91 22 68 b7 3e d5 36 b9 f1 50 80 b9
       -5.7570874e-06 -1.3836326e-05 -0.00017436311 -0.0002447437
000170 e4 85 09 39 07 46 1e 39 3c 98 15 39 be b8 2a b8
       0.00013115216 0.00015094141 0.00014266459 -4.0703213e-05
000180 88 2e 89 b7 11 33 b2 38 44 d0 ea b8 00 3a 22 b9
       -1.635334e-05 8.497213e-05 -0.00011196782 -0.0001547113
000190 8d 3f 24 b9 c3 ae a5 39 da 83 bb b9 22 57 e4 b8
       -0.00015663933 0.0003160146 -0.00035765657 -0.00010888117
0001a0 2f b1 36 b9 44 ae a0 39 26 11 b8 b7 c6 70 e2 b8
       -0.00017422879 0.00030647416 -2.1942495e-05 -0.000107975255
0001b0 7d 06 5b b8 c5 09 1a b9 6a 3d a7 b9 c5 94 aa 37
       -5.221971e-05 -0.00014690224 -0.0003189848 2.0334855e-05
0001c0 4e 33 14 b6 73 eb 5c 38 97 d2 e8 38 f7 06 3a b9
       -2.2083582e-06 5.2671367e-05 0.000111018475 -0.00017740937
0001d0 d5 ac 86 38 81 45 c9 b8 f5 5e c5 b8 2d 09 fd b7
       6.4218104e-05 -9.597373e-05 -9.411379e-05 -3.0164223e-05
0001e0 96 7b 0c b8 06 05 0a b9 a8 5c 79 38 13 e9 2d 39
       -3.34937e-05 -0.00013162577 5.945252e-05 0.00016585393
0001f0 1e 92 ae 38 0e ef 28 b6 a6 72 07 39 f2 02 61 b9
       8.324183e-05 -2.51731e-06 0.00012917313 -0.0002145877
000200 d7 39 d4 b9 49 08 64 38 f8 05 94 b9 5d 25 aa b7
       -0.00040478885 5.4367152e-05 -0.00028233207 -2.0282978e-05
000210 71 d5 b4 b8 8f ce 7f 38 25 59 9b b8 1d 92 f9 b8
       -8.6228254e-05 6.098911e-05 -7.4075804e-05 -0.00011900461
000220 f5 59 96 38 f2 41 04 39 86 8a 0c b9 2b f5 bd b8
       7.169313e-05 0.00012613068 -0.00013403044 -9.0578884e-05
000230 65 98 6b 39 2c c6 0c 37 15 7f 53 38 11 83 2c b9
       0.00022468118 8.390791e-06 5.0424675e-05 -0.00016452024
000240 83 15 07 39 24 0f 8e 39 ea 4f 99 b9 d9 63 f2 b7
       0.00012882617 0.0002709563 -0.00029241975 -2.8895143e-05
000250 63 e1 78 38 3e e9 71 b9 af 50 8a b7 40 52 c1 36
       5.9337715e-05 -0.0002307044 -1.6488453e-05 5.7614234e-06
000260 de cf e4 38 d6 10 0d 39 1f e8 74 b8 93 82 0a 39
       0.000109106055 0.0001345308 -5.8390313e-05 0.00013209348
000270 16 05 7a b9 94 da d8 39 eb e6 26 39 d9 18 81 38
       -0.00023843753 0.00041361584 0.00015917017 6.1558276e-05
000280 14 8d 05 39 3d c0 07 b9 ab eb 74 b4 0c cb 09 b8
       0.00012736424 -0.00012946218 -2.2810006e-07 -3.2852447e-05
000290 b8 84 6a 38 45 4f 6f b8 b1 ea 09 37 5d 51 01 39
       5.591355e-05 -5.7055866e-05 8.22048e-06 0.00012332709
0002a0 85 43 1b 39 1e ca 28 38 36 7e 6c b8 bc 67 17 b9
       0.00014807105 4.0242558e-05 -5.6384328e-05 -0.00014439126
0002b0 8e 0d 22 b9 bf 4f 0e b9 55 d2 a4 36 5d e2 f3 38
       -0.00015454573 -0.00013571883 4.9120667e-06 0.000116293064
0002c0 fe c1 07 b9 8c b4 27 b9 d1 c6 27 b7 d6 24 1f b8
       -0.00012946871 -0.0001599362 -1.0000266e-05 -3.794286e-05
0002d0 40 98 95 38 16 df b8 b8 9f e8 3d 39 6c 25 8a b8
       7.1332324e-05 -8.815357e-05 0.00018111103 -6.587323e-05
0002e0 22 d9 1d 39 94 86 9a b7 b3 f5 d2 b9 d5 0d 9c 38
       0.00015053575 -1.8420898e-05 -0.00040237381 7.441236e-05
0002f0 95 db f1 b8 8c 56 b3 b8 8d dd d8 b7 a7 f5 41 b8
       -0.00011532676 -8.551506e-05 -2.5852374e-05 -4.6243567e-05
000300 ad 8f d3 b7 7c 6f 64 b8 aa 4d 03 b9 c5 71 0b b9
       -2.5220064e-05 -5.4463264e-05 -0.00012522066 -0.00013298455
000310 59 1c 80 b9 0e b4 76 b8 a1 ae d7 b8 6c 0c 07 39
       -0.00024435183 -5.881866e-05 -0.00010284526 0.00012879231
000320 37 e8 9f b8 a1 7d 93 b8 41 ad 3a 38 4c 3e bf 37
       -7.624964e-05 -7.0329064e-05 4.450721e-05 2.2797984e-05
000330 46 98 05 b9 4d ea 9e 37 62 b4 61 38 bf 53 b9 b7
       -0.00012740595 1.8944173e-05 5.3812175e-05 -2.2092716e-05
000340 ed 2a b3 b8 b8 19 63 b8 8a 06 6a b9 1c 8f d1 37
       -8.543381e-05 -5.414497e-05 -0.00022318415 2.4981382e-05
000350 6a ef a5 b8 9e 32 dd 38 28 88 07 39 58 17 16 39
       -7.9124075e-05 0.000105475294 0.00012925325 0.00014313811
000360 40 9a 51 b8 ed b9 63 b9 ac fe 42 b9 1e 6a ed 38
       -4.997314e-05 -0.0002171767 -0.00018596154 0.000113208065
000370 3f 59 14 b7 6b 9c ce b8 35 e0 e7 b7 5d 9f 1a b8
       -8.842267e-06 -9.8519806e-05 -2.764175e-05 -3.686488e-05
000380 4d 4b 9c 38 a5 aa 6b b8 81 b8 97 38 90 9e ff b8
       7.4526855e-05 -5.618729e-05 7.2346076e-05 -0.00012188882
000390 d5 cf a1 b7 1c 4f a6 b9 67 40 d9 b8 c1 19 aa b8
       -1.9289475e-05 -0.00031720928 -0.00010359362 -8.111029e-05
0003a0 66 96 bc b8 9a ad b8 b7 5b a0 15 b7 3d c5 37 b9
       -8.9925525e-05 -2.2015349e-05 -8.918428e-06 -0.00017525717
0003b0 69 fb d7 b7 b0 96 48 38 4d 18 78 39 59 c1 a9 39
       -2.574707e-05 4.7824054e-05 0.00023660176 0.00032378247
0003c0 c0 a6 06 b9 27 88 ac b9 bc bb 2d 39 f4 2d 9d 38
       -0.00012841355 -0.00032907838 0.00016568502 7.494903e-05
0003d0 e4 01 01 b9 05 38 dc b8 64 19 86 39 69 95 ef b8
       -0.00012303103 -0.00010500852 0.0002557739 -0.00011424238
0003e0 4b a2 5c b8 16 c0 7e b9 f9 9f 51 b8 9e f1 6b 38
       -5.2603235e-05 -0.00024294885 -4.997847e-05 5.625339e-05
0003f0 f5 d4 88 b8 e2 e9 a3 38 10 58 8f 38 51 27 dd b6
       -6.524652e-05 7.81601e-05 6.835174e-05 -6.5908903e-06

autoencoders.1.encoder.cells.0.lstm.bias_ih f4 [32]
000000 00 00 00 00 00 00 00 00 00 00 00 00 00 00 00 00
       0.0 0.0 0.0 0.0
000010 00 00 00 00 00 00 00 00 00 00 00 00 00 00 00 00
       0.0 0.0 0.0 0.0
000020 00 00 00 00 00 00 00 00 00 00 00 00 00 00 00 00
       0.0 0.0 0.0 0.0
000030 00 00 00 00 00 00 00 00 00 00 00 00 00 00 00 00
       0.0 0.0 0.0 0.0
000040 00 00 00 00 00 00 00 00 00 00 00 00 00 00 00 00
       0.0 0.0 0.0 0.0
000050 00 00 00 00 00 00 00 00 00 00 00 00 00 00 00 00
       0.0 0.0 0.0 0.0
000060 00 00 00 00 00 00 00 00 00 00 00 00 00 00 00 00
       0.0 0.0 0.0 0.0
000070 00 00 00 00 00 00 00 00 00 00 00 00 00 00 00 00
       0.0 0.0 0.0 0.0

autoencoders.1.encoder.cells.0.lstm.bias_hh f4 [32]
000000 00 00 00 00 00 00 00 00 00 00 00 00 00 00 00 00
       0.0 0.0 0.0 0.0
000010 00 00 00 00 00 00 00 00 00 00 00 00 00 00 00 00
       0.0 0.0 0.0 0.0
000020 00 00 00 00 00 00 00 00 00 00 00 00 00 00 00 00
       0.0 0.0 0.0 0.0
000030 00 00 00 00 00 00 00 00 00 00 00 00 00 00 00 00
       0.0 0.0 0.0 0.0
000040 00 00 00 00 00 00 00 00 00 00 00 00 00 00 00 00
       0.0 0.0 0.0 0.0
000050 00 00 00 00 00 00 00 00 00 00 00 00 00 00 00 00
       0.0 0.0 0.0 0.0
000060 00 00 00 00 00 00 00 00 00 00 00 00 00 00 00 00
       0.0 0.0 0.0 0.0
000070 00 00 00 00 00 00 00 00 00 00 00 00 00 00 00 00
       0.0 0.0 0.0 0.0

autoencoders.1.decoder.cells.0.weight_h_2 f4 [8, 8]
000000 cd 9f 3a 3e e4 58 7b be 22 ba 3e bf b3 46 d3 3e
       0.18225022 -0.24545628 -0.74502766 0.41264877
000010 a4 76 30 be ba 82 89 3b 8a ce 44 bf 78 a9 d6 3e
       -0.17232758 0.004196492 -0.76877654 0.4192617
000020 d5 15 ce bd 82 9b e1 be a7 99 09 3e 0b 52 c4 be
       -0.10062758 -0.44063956 0.1343752 -0.38343844
000030 57 74 f2 3d 7c 5d 8f 3e 9a 51 04 3f 25 22 03 3f
       0.11838596 0.2800101 0.51687014 0.51223975
000040 66 3b bc 3e ce 44 7e 3e 6b 76 0c be bd f2 18 3e
       0.36764067 0.24830934 -0.13717048 0.14936347
000050 4c 0f c8 ba 76 50 b1 be 87 2c 91 3e 7e d8 48 3d
       -0.0015263348 -0.346317 0.28354284 0.049034588
000060 e7 8e 03 3f 41 35 60 3e b5 29 81 be f5 64 3b be
       0.51389927 0.21895315 -0.25227132 -0.18300231
000070 8f 5f 88 3e 91 b8 d0 be 03 a0 0c bd 16 73 20 3f
       0.26635405 -0.40765813 -0.034332287 0.6267561
000080 80 76 e6 be 4b 00 27 3e ec 0b fd 3d be a6 ea be
       -0.45012283 0.16308706 0.123557895 -0.4583034
000090 af 89 0c bf 31 61 41 bd 36 7b 61 bb ff a9 7b 3e
       -0.5489759 -0.04721183 -0.0034405715 0.24576567
0000a0 2d eb d8 bc 40 c1 43 bc e4 e9 11 3b 37 9e a6 bd
       -0.026479328 -0.01194793 0.0022264654 -0.08135646
0000b0 7f d8 92 be 6e d2 0d 3b ab 88 55 be 89 69 a6 3e
       -0.28680798 0.0021640318 -0.20852916 0.32502392
0000c0 bc 9f ed bd 7b a3 08 ba de 25 9b 3d 53 7f 1f 3f
       -0.116027325 -0.0005212349 0.07575582 0.62303656
0000d0 85 24 e0 3d f0 9a 0c 3d 31 df ab be 2b 23 bb 3e
       0.109444655 0.034327447 -0.3356872 0.3655027
0000e0 f0 9e 1f 3f f7 d1 9a 3d 85 ea 01 3a bf d8 2f 3f
       0.62351894 0.07559579 0.00049559056 0.68690103
0000f0 76 59 af 3e d2 03 af bd 98 6f 39 3e 2c 32 a9 3d
       0.3424794 -0.085456505 0.18108976 0.08261523

autoencoders.1.decoder.cells.0.bias_h_2 f4 [8]
000000 b1 84 ef 3d a6 64 da 3d ed 55 dd bb cb 63 cd bd
       0.11695231 0.106637284 -0.006754628 -0.100287996
000010 9b 82 86 bc cc 8f cf 3d a0 f4 10 be a8 c4 5f 3d
       -0.0164197 0.10134849 -0.14155817 0.054630905

autoencoders.1.decoder.cells.0.lstm.weight_ih f4 [32, 1]
000000 0d f6 8b 3d 77 b4 13 3e 26 e9 16 39 da d2 52 3d
       0.0683404 0.1442431 0.0001439197 0.051470615
000010 71 bf 7b 3d 98 9f 9f bb 89 1e 40 be 5a 39 8a 3d
       0.06146187 -0.00487132 -0.18761648 0.0674922
000020 7a 6c 34 bd 4a a4 9a 3e 55 56 b4 39 68 e4 50 38
       -0.044048764 0.30203468 0.00034396598 4.9803784e-05
000030 50 97 f0 3a 70 f2 d2 3d fe d2 0c 3f bd 67 7f 3e
       0.0018355642 0.103001475 0.5500945 0.24941917
000040 93 6d 57 3e c6 50 af 3e 06 96 b6 bd c0 77 0c be
       0.21037893 0.34241313 -0.089153334 -0.13717556
000050 5c c5 0d 3f 20 6a 16 3e 69 28 3e be 98 d3 63 3f
       0.5537927 0.14688921 -0.18570103 0.8899474
000060 bb 27 b4 bc e8 e9 f6 3e 5c 69 4d 3a f1 ae 0c 3f
       -0.021991601 0.4822533 0.0007835829 0.5495444
000070 d1 f9 29 3d f5 dd 1c 3f 39 94 eb 3e a2 88 be bd
       0.04149801 0.6127618 0.46011522 -0.093034044

autoencoders.1.decoder.cells.0.lstm.weight_hh f4 [32, 8]
000000 a7 34 ae 3e 75 40 4d 3e ea bd 12 3e 7b 4a e1 3e
       0.34024546 0.2004412 0.14330259 0.44002137
000010 df 73 b2 be 08 57 8a 3d 4b e5 20 3f d4 ce aa 3e
       -0.34854028 0.06754881 0.62849873 0.33360922
000020 88 91 01 3e a2 f8 d8 3d d7 8d cd 3e fd ec 85 3e
       0.12653172 0.10594298 0.40147278 0.2615737
000030 5f a6 49 3e 83 2f a9 3d 17 c1 20 be 5b ed 6b 3c
       0.19692372 0.08261015 -0.15698658 0.014399852
000040 c0 5e fc 3a 8c e3 46 3d 8d 7b a5 b9 a1 5f 73 38
       0.0019254312 0.04855685 -0.00031563305 5.8024776e-05
000050 80 2e a5 39 14 33 7d 3a 39 87 f5 38 c2 de a3 39
       0.00031505898 0.00096587953 0.000117076976 0.0003125575
000060 7d 7a db 3e 91 25 4d be 9e 84 10 be c8 70 9e 3e
       0.4286689 -0.20033862 -0.1411309 0.3094542
000070 58 ee 2b 38 df 2b 11 3e 72 f6 c2 be a3 48 03 3d
       4.0991552e-05 0.14176892 -0.38078648 0.032051694
000080 cd 15 71 3d 35 05 d5 3d 33 3b 66 bd 36 f7 23 3e
       0.05885868 0.10401384 -0.0562088 0.16012272
000090 fd 94 73 ba 73 9d 5a 3c 0e be 7f 37 0e 0a 86 3e
       -0.00092919153 0.013343203 1.5243435e-05 0.26179546
0000a0 1e 18 0f 3e cb 65 32 3d e1 0b a4 3e 86 ee d9 3e
       0.13974044 0.04355411 0.32040313 0.4256479
0000b0 50 7b b2 3c f3 83 15 3e 7c 26 51 3e 65 b9 d8 3c
       0.021787316 0.14601116 0.20424837 0.02645559
0000c0 e8 a9 88 3e fd e5 f1 3d 2b f3 f3 3d 7b 6a 93 3e
       0.26692128 0.11811445 0.11911615 0.28792176
0000d0 39 37 8b bc 4d 23 bc 3e f4 05 ad 3e 53 8c c6 bc
       -0.016994106 0.36745682 0.33793604 -0.024236834
0000e0 9f ea 9f 3e 0d 0c ac 3e e6 45 41 3e ee 3d ef 3d
       0.3123369 0.33602944 0.1887432 0.11681734
0000f0 b0 76 b8 3e 83 b6 01 3f 80 d4 c7 3c 88 69 15 3e
       0.3602805 0.50669116 0.02439332 0.14591038
000100 d7 49 f0 3d 8b 06 89 bd 91 46 20 3d 11 78 a8 bd
       0.11732834 -0.06690701 0.039129797 -0.08226026
000110 8c c5 b8 3d 56 05 65 3e 5b 69 68 b9 01 bb cc ba
       0.09022054 0.22365317 -0.00022164492 -0.0015619696
000120 e4 0d e7 3e a1 f0 fe 3d b8 76 7f 3d 12 83 06 bd
       0.45127785 0.1244824 0.06236908 -0.032839842
000130 b5 31 cc 3d 10 ac b8 3e 0b 41 e4 39 ab a9 9a 3e
       0.09970418 0.36068773 0.0004353601 0.3020757
000140 e7 d6 cb 3a 7a e4 85 3a 7d 42 25 39 fd 9e 92 39
       0.0015551717 0.0010215186 0.00015760395 0.00027965746
000150 b3 04 e0 b6 4c 98 7e 3a c6 20 97 b9 50 88 f2 3d
       -6.6762673e-06 0.0009712025 -0.00028825382 0.11842406
000160 04 7f 13 bf 60 51 b5 b8 c1 d0 b5 38 14 40 69 3e
       -0.57615685 -8.64591e-05 8.669636e-05 0.2277835
000170 02 56 c8 bd 43 51 a3 be 9d 94 2d b9 7e 3c 2d 3d
       -0.0978203 -0.31897935 -0.00016553928 0.042294018
000180 0b 85 04 be ab 99 d5 ba 57 9f 3a 3e 02 aa 38 ba
       -0.12941377 -0.0016296407 0.18224846 -0.0007044376
000190 a7 8a 21 bb f7 35 40 3c 44 aa b3 3a bb 14 e6 3d
       -0.0024649294 0.011731616 0.0013707359 0.11234423
0001a0 a8 4e dd 3e 71 90 ed bd 34 cc 22 bc 8b 86 1b 3d
       0.43224072 -0.11599816 -0.009936381 0.037970107
0001b0 9d b5 f5 3e 20 b7 29 be 7e da a4 3d 9f b6 8a bd
       0.47990122 -0.16573763 0.080494866 -0.067731135
0001c0 2c bf 1b 39 7f 0e 62 be 8d 24 a1 3d 46 51 22 bd
       0.00014853169 -0.22075842 0.078683 -0.03962829
0001d0 f5 14 15 39 9f fa 96 bd 77 4f 8d bc 35 e3 b1 3c
       0.00014217554 -0.07372021 -0.017249806 0.021714786
0001e0 68 d2 1a 3f e1 72 b3 3e 94 61 46 3d 32 c2 cf 3e
       0.60477304 0.35048583 0.0484329 0.40577847
0001f0 b6 f9 1a 3e 5a 51 d8 3e d2 07 81 3b 39 d6 60 3e
       0.1513432 0.42249566 0.0039377 0.2195672
000200 04 a0 25 3e 78 46 26 3f bc c6 f0 3e 2c 4f f3 bd
       0.16174322 0.64951277 0.47026622 -0.11880335
000210 2b ab 5f bd 2f 25 c7 3d fd 85 21 3e 0c 08 c1 bc
       -0.054606598 0.09723889 0.15773769 -0.023563407
000220 d5 0b d8 be 10 91 c8 3d 3d e5 02 be e4 cf 6f 3e
       -0.42196527 0.097932935 -0.1278276 0.23419148
000230 82 5e 15 3d af be 33 3e 2b 38 a7 3e 4c 95 55 3e
       0.036467083 0.17553209 0.3266004 0.20857733
000240 65 db 7c 3e 8d f7 01 3e ba bb 2d bd 57 83 90 be
       0.24693067 0.1269209 -0.042415358 -0.28225204
000250 9b 30 b8 3b cf 18 4e bd be 3b d1 ba 71 ef 81 bc
       0.0056210286 -0.050316628 -0.0015963239 -0.015861245
000260 b6 76 a2 bd 9a e3 9f 3d ad 87 15 3e 9f 0b c4 3e
       -0.079327986 0.078070834 0.14602537 0.38290116
000270 1b d4 24 be 52 65 52 3d 9e 2a cb bd 87 ea 6b be
       -0.16096537 0.051366158 -0.09920238 -0.23038684
000280 f0 10 af bd f1 23 0e 3d 77 a1 0d be dc be 42 be
       -0.085481524 0.034702245 -0.13831125 -0.1901812
000290 60 a4 fc 3e e9 fa 10 be ed 02 71 3b e4 62 8f 3d
       0.49344158 -0.14158215 0.0036775426 0.07001284
0002a0 ff 3c 82 3e 04 06 39 3c e1 a9 42 3e e7 db fd 3c
       0.2543716 0.011292938 0.19010116 0.030988647
0002b0 93 05 88 3d 54 56 b6 bd 1e 3e 67 3e d1 ba 89 3e
       0.06641688 -0.089031845 0.2258229 0.26900342
0002c0 cb 63 cb be 75 0c 84 bc 9c 98 00 be 4f 92 23 3d
       -0.39724573 -0.016119221 -0.12558216 0.039934453
0002d0 d2 e2 de ba e0 c5 92 be 47 e8 6e 3d b1 a4 9b be
       -0.0017004854 -0.28666592 0.058326986 -0.30399087
0002e0 0a e4 0e bf 56 c2 a9 bd f7 ee c9 be 54 cc 27 bd
       -0.5581671 -0.0828902 -0.39440128 -0.040966347
0002f0 9e b2 75 3c 34 52 db 3d 6e fb 2b 3e 73 59 78 3b
       0.014996199 0.107090384 0.16795132 0.0037895113
000300 48 fe 60 3e d3 b9 b4 3e 30 33 14 3d 33 2e e5 3d
       0.21972 0.35298023 0.03618163 0.111904524
000310 64 f9 29 3c 00 d8 d7 bd 7a 7e 89 bc f5 f3 0d 3f
       0.010374401 -0.105392456 -0.016783942 0.55450374
000320 b6 d3 20 bd 83 e7 35 3e ea 91 8b 3e 8c 52 a1 bd
       -0.039264403 0.17764096 0.2725976 -0.07877073
000330 43 5c bd 3c 77 9c 53 3e c5 2b d5 3c 4d 64 00 3f
       0.023115283 0.20665155 0.026021848 0.50153047
000340 ae 43 f4 3a 79 61 80 3a d1 4a a3 38 ed 22 67 38
       0.0018635893 0.0009794674 7.786381e-05 5.510722e-05
000350 e8 da 00 b8 f2 33 d4 38 e1 43 34 b8 bf b2 2b 3a
       -3.072145e-05 0.00010118623 -4.297856e-05 0.00065497676
000360 3e eb 14 b8 bf 1b 99 be a4 69 c3 38 b5 1d aa 38
       -3.5505036e-05 -0.2990398 9.318002e-05 8.111765e-05
000370 ca 69 78 bd 7d 3c 9c 3e ba 9c 74 3e a0 bc 6f 3e
       -0.060647763 0.305149 0.23887911 0.23411798
000380 fb 44 e8 3e 2e d3 26 3e d7 44 b4 b8 9a 0c d2 3c
       0.45365128 0.16291496 -8.595891e-05 0.025640775
000390 b0 78 85 3d d4 20 fc 3c 4a 8d f0 39 0a 18 39 be
       0.0651716 0.030777372 0.00045881636 -0.18075576
0003a0 64 a1 13 bd 78 c9 a8 3e b3 ef 61 be 3b 74 9c bd
       -0.036042586 0.32966208 -0.22064094 -0.07639357
0003b0 38 30 18 3a 40 c5 ae 3c 95 04 cf 3d fe 04 a0 3e
       0.0005805525 0.02133429 0.10108296 0.3125381
0003c0 c4 60 96 3e 31 8b 2d bd 6c 32 cd 3d 3e 88 2e 39
       0.293707 -0.04236907 0.10019383 0.00016644687
0003d0 12 c9 08 3f 32 ee 1b bd 2b f8 fc 3d 4b 44 9f bb
       0.5343181 -0.038068958 0.12352022 -0.004860436
0003e0 9b fd fc 3e d9 31 1c 3f 72 d4 18 3f c8 53 e2 3e
       0.49412236 0.6101356 0.59699166 0.44204545
0003f0 ca 1d 82 3d cb 3e 18 3f 4c 9f 27 b8 d9 0a b4 bc
       0.06353338 0.59470814 -3.996426e-05 -0.021977829

autoencoders.1.decoder.cells.0.lstm.bias_ih f4 [32]
000000 1c 2c 00 3e 93 cc 08 3e d1 bc a2 39 ff 42 22 3c
       0.12516826 0.13359289 0.00031039727 0.009903668
000010 28 4f a8 3d ea 1d f9 3d 12 75 cf 3d 6b 49 c5 3e
       0.08218223 0.12163909 0.10129751 0.38532576
000020 d0 cc 93 3d 8c ba 58 3d 9f 13 d9 39 6e 72 a5 38
       0.07216799 0.05291228 0.00041404084 7.889127e-05
000030 ef 94 55 3d 96 2f 27 3d 0d b7 9d 3d d0 97 c9 3e
       0.052143987 0.040816866 0.0770093 0.39373636
000040 85 a0 b1 3d c8 6c e0 bb a9 32 a4 3c 27 2c 9c bd
       0.08673195 -0.0068489052 0.020043688 -0.07625609
000050 45 1b fb bd eb 6f 52 3d 9e 2b 90 bd c7 59 2b bd
       -0.122610606 0.051376265 -0.07039569 -0.041833665
000060 3e ac 09 3e 37 d2 07 3e 96 47 36 3a 20 64 9e 3b
       0.13444611 0.13263784 0.0006953416 0.004833713
000070 26 28 95 3d 0d ff 71 3d c4 93 e3 3d d7 56 d5 3e
       0.07283048 0.059081126 0.111121684 0.41667816

autoencoders.1.decoder.cells.0.lstm.bias_hh f4 [32]
000000 1c 2c 00 3e 93 cc 08 3e d1 bc a2 39 ff 42 22 3c
       0.12516826 0.13359289 0.00031039727 0.009903668
000010 28 4f a8 3d ea 1d f9 3d 12 75 cf 3d 6b 49 c5 3e
       0.08218223 0.12163909 0.10129751 0.38532576
000020 d0 cc 93 3d 8c ba 58 3d 9f 13 d9 39 6e 72 a5 38
       0.07216799 0.05291228 0.00041404084 7.889127e-05
000030 ef 94 55 3d 96 2f 27 3d 0d b7 9d 3d d0 97 c9 3e
       0.052143987 0.040816866 0.0770093 0.39373636
000040 85 a0 b1 3d c8 6c e0 bb a9 32 a4 3c 27 2c 9c bd
       0.08673195 -0.0068489052 0.020043688 -0.07625609
000050 45 1b fb bd eb 6f 52 3d 9e 2b 90 bd c7 59 2b bd
       -0.122610606 0.051376265 -0.07039569 -0.041833665
000060 3e ac 09 3e 37 d2 07 3e 96 47 36 3a 20 64 9e 3b
       0.13444611 0.13263784 0.0006953416 0.004833713
000070 26 28 95 3d 0d ff 71 3d c4 93 e3 3d d7 56 d5 3e
       0.07283048 0.059081126 0.111121684 0.41667816

autoencoders.1.decoder.output_layer.weight f4 [1, 8]
000000 3d 5b a2 3e 2e 81 af 3e 6f f6 eb bc 5b a6 0f be
       0.31710234 0.34278244 -0.028804032 -0.14028303
000010 66 d8 8a 3d 0b b3 a5 3e 32 12 16 be 58 1e 54 3e
       0.06779556 0.3236316 -0.14655378 0.207147

autoencoders.2.encoder.cells.0.weight_h_2 f4 [8, 8]
000000 5b 0d 99 39 8c 41 81 38 a6 b6 06 b9 79 52 ed 38
       0.00029192385 6.1634084e-05 -0.00012847278 0.000113164024
000010 39 1a 11 b8 95 73 48 b9 65 87 06 b9 88 82 a1 b8
       -3.4595116e-05 -0.00019116544 -0.00012829674 -7.7013916e-05
000020 f1 d2 c2 b8 e9 3b 2e 39 87 a7 09 39 88 65 bc b8
       -9.289932e-05 0.00016616251 0.00013127747 -8.98345e-05
000030 9e e1 04 b8 60 9b d0 38 0c e2 ec 38 0b 9b f0 38
       -3.1681375e-05 9.947154e-05 0.000112954614 0.00011472971
000040 a7 b6 a5 b6 02 70 87 b8 b6 90 4d 39 51 8f 26 b9
       -4.9386467e-06 -6.458165e-05 0.00019604233 -0.00015884383
000050 c9 92 4c b9 26 d9 3e 39 b6 64 ed 38 11 00 8b 39
       -0.00019509638 0.00018200706 0.000113197995 0.00026512195
000060 04 6a 89 b9 e5 bb 15 b9 49 48 28 38 55 64 9e be
       -0.00026209664 -0.00014279743 4.0121642e-05 -0.30935922
000070 3e 2d 24 38 6f bb a9 38 b3 69 1d 38 92 24 aa 38
       3.9142782e-05 8.09346e-05 3.7530157e-05 8.1130434e-05
000080 97 b4 bd 36 25 e5 da b9 56 7d f7 38 46 4d 20 b9
       5.6536624e-06 -0.00041750926 0.000118012234 -0.00015287576
000090 f0 0d d2 39 c0 ce 81 b8 b6 0f 23 b8 79 65 4f 39
       0.00040064706 -6.1897095e-05 -3.887686e-05 0.0001977886
0000a0 0d de b5 38 c4 97 bc 38 ba 29 3d b9 af 95 de 36
       8.672113e-05 8.992807e-05 -0.00018039989 6.633541e-06
0000b0 83 0d 61 39 ac cb bf 38 06 46 de 39 35 20 fd b7
       0.00021462706 9.1455266e-05 0.0004239531 -3.0174948e-05
0000c0 00 ef 4b b9 a8 46 b1 b9 0a 40 10 b8 98 b2 68 b8
       -0.00019448623 -0.00033812714 -3.4391916e-05 -5.547944e-05
0000d0 6b 19 8d 36 56 cf 64 38 bc 3d 0c 39 28 66 01 b9
       4.2050865e-06 5.4552533e-05 0.00013374438 -0.00012340455
0000e0 cf b1 0d b9 92 43 a4 b9 b4 33 74 39 0f 7c cd b9
       -0.00013513047 -0.0003133086 0.00023288914 -0.00039193078
0000f0 3e 79 eb 38 cd 94 a4 39 b5 20 ce 37 10 c4 9b b8
       0.00011228256 0.00031391383 2.4572344e-05 -7.4274954e-05

autoencoders.2.encoder.cells.0.bias_h_2 f4 [8]
000000 00 00 00 00 00 00 00 00 00 00 00 00 00 00 00 00
       0.0 0.0 0.0 0.0
000010 00 00 00 00 00 00 00 00 00 00 00 00 00 00 00 00
       0.0 0.0 0.0 0.0
