results/H2/ensemble_autoencoder_weights.pth (torch, 104226 bytes, 170 tensors)

autoencoders.0.encoder.cells.0.weight_h_2 f4 [8, 8]
0	0x3ee49304	0.44643414
1	0xbb3abf11	-0.0028495232
2	0x3d1726b6	0.036902152
3	0x3c044b54	0.0080746
4	0xbcccab8f	-0.02498415
5	0xbf0e54ff	-0.55598444
6	0x37aaf4d9	2.0379595e-05
7	0xbec2ad4b	-0.38022837
8	0xbf469295	-0.77567416
9	0xbec25866	-0.37958068
10	0x3e8d4e0e	0.27598614
11	0xbf063e23	-0.52438563
12	0xbe98c9db	-0.29841504
13	0x3e8ce23c	0.27516353
14	0x3e853dca	0.26023704
15	0x3ed08f0a	0.4073413
16	0xbd4168e6	-0.04721918
17	0x3bb793a0	0.005602315
18	0x3efdd40b	0.49575838
19	0x3dbbb28e	0.09164916
20	0x3d1c12bb	0.0381038
21	0xb9d73f7c	-0.00041055295
22	0x3e745542	0.23860648
23	0x3e9c3ecd	0.30516663
24	0x3e04bba0	0.12962198
25	0x3ea14876	0.31500596
26	0x3eb1ea9a	0.347493
27	0x3d4548d3	0.048165154
28	0xbed955a1	-0.42448142
29	0xbec8ee7e	-0.39244455
30	0xbe5f18fa	-0.21786872
31	0xb98b4353	-0.00026562306
32	0x3f24af65	0.6433013
33	0xbdd2b894	-0.10289112
34	0x3f4be77a	0.7965008
35	0xb8ee5aad	-0.00011365614
36	0x3f05eaab	0.523112
37	0x3d411556	0.04713949
38	0x3ed3fbda	0.41403085
39	0x3d4a71b2	0.049424835
40	0x3e82ce28	0.2554791
41	0xbe230710	-0.15920663
42	0x3e94084e	0.28912586
43	0x3edd885d	0.432681
44	0xbe8e7951	-0.27826932
45	0x3db84024	0.08996609
46	0x3a377081	0.00069976604
47	0xbeb4d2ad	-0.35316983
48	0xb92848d1	-0.00016048855
49	0x3e3ca92c	0.18423909
50	0x3d5b5fb7	0.053558078
51	0xbe2b3172	-0.1671808
52	0x3e949f66	0.2902786
53	0x3e9d0ee9	0.30675438
54	0x3d2100a2	0.039307244
55	0xbe69f50e	-0.22847387
56	0x38506f36	4.9694638e-05
57	0x3e5914fe	0.21199414
58	0x3a2c5eb9	0.0006575394
59	0xbf0c301c	-0.5476091
60	0x3f148f7d	0.58031446
61	0xbed0a6ff	-0.40752408
62	0x3ecd6cea	0.40122157
63	0x3e07b929	0.13254227

autoencoders.0.encoder.cells.0.bias_h_2 f4 [8]
0	0x00000000	0.0
1	0x00000000	0.0
2	0x00000000	0.0
3	0x00000000	0.0
4	0x00000000	0.0
5	0x00000000	0.0
6	0x00000000	0.0
7	0x00000000	0.0

autoencoders.0.encoder.cells.0.lstm.weight_ih f4 [32, 1]
0	0xba0781ba	-0.0005169172
1	0xbdb8c1e4	-0.09021357
2	0xb99663f3	-0.00028684697
3	0x3e2b1b78	0.16709697
4	0xbe3ddb73	-0.18540744
5	0x3ed9c791	0.4253507
6	0x3e9341ba	0.28761083
7	0x3e8be611	0.27323964
8	0xbdd58bbc	-0.10427043
9	0xb8b4cc7b	-8.621156e-05
10	0xbdf01cbc	-0.11724231
11	0xbcf5aeb8	-0.029990539
12	0x3f298da3	0.66231745
13	0xb9a7b990	-0.00031990977
14	0xbe1d9b58	-0.1539129
15	0x3eec829b	0.46193394
16	0xbe3bc25a	-0.18335858
17	0xbead89c7	-0.33894178
18	0x3e58a77a	0.21157637
19	0xbd9665b2	-0.073436156
20	0x3ddf619e	0.10907291
21	0x3daa73da	0.08322878
22	0xbe42a4ca	-0.19008175
23	0xbd68fa84	-0.056879535
24	0xbc369c32	-0.011145638
25	0x3e719dc4	0.23595339
26	0x3c020be4	0.007937405
27	0xbe8c9f98	-0.2746551
28	0x3ebac5c9	0.36479023
29	0x3ef36761	0.4753981
30	0xbe2eb454	-0.17060977
31	0x3e991643	0.29899797

autoencoders.0.encoder.cells.0.lstm.weight_hh f4 [32, 8]
0	0xbe2bc8df	-0.16775845
1	0xbeafde9a	-0.3434952
2	0x3daaffba	0.08349557
3	0xb89d38f4	-7.496952e-05
4	0xbdaba8c8	-0.08381802
5	0xbe0477fc	-0.12936395
6	0xbd9bcb36	-0.07607119
7	0x3cadd973	0.021221852
8	0xbea0eed9	-0.31432226
9	0x3c875f37	0.016524894
10	0x3e126b74	0.14298803
11	0xbe8d157d	-0.27555457
12	0xbe89948d	-0.26871148
13	0xbe5f4b1a	-0.21805993
14	0xbeb63720	-0.35588932
15	0xbe9b688e	-0.30353206
16	0x3c2dffca	0.010620067
17	0x3e5c788c	0.2153036
18	0x3ed92dca	0.42417747
19	0x3e4361be	0.19080254
20	0xba5dc928	-0.00084604556
21	0x3d78cefc	0.06074427
22	0x3bcf61fc	0.0063288193
23	0xbb393af2	-0.0028263894
24	0x3ea2ed60	0.31821728
25	0xbc21d968	-0.009878494
26	0xb99bb25f	-0.000296968
27	0xbe446b42	-0.1918154
28	0xbd98ec90	-0.07466996
29	0xbe7725de	-0.24135539
30	0xbd38cd50	-0.045117676
31	0x393510e0	0.00017267792
32	0x3daf9c80	0.08574772
33	0x3a65080b	0.0008736855
34	0xbe474782	-0.19460872
35	0xb9336284	-0.0001710747
36	0x3dbe678a	0.09297092
37	0xbd0ff460	-0.035145164
38	0x3e63ec2a	0.22258058
39	0x3ce4d85a	0.027935196
40	0x399567f6	0.00028496952
41	0xbe63b584	-0.22237211
42	0xbe499f9e	-0.19689795
43	0xbdaac80c	-0.08338937
44	0x3e6b7ade	0.22996089
45	0x3e832d48	0.25620484
46	0x3d977cb4	0.07396832
47	0xb829dd74	-4.0498984e-05
48	0xbdbcaa5c	-0.09212181
49	0xbe06a56a	-0.13149038
50	0x3eaf0409	0.34182766
51	0x3ec0a30b	0.37624392
52	0xbe7ead4a	-0.24870792
53	0xbead8951	-0.33893827
54	0xb9a6ae6c	-0.00031791942
55	0x3d89b2ac	0.06723532
56	0xbdbd5c4a	-0.09246118
57	0x3d9d8f3c	0.076933354
58	0xb964ff90	-0.00021838979
59	0x3de9c9a2	0.114154115
60	0xbd6ebcf5	-0.058285672
61	0x3e88acc9	0.26694325
62	0x3e1e5285	0.15461166
63	0x3e13bb65	0.14426954
64	0x3e726d86	0.23674592
65	0xbe974767	-0.29546663
66	0xb82a08a1	-4.0539195e-05
67	0x393d5287	0.00018055188
68	0xbea746ad	-0.3267111
69	0x3c7800aa	0.015136877
70	0x3e2edd28	0.17076552
71	0xba62c002	-0.0008649827
72	0xb84a28d6	-4.8198584e-05
73	0xbdb32e42	-0.08749057
74	0x3a33b7c2	0.000685569
75	0x3ed3e82a	0.41388065
76	0x3eaf3b62	0.34224993
77	0xbcae4c06	-0.021276485
78	0x3d080206	0.033205055
79	0x3825cb40	3.9528357e-05
80	0xbda2a0a2	-0.079407945
81	0xbe705ede	-0.23473689
82	0x3e3b4c12	0.18290737
83	0x3e4681dc	0.19385475
84	0xb9227b5f	-0.00015495483
85	0xbdfc372a	-0.12315209
86	0xbe70ebce	-0.23527452
87	0x3e23151b	0.1592602
88	0x3d038393	0.0321079
89	0xb960236d	-0.00021375502
90	0xbea91e5f	-0.33030984
91	0xbaec4348	-0.0018025422
92	0x3d9329da	0.07185717
93	0x3ddab800	0.106796265
94	0x3daeedd0	0.08541453
95	0x38330b80	4.2687636e-05
96	0xbe1c22af	-0.15247606
97	0x3de0b638	0.109722555
98	0xbda82c80	-0.08211613
99	0x3d1792f6	0.037005387
100	0x3e754b8c	0.239546
101	0xba0d866d	-0.0005398754
102	0x3eb1a41d	0.3469552
103	0x3f021c9c	0.50824904
104	0x3e92058b	0.28519854
105	0x3e4eecc2	0.20207503
106	0x3d6e9871	0.05825085
107	0x3d049f75	0.032378633
108	0xbcb09d28	-0.021559313
109	0x3e8ac32f	0.27102038
110	0xbdc087fe	-0.094009385
111	0x3d9453a8	0.07242519
112	0xbdafea28	-0.08589584
113	0x3e541b2c	0.2071349
114	0xbe19494d	-0.14969368
115	0xbdf62c08	-0.12020117
116	0x3da40e78	0.08010572
117	0xbb16d205	-0.0023013365
118	0xbebe97f0	-0.37225294
119	0x3de37b02	0.11107446
120	0x3dc60330	0.09668577
121	0xbe5637f2	-0.20919779
122	0xbec1e761	-0.3787184
123	0xb9ff7935	-0.00048727696
124	0xbd264756	-0.040595375
125	0x3cd7c003	0.026336676
126	0xbe5c3426	-0.21504268
127	0xbd7a6e94	-0.06114061
128	0xbed0aa93	-0.40755138
129	0xbe9e37a9	-0.3090184
130	0x3ea11905	0.314644
131	0xbe17b5f8	-0.1481551
132	0x3d0fb252	0.03508217
133	0x3d9bca6a	0.07606967
134	0xbe261831	-0.16220166
135	0xbdc0b766	-0.094099805
136	0xbed45452	-0.4147058
137	0xbe4c4bee	-0.1995084
138	0x3e8546b6	0.2603051
139	0x3decf08c	0.11569318
140	0x3db3f3b8	0.0878672
141	0xbe84a6d2	-0.25908524
142	0xbe7da548	-0.24770081
143	0xbc395d78	-0.011313789
144	0x3e89c329	0.26906708
145	0xbc9fb460	-0.01949519
146	0xbb0ebb52	-0.0021779132
147	0x3de160fe	0.11004828
148	0xbda756e0	-0.08170867
149	0x3ed97d25	0.4247829
150	0x3d546add	0.051859725
151	0xbc462614	-0.0120940395
152	0x3e01f57d	0.12691303
153	0x3e81ad6e	0.2532763
154	0xb85fb1e3	-5.3333013e-05
155	0x3e0ea14d	0.13928719
156	0xbd97d2f2	-0.074132815
157	0x3e8abe7b	0.2709845
158	0x3e342ca6	0.17595157
159	0xb9f37434	-0.0004643515
160	0xba191029	-0.0005838895
161	0x3e82cc74	0.2554661
162	0xbe2a88b7	-0.16653715
163	0x3e68e68a	0.22744194
164	0x3e6d6256	0.23182043
165	0xbd38645e	-0.045017593
166	0xbd2edf32	-0.042693324
167	0x3e4d2f20	0.20037508
168	0x3df47144	0.11935666
169	0x3e1148ec	0.14187974
170	0xbd01603b	-0.031585913
171	0xbe810da7	-0.25205728
172	0xbd8345ba	-0.06409784
173	0x3df5dcce	0.12005006
174	0x382f1503	4.174282e-05
175	0xbe51f312	-0.2050288
176	0x3da3a4f2	0.07990445
177	0x3d1231e9	0.03569213
178	0xb96ee446	-0.00022782487
179	0x3d226157	0.03964361
180	0xb81c3946	-3.724664e-05
181	0x3e8b1145	0.27161613
182	0xbcf44b28	-0.029820994
183	0xbdaf6b40	-0.08565378
184	0xbf0c0e9c	-0.5470979
185	0x3e107de4	0.14110523
186	0x3e9fa48d	0.3118023
187	0xbec7f378	-0.3905294
188	0x3e38ecf9	0.18059148
189	0xbdee3242	-0.1163068
190	0xbefd8c71	-0.4952121
191	0xb9a110b9	-0.00030720772
192	0xbe025a47	-0.1272975
193	0xbe4db5b2	-0.20088843
194	0x38ffdb75	0.000122002246
195	0xbc4a7d72	-0.01235901
196	0xb9d6cba0	-0.00040968973
197	0x3e780ede	0.24224421
198	0xbc0ddb86	-0.0086582955
199	0x3dc336a8	0.09531909
200	0xbdd3f088	-0.10348612
201	0xb851d38b	-5.0026498e-05
202	0x3ec2264c	0.37919843
203	0x3e82dee0	0.25560665
204	0x3b3f9202	0.0029231315
205	0x3e7e5244	0.2483607
206	0xbd82a3d0	-0.06378901
207	0x3b514445	0.003193156
208	0x3e9525b3	0.29130325
209	0x3c21bbd0	0.009871438
210	0xbe60c59e	-0.21950385
211	0x3d79bb10	0.060969412
212	0x3e6eeb1e	0.23331878
213	0xbd25892b	-0.040414017
214	0xbee6e076	-0.45093125
215	0x3d357e97	0.04431018
216	0xbe4a386e	-0.19748089
217	0xbd17b6b0	-0.03703946
218	0xbd562e83	-0.05229045
219	0x3e94b0c4	0.2904111
220	0x3efba65f	0.4915037
221	0xbef05747	-0.46941587
222	0x3e126fdb	0.14300482
223	0x3dde5f12	0.10857977
224	0x3d7778ef	0.060418066
225	0x3e2ce49d	0.16884084
226	0xbd4f8b16	-0.050669752
227	0xbe78ad62	-0.2428489
228	0x3ddb3d0c	0.10705003
229	0x3dd00326	0.101568505
230	0xbe255708	-0.16146481
231	0x3f042056	0.5161184
232	0xbe3f86e3	-0.18703799
233	0xbd837439	-0.06418652
234	0xbde52492	-0.11188616
235	0x3a0134d9	0.00049288344
236	0xba9c2304	-0.0011912291
237	0x3e17baa0	0.14817286
238	0xbbe16704	-0.0068787355
239	0xbe0710b9	-0.13189973
240	0xbe7e7eac	-0.24853009
241	0x3e86574f	0.26238486
242	0xb975125d	-0.00023371862
243	0x39076273	0.00012911278
244	0x3ea4fdc2	0.32224852
245	0x3e877559	0.26456717
246	0x3aa36944	0.0012467285
247	0xbd0d1001	-0.03443909
248	0xbc777c2a	-0.015105287
249	0x3e0d2509	0.13783659
250	0x3cd4a3c0	0.025956988
251	0xbe4d2188	-0.20032322
252	0x396ef3e2	0.00022788302
253	0x3cab705f	0.020927606
254	0x3e04f0e2	0.12982515
255	0xbe4c5ab6	-0.19956478

autoencoders.0.encoder.cells.0.lstm.bias_ih f4 [32]
0	0x00000000	0.0
1	0x00000000	0.0
2	0x00000000	0.0
3	0x00000000	0.0
4	0x00000000	0.0
5	0x00000000	0.0
6	0x00000000	0.0
7	0x00000000	0.0
8	0x00000000	0.0
9	0x00000000	0.0
10	0x00000000	0.0
11	0x00000000	0.0
12	0x00000000	0.0
13	0x00000000	0.0
14	0x00000000	0.0
15	0x00000000	0.0
16	0x00000000	0.0
17	0x00000000	0.0
18	0x00000000	0.0
19	0x00000000	0.0
20	0x00000000	0.0
21	0x00000000	0.0
22	0x00000000	0.0
23	0x00000000	0.0
24	0x00000000	0.0
25	0x00000000	0.0
26	0x00000000	0.0
27	0x00000000	0.0
28	0x00000000	0.0
29	0x00000000	0.0
30	0x00000000	0.0
31	0x00000000	0.0

autoencoders.0.encoder.cells.0.lstm.bias_hh f4 [32]
0	0x00000000	0.0
1	0x00000000	0.0
2	0x00000000	0.0
3	0x00000000	0.0
4	0x00000000	0.0
5	0x00000000	0.0
6	0x00000000	0.0
7	0x00000000	0.0
8	0x00000000	0.0
9	0x00000000	0.0
10	0x00000000	0.0
11	0x00000000	0.0
12	0x00000000	0.0
13	0x00000000	0.0
14	0x00000000	0.0
15	0x00000000	0.0
16	0x00000000	0.0
17	0x00000000	0.0
18	0x00000000	0.0
19	0x00000000	0.0
20	0x00000000	0.0
21	0x00000000	0.0
22	0x00000000	0.0
23	0x00000000	0.0
24	0x00000000	0.0
25	0x00000000	0.0
26	0x00000000	0.0
27	0x00000000	0.0
28	0x00000000	0.0
29	0x00000000	0.0
30	0x00000000	0.0
31	0x00000000	0.0

autoencoders.0.encoder.cells.0.cell_residual_transform.weight f4 [8, 1]
0	0xbea05be8	-0.3132012
1	0xbba6b09c	-0.0050869714
2	0x3ea39e4c	0.31956708
3	0x3eb76064	0.35815728
4	0xbf53010c	-0.8242347
5	0x3e3a7148	0.18207276
6	0xbdaa9d70	-0.0833081
7	0xbe9983e0	-0.29983425

autoencoders.0.encoder.cells.0.cell_residual_transform.bias f4 [8]
0	0xbf4cf14c	-0.8005569
1	0xbd77a75d	-0.060462344
2	0xbe49ed10	-0.19719338
3	0x3d0861c2	0.033296354
4	0xbe1e2510	-0.15443826
5	0x3f4f1d54	0.80904126
6	0xbf2d2848	-0.6763959
7	0x3ed72728	0.4202206

autoencoders.0.decoder.cells.0.weight_h_2 f4 [8, 8]
0	0xb736095a	-1.0850223e-05
1	0x3ee2ad86	0.44273013
2	0x3f16eb72	0.5895301
3	0x3f1c1e6f	0.6098394
4	0xbed151f8	-0.4088285
5	0xbdda9dd5	-0.10674635
6	0x3d0f172c	0.034934208
7	0xbea033ac	-0.31289423
8	0xbb463810	-0.0030245818
9	0xbe78f96c	-0.24313897
10	0xbeaf2d0b	-0.34214053
11	0xbe2ab079	-0.16668881
12	0x3d506b3f	0.050883528
13	0x3ed83458	0.42227435
14	0xbd66ec73	-0.05637784
15	0xbf0854db	-0.5325448
16	0x3e5072ff	0.20356368
17	0xbd847b18	-0.06468791
18	0x3eb0d783	0.34539422
19	0x3f0ca766	0.5494293
20	0x3e4d3dbb	0.2004308
21	0x3e6ee40f	0.23329185
22	0xbeb998b1	-0.36249307
23	0x3e6b46e0	0.22976255
24	0xbed34ed5	-0.41271082
25	0x3e3c6fc9	0.18402018
26	0xbd83c0f3	-0.064332865
27	0x3ddc7cc8	0.10765988
28	0xbeb9b249	-0.36268833
29	0x3ec8c3b2	0.39211804
30	0x3d2b9068	0.041885763
31	0xbe951df1	-0.29124406
32	0x3f4cdd8f	0.8002557
33	0xbe982e6f	-0.29722926
34	0xbee0da71	-0.43916658
35	0xbe5f6b6b	-0.2181832
36	0xbf415f79	-0.75536305
37	0xbe8a2f95	-0.26989427
38	0x3e463d12	0.19359234
39	0x3e182a5b	0.14859907
40	0xbf07bc4e	-0.53021705
41	0xb99d5c94	-0.0003001435
42	0xbe0f93b4	-0.14021188
43	0xbcd54ec4	-0.026038535
44	0xbe8012d8	-0.25014377
45	0x3e8f8927	0.28034326
46	0xbe9e9a73	-0.3097721
47	0xbd958e97	-0.073025875
48	0x3e58fc0a	0.21189895
49	0xbf0e35b9	-0.55550724
50	0x3d8a95cb	0.06766852
51	0x3e76ff3a	0.24120799
52	0xbea3b31c	-0.31972587
53	0xbea9ad43	-0.3314
54	0x3f16edf7	0.58956856
55	0xbed1b593	-0.40958843
56	0x3de4b0c2	0.111665264
57	0xbd3177ea	-0.04332725
58	0x3e806668	0.2507813
59	0x3ef63e3d	0.4809436
60	0x3e1812c6	0.14850911
61	0x3ecfa4e4	0.4055549
62	0x3f00224b	0.50052327
63	0x3eb7e298	0.35915065

autoencoders.0.decoder.cells.0.bias_h_2 f4 [8]
0	0x3d07468a	0.033026256
1	0x3d147a76	0.0362496
2	0x3d0aa48c	0.03384833
3	0xbd0dc193	-0.034608435
4	0xbd503cb3	-0.050839137
5	0x3cc6d244	0.024270184
6	0xbd061a5d	-0.032739986
7	0x3cfb4a54	0.03067509

autoencoders.0.decoder.cells.0.lstm.weight_ih f4 [32, 1]
0	0xbcb67ac0	-0.022275329
1	0x3db73f48	0.08947617
2	0xbe8c2ae6	-0.2737648
3	0xbde4c493	-0.11170306
4	0xbe482f73	-0.1954935
5	0x3e54750c	0.20747775
6	0xbdb367b9	-0.08760018
7	0xbd95cd16	-0.07314508
8	0x3eb54e8b	0.35411486
9	0x3e54ac2c	0.20768803
10	0xbecd738c	-0.40127218
11	0xbdabef81	-0.08395291
12	0xbaca1098	-0.0015416322
13	0xb8142cc3	-3.5327637e-05
14	0x3d8f51b5	0.06998006
15	0x3b3fad63	0.0029247634
16	0x3e657c12	0.2241061
17	0xbbcc03aa	-0.0062260227
18	0xbdaa83b9	-0.08325905
19	0xbdcd8984	-0.10035995
20	0x3e29dc31	0.16587903
21	0x3e3fbd39	0.18724526
22	0xbe8e6a21	-0.27815345
23	0xbe2aea01	-0.16690828
24	0x3f1c5c1b	0.6107804
25	0xbba962b6	-0.005169238
26	0x3ebd7d4b	0.37009653
27	0xbe9fd0c2	-0.31213957
28	0xbcbec32f	-0.02328643
29	0xbd451c37	-0.04812261
30	0x3dacbe4f	0.08434736
31	0x3df8f693	0.12156405

autoencoders.0.decoder.cells.0.lstm.weight_hh f4 [32, 8]
0	0x3f297daf	0.662074
1	0x3da54af0	0.08070934
2	0xbe076e97	-0.1322578
3	0x3ea48886	0.3213541
4	0xbe260027	-0.16210996
5	0xba586e12	-0.0008256148
6	0xbe38695d	-0.18008943
7	0xbd72ca03	-0.059274685
8	0x3c8d282f	0.017231075
9	0xbe7ac038	-0.24487388
10	0x3d3fe492	0.04684884
11	0x3e8d1fbe	0.2756328
12	0xbdc3ecfa	-0.09566684
13	0x3e91a80b	0.2844852
14	0x3e5676e6	0.20943794
15	0xbd594e5d	-0.05305325
16	0xbe1355f2	-0.14388254
17	0x3e041d93	0.12901907
18	0xbec596a5	-0.38591495
19	0x3a7b2791	0.0009580786
20	0xbd750f93	-0.059829306
21	0xbce12774	-0.027484633
22	0x3dc6aed6	0.09701316
23	0xbdd7b0b0	-0.10531747
24	0xbe9d5586	-0.30729312
25	0x3d8e922b	0.06961473
26	0x3e33b5c6	0.1754981
27	0xbecf39e0	-0.40473843
28	0xbe1496c3	-0.14510636
29	0xbbc37062	-0.005964325
30	0xbee2354f	-0.44181296
31	0x3e506c53	0.20353822
32	0xbe83b239	-0.2572191
33	0x3d86e03a	0.065857366
34	0x3d33989b	0.043846708
35	0xbeb60e26	-0.3555767
36	0x3b18b606	0.0023301854
37	0x3dd23723	0.10264423
38	0xbd1e3362	-0.03862322
39	0x3ea3fe2b	0.32029852
40	0x3e119e3d	0.1422052
41	0xbdfa6da4	-0.122279435
42	0x3dc49a64	0.0959976
43	0xbce55c06	-0.027997982
44	0xba8725e2	-0.0010310973
45	0x3d555824	0.05208601
46	0x3ed57902	0.41693884
47	0x3f067a82	0.5253068
48	0xbe51c617	-0.20485722
49	0xbad86173	-0.0016508534
50	0x3ee40284	0.4453317
51	0x3e84d650	0.25944757
52	0x3e47a993	0.19498281
53	0xbd23fea2	-0.04003776
54	0xbe1f4fa6	-0.15557727
55	0xbcaa27e8	-0.020770982
56	0xbd50075e	-0.050788276
57	0xb9f1eb26	-0.000461423
58	0x3e103db9	0.14086045
59	0xbe844dbb	-0.25840554
60	0x3e1d3375	0.1535166
61	0x3ec0f559	0.37687185
62	0xbeb4ca47	-0.35310575
63	0xbb56ff18	-0.0032805856
64	0xbb81c58b	-0.0039603165
65	0xbeaa94f6	-0.33316773
66	0xbea0795e	-0.31342596
67	0x3e8b5aaf	0.27217624
68	0x3ec86ce4	0.39145577
69	0x3c2a3e51	0.010390834
70	0xbef790b0	-0.48352575
71	0xbd98c259	-0.07458944
72	0x3b9459f3	0.0045273243
73	0x3de826c6	0.113355204
74	0x3d865e0d	0.065609075
75	0xbea966f9	-0.33086374
76	0xb9e55fdc	-0.00043749704
77	0xbd741559	-0.05959067
78	0xbd8de90a	-0.06929214
79	0x3e26ffb6	0.16308483
80	0xbd994121	-0.074831255
81	0xbb7d349a	-0.003863609
82	0xbe67f0af	-0.22650407
83	0xbe7e5902	-0.24838641
84	0x393d6109	0.00018060593
85	0x3e556e37	0.20842825
86	0x3dabed16	0.0839483
87	0x3d803d16	0.06261651
88	0x3e72e523	0.23720221
89	0xbda595aa	-0.08085187
90	0x3c687cc3	0.014189902
91	0xbdecb351	-0.115576394
92	0x3d8320f2	0.06402768
93	0xbd96edbe	-0.073695645
94	0xbe92b39f	-0.28652665
95	0xbe9556e8	-0.29167867
96	0x3b753b26	0.0037419288
97	0xb8f44574	-0.00011647763
98	0xbe95b14f	-0.29236838
99	0xbe297dda	-0.16551915
100	0xbd886fbf	-0.06661939
101	0xbe3911e9	-0.18073238
102	0xbe42270a	-0.18960205
103	0xbdc75771	-0.09733475
104	0xbd004045	-0.031311292
105	0x3f0fbd7c	0.56148505
106	0x3e945f87	0.28979132
107	0xbe97e088	-0.2966349
108	0xbe2a6efa	-0.16643897
109	0xbcb994ff	-0.022654055
110	0x3e421715	0.18954118
111	0xbe528b7f	-0.20561026
112	0x3e661fcf	0.22473072
113	0xbe819903	-0.2531205
114	0xbea7b92a	-0.32758456
115	0x3e080364	0.13282543
116	0xbd248e98	-0.04017505
117	0x3ccacac9	0.024754899
118	0xbda6820b	-0.081302725
119	0xbd825101	-0.063631065
120	0xbc343799	-0.010999584
121	0x3e5681b2	0.20947912
122	0xbcd8f38b	-0.026483318
123	0xbd7ab924	-0.06121172
124	0x3eb13701	0.34612277
125	0x3c2bcc02	0.010485651
126	0xbe8cf8d7	-0.275336
127	0x3eab71a6	0.33485144
128	0xbdb89099	-0.09011955
129	0xbe859e48	-0.26097322
130	0xbe2ec060	-0.17065573
131	0x3e2efc67	0.17088471
132	0x3eddb011	0.4329839
133	0xbd85e40f	-0.06537639
134	0xbd385bd9	-0.045009468
135	0xbe26315a	-0.16229764
136	0x3e7d88f5	0.24759276
137	0x3c89bc7b	0.016813507
138	0xbb88efac	-0.0041789617
139	0x3e4df3e7	0.20112573
140	0x3e33f431	0.1757362
141	0x3b4799da	0.0030456693
142	0x3b30002c	0.0026855571
143	0xbef5f64e	-0.48039478
144	0x3e30df48	0.17272675
145	0xbe330e96	-0.17486033
146	0x3c5adba1	0.013358028
147	0xbed25316	-0.41079015
148	0x3dd688ab	0.10475286
149	0xbe551538	-0.20808876
150	0x3e65fe6c	0.22460335
151	0x3dad2250	0.0845381
152	0xbe99d91c	-0.30048454
153	0x3e0f57f8	0.13998401
154	0xbe750422	-0.23927358
155	0xbe7dc18e	-0.24780867
156	0xbe495da8	-0.19664633
157	0x3cb8d35f	0.022561727
158	0x3e522b06	0.20524225
159	0x3e602775	0.21890052
160	0xbdfad27a	-0.122471765
161	0x3de951f1	0.11392582
162	0x3bdd51e7	0.0067541483
163	0xbbfa454b	-0.007637655
164	0x3efa78ef	0.4892039
165	0xb983bd7c	-0.00025127444
166	0x3df1e70e	0.11811648
167	0xbdb3091e	-0.08741973
168	0x3db03f60	0.08605838
169	0xbe417bd3	-0.18894891
170	0x3ea8f0b4	0.32996142
171	0x3ec1dfbf	0.37866017
172	0xbedc7a2e	-0.43061966
173	0x3ebd2873	0.36944923
174	0x3ccfe4fe	0.025377747
175	0x3d98d253	0.07461991
176	0x3c4e45b2	0.012589859
177	0x3db4ae8c	0.08822355
178	0x3e88a45d	0.266879
179	0xbd5f7fd7	-0.054565277
180	0xbd3b2214	-0.045686796
181	0x3e58e4ac	0.21180981
182	0x3e158a4f	0.14603542
183	0xbecab7f2	-0.39593464
184	0x3e7425c5	0.23842533
185	0xbc8c67d2	-0.01713935
186	0x3e600d64	0.21880108
187	0x3b331e8d	0.0027331442
188	0x3e3c055c	0.1836142
189	0x3c51aaff	0.012797116
190	0xbd740553	-0.05957539
191	0x3d7abe78	0.0612168
192	0x3eade7aa	0.33965808
193	0x3e947644	0.2899648
194	0x3ea738e3	0.3266059
195	0xbd9f8ee8	-0.07790929
196	0xbe5187be	-0.20461938
197	0xbec52e4c	-0.38511884
198	0xbe5b2142	-0.21399406
199	0xbec882dc	-0.39162338
200	0xbcf42641	-0.029803397
201	0x3e445a30	0.19175029
202	0x3e183794	0.14864951
203	0xbe044a30	-0.12918925
204	0x3cea1e60	0.028578937
205	0x3e0b978d	0.13632031
206	0xbd377a9b	-0.04479466
207	0x3c96d04d	0.018409872
208	0xbea40d74	-0.32041514
209	0x3df4822c	0.11938891
210	0xbd2679f4	-0.040643647
211	0x3ea695da	0.32536203
212	0x3e4b8af4	0.19877225
213	0xbe8263f6	-0.2546689
214	0xbcbad556	-0.022806805
215	0xbdfe763a	-0.12424894
216	0x3e13fb53	0.14451341
217	0x3df07ed5	0.11742941
218	0xbeba0ae2	-0.36336428
219	0xbe9e3936	-0.30903023
220	0x3d8ac0c1	0.06775046
221	0xbe7f63a3	-0.24940352
222	0xbd1bd5b2	-0.038045593
223	0x3e3f2fca	0.18670574
224	0xbdd0ae3a	-0.10189481
225	0x3b4ce0dd	0.0031261959
226	0x3e8a0f6d	0.26964894
227	0xbe241d7c	-0.16026872
228	0x3e31a3c9	0.17347635
229	0xbdbcf268	-0.09225923
230	0xbe6fdc00	-0.23423767
231	0xbd451b09	-0.048121486
232	0xbde0acf0	-0.10970485
233	0x3e854710	0.2603078
234	0x3df13a7d	0.11778734
235	0x3a9ee417	0.001212242
236	0x3ce6fba6	0.028196167
237	0xba2d8840	-0.0006619729
238	0x3de3a258	0.11114949
239	0xbe45f31d	-0.19331022
240	0xbad42c03	-0.0016187433
241	0x3d6787f1	0.05652613
242	0x3eb01d0c	0.3439716
243	0x3d1b1232	0.03785915
244	0x3d34c37c	0.04413174
245	0xbe09f5b2	-0.13472632
246	0xbd6a0937	-0.057137694
247	0xbecd8c37	-0.40146038
248	0x3d8f9212	0.070102826
249	0xbd6a5334	-0.057208255
250	0x3e8357c6	0.25652903
251	0x3ddac93a	0.10682912
252	0x3e6b0b83	0.2295361
253	0x3e746ae7	0.23868905
254	0x3d6e2876	0.058144055
255	0xbad7c950	-0.0016463194

autoencoders.0.decoder.cells.0.lstm.bias_ih f4 [32]
0	0x3c0ef87e	0.008726237
1	0x38f179c0	0.00011514453
2	0xbcf8c1c4	-0.030365832
3	0x3d270bf9	0.040782902
4	0x3b282f37	0.0025662908
5	0x36979bc1	4.518283e-06
6	0x3d6e29c1	0.05814529
7	0xbafdab9a	-0.0019353509
8	0x3cd32b03	0.025777346
9	0xb95a5496	-0.00020821611
10	0xbcb08a72	-0.02155039
11	0x3d2e42e3	0.042544257
12	0x394bd497	0.00019438785
13	0xb939840d	-0.00017692168
14	0x3d7ac7a4	0.06122555
15	0x3b608cb0	0.0034263544
16	0xbd11a2b8	-0.03555557
17	0x3d305e99	0.043058965
18	0x3d07200a	0.03298954
19	0x3ad5e4f1	0.001631884
20	0xbd3067d8	-0.043067783
21	0x3c9cb114	0.019127406
22	0xbcc182d0	-0.023621947
23	0x3d05003c	0.032470927
24	0x3d355bf3	0.044277143
25	0x3a1a4ea2	0.0005886351
26	0xbcceb4a0	-0.025232613
27	0x3d294e32	0.04133434
28	0x3b49ad33	0.00307734
29	0xb91d5a3e	-0.00015006305
30	0x3d7f8c0d	0.062389422
31	0x3b423a95	0.0029636968

autoencoders.0.decoder.cells.0.lstm.bias_hh f4 [32]
0	0x3c0ef87e	0.008726237
1	0x38f179c0	0.00011514453
2	0xbcf8c1c4	-0.030365832
3	0x3d270bf9	0.040782902
4	0x3b282f37	0.0025662908
5	0x36979bc1	4.518283e-06
6	0x3d6e29c1	0.05814529
7	0xbafdab9a	-0.0019353509
8	0x3cd32b03	0.025777346
9	0xb95a5496	-0.00020821611
10	0xbcb08a72	-0.02155039
11	0x3d2e42e3	0.042544257
12	0x394bd497	0.00019438785
13	0xb939840d	-0.00017692168
14	0x3d7ac7a4	0.06122555
15	0x3b608cb0	0.0034263544
16	0xbd11a2b8	-0.03555557
17	0x3d305e99	0.043058965
18	0x3d07200a	0.03298954
19	0x3ad5e4f1	0.001631884
20	0xbd3067d8	-0.043067783
21	0x3c9cb114	0.019127406
22	0xbcc182d0	-0.023621947
23	0x3d05003c	0.032470927
24	0x3d355bf3	0.044277143
25	0x3a1a4ea2	0.0005886351
26	0xbcceb4a0	-0.025232613
27	0x3d294e32	0.04133434
28	0x3b49ad33	0.00307734
29	0xb91d5a3e	-0.00015006305
30	0x3d7f8c0d	0.062389422
31	0x3b423a95	0.0029636968

autoencoders.0.decoder.cells.0.cell_residual_transform.weight f4 [8, 1]
0	0x3e61a47f	0.22035407
1	0xbf309da3	-0.68990535
2	0xbedf4b9e	-0.4361238
3	0x3e9b9428	0.30386472
4	0x3f4035f3	0.7508232
5	0xbe2268b8	-0.1586026
6	0xbf24db8d	-0.6439751
7	0xbee4ebf1	-0.4471126

autoencoders.0.decoder.cells.0.cell_residual_transform.bias f4 [8]
0	0x3f82a875	1.0207659
1	0xbe858fa1	-0.26086143
2	0xbf3f38c4	-0.7469599
3	0x3f43931e	0.7639636
4	0xbf2cb05e	-0.67456615
5	0xbf49d8e8	-0.788466
6	0xbe21f9ef	-0.15817998
7	0xbee947ea	-0.4556268

autoencoders.0.decoder.output_layer.weight f4 [1, 8]
0	0x3ec56d0b	0.38559756
1	0xbd7381d1	-0.059449974
2	0x3e3d3cc2	0.18480209
3	0xbe4999a5	-0.19687517
4	0x3d9a978b	0.07548436
5	0x3dbd80ab	0.09253057
6	0xbe92e86e	-0.28692955
7	0x3e846b37	0.25863048

autoencoders.1.encoder.cells.0.weight_h_2 f4 [8, 8]
0	0xb91fc613	-0.0001523721
1	0x3eecda14	0.4626013
2	0x3f1a117e	0.6018294
3	0xbebc5c1b	-0.3678902
4	0x3dbf1480	0.09330082
5	0x3f131c62	0.57465184
6	0xbed6003d	-0.41797057
7	0x3ef8897f	0.485424
8	0xbe716312	-0.23572949
9	0x3ceb1bdf	0.028699813
10	0x3e95e102	0.2927323
11	0x3e435308	0.19074643
12	0x3b14246f	0.0022604724
13	0xbef47601	-0.4774628
14	0x3e4c8e48	0.19976151
15	0xbeb13355	-0.34609476
16	0xbef325a2	-0.4748965
17	0x3e515e0e	0.20446035
18	0xbd768da3	-0.06019367
19	0x3eb34d18	0.35019755
20	0x3e8b6db3	0.2723213
21	0xbead7885	-0.33881012
22	0xbe8bc36c	-0.27297533
23	0xbd733346	-0.05937507
24	0x3ecc5326	0.39907187
25	0xba4fd8e8	-0.0007928745
26	0x3e49f060	0.19720602
27	0x3c2c1456	0.010502895
28	0x3f2fadc7	0.6862454
29	0xbed843c9	-0.42239216
30	0xbced3d6b	-0.02895995
31	0xb970bb94	-0.00022958062
32	0x3d1eb444	0.038746133
33	0x3ef8cb55	0.4859263
34	0xb87c5956	-6.0164683e-05
35	0xbf29283e	-0.6607703
36	0x3a868b49	0.0010264899
37	0x3ebfa9ae	0.37434143
38	0x3e634c0c	0.22196978
39	0xbf3d8f5f	-0.7404689
40	0x3e702314	0.23450881
41	0xba7502b2	-0.000934641
42	0xbf0d8a6e	-0.5528935
43	0xbe7d8212	-0.24756649
44	0xbf0073f7	-0.5017695
45	0x3e782156	0.24231467
46	0xbf5af5f8	-0.8553157
47	0x3e92c5dc	0.2866658
48	0xbe6c521c	-0.23078197
49	0xbe6d7376	-0.23188576
50	0xbc28431e	-0.010269908
51	0xbd94e946	-0.07271056
52	0x3e7fa4dc	0.24965233
53	0xbe8bfbb5	-0.27340475
54	0xbe9240aa	-0.2856496
55	0xbec13ba4	-0.37740815
56	0x397e1c63	0.00024233903
57	0xbe313a71	-0.1730745
58	0x3dd69a68	0.104786694
59	0xbf2f5405	-0.6848758
60	0xbebcb52b	-0.3685697
61	0xba0384e3	-0.0005017055
62	0x3dfb37c0	0.12266493
63	0xbe95ebbc	-0.29281414

autoencoders.1.encoder.cells.0.bias_h_2 f4 [8]
0	0x00000000	0.0
1	0x00000000	0.0
2	0x00000000	0.0
3	0x00000000	0.0
4	0x00000000	0.0
5	0x00000000	0.0
6	0x00000000	0.0
7	0x00000000	0.0

autoencoders.1.encoder.cells.0.lstm.weight_ih f4 [32, 1]
0	0xb8effcd4	-0.00011443501
1	0x3d9b90e6	0.075959966
2	0xbe70dea8	-0.23522437
3	0xbe41fa43	-0.18943124
4	0xb88fc2a9	-6.85503e-05
5	0x39a8735c	0.00032129406
6	0xbd35e2e9	-0.04440585
7	0xbd4b9071	-0.049698297
8	0xbe1270c5	-0.1430083
9	0xbee5022f	-0.44728228
10	0x3d853918	0.065050304
11	0xbdb25de0	-0.087093115
12	0x3e2fad94	0.17156059
13	0xbdcb8b3c	-0.09938666
14	0xbd4fed90	-0.050763667
15	0x3e22b46a	0.15889135
16	0x3d06a318	0.032870382
17	0x3ce762ee	0.028245416
18	0x3cf311a8	0.029671505
19	0xbe7d8354	-0.24757129
20	0xbd91105a	-0.07083197
21	0xbd7339b8	-0.059381217
22	0x3e91652a	0.28397495
23	0x3eab01f1	0.3339992
24	0xbcb50dc8	-0.022101298
25	0x3d8b46fa	0.06800647
26	0x38fb8034	0.00011992492
27	0xbceb94b7	-0.028757436
28	0xbd4a53b2	-0.049396224
29	0x3e8ebb26	0.27877158
30	0x3d6272c2	0.055285223
31	0x3e4a2e32	0.19744185

autoencoders.1.encoder.cells.0.lstm.weight_hh f4 [32, 8]
0	0x3e203a45	0.15647228
1	0x3dad12ea	0.08450873
2	0xbe004703	-0.12527089
3	0xb85abf59	-5.2153457e-05
4	0xbde831e8	-0.11337644
5	0x3da6d082	0.081452385
6	0x389a430f	7.355783e-05
7	0xbea66968	-0.32502294
8	0x3ce85999	0.028363036
9	0xbe926bf3	-0.28597984
10	0x3e403027	0.18768369
11	0xbe54d2c4	-0.20783526
12	0x3a9e4e4d	0.0012077779
13	0xbae2d400	-0.0017305613
14	0xbe397b6b	-0.18113486
15	0x39b67b91	0.0003480581
16	0xbb083a18	-0.002078658
17	0x3e01a18a	0.12659279
18	0x3e3d52d9	0.18488635
19	0xbb153b88	-0.002277108
20	0x3cf13036	0.029441934
21	0x3e9e6354	0.30935156
22	0xbccec9cb	-0.025242707
23	0x3a41e16e	0.00073959574
24	0xbdd0d7e6	-0.10197429
25	0xbe014b55	-0.12626393
26	0x3e3e0409	0.18556227
27	0x3ec06201	0.3757477
28	0xbd9fe00e	-0.07806407
29	0xbd3823c2	-0.044955976
30	0x3e292de8	0.16521418
31	0xbd91fd1c	-0.07128355
32	0xb9c6e67e	-0.00037937233
33	0xbe54f2ec	-0.20795792
34	0x3cc54512	0.024080787
35	0x3d0e206a	0.03469888
36	0x3dbb6346	0.09149794
37	0xba0430a3	-0.0005042648
38	0xbe91386b	-0.28363356
39	0x3e971ee2	0.2951575
40	0x3a991efb	0.0011682207
41	0xbd8760d2	-0.06610264
42	0x3d89c54e	0.06727086
43	0xbe5991a0	-0.21246958
44	0xbc9e668c	-0.019336008
45	0xbda4e17a	-0.08050819
46	0xbcd8c2b3	-0.026460027
47	0x39de9274	0.00042452256
48	0xbb0a936d	-0.0021145002
49	0x3d47450c	0.048649833
50	0xba831409	-0.0010000478
51	0xbe4acf04	-0.19805533
52	0xbda7b650	-0.0818907
53	0xbd3b1ee5	-0.04568376
54	0x3dd7e400	0.105415344
55	0x3e98c0df	0.2983465
56	0xbabadf71	-0.0014257265
57	0x3af56414	0.0018721842
58	0xbe4c1f10	-0.19933724
59	0x3d8af5b0	0.067851424
60	0xbdc78ddc	-0.097438544
61	0x3e3096c2	0.1724501
62	0xbeaad936	-0.33368844
63	0xb91e1bdd	-0.00015078434
64	0xbd960efc	-0.07327077
65	0x3e19481f	0.14968918
66	0xbdea7730	-0.114485145
67	0x3c8e3496	0.01735906
68	0x3ee3bf82	0.44482046
69	0x3ddbcbd4	0.107322365
70	0xbb43701c	-0.002982146
71	0xbe448ba0	-0.19193888
72	0x3987dba5	0.00025912854
73	0x3d4c7331	0.049914543
74	0xbd45f0b7	-0.048325267
75	0xbe327f16	-0.17431292
76	0x394e0349	0.00019646915
77	0x3dd5c3f6	0.10437767
78	0x3e54724a	0.20746723
79	0x3ecb39b3	0.3969246
80	0x3eaf3c8a	0.34225875
81	0xbac6394f	-0.001512328
82	0x3b38cdd2	0.002819885
83	0xbda37bde	-0.0798261
84	0xbd8753ea	-0.06607802
85	0xb9788fc3	-0.00023704678
86	0x3d81919c	0.06326601
87	0xbe4bddd0	-0.19908834
88	0x3b74f2cd	0.0037376166
89	0x3d263e74	0.040586904
90	0x3c05c8ec	0.008165579
91	0x3d8e0cba	0.06936021
92	0x3e9f3d55	0.3110148
93	0x3ae11bd4	0.0017174431
94	0x3d50de5a	0.0509933
95	0xbdf5f86a	-0.12010272
96	0x3d06eb30	0.032939136
97	0xbe158089	-0.14599814
98	0xb884f2a3	-6.339445e-05
99	0xbcf6e978	-0.030140623
100	0xb8b34aa4	-8.549288e-05
101	0xbc859391	-0.016305717
102	0xb9d1c8f9	-0.00040013323
103	0xbd176c2c	-0.036968395
104	0x3c7cb8d8	0.01542493
105	0xbcf0ac9a	-0.029379178
106	0x3da048f2	0.07826413
107	0x3dfc5564	0.123209745
108	0x3b521152	0.003205378
109	0xbec67721	-0.38762763
110	0xbbcd305c	-0.0062618684
111	0xbda41b0a	-0.0801297
112	0x3e614cfc	0.22002023
113	0x39947076	0.0002831255
114	0xbe3e4437	-0.1858071
115	0x3e25dbfa	0.16197196
116	0xbd5d6039	-0.054046843
117	0xbe043e03	-0.1291428
118	0xbe48d77a	-0.19613448
119	0x3e8db2d6	0.27675503
120	0xbe77340a	-0.24140945
121	0xbe237591	-0.15962817
122	0xbe64ccf2	-0.22343805
123	0xbd59e3a4	-0.05319561
124	0xbca432c6	-0.020043742
125	0x3a93cc54	0.0011276104
126	0xb88c9bee	-6.7047644e-05
127	0x3dab72e0	0.0837152
128	0x3dd86826	0.1056674
129	0xbd9fc1ba	-0.07800622
130	0x3e24f1f5	0.16107924
131	0x3de9447e	0.11390017
132	0xb8463d45	-4.726394e-05
133	0xbd513aca	-0.051081456
134	0x3e88da3d	0.26729003
135	0xbe88c46c	-0.26712358
136	0x3e228caf	0.15873979
137	0x3df6056a	0.120127514
138	0x3e75fd7c	0.24022478
139	0xbd80adf3	-0.06283178
140	0x3eba7d0b	0.36423525
141	0xbe2642be	-0.16236398
142	0xbe3e4dd8	-0.18584383
143	0x3e898e41	0.26866344
144	0x3e0cbd27	0.13744031
145	0x38e2e377	0.000108188884
146	0xbd6344ca	-0.055485524
147	0x3d8e8770	0.069594264
148	0xb9b89d2b	-0.00035212314
149	0xbdf83cf0	-0.12120998
150	0xb95f60de	-0.00021303023
151	0x3e2a11bc	0.16608328
152	0x3e3ef4c3	0.18648057
153	0x3d05e6ba	0.03269074
154	0xb913bbe2	-0.00014089004
155	0xbf13befa	-0.5771328
156	0xbe869683	-0.26286706
157	0x3b18db57	0.0023324096
158	0xb9405814	-0.00018343359
159	0x3c73411a	0.014847064
160	0xbe1cda4b	-0.15317647
161	0x3e91517d	0.28382483
162	0xbe4c6ae2	-0.19962648
163	0x3ddc2f48	0.10751206
164	0xbdaf91e6	-0.0857275
165	0xbd878a68	-0.06618196
166	0xbec4eb0e	-0.38460582
167	0x3de2b9c4	0.11070588
168	0xbf403d58	-0.75093603
169	0x3de1fa22	0.11034037
170	0x3e130840	0.14358616
171	0x3e6eb048	0.23309433
172	0xbe36fa98	-0.17869031
173	0x3b397b0c	0.0028302101
174	0x3b189472	0.002328184
175	0x3b24cf56	0.0025147996
176	0xbd62ecc0	-0.055401564
177	0x3e489bb4	0.19590646
178	0x3e493390	0.19648576
179	0xbe1d1533	-0.15340118
180	0x3e14de55	0.14537938
181	0xbe9c275a	-0.30498773
182	0xbe5f12d4	-0.21784526
183	0x3e104f41	0.14092733
184	0xbe2dc67e	-0.1697025
185	0x3edc7ce6	0.4306404
186	0xbdcae478	-0.09906858
187	0x3c4f5d36	0.012656501
188	0x3cedd2b3	0.029031133
189	0x3e9c29f3	0.30500755
190	0x3e42fce6	0.19041786
191	0xbee27596	-0.44230336
192	0x3e398efd	0.18120952
193	0x3d31085c	0.043220863
194	0xbcc54016	-0.02407841
195	0x3e991cd8	0.2990482
196	0x3e0bb60d	0.13643666
197	0xba1d0e0e	-0.0005991169
198	0xbd262a7a	-0.040567853
199	0x3e1f432f	0.15552972
200	0xbeafa605	-0.3430635
201	0xbf0296cf	-0.51011366
202	0x3e5445de	0.20729777
203	0x3e7e0ee0	0.24810362
204	0x3da7f2d6	0.08200614
205	0x3d4c0e87	0.04981854
206	0x3a02dcc0	0.0004992001
207	0x3e8de803	0.27716073
208	0x3eab8ea6	0.3350727
209	0x3dab34a2	0.08359648
210	0xbdce75e4	-0.100810796
211	0xbda7e928	-0.08198768
212	0x3f064512	0.5244914
213	0xbe0c4516	-0.13698229
214	0xbe0675d0	-0.1313088
215	0xbe392901	-0.18082048
216	0xbe1a36e7	-0.15060006
217	0xbd0a5a2d	-0.033777405
218	0x3d43c5e1	0.047796134
219	0xbe3114ab	-0.1729304
220	0xbe8acf01	-0.27111056
221	0x3e3e9d7a	0.1861476
222	0x3e7f5f18	0.24938619
223	0xbc3deb7c	-0.011591788
224	0x3a3f2f9e	0.00072931673
225	0xbe626c22	-0.22111562
226	0x3e3a15ee	0.18172428
227	0xbe13ffd4	-0.1445306
228	0x3d903058	0.07040471
229	0x3939c194	0.00017715088
230	0xbea125f7	-0.31474277
231	0x3d4dd0cd	0.050247956
232	0x3eb69e23	0.35667524
233	0x39217663	0.00015398259
234	0xbe7c56d4	-0.24642497
235	0xb9993a6c	-0.00029225962
236	0xba0564ce	-0.00050885684
237	0xbb232da1	-0.0024899023
238	0xbde7bf44	-0.11315778
239	0xbf07bc92	-0.5302211
240	0xbd977bd0	-0.07396662
241	0x3db748d6	0.08949439
242	0xbe3b1e7c	-0.18273348
243	0x3da1077a	0.07862754
244	0x3be081b4	0.0068513993
245	0x3e855c25	0.26046863
246	0xbe4b89c0	-0.19876766
247	0x3e8ddbb3	0.2770668
248	0xba303f8a	-0.0006723335
249	0xbd39ceb0	-0.04536313
250	0xbd43111f	-0.04762375
251	0x3dd6f5d0	0.10496104
252	0x3e982914	0.2971884
253	0xbd2ab9eb	-0.04168121
254	0x3e7eaa00	0.24869537
255	0xbdbe4af0	-0.09291637

autoencoders.1.encoder.cells.0.lstm.bias_ih f4 [32]
0	0x00000000	0.0
1	0x00000000	0.0
2	0x00000000	0.0
3	0x00000000	0.0
4	0x00000000	0.0
5	0x00000000	0.0
6	0x00000000	0.0
7	0x00000000	0.0
8	0x00000000	0.0
9	0x00000000	0.0
10	0x00000000	0.0
11	0x00000000	0.0
12	0x00000000	0.0
13	0x00000000	0.0
14	0x00000000	0.0
15	0x00000000	0.0
16	0x00000000	0.0
17	0x00000000	0.0
18	0x00000000	0.0
19	0x00000000	0.0
20	0x00000000	0.0
21	0x00000000	0.0
22	0x00000000	0.0
23	0x00000000	0.0
24	0x00000000	0.0
25	0x00000000	0.0
26	0x00000000	0.0
27	0x00000000	0.0
28	0x00000000	0.0
29	0x00000000	0.0
30	0x00000000	0.0
31	0x00000000	0.0

autoencoders.1.encoder.cells.0.lstm.bias_hh f4 [32]
0	0x00000000	0.0
1	0x00000000	0.0
2	0x00000000	0.0
3	0x00000000	0.0
4	0x00000000	0.0
5	0x00000000	0.0
6	0x00000000	0.0
7	0x00000000	0.0
8	0x00000000	0.0
9	0x00000000	0.0
10	0x00000000	0.0
11	0x00000000	0.0
12	0x00000000	0.0
13	0x00000000	0.0
14	0x00000000	0.0
15	0x00000000	0.0
16	0x00000000	0.0
17	0x00000000	0.0
18	0x00000000	0.0
19	0x00000000	0.0
20	0x00000000	0.0
21	0x00000000	0.0
22	0x00000000	0.0
23	0x00000000	0.0
24	0x00000000	0.0
25	0x00000000	0.0
26	0x00000000	0.0
27	0x00000000	0.0
28	0x00000000	0.0
29	0x00000000	0.0
30	0x00000000	0.0
31	0x00000000	0.0

autoencoders.1.encoder.cells.0.cell_residual_transform.weight f4 [8, 1]
0	0xbf66c2fe	-0.90141284
1	0x38e204d3	0.00010777418
2	0x3f3d269e	0.7388705
3	0x3f3cc41e	0.7373675
4	0x3f6972b8	0.9119067
5	0xbf1b82b0	-0.6074629
6	0x3eecdc9a	0.46262056
7	0xbd2a584b	-0.04158811

autoencoders.1.encoder.cells.0.cell_residual_transform.bias f4 [8]
0	0xbf4cdca6	-0.8002418
1	0xbaae5604	-0.0013300781
2	0x3e5b3850	0.214082
3	0xb862922b	-5.401873e-05
4	0x3f5fc2dc	0.87406707
5	0x3823b26c	3.9028397e-05
6	0x3eb59a90	0.35469484
7	0xbebe3b38	-0.37154555

autoencoders.1.decoder.cells.0.weight_h_2 f4 [8, 8]
0	0xbdfc88b4	-0.123307616
1	0x3d2774d0	0.040882885
2	0x3e29932a	0.16560045
3	0x3f380aa0	0.7189121
4	0x3e99c399	0.30032042
5	0xbb8c29b3	-0.004277432
6	0xbe8efcf8	-0.27927375
7	0x3f0b645a	0.5445
8	0x3ee7d36d	0.45278493
9	0xbe0012e2	-0.12507203
10	0x3df4d653	0.119549416
11	0x3f6af8ca	0.9178587
12	0x3e7ff6d5	0.24996503
13	0xbec2d563	-0.38053426
14	0x3ee9e334	0.45681155
15	0xbe377211	-0.17914607
16	0xbdb968e8	-0.090532124
17	0x3e460ad4	0.19340068
18	0x3e30d2e4	0.17267948
19	0xbe59a003	-0.21252446
20	0xbeb8c29f	-0.36085984
21	0x3f210166	0.6289276
22	0xbe226e98	-0.158625
23	0x3eb6a0d9	0.35669592
24	0x3f2ef0cc	0.68336177
25	0x3f296a3b	0.6617772
26	0xbe315159	-0.17316188
27	0x3de850c9	0.113435335
28	0x3c2ead18	0.010661386
29	0x3cc30b80	0.023809195
30	0xbd4cda1d	-0.050012697
31	0x3e4a2f21	0.19744541
32	0xbe08f78b	-0.1337568
33	0xbe9cd1e4	-0.30628884
34	0xbd8ff8f3	-0.07029905
35	0xbdb95bd1	-0.09050716
36	0xbeadf21a	-0.3397377
37	0xbeeeb9cd	-0.4662613
38	0xbe92851e	-0.28617185
39	0x3dc40a5f	0.09572291
40	0x3d6db942	0.058038004
41	0x3bab3dce	0.0052258736
42	0xbe15949c	-0.14607471
43	0xbe1ae878	-0.15127742
44	0x3e4f911a	0.20270196
45	0x3e5f13b3	0.21784858
46	0xbe5da222	-0.2164388
47	0x3e4ba24a	0.19886127
48	0x3d01efb0	0.031722724
49	0x3e21de2d	0.1580741
50	0x3c2093da	0.009800876
51	0xbe417461	-0.18892051
52	0xbd94ae84	-0.07259849
53	0xbe1fb476	-0.15596184
54	0xbe5378cf	-0.20651554
55	0x3e45dd22	0.19322637
56	0x3d0172d5	0.031603653
57	0x3d91c517	0.0711767
58	0xbe7ded3a	-0.24797526
59	0xbe9163be	-0.2839641
60	0x3de6f936	0.11278002
61	0xbcd66513	-0.026171243
62	0xbea04145	-0.31299797
63	0x3e439484	0.19099623

autoencoders.1.decoder.cells.0.bias_h_2 f4 [8]
0	0xbcdfbfde	-0.02731317
1	0xbcf5ab12	-0.0299888
2	0xbbea4488	-0.007149283
3	0xbcc5fdb6	-0.02416883
4	0xbc38f962	-0.011289926
5	0x3cdb3cab	0.026762327
6	0xbd052b7a	-0.032512166
7	0xbd0754f0	-0.033039987

autoencoders.1.decoder.cells.0.lstm.weight_ih f4 [32, 1]
0	0x3d9d6b36	0.076864645
1	0x3eb9b485	0.36270538
2	0xb969674f	-0.00022259097
3	0x3ded8fbe	0.11599682
4	0xbe3d1b27	-0.18467389
5	0xbc36390b	-0.011121999
6	0x3de84e28	0.11343032
7	0xbbfb8cd9	-0.0076767025
8	0x3f0f98b7	0.560924
9	0xbeb6a32e	-0.3567137
10	0xbe59497b	-0.21219437
11	0x3ebf22d1	0.3733125
12	0x39a97a25	0.00032325197
13	0x3e18de1e	0.14928481
14	0xbf012e71	-0.5046149
15	0x3dc3089f	0.09523129
16	0xbe857415	-0.26065126
17	0x3df1e573	0.11811342
18	0xbf02f47d	-0.5115431
19	0x3e6c852d	0.23097678
20	0xbdaca9a5	-0.084307946
21	0xbeb18050	-0.34668207
22	0x3d804496	0.06263082
23	0x3e945efb	0.28978714
24	0x3dc6c269	0.097050495
25	0xbe05928b	-0.13044183
26	0x3e63e537	0.22255407
27	0x3ea9cf18	0.33165812
28	0xbd82fc49	-0.06395776
29	0xbb5456fa	-0.0032400475
30	0x3e58051d	0.210957
31	0xbdca3d9f	-0.098750345

autoencoders.1.decoder.cells.0.lstm.weight_hh f4 [32, 8]
0	0x3ddf19fa	0.108936265
1	0xbcc410ac	-0.023933731
2	0x3db7a18f	0.08966362
3	0x3e224697	0.1584724
4	0xbdd5fc8f	-0.10448562
5	0x3e53ad5b	0.20671599
6	0x3e8d870a	0.2764209
7	0xbe03e423	-0.12879996
8	0xbd0f686a	-0.035011686
9	0x3dd03e24	0.101681024
10	0xbe0cd5cc	-0.13753432
11	0xbdeaa300	-0.11456871
12	0x3d49a2a3	0.049227368
13	0x3dd2e18f	0.10296928
14	0x3dbd5dd8	0.09246415
15	0xbc9b15e8	-0.018931344
16	0xbb13744d	-0.002249974
17	0xbe204da7	-0.15654622
18	0x3c41110a	0.011783848
19	0xbe047b73	-0.12937717
20	0xb736e03d	-1.0900255e-05
21	0x3db12300	0.08649254
22	0x399ce3cb	0.00029924358
23	0xbe1e3e64	-0.15453488
24	0x3ee3828e	0.44435543
25	0x3ddf0c9e	0.108910784
26	0x3c68ffab	0.014221112
27	0xbd717b49	-0.058955465
28	0x3bc79af7	0.0060914713
29	0x3ea403b5	0.32034078
30	0xbb82a39f	-0.0039867903
31	0x3e280de1	0.16411544
32	0x3cbbdda2	0.022932831
33	0xbdfbbb68	-0.12291604
34	0x3e8d3a46	0.27583522
35	0xbd9dbf0e	-0.077024564
36	0x37868eae	1.6040485e-05
37	0xbe51ce4d	-0.20488854
38	0x3d0ab15b	0.033860546
39	0x3e9c8a0e	0.30574077
40	0xbf2b1f69	-0.66844803
41	0x3c23eb8e	0.010004891
42	0xbdc88f21	-0.09792925
43	0x3ead5d3d	0.33860198
44	0xbe62cd69	-0.2214867
45	0xbee9969e	-0.45622724
46	0x3bc5d2ff	0.0060371156
47	0x3d112e4a	0.035444535
48	0xbf140016	-0.5781263
49	0xbd59f174	-0.053208783
50	0x3ee92c24	0.4554149
51	0x3ce216e5	0.027598808
52	0xbd80e8eb	-0.062944256
53	0xbe32d4bc	-0.17463964
54	0xbe1d17bf	-0.1534109
55	0x3e318d51	0.17339064
56	0x3eaea73f	0.34111974
57	0xbe6b6986	-0.22989473
58	0x3a8610bd	0.0010228377
59	0xbc34ce12	-0.011035459
60	0x3ee230af	0.44177768
61	0xbe42bd55	-0.19017537
62	0x3d88dfe3	0.06683328
63	0xbe48e3ba	-0.19618121
64	0xbe0e4a26	-0.13895473
65	0xbed85094	-0.42248976
66	0x3d8fe647	0.07026344
67	0xbe3fd9a9	-0.18735375
68	0xbbfe5da0	-0.007762626
69	0xbe663430	-0.22480845
70	0xbe592a27	-0.21207486
71	0xbcc92ad9	-0.024556564
72	0x3e727e80	0.23681068
73	0x3ddb0976	0.10695164
74	0xbeab487a	-0.33453733
75	0x3d86fa23	0.065906785
76	0xbdeb2927	-0.114824586
77	0xbb2c16a5	-0.0026258614
78	0xbd50bc4f	-0.050960835
79	0x3d0752ee	0.033038072
80	0x3cf3f46b	0.029779634
81	0x3f005bba	0.50139964
82	0x3eae09a5	0.33991733
83	0xbe15d312	-0.14631298
84	0xbde301bf	-0.110843174
85	0xb8dd01d5	-0.000105384424
86	0x3ce4069d	0.027835185
87	0xbdceaaba	-0.10091157
88	0xbea81700	-0.32830048
89	0x3df91da8	0.121638596
90	0xbe3801b4	-0.179694
91	0x3e795243	0.24347787
92	0xbd3b521f	-0.045732614
93	0x3e6d2d8a	0.23161903
94	0x3e9a1bc5	0.3009931
95	0x3cfebff2	0.031097386
96	0x3e240914	0.16019088
97	0x3da1690b	0.078813635
98	0xbcec97a4	-0.028880902
99	0xbe7e9acb	-0.24863736
100	0xb9b2dc7b	-0.00034115076
101	0xbdb1a5a5	-0.08674172
102	0x3a73a9ea	0.00092950335
103	0xb7a6f0ed	-1.9900932e-05
104	0x3d18563a	0.037191607
105	0x3e57c9e6	0.21073112
106	0x3e3df59f	0.18550728
107	0x3efb0427	0.49026605
108	0xbded4e27	-0.11587172
109	0x3e27b0af	0.16375993
110	0xbc5be59b	-0.013421441
111	0xbd8373d1	-0.064185746
112	0x3d871b25	0.06596974
113	0x3e197de6	0.14989433
114	0xbdc31938	-0.095262945
115	0xbe527b05	-0.2055474
116	0x3f2a3ee6	0.66502225
117	0xbd41ee52	-0.04734642
118	0xbdfb71a7	-0.12277537
119	0x38bfdc1e	9.14859e-05
120	0x3e31d5ef	0.17366765
121	0xbd88c342	-0.066778675
122	0x3dc29d35	0.09502641
123	0xbb60e647	-0.0034316943
124	0x3c7e2585	0.015511875
125	0xbda5fe30	-0.08105123
126	0x3db77275	0.08957378
127	0x3d854c4a	0.065086916
128	0xbe8e0208	-0.27735925
129	0x3dd03ffb	0.10168453
130	0xbdd3f170	-0.10348785
131	0x3e3a7cb3	0.18211631
132	0x3c9e65c1	0.01933563
133	0xbe212398	-0.15736234
134	0x3e4175e2	0.18892625
135	0xbe7ed616	-0.24886355
136	0xbeec6187	-0.46168157
137	0xbc8eac4b	-0.01741614
138	0xbf0151b0	-0.5051527
139	0x3cbb007c	0.02282738
140	0xbd412b7f	-0.04716062
141	0x3e9bb68a	0.30412704
142	0x3de00c45	0.1093984
143	0xbe5527ff	-0.20816039
144	0x3dca7b9d	0.098868586
145	0x3e534707	0.20632564
146	0xbcd2cc4c	-0.025732182
147	0xb807cadc	-3.2375436e-05
148	0xbe2ce377	-0.16883646
149	0xbe7216a5	-0.2364145
150	0xbe0e2b88	-0.13883793
151	0x3e8f484d	0.2798485
152	0xbe237055	-0.1596082
153	0x3dbe47eb	0.09291061
154	0x3e1cb608	0.15303814
155	0xbe152890	-0.14566255
156	0xbe10b25d	-0.1413054
157	0x3dff9011	0.1247865
158	0x3d7f40ed	0.062317777
159	0x3e98e89a	0.2986496
160	0xbdaf194f	-0.08549749
161	0xbd5459cc	-0.05184345
162	0x3d40e620	0.047094464
163	0x3c5f6ec3	0.0136372475
164	0xbe809b97	-0.25118706
165	0xbe3f7865	-0.1869827
166	0xbe5cdb17	-0.21567951
167	0xbe5cb25e	-0.21552417
168	0xbcb14c79	-0.02164291
169	0xbee6e072	-0.45093113
170	0x3ddbf011	0.107391484
171	0xbd8546d7	-0.06507652
172	0xbdfa93fc	-0.12235257
173	0x3e9a27fd	0.30108634
174	0x3eca7d17	0.3954856
175	0x3ea036cf	0.31291816
176	0x3ee60685	0.4492685
177	0x3e662cec	0.22478074
178	0xbd89dfe0	-0.06732154
179	0x3e37f536	0.17964634
180	0x3dd3eabb	0.10347506
181	0xbe2d0f23	-0.16900305
182	0x3e83c0d7	0.25733063
183	0xbef939e6	-0.48676986
184	0xbd6cecfd	-0.057843197
185	0x3e93a973	0.28840217
186	0xbec316d3	-0.3810335
187	0xbdeb7bb0	-0.11498201
188	0xbe455b61	-0.1927314
189	0x3c6a5bd1	0.014304117
190	0x3e0bbe22	0.13646749
191	0x3db6242f	0.0889362
192	0x3df3b620	0.11899972
193	0xbe80b60e	-0.25138897
194	0x3b6e5a70	0.0036369823
195	0xbe1d1686	-0.15340623
196	0x3effd2ff	0.49965665
197	0xbe419ab1	-0.18906666
198	0x3dab8401	0.08374787
199	0xbe02cefc	-0.12774271
200	0x3ddb1f46	0.10699324
201	0x3eaa84f4	0.3330456
202	0x3e10f553	0.14156084
203	0x3dcb35e1	0.09922386
204	0xbeb051b2	-0.3443733
205	0x3e04c170	0.12964416
206	0xbe551c67	-0.20811616
207	0xbe9802a0	-0.29689503
208	0xba729d48	-0.0009255004
209	0xbe3e5fc0	-0.18591213
210	0xbedc715c	-0.43055236
211	0x3e9b8fd7	0.3038318
212	0xbdae97f2	-0.08525075
213	0xbcd965b0	-0.026537746
214	0xbea50727	-0.3223202
215	0x3e253668	0.16134036
216	0xbe04245b	-0.12904494
217	0xbeafb712	-0.3431936
218	0x3dc570bd	0.09640644
219	0xbdea7424	-0.11447933
220	0x3d5ca25a	0.053865768
221	0x3d850368	0.0649479
222	0x3f00aa3c	0.5025976
223	0x3e4aaf92	0.19793537
224	0x3e01eb4c	0.12687415
225	0x3d5308f4	0.05152221
226	0xbd460974	-0.04834886
227	0x3dd3f09c	0.10348627
228	0x3c4653c2	0.01210493
229	0xbe6f86e8	-0.23391306
230	0x3e7771da	0.24164525
231	0x3b877183	0.0041334047
232	0x3ea1adf7	0.31578037
233	0x3e030f50	0.1279881
234	0xbe43c985	-0.19119842
235	0xbc936a45	-0.01799501
236	0x3e50960a	0.20369735
237	0xbe8adbb3	-0.27120742
238	0x3d98e16b	0.0746487
239	0x3eb59e91	0.3547254
240	0xbedf6622	-0.4363261
241	0xbcfdc5d0	-0.030978113
242	0x3e2e5fab	0.17028682
243	0xbe96439f	-0.29348466
244	0xbeb19f83	-0.3469201
245	0xbe377b48	-0.17918122
246	0x3d31755a	0.043324806
247	0x3d873bbd	0.06603191
248	0xbe38a48e	-0.18031523
249	0xbe08b7b0	-0.13351321
250	0x3affe2cf	0.001952255
251	0xbc3b3d17	-0.011428139
252	0xbe325eea	-0.1741902
253	0xbd34ca25	-0.044138093
254	0xbd061820	-0.03273785
255	0x3dc30775	0.09522907

autoencoders.1.decoder.cells.0.lstm.bias_ih f4 [32]
0	0x3d7b4911	0.06134898
1	0xbd79b481	-0.060963158
2	0x3a1ac989	0.0005904665
3	0xbd30d566	-0.043172263
4	0x38517fb6	4.9948423e-05
5	0xbcffca99	-0.031224536
6	0x3d0327cc	0.032020375
7	0xba521147	-0.0008013439
8	0x3d82cd11	0.063867696
9	0xbd66ca42	-0.05634523
10	0xb8d82b1f	-0.000103077145
11	0xbd238ae3	-0.039927375
12	0x398ad104	0.0002647714
13	0xbceedf09	-0.029159086
14	0x3d29a176	0.041413747
15	0x3bc18e55	0.00590686
16	0xbd22ac77	-0.039715257
17	0xbc9ab8ee	-0.01888701
18	0xbc77dd65	-0.015128468
19	0xbd04ceb1	-0.03242368
20	0xbc62c3e1	-0.0138406465
21	0x3c78490f	0.015154137
22	0xbc859dc8	-0.016310588
23	0xbd160e77	-0.03663489
24	0x3d533d51	0.051572148
25	0xbd647c47	-0.055782583
26	0x38d72259	0.00010258397
27	0xbd347bd9	-0.044063423
28	0x3967fdda	0.00022124444
29	0xbd0c26ef	-0.034216817
30	0x3d3995dd	0.045308936
31	0x3befe898	0.0073214285

autoencoders.1.decoder.cells.0.lstm.bias_hh f4 [32]
0	0x3d7b4911	0.06134898
1	0xbd79b481	-0.060963158
2	0x3a1ac989	0.0005904665
3	0xbd30d566	-0.043172263
4	0x38517fb6	4.9948423e-05
5	0xbcffca99	-0.031224536
6	0x3d0327cc	0.032020375
7	0xba521147	-0.0008013439
8	0x3d82cd11	0.063867696
9	0xbd66ca42	-0.05634523
10	0xb8d82b1f	-0.000103077145
11	0xbd238ae3	-0.039927375
12	0x398ad104	0.0002647714
13	0xbceedf09	-0.029159086
14	0x3d29a176	0.041413747
15	0x3bc18e55	0.00590686
16	0xbd22ac77	-0.039715257
17	0xbc9ab8ee	-0.01888701
18	0xbc77dd65	-0.015128468
19	0xbd04ceb1	-0.03242368
20	0xbc62c3e1	-0.0138406465
21	0x3c78490f	0.015154137
22	0xbc859dc8	-0.016310588
23	0xbd160e77	-0.03663489
24	0x3d533d51	0.051572148
25	0xbd647c47	-0.055782583
26	0x38d72259	0.00010258397
27	0xbd347bd9	-0.044063423
28	0x3967fdda	0.00022124444
29	0xbd0c26ef	-0.034216817
30	0x3d3995dd	0.045308936
31	0x3befe898	0.0073214285

autoencoders.1.decoder.cells.0.cell_residual_transform.weight f4 [8, 1]
0	0xbf3f6b17	-0.7477278
1	0xbefcd6dd	-0.49382678
2	0x3dbef702	0.09324457
3	0xbf806015	-1.0029322
4	0x3f734572	0.9502784
5	0xbeea30f3	-0.4574047
6	0xbe90d735	-0.2828919
7	0x3e49d013	0.1970828

autoencoders.1.decoder.cells.0.cell_residual_transform.bias f4 [8]
0	0xbec84f91	-0.39123204
1	0xbf1df7c6	-0.617062
2	0x3e08400e	0.13305685
3	0x3e846ef8	0.25865912
4	0xbe6d7583	-0.23189358
5	0xbcd97242	-0.02654374
6	0xbf7aa333	-0.9790527
7	0xbecef12e	-0.4041838

autoencoders.1.decoder.output_layer.weight f4 [1, 8]
0	0xbe4cd4bf	-0.20003031
1	0xbebd319c	-0.3695191
2	0xbd95f0e5	-0.073213376
3	0xbeb1cf37	-0.34728405
4	0xbd0458d1	-0.032311264
5	0x3e1c60d8	0.15271318
6	0xbeb5e968	-0.35529637
7	0xbe0b21c9	-0.13587107

autoencoders.2.encoder.cells.0.weight_h_2 f4 [8, 8]
0	0x3d81d174	0.06338778
1	0x3e9bb679	0.30412653
2	0xbeb575ed	-0.35441533
3	0xbd9ab44c	-0.0755392
4	0x3d44bf27	0.04803386
5	0x3f067bd0	0.5253267
6	0xbde176b6	-0.110089704
7	0x3f15e553	0.58553046
8	0xb8721566	-5.7717225e-05
9	0xbe58e978	-0.21182811
10	0xba3291f9	-0.0006811913
11	0x3e224c93	0.15849523
12	0xbea0c031	-0.3139663
13	0x3f074733	0.52843016
14	0xbcae984a	-0.021312851
15	0x3e6d0be4	0.23149067
16	0x3d3c8063	0.046020877
17	0x3ea64a7c	0.32478702
18	0xbd17a194	-0.037019327
19	0xbcb80797	-0.022464557
20	0xbecf9d4f	-0.40549704
21	0xbdd7658a	-0.10517414
22	0x3e61ecba	0.2206296
23	0x3ef91240	0.48646736
24	0x3a0f7904	0.000547305
25	0xbecbee33	-0.3983017
26	0x3e2f0f25	0.17095621
27	0x3a48b96a	0.00076570234
28	0xbe31dc23	-0.17369132
29	0x3e8bcbb9	0.27303866
30	0xbee24c7b	-0.44198975
31	0x3f583cf0	0.84467983
32	0xbdb120b2	-0.08648814
33	0xbf1b1127	-0.6057305
34	0x3cc5c56a	0.024141986
35	0x3f467da1	0.77535444
36	0xbdad2048	-0.08453423
37	0x3eb3e5bf	0.3513622
38	0xbd4fd2f0	-0.050738275
39	0x3dd5f3bc	0.10446879
40	0x39aeab11	0.0003331532
41	0xbe3ad618	-0.18245733
42	0xb93cd498	-0.00018008274
43	0xbe8c3d26	-0.27390403
44	0x3a560ea8	0.0008165636
45	0x3e0c393d	0.1369371
46	0xbb3d049c	-0.0028841859
47	0x3f4094db	0.75227135
48	0xbda7fd12	-0.08202566
49	0xbba7d16c	-0.0051214006
50	0xbf2e365d	-0.680517
51	0xba639836	-0.0008682044
52	0xbdcc4cd6	-0.09975593
53	0x3eccc82a	0.39996463
54	0x3eb3999e	0.35078138
55	0xbe60d9dc	-0.21958107
56	0xbdf54ae2	-0.119771734
57	0x3ed06672	0.4070316
58	0xbd5a1394	-0.053241327
59	0xb949fb39	-0.00019262441
60	0xbdfea712	-0.1243421
61	0xbb39dbd1	-0.002835978
62	0xbe2b0f13	-0.16704969
63	0x3aa2062a	0.0012361456

autoencoders.2.encoder.cells.0.bias_h_2 f4 [8]
0	0x00000000	0.0
1	0x00000000	0.0
2	0x00000000	0.0
3	0x00000000	0.0
4	0x00000000	0.0
5	0x00000000	0.0
6	0x00000000	0.0
7	0x00000000	0.0

autoencoders.2.encoder.cells.0.lstm.weight_ih f4 [32, 1]
0	0xb924a5f7	-0.00015702086
1	0xbe0d215c	-0.13782257
2	0xbf14e28e	-0.58158195
3	0x3e720688	0.23635304
4	0x3e0acbcf	0.1355431
5	0x39823420	0.00024834368
6	0xbb43ddf3	-0.002988693
7	0x3ae7c186	0.0017681576
8	0x3be195e4	0.0068843234
9	0xb99f66ba	-0.0003040338
10	0xbea8c91c	-0.32965934
11	0xbd2e87c4	-0.042609945
12	0x3e0f81d1	0.14014365
13	0x3deb1b3e	0.114798054
14	0x3d36828a	0.044558086
15	0x3d3eacca	0.046551503
16	0x3db9de1e	0.090755686
17	0x3e99a465	0.30008236
18	0x3d434329	0.04767147
19	0x3ecb90dc	0.39758956
20	0xbef8f548	-0.48624635
21	0x3e052f7f	0.130064
22	0x3e6a41be	0.22876641
23	0xbd49d814	-0.049278334
24	0xb9701a06	-0.00022897878
25	0xbdbb2414	-0.09137741
26	0x3ed32b47	0.41243955
27	0xbd5273b4	-0.051379874
28	0xbd3719f6	-0.044702493
29	0xbded75dc	-0.115947455
30	0xbde72aa4	-0.1128743
31	0x3cdbe10d	0.026840711
