H1_2/ensemble_autoencoder_weights.pth (torch, 87914 bytes, 130 tensors)

autoencoders.0.encoder.cells.0.weight_h_2 f4 [8, 8]
0	0x3e5369e8	0.20645869
1	0xb7acf12d	-2.0616304e-05
2	0x3888ebaf	6.528885e-05
3	0xb7ca5c30	-2.4123205e-05
4	0xb8f90b6b	-0.00011875372
5	0xbea1cbb7	-0.31600735
6	0x38f2f6cb	0.00011585428
7	0xbe0f9e76	-0.14025292
8	0xbf092315	-0.53569156
9	0xbe0ef4ac	-0.13960522
10	0x3d137ff0	0.036010683
11	0xbe919e1e	-0.28440946
12	0xbd6f5e58	-0.058439583
13	0x3d102160	0.03518808
14	0x3ca5fb95	0.020261565
15	0x3e2b61f4	0.16736585
16	0x38024a6f	3.1063737e-05
17	0x3808f1d4	3.2650147e-05
18	0x3e82f5fb	0.25578293
19	0x366e888d	3.5544247e-06
20	0x3859396c	5.179031e-05
21	0xb9d6af3f	-0.0004094783
22	0xba993a63	-0.0011690374
23	0x3d8582f4	0.06519118
24	0x3957f72a	0.00020596074
25	0x3d99a998	0.075030506
26	0x3ddc3228	0.10751754
27	0x3718a2b7	9.097791e-06
28	0xbe3cef22	-0.18450597
29	0xbe1c20dc	-0.1524691
30	0x38b1f520	8.485676e-05
31	0xb80d31ad	-3.3663284e-05
32	0x3ece802b	0.4033216
33	0xb8cddf29	-9.8167286e-05
34	0x3f0e77fa	0.5565182
35	0xb8eed5b9	-0.00011388533
36	0x3e90f72f	0.28313586
37	0xb9537f0b	-0.00020169855
38	0x3e323b94	0.1740554
39	0xb8eed672	-0.00011388668
40	0x3c7e02e1	0.015503616
41	0xb94a9358	-0.00019319111
42	0x3d4951f0	0.049150407
43	0x3e45549a	0.19270554
44	0xbd1cda08	-0.03829387
45	0x3858d83b	5.1699793e-05
46	0xb90463b0	-0.00012625637
47	0xbde7d274	-0.113194376
48	0x3861335e	5.369202e-05
49	0xb817f241	-3.6226822e-05
50	0xb6833b1d	-3.910986e-06
51	0xb99bfa4a	-0.00029750384
52	0x3d4e0ab0	0.05030316
53	0x3d88c364	0.06677893
54	0x3548a661	7.474792e-07
55	0x3af302b6	0.0018540237
56	0x38893e9f	6.544333e-05
57	0xb9ca6a1b	-0.00038607497
58	0x378b0071	1.6570297e-05
59	0xbe9d81f9	-0.30763224
60	0x3eae409a	0.34033662
61	0xbe2b91de	-0.16754863
62	0x3e251db4	0.16124612
63	0xb89cd2d9	-7.477933e-05

autoencoders.0.encoder.cells.0.bias_h_2 f4 [8]
0	0x00000000	0.0
1	0x00000000	0.0
2	0x00000000	0.0
3	0x00000000	0.0
4	0x00000000	0.0
5	0x00000000	0.0
6	0x00000000	0.0
7	0x00000000	0.0

autoencoders.0.encoder.cells.0.lstm.weight_ih f4 [32, 1]
0	0x38a4b470	7.8537385e-05
1	0x367cff08	3.7699374e-06
2	0x35c5a71b	1.4726278e-06
3	0x38d83139	0.00010308851
4	0x3903ef95	0.00012582385
5	0x3e3dd302	0.18537524
6	0x3d431d50	0.047635376
7	0x3d084008	0.03326419
8	0x394ae237	0.00019348493
9	0xb841a9cb	-4.6172918e-05
10	0xb9a30f62	-0.00031101244
11	0xb89448a1	-7.070718e-05
12	0x3ed83c94	0.42233717
13	0x391afc86	0.00014780657
14	0xb8bad389	-8.9085726e-05
15	0x3e634916	0.22195849
16	0x38cec135	9.858833e-05
17	0xbdcaaedc	-0.09896633
18	0xba6f6876	-0.00091326924
19	0x3918edd4	0.00014584447
20	0xb80efa60	-3.4088618e-05
21	0x39228292	0.00015498165
22	0x39804fa8	0.0002447341
23	0x398ef82c	0.00027269253
24	0xb925eba4	-0.00015823409
25	0xbb10ff87	-0.0022124962
26	0x373774d5	1.0934852e-05
27	0xbd0e0c40	-0.03467965
28	0x3dff9ee4	0.12481478
29	0x3e7112a2	0.23542264
30	0x390d30a4	0.00013464928
31	0x3d71c198	0.059022516

autoencoders.0.encoder.cells.0.lstm.weight_hh f4 [32, 8]
0	0x37a108d8	1.9196814e-05
1	0xbdd40228	-0.10351974
2	0xb9a2c8ce	-0.0003104866
3	0xb9222858	-0.00015464553
4	0x38ce3016	9.831802e-05
5	0x38d03b82	9.929297e-05
6	0xb98934ed	-0.0002617011
7	0xb77727d2	-1.4731619e-05
8	0xbd984324	-0.07434681
9	0x399216cb	0.00027864272
10	0x39e39053	0.00043404344
11	0xbd11bb68	-0.035579115
12	0xbceb67cd	-0.02873602
13	0xbaba7c1c	-0.0014227661
14	0xbded6440	-0.11591387
15	0xbd8229f8	-0.06355661
16	0x362253fc	2.4188766e-06
17	0xb95e7a3c	-0.00021217106
18	0x3e3c9f74	0.18420202
19	0xb8d0a48a	-9.948861e-05
20	0xb776eca3	-1.4717839e-05
21	0x392799b5	0.00015983621
22	0x380d5a8b	3.3701344e-05
23	0x383ddf0c	4.526884e-05
24	0x3da03d40	0.078241825
25	0xb984871d	-0.0002527767
26	0xb9aded21	-0.00033173806
27	0x38a32b5a	7.7805205e-05
28	0x38c547bc	9.4070536e-05
29	0xbab4dd8a	-0.0013798934
30	0x39386611	0.0001758563
31	0x3992af06	0.00027977693
32	0xb91838cc	-0.00014517008
33	0xb7e2b517	-2.7025626e-05
34	0x397fb717	0.00024386901
35	0xb7cf5a34	-2.4718327e-05
36	0xb91e1d4e	-0.00015078971
37	0xb8f500ea	-0.000116826806
38	0x3a865c81	0.0010250957
39	0x3877fad8	5.9123005e-05
40	0xb8b86f94	-8.794587e-05
41	0xba561300	-0.00081662834
42	0x38d9e29b	0.00010389575
43	0xb88bdaab	-6.6687666e-05
44	0xbae3f76a	-0.0017392461
45	0x3c84f370	0.016229361
46	0x385b4917	5.228174e-05
47	0x38b8af52	8.80646e-05
48	0x35e65e87	1.7163846e-06
49	0x3980f2f3	0.00024595074
50	0x3dd097e4	0.10185221
51	0x3e0b89f6	0.13626847
52	0xbc0f1279	-0.008732432
53	0xbdcaad04	-0.09896281
54	0xb7f31b08	-2.8980445e-05
55	0xb92f9693	-0.00016745394
56	0x39be0c09	0.0003624859
57	0x38a13d57	7.688504e-05
58	0xb96eccd6	-0.00022773756
59	0x3986ff41	0.0002574865
60	0xb873d875	-5.8137306e-05
61	0x3cdceb8b	0.026967784
62	0x370dd2fc	8.4533785e-06
63	0xb63e7e50	-2.838573e-06
64	0xbb0a2137	-0.0021076926
65	0xbd634ab8	-0.05549118
66	0xb8318e1f	-4.233245e-05
67	0x38bf6449	9.126269e-05
68	0xbdb1a274	-0.086735636
69	0x397a90e8	0.0002389584
70	0x38211810	3.84078e-05
71	0xb922c189	-0.00015521621
72	0x38be5d3b	9.0772715e-05
73	0xb9ae3e00	-0.0003323406
74	0x3886b501	6.4233325e-05
75	0x3e321434	0.1739052
76	0x3dd17548	0.10227448
77	0xb9a92bbe	-0.00032266782
78	0x398db7a3	0.00027030436
79	0x382375f6	3.8972088e-05
80	0x38e716f2	0.00011019212
81	0x3b2b0d93	0.002610062
82	0xb8bb2670	-8.9240144e-05
83	0xb98fd27f	-0.00027431917
84	0x38d785a1	0.00010276889
85	0x37fb3c49	2.9949604e-05
86	0x3b3d7d07	0.0028913633
87	0xb8baea44	-8.9128065e-05
88	0xb9336ef8	-0.0001711211
89	0xb96613a6	-0.00021941829
90	0xbdb9013c	-0.090334386
91	0xb8c3b4bf	-9.331991e-05
92	0xb6632727	-3.3848426e-06
93	0x38a321a1	7.7787096e-05
94	0xb912a318	-0.00013984402
95	0x3830b636	4.2131367e-05
96	0x39b30e7c	0.00034152332
97	0xb964010c	-0.00021744164
98	0x370e4658	8.480238e-06
99	0x39e1fdc5	0.00043104417
100	0xb9e12e19	-0.0004294969
101	0xb92e4de8	-0.00016622955
102	0x3ddb1834	0.10697976
103	0x3e895b20	0.26827335
104	0x3d393bd8	0.045223087
105	0x39aced46	0.0003298318
106	0xb989d045	-0.0002628585
107	0xb826ef14	-3.9800143e-05
108	0xb94aaf96	-0.00019329632
109	0x3cfe51ef	0.031044928
110	0xb9a11807	-0.00030726215
111	0xb94f51d9	-0.00019771549
112	0xb93de82e	-0.00018110938
113	0xba746d49	-0.0009324146
114	0x383e2599	4.5334546e-05
115	0x38487411	4.779181e-05
116	0xb7c5819b	-2.3544582e-05
117	0x380a9d9e	3.3048556e-05
118	0xbe0773c0	-0.13227749
119	0xb71641c4	-8.956009e-06
120	0xb6bd14f3	-5.6350777e-06
121	0x3a84d8a9	0.001013537
122	0xbe0e12a2	-0.13874295
123	0xb9064e97	-0.00012808513
124	0xb90df9d7	-0.0001353988
125	0xb8255088	-3.9414066e-05
126	0xba451e0d	-0.00075194315
127	0x39318c37	0.0001693227
128	0xbe2b9906	-0.16757593
129	0xbd8d6664	-0.06904295
130	0x3d98ebd4	0.07466856
131	0xb919f1c9	-0.00014681289
132	0xb88eeb7c	-6.81495e-05
133	0xb795f697	-1.7877011e-05
134	0x3966f536	0.00022025857
135	0xb8de2475	-0.000105925756
136	0xbe32ec84	-0.17473036
137	0xb947e225	-0.00019062364
138	0x3ca68a55	0.020329634
139	0x394bdd1d	0.0001944196
140	0xb8a350c0	-7.7874865e-05
141	0xbc9c8c13	-0.019109761
142	0xbbfd24af	-0.0077253203
143	0xb8bdcd29	-9.050436e-05
144	0x3cee518d	0.02909162
145	0xb93e6fab	-0.00018161412
146	0x381ed962	3.787259e-05
147	0x39a04e0e	0.00030575733
148	0x396841b3	0.00022149719
149	0x3e3d3e2a	0.18480745
150	0x391f0d8b	0.00015168467
151	0x38b9de5e	8.8629065e-05
152	0x3622bb6d	2.4248977e-06
153	0x3c59eb9f	0.013300805
154	0xb85f5ad9	-5.325195e-05
155	0xb6d0cb1a	-6.222527e-06
156	0x3919e75f	0.0001467741
157	0x3cfe06af	0.031009046
158	0xb9829484	-0.00024906185
159	0x387006dd	5.722685e-05
160	0x37b08a25	2.1045164e-05
161	0x3c7dcc61	0.015490622
162	0xb911e8e0	-0.0001391503
163	0xbabe2e45	-0.0014509639
164	0xbb1dc2dd	-0.0024072446
165	0xb8ab8777	-8.179148e-05
166	0xb6a7c22b	-4.999592e-06
167	0x3819ad0d	3.663921e-05
168	0xb917cf6a	-0.0001447775
169	0x3702c6cf	7.794893e-06
170	0xb93692bf	-0.0001741154
171	0xbc45f2bc	-0.012081798
172	0xb8b54bb4	-8.6448534e-05
173	0x381b9550	3.7093938e-05
174	0xb9c9a3a0	-0.00038459618
175	0xb9d027d9	-0.0003970254
176	0xb8aa18ad	-8.110828e-05
177	0x39353a48	0.00017283217
178	0xb9089374	-0.00013024901
179	0xb7bca1af	-2.2486636e-05
180	0x3947d611	0.00019057865
181	0x3d0199a8	0.03164068
182	0x38d20662	0.00010014769
183	0x3891e498	6.956718e-05
184	0xbe9d3ef9	-0.30712107
185	0x38a3ceab	7.8109406e-05
186	0x3d9319f4	0.071826845
187	0xbe1a2ad0	-0.15055394
188	0x3998d1af	0.00029147926
189	0x39321ff9	0.00016987314
190	0xbe82ae61	-0.25523666
191	0xb901ffdb	-0.00012397712
192	0x390f7ba1	0.00013683598
193	0x38ce7ac0	9.8457094e-05
194	0x39103469	0.00013752434
195	0x3958b398	0.00020666269
196	0xb9cbd568	-0.00038878177
197	0x3b14aeca	0.002268719
198	0x3883d401	6.2860556e-05
199	0xb8ebdf3d	-0.000112472546
200	0x39a6a4c9	0.00031784762
201	0xb87ccb74	-6.0270962e-05
202	0x3e0e9078	0.13922298
203	0x3c800cf0	0.01563117
204	0x399524a6	0.000284468
205	0x3c09621a	0.008385206
206	0xb7a0c33b	-1.9164398e-05
207	0x37a74693	1.9940815e-05
208	0x3d523d18	0.051327795
209	0x39014348	0.00012327463
210	0xba8e4e5f	-0.0010857097
211	0x38df8833	0.00010658838
212	0xbb4a94ef	-0.0030911525
213	0x3861ed6e	5.3865304e-05
214	0xbe5804cc	-0.2109558
215	0x3843ce8e	4.6683992e-05
216	0xb9a644e0	-0.00031713303
217	0xb9f3dac5	-0.00046511568
218	0x39dae0b0	0.00041747605
219	0x3d4e95a0	0.050435662
220	0x3e80c84f	0.25152823
221	0xbe6af26e	-0.22944042
222	0x39ec5e54	0.00045083708
223	0x390ece28	0.00013618974
224	0x38ab20db	8.160035e-05
225	0x3952f119	0.00020116977
226	0x38caa229	9.662315e-05
227	0xbb3c4fc8	-0.0028734077
228	0x38205fec	3.8236307e-05
229	0x382019be	3.8170947e-05
230	0x398cec35	0.0002687887
231	0x3e8d628c	0.27614248
232	0x39c504ed	0.00037578438
233	0xb84eac22	-4.927454e-05
234	0x391aa2a2	0.0001474717
235	0xb93772d2	-0.00017495014
236	0xb94e6da7	-0.0001968654
237	0xb4dccbd0	-4.1126486e-07
238	0x390dca85	0.00013522252
239	0x38d51e1c	0.0001016224
240	0xbc0c289a	-0.008554602
241	0x3cb793e7	0.022409393
242	0xb9ade772	-0.00033169572
243	0x3906a4fb	0.00012840696
244	0x3da87ec8	0.082273066
245	0x3cc97489	0.024591701
246	0x37e1ed54	2.6932605e-05
247	0xb8074b61	-3.225671e-05
248	0x376bbd1b	1.4051121e-05
249	0xb8a78bd7	-7.989228e-05
250	0x381b7fb3	3.707381e-05
251	0x3987b6b4	0.0002588533
252	0xb917fd4e	-0.00014494846
253	0xb88eca31	-6.808749e-05
254	0xb8b5547a	-8.6464875e-05
255	0x39174f09	0.00014429925

autoencoders.0.encoder.cells.0.lstm.bias_ih f4 [32]
0	0x00000000	0.0
1	0x00000000	0.0
2	0x00000000	0.0
3	0x00000000	0.0
4	0x00000000	0.0
5	0x00000000	0.0
6	0x00000000	0.0
7	0x00000000	0.0
8	0x00000000	0.0
9	0x00000000	0.0
10	0x00000000	0.0
11	0x00000000	0.0
12	0x00000000	0.0
13	0x00000000	0.0
14	0x00000000	0.0
15	0x00000000	0.0
16	0x00000000	0.0
17	0x00000000	0.0
18	0x00000000	0.0
19	0x00000000	0.0
20	0x00000000	0.0
21	0x00000000	0.0
22	0x00000000	0.0
23	0x00000000	0.0
24	0x00000000	0.0
25	0x00000000	0.0
26	0x00000000	0.0
27	0x00000000	0.0
28	0x00000000	0.0
29	0x00000000	0.0
30	0x00000000	0.0
31	0x00000000	0.0

autoencoders.0.encoder.cells.0.lstm.bias_hh f4 [32]
0	0x00000000	0.0
1	0x00000000	0.0
2	0x00000000	0.0
3	0x00000000	0.0
4	0x00000000	0.0
5	0x00000000	0.0
6	0x00000000	0.0
7	0x00000000	0.0
8	0x00000000	0.0
9	0x00000000	0.0
10	0x00000000	0.0
11	0x00000000	0.0
12	0x00000000	0.0
13	0x00000000	0.0
14	0x00000000	0.0
15	0x00000000	0.0
16	0x00000000	0.0
17	0x00000000	0.0
18	0x00000000	0.0
19	0x00000000	0.0
20	0x00000000	0.0
21	0x00000000	0.0
22	0x00000000	0.0
23	0x00000000	0.0
24	0x00000000	0.0
25	0x00000000	0.0
26	0x00000000	0.0
27	0x00000000	0.0
28	0x00000000	0.0
29	0x00000000	0.0
30	0x00000000	0.0
31	0x00000000	0.0

autoencoders.0.decoder.cells.0.weight_h_2 f4 [8, 8]
0	0xbd1a29bc	-0.037637457
1	0x3e49a0ef	0.19690298
2	0x3ef87c76	0.48532456
3	0x3879d74e	5.9566744e-05
4	0xb97468f3	-0.0002330875
5	0xbc322b96	-0.0108746495
6	0x3c6e1ef8	0.014533751
7	0xbede1949	-0.43378666
8	0x3d1c96a4	0.0382296
9	0xbd30127f	-0.04298639
10	0x3ea006ad	0.31255093
11	0x3e945ea2	0.2897845
12	0x3eee4283	0.4653512
13	0x3efb9307	0.4913561
14	0x3e8e2c28	0.27768064
15	0x3d2002bb	0.039065104
16	0xbc71900a	-0.014743814
17	0x3f01f6c2	0.5076715
18	0x3ed0a527	0.40751
19	0x3f1cbb94	0.6122372
20	0xbe3613a6	-0.17780933
21	0xbcdaf681	-0.02672887
22	0x3e0623c7	0.13099585
23	0xbe688b8e	-0.22709486
24	0x37ea2b6d	2.7915195e-05
25	0xbe426b92	-0.18986347
26	0xbe5357e4	-0.20638996
27	0xbd95736a	-0.07297404
28	0x3dd8d2a9	0.10587055
29	0x3f0c4190	0.5478754
30	0x39056584	0.00012721686
31	0xbeac7439	-0.3368242
32	0x3dc120ee	0.09430109
33	0x3843ddc6	4.6698166e-05
34	0x3e5b0eca	0.2139236
35	0x3ef4b12d	0.47791424
36	0x3dd376b1	0.10325373
37	0x3e9e4f2f	0.30919787
38	0xbe8b9315	-0.27260652
39	0x3eac6474	0.3367039
40	0xbefbeb08	-0.49202752
41	0x3e94ca26	0.29060477
42	0xbd4ac8a4	-0.049507752
43	0x3e60e1ef	0.21961187
44	0xbe356357	-0.17713676
45	0x3ee503ff	0.4472961
46	0x3e378211	0.1792071
47	0xbe47b279	-0.19501676
48	0x3f1d54f7	0.6145777
49	0xbe32553b	-0.17415325
50	0xbed8bf84	-0.42333615
51	0xbc129823	-0.008947405
52	0xbf231ff9	-0.6372066
53	0xbe51a7cd	-0.20474167
54	0x3eb7ce40	0.35899544
55	0x3e4a916c	0.19782037
56	0xbf07f973	-0.53115004
57	0x3db9c3c7	0.09070545
58	0xbd0fe7fc	-0.035133347
59	0x3bcc0aea	0.006226887
60	0xbe12d624	-0.143395
61	0x3ecfbd00	0.40573883
62	0xbe693ff7	-0.22778307
63	0x3d82ed76	0.06392948

autoencoders.0.decoder.cells.0.bias_h_2 f4 [8]
0	0xbd4692fb	-0.048480015
1	0x3db89ca0	0.09014249
2	0xb89a0e35	-7.3459385e-05
3	0x3d9515f3	0.07279577
4	0x3d78459a	0.060613252
5	0x3d9eeb6b	0.07759746
6	0x3db1f1cc	0.08688697
7	0x3dbab2ae	0.09116112

autoencoders.0.decoder.cells.0.lstm.weight_ih f4 [32, 1]
0	0xbb55c842	-0.0032620584
1	0x3e5d2bd6	0.21598753
2	0xbd83bc20	-0.06432366
3	0x39daf8e6	0.00041765644
4	0xbccf13d8	-0.025278017
5	0xbcbcc930	-0.023045152
6	0x3d212ff0	0.039352357
7	0x3e8a8da2	0.27061182
8	0x379bd4e2	1.8576571e-05
9	0xbe2b661d	-0.16738172
10	0xbe7104cc	-0.23536986
11	0x39b582f4	0.00034620578
12	0x3854c206	5.0725437e-05
13	0xbcf32b1b	-0.02968364
14	0x3ad7136d	0.0016408988
15	0x3a42e96d	0.0007435296
16	0xbe04746f	-0.12935041
17	0x3e650a5f	0.22367238
18	0xbe59f616	-0.2128528
19	0xbd2e6e08	-0.042585403
20	0xbdc7b36f	-0.09751021
21	0x3eb08245	0.34474388
22	0xbd4576d2	-0.04820902
23	0xbbafdc90	-0.0053668693
24	0x3ea3f266	0.32020873
25	0x3ec0dd25	0.3766872
26	0xbe5e6fab	-0.21722285
27	0x37af7d9c	2.0920117e-05
28	0x380b67b8	3.3236778e-05
29	0x3dc95779	0.09831137
30	0x3e128133	0.14307098
31	0x3e0e921e	0.13922927

autoencoders.0.decoder.cells.0.lstm.weight_hh f4 [32, 8]
0	0xb8ee2fdf	-0.00011357641
1	0x3c18643b	0.009301241
2	0x38453de8	4.7026115e-05
3	0xb7ccca04	-2.4412766e-05
4	0x39cfef02	0.0003966019
5	0x3dcff531	0.101541884
6	0xbc965fd4	-0.018356241
7	0xbc800672	-0.015628073
8	0x3ee3ad35	0.44468084
9	0x3daff67b	0.08591934
10	0x3ec708cf	0.38873908
11	0xbe47f919	-0.19528617
12	0xb7cbec50	-2.4309527e-05
13	0xb6e69033	-6.871321e-06
14	0x3dca5923	0.09880283
15	0x3e647f0b	0.22314088
16	0x3ead44b3	0.33841476
17	0xb95283bb	-0.00020076234
18	0xb8a9df97	-8.100195e-05
19	0x3d077428	0.03306976
20	0x3586a5e2	1.0032056e-06
21	0x38f6a7e5	0.00011761467
22	0xbb8f34f3	-0.0043703257
23	0x38c60291	9.441854e-05
24	0xb89eea2a	-7.5776436e-05
25	0xbbf695e1	-0.007525191
26	0xb953e4d3	-0.00020207772
27	0x3d81a31e	0.0632994
28	0xb665d958	-3.425017e-06
29	0x3e089e92	0.1334174
30	0x3cd036a5	0.025416682
31	0x391b6bbd	0.00014822088
32	0x391eb6f2	0.00015136207
33	0xb75492bd	-1.267035e-05
34	0xbdf83842	-0.12120105
35	0x39b8dba9	0.00035258874
36	0xb5a7cafe	-1.2501548e-06
37	0x3889e225	6.574792e-05
38	0x39c7ea87	0.00038130974
39	0x3831718a	4.230583e-05
40	0xbe05b5cb	-0.1305763
41	0x3e652316	0.22376665
42	0x3de2e659	0.110790916
43	0xbe859ac8	-0.2609465
44	0x3aba9a5f	0.001423668
45	0x3e0ea0d9	0.13928546
46	0xbe4c01ba	-0.19922534
47	0x3eb20beb	0.34774718
48	0xbd9566b9	-0.072949834
49	0x3e4a1e58	0.19738138
50	0x3aaa7a38	0.0013006395
51	0xbe6706db	-0.22561209
52	0x3d5b8ed0	0.053602993
53	0x3e6dfb73	0.23240452
54	0xb6aa6357	-5.0779595e-06
55	0x3edee506	0.43534106
56	0x3c1e0c7d	0.009646532
57	0xbceaf528	-0.028681353
58	0x3d8c7340	0.0685792
59	0x37ae845f	2.0804056e-05
60	0x39b96ccf	0.00035367018
61	0x3e0c82ee	0.1372182
62	0x3eee3b61	0.46529678
63	0x3f184b39	0.5948978
64	0xbd5e19e4	-0.05422391
65	0x3d68816d	0.056764055
66	0x3e988ddf	0.2979574
67	0x3e05a5be	0.13051507
68	0x38c34ae9	9.312278e-05
69	0x3c5e36ec	0.013562899
70	0xb886daae	-6.43035e-05
71	0x3cbb06d0	0.022830397
72	0x38cd363e	9.785265e-05
73	0x3d927dff	0.07152938
74	0x3e360a14	0.17777282
75	0xbddeed55	-0.10885111
76	0x3e828f3c	0.25499904
77	0x3efcba05	0.49360672
78	0xbe734941	-0.23758413
79	0x3dc53dbb	0.09630915
80	0xb89c60a8	-7.456663e-05
81	0xbdd9822e	-0.10620533
82	0xbc9ef349	-0.019403117
83	0x38daac2b	0.00010427119
84	0x3d921d55	0.07134501
85	0xb88690e7	-6.416608e-05
86	0xbe2c9d3f	-0.1685686
87	0xb88d5623	-6.739448e-05
88	0xb95ad7f6	-0.00020870552
89	0x3967c6a0	0.0002210387
90	0xb8e0b385	-0.000107145905
91	0xbda46e41	-0.08028842
92	0xb9333fae	-0.00017094493
93	0x39b06541	0.00033644776
94	0xb9668d04	-0.00021987042
95	0x3c4a98cb	0.01236553
96	0xb8693bf2	-5.5607357e-05
97	0xb98afa40	-0.00026507862
98	0x39f04b3d	0.00045832424
99	0x387011ef	5.723716e-05
100	0xb8e61632	-0.00010971389
101	0x38c38ea3	9.324893e-05
102	0xb7d34332	-2.518445e-05
103	0xb82dde64	-4.145353e-05
104	0x394f35a0	0.00019761035
105	0x3d29c0a4	0.041443482
106	0x3b9e4ddb	0.0048310584
107	0xb7660984	-1.3711284e-05
108	0x3d015faf	0.03158539
109	0x3da03aee	0.0782374
110	0xbd02296e	-0.03177779
111	0xbd77a6b5	-0.06046172
112	0x38fa0f35	0.000119237615
113	0x3dd7a59a	0.10529633
114	0xbdff1c67	-0.12456589
115	0xbcb0a98e	-0.021565225
116	0x3848a686	4.7838803e-05
117	0xbd20c9aa	-0.03925482
118	0xbd364833	-0.04450245
119	0x3887f24a	6.4824315e-05
120	0xb88fc8a3	-6.856143e-05
121	0x3f339e15	0.7016309
122	0x3ea44a5b	0.3208798
123	0xbe4f7e92	-0.20263126
124	0xbd702ba4	-0.05863537
125	0xb995f49f	-0.00028601752
126	0x3ea4659a	0.32108766
127	0xbdfe7e33	-0.12426414
128	0x3da116d1	0.0786568
129	0xbe8a506f	-0.2701449
130	0xbe8f1aa0	-0.2795
131	0xb8131dee	-3.5075405e-05
132	0xbdf41907	-0.11918836
133	0xb8ca094b	-9.6338415e-05
134	0xbd805636	-0.062664434
135	0xbd604609	-0.05475429
136	0x3c674bfa	0.014117235
137	0x3eb3a7e4	0.35089028
138	0xb701a767	-7.727976e-06
139	0x3b358be7	0.0027701796
140	0x3ee5e8ea	0.44904262
141	0x3de5c442	0.11219074
142	0xbe646dc1	-0.22307493
143	0x3edf192a	0.43573886
144	0x38f0acb1	0.00011476258
145	0xbe1c1239	-0.15241326
146	0xbd96a614	-0.07355896
147	0x3dafdc38	0.08586925
148	0x3e641f41	0.22277547
149	0xbce0b756	-0.027431171
150	0x37a384be	1.9492927e-05
151	0xbdd36c32	-0.10323371
152	0x3e49b334	0.19697267
153	0x3d9235f8	0.071392
154	0x3c570d12	0.013125675
155	0x3e8f6d90	0.28013277
156	0x3ea1b1a4	0.31580842
157	0x3e38e552	0.18056229
158	0x3dc2029e	0.094731554
159	0xbec255dc	-0.3795613
160	0x388eb8a3	6.805479e-05
161	0x38106a53	3.4431298e-05
162	0x393c6900	0.00017968193
163	0xbe87338e	-0.2640652
164	0x3c2eecfd	0.01067662
165	0xbbb8a2b5	-0.0056346306
166	0x3eb0c4b3	0.3452507
167	0x3e48f39f	0.19624184
168	0xbe418dfa	-0.18901816
169	0x3e40f238	0.18842399
170	0xbe2c7a28	-0.16843474
171	0xbe00bf2e	-0.1257293
172	0xbd2979c2	-0.041375883
173	0x3dc938d4	0.09825292
174	0x3e6462db	0.22303335
175	0x3e925fc6	0.28588694
176	0xbd1df8dc	-0.03856741
177	0x3e8f96f9	0.2804487
178	0x3c9d5f25	0.019210408
179	0x3e1086ff	0.14113997
180	0x3f0e7bc6	0.55657613
181	0x3cf666b4	0.03007827
182	0x3e9228b6	0.28546685
183	0xbd19408c	-0.037415072
184	0x3d9852a8	0.074376404
185	0xbda99df5	-0.08282081
186	0x3ed053a7	0.40688822
187	0x3ed497e1	0.41522124
188	0xbec9980e	-0.3937382
189	0x3ef59bf7	0.47970554
190	0x3e1b5419	0.151688
191	0x3e40c81b	0.18826334
192	0xb7f65d48	-2.9368923e-05
193	0x3a78b518	0.0009487434
194	0x3c4139a3	0.011793527
195	0x38ffd89c	0.00012199694
196	0x38f78881	0.00011803304
197	0x3e130d99	0.14360656
198	0xbb199e7e	-0.0023440416
199	0xbe7cec72	-0.24699572
200	0x3e0c6d87	0.13713656
201	0x3e114694	0.1418708
202	0x3e95d667	0.29265139
203	0x3d5ac7d6	0.053413235
204	0x3e3382fb	0.17530434
205	0x3e23024b	0.15918843
206	0x3dd00946	0.10158019
207	0x3e55b840	0.20871067
208	0xba10a81d	-0.0005518215
209	0x3dfbbe73	0.12292185
210	0x3db3f3b9	0.08786721
211	0x38ef64ad	0.000114151604
212	0x3b227c77	0.0024793425
213	0xbe15c961	-0.14627601
214	0x39254e63	0.00015764828
215	0xbe0efc21	-0.13963367
216	0xb8cbab0e	-9.711656e-05
217	0x3d0341c8	0.032045156
218	0x38c1f4a4	9.248525e-05
219	0xb7b28126	-2.1279393e-05
220	0xb7cd059f	-2.4440522e-05
221	0x3b767dc9	0.0037611595
222	0x39f089fb	0.0004587917
223	0xb833642a	-4.277021e-05
224	0x3b249443	0.0025112785
225	0xb72f0667	-1.04323035e-05
226	0xb97aed81	-0.00023930335
227	0x3dd00f41	0.101591595
228	0xba093158	-0.0005233488
229	0xbc81dc4b	-0.015852114
230	0x3923c3ab	0.00015617783
231	0x39584d21	0.00020628098
232	0x38a99e7a	8.0880665e-05
233	0x3e968b8a	0.29403335
234	0xbde4baa3	-0.11168411
235	0xbe264200	-0.16236115
236	0x3d640c39	0.05567572
237	0xbcdad1f4	-0.026711442
238	0x3dff4f02	0.124662414
239	0x3eb5dc7d	0.35519782
240	0xb842b5ba	-4.642245e-05
241	0x3da9df23	0.08294513
242	0x3e9d3916	0.30707616
243	0xbce61c94	-0.028089799
244	0x3e9a44bf	0.30130574
245	0xb78f4324	-1.7078193e-05
246	0xbdcd161c	-0.10013983
247	0x3cdb46cd	0.026767159
248	0xbc852200	-0.016251564
249	0x3ed8db16	0.4235465
250	0x3e49e89c	0.1971764
251	0x3d0153eb	0.03157417
252	0x3dfcefb1	0.12350405
253	0x3e06237a	0.1309947
254	0x3e8affe6	0.2714836
255	0xbdc96c17	-0.098350696

autoencoders.0.decoder.cells.0.lstm.bias_ih f4 [32]
0	0x3c9337f0	0.017971009
1	0x3dad7f92	0.08471598
2	0x3812b024	3.4973156e-05
3	0x38cb06bf	9.681051e-05
4	0xb8a5b41c	-7.901361e-05
5	0x3dcc3397	0.099707775
6	0x3dccae2b	0.099941574
7	0x3d3d3671	0.046194497
8	0x3d13eef3	0.03611655
9	0x3dc88359	0.097906776
10	0x395a0c26	0.00020794626
11	0xb83e09d2	-4.5308676e-05
12	0x38c730d2	9.498153e-05
13	0x3de8c663	0.11365964
14	0x3df8e682	0.12153341
15	0x3da7f0ff	0.08200263
16	0xbd57bfb7	-0.052673068
17	0x3d8cbcb3	0.06871929
18	0x36baa132	5.5619976e-06
19	0x3dc316a6	0.09525804
20	0x3db45ed7	0.08807152
21	0x3da26f6f	0.079314105
22	0x3db5bffe	0.0887451
23	0x3d8a687c	0.0675821
24	0x3ca0d1f3	0.019631362
25	0x3dc935d7	0.09824722
26	0x38c5835d	9.41816e-05
27	0xb889adb5	-6.5650245e-05
28	0x39390769	0.00017645735
29	0x3deee405	0.11664585
30	0x3e05c429	0.1306311
31	0x3dcbbeae	0.09948479

autoencoders.0.decoder.cells.0.lstm.bias_hh f4 [32]
0	0x3c9337f0	0.017971009
1	0x3dad7f92	0.08471598
2	0x3812b024	3.4973156e-05
3	0x38cb06bf	9.681051e-05
4	0xb8a5b41c	-7.901361e-05
5	0x3dcc3397	0.099707775
6	0x3dccae2b	0.099941574
7	0x3d3d3671	0.046194497
8	0x3d13eef3	0.03611655
9	0x3dc88359	0.097906776
10	0x395a0c26	0.00020794626
11	0xb83e09d2	-4.5308676e-05
12	0x38c730d2	9.498153e-05
13	0x3de8c663	0.11365964
14	0x3df8e682	0.12153341
15	0x3da7f0ff	0.08200263
16	0xbd57bfb7	-0.052673068
17	0x3d8cbcb3	0.06871929
18	0x36baa132	5.5619976e-06
19	0x3dc316a6	0.09525804
20	0x3db45ed7	0.08807152
21	0x3da26f6f	0.079314105
22	0x3db5bffe	0.0887451
23	0x3d8a687c	0.0675821
24	0x3ca0d1f3	0.019631362
25	0x3dc935d7	0.09824722
26	0x38c5835d	9.41816e-05
27	0xb889adb5	-6.5650245e-05
28	0x39390769	0.00017645735
29	0x3deee405	0.11664585
30	0x3e05c429	0.1306311
31	0x3dcbbeae	0.09948479

autoencoders.0.decoder.output_layer.weight f4 [1, 8]
0	0xbd96ee82	-0.073697105
1	0x3e9d71ce	0.3075089
2	0xbd261e85	-0.04055645
3	0x3e2ca9f4	0.16861707
4	0x3d2ab466	0.041675948
5	0x3e666f0b	0.22503297
6	0x3eb56b76	0.3543355
7	0x3e6c2be5	0.2306362

autoencoders.1.encoder.cells.0.weight_h_2 f4 [8, 8]
0	0x38cb04ca	9.680686e-05
1	0xbe13f8ce	-0.1445038
2	0x3da86348	0.082220614
3	0xbcbfcaf8	-0.023412213
4	0x39268ba2	0.00015883011
5	0x3938fc9f	0.00017641716
6	0xbe95c79e	-0.29253858
7	0x395bed11	0.00020973782
8	0x3eb7b992	0.35883766
9	0xb9011d53	-0.00012313323
10	0xbe3cf32c	-0.18452138
11	0x3827e501	4.002918e-05
12	0x38832a9d	6.254504e-05
13	0xb91c04fc	-0.00014879176
14	0x39fc1637	0.00048081737
15	0xbf221bc8	-0.6332364
16	0xb8a3320f	-7.78177e-05
17	0x379ef036	1.8946925e-05
18	0xbdaba7e0	-0.08381629
19	0x3776939f	1.4697113e-05
20	0xb9071429	-0.00012882114
21	0x3e53b008	0.2067262
22	0xbddf93c8	-0.10916859
23	0x3e6e8f88	0.2329694
24	0x3819f86a	3.6709396e-05
25	0x38c8cfae	9.5754265e-05
26	0x39030a98	0.0001249708
27	0xb95a91a9	-0.00020844363
28	0x3e8791b4	0.2647835
29	0x39943227	0.00028266126
30	0x3e40a03a	0.18811122
31	0x39358d08	0.00017314043
32	0x3891b387	6.9475784e-05
33	0x3e63f808	0.22262585
34	0x3eb94487	0.36185095
35	0xbe02fc16	-0.12791476
36	0xb90f71a1	-0.00013679873
37	0x3eab5a6a	0.33467418
38	0xbe36445a	-0.17799512
39	0x3e7b56de	0.24544856
40	0x3b1fac0a	0.0024364018
41	0xb5267c70	-6.20209e-07
42	0x3d581790	0.052756846
43	0x39a7e46d	0.00032022913
44	0xb92d8568	-0.00016548263
45	0xbe732fe2	-0.23748735
46	0xb92c9d3d	-0.00016461774
47	0xbdd95514	-0.106119305
48	0xbe708f24	-0.23492104
49	0xb9784c85	-0.00023679629
50	0xb9906c00	-0.00027546287
51	0x3de1bc20	0.1102221
52	0x3d047d18	0.03234586
53	0xbdca69d4	-0.09883466
54	0xbd072ae0	-0.032999873
55	0x391c6d21	0.00014917973
56	0x3e22ea2c	0.15909642
57	0xb9ab9d45	-0.00032732837
58	0x39db86b7	0.00041871305
59	0xb88af342	-6.625663e-05
60	0x3ee47cc4	0.4462644
61	0xbe3acb72	-0.1824167
62	0xb8c667bf	-9.4607e-05
63	0xb818c684	-3.6424506e-05

autoencoders.1.encoder.cells.0.bias_h_2 f4 [8]
0	0x00000000	0.0
1	0x00000000	0.0
2	0x00000000	0.0
3	0x00000000	0.0
4	0x00000000	0.0
5	0x00000000	0.0
6	0x00000000	0.0
7	0x00000000	0.0

autoencoders.1.encoder.cells.0.lstm.weight_ih f4 [32, 1]
0	0x3980f8da	0.0002459947
1	0x3903f9d4	0.00012586202
2	0xb824affa	-3.9264538e-05
3	0x390e87b9	0.00013592736
4	0xb962d527	-0.00021632445
5	0xb8aef4b9	-8.34255e-05
6	0xba1bf68f	-0.0005949521
7	0x39e7867e	0.00044159958
8	0x3945e7ac	0.00018873689
9	0xb9644cb3	-0.00021772347
10	0x3ea2cbd1	0.31796125
11	0xb92a36c7	-0.0001623287
12	0x3e3249c4	0.17410952
13	0x398f7c04	0.00027367484
14	0xb914dab8	-0.00014195859
15	0x37dae4cc	2.6094167e-05
16	0x392ba6da	0.00016369988
17	0xbe95d4a4	-0.29263794
18	0xb9b24658	-0.00034003216
19	0xb64f5098	-3.0892315e-06
20	0x3852402a	5.012766e-05
21	0x38f09063	0.00011470986
22	0x39766a35	0.00023499953
23	0xb8a2d562	-7.7645076e-05
24	0x39af16cc	0.00033395586
25	0x391f7d32	0.0001521006
26	0xb9281b61	-0.00016031928
27	0x3dc0f7a0	0.09422231
28	0xb844b786	-4.690096e-05
29	0x39cef536	0.00039474078
30	0xb7cb8ef4	-2.4266054e-05
31	0x3938321e	0.00017566278

autoencoders.1.encoder.cells.0.lstm.weight_hh f4 [32, 8]
0	0x389475f1	7.079158e-05
1	0xb9a58d0f	-0.0003157635
2	0x3a87e3a8	0.001036753
3	0x3828d32c	4.025099e-05
4	0x37b6b17a	2.1778735e-05
5	0x390f0da0	0.00013642618
6	0x389cce4e	7.477087e-05
7	0x37e3c1ab	2.7150692e-05
8	0xb8933f4c	-7.021296e-05
9	0xbe24a570	-0.16078734
10	0x394bfb5a	0.00019453224
11	0xb861aeca	-5.3806965e-05
12	0x3817e79e	3.6216916e-05
13	0xb93d56ea	-0.00018056823
14	0x3924932d	0.00015695086
15	0x38637639	5.423112e-05
16	0x38fdb7e6	0.00012098234
17	0x38f1fa8d	0.00011538444
18	0x38ad76d4	8.271416e-05
19	0xba787cbb	-0.00094790355
20	0x39854d42	0.00025425298
21	0x3948e533	0.0001915887
22	0x3c4c139e	0.012455849
23	0x3d6d20d8	0.05789265
24	0xb912eaa3	-0.00014011054
25	0xb9561093	-0.00020414805
26	0xba08e928	-0.0005222731
27	0xb7940b7a	-1.7648319e-05
28	0xb920fbd0	-0.00015352597
29	0x3bfd48ef	0.0077296416
30	0xb8660ef3	-5.4850196e-05
31	0xb908190c	-0.00012979301
32	0x39793ee5	0.0002376992
33	0xb92d8af7	-0.00016550334
34	0xb87e0411	-6.0562106e-05
35	0xb8cf672d	-9.889747e-05
36	0xb7fbbbea	-3.0009036e-05
37	0x38bec0ed	9.095841e-05
38	0x38ac645a	8.220291e-05
39	0xbdae2d60	-0.08504748
40	0x369297f4	4.3688287e-06
41	0xbd3c6f18	-0.046004385
42	0xb9852b9a	-0.00025400223
43	0xb8abeb85	-8.197784e-05
44	0xb9083471	-0.00012989507
45	0xb8e55984	-0.000109362445
46	0x39d17bb7	0.0003995576
47	0xb94a700c	-0.00019305962
48	0x38772cfd	5.8931288e-05
49	0xb8163dd7	-3.582038e-05
50	0xb9863271	-0.00025596053
51	0xb78db3fe	-1.6892325e-05
52	0xb8ff93bd	-0.00012186866
53	0x3d8e1510	0.06937611
54	0xb7d3e4e5	-2.5259747e-05
55	0x396b5ec7	0.00022446654
56	0xb8804239	-6.1158506e-05
57	0xb7f2a616	-2.8925988e-05
58	0xb798eaa1	-1.822907e-05
59	0x3e0b07e2	0.13577226
60	0xb997f489	-0.00028983157
61	0xb8c03fdf	-9.16717e-05
62	0x3902cb7f	0.00012473574
63	0x3662dca6	3.3805059e-06
64	0xb9d6f467	-0.00040999355
65	0xb9978b8e	-0.0002890494
66	0xb8b6879a	-8.703694e-05
67	0x3806b170	3.211334e-05
68	0xb97e506c	-0.00024253287
69	0xb915bd5f	-0.00014280294
70	0xbd32d2d8	-0.043658108
71	0x3d620690	0.05518204
72	0xb979c833	-0.0002382107
73	0xb96fa4aa	-0.00022854158
74	0xb8e4684b	-0.00010891313
75	0x39de277b	0.00042372555
76	0x38e1d54d	0.000107685664
77	0x387548a4	5.8480204e-05
78	0xb80197de	-3.0897434e-05
79	0xb5285993	-6.2715225e-07
80	0xb99c1803	-0.0002977253
81	0xb8808302	-6.127918e-05
82	0x3864f966	5.4591706e-05
83	0x39e67423	0.00043955547
84	0xb985877e	-0.00025468686
85	0x37155263	8.900274e-06
86	0xb90877df	-0.00013014626
87	0x3d6f1678	0.058371037
88	0x38b6b1cb	8.711553e-05
89	0xb94c2f18	-0.000194725
90	0x3941a8b0	0.00018468755
91	0x38b1940e	8.467595e-05
92	0x3913d0cc	0.00014096795
93	0xb9c02726	-0.00036650262
94	0xbdbfec98	-0.093712986
95	0xb88e6112	-6.7891684e-05
96	0xb8562adf	-5.1061503e-05
97	0xb8510599	-4.9834696e-05
98	0x3942ff8a	0.00018596477
99	0x38839728	6.274722e-05
100	0x3e51c2e4	0.20484501
101	0x391996fc	0.00014647463
102	0x390e29d1	0.00013557753
103	0x3989d33c	0.00026288058
104	0x397ff53e	0.00024410055
105	0xb8c798e1	-9.517535e-05
106	0xb900aa61	-0.00012270502
107	0x35c5a92f	1.4726883e-06
108	0x389fcd9c	7.6200085e-05
109	0xb914e801	-0.00014200808
110	0x398f1be4	0.00027295866
111	0x3e20b746	0.15694913
112	0x3dd179e8	0.1022833
113	0x3517aca4	5.650311e-07
114	0x389979bb	7.3182826e-05
115	0xb8a8851b	-8.035657e-05
116	0x38b5c1b6	8.666834e-05
117	0xb91fb3f5	-0.00015230461
118	0x35dc07fb	1.63936e-06
119	0x39b8d9ef	0.00035257588
120	0x39532972	0.00020137968
121	0x38a8d572	8.0506215e-05
122	0xb87d155a	-6.0339786e-05
123	0x38a6f2b9	7.9607074e-05
124	0x3d917d14	0.07103935
125	0xb94e9faf	-0.00019705178
126	0xb94f4fd8	-0.00019770802
127	0xb924aef6	-0.00015705437
128	0xb8c4f24c	-9.3911396e-05
129	0xb987e60f	-0.00025920614
130	0xb8bc590b	-8.981124e-05
131	0x38ac86fa	8.2267405e-05
132	0xb8b432b6	-8.5925145e-05
133	0x3931189a	0.000168892
134	0xb70662ae	-8.009998e-06
135	0xb8d8fb8b	-0.00010346536
136	0x392d916e	0.00016552742
137	0x377b8cdc	1.4993562e-05
138	0xb98739d4	-0.00025792292
139	0xb929eaac	-0.00016204518
140	0xb7c6f804	-2.371893e-05
141	0xbe173222	-0.14765218
142	0xb8eb377c	-0.00011216008
143	0x391c418e	0.0001490174
144	0x3ab138af	0.0013520921
145	0x390c8afe	0.00013403219
146	0xb887e667	-6.4802174e-05
147	0xb8b7354f	-8.7360495e-05
148	0x39dffe46	0.00042723323
149	0x38725928	5.778033e-05
150	0xb7e98784	-2.7838869e-05
151	0x3d16a630	0.036779583
152	0xbabbf38a	-0.0014339548
153	0x390a5916	0.00013193893
154	0xba1c4d2a	-0.0005962426
155	0xb9932a8b	-0.00028069722
156	0x3950a826	0.00019899066
157	0xb94236ad	-0.0001852165
158	0xb895f72a	-7.1509116e-05
159	0xb9a9bd6e	-0.00032375328
160	0xb9583c06	-0.00020621726
161	0x39f40b86	0.00046547892
162	0xb86b952c	-5.6167293e-05
163	0x39899bc4	0.0002624673
164	0x3787eb57	1.6202843e-05
165	0xb6f80a94	-7.3922074e-06
166	0x3cdfc2cc	0.027314566
167	0xbcde65bb	-0.027148118
168	0xb92558ae	-0.00015768662
169	0xb89025e9	-6.8735164e-05
170	0x3982b1cf	0.0002492801
171	0xb959706f	-0.00020736617
172	0x3dfe7bec	0.1242598
173	0xb856a5b9	-5.1175917e-05
174	0xb864c951	-5.4546927e-05
175	0x3ceb030d	0.028687978
176	0xb8ece7e9	-0.000112965536
177	0x38c89ecf	9.5663236e-05
178	0xb88a0e16	-6.5829765e-05
179	0xb90a73c0	-0.00013203826
180	0xb907738a	-0.00012917645
181	0x393bb109	0.0001789966
182	0xb95ea35f	-0.0002123243
183	0xb8140093	-3.5286484e-05
184	0x397fd57f	0.00024398229
185	0x3901990d	0.00012359415
186	0x393b1a05	0.00017843403
187	0xbeac9f97	-0.33715507
188	0xbcbb8727	-0.022891594
189	0xb78ea3a8	-1.7003927e-05
190	0x388476f2	6.316406e-05
191	0xb8f3e5c2	-0.00011629939
192	0xb7894ad9	-1.6366526e-05
193	0x3d339b68	0.04384938
194	0x3994285c	0.0002825883
195	0x39ba9a47	0.0003559163
196	0xb6802418	-3.818899e-06
197	0x38eb59ac	0.00011222376
198	0xbe1419fc	-0.14463037
199	0xb7e602ed	-2.7419499e-05
200	0xbf02cdd8	-0.5109534
201	0x387ae4c1	5.981769e-05
202	0xb73c808b	-1.1235602e-05
203	0xbb594a77	-0.0033155957
204	0xb9231042	-0.00015550948
205	0xb89e7555	-7.555882e-05
206	0xb873b61b	-5.8105314e-05
207	0xb75b1bf1	-1.3059923e-05
208	0xb80c50c3	-3.3453816e-05
209	0x36e0992d	6.693552e-06
210	0x397bf83e	0.00024029703
211	0xb82e923b	-4.162102e-05
212	0x376cfd47	1.4125667e-05
213	0xbd852528	-0.065012276
214	0xba871686	-0.0010306395
215	0xb8b9404d	-8.8334644e-05
216	0xb9886415	-0.00026014508
217	0x3e433dac	0.19066495
218	0xb8fa43c2	-0.0001193355
219	0x38d747ab	0.00010265348
220	0xb9d015fa	-0.00039689225
221	0x3d852f8c	0.065032095
222	0x385b8f78	5.2347285e-05
223	0xbe4f2f0c	-0.2023279
224	0xb9aa57b7	-0.0003249028
225	0x39966264	0.00028683536
226	0xb89e37ae	-7.544398e-05
227	0x3d71f640	0.059072733
228	0x3827bcf9	3.9991897e-05
229	0x39110ece	0.00013833793
230	0xb9221099	-0.00015455707
231	0xb7c23de2	-2.3155419e-05
232	0xbdd31fd4	-0.10308805
233	0xbe8a4f84	-0.2701379
234	0x39fd7975	0.00048346413
235	0x3c052bd8	0.008128129
236	0x399ebd09	0.0003027695
237	0x38278526	3.9939907e-05
238	0xb90234a7	-0.0001241738
239	0x3d184f98	0.03718528
240	0x3dc2c258	0.095097244
241	0x3844445d	4.679371e-05
242	0x38e96105	0.00011128377
243	0x38a927e2	8.065977e-05
244	0x3e91abfc	0.28451526
245	0xb9058f25	-0.00012737194
246	0xb8c4497c	-9.359696e-05
247	0xb9317867	-0.00016924889
248	0x391f0b9d	0.00015167748
249	0xb6ff32ce	-7.6055067e-06
250	0x38d8c201	0.00010335819
251	0xb8a4fbf2	-7.867058e-05
252	0xbcff0f0f	-0.03113511
253	0x39de3d42	0.0004238878
254	0x3c1a2f5b	0.0094107045
255	0x3654665a	3.1650038e-06

autoencoders.1.encoder.cells.0.lstm.bias_ih f4 [32]
0	0x00000000	0.0
1	0x00000000	0.0
2	0x00000000	0.0
3	0x00000000	0.0
4	0x00000000	0.0
5	0x00000000	0.0
6	0x00000000	0.0
7	0x00000000	0.0
8	0x00000000	0.0
9	0x00000000	0.0
10	0x00000000	0.0
11	0x00000000	0.0
12	0x00000000	0.0
13	0x00000000	0.0
14	0x00000000	0.0
15	0x00000000	0.0
16	0x00000000	0.0
17	0x00000000	0.0
18	0x00000000	0.0
19	0x00000000	0.0
20	0x00000000	0.0
21	0x00000000	0.0
22	0x00000000	0.0
23	0x00000000	0.0
24	0x00000000	0.0
25	0x00000000	0.0
26	0x00000000	0.0
27	0x00000000	0.0
28	0x00000000	0.0
29	0x00000000	0.0
30	0x00000000	0.0
31	0x00000000	0.0

autoencoders.1.encoder.cells.0.lstm.bias_hh f4 [32]
0	0x00000000	0.0
1	0x00000000	0.0
2	0x00000000	0.0
3	0x00000000	0.0
4	0x00000000	0.0
5	0x00000000	0.0
6	0x00000000	0.0
7	0x00000000	0.0
8	0x00000000	0.0
9	0x00000000	0.0
10	0x00000000	0.0
11	0x00000000	0.0
12	0x00000000	0.0
13	0x00000000	0.0
14	0x00000000	0.0
15	0x00000000	0.0
16	0x00000000	0.0
17	0x00000000	0.0
18	0x00000000	0.0
19	0x00000000	0.0
20	0x00000000	0.0
21	0x00000000	0.0
22	0x00000000	0.0
23	0x00000000	0.0
24	0x00000000	0.0
25	0x00000000	0.0
26	0x00000000	0.0
27	0x00000000	0.0
28	0x00000000	0.0
29	0x00000000	0.0
30	0x00000000	0.0
31	0x00000000	0.0

autoencoders.1.decoder.cells.0.weight_h_2 f4 [8, 8]
0	0x3e0e21f1	0.13880135
1	0xbe8cfdbf	-0.27537343
2	0xbf3d7bbb	-0.7401692
3	0x3eec2502	0.46121985
4	0xbde20200	-0.11035538
5	0xbc866741	-0.016406657
6	0xbf2699ac	-0.65078235
7	0x3ed81b5b	0.4220837
8	0xbe1b7a57	-0.15183388
9	0xbefd2e4a	-0.49449378
10	0x3deb3b30	0.114858985
11	0xbea65384	-0.32485592
12	0x3d4f2e72	0.050581403
13	0x3e63de67	0.22252809
14	0x3f1b9bbe	0.6078452
15	0x3ee528ec	0.44757783
16	0x3ead07ed	0.3379511
17	0x3e67a3e2	0.2262111
18	0xbdbf3b9f	-0.09337544
19	0x3e27b435	0.16377337
20	0xb6b29afa	-5.322855e-06
21	0xbeafedfb	-0.34361252
22	0x3ea9bb60	0.33150768
23	0x3c51c3aa	0.012802998
24	0x3f022646	0.5083965
25	0x3e5e5b34	0.21714479
26	0xbe76225b	-0.24036543
27	0xbe286b05	-0.16447075
28	0x3e8f6c58	0.28012347
29	0xbec99d9d	-0.39378062
30	0x371719d9	9.0063195e-06
31	0x3f277abd	0.6542166
32	0xbefc3cc7	-0.4926512
33	0x3dda7525	0.10666875
34	0x3dd6ab2a	0.10481866
35	0xbed33354	-0.41250098
36	0xbf0b14e4	-0.5432875
37	0xbdb6c284	-0.0892382
38	0x3d58ef70	0.05296272
39	0x3e22364a	0.15841022
40	0xbd906d49	-0.070520945
41	0xbd456f5b	-0.0482019
42	0x37579f92	1.28521515e-05
43	0xbc8b3dd3	-0.016997254
44	0xbe6aaded	-0.2291791
45	0xbcd1aab6	-0.025594097
46	0xbdad6a84	-0.08467582
47	0x3e9dc0be	0.30811113
48	0xbda96268	-0.08270723
49	0x3c7eda8b	0.015555034
50	0x3d276929	0.040871773
51	0x3f16563f	0.5872535
52	0x3df5e765	0.12007026
53	0x3d73406a	0.059387602
54	0xbeab78cf	-0.33490607
55	0x3ea7ffd0	0.32812357
56	0x3f0370dd	0.5134409
57	0xbd391ae1	-0.04519165
58	0x3cd5de3c	0.026106946
59	0x3f45e0d5	0.7729619
60	0x3e134e04	0.1438523
61	0xbe605cc0	-0.21910381
62	0x3e98d0ff	0.2984695
63	0xbd802636	-0.06257288

autoencoders.1.decoder.cells.0.bias_h_2 f4 [8]
0	0x3dba4bf2	0.09096517
1	0x3db97c5a	0.09056921
2	0xbc8f3c10	-0.017484695
3	0xbd8b5ddf	-0.06805014
4	0x388ae135	6.622301e-05
5	0x3db7aae2	0.0896814
6	0xbd9144e0	-0.07093215
7	0x3da7500d	0.08169565

autoencoders.1.decoder.cells.0.lstm.weight_ih f4 [32, 1]
0	0x3900dd23	0.00012289411
1	0x3d10c588	0.03534463
2	0xb926e71b	-0.00015917087
3	0x385ccfef	5.264574e-05
4	0x391dc3e7	0.00015045666
5	0xbdda4f04	-0.10659602
6	0xbe654ef8	-0.22393405
7	0xbc46aa4f	-0.012125566
8	0xbdcda4ec	-0.10041222
9	0x3e86fd8b	0.26365313
10	0xb7b52efe	-2.1598764e-05
11	0x387b8952	5.9970953e-05
12	0xb8acc537	-8.238333e-05
13	0x3d258beb	0.04041664
14	0x3f03e46d	0.51520425
15	0x3e064f50	0.13116193
16	0x3e1cdd70	0.15318847
17	0x3e76ff75	0.24120887
18	0xbd4caa20	-0.04996693
19	0xbdc2a550	-0.09504187
20	0x3eb3ae31	0.35093835
21	0x3da43370	0.080176234
22	0xbe1e4094	-0.15454322
23	0x3f20357b	0.62581605
24	0xbe02779d	-0.12740941
25	0x3ece6c9e	0.40317243
26	0x36871f2c	4.0269424e-06
27	0x3eeccfe9	0.46252373
28	0x38559a1b	5.092668e-05
29	0x3ef6556e	0.48112053
30	0x3ec79074	0.38977396
31	0xbe5fbef5	-0.21850188

autoencoders.1.decoder.cells.0.lstm.weight_hh f4 [32, 8]
0	0x3ea31cc7	0.31857893
1	0x3e28aa00	0.164711
2	0x3d43d287	0.047808196
3	0x3eca9f25	0.39574543
4	0xbec5e831	-0.3865371
5	0x3ce3672e	0.02775916
6	0x3ef885e3	0.48539647
7	0x3e7b0246	0.24512586
8	0x3d3730e9	0.04472438
9	0x3d669364	0.056292906
10	0x3e8b2e88	0.27183938
11	0x3e5e72ad	0.21723433
12	0x3e0062cf	0.12537692
13	0x3c80eccc	0.015737914
14	0xbe2ee6df	-0.17080258
15	0x37e988d4	2.783948e-05
16	0xb92a8921	-0.00016263548
17	0x3ccb3201	0.024804117
18	0x38e9f17d	0.000111552865
19	0x391f5da7	0.0001519831
20	0x3a0cda6b	0.0005373123
21	0x392866d7	0.0001606004
22	0xb8233acf	-3.8916998e-05
23	0x35035d5d	4.8937164e-07
24	0x3ea8c1c9	0.32960346
25	0xbe544656	-0.20729956
26	0xbde69d51	-0.112604745
27	0x3e8d3020	0.2757578
28	0xb73092f3	-1.0524632e-05
29	0x3d206848	0.03916195
30	0xbeb56893	-0.35431346
31	0xb7df3a2e	-2.6610764e-05
32	0x3a4a1d16	0.00077100226
33	0x39ae8ad3	0.00033291298
34	0xbe3960b8	-0.18103302
35	0x3d917af1	0.07103527
36	0x38e3ee56	0.00010868597
37	0xbdd989d8	-0.10621995
38	0xb7e9ee7c	-2.7886817e-05
39	0x3e030fb4	0.12798959
40	0x3e088a9c	0.13334125
41	0x3c6010c6	0.013675874
42	0x3e7654ad	0.24055739
43	0x3ecc388b	0.3988689
44	0xb7e0d418	-2.6801645e-05
45	0x3e0239ef	0.12717412
46	0x3de71877	0.11283963
47	0x394fa22b	0.0001980147
48	0x3e57f272	0.2108858
49	0x3d858702	0.06519891
50	0x3c30bc4e	0.010787083
51	0x3e6b6c55	0.22990544
52	0xbd1a2fd6	-0.037643276
53	0x3e96ca20	0.29451084
54	0x3e601fb3	0.21887092
55	0xbd5806f6	-0.052741013
56	0x3883d8c5	6.286943e-05
57	0xba5f5582	-0.00085195166
58	0x38ff1fb0	0.0001216525
59	0xb909fd07	-0.00013159598
60	0xba05e562	-0.0005107728
61	0x3db36ed6	0.08761375
62	0x38f85e5c	0.00011843137
63	0x370c3e61	8.359174e-06
64	0x3e206706	0.156643
65	0xbd61368a	-0.054983653
66	0x3d90e721	0.07075334
67	0xbd18241f	-0.037143823
68	0x3d9d8105	0.07690624
69	0x3e82cfe5	0.25549236
70	0x38df6944	0.00010653076
71	0xbd448695	-0.04797991
72	0x3ef5a037	0.47973797
73	0x3e147a54	0.1449979
74	0x3dabd207	0.08389669
75	0xb94f79cc	-0.00019786431
76	0x3ddbf34a	0.10739763
77	0x3eca1016	0.39465398
78	0x354d430d	7.6466023e-07
79	0x3e8f80e3	0.2802802
80	0x392db7ff	0.0001656711
81	0x385bbb77	5.238826e-05
82	0xbb2605d9	-0.0025333075
83	0xb87a2201	-5.9636313e-05
84	0xb90d07fe	-0.00013449785
85	0xbb1d324d	-0.002398628
86	0xb967edfd	-0.00022118534
87	0x3cbe0e76	0.023200255
88	0xbf1650eb	-0.5871722
89	0xb9810538	-0.00024608686
90	0xb81571b2	-3.5630255e-05
91	0x3e48f6fb	0.19625466
92	0xbdafe39b	-0.08588334
93	0xbead4a30	-0.33845663
94	0x38c1fedb	9.250428e-05
95	0xb884e488	-6.336818e-05
96	0xbe977017	-0.29577705
97	0xb7faad36	-2.988298e-05
98	0x3e544615	0.20729859
99	0x386ff841	5.7213245e-05
100	0xb9dc824a	-0.00042058743
101	0x37db9f41	2.6180993e-05
102	0x392341ed	0.0001556945
103	0x3cdc901e	0.02692419
104	0x3f0335ae	0.51253784
105	0xbd9577d8	-0.07298249
106	0x3c1f5ce1	0.009726734
107	0x3dc4b1dd	0.09604237
108	0x3efd0f55	0.4942576
109	0xbdac003b	-0.083984815
110	0x3d67a8d1	0.05655748
111	0xbdccfc11	-0.10009015
112	0xb81e94fc	-3.7808888e-05
113	0xbe5ef4db	-0.21773092
114	0x3c9dc8e3	0.01926083
115	0xbcefe32d	-0.02928313
116	0x35b6801e	1.3597344e-06
117	0xbd8ba21c	-0.06818029
118	0x3ac028c7	0.001466059
119	0xb78a268a	-1.6468828e-05
120	0x3e4f1fd1	0.20226981
121	0x3d941451	0.072304375
122	0xbddb55ee	-0.10709749
123	0x3d5b6a43	0.053568136
124	0x38dbb7e9	0.0001047699
125	0x3c46777a	0.012113446
126	0xb94b833f	-0.00019408482
127	0x3ddd1ef1	0.10796917
128	0x3e2facdb	0.17155783
129	0x3f23ed27	0.6403374
130	0x3ee6e4f5	0.45096555
131	0xbdf67f04	-0.12035945
132	0xbd951f1c	-0.07281324
133	0x3dca665b	0.09882804
134	0x3de9ac86	0.11409859
135	0xbd6a9ea3	-0.057280194
136	0xbe93ae9b	-0.2884415
137	0x3e1f8c84	0.15580946
138	0xbd9979ee	-0.07493959
139	0x3e9ad772	0.30242497
140	0x3d383b6a	0.044978537
141	0x3e9bc804	0.30426037
142	0x3e9389b8	0.2881601
143	0x3e1441f4	0.14478284
144	0x3e094d63	0.13408427
145	0x3d61df95	0.055144865
146	0xbd4dc32f	-0.05023497
147	0xbe9c56f7	-0.305351
148	0x36b82d6c	5.488915e-06
149	0xbe0282be	-0.12745187
150	0xb7b0ed3a	-2.1091302e-05
151	0xbb6d9fe6	-0.0036258637
152	0xbd91be6f	-0.071164005
153	0x3db7f8f7	0.08983033
154	0x3e185412	0.1487582
155	0x3ec68761	0.3877516
156	0xbe0fc98c	-0.14041728
157	0x3d6aef13	0.057356905
158	0xbda2eccf	-0.07955324
159	0xbe42d923	-0.19028144
160	0x3c83779c	0.016048245
161	0x3dcd0bf5	0.10012046
162	0x3a21c10b	0.0006170428
163	0xbd9e5046	-0.07730155
164	0x3f024d09	0.50898796
165	0xb5f04eff	-1.7904384e-06
166	0x37b997e0	2.212444e-05
167	0xb83f84d4	-4.5661654e-05
168	0x3ea504e3	0.3223029
169	0x3d05956e	0.03261321
170	0x3e52afda	0.20574895
171	0x3d55974e	0.05214625
172	0x3d7680e3	0.06018151
173	0xbcf98d35	-0.03046284
174	0x3e371dea	0.17882505
175	0x3e5cf9b8	0.21579635
176	0xbec4b9ad	-0.3842291
177	0xbb029443	-0.0019924797
178	0xbdc31eff	-0.095273964
179	0x3d45bbcf	0.04827481
180	0x3b7c5ca0	0.0038507357
181	0xbe881d0d	-0.26584664
182	0x3d9972b6	0.074925825
183	0xbe8c501c	-0.2740487
184	0xbec3fd86	-0.3827936
185	0x3c9c9a25	0.01911647
186	0xbeb0be2c	-0.3452009
187	0x3c460ab6	0.012087515
188	0x3d48fa94	0.049067095
189	0x3ea2e5b7	0.31815884
190	0x3cf8d6c1	0.03037584
191	0xbcb99877	-0.022655709
192	0x3e5540ef	0.20825551
193	0x3ea319a6	0.31855506
194	0x383bbb70	4.475884e-05
195	0x3dbda60f	0.09260189
196	0xba890ad7	-0.0010455501
197	0xbde407bb	-0.11134287
198	0xbd0100ee	-0.031495027
199	0x3ee8fd56	0.4550578
200	0xbd9001c0	-0.07031584
201	0x3e1998fa	0.14999762
202	0x3e5c88e0	0.21536589
203	0xbdb32e19	-0.08749027
204	0xb3d72d72	-1.0019984e-07
205	0x3e309798	0.17245328
206	0x3c3d5763	0.011556479
207	0x3ee7ac9c	0.45248878
208	0xb9009d66	-0.00012265667
209	0xb90111ea	-0.00012309072
210	0xb92f5943	-0.00016722553
211	0xb831b854	-4.2371757e-05
212	0x390bbadc	0.00013325684
213	0x39897a6e	0.00026221893
214	0xb927f202	-0.00016016516
215	0xbd211791	-0.039329115
216	0xb8fe46a1	-0.000121248195
217	0xbe9c46c8	-0.30522752
218	0x38f047e2	0.00011457481
219	0xb8a71601	-7.967279e-05
220	0xbd65bf7f	-0.056090828
221	0x3e5358f9	0.20639409
222	0x3e7ba885	0.24576004
223	0x3e11b18b	0.14227884
224	0x3e69ccf6	0.22832093
225	0x3c9d1ece	0.019179728
226	0x38154110	3.5584962e-05
227	0x37552c1e	1.2706061e-05
228	0x36c01675	5.7246602e-06
229	0xba93bcc5	-0.0011271468
230	0x3c662006	0.014045721
231	0xbe79b4a7	-0.2438532
232	0x380855a4	3.2504686e-05
233	0x3eb0d229	0.3453534
234	0xbe39cf89	-0.18145575
235	0xbcd56512	-0.02604917
236	0x3a73decd	0.0009302914
237	0x3d8867a8	0.06660396
238	0x3d0ff1a8	0.03514257
239	0x3e720df4	0.23638135
240	0x3e78726c	0.24262398
241	0xbd821ad5	-0.06352774
242	0x3b3993fa	0.002831696
243	0xbc3d9701	-0.011571647
244	0x3ef036e7	0.46916887
245	0xbd80aab7	-0.06282561
246	0x3d03b972	0.032159276
247	0xbd29d1c9	-0.041459832
248	0x3dcd9587	0.10038286
249	0x3ea93bbf	0.33053395
250	0x38ce1308	9.82639e-05
251	0x3de12d57	0.10994976
252	0xbd94c645	-0.072643794
253	0x3e5eb55f	0.21748875
254	0xbcba22a6	-0.0227216
255	0xbe137f42	-0.14404014

autoencoders.1.decoder.cells.0.lstm.bias_ih f4 [32]
0	0x3dba4813	0.09095778
1	0x3d8900b9	0.06689591
2	0xb8a0cbbd	-7.667344e-05
3	0xb7a37eb8	-1.9490122e-05
4	0xb7b45b61	-2.1500224e-05
5	0x3dc4b9f8	0.09605783
6	0x3d5d9e7f	0.05410623
7	0x3d4123f6	0.047153436
8	0x3de55539	0.111978956
9	0x3d9e2da1	0.07723547
10	0x378a4e3a	1.6487309e-05
11	0xb72add8f	-1.0184375e-05
12	0x38a74b3f	7.977196e-05
13	0x3de1ab53	0.110190056
14	0x3d8640fd	0.06555364
15	0x3d9e7829	0.077377625
16	0x3da358b7	0.079759054
17	0x3d8acd6c	0.06777462
18	0xbcce3715	-0.02517275
19	0xbd864654	-0.06556383
20	0x37094098	8.180876e-06
21	0x3da7db58	0.081961334
22	0xbd5339fe	-0.051568978
23	0x3da8c298	0.08240241
24	0x3de91786	0.1138144
25	0x3dc8c35b	0.09802886
26	0x394f5dce	0.00019776003
27	0xb58a7744	-1.0316512e-06
28	0x37780259	1.47824985e-05
29	0x3dd03a28	0.101673424
30	0x3d8dc6aa	0.06922658
31	0x3de8d6b4	0.11369076

autoencoders.1.decoder.cells.0.lstm.bias_hh f4 [32]
0	0x3dba4813	0.09095778
1	0x3d8900b9	0.06689591
2	0xb8a0cbbd	-7.667344e-05
3	0xb7a37eb8	-1.9490122e-05
4	0xb7b45b61	-2.1500224e-05
5	0x3dc4b9f8	0.09605783
6	0x3d5d9e7f	0.05410623
7	0x3d4123f6	0.047153436
8	0x3de55539	0.111978956
9	0x3d9e2da1	0.07723547
10	0x378a4e3a	1.6487309e-05
11	0xb72add8f	-1.0184375e-05
12	0x38a74b3f	7.977196e-05
13	0x3de1ab53	0.110190056
14	0x3d8640fd	0.06555364
15	0x3d9e7829	0.077377625
16	0x3da358b7	0.079759054
17	0x3d8acd6c	0.06777462
18	0xbcce3715	-0.02517275
19	0xbd864654	-0.06556383
20	0x37094098	8.180876e-06
21	0x3da7db58	0.081961334
22	0xbd5339fe	-0.051568978
23	0x3da8c298	0.08240241
24	0x3de91786	0.1138144
25	0x3dc8c35b	0.09802886
26	0x394f5dce	0.00019776003
27	0xb58a7744	-1.0316512e-06
28	0x37780259	1.47824985e-05
29	0x3dd03a28	0.101673424
30	0x3d8dc6aa	0.06922658
31	0x3de8d6b4	0.11369076

autoencoders.1.decoder.output_layer.weight f4 [1, 8]
0	0x3e9a60b6	0.3015191
1	0x3e9f6460	0.31131268
2	0xbd294007	-0.041320827
3	0xbe2a392f	-0.16623376
4	0x3cc9c0f0	0.024628133
5	0x3e9b60b5	0.3034722
6	0xbe501db0	-0.20323825
7	0x3dd42d95	0.103602566

autoencoders.2.encoder.cells.0.weight_h_2 f4 [8, 8]
0	0xbe27014a	-0.16309085
1	0xb968fa19	-0.00022218413
2	0x38d15ea1	9.9835226e-05
3	0x39ad8dcb	0.00033102775
4	0x3e002a40	0.12516117
5	0x3e09e812	0.13467434
6	0xb6cf4f8f	-6.1783426e-06
7	0xbd2672b8	-0.040636748
8	0x3850881b	4.9717823e-05
9	0x3e8debe9	0.27719048
10	0xb9365411	-0.0001738819
11	0xbdae4c00	-0.085105896
12	0x394561f7	0.00018823879
13	0x3ea5203c	0.32251155
14	0x380c2252	3.3410564e-05
15	0x3902d681	0.00012477675
16	0x382fd512	4.192169e-05
17	0xbb48850f	-0.0030596887
18	0xb868ca1d	-5.5501343e-05
19	0xbb4bde0f	-0.00311077
20	0x37352fc3	1.0799561e-05
21	0xba661f94	-0.0008778509
22	0xb9d733ea	-0.00041046675
23	0xb905dcdd	-0.00012766146
24	0xbf210ca8	-0.62909937
25	0xbe93d446	-0.2887289
26	0x392bc022	0.00016379406
27	0xbf8111f5	-1.0083605
28	0xb8d9684b	-0.000103667924
29	0xb96df548	-0.00022693456
30	0x39e20d96	0.000431162
31	0x396bca22	0.00022486647
32	0x39043010	0.00012606406
33	0x3d8ca63c	0.06867644
34	0x398f1c84	0.0002729633
35	0xb9276d67	-0.00015967117
36	0x39d05347	0.00039734898
37	0x38a67b16	7.9384234e-05
38	0x3cfbab3f	0.030721305
39	0xb9310d98	-0.000168851
40	0xbd8faa68	-0.07014924
41	0xb90d6699	-0.00013485028
42	0xbe2ea380	-0.17054558
43	0xb8c025b8	-9.162299e-05
44	0xb715ab6a	-8.9210025e-06
45	0xbe434c2a	-0.19072023
46	0xb79fb19b	-1.9036981e-05
47	0x3850ef78	4.9814087e-05
48	0x390ca9a8	0.00013414642
49	0xb8b9b8cc	-8.8559085e-05
50	0x3b345587	0.0027516799
51	0x3e8f27fb	0.2796019
52	0x3e77e76c	0.24209374
53	0xbe3f0704	-0.1865502
54	0x3dda990c	0.106737226
55	0x39920966	0.00027854292
56	0xb8d7c434	-0.000102885446
57	0xbf077a44	-0.5292094
58	0xbdece508	-0.11567122
59	0x390ca7eb	0.00013413995
60	0xbeefeb8a	-0.4685939
61	0xb92f9435	-0.00016744512
62	0x3e508a82	0.20365337
63	0xb9532fa9	-0.00020140283

autoencoders.2.encoder.cells.0.bias_h_2 f4 [8]
0	0x00000000	0.0
1	0x00000000	0.0
2	0x00000000	0.0
3	0x00000000	0.0
4	0x00000000	0.0
5	0x00000000	0.0
6	0x00000000	0.0
7	0x00000000	0.0

autoencoders.2.encoder.cells.0.lstm.weight_ih f4 [32, 1]
0	0xbe955a03	-0.29170236
1	0x3c932402	0.017961506
2	0xbdcdf2d0	-0.100560784
3	0x39e81069	0.00044262715
4	0xb8959f73	-7.1345734e-05
5	0x394b4306	0.00019384557
6	0xb9e519ab	-0.00043697408
7	0x37b319eb	2.1350532e-05
8	0x383f3644	4.5588487e-05
9	0x3cc19458	0.023630306
10	0xbd52bad0	-0.05144769
11	0x396afb7c	0.00022409664
12	0xb9c7ccdc	-0.0003810887
13	0x3966fd2d	0.00022028825
14	0x38a11a77	7.682008e-05
15	0xb9548475	-0.0002026724
16	0xb8a42a0f	-7.8279634e-05
17	0xb5bac60d	-1.391572e-06
18	0x3d53bdf0	0.05169481
19	0xb78ab823	-1.6536627e-05
20	0xbcba4907	-0.0227399
21	0x387dff42	6.0557628e-05
22	0xb9626fba	-0.00021594661
23	0x395f3d8e	0.00021289868
24	0xb98e3d79	-0.0002713015
25	0xbcdb17cb	-0.026744744
26	0xb9be32e5	-0.00036277543
27	0x399ba633	0.00029687732
28	0x39da1b50	0.0004160055
29	0x3e973831	0.29535058
30	0xb8887ed9	-6.5086126e-05
31	0xb971683e	-0.00023022384
